tutorial/DLPFC_output/version_0/checkpoints/mlp.ckpt (torch, 17985 bytes, 12 tensors)

model.classifier.0.weight f4 [30, 30]
000000 f3 94 94 bd 19 49 12 be 20 ac 06 3e a1 ea f1 bd
       -0.07254972 -0.14285697 0.13151598 -0.1181233
000010 b3 e1 c4 3d e5 27 24 be f3 40 57 be fd 43 65 3d
       0.09613361 -0.16030844 -0.2102087 0.05597304
000020 9e d0 39 be bc bb e1 3c 42 5f 29 bd 5a ef 68 bd
       -0.18145987 0.027555339 -0.04135061 -0.05686889
000030 b0 aa b2 bd 3b 9c 16 3e 69 ee 91 3d 14 a6 0e bd
       -0.08723962 0.14708035 0.07125551 -0.034826353
000040 62 ef 3a 3d 8a 8e b2 bc e0 4e d0 3d 88 68 79 be
       0.04563845 -0.021796484 0.10171294 -0.24356282
000050 c9 eb 4f bd c8 e4 ae 3c b4 15 9e 3d 24 18 c3 bd
       -0.05076197 0.021349326 0.07718983 -0.09526089
000060 34 24 00 be 58 04 0a bd 6e 51 7c bd a5 6b 00 3d
       -0.1251381 -0.03369555 -0.061601095 0.031352658
000070 48 e9 46 be 80 b1 df bd 01 74 47 3a ae 92 12 be
       -0.19424927 -0.10922527 0.00076085335 -0.14313766
000080 0e f2 60 3d 3a ed 94 3d 29 cd 13 3d 9a 0a d6 bc
       0.05491834 0.0727181 0.036084328 -0.026128102
000090 16 e9 75 bd 9d 48 fc 3c 1f 9a a7 bd c1 99 16 3e
       -0.06003674 0.030796343 -0.08183693 0.1470709
0000a0 79 6e 82 bd 76 80 bc bd ca 84 bf 3d fc 37 9c 3c
       -0.06368727 -0.092041895 0.093514994 0.019069664
0000b0 45 48 a7 3d 02 e9 ef bb bd e2 8a bc b1 88 ae bd
       0.08168081 -0.007321478 -0.01695382 -0.085221656
0000c0 72 b2 0a 3d 1a ff 55 bc 03 0b 1c 3e 5a b5 5c bc
       0.033861585 -0.013061309 0.15238576 -0.013470972
0000d0 d6 89 a0 3c 78 0a 18 3e 21 42 3c bd ac 9f 0b bd
       0.019596975 0.14847744 -0.045961503 -0.03408782
0000e0 24 fe 87 3b c9 88 2a bb 24 69 fc 3d ee 3d ce bd
       0.004150169 -0.0026021472 0.123247415 -0.10070406
0000f0 db 6c cc 3d f7 9d 1a bd 57 64 ea bc 9c 01 fa 3d
       0.099817 -0.037748303 -0.028612299 0.12207338
000100 70 18 24 bd b8 e1 62 3d 2e 8d 32 3d 9d b8 1b bd
       -0.040062368 0.055391043 0.04359167 -0.038017858
000110 a5 18 17 bb e4 2f de 3d d2 b8 b6 bd f9 a5 3c bd
       -0.002305546 0.10848978 -0.089219704 -0.04605672
000120 10 b4 b4 3d b7 cf c1 bd 46 dc 77 3d c0 8a b1 3c
       0.08823407 -0.094634466 0.060512803 0.021672606
000130 51 2c 03 bd f7 dc d4 bc c7 6f 34 bd f0 26 52 3d
       -0.032024685 -0.02598427 -0.04405191 0.051306665
000140 68 98 06 3e c5 9a d4 bc 44 7b cf bc c9 56 1e 3e
       0.13144076 -0.025952706 -0.025327332 0.15462793
000150 f7 7f 43 3d 55 ca 8f 3d 3c e6 3a 3d 8a b8 28 3d
       0.04772946 0.07021014 0.045629725 0.041191615
000160 07 66 22 3e f0 71 70 3c ae 12 c4 bd 20 2c 93 bb
       0.15859233 0.014675602 -0.09573875 -0.004491344
000170 43 ed 53 3d e5 c3 f2 bd 30 3a 09 3b 42 07 2d bd
       0.051739942 -0.1185377 0.0020939223 -0.04224325
000180 93 9c 47 bd 4c 80 a8 bd 3c 0d 89 3d b4 16 94 bd
       -0.048733305 -0.08227596 0.066919774 -0.07230893
000190 4c 9c d9 3c 7e e3 b8 3d 4b d0 24 be 65 45 17 3e
       0.026563786 0.09027766 -0.16095082 0.14772566
0001a0 d1 42 13 bd a3 f6 60 3c c1 cf c7 3d 7c fc 3d 3e
       -0.035952393 0.013730678 0.09756423 0.18553346
0001b0 37 84 d2 3c 12 d5 5d b8 04 e5 da bd 13 a1 56 3d
       0.02569781 -5.2888943e-05 -0.106882125 0.052399706
0001c0 82 e7 b5 bd ab e8 7c be 4f 1d 44 bd 5c e2 33 3b
       -0.08882047 -0.24698131 -0.047879513 0.0027448153
0001d0 9e 0a 83 bb 9a f4 ac bc 34 26 16 be 67 75 ff bc
       -0.0039990684 -0.021112729 -0.14663011 -0.031183911
0001e0 d5 9a 3c bc 2d cc 36 3c 56 ce 3d bd 35 33 ad 3d
       -0.011511524 0.011157078 -0.046339355 0.084570326
0001f0 6e fa ab bd 98 3d 1a 3e d0 9d 1c 3e 8f 0e 1d be
       -0.08397375 0.15062559 0.15294576 -0.15337585
000200 b3 19 58 3e 46 fc 12 3d 6a e2 c0 3a 12 74 c5 3d
       0.21103553 0.035885118 0.0014715914 0.09641279
000210 b6 be d0 3c 1a 7d 51 bc 10 d6 47 bd 93 e4 7c 3d
       0.025481563 -0.012786174 -0.04878813 0.061741423
000220 fa 02 1c 3d 85 ab 23 3e 05 c2 b2 bd 2e db 97 3e
       0.038088776 0.15983398 -0.087284125 0.29659408
000230 15 99 bf 3d 65 7e 47 3c 35 dc 3e be 2c 14 f2 bc
       0.0935537 0.012176131 -0.1863869 -0.029550634
000240 cb 68 9f 3d d3 99 1b 3d 2a fa b8 3d c7 1c 6b bd
       0.077836595 0.037988495 0.0903209 -0.05740049
000250 9f 79 51 3e 33 f9 e0 3b 06 4e bb bd 7b 23 16 3d
       0.20456551 0.0068656444 -0.09145741 0.03665493
000260 db ab 3a 3d 71 44 32 bd bd e8 38 3c 4c 70 43 3d
       0.04557405 -0.043522302 0.011285958 0.047714517
000270 be 6b 73 3c 60 dd 6f bd 1a 2c 88 3d 6c cf 2f bd
       0.014857231 -0.05856073 0.06649037 -0.042922422
000280 30 ac 91 3d 8b 8f 99 3d 91 e3 43 bd bd 9d 6a 3d
       0.0711292 0.07498082 -0.047824446 0.057279337
000290 e8 13 6a bd 6f 36 83 3c 7c 1a 66 3d c3 e5 bd 3d
       -0.05714789 0.016017167 0.0561776 0.09272339
0002a0 24 ea 98 bc ee e0 a4 3d 73 20 45 bd df db 9e 3c
       -0.018666334 0.080507144 -0.04812665 0.019391952
0002b0 cf c2 bc bd 26 77 c9 bd 76 2b bf 3c 22 74 f8 bc
       -0.09216844 -0.09837179 0.023336153 -0.030328814
0002c0 a4 db de 3c 8b a8 9b bd 3a ed 01 bc 58 d7 b7 bc
       0.027204342 -0.076005064 -0.007930094 -0.022441551
0002d0 ad 7f ef bd f3 a2 21 be 6a 0a 58 3d bc 3e 11 bc
       -0.11694274 -0.15784816 0.052744307 -0.008865055
0002e0 19 35 05 3d ad 0a e8 bc e7 85 fc bc fa d7 d4 3a
       0.03252134 -0.028325403 -0.030825568 0.0016238682
0002f0 7f de 4d 3d a1 b9 be 3d 54 f7 3c 3c e9 98 89 bc
       0.050261017 0.0931275 0.011533577 -0.016796546
000300 45 3f f1 3c c1 d6 12 3e c6 f9 8b 3c 13 1c 0e 3a
       0.029449115 0.14339735 0.017086875 0.00054210535
000310 14 81 00 3d ae a7 83 3c 2d 94 65 3d d0 54 ef 3d
       0.0313731 0.016071167 0.056049515 0.116860986
000320 e2 12 e5 3d d7 a8 d1 3c 61 d9 47 bd 28 c4 44 bc
       0.11185242 0.025593204 -0.048791293 -0.012009658
000330 fc e7 bb bd 31 96 e3 bd c9 bd f3 ba 23 5a 90 bd
       -0.09175107 -0.11112631 -0.0018595989 -0.07048442
000340 94 2a b0 3d 2b 44 09 be 05 88 0b be 81 8e 48 3d
       0.08601871 -0.1340491 -0.13626106 0.048964027
000350 cd b9 aa 3d b2 87 b9 bd dc 52 24 3b ca 8d 88 3d
       0.0833622 -0.09059085 0.0025073802 0.06667669
000360 45 37 03 3c 9d 1c 10 be 23 06 05 3e a6 99 88 bd
       0.008008783 -0.14073415 0.12990622 -0.06669931
000370 7f f0 b9 3d f4 4f 0f 3e a9 d3 f1 bd 7b 8a cc 3d
       0.09079074 0.13995343 -0.11807949 0.099873506
000380 81 74 a0 bd 3d 95 11 3d 69 58 02 3e f1 09 65 3e
       -0.07834721 0.035542715 0.12729038 0.22367074
000390 ad 99 cc bc 1d 7d 06 3e 5a 18 9e bd 19 b8 3d 3d
       -0.024975622 0.13133664 -0.077194884 0.046318147
0003a0 17 8a 42 be 83 ab 63 be e7 89 0a 3d 5b ad 61 bc
       -0.1899799 -0.22233395 0.03382292 -0.013774241
0003b0 8b 87 6b 3d 75 76 d9 bd 72 db ef bc f1 d9 19 bd
       0.05750231 -0.10618297 -0.029279444 -0.03756136
0003c0 7f d5 ce bd e9 44 50 bd eb 62 d9 3d 6b b5 8e bd
       -0.10099315 -0.050846968 0.1061457 -0.069681965
0003d0 b8 1b dc 3d c9 be ac bd 3c b1 e6 bd 14 bc fb 3d
       0.107474744 -0.08434827 -0.112642735 0.122917324
0003e0 1f ae b8 bd 69 ed 89 3c ea 2d b8 3d 9a fc 9b bd
       -0.09017586 0.016836839 0.089931324 -0.07616539
0003f0 ae 22 25 3d d9 07 ac 3d 1a 1d ae 3c 52 21 45 bd
       0.040316276 0.08399934 0.021254111 -0.04812748

model.classifier.0.bias f4 [30]
000000 77 43 0e b6 0d 22 fa 34 32 5a a3 36 26 27 3a b6
       -2.1198919e-06 4.6590904e-07 4.8682787e-06 -2.7738947e-06
000010 3f 11 98 35 79 62 b2 b5 84 fc fe b4 f1 2a 04 b6
       1.1329902e-06 -1.3290693e-06 -4.7494916e-07 -1.9694528e-06
000020 3b 7b c1 b5 87 b7 f3 b5 eb 4b d6 35 61 84 36 b4
       -1.4415485e-06 -1.8158324e-06 1.5966338e-06 -1.699823e-07
000030 98 aa 19 b6 b8 08 9e b5 7a 6c 98 35 fc d6 a8 b5
       -2.2898075e-06 -1.1774455e-06 1.1356453e-06 -1.2579544e-06
000040 22 08 9f b6 42 cc 89 35 79 5c cb b5 c9 ff 42 36
       -4.739516e-06 1.0266742e-06 -1.5151592e-06 2.905714e-06
000050 52 f5 93 35 a5 9a cd 35 a8 84 a1 b5 4a 76 2a b5
       1.1023751e-06 1.5318698e-06 -1.2034043e-06 -6.350207e-07
000060 3b 53 00 35 db f7 86 36 71 7e 3b b5 98 aa 24 35
       4.780483e-07 4.0223654e-06 -6.9846925e-07 6.134301e-07
000070 05 ef 04 36 38 1d b7 b4
       1.980866e-06 -3.4107666e-07

model.classifier.1.weight f4 [7, 30]
000000 5e 98 04 bc f0 fb 4c be b6 97 20 be 7c 5c 46 bd
       -0.008092968 -0.20017982 -0.15682873 -0.048428044
000010 10 3c 81 be 11 e2 4a bd 7e ff 62 be 5b 8c 21 be
       -0.25241137 -0.049532 -0.22167775 -0.15776198
000020 fd 08 d1 3c 0a c5 16 be 60 a4 60 3c d6 a7 aa bd
       0.025516981 -0.14723602 0.013711065 -0.083327934
000030 39 23 98 3e 90 39 82 3e c2 2b b2 3c 6d ae 14 bc
       0.29714373 0.25434542 0.021749381 -0.0090747895
000040 b1 08 01 bd 75 dc 35 be 7a 25 ad 3d bf 1a 6e 3e
       -0.03150243 -0.17759879 0.08454414 0.2325239
000050 84 d7 af 3d fc 6b 4a be 1a 3c b4 be f7 ad 0d 3c
       0.08586028 -0.19767755 -0.35202104 0.0086474335
000060 67 9b a0 bc 1e e4 c1 3d 74 3f 08 be 18 4a ad be
       -0.019605352 0.09467338 -0.13305455 -0.33845592
000070 a4 cc b4 bd 58 ef 86 3e 78 b7 82 be 82 dd 7b be
       -0.088280946 0.2635448 -0.255306 -0.24596217
000080 cc 5b 32 bc fb 2e 2c 3e f5 81 a2 3e c5 2f 34 3e
       -0.010886144 0.16814797 0.31739774 0.17596348
000090 53 a1 24 be b3 68 b1 3e f9 57 9b be ac f2 47 3e
       -0.16077165 0.34650192 -0.30340555 0.19526166
0000a0 71 24 44 bc ef 09 81 3e 06 c7 06 be 3f 1f d6 3d
       -0.011971579 0.2520289 -0.13161859 0.104551785
0000b0 0d 36 89 3e 82 27 a0 3e a5 42 a0 3e 6e 53 7b be
       0.2679905 0.31280142 0.31300846 -0.24543545
0000c0 be fe f2 3e b1 5e 84 be 3b cd 1e 3d a3 33 f8 bd
       0.47459978 -0.25853494 0.03876994 -0.12119224
0000d0 cc 7b c0 3e 89 f0 0a 3e 8f 7b 15 be 8b f7 cd be
       0.3759445 0.1356832 -0.14597915 -0.40227923
0000e0 84 8d 94 3e 2d 01 8c 3e 56 37 0a be 17 2f 6a 3e
       0.29014218 0.27344647 -0.13497671 0.22869526
0000f0 92 db 1d be 12 30 7b 3d cc 49 29 3e 51 4e 85 be
       -0.1541579 0.06132514 0.16532058 -0.26036313
000100 70 60 43 bc 3c dc 96 bd 59 2f 1e be bf d9 2b be
       -0.011924848 -0.07366225 -0.15447749 -0.16782282
000110 65 5e 32 3c e9 f7 a1 3c 76 14 3a 3e 8c 4a f7 3d
       0.010886763 0.019771533 0.18171868 0.120747656
000120 d1 1b a6 bd 1c 80 38 3e 2d 74 b4 bd e8 67 1f be
       -0.08110774 0.1801762 -0.08811221 -0.15566981
000130 86 99 4e be 2e 35 c5 bc b4 50 84 3d aa 5f a7 39
       -0.20175752 -0.02407321 0.064607054 0.00031923997
000140 94 40 7f 3e f9 3b 70 be 11 3f 3a be 74 47 21 3d
       0.24926978 -0.23460378 -0.1818812 0.039374784
000150 22 12 5b bd 38 57 1c 3e 42 0b 76 3d 84 ab 57 bc
       -0.05348409 0.15267646 0.06006933 -0.013163451
000160 5a 75 17 be 63 b9 90 3e f3 fd 1f 3e 02 be 44 3e
       -0.1479086 0.2826644 0.15624218 0.19213107
000170 da ba 03 3d 53 9f 56 bd 78 3c 10 bd 11 ab 8c 3b
       0.032160617 -0.052398037 -0.035213917 0.0042928536
000180 cd 74 32 3e f4 83 25 bd 80 8c 12 3e 93 29 b3 bd
       0.17427368 -0.040409043 0.14311409 -0.08748164
000190 9e 38 34 bd 63 62 22 be 37 94 d4 bd fa 86 eb bd
       -0.043999307 -0.15857844 -0.10379832 -0.11500354
0001a0 8f 87 5a be ae ea e4 bd e8 f1 a4 bd 71 bf 46 3e
       -0.21340774 -0.11177574 -0.080539525 0.19408967
0001b0 4b fb 12 be 0d da f7 bd c2 37 3b 3d 69 c8 11 3d
       -0.14353673 -0.12102137 0.04570747 0.035591517
0001c0 b7 37 b3 3d 41 62 c4 bd 11 45 fa bb f3 10 d2 3d
       0.08750861 -0.09589053 -0.007637628 0.10257139
0001d0 ae ae 72 3c eb fe 85 3d 54 52 ed 39 a6 22 12 be
       0.014812155 0.06542762 0.00045265502 -0.1427103
0001e0 52 5d 9b 3e 87 a5 0e 3d 5f 8f 11 3d 86 dc 84 3a
       0.30344635 0.034825828 0.03553712 0.0010136522
0001f0 69 94 a3 be fc c4 27 be 03 4b 3f be 71 f9 60 be
       -0.31949165 -0.16383737 -0.18680958 -0.21970154
000200 74 6f 86 bd 50 9d b0 3e 24 d6 a1 3c 01 ab 52 3d
       -0.06564227 0.3449502 0.01975543 0.051432613
000210 c0 ce bc 3d 73 3e 2c 3d c9 46 2c 3e d4 55 2e bd
       0.09219122 0.042051744 0.16823877 -0.04256232
000220 ca ff 92 3e 6f c2 dc 3d b6 e0 d9 be ba 7b d9 3e
       0.28710777 0.10779273 -0.42554253 0.42477208
000230 af 04 e8 be 4a b5 8c 3e 00 03 dc bd e6 b4 c4 be
       -0.45316073 0.27482063 -0.1074276 -0.38419265
000240 c1 57 65 be 59 f8 6b 3e 76 3a 7e be 07 22 16 be
       -0.22396757 0.23043956 -0.24826989 -0.14661418
000250 2a 65 e0 3e c4 e6 41 bd 31 68 a0 3e f4 fa 3a be
       0.43827182 -0.047339216 0.31329492 -0.18259794
000260 df c3 9c be 74 89 cf 3e 90 01 00 be 3f ea 25 3e
       -0.30618188 0.40534556 -0.12500596 0.16202639
000270 ab 54 4e 3d d9 e6 ad 3e 98 ae ee 3d 27 9d 81 be
       0.050373714 0.33965185 0.11654395 -0.2531521
000280 12 70 94 be 06 9b 5a be b0 ca ca 3e ae 5d 5a bd
       -0.28991753 -0.21348199 0.39607763 -0.053311996
000290 0f 04 bb 3d 86 7b 5e 3e 8b 6c e9 3d 3c d2 da bd
       0.091316335 0.21726808 0.11397656 -0.1068463
0002a0 3f 3d 19 bd c9 6e bf bd 9f 15 52 be 45 13 6e 3e
       -0.037411924 -0.093473025 -0.2051606 0.23249538
0002b0 23 cc 42 3e f3 fc e8 3d f1 88 86 3d 1e 66 76 be
       0.19023184 0.11376371 0.06569088 -0.24062392
0002c0 c7 e0 d7 bd 45 53 8b be e2 83 3a 3e e1 80 a8 be
       -0.1054092 -0.27211967 0.18214372 -0.32910827
0002d0 d0 e5 87 be 2b df 16 bd 4d 31 0f 3e 11 e8 67 bc
       -0.2654252 -0.036833923 0.1398365 -0.01415445
0002e0 af 9b 9b 3e 36 40 85 bc 44 59 5f 3c 15 86 5f 3c
       0.30392215 -0.01626597 0.013632122 0.0136428075
0002f0 fb 28 86 be 08 99 9e 3e 0e d3 f7 3d 41 5b 8c 3e
       -0.2620314 0.3097613 0.12100802 0.2741337
000300 72 a8 81 be 8b d7 70 be 57 f5 8e 3e cd 17 99 3a
       -0.25323826 -0.23519723 0.27921554 0.0011680067
000310 9f 8a 3b 3e 55 5d 43 3c 3c f8 b6 3d 8c 23 11 3e
       0.18314599 0.011924108 0.08934066 0.14173716
000320 cb c3 4c be 06 f1 15 3e 7c d7 d1 3c 51 7f 81 3d
       -0.19996564 0.14642724 0.025615446 0.06323112
000330 4e 9d 09 3e bd e6 0d be d4 8c 95 3d 59 be 7b 3e
       0.13438913 -0.13857551 0.073022515 0.2458433
000340 11 d6 ad 3d 9d 4f 34 bd
       0.084880956 -0.044021238

model.classifier.1.bias f4 [7]
000000 17 e2 3b b4 8c c2 14 b2 2d 9e a9 33 14 79 4a b3
       -1.7497983e-07 -8.658969e-09 7.898448e-08 -4.714191e-08
000010 91 6b 10 35 c1 2e 25 b4 9f 80 5e 32
       5.380071e-07 -1.5383831e-07 1.2951346e-08

exp_avg f4 [30, 30]
000000 07 e7 4d b6 a8 2d 1b 36 4a 47 8c 35 d2 5b 0d b5
       -3.0681856e-06 2.3123375e-06 1.0451561e-06 -5.266021e-07
000010 cb 60 c5 35 9a a6 13 36 c9 33 ab 34 e2 35 03 36
       1.4705814e-06 2.2001682e-06 3.188891e-07 1.9551885e-06
000020 de 1c f2 34 38 26 ff b5 bd da 56 36 72 f5 0e 35
       4.5097016e-07 -1.9010104e-06 3.2015807e-06 5.325629e-07
000030 9c 29 47 b5 2d 4f 9f 35 0e 4c 14 b6 9f 58 8d b5
       -7.4193827e-07 1.1869466e-06 -2.2097988e-06 -1.0531111e-06
000040 c8 d0 ed b4 5c bc c1 b5 92 ea 67 b5 e1 4e 01 36
       -4.4296598e-07 -1.443444e-06 -8.639555e-07 1.9268412e-06
000050 e4 f0 78 b6 0d 03 49 35 24 86 99 b3 f6 f3 61 b5
       -3.7095097e-06 7.4882774e-07 -7.149018e-08 -8.417404e-07
000060 81 0b 6b 35 48 a7 be b5 41 34 30 35 05 87 e3 b5
       8.756106e-07 -1.4204788e-06 6.564115e-07 -1.6952114e-06
000070 48 cf 9f b5 72 de 87 b5 f3 58 2f 35 40 ab 57 36
       -1.190675e-06 -1.0123024e-06 6.532202e-07 3.2137177e-06
000080 c8 fe 80 b5 f0 97 86 35 f6 bf 78 b5 2a 0e 58 35
       -9.610894e-07 1.0027998e-06 -9.266654e-07 8.048688e-07
000090 4c 36 5d 35 50 d1 8d 34 aa 30 df 34 cb 27 b0 b5
       8.240793e-07 2.6415591e-07 4.1572395e-07 -1.3124603e-06
0000a0 0e 08 3b 34 49 03 47 34 5b 39 31 33 b9 08 15 b6
       1.7418662e-07 1.8534514e-07 4.126319e-08 -2.2207807e-06
0000b0 4b b5 77 b5 d5 0b 03 b5 1b 49 15 b5 2e e7 61 b5
       -9.2278486e-07 -4.881852e-07 -5.561321e-07 -8.415544e-07
0000c0 40 b4 47 b5 22 84 1e b4 a4 58 57 b5 85 fb 2d b5
       -7.4395575e-07 -1.4762966e-07 -8.022273e-07 -6.481353e-07
0000d0 b3 a2 32 35 01 6e 0d 35 12 d9 19 35 9b df f5 34
       6.6546926e-07 5.268667e-07 5.731282e-07 4.57975e-07
0000e0 b0 07 9a b4 6d 05 d8 34 37 4a 64 b4 7d 26 c1 35
       -2.869033e-07 4.0237083e-07 -2.1261154e-07 1.4390822e-06
0000f0 f8 89 c1 35 45 11 3a 35 79 39 3e b5 ef 4d bc 34
       1.4419775e-06 6.931553e-07 -7.086415e-07 3.5074433e-07
000100 8d e2 94 b5 65 d7 54 34 c6 3b 43 35 f1 99 96 b5
       -1.1092794e-06 1.9822399e-07 7.273014e-07 -1.1220674e-06
000110 e6 ca 69 35 ac 56 95 34 d8 8c e4 b4 10 cd 97 34
       8.709452e-07 2.7816475e-07 -4.2570787e-07 2.8275144e-07
000120 d6 16 62 34 5a e5 af b5 a5 04 9d 33 e7 8b b8 33
       2.1056198e-07 -1.3105266e-06 7.311727e-08 8.593616e-08
000130 c8 ce b4 34 3a 53 60 b4 eb 20 07 b5 8e ba 4e 35
       3.3678066e-07 -2.0891903e-07 -5.033932e-07 7.7012453e-07
000140 cb 55 f0 34 d5 d4 30 b5 10 f7 a9 33 77 67 54 35
       4.4765906e-07 -6.587482e-07 7.914616e-08 7.9126715e-07
000150 f8 31 da 34 5e 8f 55 32 fb b4 44 34 1d 8f 05 35
       4.064202e-07 1.243083e-08 1.8319763e-07 4.975462e-07
000160 c2 2e 0f 33 70 97 ab 35 74 72 dd b5 ea f9 2f b5
       3.3337308e-08 1.2784567e-06 -1.6499093e-06 -6.5556253e-07
000170 93 3d 99 35 41 29 c5 b4 b6 88 c0 35 1d 04 77 b5
       1.1417309e-06 -3.6724126e-07 1.4344903e-06 -9.2020656e-07
000180 77 b1 9f b5 14 10 73 35 d1 d4 83 b5 0a 9d 9b 34
       -1.1898072e-06 9.054795e-07 -9.822198e-07 2.898526e-07
000190 7c 31 73 35 23 ea 3f b5 b4 af de b5 b8 8f 7a 36
       9.0596563e-07 -7.149376e-07 -1.6591425e-06 3.7336558e-06
0001a0 5f 50 bc 34 56 d4 24 35 9b 67 09 35 eb a7 a8 35
       3.5076206e-07 6.140375e-07 5.1187243e-07 1.2565846e-06
0001b0 63 3d 02 35 73 a2 04 b5 0f 51 79 b5 76 55 ba 35
       4.8518103e-07 -4.9410227e-07 -9.2877684e-07 1.3882952e-06
0001c0 53 39 f9 b4 d4 8b fd 34 50 7a 01 b5 94 d7 c1 b4
       -4.6421573e-07 4.722666e-07 -4.8234233e-07 -3.6105905e-07
0001d0 cc 62 f3 b3 da 57 02 b5 46 14 7e b5 cc a7 e1 b5
       -1.133354e-07 -4.8556615e-07 -9.4651875e-07 -1.6812642e-06
0001e0 41 7f 3f 36 fa dc 3d b6 f5 e0 7d b5 91 ef 3e b5
       2.853529e-06 -2.829182e-06 -9.45772e-07 -7.112913e-07
0001f0 d3 2e 67 b5 62 85 27 b6 49 ca 74 b5 4f 59 c2 b5
       -8.6122344e-07 -2.4962578e-06 -9.1191447e-07 -1.4480119e-06
000200 3a 0d d5 b5 1e fd d7 35 e6 92 3e b6 35 33 19 b5
       -1.5873586e-06 1.6092415e-06 -2.8397712e-06 -5.707146e-07
000210 98 ce 3a b4 c9 bf 08 35 78 6f 11 36 73 90 d0 35
       -1.7397758e-07 5.094303e-07 2.1671567e-06 1.5539248e-06
000220 a5 e0 47 35 33 b7 f3 35 52 25 4c 35 67 7f e8 b5
       7.446018e-07 1.8158229e-06 7.605023e-07 -1.7322426e-06
000230 b8 8a 39 36 e6 79 39 b3 b9 4c 42 35 ac 3d 60 b3
       2.7647893e-06 -4.3184535e-08 7.238228e-07 -5.2210154e-08
000240 6f 55 6b b5 db 84 e5 35 94 4c 87 b5 49 ed 03 36
       -8.7668644e-07 1.7100496e-06 -1.0080571e-06 1.965864e-06
000250 e2 3d 84 b3 b7 4d 56 35 cd 1e e6 34 e2 fe 98 b5
       -6.1579854e-08 7.98343e-07 4.286325e-07 -1.1399063e-06
000260 11 75 1b 35 83 39 8c b5 fb 06 de 34 2c 87 a2 b5
       5.7912354e-07 -1.0447551e-06 4.13558e-07 -1.2109281e-06
000270 6c 9a 8c b5 6d 06 9b b4 59 85 b6 b5 51 73 59 35
       -1.0475756e-06 -2.8875675e-07 -1.3598866e-06 8.1006607e-07
000280 04 79 91 b5 30 ea 25 b5 a8 f1 f0 b4 9e 9e 9f 35
       -1.0838562e-06 -6.180808e-07 -4.4879312e-07 1.1892587e-06
000290 ec 98 cd 35 d0 21 3d 35 c2 01 66 34 23 2c c7 35
       1.5318196e-06 7.045719e-07 2.1421059e-07 1.4839501e-06
0002a0 6b 5b 6a 35 72 06 af b5 5c 27 73 35 ce af e5 34
       8.7304824e-07 -1.3040392e-06 9.058183e-07 4.278249e-07
0002b0 b0 ae d1 b4 e4 36 98 b4 1a e4 0a b5 28 45 4c 35
       -3.9056386e-07 -2.8352144e-07 -5.174094e-07 7.609656e-07
0002c0 cf 82 67 b4 3b 9d 06 35 29 56 dd b4 f2 e4 0d b5
       -2.156114e-07 5.014769e-07 -4.1227148e-07 -5.285975e-07
0002d0 77 b3 ab 34 f8 2b a0 35 9c 81 9f b5 ea 37 ee 33
       3.198181e-07 1.1933726e-06 -1.1884144e-06 1.1092909e-07
0002e0 72 74 ef b4 73 5f 07 b5 af c9 3d b4 40 45 7d 35
       -4.4601944e-07 -5.0430316e-07 -1.7675369e-07 9.4350617e-07
0002f0 73 9f 0c b5 94 a0 1e b5 e0 2d 40 b5 b2 1d e8 b4
       -5.2386093e-07 -5.909326e-07 -7.159233e-07 -4.3234974e-07
000300 cc ac 63 b5 b2 83 8a b5 d6 78 9a 33 e4 b7 a4 34
       -8.481554e-07 -1.032013e-06 7.193164e-08 3.0681178e-07
000310 03 b3 58 b5 6f 0c f2 b2 c3 2a bc b4 a2 9f 01 b6
       -8.0726767e-07 -2.8178162e-08 -3.5048842e-07 -1.9315416e-06
000320 96 b0 93 b4 01 16 34 33 e1 9d 54 35 8e 3f e3 34
       -2.7509367e-07 4.192953e-08 7.92059e-07 4.2328287e-07
000330 19 6a 4b b4 0b 94 d9 35 26 76 95 b5 94 35 a5 35
       -1.8944446e-07 1.6210846e-06 -1.1135751e-06 1.2309051e-06
000340 d3 19 92 b5 0b 7d 05 36 5a 16 91 34 69 57 14 b6
       -1.0885364e-06 1.989133e-06 2.7024618e-07 -2.2104598e-06
000350 7b d0 a9 35 13 f5 13 b6 16 67 93 35 1e 0d 12 b6
       1.2652157e-06 -2.204736e-06 1.0982355e-06 -2.176333e-06
000360 e9 dd 14 b6 5c b3 ef 31 c4 2f 22 b6 3b 3e cb 35
       -2.2182887e-06 6.9762063e-09 -2.4167684e-06 1.514279e-06
000370 6c 50 8f b5 e0 a1 8b b5 ea 7b 65 b5 5e 5c d7 35
       -1.0677736e-06 -1.0403419e-06 -8.5489467e-07 1.6045631e-06
000380 ac 7b 20 36 e0 56 9c 35 d2 99 88 35 d9 64 28 36
       2.3913844e-06 1.164819e-06 1.0177557e-06 2.5092652e-06
000390 9f 7b ce 35 f8 a3 07 b6 ae 97 d0 35 89 ad 8c 35
       1.5384175e-06 -2.021201e-06 1.5541352e-06 1.0481318e-06
0003a0 52 38 4c b5 86 cb 1c b5 fc 40 4a b5 af 22 6a 35
       -7.607788e-07 -5.8410694e-07 -7.534543e-07 8.7222264e-07
0003b0 3d 98 98 b4 70 4d f5 34 92 9c 34 b5 6a 80 df b5
       -2.8422974e-07 4.569115e-07 -6.7283065e-07 -1.6652168e-06
0003c0 fa 0f 54 b4 ea a9 16 36 29 5e 04 35 f4 ae 09 35
       -1.9749851e-07 2.2450645e-06 4.9310853e-07 5.129107e-07
0003d0 7e 3a 33 34 89 48 f3 34 17 1f df b4 13 06 b4 35
       1.6691953e-07 4.5315053e-07 -4.1559608e-07 1.3412813e-06
0003e0 9e 38 4c 35 84 89 6b b5 12 06 ac 33 dc b6 23 b5
       7.607831e-07 -8.7744434e-07 8.010478e-08 -6.098833e-07
0003f0 36 be be b4 d3 ce 01 b6 b3 06 d1 33 54 f8 6c b5
       -3.5528655e-07 -1.9342885e-06 9.7335395e-08 -8.8278216e-07

exp_avg_sq f4 [30, 30]
000000 5d 54 cc 2f 81 cc a7 2f 58 8f 71 2f d7 ab 11 2f
       3.7167328e-10 3.0522432e-10 2.1969748e-10 1.3248723e-10
000010 67 d3 51 2f 4d 91 4a 2f ee a6 87 2f 83 12 17 2e
       1.9083544e-10 1.8423414e-10 2.4674968e-10 3.4349867e-11
000020 9c ca 15 30 bd fe 02 2f 9f d1 2e 2f 66 65 89 2e
       5.449381e-10 1.1913932e-10 1.589968e-10 6.248051e-11
000030 10 c3 cb 2e aa 9e a6 2f 15 30 9f 2e c4 23 12 2e
       9.266021e-11 3.0307962e-10 7.239024e-11 3.3228323e-11
000040 d8 4c 49 2e c2 07 e1 2e 7c 66 88 2e 75 dc 16 30
       4.577036e-11 1.02331935e-10 6.202769e-11 5.488297e-10
000050 6f 2a 39 2f e0 3f 1b 2f 1a 9c c4 2e 4f a1 02 2f
       1.6840727e-10 1.4119861e-10 8.940777e-11 1.188074e-10
000060 d7 f6 85 2e 17 c9 30 2e b1 ed f0 2e 94 fb e0 2e
       6.091987e-11 4.019637e-11 1.0956159e-10 1.023103e-10
000070 b3 78 b2 2f 46 ce 4b 2f f6 b9 40 2f c0 22 4e 30
       3.2463773e-10 1.8536025e-10 1.7528365e-10 7.4991746e-10
000080 af 6d 01 2f 0e 26 82 2e 88 c8 02 2f 88 b6 52 2d
       1.1771449e-10 5.9184754e-11 1.1894674e-10 1.1977648e-11
000090 10 f8 d3 2e a9 d7 14 2e d9 7a 4a 2f 76 56 b7 2f
       9.639234e-11 3.384285e-11 1.8415437e-10 3.334894e-10
0000a0 34 95 b5 2e 08 1c 73 2e 63 fd 16 2e fe 8b 0e 2f
       8.257431e-11 5.52767e-11 3.4331104e-11 1.296456e-10
0000b0 92 39 cd 2e cf 72 8f 2d 7b 98 08 2e 70 fa e7 2d
       9.332547e-11 1.6308203e-11 3.105825e-11 2.6372876e-11
0000c0 aa 4c 7b 2d 36 1c af 2e f6 82 18 2f 56 09 a7 2d
       1.4284721e-11 7.96309e-11 1.3870846e-10 1.8989848e-11
0000d0 93 b9 3e 2e 14 97 d4 2e 92 4d 35 2e b9 b3 a8 2d
       4.336582e-11 9.667481e-11 4.122353e-11 1.9179202e-11
0000e0 d4 68 7d 2d dd ec 5c 2e b5 61 04 2f 7e 0d 8f 2f
       1.44046615e-11 5.0232585e-11 1.2040043e-10 2.6021135e-10
0000f0 10 d5 2f 2e a2 9a ce 2f 2a 8f ee 2e 43 87 9c 2f
       3.997963e-11 3.7581055e-10 1.0848418e-10 2.8472344e-10
000100 38 3d 9e 2d f0 a7 9c 2d 93 b2 40 2d d9 f1 34 2e
       1.7989707e-11 1.7809726e-11 1.0953588e-11 4.1142065e-11
000110 50 03 19 2e 21 ff 82 2f 60 3d 3d 2f 39 4c a8 2e
       3.4791114e-11 2.3828142e-10 1.7211255e-10 7.6532954e-11
000120 62 8a a7 2f 7e cb 56 2d 55 ec 50 2f 58 eb 9a 2d
       3.047545e-10 1.2209676e-11 1.9001452e-10 1.7612287e-11
000130 64 f3 3b 2e a1 8b 48 2e 2a d7 06 2e 8c ee 2d 2e
       4.273505e-11 4.559875e-11 3.0659177e-11 3.9547518e-11
000140 71 54 0e 30 61 02 ac 2e a2 3d 58 2e 57 1b b1 2f
       5.17793e-10 7.822077e-11 4.9167455e-11 3.2215539e-10
000150 3f f5 dd 2d 99 c6 34 2e 93 1d dd 2e 07 9c 2a 2d
       2.5233702e-11 4.110365e-11 1.005517e-10 9.698026e-12
000160 30 e8 21 30 99 6f 05 2f d2 38 36 2e 0c 7a 3a 2f
       5.8901417e-10 1.2135927e-10 4.1432476e-11 1.6959961e-10
000170 5b 90 82 2e 93 5e 3d 30 c5 19 61 2d 22 5c 08 2f
       5.937358e-11 6.88922e-10 1.2795491e-11 1.240186e-10
000180 8e 20 b8 2e 26 c2 8b 2f 4c 63 c0 2e 4f 11 88 2e
       8.373134e-11 2.5421903e-10 8.748788e-11 6.1876386e-11
000190 21 72 83 2e b7 12 92 2f 53 1d 11 30 18 13 e7 2f
       5.977464e-11 2.6570543e-10 5.2792365e-10 4.2032222e-10
0001a0 f6 c9 f9 2e 59 8d e4 2c b3 4b b1 2f c3 9b 72 2f
       1.13590845e-10 6.4958425e-12 3.22499e-10 2.206511e-10
0001b0 e0 5e 93 2e 45 ea f4 2d 1c c6 52 2f d3 78 a3 2f
       6.701639e-11 2.7843625e-11 1.9169771e-10 2.9735378e-10
0001c0 06 75 b4 2e 52 05 b6 30 8b f0 3d 2f 19 ca 12 2e
       8.20624e-11 1.3243755e-09 1.7274908e-10 3.3376055e-11
0001d0 42 ae 2d 2f e9 84 4d 2d 90 e3 27 30 d6 6f 5b 2e
       1.5796167e-10 1.1682413e-11 6.107763e-10 4.9894165e-11
0001e0 cb 2f 00 2f ec e5 9e 2f bb f4 bb 2e ec ed 94 2e
       1.1658512e-10 2.8903402e-10 8.547248e-11 6.772524e-11
0001f0 46 0c db 2e 3b 0d 39 2f 8f d5 ac 2e 60 3d 98 2e
       9.961147e-11 1.6830352e-10 7.85959e-11 6.923062e-11
000200 b1 e9 9a 2f ad c0 3f 2e 1e 98 76 2f 83 2d 36 2f
       2.8178485e-10 4.3599502e-11 2.2427613e-10 1.6568973e-10
000210 9a fc 7b 2e 0a ad d0 2e 88 9d c9 2e aa 9e f6 2d
       5.7295148e-11 9.489483e-11 9.168405e-11 2.8037423e-11
000220 db f0 02 2e e9 aa 68 2f 2e 0e 09 2f 39 e9 80 2f
       2.97725e-11 2.1160997e-10 1.2465115e-10 2.344878e-10
000230 6b 91 2f 2f 8d da 40 2e 9b f6 9a 2f 5a 6f 43 2f
       1.596782e-10 4.3849858e-11 2.818766e-10 1.7774707e-10
000240 9c 8d 74 2e 13 bb 0a 2e 0f f4 84 2e 0b 25 96 2e
       5.560495e-11 3.1543722e-11 6.0460185e-11 6.8277904e-11
000250 f3 5a 63 2f 9b 77 93 2e b7 83 9e 2e 34 b1 d0 2f
       2.0677841e-10 6.706032e-11 7.2084054e-11 3.796089e-10
000260 fd be 64 2e 82 1e 57 2e 17 b3 05 2e f0 93 43 2d
       5.201083e-11 4.8912437e-11 3.0399763e-11 1.1117315e-11
000270 02 a0 40 2d 13 7a 64 2d 4e 0b 3d 2e d6 9f 12 2f
       1.0949465e-11 1.2987405e-11 4.2983665e-11 1.3335408e-10
000280 09 2d b2 2e f8 41 36 2e 8a b5 a5 2e 67 d4 8f 2e
       8.102503e-11 4.14406e-11 7.535579e-11 6.5406174e-11
000290 b4 c6 9f 2e 41 ca 66 2c f7 b1 71 2d 6d 45 2d 2f
       7.2657796e-11 3.279724e-12 1.373878e-11 1.5758923e-10
0002a0 1b 06 68 2d c9 4c 96 2e b8 37 84 2f fa 73 f2 2d
       1.3189029e-11 6.83485e-11 2.405025e-10 2.7563719e-11
0002b0 f7 a1 b5 2d 12 cb ea 2e b2 5d 44 2d f7 12 23 2e
       2.0649244e-11 1.06771605e-10 1.1162115e-11 3.7078753e-11
0002c0 92 6e 7a 2e 03 d5 bc 2d eb 57 11 2f 97 0f 83 2f
       5.6941625e-11 2.1467722e-11 1.3218908e-10 2.3839838e-10
0002d0 74 45 d7 2f 62 59 45 30 94 67 0d 2f 8e 4a 12 2f
       3.9157622e-10 7.1795203e-10 1.2860674e-10 1.330511e-10
0002e0 85 30 0c 2f 96 f4 1a 2e 51 4c d2 2e f1 82 17 2e
       1.2750163e-10 3.5232782e-11 9.563251e-11 3.4449724e-11
0002f0 63 78 70 2f fe c0 22 2f 2a 78 c5 2e 85 ee c3 2d
       2.1870643e-10 1.4802379e-10 8.979868e-11 2.2274857e-11
000300 d5 f9 4b 2e e7 3a 5e 2f 95 ca cc 2d 50 2a 8f 2d
       4.637875e-11 2.0211709e-10 2.328208e-11 1.6276008e-11
000310 d7 b6 53 2e db 0c c8 2d e6 3f ce 2d aa 80 a4 2e
       4.813824e-11 2.2743077e-11 2.3447865e-11 7.480712e-11
000320 ef da 92 2e 7d 32 59 2e 07 7f 05 2e c9 c2 cc 2e
       6.678202e-11 4.938493e-11 3.0353522e-11 9.311447e-11
000330 2a af 7e 2e dd bd b4 2d 50 2c a7 2d 35 59 d3 2e
       5.790849e-11 2.0547947e-11 1.900538e-11 9.6110155e-11
000340 c4 de 8b 2e 80 d0 0b 30 5e 7e 30 2f c4 39 9a 2f
       6.360559e-11 5.08642e-10 1.6052001e-10 2.8053482e-10
000350 c2 bb 14 2e 7f 54 a3 2e 5e 53 09 2e 50 e0 51 2e
       3.3818066e-11 7.427391e-11 3.122424e-11 4.7720328e-11
000360 50 b5 a6 2e 80 12 84 2f 5d eb 9a 2e 4a 37 d3 2e
       7.5810136e-11 2.4023805e-10 7.044918e-11 9.6049904e-11
000370 02 c1 40 2e f0 d6 c4 2e 92 7b 01 2f 5c 6c 09 30
       4.382717e-11 8.9512286e-11 1.1776383e-10 4.99943e-10
000380 68 da 9b 2e a2 9b 02 2d 17 5a e0 2e 14 5f ad 2f
       7.087381e-11 7.424202e-12 1.0202344e-10 3.1536074e-10
000390 93 a8 64 2e 54 09 08 2f ed 9d ed 2e 95 36 b8 2e
       5.1990922e-11 1.2372442e-10 1.08055655e-10 8.377047e-11
0003a0 e3 4b 47 2f 8e 48 fd 2f 8d 64 01 2f 86 5a ab 2d
       1.8125905e-10 4.6071985e-10 1.1768204e-10 1.948065e-11
0003b0 11 a1 be 2e 5b d5 22 2e cb be c2 2e ac 32 be 2e
       8.668811e-11 3.7024033e-11 8.85599e-11 8.649201e-11
0003c0 29 00 ef 2e ba 8b ce 2f 46 b7 a7 2f 2b 92 22 2e
       1.086849e-10 3.7570463e-10 3.0507347e-10 3.696436e-11
0003d0 7d 36 28 2f ea ec 8f 2e a1 ba 51 2f 63 75 46 2e
       1.5298869e-10 6.5449715e-11 1.9074743e-10 4.5124248e-11
0003e0 b0 9d ed 2f 71 e1 36 2f 78 08 87 2e a5 84 af 2e
       4.3222093e-10 1.6632896e-10 6.1405936e-11 7.981641e-11
0003f0 a6 8d 08 2e 19 7c 86 2f 80 29 56 2e 20 74 6e 2d
       3.104863e-11 2.4462635e-10 4.8694826e-11 1.3554519e-11

exp_avg f4 [30]
000000 48 d3 94 2f be 57 3f af 07 4d a8 af dc a6 9d 2f
       2.7071168e-10 -1.7402521e-10 -3.0613753e-10 2.8676694e-10
000010 e2 2d 29 af ea 8d b5 2e 56 6a ab ae 7b cd 5c 2f
       -1.5386761e-10 8.256136e-11 -7.795069e-11 2.0081885e-10
000020 d5 0f 20 ad c2 96 5e af 92 8a 63 af 3c 54 b9 af
       -9.0984624e-12 -2.0244342e-10 -2.069476e-10 -3.3711156e-10
000030 79 5f 9c 2f 2d b6 89 2e ca 5f 34 2f 92 7c 78 2f
       2.8444072e-10 6.2623996e-11 1.6404936e-10 2.2599725e-10
000040 ec d7 4a 2e db ea e1 ae 55 c1 b1 ae 4e 52 6d 2e
       4.612126e-11 -1.0273534e-10 -8.083371e-11 5.3960662e-11
000050 49 58 50 af 76 51 4a 2f d4 5c 11 2f a8 d6 c9 ae
       -1.8948855e-10 1.8400734e-10 1.3220652e-10 -9.1785524e-11
000060 61 17 02 af 7e 42 ea ae 58 1f 10 af b8 d0 90 af
       -1.1831737e-10 -1.06528994e-10 -1.3107859e-10 -2.634175e-10
000070 28 28 7b 2f 0b cc 24 af
       2.2842583e-10 -1.4988204e-10

exp_avg_sq f4 [30]
000000 fe f8 8a 29 28 4b eb 2c 1d 55 91 28 14 d5 b1 29
       6.1716244e-14 6.6874457e-12 1.6135146e-14 7.897342e-14
000010 73 17 29 2b 06 97 73 2b 33 84 8b 2c 1a fa c0 2b
       6.0073403e-13 8.654053e-13 3.9652947e-12 1.3711838e-12
000020 6c 1b c0 2b 25 dc cc 29 24 30 82 2b 41 20 0c 29
       1.3650032e-12 9.097609e-14 9.250417e-13 3.111422e-14
000030 5b bb 8e 2b 0d ab 30 2c 60 4d 8b 2b 36 b6 ad 2b
       1.0141708e-12 2.5106057e-12 9.89802e-13 1.2342963e-12
000040 dc a4 a8 29 a3 79 0a 2c ae a1 32 2c ab 4a 92 2c
       7.489297e-14 1.9678501e-12 2.5385072e-12 4.1578594e-12
000050 9c 56 2f 2a 79 d5 fd 2c 90 21 71 2c de b8 0a 2b
       1.5573171e-13 7.2143927e-12 3.426679e-12 4.9284004e-13
000060 5b 2d 95 2b 51 75 4a 29 46 74 42 2c b1 0a 94 2c
       1.0599675e-12 4.4954766e-14 2.7633603e-12 4.2076e-12
000070 1e 25 e7 2c d1 0b 45 2b
       6.5695357e-12 7.000486e-13

exp_avg f4 [7, 30]
000000 69 fb b8 b5 8b 93 91 b4 c9 3e 5a b3 4b 8b 86 b5
       -1.3782238e-06 -2.7115706e-07 -5.0814183e-08 -1.0024318e-06
000010 43 0a b9 35 e8 e0 ca 34 b7 ce 80 35 d5 ab 7a b5
       1.3786561e-06 3.7789073e-07 9.596905e-07 -9.3382306e-07
000020 2b 03 22 b5 42 62 87 b4 66 c3 a1 34 57 c9 c8 b4
       -6.035431e-07 -2.5217201e-07 3.0130758e-07 -3.7399397e-07
000030 74 92 28 b6 78 ba 30 b6 e4 e2 45 b5 17 4f 93 b5
       -2.5119198e-06 -2.6334583e-06 -7.371839e-07 -1.0975372e-06
000040 e0 dc 6c 35 eb 3d 98 35 86 8a 09 36 67 0f 10 34
       8.8238266e-07 1.1342903e-06 2.0495222e-06 1.3416648e-07
000050 47 18 3c 35 74 c7 8b b5 f8 fc 66 b5 af f2 76 34
       7.0070786e-07 -1.0414356e-06 -8.6049795e-07 2.2998823e-07
000060 a8 1d b9 35 f2 48 1d b5 49 89 56 35 14 48 c8 35
       1.3792205e-06 -5.8593207e-07 7.992099e-07 1.4922139e-06
000070 94 98 e5 b5 17 fe e6 34 c9 c2 8f 36 94 a5 2a 36
       -1.7106236e-06 4.3025713e-07 4.284408e-06 2.5428353e-06
000080 ae 38 33 b4 a8 45 fd 35 6c a9 af 34 c7 73 2d 35
       -1.6691294e-07 1.8870242e-06 3.271956e-07 6.4616e-07
000090 70 1f 64 36 6e 62 d6 35 1f 9c f7 35 a7 cf 82 b4
       3.3992947e-06 1.5972889e-06 1.8448371e-06 -2.4365474e-07
0000a0 98 ce 13 b6 03 a6 15 b6 b1 54 89 b5 dc d2 82 b6
       -2.202496e-06 -2.2299362e-06 -1.0231944e-06 -3.898849e-06
0000b0 00 cf 91 b5 b5 62 d1 b4 93 65 8c 35 6e 66 5d 36
       -1.0863587e-06 -3.9001102e-07 1.0460375e-06 3.2991188e-06
0000c0 a9 fc 52 b6 ab 77 0a b6 af 61 38 b6 02 b2 82 36
       -3.1439506e-06 -2.0633258e-06 -2.7474996e-06 3.8950247e-06
0000d0 83 73 89 36 5a 5a c8 b5 ef 34 00 34 64 aa 9a b4
       4.0963655e-06 -1.4927457e-06 1.1940186e-07 -2.880871e-07
0000e0 52 77 72 b3 00 64 b5 35 5b fa 3f 36 94 5a b4 b6
       -5.6453537e-08 1.3514655e-06 2.8606944e-06 -5.3749627e-06
0000f0 cf 75 5d 34 0d 26 1f 36 de a1 9d 36 3e e3 66 b6
       2.0625087e-07 2.3714995e-06 4.6978084e-06 -3.4404943e-06
000100 00 b8 b2 35 ee a9 1a b5 b6 57 26 b6 66 4a 86 b5
       1.3315585e-06 -5.761675e-07 -2.4786982e-06 -1.0005431e-06
000110 f6 48 55 34 b5 29 13 36 92 a1 48 36 28 0a 72 36
       1.9863714e-07 2.1928984e-06 2.9896369e-06 3.6066722e-06
000120 7e 1b 27 b6 d3 93 89 b5 90 54 bb 34 22 9a 87 b6
       -2.4900942e-06 -1.0250318e-06 3.4892992e-07 -4.041257e-06
000130 16 f5 32 b6 fd 90 f7 35 e5 3c ea b5 30 c5 5d b4
       -2.6666726e-06 1.8445131e-06 -1.7452081e-06 -2.0653965e-07
000140 2c 9b 85 34 d8 03 3d 35 58 4f f2 b4 51 19 cb 35
       2.4886083e-07 7.041358e-07 -4.5133743e-07 1.5132047e-06
000150 7b 29 93 34 3d 83 a4 35 8c 81 aa 35 22 67 8b 33
       2.7411065e-07 1.2257148e-06 1.270369e-06 6.4914516e-08
000160 da 19 27 36 69 05 0d b4 6c f5 58 b5 a9 85 cb b5
       2.4899987e-06 -1.3133617e-07 -8.0823406e-07 -1.5163579e-06
000170 f5 49 62 b4 f9 b3 a8 b5 fe f1 1e 35 c3 56 a9 35
       -2.1074796e-07 -1.2569354e-06 5.921173e-07 1.2616732e-06
000180 c4 ee 08 b6 2a e6 73 b4 06 e8 e5 b5 7c 21 44 35
       -2.040456e-06 -2.2714872e-07 -1.7129357e-06 7.3064416e-07
000190 54 5b 4d 35 0d 19 f2 33 97 f3 84 b5 4a 77 76 b4
       7.650135e-07 1.127356e-07 -9.90566e-07 -2.2953932e-07
0001a0 1e 88 c6 35 ea cb 9d b5 30 45 57 36 ba 27 18 34
       1.4791765e-06 -1.1756758e-06 3.207777e-06 1.4170556e-07
0001b0 76 e1 53 36 4d 65 5a 35 29 a4 fb 33 c0 c6 ac b5
       3.1572686e-06 8.135874e-07 1.1717959e-07 -1.2872842e-06
0001c0 dd 49 22 b5 e0 80 84 34 73 57 99 b4 34 c4 96 b5
       -6.045719e-07 2.4680685e-07 -2.8562098e-07 -1.1232974e-06
0001d0 19 52 e8 35 c3 e6 6c b4 22 17 5b b5 f7 52 39 36
       1.730924e-06 -2.2063163e-07 -8.161752e-07 2.761544e-06
0001e0 18 2f 73 b6 d8 44 3f b6 a8 7d 3a b6 35 3f 08 36
       -3.6237234e-06 -2.850129e-06 -2.7789301e-06 2.030237e-06
0001f0 9f 76 8b 36 bf 38 92 36 f7 2b cb 35 4f b0 d3 36
       4.156332e-06 4.357745e-06 1.5137474e-06 6.308815e-06
000200 69 2a cb 35 60 9b f6 b6 d5 8b 01 b6 e5 16 fe b5
       1.5137022e-06 -7.3494593e-06 -1.930389e-06 -1.8931138e-06
000210 d0 64 8d 35 f3 9d fb 35 72 9e 0b b6 5f 8f 4b 36
       1.0534659e-06 1.8746927e-06 -2.0804841e-06 3.033281e-06
000220 15 f9 74 b6 b9 05 89 b6 fc c9 1d 37 95 62 1d b7
       -3.6503818e-06 -4.0835844e-06 9.404957e-06 -9.380882e-06
000230 a6 00 0e 37 3a ba c1 b6 0f b3 6f 36 ea 5c f4 36
       8.4640105e-06 -5.773528e-06 3.5718e-06 7.2825833e-06
000240 47 0e 0f 36 45 07 c9 b6 c2 93 9e 36 bf 22 35 35
       2.131697e-06 -5.991113e-06 4.725968e-06 6.7478317e-07
000250 89 5f 08 b7 0a 52 13 36 97 0f 9f 36 68 aa 07 35
       -8.128475e-06 2.195246e-06 4.740384e-06 5.053939e-07
000260 c8 7b df b5 42 c7 2c 36 60 b9 1c b6 40 f2 97 35
       -1.665082e-06 2.574598e-06 -2.3353714e-06 1.1320881e-06
000270 f5 21 18 35 57 74 23 36 c7 f0 5b 36 de 68 73 b6
       5.6673827e-07 2.4356611e-06 3.2773694e-06 -3.6270862e-06
000280 6b 9e 0d b6 61 c4 30 b6 9a 84 7c 36 94 b8 91 b5
       -2.1102849e-06 -2.6340351e-06 3.762811e-06 -1.0857061e-06
000290 2b c0 b0 b5 9a 86 a9 b5 1a 77 ea b5 56 dc 42 35
       -1.316895e-06 -1.2630655e-06 -1.7469022e-06 7.259126e-07
0002a0 77 86 35 b6 ac 41 b2 b5 a0 34 91 b5 d8 b9 2e 36
       -2.704937e-06 -1.3281146e-06 -1.0818658e-06 2.6036196e-06
0002b0 d5 14 79 35 30 a9 aa 35 4a 6e aa 35 af 0b 37 b4
       9.2790043e-07 1.2715227e-06 1.2698085e-06 -1.7047454e-07
0002c0 ec 53 d0 b5 70 66 8a b6 26 04 36 36 bc 8e 8d b6
       -1.5521632e-06 -4.124646e-06 2.7122528e-06 -4.218744e-06
0002d0 ac 33 bf b5 e7 1b 58 b5 6b 57 79 34 08 54 84 b5
       -1.4245647e-06 -8.0506874e-07 2.3221735e-07 -9.859223e-07
0002e0 2d 84 60 35 49 c7 3a b1 0c 97 47 b5 0c f0 65 b5
       8.3638844e-07 -2.7179843e-09 -7.435308e-07 -8.565846e-07
0002f0 e5 15 63 b5 3a 67 33 b4 64 8d 91 35 d6 9d ec 34
       -8.459595e-07 -1.6708228e-07 1.0844492e-06 4.4073266e-07
000300 21 a8 03 33 b8 3d c8 b5 2b bf e2 35 ee 77 05 b6
       3.0653727e-08 -1.4919124e-06 1.6893949e-06 -1.9888353e-06
000310 ec 1c 90 34 34 7d 57 b4 d3 f1 8f 35 f9 e5 0c 36
       2.6843134e-07 -2.0068984e-07 1.072471e-06 2.0995487e-06
000320 1f 2f 12 b5 0e 7b e6 32 9d e1 20 b6 f0 a2 7a 35
       -5.445781e-07 2.6831483e-08 -2.3973182e-06 9.336936e-07
000330 e8 57 14 36 d6 df a1 b4 90 23 33 b4 a4 21 c5 b5
       2.2104887e-06 -3.015145e-07 -1.6683612e-07 -1.4687434e-06
000340 1f a9 28 33 e3 0f 10 35
       3.9269363e-08 5.36673e-07

exp_avg_sq f4 [7, 30]
000000 69 59 a8 2f 18 77 a4 30 78 f4 58 2f 03 ca 97 30
       3.0622552e-10 1.1966419e-09 1.9731938e-10 1.1044111e-09
000010 dd 38 20 2f 27 0c b4 2f 03 ed 1b 2f d2 ae cf 2f
       1.4572117e-10 3.2750444e-10 1.4181371e-10 3.7777298e-10
000020 80 e0 a8 2e fd 57 69 2e a3 e6 00 2f 37 ac c1 2e
       7.679635e-11 5.3056216e-11 1.1723471e-10 8.8072154e-11
000030 0d f4 57 31 46 8d 4a 31 14 cd ad 30 de 15 c4 2f
       3.1425345e-09 2.9475173e-09 1.2645693e-09 3.566773e-10
000040 ad 6b b8 30 2f d7 a7 30 05 e8 28 30 36 6e 79 2f
       1.3418365e-09 1.2212008e-09 6.1447764e-10 2.2685573e-10
000050 3c cc 15 2f 7e 12 45 30 ed 42 bb 30 18 54 97 2e
       1.362403e-10 7.169446e-10 1.3625062e-09 6.881623e-11
000060 6e 7c dd 2f ab f5 81 30 ad 3c 0d 2f 38 6b ae 30
       4.0288078e-10 9.455808e-10 1.2845432e-10 1.269064e-09
000070 85 e7 93 2f 33 87 d1 2f b8 e4 be 2f 3f f5 2e 30
       2.690365e-10 3.8112943e-10 3.4723313e-10 6.3649347e-10
000080 3c c1 17 2f f2 e0 3d 30 a3 a1 65 2f ad 87 a2 2f
       1.380202e-10 6.9077466e-10 2.0884854e-10 2.9564032e-10
000090 9c 68 7d 2f 2a 35 45 30 63 37 72 2f d3 58 25 2f
       2.304738e-10 7.1743733e-10 2.2029449e-10 1.5038219e-10
0000a0 e4 6d 6e 30 b7 c5 3f 2f d8 02 89 2f 52 28 2b 2f
       8.674006e-10 1.7441591e-10 2.4922175e-10 1.5566684e-10
0000b0 e8 f9 1e 2f 39 40 eb 30 14 9e f1 2f 46 ae 55 30
       1.4458801e-10 1.7116754e-09 4.3949966e-10 7.7736606e-10
0000c0 b5 76 88 30 eb 3c 9b 2f 8a 69 0a 2f ac 26 2f 2f
       9.929041e-10 2.823762e-10 1.2588522e-10 1.5929896e-10
0000d0 f5 a9 4b 30 78 54 30 2f 99 c4 a0 2e e2 46 09 30
       7.4092493e-10 1.6037116e-10 7.3108804e-11 4.994104e-10
0000e0 35 43 f6 2f 41 af 50 30 8f 92 6d 2f 72 ff d3 2f
       4.4794893e-10 7.591901e-10 2.1607093e-10 3.856218e-10
0000f0 36 09 10 31 a7 91 89 30 ec 64 9f 30 63 00 17 31
       2.0959994e-09 1.0009459e-09 1.1597456e-09 2.1973612e-09
000100 13 29 d1 2e e6 d6 d9 2f 68 a0 ea 30 37 1f 34 2e
       9.511516e-11 3.9624765e-10 1.7071331e-09 4.0954986e-11
000110 a4 3e 98 2f d6 01 5d 2f b9 3f ee 30 3b b6 75 30
       2.7693148e-10 2.0100485e-10 1.733489e-09 8.9389446e-10
000120 79 c8 f9 2e d3 d4 8a 2f 49 bd 79 30 c9 be c9 31
       1.135882e-10 2.5253274e-10 9.085466e-10 5.8715597e-09
000130 8c e5 6d 30 ab 29 f7 2e ee b5 7a 2f 85 c0 4f 2e
       8.6546303e-10 1.1239661e-10 2.2802002e-10 4.7237343e-11
000140 12 e4 45 30 d5 be 22 2f 46 f6 da 2f 25 91 fe 30
       7.199229e-10 1.4801611e-10 3.9828957e-10 1.8522185e-09
000150 0d 77 19 2f 97 4e 19 2f 0b d9 9d 30 9d 9d 89 30
       1.3957564e-10 1.394319e-10 1.1484941e-09 1.0012858e-09
000160 51 ba 8a 30 92 74 2b 31 d7 5e 1a 30 37 ae 88 30
       1.0093776e-09 2.4950038e-09 5.615965e-10 9.944817e-10
000170 82 f8 31 30 d4 ed f8 2f e4 f7 eb 2d f4 37 51 30
       6.4745376e-10 4.5279924e-10 2.6826492e-11 7.611327e-10
000180 3f 8d aa 2f a6 5b 24 31 7e 2d 08 2e f8 7f 86 2f
       3.102318e-10 2.3917237e-09 3.0963225e-11 2.4465385e-10
000190 bd ce ca 2d 52 ee 64 30 61 0b 29 31 79 c3 3c 31
       2.3056551e-11 8.328459e-10 2.4599205e-09 2.7468714e-09
0001a0 49 35 fb 30 79 27 a1 30 6c 6c e3 30 96 0a 0d 31
       1.8277798e-09 1.1725511e-09 1.6547239e-09 2.0524218e-09
0001b0 f5 d5 b0 2f fe 3d 18 2f 6a 9b 08 2f 7a 89 ca 2f
       3.216624e-10 1.3846344e-10 1.2424342e-10 3.684127e-10
0001c0 ec f8 b3 2f a9 6d 29 2f 68 9c 2f 30 35 5c d0 2e
       3.273678e-10 1.540942e-10 6.3886896e-10 9.475124e-11
0001d0 41 89 45 30 32 f8 dd 2e 51 20 6b 2f a8 f6 14 30
       7.186323e-10 1.0094005e-10 2.1384607e-10 5.4192606e-10
0001e0 5d 30 c0 2f e6 0a aa 2f d6 9c 34 2f a3 24 82 2f
       3.495896e-10 3.0930564e-10 1.6426624e-10 2.3672894e-10
0001f0 3b a5 33 2f 38 5b 36 2f f2 10 15 2f 01 91 1d 30
       1.6338657e-10 1.6585211e-10 1.3557491e-10 5.732233e-10
000200 bd ed 09 30 08 5b f6 2f 82 03 0b 2f 81 2d 78 2f
       5.0178156e-10 4.481182e-10 1.2643223e-10 2.2571635e-10
000210 ed cb 27 30 d6 b4 18 2f 11 c5 19 2f 65 1c 37 30
       6.104404e-10 1.3888565e-10 1.3985281e-10 6.6615363e-10
000220 b0 e4 95 2f c3 48 77 2f 8f ca 7d 30 6f c5 35 30
       2.7265434e-10 2.2490369e-10 9.2328717e-10 6.6127986e-10
000230 2f f9 59 30 d6 1b 8b 2f b5 00 01 2f fe af 03 30
       7.929825e-10 2.530373e-10 1.1732733e-10 4.790762e-10
000240 c8 bd 2b 2f c4 d3 cc 2f 7d e0 26 2f ea c7 b4 2f
       1.5619783e-10 3.7257852e-10 1.5177366e-10 3.2883857e-10
000250 87 43 15 30 fe 0a 1e 2f cc 76 79 30 81 92 1d 2f
       5.4301846e-10 1.4373921e-10 9.0754493e-10 1.4331115e-10
000260 62 aa 37 2f d6 a0 77 30 64 01 a4 2e 39 d7 17 2f
       1.6704285e-10 9.008664e-10 7.4581036e-11 1.3809832e-10
000270 f8 c5 1c 30 eb 39 74 30 6e a1 c6 2e ea 23 5c 30
       5.70338e-10 8.884899e-10 9.032673e-11 8.008657e-10
000280 b8 c3 25 30 5c d5 a5 2f ba 4f 38 30 d3 77 ff 2e
       6.0304783e-10 3.0164926e-10 6.705211e-10 1.16173425e-10
000290 f0 6d b0 2e 22 4e a8 31 20 93 d7 2e 11 53 87 2f
       8.023082e-11 4.898326e-09 9.803203e-11 2.461538e-10
0002a0 93 02 5b 2f 9a 35 d3 2e 59 db 97 2f b3 61 93 2f
       1.9918849e-10 9.604691e-11 2.7622596e-10 2.6808564e-10
0002b0 a3 8e 68 2f 61 f9 b4 2f 4d 55 fb 2e b4 d7 e6 2e
       2.1150952e-10 3.2919004e-10 1.1429311e-10 1.04975056e-10
0002c0 b3 0d 2f 2f 5b 0d 26 30 24 85 01 30 c5 d6 88 30
       1.5921024e-10 6.040943e-10 4.711913e-10 9.956344e-10
0002d0 dd 22 c5 30 7a 9c 6a 2f 07 94 d1 2e 80 54 c2 2f
       1.4343545e-09 2.1337768e-10 9.5305146e-11 3.5348435e-10
0002e0 30 57 26 30 de 24 f4 2f 6f 1a 04 30 00 24 b0 2e
       6.051435e-10 4.4409537e-10 4.8058885e-10 8.009948e-11
0002f0 a3 0a 0a 30 95 da f4 30 ac 3b 6e 2f cb 64 f7 30
       5.0219223e-10 1.7815461e-09 2.1667174e-10 1.8000262e-09
000300 bb 93 01 31 99 e9 8b 30 7e 7b 54 30 54 9f 8f 30
       1.8855946e-09 1.0179974e-09 7.7300644e-10 1.0449903e-09
000310 3f 9e 23 30 d6 5b 3e 2f 5b 15 22 2f 95 4b a9 2f
       5.9523936e-10 1.7313026e-10 1.4741401e-10 3.0794625e-10
000320 45 05 92 2f 36 f5 e0 2e d4 81 61 2f 59 3c 1f 2f
       2.656099e-10 1.0229899e-10 2.0509755e-10 1.4482406e-10
000330 3a 45 04 30 23 6a 4b 30 74 98 cb 2f 65 d0 40 31
       4.8119697e-10 7.40018e-10 3.703381e-10 2.8058136e-09
000340 08 6b 80 2e e8 81 ad 2e
       5.839779e-11 7.890205e-11

exp_avg f4 [7]
000000 2c f2 1a ac 7a 66 d0 ab 60 91 a9 2c 85 d8 23 2c
       -2.2019149e-12 -1.4807732e-12 4.8194088e-12 2.3283886e-12
000010 88 34 64 2c 0b cb 04 29 63 b4 75 2c
       3.242991e-12 2.9486e-14 3.4916729e-12

exp_avg_sq f4 [7]
000000 e8 30 8f 2a e5 25 ae 2c 48 24 d5 29 9e 2b 56 2b
       2.5435838e-13 4.9495846e-12 9.465394e-14 7.6088604e-13
000010 40 28 11 28 5a 01 25 2c 58 ad d9 2c
       8.057845e-15 2.344866e-12 6.186756e-12
