tutorial/DLPFC_output/version_0/checkpoints/mlp.ckpt (torch, 18997 bytes, 12 tensors)

model.classifier.0.weight f4 [30, 30]
-0.09823498 -0.18924788 0.08757291 -0.13911535 0.15356864 -0.19799502 -0.17219047 0.05704487
-0.1461783 0.057455853 -0.22103128 -0.132068 -0.11818029 0.12752423 0.14431469 -0.03551838
0.05707819 0.004169461 0.12324131 -0.20325895 0.008768592 0.039239198 0.16460912 -0.08844481
-0.0824205 -0.07408575 -0.025685463 0.078292556 -0.22057825 -0.13462119 -0.05504157 -0.124911144
0.07980909 0.04407014 0.1182928 -0.054523524 -0.08523674 0.044451486 -0.120715015 0.111478955
-0.15634476 -0.14625819 0.04181397 -0.016612755 0.11794679 0.01586451 -0.0066194036 -0.06485806
0.024838712 -0.11337643 0.0976835 -0.015376061 0.12584041 0.1603886 0.0013976045 -0.021148842
0.017883297 0.048442934 0.025373306 -0.07531719 0.05325759 0.0007457506 0.0015500719 0.10405262
0.03910412 0.12683097 0.04766447 -0.122064196 0.06635096 0.13551515 0.0074993577 0.017353544
0.094477475 -0.081590235 0.008724982 0.010319494 0.06143833 -0.030800087 -0.027600594 0.18277955
0.1668772 -0.0018726088 -0.15715304 0.11764858 0.050324056 -0.04028515 0.054381046 -0.11889498
0.19896096 -0.034930207 -0.014214042 0.01353767 0.018548712 -0.111684985 -0.06532774 -0.05559133
-0.023585573 -0.07066989 0.059197903 -0.07233555 0.038006503 0.10328761 -0.14703025 0.14067023
-0.02514249 -0.027251823 0.07501413 0.15834983 0.036425054 0.01842333 -0.08559945 0.044964056
-0.0958974 -0.2576625 -0.06274544 0.020977667 -0.0025278532 0.0020975058 -0.12615946 -0.030474165
0.052942257 0.068572864 -0.009182514 0.06702885 -0.11558525 0.1582968 0.09257009 -0.15988077
0.13173899 0.010584791 0.13968867 0.1705631 0.022906955 0.002884952 -0.09030733 0.016862778
0.049728125 0.10147809 -0.080668025 0.20849863 0.037719402 -0.007614688 -0.24507229 -0.0840052
0.024601938 0.06184025 0.04760266 -0.09839172 0.16998534 0.014896782 0.00010064785 0.050036248
-0.022408694 -0.028014435 -0.027825179 0.095033415 0.06210526 -0.11204558 0.14083801 0.01275311
0.10885408 0.12966786 -0.0118652815 0.049136877 -0.08139084 -0.007782392 0.08259656 0.06369033
-0.006033867 0.22031547 0.036181856 0.036887307 -0.2093958 -0.1288123 -0.004225901 -0.06079957
0.023536097 -0.13144785 0.06881863 -0.04177312 -0.09792591 -0.11515863 -0.0074360967 -0.035708215
0.15081525 -0.025221659 -0.0392438 -0.008638628 0.021139935 0.11216828 -0.07425036 -0.041649636
-0.0023701407 0.05243742 0.003683661 -0.019990984 0.051790453 -0.07115879 0.059682723 0.086939625
0.09572333 0.058560424 -0.01143539 0.0042640516 -0.052618742 -0.16188191 -0.023751356 -0.10015165
-0.006765287 -0.12859552 -0.0048819324 0.05016945 0.016614221 -0.090575725 -0.067330614 0.04827789
0.03200859 -0.11937197 0.13031408 -0.029979058 0.10360137 0.14728625 -0.07508263 0.09507319
-0.054941654 -0.011209716 0.106899545 0.15456952 0.0105539225 0.16626574 -0.009906271 0.040417165
-0.20461515 -0.22758062 -0.02134486 -0.016659085 0.037102647 -0.079672456 0.0010575816 -0.044013202
-0.045561068 -0.064314626 0.018133244 -0.056534935 0.1843242 -0.019191341 -0.043836527 -0.053204514
0.04342979 0.14409892 -0.0890026 -0.06595991 0.012352042 0.023667663 0.058310434 -0.03126223
00000000: 6c2f c9bd 32ca 41be 6d59 b33d 4174 0ebe
00000010: 1941 1d3e 35bf 4abe b352 30be e2a7 693d
00000020: c4af 15be d456 6b3d 0656 62be d53c 07be
00000030: 8208 f2bd b695 023e 3bc7 133e b97b 11bd
00000040: d2ca 693d f99f 883b f165 fc3d 1d23 50be
00000050: 24aa 0f3c 48b9 203d 4b8f 283e 8d22 b5bd
00000060: 14cc a8bd 45ba 97bd 526a d2bc d957 a03d
00000070: 44df 61be 23da 09be 4573 61bd 6ad1 ffbd
00000080: f372 a33d e482 343d 7f43 f23d 0f54 5fbd
00000090: 9a90 aebd c312 363d 6f39 f7bd 144f e43d
000000a0: d718 20be b5c4 15be 2045 2b3d 7917 88bc
000000b0: 168e f13d 4af6 813c 95e7 d8bb 4dd4 84bd
000000c0: 8e7a cb3c e731 e8bd 490e c83d e0eb 7bbc
000000d0: 4fdc 003e e93c 243e d32f b73a 5640 adbc
000000e0: fe7f 923c 196c 463d aedb cf3c e63f 9abd
000000f0: a124 5a3d 7a7e 433a c82b cb3a 8a19 d53d
00000100: a42b 203d fadf 013e d23b 433d cbfc f9bd
00000110: 03e3 873d 7cc4 0a3e 2cbd f53b 0529 8e3c
00000120: 687d c13d c818 a7bd 3af3 0e3c 1813 293c
00000130: c2a6 7b3d 7750 fcbc a41a e2bc 902a 3b3e
00000140: dbe1 2a3e 5372 f5ba baec 20be bdf1 f03d
00000150: 9920 4e3d 0b02 25bd a9be 5e3d 367f f3bd
00000160: 6cbc 4b3e fa12 0fbd 03e2 68bc 1acd 5d3c
00000170: 78f3 973c 19bb e4bd 8dca 85bd bcb3 63bd
00000180: 8836 c1bc 60bb 90bd 8079 723d a924 94bd
00000190: b5ac 1b3d 7488 d33d 198f 16be db0b 103e
000001a0: a0f7 cdbc 373f dfbc 02a1 993d 7526 223e
000001b0: 7032 153d 86ec 963c c44e afbd 3b2c 383d
000001c0: db65 c4bd 57ec 83be ae80 80bd 5bd9 ab3c
000001d0: 57aa 25bb 4f76 093b f22f 01be f5a4 f9bc
000001e0: fbd9 583d ee6f 8c3d 4172 16bc 6c46 893d
000001f0: f6b7 ecbd 8e18 223e 6395 bd3d c9b7 23be
00000200: 96e6 063e d56b 2d3c 8c0a 0f3e 18a8 2e3e
00000210: 5ea7 bb3c 7611 3d3b 0df3 b8bd cf23 8a3c
00000220: b8af 4b3d bfd3 cf3d 4735 a5bd aa80 553e
00000230: a97f 1a3d a284 f9bb 3bf4 7abe eb0a acbd
00000240: 018a c93c 344c 7d3d 02fb 423d 9981 c9bd
00000250: a310 2e3e a211 743c e712 d338 cff2 4c3d
00000260: 7092 b7bc 877e e5bc a1f1 e3bc e1a0 c23d
00000270: 1662 7e3d 2778 e5bd d737 103e 6cf2 503c
00000280: e3ee de3d a7c7 043e 9966 42bc c043 493d
00000290: 3eb0 a6bd 7003 ffbb 6328 a93d 1370 823d
000002a0: bfb7 c5bb 619a 613e 6d33 143d 2517 173d
000002b0: da6b 56be 5fe7 03be 6d79 8abb f808 79bd
000002c0: c6ce c03c 449a 06be c8f0 8c3d 4b1a 2bbd
000002d0: 618d c8bd 4ad8 ebbd 80aa f3bb c742 12bd
000002e0: 506f 1a3e a79d cebc 1bbe 20bd 0889 0dbc
000002f0: a82d ad3c 7cb8 e53d 9310 98bd cf98 2abd
00000300: 5d54 1bbb 9fc8 563d 9469 713b 22c4 a3bc
00000310: 3a22 543d b3bb 91bd df75 743d 670d b23d
00000320: 980a c43d 0edd 6f3d 815b 3bbc 75b9 8b3b
00000330: c086 57bd 5fc4 25be 3492 c2bc 4f1c cdbd
00000340: 57af ddbb 8bae 03be 9ef8 9fbb 7b7e 4d3d
00000350: 8c1a 883c c47f b9bd a2e4 89bd 09bf 453d
00000360: 701b 033d 4b79 f4bd 0e71 053e a496 f5bc
00000370: f42c d43d 35d2 163e ecc4 99bd bcb5 c23d
00000380: 800a 61bd f5a8 37bc 26ee da3d 7947 1e3e
00000390: 5cea 2c3c 9141 2a3e e94d 22bc 788c 253d
000003a0: a286 51be e50a 69be 6adb aebc a278 88bc
000003b0: f2f8 173d 502b a3bd 8d9e 8a3a 3047 34bd
000003c0: 3e9e 3abd 63b7 83bd 2b8c 943c 2d91 67bd
000003d0: 7cbf 3c3e 2937 9dbc ee8d 33bd faec 59bd
000003e0: 6fe3 313d ab8e 133e ff46 b6bd fd15 87bd
000003f0: 3860 4a3c b0e2 c13c ecd6 6e3d d30c 00bd

model.classifier.0.bias f4 [30]
7.554713e-09 5.640907e-10 7.1475186e-09 -7.685591e-08 2.8839112e-08 -1.9973058e-08 -8.729642e-09 -4.747074e-08
-4.5418755e-08 1.612245e-07 6.125106e-08 7.6879786e-08 -7.291203e-08 4.2487873e-08 -1.1969184e-08 -1.5334708e-08
2.6139528e-08 -2.3236792e-08 5.427161e-08 1.2496385e-08 1.288077e-08 -8.110827e-08 -5.825771e-08 -4.2747043e-08
-3.534008e-08 4.566704e-08 1.9138787e-08 2.5753608e-09 -7.42269e-08 9.3858674e-08
00000000: fbc9 0132 5b0e 1b30 3d96 f531 fc0b a5b3
00000010: e1b9 f732 3891 abb2 5ff9 15b2 a1e2 4bb3
00000020: 7312 43b3 0e1d 2d34 2089 8333 1c19 a533
00000030: d093 9cb3 e97b 3633 07a1 4db2 61b9 83b2
00000040: 6e89 e032 3f9a c7b2 4418 6933 afaf 5632
00000050: 3a4a 5d32 be2d aeb3 0837 7ab3 df98 37b3
00000060: d4c8 17b3 7123 4433 a366 a432 3afa 3031
00000070: ab66 9fb3 5a8f c933

model.classifier.1.weight f4 [7, 30]
-0.00798819 -0.11913412 -0.28498816 -0.016990503 -0.19811337 -0.14452441 -0.1178056 -0.14851111
-0.24236247 -0.07232229 0.09585217 -0.11609948 0.33719108 0.25082183 -0.005072837 0.0036030326
0.0186313 -0.1437699 0.05128951 0.23374254 0.092576616 -0.2537151 -0.3394259 -0.046391595
-0.0059653306 0.07164389 -0.11881383 -0.34090352 -0.13558911 0.15802252 -0.36141872 -0.24291953
-0.039562218 0.13774279 0.31208697 0.11271899 -0.29985708 0.18853524 -0.37209406 0.5167164
0.119999334 0.49071658 -0.26723742 0.15591343 0.28586867 0.20116976 0.44204006 -0.2863489
0.48425022 -0.082185484 -0.039685413 -0.28432646 0.21882576 0.049603306 -0.3689941 -0.31965664
0.23724936 0.26496166 -0.04706355 0.39212233 -0.17356423 0.08482275 0.17266633 -0.25220743
0.0015535238 -0.07743017 -0.1292655 -0.15720594 -0.0019928787 0.054233983 0.18560156 0.15415676
-0.1663034 0.16216798 -0.097274184 -0.1650259 -0.15250713 0.02666835 0.05078656 0.049137983
0.23432554 -0.229264 -0.12384981 0.03610906 -0.101375185 0.11863722 0.086410694 0.027118733
-0.12264806 0.25640178 0.17841086 0.18350978 0.062682405 -0.086507395 -0.05195682 -0.004235751
0.17319123 -0.05122888 0.15233867 -0.11093675 -0.05742741 -0.15905066 -0.09351447 -0.12451628
-0.18450539 -0.12354347 -0.06923094 0.20683613 -0.14905956 -0.055547 0.007500021 0.07011088
0.05430198 -0.08425317 0.03560317 0.111708455 0.013525329 0.07583687 0.0038344346 -0.15428771
0.37396842 0.15179847 -0.19602798 0.08597368 -0.21700414 -0.2411087 -0.092647746 -0.12556909
-0.11354877 0.37623423 -0.06533153 0.028753616 0.15682441 0.16467814 0.019013222 0.030064434
0.3455819 0.121720746 -0.39286208 0.35812542 -0.3585136 0.07583006 0.09358658 -0.37323573
-0.2887114 0.16099404 -0.19342688 -0.120731026 0.30413765 -0.042707615 0.29018572 -0.11025026
-0.21997033 0.3368543 -0.06891538 0.09448841 0.034502365 0.25710627 0.08523198 -0.20219524
-0.2502812 -0.20814277 0.4203232 -0.14686166 0.16924982 0.17860252 0.06572074 -0.06454597
-0.14056045 -0.03285864 -0.26165882 0.30614308 0.04244233 0.09914833 0.1845208 -0.14402957
-0.17846212 -0.2881052 0.23949376 -0.32805946 -0.27669728 -0.27165288 0.23407099 0.16282304
0.3834395 0.36318225 0.04663607 0.32809788 0.12590022 -0.021059578 -0.08767669 0.16917007
-0.34912434 -0.350479 0.27021357 0.19991945 -0.021288311 -0.15605421 0.3572273 -0.3776801
-0.053820547 0.31041256 0.30880022 0.2950608 0.20148617 -0.34444728 0.19658902 0.33493748
0.02437729 -0.09314706
00000000: e6e0 02bc 97fc f3bd f8e9 91be ab2f 8bbc
00000010: 3bde 4abe 35fe 13be 1044 f1bd 4c13 18be
00000020: de2d 78be b51d 94bd 244e c43d 90c5 edbd
00000030: 4fa4 ac3e b86b 803e 0b3a a6bb db20 6c3b
00000040: aba0 983c 6b38 13be f314 523d 345a 6f3e
00000050: cf98 bd3d f2e6 81be 3bc9 adbe 1d05 3ebd
00000060: d278 c3bb 08ba 923d aa54 f3bd e88a aebe
00000070: dfd7 0abe a8d0 213e e00b b9be e6bf 78be
00000080: fe0b 22bd 720c 0d3e ddc9 9f3e 37d9 e63d
00000090: de86 99be 620f 413e 1d83 bebe 8747 043f
000000a0: 36c2 f53d 343f fb3e 58d3 88be c5a7 1f3e
000000b0: 615d 923e 72ff 4d3e 1353 e23e 539c 92be
000000c0: a5ef f73e dd50 a8bd 2c8d 22bd 3d93 91be
000000d0: dc13 603e d62c 4b3d cbec bcbe 09aa a3be
000000e0: 7ff1 723e 0ea9 873e b6c5 40bd 42c4 c83e
000000f0: d2ba 31be 8db7 ad3d 71cf 303e 5521 81be
00000100: 9c9f cb3a b593 9ebd 2d5e 04be 98fa 20be
00000110: f59a 02bb 7424 5e3d 560e 3e3e 45db 1d3e
00000120: 704b 2abe 5d0f 263e b037 c7bd 8dfc 28be
00000130: d42a 1cbe 9577 da3c 9105 503d e944 493d
00000140: 09f3 6f3e 2fc4 6abe f8a4 fdbd 18e7 133d
00000150: cb9d cfbd 12f8 f23d 17f8 b03d 1b28 de3c
00000160: e82e fbbd 1847 833e 56b1 363e fde9 3b3e
00000170: a25f 803d ca2a b1bd add0 54bd 0ecc 8abb
00000180: 0b59 313e 60d5 51bd abfe 1b3e cf32 e3bd
00000190: 0139 6bbd 2dde 22be 8484 bfbd 6402 ffbd
000001a0: fbee 3cbe 5c04 fdbd f3c8 8dbd dacc 533e
000001b0: 12a3 18be 4085 63bd bcc2 f53b 4b96 8f3d
000001c0: c16b 5e3d ed8c acbd a1d4 113d 67c7 e43d
000001d0: 5799 5d3c 5c50 9b3d 234b 7b3b 99fd 1dbe
000001e0: ca78 bf3e 0f71 1b3e 8fbb 48be f812 b03d
000001f0: 5536 5ebe 33e5 76be 1abe bdbd 2f95 00be
00000200: 428c e8bd c6a1 c03e 8acc 85bd b48c eb3c
00000210: 9496 203e 63a1 283e 9ec1 9b3c b049 f63c
00000220: 1cf0 b03e ba48 f93d 3825 c9be 375c b73e
00000230: 188f b7be ca4c 9b3d 52aa bf3d c118 bfbe
00000240: fbd1 93be 9fdb 243e b211 46be d441 f7bd
00000250: eeb7 9b3e 2eee 2ebd 3993 943e e3ca e1bd
00000260: e73f 61be 2b78 ac3e 8223 8dbd 2483 c13d
00000270: 5a52 0d3d 6fa3 833e 1b8e ae3d 450c 4fbe
00000280: dc24 80be 6123 55be 9a34 d73e e762 16be
00000290: d34f 2d3e 94e3 363e 9898 863d ad30 84bd
000002a0: 14ef 0fbe c896 06bd 25f8 85be c9be 9c3e
000002b0: 02d8 2d3d 480e cb3d 05f3 3c3e 7d7c 13be
000002c0: c6be 36be 8682 93be da3d 753e 69f7 a7be
000002d0: 44ab 8dbe 1616 8bbe 4eb0 6f3e 15bb 263e
000002e0: 2f52 c43e 06f3 b93e 7705 3f3d 72fc a73e
000002f0: fdeb 003e 2385 acbc d68f b3bd eb3a 2d3e
00000300: 6dc0 b2be fc71 b3be 6f59 8a3e afb7 4c3e
00000310: d364 aebc adcc 1fbe 7fe6 b63e 495f c1be
00000320: ef72 5cbd 65ee 9e3e 101b 9e3e 3612 973e
00000330: 6452 4e3e 655b b0be a24e 493e ed7c ab3e
00000340: e2b2 c73c e3c3 bebd

model.classifier.1.bias f4 [7]
-2.9243447e-08 -1.8056893e-08 -7.958229e-08 -7.748552e-08 4.5784884e-07 -1.7328627e-07 -4.6328868e-08
00000000: 0533 fbb2 871b 9bb2 d4e6 aab3 1d66 a6b3
00000010: 44ce f534 9110 3ab4 21fb 46b3

exp_avg f4 [30, 30]
-2.124218e-06 5.717455e-07 -1.0744038e-06 -2.1511664e-06 3.2406597e-06 -9.01871e-07 1.67202e-07 3.445359e-06
-2.7370006e-06 -1.1606184e-06 1.2296308e-06 -1.3762735e-07 -2.3483241e-07 1.1953238e-06 1.09355746e-07 -7.0089635e-07
-6.026563e-07 -5.27297e-06 1.2001427e-06 -1.4491278e-06 -1.7579963e-06 1.6985719e-06 1.2702699e-06 -8.1491163e-07
7.49425e-07 -1.7131822e-06 -2.9674154e-06 -1.1894905e-06 -2.691487e-06 -7.11243e-07 -1.4675571e-06 8.765322e-07
-3.6138866e-07 -1.2904167e-06 1.5145943e-06 -2.086994e-06 2.8157663e-07 2.2525503e-06 -8.154312e-07 -1.1643291e-06
2.1897208e-07 -4.6056897e-08 -7.9696736e-07 8.4245454e-07 4.9306954e-07 -7.97878e-07 -7.0269726e-07 -2.835187e-06
2.183357e-06 -7.073919e-07 -4.1406675e-10 8.891757e-07 1.2250159e-06 -8.3060496e-07 -6.4046736e-07 -1.5798311e-06
-1.734089e-06 -6.4225526e-07 -1.4236346e-06 -1.2613029e-06 8.0812066e-07 6.07849e-07 -5.907958e-07 1.0976901e-06
-1.8910479e-06 9.172874e-07 1.6275123e-06 3.2573647e-07 8.7172816e-07 -3.359059e-07 -4.2920678e-07 3.6037878e-07
-5.135437e-07 -1.5817714e-06 1.5459798e-07 4.664971e-07 -9.2225014e-07 -1.2920998e-07 2.3055931e-07 5.8281934e-08
-1.6162973e-07 -6.2752474e-07 4.8755714e-07 1.2564765e-06 5.8928265e-07 5.263605e-07 2.3712262e-07 7.6511725e-07
-5.22135e-08 9.298285e-07 -2.2351134e-07 1.4566355e-06 7.177138e-07 2.2290217e-06 4.186112e-07 6.2406343e-07
-6.763907e-07 -7.875021e-07 -3.0403692e-07 6.5113305e-08 1.0089942e-06 -1.5385548e-06 2.7673494e-07 6.29248e-07
-3.5325846e-07 5.231663e-07 4.3723557e-07 1.158427e-06 -1.9350266e-06 1.4776182e-08 -1.0823109e-06 1.7169815e-07
-3.5916997e-07 2.763236e-06 9.840635e-07 7.304829e-07 8.93847e-07 1.5034483e-07 1.9488724e-07 4.962089e-07
1.4181941e-06 -9.2693185e-08 8.1041657e-07 1.9781694e-06 -2.4483845e-06 1.9317608e-06 -1.7496293e-07 -2.4709905e-06
1.250308e-06 5.686027e-07 -3.7416086e-08 -1.864257e-07 7.9888036e-07 -5.9342165e-07 -6.420876e-07 9.140226e-07
1.6371537e-07 3.539355e-06 -2.3607624e-06 8.1638916e-07 5.883151e-07 -1.5636138e-06 3.4930846e-08 8.1417727e-07
4.195492e-07 1.7634453e-06 2.445877e-06 1.1084866e-06 2.1381752e-06 1.1385392e-06 -1.5199973e-07 1.5521015e-06
2.65616e-07 1.5966177e-06 -1.6324818e-06 2.6845744e-06 5.919975e-07 -1.6312939e-07 5.4755185e-07 -1.1321649e-07
7.4097926e-07 9.074829e-08 1.2010094e-06 -9.435733e-07 -6.577237e-07 1.1949492e-06 -3.0791873e-07 1.217678e-06
-1.7623647e-06 2.6526985e-07 -7.962957e-07 -9.672184e-07 -1.9435453e-07 2.0158132e-06 1.6170655e-06 9.792506e-07
1.1791751e-06 7.797149e-07 1.580835e-06 1.1738966e-06 -3.3034494e-06 1.3650507e-06 -1.0730333e-06 2.0579306e-07
8.901334e-07 8.5090073e-07 1.4042531e-06 3.6039505e-06 -1.0840754e-06 -9.744734e-07 1.6402975e-06 1.4871205e-07
4.5812308e-07 -6.7035677e-07 -1.0134966e-06 5.1246917e-07 -1.4684485e-06 -4.096384e-06 1.5824374e-07 -9.247899e-07
-1.7189337e-06 7.629628e-07 1.5137421e-06 2.3903447e-06 1.4806507e-06 -1.0232991e-06 -2.0751745e-06 -5.278841e-07
5.129246e-08 7.984161e-07 -5.2857786e-08 1.7459749e-06 8.078261e-07 8.951293e-07 -1.2107338e-06 2.2827514e-06
-9.089862e-08 -6.323373e-07 5.024588e-07 -3.2803484e-09 9.469867e-07 -4.0040283e-07 1.6617087e-06 -1.6272053e-06
-1.3854266e-07 1.0267411e-06 2.361257e-07 2.4329802e-06 -2.1302683e-06 4.013428e-07 -5.3000724e-07 -1.0224582e-06
-2.76588e-07 1.9720057e-06 1.6755492e-06 1.1441762e-06 1.8821014e-06 8.593354e-07 1.4716989e-06 8.412653e-07
-2.2097834e-06 4.1316976e-06 -1.2143936e-06 5.078116e-07 4.0606446e-07 7.4846713e-07 2.1056915e-06 4.122525e-06
-6.2609524e-07 -2.1122628e-06 1.2555276e-06 3.787522e-07 5.0869346e-07 -1.3797705e-06 -2.218359e-07 3.5116534e-07
00000000: ca8d 0eb6 0d7a 1935 3c34 90b5 c25c 10b6
00000010: 1c7a 5936 1a18 72b5 2388 3334 d136 6736
00000020: 50ad 37b6 8bc6 9bb5 cb09 a535 b8c6 13b4
00000030: 3e26 7cb4 036f a035 f5d6 ea33 3b25 3cb5
00000040: 3ac6 21b5 78ee b0b6 9714 a135 a77f c2b5
00000050: 4bf4 ebb5 7cfa e335 247e aa35 4dc0 5ab5
00000060: 182c 4935 7ef0 e5b5 cf23 47b6 95a6 9fb5
00000070: 659f 34b6 3fec 3eb5 e1f8 c4b5 d64a 6b35
00000080: e104 c2b4 6132 adb5 1049 cb35 490e 0cb6
00000090: 992b 9734 852a 1736 01e4 5ab5 0b46 9cb5
000000a0: 961e 6b34 18d0 45b3 2eef 55b5 0925 6235
000000b0: 7b5b 0435 c22d 56b5 fda0 3cb5 2444 3eb6
000000c0: ca85 1236 9ae3 3db5 b7a2 e3af b0af 6e35
000000d0: 3a6b a435 bdf6 5eb5 95ec 2bb5 950a d4b5
000000e0: d8be e8b5 7267 2cb5 b613 bfb5 0a4a a9b5
000000f0: a1ed 5835 112b 2335 2e97 1eb5 5854 9335
00000100: e9cf fdb5 833b 7635 e670 da35 e1e0 ae34
00000110: b400 6a35 8e56 b4b4 bb6d e6b4 157a c134
00000120: 74da 09b5 404d d4b5 92ff 2534 e072 fa34
00000130: 8c90 77b5 f8bc 0ab4 a98f 7734 aa51 7a33
00000140: 718c 2db4 2c73 28b5 ace0 0235 34a4 a835
00000150: 322f 1e35 384b 0d35 c59b 7e34 7562 4d35
00000160: 5a41 60b3 5499 7935 54fe 6fb4 9d81 c335
00000170: eba8 4035 4d96 1536 7cbd e034 5085 2735
00000180: 3791 35b5 bb64 53b5 843a a3b4 6bd4 8b33
00000190: c76c 8735 5780 ceb5 2992 9434 98e9 2835
000001a0: 79a7 bdb4 b76f 0c35 33bd ea34 407b 9b35
000001b0: 81db 01b6 56da 7d32 eb43 91b5 075c 3834
000001c0: f2d3 c0b4 0870 3936 2a14 8435 6716 4435
000001d0: b3f0 6f35 796e 2134 3242 5134 3733 0535
000001e0: c758 be35 9e0e c7b3 678b 5935 b1c0 0436
000001f0: ed4e 24b6 66a3 0136 72dd 3bb4 4bd3 25b6
00000200: 41d0 a735 14a2 1835 6cb3 20b3 4e2c 48b4
00000210: a472 5635 a04b 1fb5 ed5b 2cb5 285b 7535
00000220: bdc9 2f34 a885 6d36 976d 1eb6 d625 5b35
00000230: b5ec 1d35 5cdd d1b5 df06 1633 d68d 5a35
00000240: 673e e134 85af ec35 d923 2436 4fc7 9435
00000250: 927d 0f36 e9cf 9835 5e35 23b4 cd51 d035
00000260: fc99 8e34 5e4b d635 a61b dbb5 a328 3436
00000270: c2e9 1e35 aa28 2fb4 7afb 1235 6c21 f3b3
00000280: b5e7 4635 66e1 c233 5e32 a135 dd49 7db5
00000290: 6e8e 30b5 2462 a035 0750 a5b4 196f a335
000002a0: 648a ecb5 696a 8e34 06c1 55b5 5fd1 81b5
000002b0: c4af 50b4 6847 0736 f309 d935 cb6e 8335
000002c0: 2644 9e35 9a4d 5135 142d d435 c88e 9d35
000002d0: d4b0 5db6 c936 b735 2505 90b5 f7f7 5c34
000002e0: 80f1 6e35 7469 6435 c579 bc35 66db 7136
000002f0: 8c80 91b5 a7ca 82b5 3128 dc35 a8ad 1f34
00000300: f5f3 f534 91f2 33b5 7a07 88b5 9d90 0935
00000310: 8217 c5b5 ac73 89b6 b5e9 2934 143f 78b5
00000320: 1db6 e6b5 68ce 4c35 c82b cb35 cf69 2036
00000330: c5ba c635 4a58 89b5 3a43 0bb6 ebb3 0db5
00000340: a84c 5c33 bd52 5635 c005 63b3 3e57 ea35
00000350: 63d9 5835 d148 7035 7f80 a2b5 5f31 1936
00000360: 0b34 c3b3 e3bd 29b5 b5e0 0635 806c 61b1
00000370: 6e34 7e35 f2f6 d6b4 e007 df35 5966 dab5
00000380: 51c2 14b4 8ece 8935 bd89 7d34 4846 2336
00000390: bbf5 0eb6 2278 d734 d245 0eb5 653b 89b5
000003a0: f77d 94b4 cd56 0436 6fe3 e035 9891 9935
000003b0: 839c fc35 14ad 6635 3087 c535 50d3 6135
000003c0: ca4b 14b6 03a3 8a36 3ffe a2b5 8c50 0835
000003d0: 1301 da34 45ea 4835 814f 0d36 3854 8a36
000003e0: f010 28b5 66c0 0db6 9a83 a835 4e57 cb34
000003f0: 268d 0835 8e30 b9b5 ca31 6eb4 cc87 bc34

exp_avg_sq f4 [30, 30]
3.063527e-10 5.718046e-10 1.4675758e-10 1.5207491e-10 9.439614e-11 5.5279725e-10 1.2014319e-10 1.8582963e-10
3.0641986e-10 2.0170288e-10 2.2349984e-10 1.7403277e-10 9.537445e-11 3.8503437e-10 1.2495756e-10 3.0345174e-11
7.57644e-11 1.2309458e-10 1.6598711e-10 2.2727216e-10 1.6993812e-10 1.7450195e-10 2.0061523e-10 1.3782837e-10
1.2026584e-10 9.937351e-11 1.0386772e-10 7.658589e-11 3.020193e-10 2.731252e-10 1.6892979e-10 8.1670026e-10
1.01445345e-10 6.053914e-11 1.3290316e-10 4.2960906e-11 8.266387e-11 6.977753e-11 1.2866694e-10 3.006104e-10
1.521961e-10 1.2360933e-10 5.4083973e-11 1.3622613e-10 2.1013499e-10 2.2807992e-11 4.2696652e-11 5.2285346e-11
3.6335376e-11 1.0262757e-10 2.2542428e-10 4.120169e-11 8.4244355e-11 1.2956217e-10 6.985164e-11 4.212058e-11
3.1495254e-11 4.7105046e-11 1.7684001e-10 2.632598e-10 3.73927e-11 2.3714436e-10 1.4035836e-10 2.3818345e-10
1.32130175e-11 7.1436565e-11 8.7297235e-12 1.05193694e-10 3.9296802e-11 2.201798e-10 1.2483217e-10 7.677107e-11
2.4871888e-10 1.4085803e-11 1.7619668e-10 1.4439375e-11 3.118738e-11 4.2408004e-11 2.6896131e-11 4.9098565e-11
4.5611864e-10 9.8213014e-11 6.665888e-11 2.2294225e-10 1.7596395e-11 2.9087463e-11 9.19623e-11 2.8697909e-11
5.724619e-10 1.3204503e-10 4.2284756e-11 8.9085114e-11 4.1025166e-11 9.2487806e-10 1.4075305e-11 1.7380276e-10
6.36787e-11 2.1060242e-10 6.5333176e-11 6.913735e-11 8.2996034e-11 3.9221973e-10 6.2901784e-10 4.212863e-10
1.7657496e-10 7.364643e-12 3.0410133e-10 1.6563621e-10 7.772573e-11 4.4383074e-11 2.5241106e-10 3.965636e-10
1.1929024e-10 1.4829279e-09 1.05787365e-10 2.4583342e-11 1.6767529e-10 2.4555085e-11 7.3138007e-10 6.032474e-11
1.5579421e-10 1.209225e-10 3.823724e-11 5.0325258e-11 3.3746693e-11 3.001701e-10 2.9013769e-11 1.4951235e-10
9.176352e-11 4.97743e-11 6.404442e-11 3.2501293e-10 8.334398e-11 1.1650973e-10 2.1635586e-10 3.3916783e-11
6.801878e-11 9.8698986e-11 1.9914687e-10 8.84809e-11 1.07034034e-10 6.0108106e-11 3.1546624e-10 2.3565716e-10
5.0139823e-11 3.732637e-11 6.574237e-11 4.0180456e-11 1.3086827e-10 7.383814e-11 1.0370683e-10 2.6290717e-10
7.4207716e-11 5.2708764e-11 3.8740833e-11 3.4082393e-11 2.2937131e-11 7.017821e-11 6.193869e-11 1.2615532e-10
7.7451816e-11 1.1240484e-10 6.2415594e-11 8.2739295e-11 6.400631e-11 8.237017e-12 3.785059e-11 1.2743982e-10
3.091148e-11 1.6136124e-10 1.9971433e-10 3.483173e-11 6.581711e-11 1.8196536e-10 2.3394082e-11 1.0548785e-10
7.5942565e-11 7.972148e-11 1.1291182e-10 2.9998348e-10 3.875762e-10 7.5735807e-10 1.1397762e-10 1.3509784e-10
1.583152e-10 4.0164778e-11 5.0780376e-11 7.1561e-11 1.2815406e-10 1.6009144e-10 1.6066834e-10 5.1952425e-11
7.121868e-11 1.6715875e-10 7.2768146e-11 2.9656555e-11 7.4627186e-11 6.082297e-11 1.7947583e-11 3.0822987e-11
1.376368e-10 8.5499885e-11 4.479769e-11 1.2630327e-10 6.7647436e-11 3.3946485e-11 3.704978e-11 6.167319e-11
1.6230084e-10 5.007765e-10 1.4304011e-10 1.7969144e-10 4.8395926e-11 1.266273e-10 4.1338325e-11 6.8043925e-11
5.7525196e-11 1.8941813e-10 7.941172e-11 6.2676066e-11 3.7368667e-11 1.059843e-10 1.4128174e-10 4.817934e-10
8.2694004e-11 8.534889e-12 1.1593437e-10 2.4522312e-10 4.8144832e-11 1.833104e-10 8.290571e-11 1.0523703e-10
1.3529415e-10 4.783883e-10 9.321071e-11 3.8647516e-11 1.13782095e-10 3.7271696e-11 1.1773284e-10 1.0313163e-10
1.1857182e-10 6.8021894e-10 2.2720816e-10 3.8346618e-11 9.048658e-11 8.3862285e-11 5.7509948e-11 9.805992e-11
1.5226857e-10 3.350141e-10 1.4600635e-10 1.3101226e-10 5.2933925e-11 3.0987357e-10 2.0624949e-10 1.6467848e-11
00000000: 4f6b a82f 2c2d 1d30 965c 212f 4835 272f
00000010: 4d94 cf2e a6f3 1730 4d19 042f 6452 4c2f
00000020: c374 a82f 50c6 5d2f 9dbd 752f df59 3f2f
00000030: 0bbb d12e c5ac d32f 6d64 092f a175 052e
00000040: 919b a62e 0b58 072f 3881 362f 6de3 792f
00000050: 54d9 3a2f efdd 3f2f 2b94 5c2f 3d8b 172f
00000060: d33b 042f 5086 da2e 5468 e42e 066a a82e
00000070: 7009 a62f f426 962f 82bd 392f 2c7e 6030
00000080: a714 df2e 8220 852e ea20 122f aef1 3c2e
00000090: 9fc7 b52e 4271 992e 8678 0d2f 2743 a52f
000000a0: 6557 272f efe8 072f 24dd 6d2e 3fc8 152f
000000b0: be0b 672f 089f c82d 28c8 3b2e 11f4 652e
000000c0: ffcd 1f2e 30ae e12e 4bdb 772f fb34 352e
000000d0: 5b41 b92e 8274 0e2f fa9a 992e 8f3f 392e
000000e0: 8184 0a2e 912b 4f2e 0a70 422f 86ba 902f
000000f0: 7074 242e 1a5f 822f 5e53 1a2f 57f1 822f
00000100: 2472 682d 3617 9d2e 2e93 192d c952 e72e
00000110: 44d4 2c2e 1b17 722f 2241 092f 45d2 a82e
00000120: 12bc 882f d1cc 772d f5ba 412f 2a05 7e2d
00000130: de29 092e 2b83 3a2e b494 ec2d 12f0 572e
00000140: fec0 fa2f 03f9 d72e 9d95 922e aa20 752f
00000150: 8fc7 9a2d 25db ff2d 2c3a ca2e f26d fc2d
00000160: 6d5b 1d30 5f2f 112f 67f8 392e 76e6 c32e
00000170: 3b6e 342e 823a 7e30 8a9d 772d 2119 3f2f
00000180: ec07 8c2e 508f 672f 4fab 8f2e de08 982e
00000190: 9d82 b62e 05a0 d72f 32e7 2c30 c79a e72f
000001a0: 6f25 422f 678f 012d 752e a72f 731e 362f
000001b0: b2eb aa2e e632 432e b3c3 8a2f 5d03 da2f
000001c0: 3829 032f e3cf cb30 fea0 e82e c43c d82d
000001d0: 665c 382f 23fd d72d 4c0a 4930 cfa7 842e
000001e0: 2c4c 2b2f a8f4 042f 4e2b 282e 3455 5d2e
000001f0: 666b 142e 3005 a52f 3335 ff2d fc63 242f
00000200: 45ca c92e e1e8 5a2e ced5 8c2e 81ad b22f
00000210: 7d46 b72e 931a 002f c3e2 6d2f e72a 152e
00000220: 2b93 952e 970a d92e dcf6 5a2f 5292 c22e
00000230: ce5e eb2e db2d 842e ed6d ad2f cc8d 812f
00000240: 6c84 5c2e c229 242e aa91 902e 2cb7 302e
00000250: 25e4 0f2f 2d5f a22e c10d e42e e588 902f
00000260: 3b2f a32e cbd0 672e 4d62 2a2e 5de5 152e
00000270: d4c1 c92d d252 9a2e 6234 882e 91b5 0a2f
00000280: 7f51 aa2e 4d2e f72e db40 892e 15f2 b52e
00000290: 59c0 8c2e 3ae8 102d fa77 262e 1f1f 0c2f
000002a0: 3cf3 072e 276b 312f 9696 5b2f 0b31 192e
000002b0: bdbb 902e b212 482f cac6 cd2d 61f8 e72e
000002c0: ddff a62e 344f af2e b44b f82e ecea a42f
000002d0: 8012 d52f 562e 5030 b2a3 fa2e a98a 142f
000002e0: c411 2e2f 85a5 302e 9f55 5f2e 435d 9d2e
000002f0: 29e8 0c2f bc05 302f 1ea8 302f 3b7d 642e
00000300: 8d9c 9c2e 01cb 372f d304 a02e 506e 022e
00000310: 5f1b a42e 4ac0 852e 5dde 9d2d 998f 072e
00000320: 5155 172f 2804 bc2e b705 452e 36df 0a2f
00000330: 1fc2 942e 584c 152e 58f2 222e eb9e 872e
00000340: a073 322f 03a7 0930 3646 1d2f a592 452f
00000350: f8d8 542e 6b3a 0b2f d1ce 352e 53a1 952e
00000360: 9dff 7c2e 7744 502f d3a0 ae2e 7dd3 892e
00000370: 6159 242e db0f e92e 4657 1b2f 326f 0430
00000380: 96d8 b52e b925 162d 40f1 fe2e 16d0 862f
00000390: 43be 532e 4a8d 492f c44f b62e 2e6b e72e
000003a0: ebc1 142f 957f 0330 f7f8 cc2e 3cf9 292e
000003b0: a035 fa2e 33ec 232e d972 012f f2c9 e22e
000003c0: 005f 022f 27fa 3a30 69d1 792f 74a6 282e
000003d0: 6afb c62e 456a b82e 72ee 7c2e d4a2 d72e
000003e0: cb6b 272f 0b2d b82f 2289 202f ac0c 102f
000003f0: 4dce 682e d45a aa2f 12c6 622f 4cda 902d

exp_avg f4 [30]
-1.4871224e-11 -7.068098e-12 1.2951206e-11 -4.9565777e-12 6.3028376e-12 8.742179e-12 7.6321046e-13 7.937912e-12
-1.8402248e-12 -4.0221745e-12 8.967889e-13 3.7445815e-12 5.630657e-12 -2.422673e-12 3.3140296e-12 2.7122044e-12
-6.7580815e-12 -9.386841e-12 1.5605784e-11 -1.0240543e-11 1.2520561e-11 -5.822996e-12 -8.0429535e-12 1.4271187e-11
9.3432605e-12 -5.771668e-12 3.9624697e-12 -4.8302026e-12 -1.0608749e-11 3.1513754e-12
00000000: 05cf 82ad c4af f8ac 0cd7 632d e264 aeac
00000010: eac2 dd2c 46cb 192d 1cd3 562b 2da5 0b2d
00000020: 8b7e 01ac 8784 8dac 736c 7c2b 31c0 832c
00000030: 731c c62c ff7a 2aac 4034 692c bbda 3e2c
00000040: 63c7 edac 9322 25ad 1a45 892d 4e27 34ad
00000050: 9843 5c2d e3e0 ccac 3e7e 0dad b60f 7b2d
00000060: 4e5e 242d 9012 cbac c16a 8b2c 99f2 a9ac
00000070: 8fa1 3aad 22c2 5d2c

exp_avg_sq f4 [30]
6.172795e-14 6.6875104e-12 1.6126706e-14 7.896308e-14 6.008282e-13 8.6543516e-13 3.9655605e-12 1.3711755e-12
1.3649347e-12 9.096057e-14 9.250674e-13 3.1122677e-14 1.0140979e-12 2.510695e-12 9.89719e-13 1.2342817e-12
7.487328e-14 1.9679215e-12 2.5385484e-12 4.157683e-12 1.557509e-13 7.2143116e-12 3.426667e-12 4.92868e-13
1.0600442e-12 4.4943514e-14 2.7633416e-12 4.207898e-12 6.569664e-12 7.000683e-13
00000000: beff 8a29 bd4b eb2c a741 9128 1ecf b129
00000010: 3c1e 292b 2d99 732b 9886 8b2c cef9 c02b
00000020: f518 c02b 33d3 cc29 1131 822b 012a 0c29
00000030: bab8 8e2b a9ac 302c 634a 8b2b afb5 ad2b
00000040: 8299 a829 ec7a 0a2c 6ca2 322c 1449 922c
00000050: 245c 2f2a bed4 fd2c 5821 712c e2ba 0a2b
00000060: 1e30 952b 5868 4a29 f073 422c 600d 942c
00000070: 4626 e72c 3d0d 452b

exp_avg f4 [7, 30]
-3.8310837e-08 -1.725626e-06 2.4365673e-07 -5.7489086e-07 7.8178675e-07 1.1666586e-06 1.0636439e-07 -1.8026284e-07
-5.430599e-07 1.2683433e-06 5.2309378e-08 4.0640828e-07 -4.1787516e-06 -1.9425106e-06 8.159198e-07 2.6234022e-07
1.3513055e-06 2.3463168e-07 1.7625042e-06 -3.6976587e-07 -9.759952e-07 1.2170619e-06 1.2634382e-06 -5.3418023e-07
-1.190415e-07 -5.7215794e-07 8.1838994e-07 1.942618e-06 4.145761e-08 3.020945e-07 8.529598e-08 8.354649e-08
2.980496e-06 3.5783862e-06 5.6216504e-06 4.130413e-06 2.3212358e-07 5.9091976e-06 1.5003776e-06 4.7341646e-06
-2.6719986e-06 4.298866e-06 -6.4212677e-06 -4.6581167e-06 3.1627344e-06 2.5184916e-06 4.822083e-06 6.963535e-07
2.0148882e-06 -5.2575533e-06 -4.1266744e-06 3.906885e-06 8.930817e-06 9.777483e-07 -2.620628e-06 -4.747888e-06
3.2577193e-06 7.098479e-06 3.6901622e-06 -2.0497994e-06 1.869475e-06 -1.3289829e-06 1.7286027e-06 9.174114e-07
1.587921e-06 1.647027e-06 -4.0371024e-06 2.4229205e-06 1.0674966e-06 2.4414621e-06 -9.7774e-07 3.1890643e-06
-9.024879e-07 -8.8372985e-07 3.3383753e-06 8.3133574e-07 1.0739642e-06 -4.5383885e-07 -8.143906e-08 -6.904252e-07
-2.6986581e-06 2.7399135e-06 2.5608265e-06 2.0658538e-06 -9.771001e-07 -1.9190918e-06 4.4588757e-07 -1.5568465e-06
4.8304705e-06 1.8093745e-07 1.7997734e-06 6.76435e-07 -8.2090446e-07 -1.3683346e-06 2.0120345e-07 1.6706693e-06
6.040202e-07 7.1401115e-07 1.9315626e-08 -1.225591e-06 -4.917898e-08 -1.9411575e-06 -2.1211758e-06 -1.2174049e-06
-2.0258424e-06 -1.7431289e-06 1.2926072e-06 1.5429856e-06 2.141061e-06 -8.7227176e-07 1.3976817e-06 -1.5713321e-06
-3.8805834e-09 -9.5390774e-08 -7.0316844e-07 -1.0137461e-07 2.2265042e-06 4.1059803e-07 -1.8041547e-06 1.8742585e-07
4.1399776e-06 3.757571e-07 -1.4077041e-06 6.4912166e-07 -2.7093047e-06 -1.7558432e-06 -6.1769036e-08 -1.7188631e-06
7.440769e-07 1.6269297e-06 -1.2001526e-06 -1.4682923e-06 1.7371193e-06 8.279652e-08 8.926323e-07 4.1242365e-07
1.0854177e-06 1.029209e-06 -4.8323795e-06 3.8683324e-06 -4.1221847e-06 3.7451423e-06 1.5083408e-07 -3.012099e-06
2.304393e-07 2.0787136e-06 -2.9373114e-06 -2.4269043e-06 3.4583306e-06 -1.907795e-06 -5.079797e-07 -3.12133e-07
5.7326747e-07 7.749307e-07 8.4254333e-07 1.1983836e-06 -1.7534283e-06 2.226887e-06 6.910779e-07 -1.9504434e-06
1.1776061e-07 7.741189e-07 6.655613e-07 1.6786757e-07 4.6629611e-07 -1.3641347e-06 -1.3081578e-06 -6.852908e-07
1.5778758e-06 -1.5603306e-06 2.00094e-06 -1.2480364e-06 -4.326255e-07 2.9200846e-06 1.8696791e-07 -1.0731915e-06
7.0449875e-07 -1.6442705e-06 -3.485885e-07 1.030491e-06 -5.462528e-06 -1.8711498e-06 1.5605432e-06 -3.3292686e-06
1.563021e-06 -1.3181489e-06 -4.2454667e-06 -3.4963086e-06 -4.488133e-06 6.353731e-06 4.845089e-06 5.6070394e-06
-6.125962e-06 4.0862774e-06 1.0730495e-06 -8.509024e-07 2.074258e-06 -2.1285502e-06 4.598342e-06 2.7385422e-06
2.3964456e-06 -5.075383e-06 -1.0990552e-06 -1.47268e-06 -4.5140155e-06 7.5224483e-07 2.383864e-06 2.430138e-06
-2.8183447e-06 7.8865205e-06
00000000: 368b 24b3 0f9c e7b5 edcf 8234 3352 1ab5
00000010: fadb 5135 1696 9c35 716a e433 468e 41b4
00000020: cbc6 11b5 f23b aa35 c5aa 6033 5430 da34
00000030: 3437 8cb6 145c 02b6 9505 5b35 c4d7 8c34
00000040: 815e b535 11ef 7b34 2f8f ec35 3c84 c6b4
00000050: f1fe 82b5 ee59 a335 6893 a935 9664 0fb5
00000060: c2a3 ffb3 6596 19b5 54af 5b35 ec5d 0236
00000070: 200f 3233 8d2f a234 f62b b733 2b6a b333
00000080: 8804 4836 3524 7036 9ca1 bc36 fa97 8a36
00000090: a53d 7934 9f47 c636 9560 c935 2ada 9e36
000000a0: 9650 33b6 fa3e 9036 4576 d7b6 eb4c 9cb6
000000b0: 5d3f 5436 5b03 2936 61cd a136 0ced 3a35
000000c0: 8437 0736 0a6a b0b6 dd77 8ab6 e317 8336
000000d0: 91d5 1537 2d3b 8335 0cde 2fb6 0c50 9fb6
000000e0: 319f 5a36 782f ee36 81a4 7736 498f 09b6
000000f0: acea fa35 815f b2b5 5602 e835 0844 7635
00000100: 8d20 d535 6b0f dd35 7276 87b6 7599 2236
00000110: e746 8f35 00d8 2336 e43a 83b5 b503 5636
00000120: 7f42 72b5 7439 6db5 da08 6036 f528 5f35
00000130: 2125 9035 23a7 f3b4 99e3 aeb3 a955 39b5
00000140: 981a 35b6 5bdf 3736 aada 2b36 19a3 0a36
00000150: e724 83b5 bfc9 00b6 5262 ef34 d7f4 d0b5
00000160: 6d15 a236 b547 4234 be8f f135 4294 3535
00000170: 205c 5cb5 9ea7 b7b5 620a 5834 c33b e035
00000180: f423 2235 79aa 3f35 83eb a532 fc7e a4b5
00000190: dc38 53b3 d544 02b6 8659 0eb6 b765 a3b5
000001a0: b5f3 07b6 74f5 e9b5 a57d ad35 9518 cf35
000001b0: 26af 0f36 0f26 6ab5 fa97 bb35 8fe6 d2b5
000001c0: f955 85b1 a2d9 ccb3 5ec1 3cb5 48b3 d9b3
000001d0: 0d6b 1536 2a70 dc34 4926 f2b5 3a3f 4934
000001e0: 23ea 8a36 aabb c934 58f0 bcb5 4d3f 2e35
000001f0: 80d1 35b6 50aa ebb5 e3a5 84b3 b0b3 e6b5
00000200: 93bc 4735 e15c da35 ee14 a1b5 2412 c5b5
00000210: f726 e935 decd b133 399d 6f35 136b dd34
00000220: abae 9135 5a23 8a35 d325 a2b6 b9cc 8136
00000230: 4c51 8ab6 0e55 7b36 f5f4 2134 7723 4ab6
00000240: ac6e 7734 0780 0b36 a01e 45b6 e6dd 22b6
00000250: ab15 6836 ab07 00b6 195c 08b5 3c93 a7b4
00000260: a4e2 1935 d504 5035 232b 6235 26d8 a035
00000270: 5657 ebb5 a171 1536 8382 3935 5de4 02b6
00000280: 94e3 fc33 0ccd 4f35 06a9 3235 163f 3434
00000290: 4057 fa34 5017 b7b5 f693 afb5 d3f4 37b5
000002a0: 66c7 d335 8d6c d1b5 e347 0636 3482 a7b5
000002b0: 9943 e8b4 acf6 4336 59c1 4834 940a 90b5
000002c0: c91c 3d35 b4b0 dcb5 a325 bbb4 674f 8a35
000002d0: c24a b7b6 3824 fbb5 db73 d135 666c 5fb6
000002e0: fec8 d135 40eb b0b5 4874 8eb6 20a2 6ab6
000002f0: c598 96b6 2232 d536 ff92 a236 1a24 bc36
00000300: 9d8d cdb6 db1c 8936 b305 9035 9169 64b5
00000310: 7b33 0b36 37d8 0eb6 754b 9a36 ccc7 3736
00000320: 9fd2 2036 354d aab6 4083 93b5 e6a8 c5b5
00000330: 1977 97b6 dfed 4935 79fa 1f36 7415 2336
00000340: cb22 3db6 5950 0437

exp_avg_sq f4 [7, 30]
7.1902573e-10 9.221652e-10 3.3836045e-10 1.0752471e-09 3.089506e-11 3.0788677e-10 1.5131998e-10 3.5761186e-10
4.906122e-10 5.6896328e-11 2.2046974e-10 1.3458219e-10 3.1497183e-09 2.2330477e-09 1.2425737e-09 2.5095562e-10
1.3818632e-09 9.662715e-10 5.5716814e-10 2.426397e-10 4.7104973e-11 3.8483514e-10 1.1113301e-09 3.326083e-11
3.0174271e-10 6.7493894e-10 1.488345e-10 9.647705e-10 3.2754008e-10 2.3497448e-10 5.5677857e-10 5.860935e-10
3.7551337e-10 7.6022816e-10 2.7680247e-10 5.4434585e-10 2.8282635e-10 6.093032e-10 4.9039733e-10 3.5467973e-10
5.391368e-10 6.493145e-10 8.5356117e-10 6.3259203e-10 2.833826e-10 5.802774e-10 6.39136e-10 6.335389e-10
5.933562e-10 5.662833e-10 3.6179218e-10 9.196772e-10 6.8802625e-10 2.1570147e-10 2.3284952e-10 3.462245e-10
3.2505007e-10 8.2081664e-10 5.833898e-10 6.1807054e-10 1.3065161e-09 9.719113e-10 9.90347e-10 2.7944809e-09
6.7733354e-11 6.178819e-10 1.6522268e-09 3.7206786e-11 4.657836e-10 2.3617125e-10 1.4575121e-09 1.0714085e-09
1.3378257e-10 1.7962616e-10 8.006161e-10 6.123427e-09 7.008193e-10 1.0297437e-10 2.7286465e-10 9.419e-11
5.958092e-10 2.4281138e-10 3.569234e-10 1.9207087e-09 1.1458482e-10 7.9980536e-11 7.6606543e-10 1.3781685e-09
1.3462398e-09 2.12804e-09 9.103282e-10 1.0249451e-09 4.833204e-10 4.600203e-10 5.1905962e-11 7.394796e-10
2.7028701e-10 2.3458626e-09 9.078118e-11 2.4895472e-10 6.529694e-11 8.2293705e-10 2.5967282e-09 2.6283238e-09
1.7697163e-09 9.941137e-10 1.8113708e-09 1.9243767e-09 3.9740763e-10 7.848303e-11 1.7665062e-10 6.0013033e-10
2.3029272e-10 1.5091288e-10 6.484255e-10 5.6905786e-11 8.456375e-10 9.614255e-11 2.9765887e-10 4.5679557e-10
5.811026e-10 3.2338843e-10 2.0723898e-10 2.532943e-10 2.4541202e-10 4.4736667e-10 1.4350826e-10 4.3252235e-10
1.1153448e-09 8.5629454e-10 5.883401e-11 2.2708127e-10 6.503349e-10 2.2521106e-10 2.1003306e-10 6.1458777e-10
4.4273632e-10 3.644395e-10 1.2177044e-09 7.915628e-10 8.128203e-10 2.2716082e-10 7.165121e-11 8.2206725e-10
3.185753e-10 3.2285108e-10 1.9570237e-10 2.5755653e-10 3.2104175e-10 2.9886876e-10 6.8873124e-10 7.029917e-11
8.637362e-11 7.499576e-10 8.3360034e-11 1.2011055e-10 8.499504e-10 7.9281026e-10 1.00242835e-10 5.1846294e-10
3.947431e-10 2.8450262e-10 7.2290746e-10 1.9291423e-10 1.965341e-10 5.057279e-09 9.9666796e-11 1.422542e-10
2.2509045e-10 1.6035281e-10 3.289032e-10 5.0283433e-10 1.3564272e-10 3.1832123e-10 2.2998564e-10 6.8604004e-11
1.5393667e-10 7.203861e-10 7.6242496e-10 1.0441816e-09 4.0627407e-10 2.2477877e-10 1.5904589e-10 7.48318e-11
2.5397864e-10 2.199129e-10 2.4053826e-10 4.0542433e-10 1.9769189e-10 9.881805e-11 3.964198e-10 1.9692947e-10
1.0129334e-09 2.6885366e-10 1.7520567e-10 1.3473943e-09 4.2465396e-11 1.4309837e-10 5.1766463e-10 4.4961435e-10
1.5823623e-10 3.3330677e-10 7.347302e-10 2.2813429e-10 1.14075006e-10 3.499356e-10 5.0632903e-10 8.555881e-10
7.3184236e-11 1.8535687e-10
00000000: f0a4 4530 9b7b 7d30 0004 ba2f e5c7 9330
00000010: bfe0 072e 3643 a92f ca60 262f 6599 c42f
00000020: c4db 0630 923b 7a2e b768 722f 85f9 132f
00000030: 6e72 5831 3174 1931 2dc7 aa30 ddf6 892f
00000040: fdeb bd30 a8cd 8430 3927 1930 8164 852f
00000050: 7c2b 4f2e bb90 d32f 74bd 9830 5e48 122e
00000060: 83e2 a52f 9b86 3930 30a5 232f d898 8430
00000070: 2b11 b42f b82d 812f cf0b 1930 aa1a 2130
00000080: cf70 ce2f 4df8 5030 7c2c 982f efa0 1530
00000090: 457c 9b2f e77b 2730 a5cc 0630 bcfc c22f
000000a0: 6132 1430 727b 3230 07a0 6a30 b5e2 2d30
000000b0: 8eca 9b2f 6481 1f30 33af 2f30 5625 2e30
000000c0: bb19 2330 a5a8 1b30 b9e5 c62f 88cc 7c30
000000d0: 8b1f 3d30 912a 6d2f a802 802f c456 be2f
000000e0: bbb2 b22f d69f 6130 685c 2030 d9e4 2930
000000f0: f390 b330 1794 8530 bd1c 8830 0709 4031
00000100: 7df2 942e 93d7 2930 9014 e330 1ea3 232e
00000110: 9b08 0030 26d6 812f a651 c830 d640 9330
00000120: 7218 132f 4580 452f 5912 5c30 3c66 d231
00000130: c6a3 4030 6b71 e22e 4902 962f 4220 cf2e
00000140: 58c6 2330 aa7c 852f 8138 c42f 77fd 0331
00000150: 85f9 fb2e 0ae1 af2e 1093 5230 fe69 bd30
00000160: 9a06 b930 e03c 1231 a73a 7a30 0dde 8c30
00000170: a6da 0430 1ae6 fc2f eb48 642e 4044 4b30
00000180: 8497 942f da34 2131 43a1 c72e 43dd 882f
00000190: e996 8f2e 0c35 6230 2072 3231 f69d 3431
000001a0: 5b3a f330 44a1 8830 f2f3 f830 fe3d 0431
000001b0: 277a da2f 0596 ac2e bb3a 422f 6bf6 2430
000001c0: a335 7d2f 33ee 252f e33c 3230 3846 7a2e
000001d0: 7372 6830 726b d32e c3a3 a32f 4320 fb2f
000001e0: 76bb 1f30 e0c8 b12f 96dc 632f 0140 8b2f
000001f0: acea 862f 43f1 f52f fcc9 1d2f 1cc8 ed2f
00000200: b54a 9930 5f60 6b30 9a60 812e b2ad 792f
00000210: 40c3 3230 479f 772f 0def 662f c5ef 2830
00000220: 9965 f32f 4d5a c82f 2a5c a730 4895 5930
00000230: 256d 5f30 16c4 792f 0c90 9d2e d7f7 6130
00000240: 7d23 af2f 407d b12f 522d 572f dc97 8d2f
00000250: 9c7e b02f 0a4e a42f 2751 3d30 ea96 9a2e
00000260: 06f0 bd2e 9325 4e30 874f b72e 1d10 042f
00000270: f1a1 6930 10ed 5930 b36f dc2e 9683 0e30
00000280: 2703 d92f 2f68 9c2f 17b6 4630 871c 542f
00000290: 6e17 582f 4cc4 ad31 6b2b db2e ff68 1c2f
000002a0: 547d 772f 4e4f 302f 03d1 b42f d237 0a30
000002b0: 0824 152f bbff ae2f 34df 7c2f 9fdc 962e
000002c0: 5241 292f aa04 4630 e392 5130 e082 8f30
000002d0: fe59 df2f 9925 772f 70df 2e2f 8f8e a42e
000002e0: 51a0 8b2f facb 712f c03c 842f 67e2 de2f
000002f0: 525d 592f 9e4d d92e 21ef d92f b886 582f
00000300: 6d37 8b30 cacd 932f 03a4 402f 392f b930
00000310: c9c3 3a2e 9c56 1d2f 694b 0e30 982d f72f
00000320: 8afb 2d2f c23c b72f 0bf6 4930 18d6 7a2f
00000330: 85da fa2e 0f61 c02f bd2d 0b30 a92e 6b30
00000340: 10ef a02e 52cd 4b2f

exp_avg f4 [7]
1.3494471e-11 7.1772215e-12 9.580743e-12 8.521149e-12 -2.3818449e-11 2.1291885e-11 -9.461413e-12
00000000: b265 6d2d aa86 fc2c d58b 282d d8e7 152d
00000010: 6182 d1ad 1049 bb2d 6b72 26ad

exp_avg_sq f4 [7]
2.5435876e-13 4.9495867e-12 9.4654204e-14 7.608854e-13 8.057858e-15 2.344867e-12 6.1867577e-12
00000000: f630 8f2a ea25 ae2c 6f24 d529 922b 562b
00000010: 5028 1128 5e01 252c 5cad d92c
