tutorial/DLPFC_output/version_0/checkpoints/mlp.ckpt (torch, 18997 bytes, 12 tensors)

model.classifier.0.weight f4 [30, 30]
00000000: 732f c9bd 2eca 41be 7859 b33d 3974 0ebe
00000010: 2c41 1d3e 31bf 4abe c652 30be 9ea7 693d
00000020: d1af 15be 9d56 6b3d 0856 62be d33c 07be
00000030: 9508 f2bd b795 023e 3bc7 133e 067c 11bd
00000040: d9ca 693d 8d9f 883b ed65 fc3d 1f23 50be
00000050: 92a9 0f3c 26b9 203d 488f 283e 8722 b5bd
00000060: 1ccc a8bd 45ba 97bd 956a d2bc b957 a03d
00000070: 3cdf 61be 25da 09be 5873 61bd 6cd1 ffbd
00000080: ec72 a33d fc82 343d 9343 f23d 1854 5fbd
00000090: 9790 aebd eb12 363d 8139 f7bd 0b4f e43d
000000a0: e818 20be bbc4 15be 3845 2b3d 8117 88bc
000000b0: 1e8e f13d 3df6 813c 76e7 d8bb 4dd4 84bd
000000c0: e17a cb3c e831 e8bd 4c0e c83d ceec 7bbc
000000d0: 5fdc 003e f23c 243e d931 b73a 7340 adbc
000000e0: fc7f 923c 3d6c 463d 82db cf3c db3f 9abd
000000f0: 9624 5a3d 237f 433a 0828 cb3a 7a19 d53d
00000100: cc2b 203d f3df 013e af3b 433d acfc f9bd
00000110: f8e2 873d 7cc4 0a3e dcbd f53b dc28 8e3c
00000120: 667d c13d b718 a7bd eaf2 0e3c 7113 293c
00000130: bfa6 7b3d f550 fcbc d91a e2bc 942a 3b3e
00000140: dbe1 2a3e 876f f5ba adec 20be bdf1 f03d
00000150: 8f20 4e3d 2a02 25bd 8abe 5e3d 317f f3bd
00000160: 63bc 4b3e e512 0fbd 94e0 68bc 85ce 5d3c
00000170: 89f3 973c 1bbb e4bd 7eca 85bd b9b3 63bd
00000180: fb36 c1bc 88bb 90bd 3d79 723d b624 94bd
00000190: ecac 1b3d 7688 d33d 1e8f 16be d90b 103e
000001a0: 79f7 cdbc dd3f dfbc fba0 993d 7d26 223e
000001b0: 2932 153d 06eb 963c f04e afbd 4d2c 383d
000001c0: 0666 c4bd 57ec 83be b980 80bd d1d9 ab3c
000001d0: 66a9 25bb a46f 093b f22f 01be 4fa5 f9bc
000001e0: 32da 583d 0570 8c3d 8672 16bc 4746 893d
000001f0: 06b8 ecbd 8b18 223e 6495 bd3d c4b7 23be
00000200: 97e6 063e c66b 2d3c 9c0a 0f3e 17a8 2e3e
00000210: 5aa7 bb3c 7210 3d3b 0cf3 b8bd f223 8a3c
00000220: 9faf 4b3d b9d3 cf3d 4d35 a5bd 9780 553e
00000230: 657f 1a3d 4882 f9bb 3ef4 7abe f70a acbd
00000240: fa89 c93c 494c 7d3d fffa 423d 9a81 c9bd
00000250: 9f10 2e3e c911 743c 26b7 d338 e3f2 4c3d
00000260: 7b92 b7bc e87e e5bc c3f1 e3bc dea0 c23d
00000270: da61 7e3d 5578 e5bd cc37 103e c4f2 503c
00000280: f0ee de3d abc7 043e 9d67 42bc c143 493d
00000290: 3eb0 a6bd 0d05 ffbb 7428 a93d 1670 823d
000002a0: 10ba c5bb 539a 613e 4933 143d 7117 173d
000002b0: f36b 56be 71e7 03be 9e7a 8abb cb08 79bd
000002c0: b2ce c03c 499a 06be baf0 8c3d 581a 2bbd
000002d0: 5f8d c8bd 42d8 ebbd 15ab f3bb d842 12bd
000002e0: 576f 1a3e af9d cebc 14be 20bd 2289 0dbc
000002f0: 6e2d ad3c 6ab8 e53d 8f10 98bd c498 2abd
00000300: b754 1bbb a3c8 563d 1c6b 713b 7bc4 a3bc
00000310: 5422 543d b6bb 91bd ef75 743d 6a0d b23d
00000320: a10a c43d f2dc 6f3d 685b 3bbc bfb8 8b3b
00000330: c686 57bd 64c4 25be 6192 c2bc 4b1c cdbd
00000340: 84af ddbb 85ae 03be 9ff6 9fbb 997e 4d3d
00000350: a51a 883c c17f b9bd 97e4 89bd 05bf 453d
00000360: 2c1b 033d 6079 f4bd f970 053e 9996 f5bc
00000370: 1a2d d43d 32d2 163e fbc4 99bd b5b5 c23d
00000380: 600a 61bd eba9 37bc 23ee da3d 7747 1e3e
00000390: bce8 2c3c 7341 2a3e d24f 22bc b18c 253d
000003a0: ad86 51be dc0a 69be 8fdb aebc 3678 88bc
000003b0: f2f8 173d 6f2b a3bd 489f 8a3a 4e47 34bd
000003c0: 1d9e 3abd 61b7 83bd 0a8c 943c 4d91 67bd
000003d0: 82bf 3c3e 2037 9dbc 138e 33bd 28ed 59bd
000003e0: 21e3 313d a78e 133e 0347 b6bd e815 87bd
000003f0: eb5e 4a3c bfe2 c13c ebd6 6e3d 110d 00bd
-0.09823503 -0.18924782 0.08757299 -0.13911523 0.15356892 -0.19799496 -0.17219076 0.057044618
-0.1461785 0.057455648 -0.22103131 -0.13206796 -0.11818043 0.12752424 0.14431469 -0.03551867
0.057078216 0.0041694106 0.12324128 -0.20325898 0.008768456 0.03923907 0.16460907 -0.08844476
-0.08242056 -0.07408575 -0.025685588 0.07829232 -0.22057813 -0.13462122 -0.05504164 -0.12491116
0.07980904 0.04407023 0.11829295 -0.054523557 -0.08523672 0.044451635 -0.12071515 0.11147889
-0.15634501 -0.14625828 0.04181406 -0.01661277 0.11794685 0.015864486 -0.006619389 -0.06485806
0.024838867 -0.11337644 0.09768352 -0.015376283 0.12584065 0.16038874 0.0013976648 -0.021148896
0.017883293 0.048443068 0.025373224 -0.07531711 0.053257547 0.00074576045 0.0015499601 0.1040525
0.039104268 0.12683086 0.04766434 -0.122063965 0.06635088 0.13551515 0.0074994396 0.017353468
0.09447746 -0.08159011 0.008724907 0.010319577 0.06143832 -0.030800322 -0.027600693 0.18277961
0.1668772 -0.0018725254 -0.15715285 0.11764858 0.05032402 -0.040285267 0.05438093 -0.11889494
0.19896083 -0.03493013 -0.0142137 0.013538008 0.018548744 -0.111685 -0.06532763 -0.05559132
-0.023585787 -0.07067019 0.059197653 -0.072335646 0.038006708 0.10328762 -0.14703032 0.1406702
-0.025142418 -0.027252132 0.07501408 0.15834995 0.03642479 0.018422615 -0.08559978 0.044964124
-0.09589772 -0.2576625 -0.06274552 0.020977886 -0.0025277971 0.0020971084 -0.12615946 -0.030474333
0.052942462 0.068573035 -0.009182578 0.067028575 -0.11558537 0.15829675 0.092570096 -0.1598807
0.131739 0.010584777 0.13968891 0.17056309 0.022906948 0.0028848913 -0.090307325 0.016862843
0.049728032 0.10147805 -0.08066807 0.20849834 0.03771915 -0.0076144077 -0.24507234 -0.08400529
0.024601925 0.06184033 0.04760265 -0.09839173 0.16998528 0.014896818 0.00010095378 0.050036322
-0.022408715 -0.028014615 -0.027825242 0.09503339 0.062105037 -0.11204592 0.14083785 0.012753192
0.108854175 0.12966792 -0.011865524 0.04913688 -0.08139084 -0.0077825845 0.08259669 0.06369035
-0.0060341433 0.22031526 0.03618172 0.03688759 -0.20939617 -0.12881257 -0.004226043 -0.0607994
0.02353606 -0.13144793 0.068818524 -0.04177317 -0.097925894 -0.11515857 -0.007436166 -0.03570828
0.15081535 -0.025221674 -0.039243773 -0.008638652 0.021139827 0.11216815 -0.07425033 -0.041649595
-0.0023701617 0.052437436 0.0036837524 -0.01999115 0.05179055 -0.07115881 0.059682783 0.08693965
0.0957234 0.05856032 -0.011435367 0.004263967 -0.052618764 -0.16188198 -0.02375144 -0.10015162
-0.006765308 -0.12859543 -0.0048816944 0.05016956 0.016614268 -0.0905757 -0.06733053 0.048277874
0.032008335 -0.11937213 0.13031377 -0.029979037 0.10360165 0.1472862 -0.07508274 0.09507314
-0.054941535 -0.011209945 0.10689952 0.15456949 0.010553535 0.1662653 -0.009906726 0.040417377
-0.20461531 -0.22758049 -0.021344928 -0.016658884 0.037102647 -0.07967269 0.0010576034 -0.044013314
-0.045560945 -0.06431461 0.018133182 -0.056535054 0.1843243 -0.019191325 -0.043836664 -0.053204685
0.043429498 0.14409886 -0.08900263 -0.06595975 0.012351732 0.023667691 0.05831043 -0.03126246

model.classifier.0.bias f4 [30]
00000000: 640f 9a32 abe8 cdb2 bce9 0fb4 71ae dbb3
00000010: e985 0334 53ec c533 cc78 0931 ef6e 8733
00000020: 29f1 bb32 c325 76b4 1bf9 ca30 71a4 85b4
00000030: 2558 d8b3 010b 45b3 a0ea 7233 d084 2d33
00000040: 2d03 6db4 8fe9 12b3 2748 4d33 013d d2b2
00000050: eed4 e433 f402 3333 8d82 1633 43e1 d933
00000060: 653d 4c33 891e d533 4be8 9332 86cd 6132
00000070: f81e db32 638f a832
1.7934958e-08 -2.3970946e-08 -1.3402945e-07 -1.0229713e-07 1.2249042e-07 9.2165145e-08 2.000479e-09 6.306606e-08
2.1879332e-08 -2.2924273e-07 1.4768234e-09 -2.4892827e-07 -1.0074317e-07 -4.5877645e-08 5.6558406e-08 4.0400494e-08
-2.20735e-07 -3.4205694e-08 4.7795904e-08 -2.4474959e-08 1.0655809e-07 4.167937e-08 3.5043332e-08 1.0145825e-07
4.755329e-08 9.92414e-08 1.7218687e-08 1.3143454e-08 2.5509038e-08 1.9622979e-08

model.classifier.1.weight f4 [7, 30]
00000000: 9de1 02bc 73fc f3bd efe9 91be d82f 8bbc
00000010: 2ade 4abe 45fe 13be 0144 f1bd 5613 18be
00000020: dc2d 78be 981d 94bd 2b4e c43d 9dc5 edbd
00000030: 4aa4 ac3e bc6b 803e 733a a6bb 2521 6c3b
00000040: 9ca0 983c 6338 13be 0c15 523d 3b5a 6f3e
00000050: f798 bd3d f2e6 81be 3ec9 adbe 1505 3ebd
00000060: 1779 c3bb 0bba 923d a854 f3bd ee8a aebe
00000070: e4d7 0abe a6d0 213e dc0b b9be f4bf 78be
00000080: 510c 22bd 870c 0d3e e0c9 9f3e 45d9 e63d
00000090: e186 99be 6c0f 413e 1983 bebe 8a47 043f
000000a0: 3fc2 f53d 2b3f fb3e 4fd3 88be c0a7 1f3e
000000b0: 655d 923e 8cff 4d3e 1b53 e23e 639c 92be
000000c0: 9eef f73e d250 a8bd 1d8d 22bd 3f93 91be
000000d0: dd13 603e da2c 4b3d c4ec bcbe 02aa a3be
000000e0: 7af1 723e fea8 873e 7cc5 40bd 47c4 c83e
000000f0: d1ba 31be 86b7 ad3d 5ecf 303e 4c21 81be
00000100: 4b99 cb3a bd93 9ebd 2f5e 04be 82fa 20be
00000110: 219e 02bb 7424 5e3d 520e 3e3e 43db 1d3e
00000120: 4f4b 2abe 660f 263e aa37 c7bd 8cfc 28be
00000130: c82a 1cbe 0577 da3c bc05 503d 0f45 493d
00000140: 0af3 6f3e 2ec4 6abe 09a5 fdbd 25e7 133d
00000150: ca9d cfbd def7 f23d 1df8 b03d 1b28 de3c
00000160: e72e fbbd 1347 833e 5db1 363e fce9 3b3e
00000170: 965f 803d d02a b1bd e5d0 54bd f2cc 8abb
00000180: 0459 313e 59d5 51bd a8fe 1b3e dc32 e3bd
00000190: d938 6bbd 2ade 22be 7784 bfbd 6402 ffbd
000001a0: f5ee 3cbe 6e04 fdbd f3c8 8dbd d9cc 533e
000001b0: 18a3 18be 2385 63bd eec2 f53b 3e96 8f3d
000001c0: 8d6b 5e3d ef8c acbd 92d4 113d 71c7 e43d
000001d0: 3199 5d3c 4f50 9b3d 824a 7b3b 9cfd 1dbe
000001e0: cf78 bf3e 2371 1b3e a5bb 48be 0b13 b03d
000001f0: 6436 5ebe 2be5 76be 22be bdbd 2d95 00be
00000200: 2e8c e8bd c2a1 c03e 8ccc 85bd 5f8c eb3c
00000210: a796 203e 68a1 283e 7ac1 9b3c c849 f63c
00000220: 12f0 b03e a048 f93d 4325 c9be 365c b73e
00000230: 028f b7be a24c 9b3d 48aa bf3d c518 bfbe
00000240: fad1 93be acdb 243e be11 46be d541 f7bd
00000250: e7b7 9b3e 29ee 2ebd 4493 943e 22cb e1bd
00000260: 0f40 61be 3578 ac3e 8323 8dbd 3483 c13d
00000270: 6b52 0d3d 71a3 833e e98d ae3d 460c 4fbe
00000280: e224 80be 6523 55be a834 d73e f162 16be
00000290: ea4f 2d3e 8ce3 363e e898 863d d930 84bd
000002a0: 18ef 0fbe a796 06bd 3df8 85be cbbe 9c3e
000002b0: 4ed8 2d3d 4c0e cb3d 04f3 3c3e 917c 13be
000002c0: cebe 36be 8b82 93be e63d 753e 66f7 a7be
000002d0: 4aab 8dbe 1e16 8bbe 36b0 6f3e 22bb 263e
000002e0: 2d52 c43e 0ff3 b93e 5f05 3f3d 6cfc a73e
000002f0: edeb 003e 6185 acbc e58f b3bd e03a 2d3e
00000300: 66c0 b2be fd71 b3be 7559 8a3e b4b7 4c3e
00000310: 2b64 aebc bacc 1fbe 83e6 b63e 455f c1be
00000320: 6673 5cbd 6bee 9e3e 0f1b 9e3e 3a12 973e
00000330: 7852 4e3e 5e5b b0be 9d4e 493e e27c ab3e
00000340: 4eb3 c73c dec3 bebd
-0.007988361 -0.11913385 -0.2849879 -0.016990587 -0.19811311 -0.14452465 -0.11780549 -0.14851126
-0.24236244 -0.07232207 0.09585222 -0.11609957 0.33719093 0.25082195 -0.0050728857 0.0036030498
0.018631272 -0.14376979 0.051289603 0.23374264 0.09257691 -0.2537151 -0.33942598 -0.046391565
-0.005965363 0.07164391 -0.11881381 -0.3409037 -0.13558918 0.1580225 -0.3614186 -0.24291974
-0.039562527 0.1377431 0.31208706 0.112719096 -0.29985717 0.18853539 -0.37209395 0.5167166
0.1199994 0.4907163 -0.26723716 0.15591335 0.2858688 0.20117015 0.4420403 -0.2863494
0.48425 -0.0821854 -0.039685357 -0.28432652 0.21882577 0.04960332 -0.36899388 -0.31965643
0.23724928 0.26496118 -0.047063336 0.39212248 -0.17356421 0.0848227 0.17266604 -0.25220716
0.0015533356 -0.077430226 -0.12926553 -0.15720561 -0.0019930678 0.054233983 0.1856015 0.15415673
-0.1663029 0.16216812 -0.09727414 -0.16502589 -0.15250695 0.026668081 0.05078672 0.049138125
0.23432556 -0.22926399 -0.123849936 0.03610911 -0.10137518 0.11863683 0.08641074 0.027118733
-0.12264805 0.25640163 0.17841096 0.18350977 0.062682316 -0.08650744 -0.05195703 -0.004235857
0.17319113 -0.051228855 0.15233862 -0.11093685 -0.05742726 -0.15905061 -0.093514375 -0.12451628
-0.1845053 -0.123543605 -0.06923094 0.20683612 -0.14905965 -0.05554689 0.007500044 0.07011078
0.054301787 -0.084253184 0.035603113 0.11170853 0.013525293 0.07583677 0.003834397 -0.15428776
0.37396857 0.15179877 -0.1960283 0.08597382 -0.21700436 -0.24110858 -0.092647806 -0.12556906
-0.11354862 0.3762341 -0.06533155 0.028753458 0.1568247 0.16467822 0.019013155 0.030064479
0.3455816 0.12172055 -0.3928624 0.3581254 -0.35851294 0.07582976 0.093586504 -0.37323585
-0.28871137 0.16099423 -0.19342706 -0.12073103 0.30413744 -0.042707596 0.29018605 -0.11025073
-0.21997093 0.3368546 -0.06891539 0.09448853 0.034502428 0.25710633 0.08523161 -0.20219526
-0.2502814 -0.20814283 0.4203236 -0.1468618 0.16925016 0.1786024 0.06572133 -0.064546295
-0.14056051 -0.032858517 -0.26165953 0.30614313 0.042442612 0.09914836 0.18452078 -0.14402987
-0.17846224 -0.28810534 0.23949394 -0.32805938 -0.27669746 -0.27165312 0.23407063 0.16282323
0.38343945 0.36318251 0.04663598 0.3280977 0.12589999 -0.021059694 -0.0876768 0.1691699
-0.34912413 -0.35047904 0.27021375 0.19991952 -0.021287998 -0.1560544 0.3572274 -0.37767997
-0.05382099 0.31041273 0.3088002 0.29506093 0.20148647 -0.34444708 0.19658895 0.33493716
0.024377491 -0.093147025

model.classifier.1.bias f4 [7]
00000000: c389 0133 2d15 b4b2 9a8e a0b3 cf48 adb3
00000010: a340 d734 aa05 842f a2a2 9833
3.0160447e-08 -2.0964388e-08 -7.47652e-08 -8.069184e-08 4.00939e-07 2.4014685e-10 7.107634e-08

exp_avg f4 [30, 30]
00000000: a88e 0eb6 3b76 1935 2033 90b5 8e5b 10b6
00000010: 827a 5936 c115 72b5 6487 3334 6437 6736
00000020: f1ad 37b6 9ec5 9bb5 4707 a535 fad2 13b4
00000030: 4519 7cb4 d46e a035 51ec ea33 4025 3cb5
00000040: 2bc8 21b5 42ee b0b6 0e14 a135 d080 c2b5
00000050: 40f3 ebb5 a7f7 e335 cd7e aa35 19ba 5ab5
00000060: d82c 4935 21f0 e5b5 e722 47b6 23a6 9fb5
00000070: 399e 34b6 f1ed 3eb5 a5f8 c4b5 b64d 6b35
00000080: 9208 c2b4 ff31 adb5 8c49 cb35 420e 0cb6
00000090: e329 9734 202a 1736 fce5 5ab5 8846 9cb5
000000a0: 7c1c 6b34 ebc8 45b3 4ff0 55b5 0125 6235
000000b0: 145b 0435 e22e 56b5 dda2 3cb5 3944 3eb6
000000c0: 7885 1236 32e8 3db5 8fbe 07b0 eeae 6e35
000000d0: d46a a435 8af5 5eb5 16ed 2bb5 250a d4b5
000000e0: 0abf e8b5 0769 2cb5 7d13 bfb5 674a a9b5
000000f0: b9f1 5835 b931 2335 2d9b 1eb5 0b50 9335
00000100: 87d0 fdb5 1b36 7635 976f da35 6ede ae34
00000110: d4ff 6935 2963 b4b4 d860 e6b4 3a85 c134
00000120: 3fe3 09b5 554b d4b5 c1ea 2534 ab6e fa34
00000130: 858f 77b5 97ca 0ab4 498b 7734 fa31 7a33
00000140: cbb2 2db4 e26c 28b5 6ddf 0235 c29e a835
00000150: 6f2c 1e35 cd49 0d35 3f80 7e34 bb60 4d35
00000160: 0eed 60b3 fc9b 7935 150b 70b4 4c81 c335
00000170: 2aac 4035 b495 1536 cfc3 e034 fe84 2735
00000180: e592 35b5 0662 53b5 463f a3b4 0bcb 8b33
00000190: 4d6d 8735 9a80 ceb5 e090 9434 dbeb 2835
000001a0: 0baa bdb4 f36e 0c35 16bf ea34 407b 9b35
000001b0: 65db 01b6 2c2e 7d32 3444 91b5 6c5a 3834
000001c0: 00d0 c0b4 c06f 3936 5214 8435 f614 4435
000001d0: fef0 6f35 b668 2134 c62e 5134 3f32 0535
000001e0: e259 be35 0cda c6b3 b389 5935 e5bd 0436
000001f0: ce4e 24b6 63a2 0136 62ea 3bb4 4fd3 25b6
00000200: bacf a735 be9b 1835 5c3b 20b3 5716 48b4
00000210: e469 5635 9148 1fb5 b461 2cb5 7359 7535
00000220: 19d1 2f34 9d84 6d36 b86d 1eb6 e323 5b35
00000230: 60e4 1d35 94d9 d1b5 8c08 1633 7d83 5a35
00000240: 383b e134 a8ae ec35 eb21 2436 5ec6 9435
00000250: 767a 0f36 47d1 9835 a72d 23b4 0253 d035
00000260: 5e96 8e34 e148 d635 f91c dbb5 0028 3436
00000270: e2ea 1e35 291e 2fb4 37fe 1235 c93c f3b3
00000280: 1deb 4635 52ed c233 da30 a135 2a49 7db5
00000290: a392 30b5 1162 a035 de4b a5b4 bb6e a335
000002a0: cc89 ecb5 e874 8e34 77c1 55b5 e2cf 81b5
000002b0: f2a8 50b4 e145 0736 e909 d935 296e 8335
000002c0: 1e43 9e35 2d50 5135 ee28 d435 1091 9d35
000002d0: 89b0 5db6 4436 b735 2806 90b5 14fb 5c34
000002e0: 17ef 6e35 9b69 6435 eb7a bc35 dbdb 7136
000002f0: e87e 91b5 5bcb 82b5 6827 dc35 17aa 1f34
00000300: 2cfa f534 f4f3 33b5 db07 88b5 0b92 0935
00000310: 6117 c5b5 7173 89b6 72f2 2934 ab3a 78b5
00000320: 9cb5 e6b5 a8cc 4c35 c12c cb35 0f6a 2036
00000330: 6abb c635 2e58 89b5 b342 0bb6 54b1 0db5
00000340: d147 5c33 e256 5635 6012 63b3 0d58 ea35
00000350: 1fd9 5835 6f44 7035 cc80 a2b5 c530 1936
00000360: c139 c3b3 32ba 29b5 8fe1 0635 396e 64b1
00000370: f937 7e35 c5f3 d6b4 1106 df35 1665 dab5
00000380: 31d1 14b4 29ce 8935 c790 7d34 2146 2336
00000390: 75f5 0eb6 ad7e d734 4f48 0eb5 c03a 89b5
000003a0: df78 94b4 8255 0436 50e3 e035 ad90 9935
000003b0: 6d9b fc35 eead 6635 d582 c535 fdd5 6135
000003c0: 214b 14b6 ffa2 8a36 dbff a2b5 c04d 0835
000003d0: 91f9 d934 10e8 4835 f54f 0d36 8b54 8a36
000003e0: 3c0c 28b5 3ec1 0db6 6283 a835 d958 cb34
000003f0: 278d 0835 5d30 b9b5 0738 6eb4 b687 bc34
-2.1242686e-06 5.716899e-07 -1.0743715e-06 -2.1510964e-06 3.2406829e-06 -9.018368e-07 1.6719929e-07 3.4453924e-06
-2.7370372e-06 -1.1605914e-06 1.2295576e-06 -1.3767195e-07 -2.3478522e-07 1.1953184e-06 1.093946e-07 -7.0089663e-07
-6.0268457e-07 -5.2729456e-06 1.2001271e-06 -1.4491616e-06 -1.757966e-06 1.6984894e-06 1.2702891e-06 -8.1482136e-07
7.494359e-07 -1.7131716e-06 -2.9673627e-06 -1.1894775e-06 -2.6914188e-06 -7.1126766e-07 -1.4675503e-06 8.7657406e-07
-3.6141552e-07 -1.2904055e-06 1.5146084e-06 -2.0869925e-06 2.8156418e-07 2.2525273e-06 -8.1546e-07 -1.1643433e-06
2.1896443e-07 -4.605037e-08 -7.969838e-07 8.424541e-07 4.930637e-07 -7.9789436e-07 -7.0272455e-07 -2.8351917e-06
2.1833384e-06 -7.0745875e-07 -4.9383514e-10 8.8916465e-07 1.2250043e-06 -8.305875e-07 -6.404747e-07 -1.5798183e-06
-1.7340947e-06 -6.422783e-07 -1.4236281e-06 -1.2613135e-06 8.0818023e-07 6.079459e-07 -5.90854e-07 1.0975649e-06
-1.8910658e-06 9.1720875e-07 1.6274743e-06 3.2571864e-07 8.7171543e-07 -3.359976e-07 -4.2911302e-07 3.6045986e-07
-5.1367164e-07 -1.5817155e-06 1.5452225e-07 4.664665e-07 -9.222352e-07 -1.2925953e-07 2.3054339e-07 5.8253114e-08
-1.6176925e-07 -6.274332e-07 4.87539e-07 1.256318e-06 5.8924246e-07 5.263399e-07 2.3702249e-07 7.650921e-07
-5.2369664e-08 9.2986716e-07 -2.2355773e-07 1.4566263e-06 7.1776105e-07 2.228987e-06 4.186572e-07 6.2405877e-07
-6.7641514e-07 -7.874627e-07 -3.0407153e-07 6.509625e-08 1.0090095e-06 -1.5385624e-06 2.767256e-07 6.292809e-07
-3.5327716e-07 5.2315517e-07 4.372493e-07 1.158427e-06 -1.9350202e-06 1.47370365e-08 -1.0823192e-06 1.716923e-07
-3.5914127e-07 2.7632195e-06 9.84068e-07 7.304619e-07 8.938513e-07 1.5032387e-07 1.9481658e-07 4.961948e-07
1.4182262e-06 -9.259756e-08 8.103918e-07 1.9780066e-06 -2.4483775e-06 1.931702e-06 -1.7501e-07 -2.4709914e-06
1.2502926e-06 5.685105e-07 -3.730689e-08 -1.8634579e-07 7.9875304e-07 -5.9337714e-07 -6.421717e-07 9.139978e-07
1.6374214e-07 3.5392943e-06 -2.36077e-06 8.163608e-07 5.8819387e-07 -1.5635037e-06 3.493237e-08 8.140267e-07
4.1952603e-07 1.7634202e-06 2.4457647e-06 1.1084592e-06 2.1379942e-06 1.138579e-06 -1.5197166e-07 1.5521366e-06
2.6558968e-07 1.5965453e-06 -1.6325204e-06 2.6845373e-06 5.9201386e-07 -1.6309117e-07 5.475917e-07 -1.1326626e-07
7.410288e-07 9.076997e-08 1.2009652e-06 -9.435631e-07 -6.5778494e-07 1.194947e-06 -3.0788846e-07 1.2176673e-06
-1.7623474e-06 2.6534622e-07 -7.963021e-07 -9.671751e-07 -1.9432971e-07 2.0157242e-06 1.6170644e-06 9.792321e-07
1.1791451e-06 7.797524e-07 1.5807143e-06 1.173963e-06 -3.3034323e-06 1.3650356e-06 -1.0730628e-06 2.0580438e-07
8.900983e-07 8.5090295e-07 1.4042865e-06 3.6039771e-06 -1.0840276e-06 -9.744939e-07 1.6402746e-06 1.4869907e-07
4.581683e-07 -6.7037695e-07 -1.0135076e-06 5.1249e-07 -1.4684448e-06 -4.0963573e-06 1.5827553e-07 -9.247257e-07
-1.7189191e-06 7.6293736e-07 1.5137704e-06 2.3903592e-06 1.4806694e-06 -1.0232959e-06 -2.0751438e-06 -5.278464e-07
5.128806e-08 7.9847644e-07 -5.2869268e-08 1.7459985e-06 8.0782223e-07 8.950655e-07 -1.2107425e-06 2.2827164e-06
-9.0909005e-08 -6.3228356e-07 5.024712e-07 -3.324102e-09 9.4703825e-07 -4.0037972e-07 1.661656e-06 -1.6271686e-06
-1.3859677e-07 1.0267296e-06 2.3615131e-07 2.4329713e-06 -2.1302524e-06 4.013904e-07 -5.3004345e-07 -1.0224394e-06
-2.7655094e-07 1.9719305e-06 1.6755457e-06 1.1441495e-06 1.8820698e-06 8.593478e-07 1.4715721e-06 8.4130426e-07
-2.209745e-06 4.1316957e-06 -1.2144404e-06 5.077709e-07 4.0600983e-07 7.48435e-07 2.1057178e-06 4.1225626e-06
-6.260268e-07 -2.112312e-06 1.2555213e-06 3.7876342e-07 5.086935e-07 -1.379765e-06 -2.218586e-07 3.5116472e-07

exp_avg_sq f4 [30, 30]
00000000: 4c6b a82f 292d 1d30 8e5c 212f 3435 272f
00000010: 6794 cf2e 9df3 1730 5119 042f 5452 4c2f
00000020: b474 a82f 56c6 5d2f 8bbd 752f cb59 3f2f
00000030: d3ba d12e c4ac d32f 5b64 092f a075 052e
00000040: 839b a62e 0758 072f 3481 362f 4be3 792f
00000050: 1cd9 3a2f d7dd 3f2f 1d94 5c2f 1e8b 172f
00000060: d63b 042f 4a86 da2e 4068 e42e e769 a82e
00000070: 6d09 a62f ec26 962f 7cbd 392f 2d7e 6030
00000080: 9d14 df2e 6b20 852e eb20 122f 9df1 3c2e
00000090: bdc7 b52e 3f71 992e 8778 0d2f 2243 a52f
000000a0: 7057 272f e9e8 072f fedc 6d2e 3ec8 152f
000000b0: 9a0b 672f 1f9f c82d 25c8 3b2e 0ef4 652e
000000c0: f0cd 1f2e 26ae e12e 14db 772f e534 352e
000000d0: 6241 b92e 7174 0e2f fd9a 992e 9a3f 392e
000000e0: 5d84 0a2e 7f2b 4f2e fc6f 422f 8dba 902f
000000f0: 7674 242e 215f 822f 5953 1a2f 4df1 822f
00000100: 2372 682d 3617 9d2e 0d93 192d bb52 e72e
00000110: 44d4 2c2e 1117 722f 1f41 092f 2cd2 a82e
00000120: 18bc 882f dccc 772d faba 412f 0e05 7e2d
00000130: d829 092e 3983 3a2e 7f94 ec2d 07f0 572e
00000140: 01c1 fa2f f5f8 d72e 8495 922e 9920 752f
00000150: 92c7 9a2d 1bdb ff2d 2d3a ca2e ad6d fc2d
00000160: 685b 1d30 562f 112f 67f8 392e 5fe6 c32e
00000170: 406e 342e 723a 7e30 799d 772d 2319 3f2f
00000180: eb07 8c2e 578f 672f 5fab 8f2e de08 982e
00000190: a482 b62e f89f d72f 40e7 2c30 bc9a e72f
000001a0: 7625 422f 7e8f 012d 782e a72f 681e 362f
000001b0: adeb aa2e ce32 432e b2c3 8a2f 6503 da2f
000001c0: 3929 032f e4cf cb30 0aa1 e82e dd3c d82d
000001d0: 655c 382f 19fd d72d 550a 4930 d6a7 842e
000001e0: 294c 2b2f 9bf4 042f 432b 282e ea54 5d2e
000001f0: 696b 142e 2a05 a52f 5035 ff2d f563 242f
00000200: 41ca c92e ede8 5a2e b1d5 8c2e 73ad b22f
00000210: 5746 b72e 8b1a 002f aee2 6d2f e32a 152e
00000220: 2293 952e a30a d92e d3f6 5a2f 7a92 c22e
00000230: 885e eb2e c22d 842e e66d ad2f ca8d 812f
00000240: 7e84 5c2e b229 242e 8e91 902e 17b7 302e
00000250: 1ce4 0f2f 325f a22e c60d e42e f188 902f
00000260: 1e2f a32e b2d0 672e 5962 2a2e 4ae5 152e
00000270: e6c1 c92d d052 9a2e 5934 882e 93b5 0a2f
00000280: 7351 aa2e 2f2e f72e d940 892e 0bf2 b52e
00000290: 5ac0 8c2e 30e8 102d fd77 262e 191f 0c2f
000002a0: 2ff3 072e 1e6b 312f 8d96 5b2f 0631 192e
000002b0: b4bb 902e b812 482f d6c6 cd2d 4bf8 e72e
000002c0: dcff a62e 294f af2e bd4b f82e e8ea a42f
000002d0: 7d12 d52f 622e 5030 ada3 fa2e a68a 142f
000002e0: d011 2e2f 7fa5 302e 9355 5f2e 475d 9d2e
000002f0: 37e8 0c2f c905 302f 1aa8 302f 3c7d 642e
00000300: a09c 9c2e 18cb 372f c904 a02e 636e 022e
00000310: 661b a42e 53c0 852e 42de 9d2d a18f 072e
00000320: 6555 172f 3304 bc2e b005 452e 42df 0a2f
00000330: 35c2 942e 5c4c 152e 5af2 222e da9e 872e
00000340: aa73 322f fea6 0930 2746 1d2f b292 452f
00000350: ecd8 542e 5d3a 0b2f c1ce 352e 5ea1 952e
00000360: b8ff 7c2e 8544 502f d8a0 ae2e 79d3 892e
00000370: 4b59 242e dc0f e92e 5357 1b2f 366f 0430
00000380: 9ed8 b52e c725 162d 46f1 fe2e 23d0 862f
00000390: 2ebe 532e 628d 492f ae4f b62e 236b e72e
000003a0: e7c1 142f 977f 0330 f3f8 cc2e 34f9 292e
000003b0: b635 fa2e 1aec 232e db72 012f fbc9 e22e
000003c0: f05e 022f 19fa 3a30 52d1 792f 4ea6 282e
000003d0: 6ffb c62e 426a b82e 5aee 7c2e c3a2 d72e
000003e0: af6b 272f f82c b82f 1b89 202f ab0c 102f
000003f0: 37ce 682e d05a aa2f 0dc6 622f 52da 902d
3.063526e-10 5.7180444e-10 1.4675747e-10 1.5207463e-10 9.439632e-11 5.5279675e-10 1.2014324e-10 1.8582941e-10
3.0641945e-10 2.0170296e-10 2.234996e-10 1.740325e-10 9.537406e-11 3.8503434e-10 1.2495731e-10 3.034517e-11
7.5764305e-11 1.2309452e-10 1.6598706e-10 2.2727169e-10 1.6993734e-10 1.7450162e-10 2.0061504e-10 1.3782794e-10
1.2026588e-10 9.937347e-11 1.0386758e-10 7.6585675e-11 3.0201922e-10 2.7312497e-10 1.689297e-10 8.167003e-10
1.01445276e-10 6.0538984e-11 1.3290317e-10 4.2960847e-11 8.266408e-11 6.977751e-11 1.2866695e-10 3.0061026e-10
1.5219626e-10 1.2360925e-10 5.408384e-11 1.3622611e-10 2.101345e-10 2.2808032e-11 4.269664e-11 5.2285336e-11
3.6335324e-11 1.02627504e-10 2.2542351e-10 4.1201615e-11 8.42444e-11 1.2956193e-10 6.985166e-11 4.212062e-11
3.149513e-11 4.7104983e-11 1.7683982e-10 2.6326e-10 3.739272e-11 2.3714455e-10 1.403583e-10 2.3818317e-10
1.3213017e-11 7.1436565e-11 8.729695e-12 1.051936e-10 3.9296802e-11 2.2017967e-10 1.2483213e-10 7.6770895e-11
2.4871905e-10 1.4085812e-11 1.7619675e-10 1.4439351e-11 3.1187358e-11 4.2408053e-11 2.689604e-11 4.9098527e-11
4.5611873e-10 9.821292e-11 6.6658706e-11 2.2294201e-10 1.75964e-11 2.9087446e-11 9.1962306e-11 2.8697789e-11
5.7246163e-10 1.320449e-10 4.2284756e-11 8.9084955e-11 4.1025183e-11 9.248772e-10 1.407529e-11 1.7380279e-10
6.3678694e-11 2.1060252e-10 6.533329e-11 6.913735e-11 8.299608e-11 3.9221937e-10 6.290186e-10 4.21286e-10
1.7657506e-10 7.364663e-12 3.041014e-10 1.6563606e-10 7.7725694e-11 4.438299e-11 2.5241104e-10 3.965638e-10
1.1929026e-10 1.482928e-09 1.0578745e-10 2.4583386e-11 1.6767528e-10 2.4555068e-11 7.3138057e-10 6.032479e-11
1.5579417e-10 1.2092231e-10 3.82372e-11 5.0325e-11 3.3746703e-11 3.0016994e-10 2.9013819e-11 1.4951225e-10
9.176349e-11 4.977434e-11 6.404422e-11 3.2501254e-10 8.3343714e-11 1.1650962e-10 2.1635557e-10 3.391677e-11
6.8018716e-11 9.869907e-11 1.9914674e-10 8.848118e-11 1.0703355e-10 6.010793e-11 3.1546604e-10 2.356571e-10
5.0139885e-11 3.7326316e-11 6.5742176e-11 4.0180383e-11 1.3086815e-10 7.383817e-11 1.0370686e-10 2.629075e-10
7.4207515e-11 5.2708678e-11 3.8740875e-11 3.4082327e-11 2.2937163e-11 7.01782e-11 6.193863e-11 1.2615535e-10
7.745173e-11 1.12404634e-10 6.241558e-11 8.2739225e-11 6.4006314e-11 8.237008e-12 3.78506e-11 1.2743974e-10
3.0911437e-11 1.6136112e-10 1.997142e-10 3.4831714e-11 6.5817046e-11 1.8196544e-10 2.3394103e-11 1.05487695e-10
7.594256e-11 7.97214e-11 1.1291188e-10 2.9998337e-10 3.875761e-10 7.5735873e-10 1.13977584e-10 1.350978e-10
1.5831536e-10 4.0164757e-11 5.0780335e-11 7.156103e-11 1.2815425e-10 1.6009162e-10 1.6066828e-10 5.195243e-11
7.121881e-11 1.6715906e-10 7.2768076e-11 2.965662e-11 7.4627235e-11 6.0823034e-11 1.7947536e-11 3.0823014e-11
1.3763708e-10 8.549996e-11 4.4797666e-11 1.2630344e-10 6.764759e-11 3.39465e-11 3.7049787e-11 6.167307e-11
1.6230098e-10 5.007762e-10 1.430399e-10 1.7969162e-10 4.8395885e-11 1.2662711e-10 4.133827e-11 6.8044e-11
5.752529e-11 1.8941833e-10 7.9411755e-11 6.267604e-11 3.736859e-11 1.05984305e-10 1.4128192e-10 4.817936e-10
8.269406e-11 8.534901e-12 1.15934415e-10 2.4522348e-10 4.814476e-11 1.8331073e-10 8.290556e-11 1.0523695e-10
1.352941e-10 4.783884e-10 9.321068e-11 3.8647488e-11 1.1378225e-10 3.727161e-11 1.1773287e-10 1.0313169e-10
1.185716e-10 6.8021816e-10 2.2720784e-10 3.8346486e-11 9.048661e-11 8.3862264e-11 5.7509865e-11 9.80598e-11
1.5226818e-10 3.3501357e-10 1.4600625e-10 1.3101224e-10 5.293385e-11 3.0987346e-10 2.0624942e-10 1.6467858e-11

exp_avg f4 [30]
00000000: fbbb c0ad 4dcd 2fac 8c13 7f2d 8670 90ac
00000010: 1599 922d 799d 262d 1dd1 b8ac b623 202d
00000020: e58b d3ab cc7c 012d 2dfb 142b 1f8e f32c
00000030: 8483 51ad 069d 97ab a987 3d2d f7f1 d32c
00000040: 9317 b7ac 5416 b8ac 302d fb2c a00e 3dac
00000050: 6eab b42c 5e7d 0fab 2a2f 0c2d f8c2 402d
00000060: 8ca0 86ac 342b fdac fd8a 8a2c fba7 c02c
00000070: 4cdc 642c b212 e32c
-2.1911353e-11 -2.498296e-12 1.4499412e-11 -4.1052188e-12 1.666626e-11 9.4709735e-12 -5.2528108e-12 9.1028764e-12
-1.503128e-12 7.3605115e-12 5.292874e-13 6.922254e-12 -1.1909477e-11 -1.0772778e-12 1.0773529e-11 6.023844e-12
-5.20379e-12 -5.2320735e-12 7.138866e-12 -2.6866634e-12 5.13494e-12 -5.097779e-13 7.968551e-12 1.0957228e-11
-3.8263333e-12 -7.195489e-12 3.9376267e-12 5.475618e-12 3.2523038e-12 6.4538036e-12

exp_avg_sq f4 [30]
00000000: beff 8a29 ba4b eb2c 9b41 9128 0dcf b129
00000010: 3e1e 292b 3199 732b 9886 8b2c cbf9 c02b
00000020: fc18 c02b 31d3 cc29 0e31 822b 052a 0c29
00000030: b9b8 8e2b a7ac 302c 634a 8b2b afb5 ad2b
00000040: 8299 a829 ec7a 0a2c 68a2 322c 0e49 922c
00000050: 215c 2f2a b7d4 fd2c 5821 712c e5ba 0a2b
00000060: 1e30 952b 6e68 4a29 e773 422c 630d 942c
00000070: 4026 e72c 3b0d 452b
6.172795e-14 6.687509e-12 1.6126686e-14 7.8962966e-14 6.008283e-13 8.654354e-13 3.9655605e-12 1.3711752e-12
1.3649355e-12 9.096056e-14 9.250671e-13 3.112269e-14 1.0140978e-12 2.5106946e-12 9.89719e-13 1.2342817e-12
7.487328e-14 1.9679215e-12 2.5385475e-12 4.1576803e-12 1.5575086e-13 7.2143086e-12 3.426667e-12 4.9286817e-13
1.0600442e-12 4.494359e-14 2.7633397e-12 4.2078992e-12 6.5696615e-12 7.000682e-13

exp_avg f4 [7, 30]
00000000: c237 25b3 0294 e7b5 af06 8334 bd65 1ab5
00000010: d8e5 5135 d196 9c35 7e9e e433 92ab 41b4
00000020: 27b9 11b5 cc3d aa35 df28 6133 d543 da34
00000030: 743b 8cb6 665d 02b6 1cf7 5a35 81ba 8c34
00000040: c557 b535 d627 7c34 428f ec35 dd9a c6b4
00000050: 5ef7 82b5 f657 a335 f797 a935 7263 0fb5
00000060: 6bc4 ffb3 6a8e 19b5 febc 5b35 2064 0236
00000070: 409c 3133 a33b a234 da4a b733 d840 b333
00000080: f702 4836 5925 7036 37a1 bc36 0998 8a36
00000090: f336 7934 b247 c636 c15f c935 19da 9e36
000000a0: ef50 33b6 933e 9036 6075 d7b6 bf4c 9cb6
000000b0: 6540 5436 5204 2936 c3cd a136 c4e9 3a35
000000c0: 4a37 0736 b469 b0b6 7b78 8ab6 ed17 8336
000000d0: 6dd5 1537 303b 8335 86dd 2fb6 4650 9fb6
000000e0: 4d9e 5a36 ae2e ee36 0ea5 7736 a08f 09b6
000000f0: b9e9 fa35 fc5e b2b5 5605 e835 9143 7635
00000100: f921 d535 0211 dd35 5576 87b6 3e9a 2236
00000110: 1149 8f35 41d8 2336 7b3b 83b5 c704 5636
00000120: 9146 72b5 793d 6db5 2009 6036 5328 5f35
00000130: 6e24 9035 b4a6 f3b4 10df aeb3 ee58 39b5
00000140: aa1a 35b6 70e0 3736 fddb 2b36 b5a3 0a36
00000150: 5e24 83b5 72ca 00b6 6f67 ef34 bcf1 d0b5
00000160: b715 a236 ea40 4234 218b f135 3b93 3535
00000170: 2f57 5cb5 aba9 b7b5 f61d 5834 3b3c e035
00000180: fd1f 2235 c6a9 3f35 13b5 a532 3e7d a4b5
00000190: 35e9 52b3 fa42 02b6 945b 0eb6 cc64 a3b5
000001a0: 97f3 07b6 83f6 e9b5 ce7c ad35 7717 cf35
000001b0: d0b0 0f36 d927 6ab5 5e9b bb35 bde9 d2b5
000001c0: 4caf 85b1 adbd ccb3 f0c3 3cb5 79bc d9b3
000001d0: 526c 1536 317a dc34 b628 f2b5 415e 4934
000001e0: 2aed 8a36 e2bc c934 d3f9 bcb5 ff4b 2e35
000001f0: c2d4 35b6 69ac ebb5 1587 84b3 68b2 e6b5
00000200: c2ba 4735 225b da35 9d1a a1b5 341a c5b5
00000210: ca32 e935 72c0 b133 f89f 6f35 bb76 dd34
00000220: b8b3 9135 2724 8a35 f627 a2b6 e9cd 8136
00000230: 7853 8ab6 5f58 7b36 e2f1 2134 a825 4ab6
00000240: dd79 7734 8880 0b36 0b22 45b6 efe1 22b6
00000250: fc18 6836 c30b 00b6 b160 08b5 c883 a7b4
00000260: 51ec 1935 ddf8 4f35 712c 6235 37d7 a035
00000270: 7f56 ebb5 5570 1536 6e86 3935 80e4 02b6
00000280: ee11 fd33 cacf 4f35 8f9c 3235 8542 3434
00000290: ce45 fa34 311d b7b5 8897 afb5 81ef 37b5
000002a0: 5dc7 d335 d66d d1b5 394a 0636 3385 a7b5
000002b0: 5744 e8b4 e6f6 4336 bfb7 4834 3808 90b5
000002c0: c622 3d35 4fac dcb5 0332 bbb4 a552 8a35
000002d0: 7949 b7b6 e826 fbb5 e56d d135 8468 5fb6
000002e0: a9c7 d135 10e9 b0b5 ef73 8eb6 c29f 6ab6
000002f0: a098 96b6 2131 d536 d791 a236 bb22 bc36
00000300: 9d8b cdb6 0e1c 8936 100a 9035 bf60 64b5
00000310: ff34 0b36 4ed9 0eb6 e74a 9a36 c7c7 3736
00000320: d1cf 2036 604b aab6 a682 93b5 b0a7 c5b5
00000330: fd75 97b6 62e8 4935 84f8 1f36 9b12 2336
00000340: 9d20 3db6 6e4f 0437
-3.8467768e-08 -1.7253917e-06 2.4405514e-07 -5.751752e-07 7.8193034e-07 1.1666799e-06 1.0645907e-07 -1.8036943e-07
-5.428614e-07 1.2683972e-06 5.2424067e-08 4.0655019e-07 -4.1792464e-06 -1.9425875e-06 8.157092e-07 2.6212732e-07
1.3511095e-06 2.3483821e-07 1.7625064e-06 -3.6993052e-07 -9.757748e-07 1.2170046e-06 1.2635709e-06 -5.3416363e-07
-1.1910091e-07 -5.720418e-07 8.185888e-07 1.942979e-06 4.1353132e-08 3.0218243e-07 8.535217e-08 8.347132e-08
2.9804048e-06 3.5784526e-06 5.6216045e-06 4.1304197e-06 2.3209923e-07 5.9092063e-06 1.5003535e-06 4.734157e-06
-2.6720188e-06 4.298819e-06 -6.4211636e-06 -4.6580967e-06 3.1627944e-06 2.5185477e-06 4.8221277e-06 6.9630573e-07
2.014875e-06 -5.257514e-06 -4.1267463e-06 3.9068896e-06 8.930784e-06 9.777486e-07 -2.6205976e-06 -4.7479143e-06
3.2576675e-06 7.098387e-06 3.6901943e-06 -2.0498192e-06 1.8694474e-06 -1.3289678e-06 1.72869e-06 9.1740463e-07
1.5879624e-06 1.6470733e-06 -4.037089e-06 2.4229662e-06 1.0675595e-06 2.441477e-06 -9.777572e-07 3.1891266e-06
-9.0254713e-07 -8.8378835e-07 3.3383913e-06 8.3132653e-07 1.0739438e-06 -4.538357e-07 -8.143081e-08 -6.904728e-07
-2.6986622e-06 2.7399765e-06 2.5609036e-06 2.0658892e-06 -9.770845e-07 -1.9191325e-06 4.4592477e-07 -1.5567562e-06
4.830504e-06 1.8091274e-07 1.7996391e-06 6.7642003e-07 -8.2083255e-07 -1.3683942e-06 2.0127467e-07 1.670683e-06
6.039625e-07 7.14001e-07 1.9290871e-08 -1.2255402e-06 -4.9106536e-08 -1.9410495e-06 -2.1212954e-06 -1.2173782e-06
-2.0258356e-06 -1.7431597e-06 1.2925827e-06 1.5429531e-06 2.141158e-06 -8.722978e-07 1.3977804e-06 -1.5714246e-06
-3.8907384e-09 -9.533992e-08 -7.0320584e-07 -1.0139133e-07 2.226578e-06 4.10671e-07 -1.8042253e-06 1.8753873e-07
4.14033e-06 3.7576598e-07 -1.40798e-06 6.493064e-07 -2.7094943e-06 -1.7559042e-06 -6.1713e-08 -1.7188258e-06
7.4405045e-07 1.6268789e-06 -1.200318e-06 -1.468527e-06 1.7374634e-06 8.2772104e-08 8.9267223e-07 4.1250846e-07
1.0855647e-06 1.0292323e-06 -4.8326283e-06 3.8684707e-06 -4.1224375e-06 3.7453353e-06 1.508229e-07 -3.0122264e-06
2.3048001e-07 2.078743e-06 -2.9375103e-06 -2.4271392e-06 3.4585237e-06 -1.9080333e-06 -5.080465e-07 -3.1202057e-07
5.734083e-07 7.7475653e-07 8.425623e-07 1.1983565e-06 -1.7534038e-06 2.2268116e-06 6.911349e-07 -1.9504514e-06
1.1784492e-07 7.741588e-07 6.653799e-07 1.6788006e-07 4.6616918e-07 -1.3643058e-06 -1.3082617e-06 -6.8521337e-07
1.5778747e-06 -1.560368e-06 2.001076e-06 -1.2481236e-06 -4.326309e-07 2.9200978e-06 1.8693298e-07 -1.0731228e-06
7.045859e-07 -1.6441426e-06 -3.4867853e-07 1.0305854e-06 -5.4623783e-06 -1.871228e-06 1.5603697e-06 -3.3290426e-06
1.5629822e-06 -1.3180852e-06 -4.245426e-06 -3.4961708e-06 -4.4881162e-06 6.353614e-06 4.844954e-06 5.6068798e-06
-6.125729e-06 4.086184e-06 1.0731765e-06 -8.5077403e-07 2.0743462e-06 -2.1286137e-06 4.5982774e-06 2.738541e-06
2.3962823e-06 -5.0751696e-06 -1.0990377e-06 -1.4726447e-06 -4.5138863e-06 7.5216496e-07 2.3837501e-06 2.4299723e-06
-2.8182178e-06 7.886307e-06

exp_avg_sq f4 [7, 30]
00000000: 0da5 4530 767b 7d30 1504 ba2f e6c7 9330
00000010: e9e0 072e 2e43 a92f b960 262f 6899 c42f
00000020: c1db 0630 793b 7a2e c768 722f 8ff9 132f
00000030: 7072 5831 3574 1931 23c7 aa30 ddf6 892f
00000040: e4eb bd30 a9cd 8430 3827 1930 8764 852f
00000050: 642b 4f2e b290 d32f 7bbd 9830 7f48 122e
00000060: 81e2 a52f af86 3930 28a5 232f da98 8430
00000070: 2c11 b42f a82d 812f ce0b 1930 a21a 2130
00000080: c870 ce2f 43f8 5030 742c 982f e9a0 1530
00000090: 4c7c 9b2f dd7b 2730 9ccc 0630 bdfc c22f
000000a0: 5a32 1430 8a7b 3230 f09f 6a30 b6e2 2d30
000000b0: 82ca 9b2f 6281 1f30 2eaf 2f30 5025 2e30
000000c0: bf19 2330 9ca8 1b30 b3e5 c62f 70cc 7c30
000000d0: 891f 3d30 8e2a 6d2f a602 802f b756 be2f
000000e0: c7b2 b22f db9f 6130 635c 2030 d8e4 2930
000000f0: f190 b330 1294 8530 bb1c 8830 fb08 4031
00000100: 83f2 942e 91d7 2930 8a14 e330 2ca3 232e
00000110: 9208 0030 29d6 812f 9851 c830 cf40 9330
00000120: 4118 132f 3d80 452f 5112 5c30 3866 d231
00000130: bfa3 4030 6071 e22e 5102 962f 4c20 cf2e
00000140: 3fc6 2330 b37c 852f 7038 c42f 74fd 0331
00000150: 79f9 fb2e 04e1 af2e 1993 5230 026a bd30
00000160: a106 b930 df3c 1231 ab3a 7a30 04de 8c30
00000170: a7da 0430 1fe6 fc2f 0149 642e 3f44 4b30
00000180: 8d97 942f df34 2131 2ca1 c72e 45dd 882f
00000190: ff96 8f2e 1035 6230 1d72 3231 f89d 3431
000001a0: 523a f330 48a1 8830 eef3 f830 003e 0431
000001b0: 227a da2f f995 ac2e c13a 422f 74f6 2430
000001c0: 9235 7d2f 32ee 252f e43c 3230 3e46 7a2e
000001d0: 6b72 6830 586b d32e d1a3 a32f 4220 fb2f
000001e0: 7fbb 1f30 e6c8 b12f 29dc 632f f03f 8b2f
000001f0: abea 862f 3af1 f52f f4c9 1d2f 12c8 ed2f
00000200: ae4a 9930 5560 6b30 8a60 812e c3ad 792f
00000210: 2ec3 3230 659f 772f feee 662f d0ef 2830
00000220: 7065 f32f 445a c82f 315c a730 4395 5930
00000230: 096d 5f30 1ac4 792f 0790 9d2e ebf7 6130
00000240: 8223 af2f 5c7d b12f 472d 572f b197 8d2f
00000250: 8a7e b02f 144e a42f 3a51 3d30 ea96 9a2e
00000260: 28f0 bd2e a325 4e30 8a4f b72e 1a10 042f
00000270: eca1 6930 20ed 5930 ac6f dc2e 9d83 0e30
00000280: 4303 d92f 1968 9c2f 13b6 4630 921c 542f
00000290: 7117 582f 4dc4 ad31 752b db2e 1c69 1c2f
000002a0: 4f7d 772f 404f 302f 0fd1 b42f d937 0a30
000002b0: 2124 152f c4ff ae2f 2bdf 7c2f 9edc 962e
000002c0: 6e41 292f c604 4630 dc92 5130 e282 8f30
000002d0: 015a df2f 8725 772f 5cdf 2e2f 898e a42e
000002e0: 52a0 8b2f eccb 712f be3c 842f 56e2 de2f
000002f0: 4b5d 592f 984d d92e 0aef d92f ca86 582f
00000300: 6b37 8b30 cccd 932f f2a3 402f 372f b930
00000310: e1c3 3a2e 7e56 1d2f 694b 0e30 8e2d f72f
00000320: b5fb 2d2f c23c b72f 01f6 4930 0dd6 7a2f
00000330: 7fda fa2e 2061 c02f b72d 0b30 bc2e 6b30
00000340: 2eef a02e 54cd 4b2f
7.1902734e-10 9.221631e-10 3.3836103e-10 1.0752472e-09 3.0895207e-11 3.0788655e-10 1.5131975e-10 3.5761194e-10
4.9061205e-10 5.689624e-11 2.2046996e-10 1.3458233e-10 3.1497187e-09 2.2330486e-09 1.2425726e-09 2.5095562e-10
1.3818604e-09 9.662716e-10 5.571681e-10 2.4263988e-10 4.710489e-11 3.848349e-10 1.1113309e-09 3.3260946e-11
3.0174266e-10 6.7494005e-10 1.4883439e-10 9.647707e-10 3.275401e-10 2.3497404e-10 5.567785e-10 5.8609306e-10
3.7551318e-10 7.602276e-10 2.7680225e-10 5.443455e-10 2.8282654e-10 6.0930266e-10 4.9039683e-10 3.5467976e-10
5.391364e-10 6.493158e-10 8.535599e-10 6.325921e-10 2.8338226e-10 5.8027727e-10 6.3913574e-10 6.3353855e-10
5.933564e-10 5.662828e-10 3.61792e-10 9.196759e-10 6.8802614e-10 2.1570143e-10 2.3284946e-10 3.4622413e-10
3.250504e-10 8.208169e-10 5.833895e-10 6.180705e-10 1.3065159e-09 9.719108e-10 9.903468e-10 2.7944782e-09
6.7733395e-11 6.178818e-10 1.6522261e-09 3.7206835e-11 4.657831e-10 2.3617133e-10 1.4575106e-09 1.0714077e-09
1.3378189e-10 1.7962605e-10 8.0061563e-10 6.1234253e-09 7.008189e-10 1.02974296e-10 2.7286487e-10 9.419007e-11
5.958078e-10 2.4281163e-10 3.5692294e-10 1.920708e-09 1.1458474e-10 7.9980494e-11 7.6606593e-10 1.3781689e-09
1.3462406e-09 2.1280397e-09 9.103284e-10 1.0249441e-09 4.8332044e-10 4.6002044e-10 5.190604e-11 7.3947953e-10
2.7028726e-10 2.3458637e-09 9.078102e-11 2.4895477e-10 6.5297094e-11 8.229373e-10 2.5967275e-09 2.6283242e-09
1.7697153e-09 9.941141e-10 1.8113704e-09 1.924377e-09 3.974075e-10 7.848295e-11 1.7665071e-10 6.0013083e-10
2.3029248e-10 1.5091287e-10 6.4842554e-10 5.6905806e-11 8.4563706e-10 9.614237e-11 2.9765926e-10 4.5679555e-10
5.811031e-10 3.233886e-10 2.0723746e-10 2.5329383e-10 2.45412e-10 4.4736642e-10 1.4350815e-10 4.3252207e-10
1.115344e-09 8.56294e-10 5.8833896e-11 2.270815e-10 6.503339e-10 2.2521147e-10 2.1003285e-10 6.145884e-10
4.4273518e-10 3.6443926e-10 1.2177052e-09 7.9156254e-10 8.1281876e-10 2.2716087e-10 7.165118e-11 8.2206836e-10
3.1857544e-10 3.2285186e-10 1.9570222e-10 2.5755534e-10 3.2104125e-10 2.9886904e-10 6.887323e-10 7.029917e-11
8.637385e-11 7.499585e-10 8.3360055e-11 1.201105e-10 8.499501e-10 7.9281115e-10 1.00242786e-10 5.1846333e-10
3.9474388e-10 2.84502e-10 7.2290723e-10 1.9291438e-10 1.9653414e-10 5.0572795e-09 9.9666865e-11 1.422546e-10
2.2509038e-10 1.6035262e-10 3.2890354e-10 5.028347e-10 1.3564307e-10 3.1832148e-10 2.2998552e-10 6.8604e-11
1.5393706e-10 7.2038764e-10 7.6242457e-10 1.0441819e-09 4.0627415e-10 2.2477852e-10 1.5904561e-10 7.483176e-11
2.5397867e-10 2.199127e-10 2.405382e-10 4.0542386e-10 1.976918e-10 9.881801e-11 3.9641918e-10 1.9692972e-10
1.0129332e-09 2.6885372e-10 1.7520543e-10 1.3473941e-09 4.246548e-11 1.4309795e-10 5.1766463e-10 4.4961407e-10
1.5823683e-10 3.3330677e-10 7.3472967e-10 2.2813414e-10 1.14074965e-10 3.4993608e-10 5.063287e-10 8.5558916e-10
7.3184445e-11 1.853569e-10

exp_avg f4 [7]
00000000: 8247 dfad 3bd0 4e2d 21a5 c12d 581f 8ead
00000010: ff95 8aad 0ff2 092d 5831 ba2b
-2.538392e-11 1.1755981e-11 2.2014892e-11 -1.615745e-11 -1.5755395e-11 7.841296e-12 1.322979e-12

exp_avg_sq f4 [7]
00000000: e730 8f2a e225 ae2c 6824 d529 a12b 562b
00000010: 4e28 1128 5901 252c 52ad d92c
2.5435836e-13 4.9495833e-12 9.4654156e-14 7.608862e-13 8.057857e-15 2.3448658e-12 6.1867534e-12
