tutorial/Mouse_cerebellum_output/version_16/checkpoints/mlp.ckpt (torch, 17217 bytes, 12 tensors)

model.classifier.0.weight f4 [30, 30]
000000 91 ef 5d bd b6 90 2e bd 80 43 81 bd c2 b8 c0 bd
       -0.054183546 -0.042618476 -0.06311703 -0.0941024
000010 67 61 24 3d 59 8d b9 3d 0b 36 55 3d e1 86 97 bd
       0.040131953 0.09060163 0.052053493 -0.07398773
000020 f3 56 64 3d 51 7d 5f bd 7e 96 3d 3d 70 17 34 ba
       0.055746984 -0.05456287 0.0462861 -0.00068699475
000030 71 d0 10 bc 07 c7 b1 3d b2 a6 c5 3a e7 69 99 bd
       -0.008838759 0.086805396 0.0015079586 -0.074909024
000040 9e c4 a6 3c 13 97 19 3d 1d 38 17 3e 7d 2c 1b be
       0.020357426 0.03749759 0.147675 -0.1515369
000050 7f 3a e8 bd 91 d5 01 3e b4 f3 f1 bd 5c 51 34 bd
       -0.11339282 0.12679125 -0.11814061 -0.044022903
000060 1c a5 c4 3d db 8e 22 bd fb b0 35 be a1 37 48 bc
       0.096018046 -0.03968702 -0.17743294 -0.012220294
000070 00 2e 3f be 93 62 05 3d 46 a9 3a be c1 04 da bd
       -0.18669891 0.03256471 -0.18228635 -0.10645438
000080 53 d5 ec bd 70 ad e6 3d ec c3 81 3e b2 1f 0d 3e
       -0.11564126 0.11263549 0.2534479 0.13781622
000090 65 02 0d be fb 3e 34 bd 2d b4 c0 ba 4b 31 32 3d
       -0.13770445 -0.044005375 -0.0014702134 0.04350404
0000a0 f8 74 53 bc d0 7e 14 bd e8 06 15 be d3 f9 1d 3d
       -0.0129063055 -0.03625375 -0.14553416 0.03856833
0000b0 5a 3f 82 3d 25 87 82 3d 1d b5 b0 bc 40 15 37 3d
       0.063597396 0.06373433 -0.021570737 0.044698
0000c0 8c 18 16 3e 31 f4 76 bc 87 2f cf bd 9a d8 95 3c
       0.14657801 -0.015072868 -0.10116487 0.01829176
0000d0 ce 4e 85 bd f0 42 64 3d 07 44 20 3d b9 55 09 be
       -0.065091714 0.0557279 0.039127376 -0.13411607
0000e0 30 92 59 be b0 0e dc 3c c3 42 9e bd 8a fc ab 3d
       -0.21247172 0.026862472 -0.077275775 0.083977774
0000f0 35 fb 78 bd 1d 24 41 bd 48 44 18 bd 2c 22 f6 bd
       -0.060786445 -0.04715358 -0.037174493 -0.120182365
000100 c5 2d 83 3c e9 5e aa 3d 8f bd 6c 3d 77 c5 75 bd
       0.016013036 0.08318884 0.057797965 -0.06000277
000110 52 35 59 3d cb fd 65 bd c6 be 47 3d 56 19 26 bc
       0.053029366 -0.05615024 0.04876592 -0.0101378765
000120 b4 7f a3 bc 8a 20 d2 3d 6d 7d 4f 3b 2b 5a c0 bd
       -0.019958355 0.102601126 0.0031660453 -0.09392198
000130 1f 47 da bb 03 35 64 3d ef a2 08 3e 91 a0 2d be
       -0.0066613103 0.05571462 0.13343404 -0.16955782
000140 41 43 1e be ae 15 08 3e 0c ac e7 bd d3 27 5f bd
       -0.15455343 0.1328952 -0.11312112 -0.05448134
000150 c9 15 9d 3d 0f 56 42 bc 89 c4 4c be b9 b3 87 bc
       0.07670171 -0.011861338 -0.19996847 -0.01656519
000160 95 18 47 be df 36 23 3d df 4a 0d 3e f3 bb c8 3d
       -0.19442971 0.03984725 0.13798092 0.098014735
000170 84 d2 c1 3c 76 37 0b bd 0d 0d d6 bd f8 44 77 bd
       0.023659952 -0.03398844 -0.10451708 -0.060368508
000180 99 29 6f 3d d4 4c bf 3b 20 80 41 3c a8 3f 48 bc
       0.05838928 0.005838016 0.011810333 -0.012222208
000190 7b bf f7 3c a8 dc 17 3d e5 78 ea 3d 5f 21 29 bd
       0.030242672 0.03707567 0.1144884 -0.04129159
0001a0 e9 80 43 bd a7 c8 1d 3b 05 6e 8c 3d 47 77 88 bd
       -0.04773036 0.0024075897 0.06856922 -0.06663375
0001b0 84 2f 7a bd 71 3b 38 3d d9 e2 22 3e df d5 73 bd
       -0.06108047 0.044978563 0.15906848 -0.059530135
0001c0 ed 11 35 3d f1 5f 9d bb 28 07 25 bc 6a 32 77 3b
       0.04420655 -0.004802697 -0.010072507 0.0037719258
0001d0 20 d7 2f 3e 1c 8a 4f 3c f6 ce 70 3d 09 82 02 bd
       0.17171907 0.012667205 0.058791123 -0.031862292
0001e0 91 60 a6 bc 89 2e 0c 3c d2 09 97 3b 38 bf 35 be
       -0.020309718 0.008556017 0.004609325 -0.17748725
0001f0 73 de 9f bc ba d0 9d 3d 23 5d 31 3d 8a 3e 0b bd
       -0.019515252 0.07705827 0.043301713 -0.03399519
000200 cf 46 73 3d a0 c3 2c bd aa 2b cb 3d ea 6c c8 bc
       0.0593937 -0.04217875 0.09920438 -0.024465997
000210 0f 12 39 bc 15 5d 0a 3e f6 5c 49 bc 9b 77 d6 bd
       -0.011295809 0.1351207 -0.01229023 -0.10472032
000220 1a 9a c5 bc db 22 69 3d 86 b6 d3 3d ce 44 33 be
       -0.024121333 0.056918006 0.10337548 -0.17506716
000230 3c bd 11 be fb e3 7b 3d 1a 74 91 bd 5c 45 4e bd
       -0.14232343 0.061496716 -0.07102223 -0.050359115
000240 38 bb 23 3c d4 f2 97 bc 1a f4 4e be 18 f4 49 3c
       0.009993367 -0.018548407 -0.20210305 0.012326263
000250 61 46 49 be 0a d5 d0 3d c3 91 05 3e 5c 0a 9c 3d
       -0.19655754 0.10196884 0.13043885 0.076191634
000260 bc 69 c1 3d 95 61 32 be 45 e6 62 be b4 cf 9d bd
       0.09443995 -0.17420037 -0.22158153 -0.07705632
000270 8c b0 15 3e 3c b8 7d 3c 0b cc e8 3c ee c2 82 bd
       0.14618129 0.015485819 0.028417608 -0.06384836
000280 c7 05 3d 3d 40 a7 b7 3c 53 8c e7 3d e0 7b f2 3c
       0.046148088 0.022418618 0.113060616 0.029600084
000290 3e 06 60 bd ee 87 e1 bd 07 3e 9f 3b dc ac b4 bb
       -0.054693453 -0.11012255 0.004859689 -0.0055137705
0002a0 e6 c2 85 bd 43 87 9f bd 4c 7c cf 3a 66 41 25 3d
       -0.065313146 -0.07789471 0.001582989 0.040345572
0002b0 04 72 fa 3b 20 59 9e bd 56 57 48 bc f8 21 ed 3d
       0.0076429863 -0.07731843 -0.012227854 0.11578745
0002c0 f5 38 9c 3d e4 8e e8 bc 8d e4 15 bd 58 51 20 bd
       0.07628051 -0.028388448 -0.036594916 -0.039140075
0002d0 c2 70 62 bd cb aa 9b bd 3e a5 b0 3b 24 f3 03 be
       -0.055283315 -0.076009355 0.005390792 -0.1288572
0002e0 1d fd 89 bd b0 3c e8 3c 51 c4 ec 3d 6b 54 25 bd
       -0.06737731 0.02834925 0.11560882 -0.04036371
0002f0 24 54 15 3d 6c d2 a4 bd 73 77 28 3b d4 5e 41 bb
       0.036457196 -0.08047947 0.0025705963 -0.0029505985
000300 c4 fe f2 bb 5a 05 9e 3d fc ed 69 3b 5a fc 02 be
       -0.0074156243 0.077158645 0.0035694828 -0.12791577
000310 fa a9 0d bd 07 54 90 3d 1c 85 a6 3d 6a 4f 33 be
       -0.03458593 0.07047277 0.08130857 -0.17510763
000320 a4 2e 4c be d2 df 47 3e 19 66 ea bd 63 b5 b4 bd
       -0.19939667 0.19518974 -0.11445255 -0.08823659
000330 3b 0e af 3d c8 2f b5 3d 1c d9 22 be 31 c1 72 bd
       0.08547636 0.08847004 -0.15903133 -0.059266273
000340 e1 b0 27 be 5a 95 1d bd e7 8f b9 bc 23 60 41 3d
       -0.16376068 -0.03847251 -0.022651626 0.047210824
000350 60 76 4e bd 8c d0 a0 bd cb 2a f5 3d 1e 81 fa 3d
       -0.05040586 -0.07852277 0.11971053 0.122316584
000360 43 93 a8 bd 70 dc 0c bd 7e cb 4f 3d f9 bd d9 3c
       -0.08231213 -0.034389913 0.050731175 0.026579844
000370 0c 36 fe 3d 38 ea 05 bd 4b f0 28 bd af 40 e9 3d
       0.124126524 -0.03269407 -0.041244786 0.113892905
000380 25 b2 af bb 32 f2 e6 ba 23 68 55 3c 61 70 67 3c
       -0.0053618127 -0.0017619787 0.013025316 0.014125914
000390 9d 6e f9 3d b7 e3 9c bd ac 8d 84 bc a3 dc a3 bd
       0.12179301 -0.07660621 -0.016180836 -0.080010675
0003a0 e0 6f ad bc 33 ad ff 3c 4b f6 f7 bc 16 b5 20 be
       -0.02117151 0.031210518 -0.030268809 -0.15694079
0003b0 47 bc 35 be 66 67 9b 3d bd 8f 10 be 6a cf 3c 3e
       -0.17747603 0.07588081 -0.14117332 0.18438497
0003c0 81 d5 c8 3d 23 01 e5 3d 93 c6 69 bd 0e a0 a8 bd
       0.09806348 0.111818574 -0.05707414 -0.08233653
0003d0 2d 3e 8f 3c 94 ef 71 3d d5 4a 1b 3c 9a ed 60 bd
       0.017485702 0.05906637 0.009478291 -0.054914095
0003e0 92 50 83 3d 69 c7 3e bc 77 b6 f2 3d 9e 5d a4 3c
       0.06411852 -0.011644223 0.11851209 0.020064171
0003f0 48 da b0 3d a2 93 39 3d e7 04 43 bd b5 56 8b bb
       0.08635384 0.04530681 -0.047612097 -0.0042522796

model.classifier.0.bias f4 [30]
000000 a2 92 83 b4 a8 8d 04 36 f3 a6 ab b5 8a 9a ee b5
       -2.450734e-07 1.9751988e-06 -1.2789081e-06 -1.7777359e-06
000010 c6 dd 55 b4 55 5e 07 b4 52 6b 9b b4 54 68 77 b2
       -1.9917852e-07 -1.2607173e-07 -2.8949086e-07 -1.4401014e-08
000020 6f 56 c8 b4 1c 80 15 34 9b 39 cf 34 7a b9 80 34
       -3.7315792e-07 1.3923312e-07 3.8598668e-07 2.397681e-07
000030 4e df 01 34 19 b3 8b b4 04 e0 e8 b4 63 89 01 35
       1.2095299e-07 -2.6021078e-07 -4.337636e-07 4.825617e-07
000040 77 cd 91 34 64 d3 2d 34 3e e4 28 b4 13 b1 d2 33
       2.715785e-07 1.6188784e-07 -1.5729253e-07 9.811097e-08
000050 a9 5a 4f 36 e1 8a b5 34 fd fe 93 33 17 f6 4f b3
       3.0898175e-06 3.3814925e-07 6.891603e-08 -4.841976e-08
000060 84 6a 85 34 cc 18 40 b4 2b 5c 02 35 21 b6 2d 36
       2.485068e-07 -1.7890414e-07 4.8562896e-07 2.5885022e-06
000070 9e 7b 29 b5 21 ce db 35
       -6.313729e-07 1.6376763e-06

model.classifier.1.weight f4 [5, 30]
000000 00 c6 22 be eb 23 65 3e 89 f5 6d be d7 a5 b5 3c
       -0.15895844 0.22376983 -0.23238195 0.022173805
000010 03 da 8d be 89 5e ac be 1d a0 ba be b8 38 6d 3d
       -0.27705392 -0.33665875 -0.36450282 0.05791542
000020 7f 1f b6 3d 20 fd 7a 3e b6 6a 09 be 1b 73 a4 3e
       0.08892726 0.24510622 -0.13419613 0.32119069
000030 3a 42 16 3e 71 0d b3 3d c8 4b 86 3e 97 e8 9f be
       0.14673701 0.08742798 0.26229692 -0.3123214
000040 2a 29 ad 3d 00 a6 80 3c 40 7e 95 be f8 8b 9d 3d
       0.08455117 0.015704155 -0.29197884 0.076927125
000050 56 76 83 3e 93 da b2 3d e3 54 36 3d 6a ed a9 3e
       0.2567622 0.08733096 0.044514548 0.33188945
000060 0a d9 97 3e 78 f9 4d 3d a1 4e 9b 3e 81 a2 27 3e
       0.29657775 0.05028674 0.30333427 0.16370584
000070 42 15 7e be 20 a5 8b 3e ba c5 8e 3e 30 46 eb 3e
       -0.24812797 0.27274418 0.27885228 0.45951986
000080 09 d8 a1 3e ec 7f b2 be a0 5c a1 3e 73 e7 63 be
       0.31610134 -0.34863222 0.3151598 -0.2225626
000090 84 29 67 3e c5 6b a8 3e 1a 2c 70 bd e6 5a 8d 3e
       0.2257443 0.32894722 -0.05863581 0.27608413
0000a0 ea 9a bb 3d 48 27 fe bd fb b3 b8 3e 8e d8 c4 be
       0.09160407 -0.12409836 0.36074814 -0.38446468
0000b0 e0 46 7d be c1 c5 b9 3e 7f 5f 39 be 0a 4f c6 3e
       -0.24734068 0.36283687 -0.18102835 0.38732177
0000c0 bd 2b 33 3e 33 84 8b be ca 47 7b 3e 08 2c 86 3e
       0.17497154 -0.27249297 0.24539104 0.26205468
0000d0 b0 35 c2 3e f5 90 82 3d 3b 4f 39 bd 8e b7 8b bd
       0.37931585 0.063753046 -0.045241576 -0.0682212
0000e0 37 7d 93 bd 34 3c 54 3e db 42 a8 bd b1 26 c5 3e
       -0.07201617 0.2072609 -0.08215877 0.38506082
0000f0 91 a6 0a 3e 1e 19 9c bd 58 5d 0f 3e 73 86 ac bc
       0.13540103 -0.07621978 0.14000452 -0.021060204
000100 46 be 16 3d 36 4a f6 3d 3b a0 84 3e 71 c4 48 be
       0.036802553 0.12025873 0.25903496 -0.19606186
000110 68 b0 db bd 9a 35 b5 bc e0 97 8a 3d 4c 57 52 be
       -0.10727006 -0.022120286 0.06767249 -0.20541114
000120 ef 65 fd bd d5 da ff 3c 16 17 87 3d 7a f9 31 3e
       -0.12372958 0.031232277 0.065962 0.17380324
000130 01 59 0a be 3a 16 48 be f3 ea 2b 3d 39 25 8e 3d
       -0.13510515 -0.19539729 0.041972112 0.069406934
000140 43 38 1d 3d 75 0f 43 be 7d 93 00 be 97 78 3e be
       0.038383733 -0.19048865 -0.12556262 -0.18600689
000150 9c d1 38 be 65 4b 64 bd 2d 2a d8 3d b1 40 cc 3c
       -0.1804871 -0.055735964 0.105549194 0.024933191
000160 d0 9d 94 3e 71 5d 54 be d3 a1 9d 3d a1 37 21 be
       0.2902665 -0.2073877 0.07696881 -0.15743877
000170 a6 a3 9d 3d fc dc 18 3e b7 63 41 3e bc 74 47 3e
       0.07697229 0.14928049 0.18885694 0.19478124
000180 df 2d 06 bb ca 2c 58 3e be 83 98 3e 68 ec a8 be
       -0.0020474119 0.21110836 0.2978801 -0.32992864
000190 72 72 95 be 90 27 6e 3e 63 b2 d8 bd f9 9d 8a 3e
       -0.29188877 0.2325728 -0.105808996 0.2707365
0001a0 7f d3 3e 3e f4 39 56 be 4e ca df bd dc bc 11 3e
       0.18635367 -0.20920545 -0.109272584 0.142322
0001b0 e8 84 78 3e a4 f5 6b be 72 76 cd bd b9 03 5b be
       0.2426945 -0.23042923 -0.10032357 -0.21388139
0001c0 2e 7e d8 3c ef c0 3f 3e 54 33 6d 3e e7 a8 7c 3e
       0.026427355 0.18725942 0.23164111 0.24673806
0001d0 d3 30 43 be 61 46 7a be 44 e6 ca 3d 24 87 38 3c
       -0.19061594 -0.2444091 0.09907201 0.011262689
0001e0 97 5c a1 be 79 2e 53 be 2f 91 8d be c0 3d 79 3d
       -0.31515953 -0.20623197 -0.2764983 0.060849905
0001f0 c9 9a 45 be ca 2f 78 3d a8 ca 49 be 25 eb 38 be
       -0.19297327 0.06059245 -0.19706213 -0.1805845
000200 58 8c 46 be a3 d9 0c bc 71 e9 89 3e 37 9e 1a be
       -0.19389474 -0.0085968105 0.26935914 -0.15099417
000210 c9 6c 69 bd 4f 1d 39 be 54 4a c5 be 20 bb 8b 3c
       -0.05698851 -0.18077587 -0.3853327 0.017057002
000220 c7 db b6 3e 55 49 d5 bd fc a9 21 be 93 9d 6b 3e
       0.35714552 -0.104143776 -0.157875 0.23009329
000230 c4 60 ab be 69 19 8b 3e 80 aa d7 bd 8d 4d 85 be
       -0.33472264 0.27167824 -0.10530567 -0.2603573
000240 d0 f7 5b be d4 de 33 be 81 4b 4e be 22 86 4f bd
       -0.21481252 -0.17565471 -0.2014599 -0.05066503
000250 56 6a 88 be 0e a8 3a be
       -0.26643628 -0.1822817

model.classifier.1.bias f4 [5]
000000 37 39 15 35 e3 63 57 36 f8 b4 03 b5 4e 64 fd b4
       5.5590084e-07 3.2095638e-06 -4.9064647e-07 -4.7197904e-07
000010 c3 de 92 b4
       -2.73567e-07

exp_avg f4 [30, 30]
000000 8e a0 21 35 d2 9a 60 b5 31 4f 25 b5 9a 87 eb 36
       6.021081e-07 -8.3671796e-07 -6.158253e-07 7.019332e-06
000010 9d 75 54 b6 03 36 ae b6 e6 29 ae b6 b8 e9 59 b5
       -3.1658922e-06 -5.191892e-06 -5.1904817e-06 -8.1178905e-07
000020 a9 0e 32 b6 2b 5f e8 36 69 97 4c 36 06 27 42 b6
       -2.65326e-06 6.925218e-06 3.0486501e-06 -2.8930967e-06
000030 d0 7c 68 b6 bb 26 17 b7 ec 26 17 b3 12 19 d6 36
       -3.4643344e-06 -9.009319e-06 -3.5192826e-08 6.3806156e-06
000040 90 c4 0c b7 ab 28 8a 36 4f c6 db b6 4e 55 4c 37
       -8.390416e-06 4.117455e-06 -6.5497948e-06 1.2179209e-05
000050 88 ec a8 b4 0c c3 6d b7 15 0b 37 37 28 8f 2c b4
       -3.1464538e-07 -1.4171714e-05 1.091023e-05 -1.6070828e-07
000060 aa 03 5f b7 4e 74 d2 34 88 58 99 36 c6 3e 86 34
       -1.3292689e-05 3.920017e-07 4.5700617e-06 2.500512e-07
000070 7a d2 53 37 d6 aa d1 36 ad b8 0e 36 b1 cb 41 35
       1.2625585e-05 6.2485733e-06 2.1267144e-06 7.219451e-07
000080 a0 b8 cb 36 b1 de cf b6 97 e4 59 b7 bc 85 07 b7
       6.0713646e-06 -6.1950054e-06 -1.2987431e-05 -8.0777645e-06
000090 7e cb c7 36 00 fd 83 35 bb 40 68 b5 4c e6 69 35
       5.9543518e-06 9.833893e-07 -8.652093e-07 8.713439e-07
0000a0 2e 6f 14 36 54 72 2b b6 e1 4a 1f b5 30 ec a1 34
       2.2118434e-06 -2.5547533e-06 -5.934108e-07 3.0160436e-07
0000b0 eb 7a 86 b6 96 8c c8 b6 36 54 2b b7 04 0d 90 36
       -4.0078207e-06 -5.976831e-06 -1.0212001e-05 4.2930496e-06
0000c0 92 d4 e0 b6 2b 15 2e b6 b9 af d0 b6 f4 c4 07 b6
       -6.7004667e-06 -2.5940342e-06 -6.21934e-06 -2.023121e-06
0000d0 8f 2a be 36 14 00 9a b6 2c 76 00 b7 2f c1 e6 36
       5.6673957e-06 -4.5895667e-06 -7.656909e-06 6.8770237e-06
0000e0 2c 02 39 b6 f3 58 56 34 e7 88 63 36 48 ed 9f 36
       -2.7568412e-06 1.9962663e-07 3.3905324e-06 4.7661924e-06
0000f0 4a 49 89 b4 46 9d fb b4 8c 5d 12 b6 10 09 26 37
       -2.5571563e-07 -4.6866825e-07 -2.1810147e-06 9.896481e-06
000100 49 bf 8c 34 38 66 88 b6 7b 35 d6 b6 4c b2 87 b5
       2.621621e-07 -4.0650157e-06 -6.383923e-06 -1.0110175e-06
000110 fb 36 39 b6 23 20 f0 36 f8 87 ae 35 6c 21 01 b6
       -2.759915e-06 7.1562986e-06 1.3003582e-06 -1.9241952e-06
000120 22 15 46 b6 73 c8 2a b7 37 f8 25 35 a5 62 12 37
       -2.95166e-06 -1.017946e-05 6.182849e-07 8.725246e-06
000130 3e 61 cb b6 c1 5d 35 36 ed 23 c1 b6 d8 76 77 37
       -6.061192e-06 2.7025674e-06 -5.7560305e-06 1.4750018e-05
000140 e2 99 3a 36 1b 3d 70 b7 60 c1 2d 37 97 74 96 35
       2.7805731e-06 -1.4319342e-05 1.0356627e-05 1.1209803e-06
000150 06 d3 3b b7 4a ef f8 b5 a7 cc f1 36 9c 4d ff 33
       -1.1195201e-05 -1.8547082e-06 7.2061844e-06 1.188848e-07
000160 bb 71 5b 37 d4 14 93 36 ef 6a a6 35 43 5b 6a b5
       1.3079897e-05 4.383366e-06 1.2399086e-06 -8.7304596e-07
000170 1e fa 35 b5 54 1e 75 b6 e6 f4 09 33 0c 15 31 36
       -6.779172e-07 -3.6525498e-06 3.2120532e-08 2.6387306e-06
000180 df d7 5c b5 2e 20 1f b5 af ee f1 35 3b 8e bb b5
       -8.227052e-07 -5.9278943e-07 1.8025365e-06 -1.397398e-06
000190 ba 6d 75 36 b1 8a a4 b5 bf dd a1 b4 30 b5 5b 36
       3.6571714e-06 -1.2259317e-06 -3.0149928e-07 3.2739008e-06
0001a0 3d df de 34 80 20 08 b6 9c 93 09 36 3f 94 aa b4
       4.151315e-07 -2.0284497e-06 2.050051e-06 -3.177283e-07
0001b0 a5 eb 4c 36 00 f1 ad b6 6c ad 16 b6 eb 4d e2 35
       3.0535532e-06 -5.183858e-06 -2.2452687e-06 1.6860989e-06
0001c0 80 ac 65 b6 ef 35 e7 33 39 bb 3b 35 97 fc 27 35
       -3.4224067e-06 1.0766586e-07 6.9935373e-07 6.2579915e-07
0001d0 fa 9a 8c b6 67 22 67 35 11 e5 38 b6 c1 16 96 35
       -4.190367e-06 8.610427e-07 -2.755147e-06 1.1182493e-06
0001e0 4a 53 78 35 17 db 49 35 ba 36 88 b6 72 e9 1b 37
       9.25084e-07 7.519715e-07 -4.059487e-06 9.293073e-06
0001f0 3e 53 09 36 d1 67 3c b6 87 75 e1 b6 6c 86 23 b6
       2.0463044e-06 -2.8074612e-06 -6.7192045e-06 -2.4367137e-06
000200 3b 78 1e b5 be af bd 36 ea 2f 16 36 7a a2 32 b6
       -5.9034545e-07 5.653098e-06 2.2379631e-06 -2.661864e-06
000210 b7 ac d8 b5 5b 76 12 b7 5b 7f d6 b3 69 49 12 37
       -1.6143521e-06 -8.729835e-06 -9.9883174e-08 8.71937e-06
000220 e1 72 0b b6 c3 66 48 b4 65 2f 6a b6 44 11 63 37
       -2.0779482e-06 -1.8663836e-07 -3.4896304e-06 1.3534274e-05
000230 fe 65 d5 36 98 ad 5f b7 1f 9b eb 36 91 e2 01 36
       6.359768e-06 -1.3332254e-05 7.0216042e-06 1.9354377e-06
000240 f4 20 01 b7 48 82 51 b6 04 f6 06 37 fe 86 3a 35
       -7.696672e-06 -3.121926e-06 8.044302e-06 6.948684e-07
000250 72 07 57 37 b0 5b 37 36 1b db 03 b6 b3 0f 08 b5
       1.2816732e-05 2.7322494e-06 -1.9648057e-06 -5.0686793e-07
000260 ee 5f eb b6 9f 3d 39 37 5d 79 50 37 00 74 b8 36
       -7.0147134e-06 1.1041207e-05 1.2426023e-05 5.4971315e-06
000270 b6 b7 12 b7 6b 90 dc b5 9e 4f b6 b4 bc af 34 36
       -8.745052e-06 -1.6433308e-06 -3.395807e-07 2.692438e-06
000280 17 da c5 b5 eb 7d d0 35 89 23 20 b5 cc 89 b7 b6
       -1.4741116e-06 1.5533855e-06 -5.9656355e-07 -5.4698667e-06
000290 bb bc 80 36 ad 1e 29 37 cb a4 ea 36 1f b2 5a b6
       3.8366684e-06 1.0080327e-05 6.992928e-06 -3.2588212e-06
0002a0 bf 0c 6d 36 35 d7 2c 37 c2 aa 0c 37 57 85 b7 b6
       3.5323171e-06 1.0302106e-05 8.384408e-06 -5.469348e-06
0002b0 6c 58 9a b4 ef 68 a7 36 fc 83 02 36 75 aa fc b6
       -2.874907e-07 4.9892037e-06 1.9448335e-06 -7.530029e-06
0002c0 5e b8 f0 36 4d c9 0f b4 d9 6d 78 36 0e 8c 33 b6
       7.1740205e-06 -1.3391146e-07 3.701882e-06 -2.67546e-06
0002d0 5a ac 6a b6 51 29 79 b5 8e ce a3 b6 ed cd 8c 37
       -3.496904e-06 -9.281985e-07 -4.8818247e-06 1.6785192e-05
0002e0 47 99 10 37 b2 f5 b7 b4 d3 3c 1b b7 0f 32 f8 b3
       8.6187565e-06 -3.4265173e-07 -9.252882e-06 -1.15575055e-07
0002f0 db 1b 98 b6 ac 3a 05 37 4b b2 6f b6 b4 11 dc 35
       -4.533196e-06 7.941078e-06 -3.5717555e-06 1.639643e-06
000300 e0 0e 37 b6 76 15 58 b7 45 61 70 36 ba be 67 37
       -2.7277783e-06 -1.28796e-05 3.5819405e-06 1.381308e-05
000310 47 69 08 b6 48 d3 b1 35 d7 24 82 b6 f0 b3 a7 37
       -2.0326859e-06 1.3249019e-06 -3.8785906e-06 1.9991741e-05
000320 ec c4 e0 36 4f dd 63 b7 92 3b 27 37 24 06 84 36
       6.698645e-06 -1.3581782e-05 9.9678455e-06 3.9346214e-06
000330 5b 9f fa b6 54 7f dc b6 c6 04 40 37 51 e6 37 b5
       -7.469132e-06 -6.571334e-06 1.1445203e-05 -6.8507967e-07
000340 e3 c8 44 37 f0 07 0a 35 44 ad c1 36 95 4b c7 35
       1.1729283e-05 5.1420557e-07 5.772019e-06 1.4848653e-06
000350 34 5d f0 35 08 3f c7 b6 95 fa 37 b7 93 03 e2 b6
       1.7908519e-06 -5.938e-06 -1.0965993e-05 -6.735741e-06
000360 ed a3 bc 35 69 ee 2f b6 80 6f 3f 36 55 3d 97 35
       1.40548e-06 -2.6215805e-06 2.852612e-06 1.1268227e-06
000370 ce b1 03 37 70 36 d8 b6 8c b3 13 b5 1d 17 59 34
       7.849607e-06 -6.443639e-06 -5.502304e-07 2.0218108e-07
000380 1e 6c a8 b6 0d d6 7a b6 28 54 c1 b6 89 06 7a 35
       -5.0193767e-06 -3.7377497e-06 -5.7616453e-06 9.314177e-07
000390 c0 e4 83 b6 2e 2b d2 b5 04 5e a6 b5 68 ac de b6
       -3.9307342e-06 -1.5658786e-06 -1.2395326e-06 -6.6361863e-06
0003a0 c6 df 49 36 7c 73 44 b6 88 98 ff b6 40 e0 b1 36
       3.0081587e-06 -2.9273497e-06 -7.617349e-06 5.301117e-06
0003b0 b0 b9 f0 b5 92 83 d3 35 a5 62 02 37 8b e3 c1 36
       -1.7935436e-06 1.5759017e-06 7.771571e-06 5.7783377e-06
0003c0 86 85 bc 36 e5 11 08 b5 5d a4 04 36 a2 88 07 b7
       5.618381e-06 -5.068999e-07 1.9765205e-06 -8.078439e-06
0003d0 06 0f 47 b7 28 74 9d b6 40 5a b0 b3 df 99 22 b6
       -1.1864822e-05 -4.692487e-06 -8.212055e-08 -2.4229446e-06
0003e0 e9 68 43 36 e8 46 70 35 fe 7d 38 37 1c 5a f4 b6
       2.911833e-06 8.951015e-07 1.09965895e-05 -7.282257e-06
0003f0 6f f5 0e b6 cb fd de 35 e2 6b 6a b6 d3 a5 ae b6
       -2.130251e-06 1.6614152e-06 -3.4931513e-06 -5.2049086e-06

exp_avg_sq f4 [30, 30]
000000 3c e8 ba 2f e0 5f bf 2f 60 fb 19 30 77 74 06 30
       3.3998215e-10 3.481082e-10 5.60183e-10 4.891442e-10
000010 29 b0 25 30 cf 1c 15 30 1f b8 1e 30 69 54 20 30
       6.027699e-10 5.4246824e-10 5.7741717e-10 5.8327615e-10
000020 bd 5d 94 2f db 43 9c 2f ad 61 be 2f 72 8a d3 2e
       2.6987648e-10 2.842445e-10 3.4630201e-10 9.619762e-11
000030 69 9c 35 2f a9 5a c9 2f 66 78 e4 2e b8 12 c1 2f
       1.6517422e-10 3.6626105e-10 1.0389627e-10 3.5119796e-10
000040 d8 87 c5 2f 7f b9 1f 2f e4 2a 8e 30 20 d8 67 30
       3.5930614e-10 1.4526867e-10 1.034405e-09 8.434444e-10
000050 40 b7 2f 30 a7 91 cf 30 97 46 87 30 b4 d0 7f 2f
       6.3925043e-10 1.5102629e-09 9.842606e-10 2.3266261e-10
000060 74 7a a0 30 21 74 19 30 37 c4 86 30 03 13 a3 2f
       1.1676335e-09 5.5826105e-10 9.805551e-10 2.9663036e-10
000070 8c 43 c0 30 33 0e 33 30 53 d0 90 30 03 ad 54 30
       1.3989037e-09 6.514e-10 1.0536588e-09 7.7371015e-10
000080 bd a2 57 30 62 0d 3d 30 7d ba 00 31 13 9b 67 30
       7.844781e-10 6.877682e-10 1.8732458e-09 8.4257684e-10
000090 b2 67 58 30 e0 fe f2 2f ef a5 8f 2f 19 aa 53 2f
       7.87277e-10 4.4200643e-10 2.612945e-10 1.9250769e-10
0000a0 57 97 cc 2f 58 21 63 2f ed 42 72 30 c4 72 83 2f
       3.7214917e-10 2.0657376e-10 8.8134194e-10 2.3910307e-10
0000b0 f5 cc 89 2f ba 20 99 2f c6 7a cd 2f 6a 6b a2 2f
       2.5065786e-10 2.7853791e-10 3.7376519e-10 2.954395e-10
0000c0 68 e8 99 30 7a 90 8f 2f 6b 9b 8f 30 67 20 2f 30
       1.1198269e-09 2.6114205e-10 1.0448792e-09 6.3710676e-10
0000d0 7e aa dd 2f 13 22 83 2f ce 45 0a 30 09 6f 8c 30
       4.0320808e-10 2.3852972e-10 5.0303306e-10 1.0217899e-09
0000e0 27 c2 00 31 36 03 91 2f 14 fb 35 30 c6 8a 6b 30
       1.8736814e-09 2.6377628e-10 6.620422e-10 8.568971e-10
0000f0 08 9c f1 2f 36 13 d7 2f 9f 0d 0d 30 10 df 31 30
       4.3948511e-10 3.9121922e-10 5.131486e-10 6.4709216e-10
000100 14 2c 31 30 82 b3 10 30 62 17 2f 30 6d 72 16 30
       6.4454864e-10 5.264199e-10 6.369786e-10 5.473229e-10
000110 d4 ab 98 2f f8 d6 9a 2f 08 e0 d0 2f 40 c5 e5 2e
       2.777073e-10 2.816518e-10 3.7994163e-10 1.0448753e-10
000120 48 13 4c 2f 3f ec e9 2f 18 ef 13 2f d0 aa fd 2f
       1.8560542e-10 4.2550316e-10 1.3454515e-10 4.6141801e-10
000130 b7 e0 a3 2f 6d dd 5e 2f c5 03 77 30 01 49 82 30
       2.9809197e-10 2.0269449e-10 8.9863433e-10 9.479494e-10
000140 0e 22 85 30 2f 56 d4 30 f8 65 7b 30 72 f1 97 2f
       9.686703e-10 1.5449525e-09 9.1458174e-10 2.7638297e-10
000150 a1 de 86 30 fa 9c 31 30 44 f0 a2 30 cf 10 b3 2f
       9.813058e-10 6.46153e-10 1.1855339e-09 3.2571854e-10
000160 d1 f7 be 30 6b c3 46 30 37 cb 4a 30 e8 e8 08 30
       1.3894753e-09 7.2309686e-10 7.377596e-10 4.980749e-10
000170 4d 2c 2c 2f 17 45 b2 2f ec 19 08 30 72 79 4e 2f
       1.5659048e-10 3.2427103e-10 4.951335e-10 1.8778737e-10
000180 e0 a8 58 2f 8f 8c b5 2e 16 77 0e 2f 24 d8 56 2e
       1.9705082e-10 8.255895e-11 1.2957133e-10 4.8849938e-11
000190 5a 7e 86 2f 6e 0f f4 2e 48 ff 17 30 f6 18 fc 2e
       2.4464236e-10 1.1098576e-10 5.5296256e-10 1.1464067e-10
0001a0 b1 1c 29 2f 36 af cf 2e 07 41 a5 2f 2d 3e 70 2f
       1.5380654e-10 9.444394e-11 3.005953e-10 2.1849962e-10
0001b0 69 3e 6e 2f a8 24 22 2f 6d 19 95 30 6e 40 96 2f
       2.1668146e-10 1.4746837e-10 1.0848403e-09 2.733062e-10
0001c0 27 0c 25 2f 55 d2 92 2e b5 12 f3 2e 44 5b 55 2f
       1.501098e-10 6.676674e-11 1.1053684e-10 1.9404661e-10
0001d0 69 84 86 30 8b 89 bb 2e 91 55 85 2f e5 91 57 2f
       9.787416e-10 8.528208e-11 2.4253358e-10 1.9605968e-10
0001e0 fc 1b c7 2f 9d 2a a0 2f 22 cf b5 2f e1 14 a3 30
       3.6217773e-10 2.913411e-10 3.3070885e-10 1.1865745e-09
0001f0 2a 0e ee 2f 88 48 e9 2f 71 5e b3 2f 1f ba b7 2f
       4.3302012e-10 4.243399e-10 3.2627015e-10 3.3419753e-10
000200 65 48 83 2f 3d 74 0c 2f 99 09 16 30 8d 5d d0 2e
       2.38802e-10 1.2774222e-10 5.458332e-10 9.475363e-11
000210 9d 24 57 2f 89 7e 1c 30 84 95 0d 2f b3 3d ed 2f
       1.9567144e-10 5.6932287e-10 1.2876994e-10 4.315389e-10
000220 5d 03 85 2f 10 32 7b 2f b6 fd 22 30 f3 0d 79 30
       2.419495e-10 2.2846103e-10 5.92958e-10 9.0605495e-10
000230 cc a5 6b 30 63 b5 f7 2f 28 2f cf 2f 8a fb 46 2f
       8.5728113e-10 4.505792e-10 3.7686587e-10 1.809736e-10
000240 77 1a a8 2f 0a e0 15 30 5f 74 ad 30 06 80 59 2f
       3.0577826e-10 5.4524263e-10 1.2620481e-09 1.9781518e-10
000250 89 55 b7 30 6c a1 44 30 fd ae 24 30 ce 9b 3e 30
       1.3339313e-09 7.153378e-10 5.9911526e-10 6.934301e-10
000260 f0 de 29 30 3c 65 8f 30 7c cc c3 30 6b 67 09 30
       6.1798655e-10 1.0433392e-09 1.4246235e-09 4.9987275e-10
000270 9b 37 85 30 cb 11 dd 2f e7 6b 5e 2f 7c 76 86 2f
       9.692828e-10 4.0212308e-10 2.0229117e-10 2.4458646e-10
000280 ba a3 bb 2f 9a 96 f9 2e 39 63 21 30 7e ba 89 2f
       3.4131437e-10 1.1349961e-10 5.871246e-10 2.5052665e-10
000290 b1 a3 55 2f 75 14 fc 2f 61 e1 5a 2f 57 a3 48 2f
       1.9430392e-10 4.5853069e-10 1.9907055e-10 1.8247924e-10
0002a0 5e 34 14 30 1e f1 92 2f a3 1a 1d 30 95 9c 6c 30
       5.3916505e-10 2.672857e-10 5.715412e-10 8.6078816e-10
0002b0 e1 6b 73 2f 62 46 a9 2f 6d 90 db 2f f8 a9 a3 30
       2.2139048e-10 3.079093e-10 3.993849e-10 1.1908119e-09
0002c0 9d fc 08 30 a9 b5 ce 2f ec f8 ac 2f 4a c9 8d 30
       4.9835497e-10 3.760026e-10 3.1463487e-10 1.031631e-09
0002d0 ff c3 21 30 98 9c 78 30 62 d9 4c 30 78 a6 45 30
       5.8849986e-10 9.044441e-10 7.4523687e-10 7.190475e-10
0002e0 aa 27 a0 30 72 11 1a 30 5a 08 e0 30 ca bb 5e 30
       1.1652805e-09 5.6049665e-10 1.6300519e-09 8.1029994e-10
0002f0 16 16 cf 2f a4 73 21 30 b2 61 3c 30 7c 2d 0c 2f
       3.7668774e-10 5.8735794e-10 6.8532835e-10 1.2749085e-10
000300 31 d8 79 2f 50 46 15 30 85 65 6e 2f ac ea 6b 30
       2.2723225e-10 5.4305804e-10 2.1682041e-10 8.582599e-10
000310 89 66 8a 2f fa 66 88 2f 01 14 3a 30 27 49 87 30
       2.517491e-10 2.4811425e-10 6.7694833e-10 9.843334e-10
000320 5b 8d d1 30 8e 2f 7a 31 45 7f ab 30 25 9b 27 30
       1.5246927e-09 3.640682e-09 1.247806e-09 6.097472e-10
000330 aa 79 e0 30 27 e5 e4 30 75 ca 4b 30 d6 40 60 30
       1.6332724e-09 1.6654312e-09 7.413868e-10 8.158286e-10
000340 91 2c 87 30 1d b3 09 31 19 03 a1 2f f7 f5 28 30
       9.835209e-10 2.0037938e-09 2.928793e-10 6.146758e-10
000350 85 3e ea 2f d2 62 3f 30 10 df 72 30 76 19 3e 30
       4.2608775e-10 6.962583e-10 8.835608e-10 6.915778e-10
000360 6c 3f 67 30 97 91 ed 2f 3d 53 bf 2f df 35 95 2f
       8.412744e-10 4.3213497e-10 3.4801842e-10 2.714122e-10
000370 6d eb ab 30 c9 72 13 2f cd 15 98 2f 0f db 4b 30
       1.25088e-09 1.3410352e-10 2.766413e-10 7.416227e-10
000380 fb 15 08 2f 5d 2f 94 2f e0 b5 90 2f db da fe 2e
       1.2376937e-10 2.6954697e-10 2.6322677e-10 1.1589459e-10
000390 0a 27 3b 30 16 ce f3 2f 40 84 eb 2f 0e e7 d8 30
       6.808568e-10 4.4347875e-10 4.284022e-10 1.5781738e-09
0003a0 ed ba d4 2f 8d ee 8d 2f d2 22 58 30 19 ec b5 30
       3.8695394e-10 2.581725e-10 7.8629825e-10 1.3236586e-09
0003b0 4f 45 c9 30 8d 70 0a 30 95 3d 8c 30 07 12 20 31
       1.4644373e-09 5.036405e-10 1.0203843e-09 2.3293312e-09
0003c0 54 bc 48 30 8e 03 84 30 dd df 8e 2f 6b 97 87 30
       7.3027207e-10 9.605274e-10 2.5988714e-10 9.865578e-10
0003d0 8a 79 a8 2f 70 f9 8c 2f f3 f5 90 2f 23 af ad 2f
       3.064538e-10 2.5643088e-10 2.6368205e-10 3.159296e-10
0003e0 65 ee a8 2f 1f 28 e3 2e 7f c0 97 30 f7 de ab 2e
       3.0728411e-10 1.0329892e-10 1.1041407e-09 7.815786e-11
0003f0 8d 34 05 30 0c 8f c0 2f 8b 81 3d 2f f6 ce 2d 2f
       4.84598e-10 3.5026237e-10 1.7235473e-10 1.5807786e-10

exp_avg f4 [30]
000000 a1 e8 ca 2c 8f 35 37 ae 84 79 02 2e c4 35 ed 2d
       5.7670123e-12 -4.1656952e-11 2.9666505e-11 2.6967657e-11
000010 a9 dd e5 2d e8 63 36 2e 18 97 a2 2d 2a 8a 8f ad
       2.6132723e-11 4.1470744e-11 1.8484367e-11 -1.6318575e-11
000020 24 a3 6f 2d 7c 28 63 ae c1 d9 78 a9 94 36 7c ad
       1.3621802e-11 -5.164978e-11 -5.5255933e-14 -1.433666e-11
000030 cf e4 01 ae 8d 19 e3 2d d0 19 f3 ac 00 dc 34 2c
       -2.9534427e-11 2.5818259e-11 -6.909341e-12 2.5701663e-12
000040 65 3c 82 ad 6c dc d4 ad 81 4f 0b 2e 07 02 a9 ac
       -1.480611e-11 -2.4199497e-11 3.1675555e-11 -4.803494e-12
000050 c9 b4 1e ae 3b 3c 42 ae b1 22 eb ad cd a3 d4 ad
       -3.608561e-11 -4.416399e-11 -2.6731813e-11 -2.4174352e-11
000060 d9 cb 43 ad ef ed 6d 2d e4 e3 ee ad bd dc 4f ae
       -1.112973e-11 1.3524722e-11 -2.7158671e-11 -4.7262406e-11
000070 a4 33 54 2e 34 85 77 ae
       4.8249085e-11 -5.6279606e-11

exp_avg_sq f4 [30]
000000 70 d5 67 28 7f 54 80 24 51 fa b3 22 fa 01 be 23
       1.2869358e-14 5.565429e-17 4.878308e-18 2.0600678e-17
000010 a5 e9 1e 26 93 9c 7f 28 40 ad 9c 28 e4 ad 08 28
       5.513391e-16 1.4189295e-14 1.7394614e-14 7.587223e-15
000020 d6 43 98 27 fa 62 2d 28 85 8c d3 26 55 e1 a5 26
       4.2262023e-15 9.624891e-15 1.4679154e-15 1.1510251e-15
000030 4d 36 94 28 56 26 9c 28 c7 d4 b0 26 ca 58 13 27
       1.645485e-14 1.7336105e-14 1.2270127e-15 2.044848e-15
000040 e6 e4 ce 27 0c 89 b0 27 ec f3 44 26 58 88 01 28
       5.742466e-15 4.89984e-15 6.8331736e-16 7.190503e-15
000050 7a 90 ad 22 d1 c1 11 28 6e de 0f 28 b5 0a cf 27
       4.7044714e-18 8.091144e-15 7.986326e-15 5.746565e-15
000060 3f b9 b9 22 ba f6 47 28 85 ab 42 25 37 e3 c0 23
       5.0340487e-18 1.1100219e-14 1.6884931e-16 2.0912911e-17
000070 de 5f a8 27 35 de b5 25
       4.6733306e-15 3.1549068e-16

exp_avg f4 [5, 30]
000000 7f 20 ed 37 20 a5 a5 b7 1b fa 16 38 fb 36 a8 b6
       2.8267734e-05 -1.9746425e-05 3.5995716e-05 -5.0131907e-06
000010 3c b4 25 38 eb df 1d 38 81 2e 4c 38 e3 d2 4b 35
       3.9506922e-05 3.7640257e-05 4.86807e-05 7.5930274e-07
000020 f0 0d 48 b6 4d 3b f2 b7 cc 84 d2 36 44 de 04 b8
       -2.9810435e-06 -2.8876262e-05 6.2739473e-06 -3.1678253e-05
000030 cd 8b 77 b7 b1 e6 a9 b6 a6 4b a2 b7 55 e7 14 38
       -1.4754897e-05 -5.0634485e-06 -1.9347131e-05 3.5501394e-05
000040 e7 39 ac b7 af e0 5d 36 98 16 27 38 4f c6 95 b7
       -2.053096e-05 3.306235e-06 3.9836945e-05 -1.7854529e-05
000050 c4 70 a9 b7 ce 0f 97 b7 5a 16 00 b5 fa 64 f7 b7
       -2.019888e-05 -1.8007962e-05 -4.771624e-07 -2.9491715e-05
000060 ff 0d e0 b7 63 b4 09 35 7a 40 03 b8 75 8a 96 b7
       -2.6709398e-05 5.1298974e-07 -3.1292882e-05 -1.7945868e-05
000070 d9 9b 19 38 de fd d3 b7 12 7c b3 b6 4d a3 36 b7
       3.6623187e-05 -2.5271376e-05 -5.3490594e-06 -1.0886067e-05
000080 c9 56 d2 b6 87 0a f3 36 3f 7c f9 b6 6a 2c c7 36
       -6.268591e-06 7.24319e-06 -7.4352424e-06 5.9358326e-06
000090 37 c0 42 b6 b9 ab 1f b7 a8 a6 f5 b3 cf de be b6
       -2.9020136e-06 -9.517121e-06 -1.1439016e-07 -5.6883796e-06
0000a0 6c d0 87 b5 7b 40 03 35 c9 95 19 b7 74 31 0e 37
       -1.0118943e-06 4.8895134e-07 -9.154385e-06 8.475374e-06
0000b0 8c f4 cd 36 f9 e5 db b6 7a db 47 36 3f 19 36 b7
       6.137945e-06 -6.553481e-06 2.9781063e-06 -1.0853923e-05
0000c0 bf 82 89 b6 9b 8f ea 36 19 f4 b0 b6 f4 e7 fa b6
       -4.098139e-06 6.9904613e-06 -5.2736254e-06 -7.4775835e-06
0000d0 9c 66 25 b7 1a 1e 76 b6 2f 2b 9e b5 86 3f 3b 35
       -9.858657e-06 -3.6674378e-06 -1.1784485e-06 6.975537e-07
0000e0 2e 5b 27 36 4a 2f 84 b6 fb 82 9f 36 dc cb 34 b7
       2.4938013e-06 -3.9394117e-06 4.7538174e-06 -1.0776301e-05
0000f0 02 9f 12 b3 c5 9f 99 b6 87 15 64 b4 3a a9 39 35
       -3.413789e-08 -4.578355e-06 -2.1241986e-07 6.916413e-07
000100 fd 40 8a b6 c4 5c 57 36 40 5e 9f 36 a0 f6 3c b7
       -4.120286e-06 3.2091493e-06 4.7495414e-06 -1.1263095e-05
000110 bd 0d d4 b6 7e 55 5d 35 94 e1 a2 36 30 bb fe b6
       -6.3196917e-06 8.2453323e-07 4.854237e-06 -7.5915814e-06
000120 6e 81 bd b6 8a f5 81 35 e4 0d cb 35 3f 7b 87 36
       -5.6477065e-06 9.68271e-07 1.5128721e-06 4.0376613e-06
000130 00 06 e3 b4 c3 e2 35 b7 89 56 5e b6 25 bf f8 36
       -4.228641e-07 -1.0841238e-05 -3.3130948e-06 7.413228e-06
000140 46 bb 3e 34 f7 cb 9e b6 c5 e0 f9 b6 9f 2e 0c b7
       1.7763259e-07 -4.7325116e-06 -7.446945e-06 -8.355505e-06
000150 f4 52 01 b7 41 df 87 b6 fc 98 c0 36 ef 56 fe 35
       -7.708313e-06 -4.0493037e-06 5.7398556e-06 1.8949776e-06
000160 87 22 ec 36 ee 7c 1f b7 9d 04 c9 36 e3 08 39 b7
       7.0373676e-06 -9.506226e-06 5.990804e-06 -1.1028928e-05
000170 ea 69 ed 36 c1 51 8a 36 43 16 04 37 4a 2a 61 37
       7.0754804e-06 4.122238e-06 7.872996e-06 1.3420891e-05
000180 84 af 2e 37 88 98 0c b6 da c7 59 36 92 fa 59 b7
       1.0412074e-05 -2.095041e-06 3.2451849e-06 -1.2992548e-05
000190 9f 40 67 b6 17 15 77 b6 d2 87 1a b7 ff 67 f3 36
       -3.4459297e-06 -3.6818144e-06 -9.210738e-06 7.254071e-06
0001a0 51 0d 42 36 b1 46 14 36 20 a0 ca b6 25 f1 54 b6
       2.8916004e-06 2.2094866e-06 -6.03871e-06 -3.1730826e-06
0001b0 41 6d 28 37 5f cd 6a b6 89 17 e2 b6 ef c5 46 b7
       1.0039018e-05 -3.498826e-06 -6.7380647e-06 -1.1847805e-05
0001c0 90 0d 97 b6 7c 86 b4 b6 a3 a8 54 b6 bf 99 80 36
       -4.5017296e-06 -5.380074e-06 -3.1688621e-06 3.8325957e-06
0001d0 82 9f d1 b6 3c 23 0c b7 d4 1a 5d 37 3f 17 2d b7
       -6.2472545e-06 -8.352854e-06 1.3178873e-05 -1.0317016e-05
0001e0 92 87 cd 37 55 63 8d 36 da 3c aa 37 51 22 b9 35
       2.4501034e-05 4.213691e-06 2.0293915e-05 1.3793561e-06
0001f0 72 db 00 37 6c 8d 6d 36 a7 9e b3 37 b1 ed 45 b6
       7.680488e-06 3.539807e-06 2.1412341e-05 -2.9493642e-06
000200 f1 f4 3b 37 02 36 86 b6 c7 c3 a9 b7 2e dd cc 36
       1.1203098e-05 -3.9997985e-06 -2.0237536e-05 6.1054225e-06
000210 b7 3a 0d b7 b3 a4 cf 37 ea e3 2c 38 a0 77 22 b6
       -8.4179255e-06 2.4753017e-05 4.1220257e-05 -2.4209512e-06
000220 d6 03 00 b8 8c b2 2d b7 cb 8f 0a 37 d8 64 fe b6
       -3.052115e-05 -1.0353175e-05 8.25892e-06 -7.5815296e-06
000230 67 f3 d0 37 95 8c 19 b8 f3 b2 cb b6 7b aa 44 37
       2.4908875e-05 -3.660897e-05 -6.070704e-06 1.1722203e-05
000240 4d 52 2f 37 64 e5 4f 37 38 0a d2 37 5e 11 13 36
       1.0449975e-05 1.2391571e-05 2.503871e-05 2.1914816e-06
000250 cd 95 18 38 d8 28 35 b6
       3.6379137e-05 -2.6994876e-06

exp_avg_sq f4 [5, 30]
000000 90 1c b9 30 8c 38 23 31 5c 1b f3 30 4f ca b4 2f
       1.346864e-09 2.3751765e-09 1.7688353e-09 3.2885558e-10
000010 3c f0 26 31 73 44 6a 31 fa c2 59 31 ce 8b e2 30
       2.4292737e-09 3.409039e-09 3.1688487e-09 1.6483399e-09
000020 11 4f 09 31 54 80 2a 31 b0 ec 3a 31 72 a3 89 31
       1.9981068e-09 2.4811202e-09 2.7201104e-09 4.0058064e-09
000030 b3 8f 92 30 ca 36 e4 30 4d e7 8a 31 4c fd 4c 31
       1.066374e-09 1.6604755e-09 4.0426245e-09 2.982989e-09
000040 54 2a ba 30 45 75 72 30 4f 97 3b 31 d3 61 d5 30
       1.3545312e-09 8.8205737e-10 2.729809e-09 1.5525593e-09
000050 44 de 44 31 8f d8 cb 30 ba 38 28 30 a8 ce a6 31
       2.8648097e-09 1.4831744e-09 6.119866e-10 4.85473e-09
000060 dc 16 8b 31 d7 7e b4 30 66 9a 2c 31 6d 67 a2 30
       4.0480312e-09 1.3132774e-09 2.511706e-09 1.1816447e-09
000070 8b 49 0a 31 76 34 5a 31 c8 eb 5a 31 3f 49 ec 31
       2.0123447e-09 3.1752996e-09 3.1857201e-09 6.876831e-09
000080 16 83 8c 31 94 15 8d 31 64 2b 8c 31 ac 4e 1d 31
       4.089439e-09 4.1060932e-09 4.079469e-09 2.2891227e-09
000090 a7 e6 4d 31 50 1c 72 31 bb 28 58 30 d3 61 60 31
       2.9962537e-09 3.5231729e-09 7.8638224e-10 3.2651897e-09
0000a0 14 62 a3 30 99 11 d1 30 fc 53 93 31 15 51 c5 31
       1.1887686e-09 1.5211753e-09 4.287811e-09 5.7426726e-09
0000b0 cd cb 66 31 10 af b9 31 97 b8 ee 30 2b 5b a2 31
       3.3585252e-09 5.404111e-09 1.7369243e-09 4.725185e-09
0000c0 b0 e3 07 31 97 0b 3d 31 a3 b0 16 31 de de 60 31
       1.977451e-09 2.7509708e-09 2.192828e-09 3.2722975e-09
0000d0 95 c5 9c 31 66 dd 7d 30 19 df 82 30 69 8e 35 30
       4.56266e-09 9.235549e-10 9.522153e-10 6.6049793e-10
0000e0 5a de 30 30 2d 3e f1 30 cc 0e bd 30 b1 79 a6 31
       6.434441e-10 1.7552729e-09 1.3755765e-09 4.8450706e-09
0000f0 70 54 fa 31 e7 3f 3e 31 39 09 07 32 74 36 ef 2e
       7.285557e-09 2.7684963e-09 7.860131e-09 1.08781345e-10
000100 30 51 eb 30 85 6d d6 31 9b a3 c3 32 91 c1 28 32
       1.7121575e-09 6.2406706e-09 2.2775387e-08 9.822899e-09
000110 5e 89 2f 31 00 6e c5 30 b9 27 8b 30 72 76 48 32
       2.5543936e-09 1.43649e-09 1.0124871e-09 1.16684635e-08
000120 d3 79 b8 31 4d e7 86 30 c5 1b 0c 31 67 0e 18 32
       5.3689546e-09 9.815523e-10 2.0388466e-09 8.850839e-09
000130 04 be fa 31 72 0f 2f 32 75 72 0f 31 b7 82 9c 30
       7.29756e-09 1.01898525e-08 2.08743e-09 1.1387645e-09
000140 37 01 24 30 61 ef 65 32 61 54 9e 31 58 3b 24 32
       5.966458e-10 1.3383983e-08 4.607998e-09 9.55955e-09
000150 4b 0e 16 32 c0 0b 31 30 35 1b 42 31 64 22 ba 2f
       8.734399e-09 6.440892e-10 2.824618e-09 3.385764e-10
000160 ea 7f f7 32 6d 30 60 32 63 1c 9d 30 61 63 f4 30
       2.8812753e-08 1.3049527e-08 1.1431321e-09 1.7781582e-09
000170 cd df ca 30 88 9c eb 30 9a 9b 81 31 8d 6b 54 31
       1.4761042e-09 1.7142989e-09 3.772084e-09 3.0911196e-09
000180 25 57 19 31 76 d2 aa 31 4b 5a 01 32 d5 60 0c 32
       2.2313966e-09 4.971578e-09 7.5293185e-09 8.17109e-09
000190 da 2a f1 31 b4 38 d2 31 aa c6 7e 30 57 12 b8 31
       7.018895e-09 6.118251e-09 9.268698e-10 5.35719e-09
0001a0 a6 4d 38 31 9d eb b0 31 29 d9 a7 30 91 6e 43 31
       2.6819662e-09 5.1490603e-09 1.221257e-09 2.8439084e-09
0001b0 2b d6 b7 31 91 ae a7 31 68 30 54 30 21 9b 5e 31
       5.350349e-09 4.8801856e-09 7.719394e-10 3.2393432e-09
0001c0 a7 5a 07 30 20 07 95 31 42 fa c6 31 05 49 a8 31
       4.924154e-10 4.3372808e-09 5.7910094e-09 4.897745e-09
0001d0 24 5e 6b 31 b4 82 9a 31 b8 16 03 31 ff cb 8e 30
       3.4250514e-09 4.496849e-09 1.9075923e-09 1.0389839e-09
0001e0 b4 c3 de 31 a8 0b 1b 31 2e eb b5 31 29 f1 9d 2f
       6.4832992e-09 2.2562094e-09 5.29453e-09 2.8729488e-10
0001f0 60 9b 41 31 fd 12 45 30 42 e7 8b 31 e7 ae 00 31
       2.8173517e-09 7.1695166e-10 4.0717234e-09 1.8725872e-09
000200 47 e3 11 31 db f7 a8 2f 34 45 90 31 8c 0f e8 30
       2.122947e-09 3.0735134e-10 4.198819e-09 1.688464e-09
000210 c8 6b 00 30 e0 f6 32 31 16 2f 29 32 5d 8c 4c 30
       4.6719295e-10 2.6042741e-09 9.847801e-09 7.4414236e-10
000220 ba 7b 0b 32 9a 40 85 30 59 94 13 31 2e aa 4e 31
       8.118997e-09 9.695384e-10 2.1475641e-09 3.0073681e-09
000230 99 4d da 31 d9 35 d1 31 94 81 56 30 4d af 84 31
       6.353457e-09 6.0888223e-09 7.803689e-10 3.861635e-09
000240 37 3e 3e 31 aa c8 f5 30 b8 7f 53 31 4c f1 72 2f
       2.7684004e-09 1.7883128e-09 3.077714e-09 2.2095498e-10
000250 10 a9 e0 31 fc 96 0b 31
       6.538478e-09 2.0312987e-09

exp_avg f4 [5]
000000 6f 4f 3e ae fe e2 ad ab aa c4 95 2e a6 18 c6 2e
       -4.327155e-11 -1.2355392e-12 6.81067e-11 9.008376e-11
000010 d2 3f 43 2d
       1.1098638e-11

exp_avg_sq f4 [5]
000000 36 f4 c0 26 e6 2a a4 22 d2 e3 99 28 05 ac 88 28
       1.338887e-15 4.449771e-18 1.7085214e-14 1.5173635e-14
000010 71 49 40 25
       1.6678228e-16
