tutorial/Mouse_cerebellum_output/version_14/checkpoints/mlp.ckpt (torch, 17217 bytes, 12 tensors)

model.classifier.0.weight f4 [30, 30]
0	0x3ce64b4c	0.028112076
1	0x3d80f9bc	0.06297633
2	0x3ccd87f6	0.025089245
3	0xbc828fd4	-0.015937723
4	0xbdd969a9	-0.10615856
5	0xbd349c57	-0.04409441
6	0xbd442cea	-0.047894396
7	0xbe008504	-0.12550741
8	0x3c747eef	0.014922841
9	0xbd6c5a56	-0.05770334
10	0xbcd39c0a	-0.025831241
11	0xbdab4591	-0.08362878
12	0x3d5f4c60	0.054516196
13	0x3d552c06	0.052043937
14	0x3e3dea80	0.18546486
15	0x3d937313	0.07199683
16	0x3c44579e	0.01198378
17	0x3d9eeee5	0.07760409
18	0xbd43c1a0	-0.047792077
19	0xbde28a18	-0.110614955
20	0xbe19bc23	-0.15013175
21	0x3e0fed45	0.14055355
22	0xbb63ab0f	-0.003473941
23	0xbd8a99f2	-0.06767644
24	0xbd86784b	-0.06565913
25	0xbdb1adfa	-0.086757615
26	0x3d9e3632	0.07725181
27	0x3d04bcae	0.0324065
28	0xbde1f61c	-0.1103327
29	0xbd472367	-0.048617747
30	0x3e0ae340	0.13563251
31	0x3d8690e2	0.06570603
32	0x3d7f4fc1	0.06233192
33	0xbd1b8018	-0.037963957
34	0xbab238ff	-0.0013597308
35	0x3d2f247d	0.042759407
36	0xbdd5649a	-0.10419579
37	0xbe36ff56	-0.1787084
38	0xbdc9dc47	-0.09856468
39	0x3c2e9a47	0.0106569
40	0x3d14eec1	0.036360506
41	0x3d6ffe9a	0.058592416
42	0xbc0e98da	-0.008703435
43	0xbcf381d3	-0.029724991
44	0x3cc86c6d	0.024465764
45	0x3d9fa6ef	0.07795512
46	0xbced97b6	-0.029003005
47	0x3e054253	0.13013582
48	0x3dac425c	0.084110945
49	0xbd4ea17b	-0.05044697
50	0xbde4363d	-0.11143158
51	0x3da43b2f	0.08019101
52	0xbd3cd39c	-0.046100244
53	0x3d9a6910	0.0753957
54	0x3cb8e18b	0.022568485
55	0x3d9f1c97	0.07769125
56	0xbd877083	-0.06613257
57	0xbbe85d2c	-0.007091185
58	0xbd91a436	-0.07111399
59	0x3d06efca	0.032943524
60	0x3d8b6187	0.06805711
61	0x3d84ee4a	0.064907625
62	0xbafd61f0	-0.0019331556
63	0xbdedb29f	-0.11606335
64	0xbe0c0d98	-0.1367706
65	0xbd8feedc	-0.07027981
66	0xbe144370	-0.1447885
67	0xbd3171fa	-0.043321587
68	0xbd9742ea	-0.0738581
69	0xbda72018	-0.08160418
70	0xbda4ae59	-0.08041067
71	0xbd0b1980	-0.033959866
72	0xbbbd2c18	-0.0057730787
73	0x3d76dc87	0.060268905
74	0x3e847cba	0.2587641
75	0x3d8705f0	0.06592929
76	0x3dd110fc	0.10208318
77	0xbd6a638b	-0.057223838
78	0x3c69c478	0.014268033
79	0xbe1e9d8a	-0.15489784
80	0xbe07eee7	-0.13274728
81	0x3e1ea469	0.15492405
82	0xbc262bbe	-0.010142265
83	0xbd9b53ae	-0.0758432
84	0xbe15e083	-0.14636426
85	0xbd4a9b83	-0.049464714
86	0x3d932e73	0.07186594
87	0x3e519dbb	0.20470326
88	0xbdb25634	-0.08707848
89	0xbda1e89d	-0.079056956
90	0xbd416564	-0.047215834
91	0xbcb8d640	-0.0225631
92	0xbe03c221	-0.12867023
93	0x3c16fd08	0.009215601
94	0xbd4f418d	-0.050599623
95	0xbd19de87	-0.037565734
96	0x3d655ee4	0.055998698
97	0x3db6be4f	0.08923017
98	0x3cff9e64	0.031203456
99	0xbd09ee40	-0.03367448
100	0xbdbfd3a1	-0.09366537
101	0xbdd2a510	-0.102853894
102	0x3b5a8fc9	0.0033349863
103	0x3cb5b1f8	0.022179589
104	0x3e048676	0.12941918
105	0x3cd78703	0.026309496
106	0x3dc0fa7e	0.094227776
107	0xbe03427c	-0.1281833
108	0xbda1c734	-0.07899323
109	0xbd880096	-0.06640737
110	0x3c67bcf9	0.014144176
111	0x3cb42604	0.021990784
112	0x3d157454	0.036487892
113	0xbde434db	-0.11142894
114	0xbe2237c2	-0.15841582
115	0xbe0091f8	-0.12555683
116	0x3e0814ea	0.13289228
117	0x3db43bd1	0.088004716
118	0xbd6d6caa	-0.05796496
119	0xbdf45087	-0.11929422
120	0xbe1ea798	-0.1549362
121	0xbdaa4879	-0.08314604
122	0xbd39bd99	-0.04534683
123	0x3ccabbf9	0.024747835
124	0x3cb3f831	0.021968933
125	0xbd3c09b0	-0.045907676
126	0x3dcae5c4	0.099071056
127	0x3e6fb8a0	0.23410273
128	0x3dc58477	0.09644406
129	0xbb68911e	-0.0035486887
130	0xbcd719c0	-0.026257396
131	0xbcb393ff	-0.021921156
132	0xbbff7152	-0.0077954913
133	0x3cf1ff32	0.029540632
134	0xbd9947fb	-0.07484432
135	0xbdf5bf68	-0.119993985
136	0x3cd27a9b	0.025693228
137	0xbe29dad6	-0.16587386
138	0xbd845826	-0.064621255
139	0x3db65335	0.08902589
140	0x3e22dc60	0.15904379
141	0xbdf85158	-0.1212489
142	0x3d3fd823	0.046836983
143	0xbd660100	-0.056153297
144	0x3c50b52f	0.01273851
145	0xbd2f200f	-0.042755183
146	0x3d0668d1	0.032814804
147	0x3c81ce17	0.015845342
148	0x3e04985c	0.12948745
149	0xbb9023a9	-0.0043987823
150	0x3e1b39d6	0.15158781
151	0x3c887ff7	0.01666258
152	0xbe250f09	-0.16119017
153	0x3d540c32	0.051769443
154	0x3d990469	0.07471544
155	0x3def3723	0.11680438
156	0x3d1ed3af	0.038776096
157	0xbe0a505b	-0.13507216
158	0xbddd2f22	-0.108000055
159	0x3d8c3051	0.06845153
160	0xbce891a7	-0.028389765
161	0xbc3faf37	-0.011699489
162	0xbd1b487c	-0.037910923
163	0xbde3a73e	-0.11115883
164	0xbb617711	-0.0034403244
165	0x3e1b23e9	0.15150417
166	0x3d09904e	0.033584885
167	0x3d509f78	0.05093333
168	0x3d27d48f	0.040974196
169	0xbd8664b3	-0.065621756
170	0xbd0ed9e5	-0.03487577
171	0x3cb34d15	0.021887342
172	0xbca72f38	-0.020408258
173	0x3d3e06fd	0.046393383
174	0xbe042afb	-0.12907021
175	0x3a97d127	0.0011582718
176	0x3cf9e307	0.030503763
177	0xbd1a664d	-0.037695218
178	0xbe2b52d2	-0.16730812
179	0xbdbe88c9	-0.093034334
180	0xbdae02e5	-0.08496646
181	0x3c1ba47a	0.0094996635
182	0x3db9a88c	0.09065351
183	0xbdf41029	-0.11917145
184	0xbe0a315d	-0.13495393
185	0xbe0a8664	-0.13527828
186	0xbde3dfd4	-0.11126676
187	0x3e076e44	0.13225657
188	0x3cf2aa4b	0.029622218
189	0xbdd1bd75	-0.10241214
190	0xbd441a27	-0.047876503
191	0xbc12170c	-0.008916628
192	0x3bffd3ce	0.0078072315
193	0x3df2e334	0.11859742
194	0x3e22e6d5	0.15908368
195	0xbdb3454e	-0.08753453
196	0x3d837706	0.06419186
197	0xbe0978e4	-0.13425022
198	0xbca954d8	-0.02067034
199	0xbd1e6513	-0.03867061
200	0xbc97040d	-0.018434549
201	0x3d6af49a	0.057362176
202	0x3c86056d	0.01636001
203	0xbdbcdec2	-0.09222175
204	0xbca59df9	-0.020216929
205	0xbd091594	-0.033467844
206	0x3cfaa842	0.03059781
207	0x3e4076a5	0.1879526
208	0x3db84df6	0.08999245
209	0x3b9938c6	0.0046759574
210	0xbb65a742	-0.003504232
211	0xbce00c9e	-0.027349766
212	0xbe4ad9f0	-0.19809699
213	0x3db1877d	0.086684205
214	0x3c98b593	0.018641269
215	0x3d1ce87d	0.038307656
216	0x3e07335b	0.13203184
217	0x3c2eeecf	0.010677054
218	0x3cb640fc	0.022247784
219	0x3caeba8c	0.021329187
220	0xbd9d22b9	-0.076726384
221	0xbdf3de0c	-0.119075865
222	0x3bc2dd2e	0.005946777
223	0xbd2fa897	-0.04288539
224	0x3d62d6c8	0.055380613
225	0x3db09f07	0.08624082
226	0x3d83274f	0.06403982
227	0xbd5c3a43	-0.0537665
228	0xbdaa5e85	-0.083188094
229	0xbd63bcac	-0.055599853
230	0x3c990c83	0.018682724
231	0xba959693	-0.0011412672
232	0x3d03145d	0.03200184
233	0xbd9862f5	-0.074407496
234	0xbe2cc255	-0.16871007
235	0xbe04f3c0	-0.12983608
236	0x3e0df1ef	0.13861822
237	0xbca0db30	-0.019635767
238	0xbe0282f0	-0.12745261
239	0xbe0fe014	-0.14050323
240	0xbddd7bad	-0.10814605
241	0xbd068fee	-0.032852106
242	0x3dd06d10	0.10177052
243	0xbde46186	-0.111514136
244	0xbd605316	-0.054766737
245	0xbdd91dd2	-0.10601391
246	0xbdafe5fd	-0.08588789
247	0x3e5b55d1	0.21419455
248	0x3cc3ff0d	0.023925329
249	0xbd6e9aea	-0.058253206
250	0xbc6e75f3	-0.0145544885
251	0x3d8447e1	0.06459022
252	0xbcee5bc5	-0.029096493
253	0x3dad6e5f	0.08468317
254	0x3c09b188	0.008404143
255	0xbe1b860c	-0.15187854

model.classifier.0.bias f4 [30]
0	0xb53999d4	-6.914172e-07
1	0xb58ea6b5	-1.0628343e-06
2	0xb4e5d40f	-4.2808867e-07
3	0x32c3287d	2.27194e-08
4	0x3548b658	7.477115e-07
5	0xb4934a24	-2.7434828e-07
6	0xb38fd348	-6.697388e-08
7	0x32577ff2	1.25437385e-08
8	0x3468cdb7	2.1681522e-07
9	0x34310927	1.6487739e-07
10	0xb3051db4	-3.099349e-08
11	0x34ba6fbf	3.4726506e-07
12	0x348940db	2.5565427e-07
13	0xb483518e	-2.445999e-07
14	0xb3351952	-4.2165375e-08
15	0x343e7383	1.7737152e-07
16	0xb30dfbe2	-3.3058207e-08
17	0x345d1e6c	2.0593296e-07
18	0xb46d8988	-2.2122379e-07
19	0xb61245f1	-2.1796407e-06
20	0xb4ad7437	-3.2308319e-07
21	0x34df29a5	4.1567287e-07
22	0xb438e821	-1.7220783e-07
23	0x32814f3b	1.5053606e-08
24	0x31ee589f	6.9367867e-09
25	0xb4cc174d	-3.8014915e-07
26	0x34320960	1.6580952e-07
27	0x34a1a189	3.010612e-07
28	0x34dbf57e	4.0970548e-07
29	0x34275c8a	1.5586753e-07

model.classifier.1.weight f4 [5, 30]
0	0xbd5e67f9	-0.054298375
1	0x3e8878aa	0.2665456
2	0xbe7b3770	-0.24532866
3	0xbec1723a	-0.3778246
4	0xbe846734	-0.25859988
5	0x3d924599	0.07142181
6	0xbe988c79	-0.29794672
7	0xbe7bdfc9	-0.24597086
8	0xbe50e161	-0.20398475
9	0x3d42cf10	0.04756075
10	0x3e5241b3	0.20532875
11	0xbe8bb9f7	-0.27290317
12	0xbea50dd0	-0.322371
13	0xbe9a57af	-0.30145022
14	0xbe8a119c	-0.2696656
15	0xbe48b7ea	-0.19601408
16	0x3e5a4d4a	0.21318546
17	0x3cf5f2cf	0.030023007
18	0x3ea5c181	0.32374194
19	0xbc175b0d	-0.009238017
20	0xbe12dd4f	-0.14342235
21	0x3d8f1a49	0.06987435
22	0x3e7d14d6	0.2471498
23	0xbe9e7cbf	-0.3095455
24	0x3ce6c2c4	0.028169043
25	0xbea9e4af	-0.33182284
26	0xbeb1ac2e	-0.34701675
27	0xbe0520a0	-0.13000727
28	0x3e5c97ce	0.21542284
29	0x3e029d45	0.12755306
30	0xbea58db3	-0.3233467
31	0xbe525dc3	-0.2054358
32	0xbe92b85b	-0.28656277
33	0xbe04c04b	-0.12963979
34	0x3eb495e8	0.3527062
35	0xbeb59a34	-0.3546921
36	0x3e139fb0	0.14416385
37	0xbe822f1b	-0.25426564
38	0x3ed38782	0.41314322
39	0xbecf7ffc	-0.40527332
40	0x3e7587c8	0.23977578
41	0x3d954bb4	0.0728983
42	0x3e16617b	0.14685623
43	0xbec5dc70	-0.38644743
44	0x3d4d1230	0.050066173
45	0x3ec462f5	0.38356748
46	0xbe8e8ae4	-0.2784034
47	0x3ec0bc81	0.37643817
48	0xbcb81205	-0.02246953
49	0xbe3ac2c5	-0.18238361
50	0x3ed4d485	0.4156839
51	0x3e876482	0.2644387
52	0x3ded3740	0.11582804
53	0xbea0cdf1	-0.3140712
54	0x3e405fde	0.1878657
55	0xbd607ac5	-0.054804582
56	0xbc7a275d	-0.015268174
57	0x3ec0cc55	0.37655893
58	0x3e9d1c2c	0.30685556
59	0x3dfc2980	0.12312603
60	0x3e784e2e	0.24248573
61	0xbda8f71d	-0.08250258
62	0x3e3a2998	0.1817993
63	0x3e30362c	0.17208165
64	0x3c6a69e9	0.0143074775
65	0xbe03826a	-0.12842718
66	0x3e40b39d	0.18818517
67	0x3dc5b6ad	0.09653983
68	0x3bb0bca3	0.005393581
69	0x3e07cae8	0.13260996
70	0xbe30b0f9	-0.1725501
71	0x3c5fe79e	0.013666062
72	0x3e0fed82	0.14055446
73	0x3e5d12d5	0.21589215
74	0x3e570bd5	0.21000607
75	0x3c6c402e	0.0144195985
76	0xbe6504d8	-0.22365129
77	0xbe08a9f0	-0.13346076
78	0xbe3e9382	-0.18610957
79	0xbd3ed6b9	-0.046591494
80	0xbdc46427	-0.09589415
81	0xbd27e900	-0.04099369
82	0xbe26c9d9	-0.16287936
83	0x3e19527d	0.14972873
84	0xbe0dc41f	-0.13844346
85	0x3cd79cc8	0.026319876
86	0x3d71a8e4	0.058998957
87	0x3e16c7ef	0.14724706
88	0x3bba63b9	0.0056881574
89	0x3e0fd0d9	0.14044513
90	0xbe2aa019	-0.16662635
91	0xbe004419	-0.12525977
92	0xbe4dac53	-0.20085268
93	0x3def7cd9	0.11693735
94	0x3e05acf1	0.13054253
95	0x3e7ed8ef	0.24887441
96	0xbe862295	-0.2619826
97	0x3e92ffe4	0.28710854
98	0xbe36f5e4	-0.17867237
99	0x3d6baa5b	0.05753551
100	0x3e4e801c	0.20166057
101	0x3e1509f5	0.1455458
102	0x3e292652	0.16518524
103	0x3c99d49b	0.018778136
104	0xbe99b44d	-0.3002037
105	0x3ca1cbd0	0.019750506
106	0x3e9c3aff	0.3051376
107	0x3e14bf3b	0.14526074
108	0xbe542995	-0.20718987
109	0x3eb3c2d2	0.35109574
110	0xbe7a6fa4	-0.2445665
111	0x3e4d3af6	0.20042023
112	0xbe64e3fe	-0.22352597
113	0x3e19c813	0.15017729
114	0xbddeda8c	-0.10881528
115	0xbbbb943e	-0.005724459
116	0x3e52b5f5	0.20577224
117	0x3ca981c3	0.020691758
118	0xbdc44184	-0.095828086
119	0xbd3c8221	-0.046022538
120	0x3d548014	0.051879957
121	0x3e273b64	0.1633125
122	0x3eaebd48	0.34128785
123	0x3cb8b654	0.022547878
124	0xbe22e848	-0.15908921
125	0x3db3498f	0.087542646
126	0x3e2ed8b0	0.17074847
127	0xbdbab252	-0.09116043
128	0x3df6da34	0.12053338
129	0xbda0c227	-0.078495316
130	0xbe948a0e	-0.29011577
131	0x3c8b3b62	0.01699609
132	0xbe57a91d	-0.21060605
133	0x3e1c7a97	0.1528114
134	0x3e5993e0	0.21247816
135	0xbde2cb6e	-0.110739574
136	0x39265c25	0.0001586532
137	0xbe5c1b7f	-0.21494864
138	0x3e7ee458	0.24891794
139	0xbe415758	-0.18880975
140	0x3e99deb6	0.30052727
141	0xbec8d463	-0.39224538
142	0x3e5b65f6	0.21425614
143	0x3d9721d1	0.07379497
144	0x3e58a2fe	0.21155927
145	0x3e9c7d76	0.3056447
146	0x3b16e450	0.0023024268
147	0xbec56e5d	-0.38560763
148	0xbe9a03fb	-0.30081162
149	0xbec07191	-0.37586644

model.classifier.1.bias f4 [5]
0	0xb4d0de69	-3.8904844e-07
1	0x35ea4449	1.7454232e-06
2	0x34ab4b5e	3.190607e-07
3	0xb3574d5f	-5.0128957e-08
4	0x35e0227d	1.6699338e-06

exp_avg f4 [30, 30]
0	0x3760b6e6	1.3394025e-05
1	0x3515e24e	5.583614e-07
2	0x360ede98	2.1289216e-06
3	0xb6f57bf2	-7.315998e-06
4	0x3749893a	1.2012484e-05
5	0x37515d9f	1.2479169e-05
6	0xb6d1f678	-6.257378e-06
7	0x36a2a63c	4.8473285e-06
8	0xb78e6e34	-1.6979036e-05
9	0x3700ead7	7.684072e-06
10	0x36980675	4.5307047e-06
11	0x379483ea	1.7704402e-05
12	0xb72548b5	-9.851695e-06
13	0xb6f38faa	-7.258689e-06
14	0xb7c72789	-2.3741059e-05
15	0xb6c96ad3	-6.002703e-06
16	0xb611af8d	-2.1708868e-06
17	0xb6824c3d	-3.883177e-06
18	0x377d12ce	1.5084353e-05
19	0x3752586b	1.2537562e-05
20	0x3738bcb8	1.1011194e-05
21	0xb7422835	-1.15726625e-05
22	0xb674942a	-3.6445076e-06
23	0x377f07b9	1.52009825e-05
24	0x37011a78	7.695162e-06
25	0x37c32e80	2.3267465e-05
26	0xb77e484f	-1.5156415e-05
27	0x3656affc	3.1990921e-06
28	0x372a5aaa	1.0153899e-05
29	0x36cd1c44	6.1127666e-06
30	0xb6b0a3b0	-5.2642645e-06
31	0x368f6107	4.2730276e-06
32	0x37686ff9	1.3854348e-05
33	0xb6e580ea	-6.8397394e-06
34	0xb6936bfe	-4.3935133e-06
35	0xb68a1654	-4.11532e-06
36	0xb717986c	-9.03579e-06
37	0x359ef62e	1.1843565e-06
38	0x36757d4a	3.6580773e-06
39	0xb704d327	-7.916976e-06
40	0x36a2e87a	4.85504e-06
41	0x35115a98	5.414854e-07
42	0x36a8e366	5.033263e-06
43	0x36b647d2	5.4323837e-06
44	0x3739d9ba	1.1077553e-05
45	0xb6a37877	-4.8718025e-06
46	0xb5d4f001	-1.5865081e-06
47	0x3614b535	2.2159195e-06
48	0xb4a935ee	-3.1517942e-07
49	0x33d3b6a4	9.858675e-08
50	0xb6b027c9	-5.2498403e-06
51	0x36bb5862	5.5833234e-06
52	0x34f24435	4.512564e-07
53	0x3389cc11	6.416679e-08
54	0x3743753a	1.16502e-05
55	0x360bf502	2.0855227e-06
56	0xb56537f3	-8.5390565e-07
57	0xb58225f9	-9.696806e-07
58	0x376674f0	1.3736295e-05
59	0x37158dd6	8.914116e-06
60	0x374aa284	1.2077977e-05
61	0x35c1d865	1.44426e-06
62	0x366d7dd3	3.5388991e-06
63	0xb6efb10f	-7.1433674e-06
64	0x36d7c6b1	6.43063e-06
65	0x3711062a	8.644109e-06
66	0xb71b5370	-9.258147e-06
67	0x364b9ff4	3.0342462e-06
68	0xb773e28d	-1.4536677e-05
69	0x36847672	3.9476954e-06
70	0x347567c9	2.285516e-07
71	0x37922934	1.7423743e-05
72	0xb71f6fc2	-9.503159e-06
73	0xb6ac57d3	-5.1362235e-06
74	0xb7873f8b	-1.6122844e-05
75	0xb68c0f5f	-4.1741146e-06
76	0xb60f5bd7	-2.1362118e-06
77	0xb6ac2a49	-5.130922e-06
78	0x3769e40b	1.3940978e-05
79	0x3711ac43	8.682781e-06
80	0x36f78556	7.376696e-06
81	0xb6e40656	-6.795667e-06
82	0xb652c7af	-3.140867e-06
83	0x3738f60e	1.1024544e-05
84	0x369d63d2	4.6905852e-06
85	0x37aea1ca	2.0817755e-05
86	0xb75e9611	-1.3267171e-05
87	0x36fc2a9f	7.515147e-06
88	0x36f6fedb	7.3610404e-06
89	0x36ac9b07	5.144047e-06
90	0x371bdde9	9.290387e-06
91	0xb6c68fbc	-5.9175927e-06
92	0xb76077b8	-1.3379315e-05
93	0x3693e0b7	4.4071016e-06
94	0x373c9b06	1.1241767e-05
95	0x37242a21	9.784971e-06
96	0x36f1894d	7.1983436e-06
97	0x36caddff	6.045913e-06
98	0xb71eedb7	-9.472881e-06
99	0x37267274	9.921019e-06
100	0xb641c5b6	-2.8874324e-06
101	0x3715b0b5	8.922235e-06
102	0xb7352256	-1.0796435e-05
103	0xb71bf8f1	-9.296681e-06
104	0xb7ce7f86	-2.4616496e-05
105	0x3628adf5	2.5135207e-06
106	0x34adec2c	3.23956e-07
107	0xb7003c5c	-7.643448e-06
108	0x36b36439	5.346283e-06
109	0x372ba1ac	1.0230036e-05
110	0x374d1227	1.2223179e-05
111	0xb753f7c3	-1.2634267e-05
112	0xb59905a3	-1.1401029e-06
113	0x36ccb28a	6.1004584e-06
114	0xb702342b	-7.76075e-06
115	0x372535ed	9.847322e-06
116	0xb6c3b0b0	-5.832022e-06
117	0x36163463	2.2382235e-06
118	0xb6fef3c2	-7.598167e-06
119	0xb6e9e8e8	-6.971055e-06
120	0x361d2a9a	2.341962e-06
121	0xb65fd675	-3.335442e-06
122	0xb761437d	-1.3426758e-05
123	0x3708382d	8.119311e-06
124	0xb4d9453c	-4.0469774e-07
125	0x332c539f	4.0122924e-08
126	0x371a2d3e	9.189649e-06
127	0xb69908ff	-4.5608026e-06
128	0x34de6d8d	4.143043e-07
129	0x36b4fee1	5.39409e-06
130	0xb6e535b8	-6.8309855e-06
131	0xb6b4e7f1	-5.3914196e-06
132	0xb5ff1a59	-1.9006649e-06
133	0xb6392844	-2.7590586e-06
134	0xb60a0a2c	-2.0569523e-06
135	0x36d96b8f	6.4796254e-06
136	0x3614ae2d	2.2155102e-06
137	0xb4a04eff	-2.98598e-07
138	0xb649d19f	-3.007335e-06
139	0xb6bf36cf	-5.698624e-06
140	0x35695e4a	8.693647e-07
141	0xb54751ef	-7.4252506e-07
142	0x34708ec8	2.2403685e-07
143	0xb6959e51	-4.4589765e-06
144	0xb76aa56e	-1.3986004e-05
145	0xb71350ec	-8.780724e-06
146	0x36a4f411	4.915994e-06
147	0x35a3a6b3	1.2192962e-06
148	0xb78e0bd9	-1.6933236e-05
149	0xb7287bae	-1.0042377e-05
150	0xb73d5010	-1.1283919e-05
151	0xb696726f	-4.48367e-06
152	0xb5c6c345	-1.480898e-06
153	0x3690a3c1	4.310598e-06
154	0x35ecc890	1.7641742e-06
155	0xb664ee78	-3.4113455e-06
156	0x36e1060f	6.706228e-06
157	0x3739fa83	1.1085186e-05
158	0x37453dbc	1.1756489e-05
159	0xb69f2d43	-4.7438384e-06
160	0x36464ca0	2.95489e-06
161	0xb6b68194	-5.4391076e-06
162	0x3641f74a	2.8903182e-06
163	0x35ddefaa	1.6535535e-06
164	0xb31d2b2b	-3.6593672e-08
165	0x3556cad4	8.0016366e-07
166	0xb46d740f	-2.2114567e-07
167	0xb696967a	-4.487866e-06
168	0xb73763e6	-1.0930909e-05
169	0x370b78df	8.313188e-06
170	0x35aebac4	1.3018366e-06
171	0xb5fde0ab	-1.8915356e-06
172	0x36745cf3	3.6412937e-06
173	0xb6af61a6	-5.226774e-06
174	0x361dea6a	2.353127e-06
175	0xb6c85678	-5.9705308e-06
176	0x36d928c1	6.4718483e-06
177	0xb6dd6fce	-6.599329e-06
178	0x36875040	4.032656e-06
179	0xb63597c1	-2.7059434e-06
180	0x378007c8	1.5262412e-05
181	0x3651e19e	3.1274753e-06
182	0x3502afee	4.8684785e-07
183	0xb6b11047	-5.276906e-06
184	0x35d827e4	1.6104864e-06
185	0x36e885ac	6.9297002e-06
186	0xb710b418	-8.625e-06
187	0xb6e498e5	-6.8127288e-06
188	0xb7882d68	-1.6233607e-05
189	0x36c83831	5.967006e-06
190	0xb68d7f67	-4.216959e-06
191	0x375a955e	1.302859e-05
192	0xb70935aa	-8.178331e-06
193	0xb6974df1	-4.5092243e-06
194	0xb7186c89	-9.085176e-06
195	0xb5a4de08	-1.2283572e-06
196	0xb544422f	-7.3112e-07
197	0xb523b2b1	-6.098226e-07
198	0x377a6641	1.4924969e-05
199	0xb603f4c9	-1.9663005e-06
200	0x365a1a34	3.2499784e-06
201	0xb60c7c7e	-2.093409e-06
202	0xb68e2ea1	-4.237358e-06
203	0x370cba52	8.388031e-06
204	0xb62e2648	-2.5950303e-06
205	0x3770c099	1.4349957e-05
206	0xb738db55	-1.1018322e-05
207	0x37287c55	1.0042529e-05
208	0xb6333570	-2.6704183e-06
209	0x3620e0be	2.3972675e-06
210	0x36020002	1.9371514e-06
211	0xb70fef39	-8.579163e-06
212	0xb780b4c7	-1.534297e-05
213	0x37036d79	7.833697e-06
214	0x37527048	1.2543118e-05
215	0x3701ebb9	7.743883e-06
216	0x375c2d5f	1.3123586e-05
217	0x373e19c0	1.1330878e-05
218	0xb5fd590e	-1.8875887e-06
219	0x37094c75	8.183638e-06
220	0xb4b581ed	-3.380841e-07
221	0x3652e78c	3.1427217e-06
222	0xb7018a02	-7.721132e-06
223	0xb7089fd8	-8.143448e-06
224	0xb7cc1ac0	-2.4331152e-05
225	0x364fe149	3.0976537e-06
226	0x351deab5	5.88286e-07
227	0xb70d89e9	-8.436365e-06
228	0xb61371e5	-2.1971002e-06
229	0x376671c3	1.37355555e-05
230	0x3753f025	1.2632493e-05
231	0xb766f470	-1.3765981e-05
232	0x359136f9	1.0819341e-06
233	0x363bf5f7	2.8008342e-06
234	0xb6e44ca3	-6.803851e-06
235	0x367a0db1	3.7260872e-06
236	0xb540b2be	-7.178568e-07
237	0xb66e3e6f	-3.5501105e-06
238	0xb6d732c2	-6.4134083e-06
239	0xb7183319	-9.071803e-06
240	0x36b9b1eb	5.534142e-06
241	0x36823c15	3.8812964e-06
242	0x35572da3	8.016015e-07
243	0xb59df712	-1.1769318e-06
244	0xb70764f4	-8.070132e-06
245	0xb63c4b2f	-2.8057946e-06
246	0xb6be4a80	-5.671114e-06
247	0xb745cdb1	-1.1790006e-05
248	0xb6856df0	-3.9765073e-06
249	0xb3c31a8f	-9.085226e-08
250	0xb6f2bd95	-7.2342323e-06
251	0xb45b840d	-2.0444004e-07
252	0xb468a7bb	-2.1667704e-07
253	0x35cc7665	1.5233642e-06
254	0x37360f91	1.085167e-05
255	0x362bad52	2.5581871e-06

exp_avg_sq f4 [30, 30]
0	0x301705a2	5.4941485e-10
1	0x2f80e99b	2.344905e-10
2	0x3003383b	4.773743e-10
3	0x2f61a7e8	2.0523283e-10
4	0x308ca8a3	1.023427e-09
5	0x30170348	5.4938143e-10
6	0x300419c4	4.8057935e-10
7	0x3081d1cf	9.445617e-10
8	0x307762a1	8.9998237e-10
9	0x30172136	5.4980676e-10
10	0x2f0d0038	1.2823953e-10
11	0x30a378e5	1.1894171e-09
12	0x300dcf85	5.1590404e-10
13	0x301eda40	5.7790217e-10
14	0x31253efd	2.4046465e-09
15	0x2fb57b4d	3.301132e-10
16	0x2f3c4d2e	1.712592e-10
17	0x3036ec33	6.6546874e-10
18	0x306f0114	8.6949226e-10
19	0x30124090	5.320624e-10
20	0x30abf814	1.2512396e-09
21	0x30a15e8f	1.1741167e-09
22	0x2ead55db	7.88238e-11
23	0x308c38cd	1.0202484e-09
24	0x2fa8eed7	3.0728728e-10
25	0x3097b7b1	1.1038904e-09
26	0x302c6ac4	6.272496e-10
27	0x2fcc8e65	3.720856e-10
28	0x30358858	6.604117e-10
29	0x2f41d38a	1.7628402e-10
30	0x30703b2e	8.739559e-10
31	0x2f61d885	2.0540554e-10
32	0x2ffc1743	4.5855061e-10
33	0x2fafc1a4	3.1969905e-10
34	0x2f6e75eb	2.1687867e-10
35	0x2f920713	2.6562272e-10
36	0x30449741	7.151933e-10
37	0x309bc01c	1.1332335e-09
38	0x302e50c3	6.34156e-10
39	0x2f9718a5	2.748425e-10
40	0x2f582b7c	1.9660534e-10
41	0x2fec02a1	4.2930018e-10
42	0x2f386948	1.6772106e-10
43	0x2f2e85ec	1.5872786e-10
44	0x302c3b0c	6.2657146e-10
45	0x2f767690	2.2415692e-10
46	0x2f874391	2.4604366e-10
47	0x305f256c	8.1180107e-10
48	0x30087e1c	4.9655724e-10
49	0x2f56f0b1	1.9548697e-10
50	0x2ffcbdee	4.5973486e-10
51	0x2fcccb43	3.725181e-10
52	0x2ef13636	1.0969041e-10
53	0x300a7007	5.036331e-10
54	0x2fadefb9	3.163885e-10
55	0x30011e3e	4.6972903e-10
56	0x2fae07a7	3.1655853e-10
57	0x302c83d6	6.2760586e-10
58	0x2ff247fe	4.4070697e-10
59	0x2f2c66e4	1.5679863e-10
60	0x305d73a2	8.0563656e-10
61	0x2fbc44ba	3.4245834e-10
62	0x3036838b	6.639815e-10
63	0x3085e431	9.74188e-10
64	0x30adc45f	1.2643219e-09
65	0x302e4061	6.339232e-10
66	0x310e53a7	2.071127e-09
67	0x3070df69	8.7628976e-10
68	0x308612e4	9.755152e-10
69	0x304e7eff	7.5122836e-10
70	0x2ff12fc9	4.3871598e-10
71	0x306b96a6	8.5706586e-10
72	0x2fa1c182	2.9423225e-10
73	0x3027e5de	6.1080907e-10
74	0x31839988	3.8300563e-09
75	0x2fdf970b	4.0670786e-10
76	0x303890cb	6.7144573e-10
77	0x3084b954	9.656937e-10
78	0x304c3c70	7.4300655e-10
79	0x3080eeb8	9.381074e-10
80	0x30b350e5	1.3046956e-09
81	0x30d61045	1.5575173e-09
82	0x2f26fa4d	1.5186537e-10
83	0x30685ca8	8.453278e-10
84	0x3084c490	9.66013e-10
85	0x304eb827	7.520406e-10
86	0x3009ce9f	5.0133936e-10
87	0x3130c843	2.5725206e-09
88	0x30301f7e	6.407318e-10
89	0x2fb51a1f	3.2942268e-10
90	0x301ac0c4	5.629881e-10
91	0x2f67ed83	2.1093709e-10
92	0x308b5145	1.0136679e-09
93	0x2fd9578e	3.9534281e-10
94	0x30061a43	4.8786236e-10
95	0x2ffa5eca	4.5542087e-10
96	0x3036c1b8	6.6486505e-10
97	0x303c71fd	6.855599e-10
98	0x302a0c65	6.1863253e-10
99	0x302b0b92	6.222588e-10
100	0x30144bba	5.39497e-10
101	0x307d67ae	9.21882e-10
102	0x2f8cb90d	2.5597338e-10
103	0x2fae72ef	3.173208e-10
104	0x311310f0	2.1400943e-09
105	0x2f606778	2.0409441e-10
106	0x3021de33	5.8887223e-10
107	0x306c6569	8.600041e-10
108	0x303bb25d	6.8283673e-10
109	0x2f76cb55	2.2445808e-10
110	0x2fd34880	3.843219e-10
111	0x2fecbdf9	4.3063134e-10
112	0x2f1eedf5	1.4454556e-10
113	0x30867fe0	9.786127e-10
114	0x3070334d	8.7384394e-10
115	0x30945f08	1.0795427e-09
116	0x3074c2dc	8.9043595e-10
117	0x30700d9e	8.733084e-10
118	0x2ff2e5a7	4.418272e-10
119	0x3004654f	4.816529e-10
120	0x308251f2	9.482035e-10
121	0x2f9be338	2.8355784e-10
122	0x2ff21311	4.403309e-10
123	0x2fbadc07	3.3989542e-10
124	0x2f8a08ab	2.5108213e-10
125	0x2f83636d	2.3899407e-10
126	0x3054d853	7.7432566e-10
127	0x30fc7a93	1.8370251e-09
128	0x3012a91a	5.33548e-10
129	0x2f8e5fb0	2.589764e-10
130	0x2f4a3632	1.8391047e-10
131	0x2fa6d8b0	3.034919e-10
132	0x2f2dd8f1	1.5811331e-10
133	0x2f23ec7d	1.4908781e-10
134	0x3036a82e	6.645021e-10
135	0x3000d864	4.687364e-10
136	0x2f90fd1b	2.637329e-10
137	0x30a48919	1.1971536e-09
138	0x2fc2d4bc	3.543955e-10
139	0x2feb3a35	4.278761e-10
140	0x305e930e	8.0972107e-10
141	0x30308ab4	6.4225536e-10
142	0x2efb510c	1.1428555e-10
143	0x2fe67c05	4.1924877e-10
144	0x2fe3c95e	4.143414e-10
145	0x2f9650f2	2.7342356e-10
146	0x2f4ebf13	1.8803474e-10
147	0x305d6395	8.0540846e-10
148	0x306a5bf2	8.5259366e-10
149	0x2f44662e	1.7862398e-10
150	0x309cc8e6	1.1407593e-09
151	0x2f1cd9ca	1.4265492e-10
152	0x30fed459	1.8541285e-09
153	0x2fba831f	3.392637e-10
154	0x3030b2f2	6.4282724e-10
155	0x3042f22d	7.092094e-10
156	0x3050e8c7	7.6000756e-10
157	0x3049d68f	7.342828e-10
158	0x308346f1	9.551667e-10
159	0x3007a11f	4.934168e-10
160	0x2f3e1cf9	1.7290692e-10
161	0x2fef81c0	4.356604e-10
162	0x2faca97a	3.1407038e-10
163	0x30333a37	6.520255e-10
164	0x30137be2	5.3654337e-10
165	0x30400879	6.9861233e-10
166	0x2f641d2d	2.0746845e-10
167	0x3007303e	4.918127e-10
168	0x3001a7ff	4.7168663e-10
169	0x2f8fad6a	2.6134767e-10
170	0x2fe4760a	4.155683e-10
171	0x2fda4fdf	3.971072e-10
172	0x2ebde30c	8.6350566e-11
173	0x2ff8739b	4.519308e-10
174	0x3096d78f	1.0975202e-09
175	0x2fe40e2a	4.1483023e-10
176	0x2f9994ce	2.793627e-10
177	0x2ff0d3a6	4.380613e-10
178	0x30b07f42	1.2841854e-09
179	0x3031950e	6.4604044e-10
180	0x304eac75	7.518744e-10
181	0x2f8b0ac8	2.5291613e-10
182	0x30d59b0c	1.5541857e-09
183	0x306fb376	8.7202723e-10
184	0x30adef34	1.2655392e-09
185	0x308d1e31	1.0267681e-09
186	0x30e0042d	1.6299332e-09
187	0x3083bd00	9.585222e-10
188	0x304a6278	7.3627104e-10
189	0x307bb2ea	9.156752e-10
190	0x2fa60faf	3.0206368e-10
191	0x306487a8	8.3138696e-10
192	0x2faa68cd	3.0997285e-10
193	0x30682f83	8.4468627e-10
194	0x31250e3c	2.4018751e-09
195	0x2fa1f825	2.9462047e-10
196	0x2ffe7fb1	4.629306e-10
197	0x3067dfe2	8.4355467e-10
198	0x3037a2c3	6.680631e-10
199	0x2f424ab9	1.7670744e-10
200	0x3034a866	6.5722927e-10
201	0x306c5f95	8.599213e-10
202	0x2f113e16	1.320973e-10
203	0x3069cb67	8.505396e-10
204	0x3011b494	5.300731e-10
205	0x3058a71c	7.881782e-10
206	0x2ff66a47	4.4822654e-10
207	0x30d8af50	1.5765895e-09
208	0x3065b25b	8.3563173e-10
209	0x2fdb9a99	3.9945716e-10
210	0x2fbec028	3.4697334e-10
211	0x2f848ac6	2.4109265e-10
212	0x31223e8e	2.360966e-09
213	0x3038c223	6.7214695e-10
214	0x2ff36a36	4.427691e-10
215	0x2fc9cc36	3.6706788e-10
216	0x30bd84bf	1.3789289e-09
217	0x30305864	6.415404e-10
218	0x2fd30432	3.8383657e-10
219	0x2ffb9fba	4.5770127e-10
220	0x2fe794f2	4.2124487e-10
221	0x3063a6ad	8.281898e-10
222	0x2f5d7a45	2.0143272e-10
223	0x2fca7df8	3.6833092e-10
224	0x30839bef	9.575823e-10
225	0x2fe19fcc	4.1040804e-10
226	0x2fbc299a	3.422656e-10
227	0x3039c564	6.7583117e-10
228	0x301f7615	5.801167e-10
229	0x2f69dda8	2.1269975e-10
230	0x301f1c0a	5.788371e-10
231	0x2ffa20b5	4.5497975e-10
232	0x2f1840db	1.3847361e-10
233	0x30276c04	6.0907746e-10
234	0x30a14961	1.1735147e-09
235	0x3074dc08	8.9079366e-10
236	0x30782ea3	9.028815e-10
237	0x301f3636	5.79209e-10
238	0x304e933f	7.515161e-10
239	0x30738740	8.8595087e-10
240	0x3001b8c8	4.7192517e-10
241	0x2f357c38	1.6505985e-10
242	0x30aa9d53	1.2413842e-09
243	0x3064f790	8.3297724e-10
244	0x2fd2ff09	3.837999e-10
245	0x2ff057a2	4.3718013e-10
246	0x3092bdf0	1.0676882e-09
247	0x30ce09cb	1.4991256e-09
248	0x2f83f41b	2.4002209e-10
249	0x2fd8b316	3.941742e-10
250	0x2f214b7e	1.4669685e-10
251	0x300accb9	5.0495036e-10
252	0x2f2032a3	1.4569905e-10
253	0x2fb67584	3.3189107e-10
254	0x2fefa591	4.359149e-10
255	0x303df288	6.9102457e-10

exp_avg f4 [30]
0	0x2cf32238	6.9102744e-12
1	0x2d60ab5d	1.2770976e-11
2	0x2cc33720	5.5483534e-12
3	0xad182a66	-8.649614e-12
4	0xad272c3a	-9.502671e-12
5	0x2d878ee0	1.5411172e-11
6	0xad86278f	-1.5251604e-11
7	0x2d010d33	7.335732e-12
8	0xad134052	-8.3702646e-12
9	0x2d6e6eb9	1.3553319e-11
10	0x2d35a336	1.0324899e-11
11	0xac7f61af	-3.6291905e-12
12	0xadc14f5a	-2.1976799e-11
13	0x2c8c12f3	3.981143e-12
14	0xadb0c74d	-2.009739e-11
15	0xadf8615a	-2.8237569e-11
16	0x2e268bdc	3.786825e-11
17	0xad6f22da	-1.3593316e-11
18	0x2dc2982b	2.2122823e-11
19	0x2cf97694	7.0901705e-12
20	0xad073a69	-7.686831e-12
21	0xada002f2	-1.8191202e-11
22	0xaaf75320	-4.3933693e-13
23	0x2b92e0ac	1.0436283e-12
24	0x2c9b53eb	4.4146817e-12
25	0x2b2a1542	6.0425634e-13
26	0xad3a7caf	-1.0600561e-11
27	0xae13b6d9	-3.358633e-11
28	0xad8da653	-1.6103707e-11
29	0xad5cca37	-1.2550453e-11

exp_avg_sq f4 [30]
0	0x2477cd3b	5.3733424e-17
1	0x25358c7d	1.5746847e-16
2	0x283ecf4b	1.0592068e-14
3	0x28509a45	1.1579771e-14
4	0x26b0ccb4	1.2267938e-15
5	0x26536f47	7.335614e-16
6	0x261fa627	5.5389385e-16
7	0x24869265	5.836124e-17
8	0x28a33e71	1.8123715e-14
9	0x2802ccae	7.2608325e-15
10	0x23db3ca1	2.3769705e-17
11	0x2570da38	2.0890617e-16
12	0x28519ba1	1.1635577e-14
13	0x28a6bab6	1.8510675e-14
14	0x27bd5386	5.2548594e-15
15	0x27f14e75	6.6976e-15
16	0x27f96f8e	6.923233e-15
17	0x27de9bc6	6.1786268e-15
18	0x28776b99	1.3734586e-14
19	0x2204d03b	1.7999572e-18
20	0x2825c641	9.202329e-15
21	0x2864f85c	1.2710397e-14
22	0x26211313	5.5883946e-16
23	0x283b8002	1.04083425e-14
24	0x288d60ce	1.5696127e-14
25	0x21aff651	1.1923661e-18
26	0x285b4284	1.2171365e-14
27	0x283e80e8	1.0575071e-14
28	0x27942114	4.1114115e-15
29	0x288ea50e	1.5836748e-14

exp_avg f4 [5, 30]
0	0x35d242f5	1.5665706e-06
1	0x36f57391	7.3150227e-06
2	0x35d219e4	1.5653754e-06
3	0xb7183eb9	-9.07451e-06
4	0xb6d6ece2	-6.405274e-06
5	0xb6bff729	-5.721017e-06
6	0x364c3b67	3.0432946e-06
7	0xb74ed984	-1.2329201e-05
8	0x367ad16c	3.7374803e-06
9	0xb6758576	-3.658553e-06
10	0xb60c06d0	-2.086559e-06
11	0xb6ef3995	-7.1294585e-06
12	0xb7219ee5	-9.633343e-06
13	0xb6ce4449	-6.147228e-06
14	0x368c6dfb	4.1851285e-06
15	0xb62498c9	-2.4526837e-06
16	0xb6a226ea	-4.8325064e-06
17	0xb61c8c77	-2.3327573e-06
18	0x3740055a	1.1445338e-05
19	0xb72cac3f	-1.0292103e-05
20	0x36ffe435	7.626159e-06
21	0xb6a411a6	-4.8896354e-06
22	0x373b4c0c	1.1163775e-05
23	0xb71d0328	-9.358664e-06
24	0x36c2f9c4	5.810727e-06
25	0xb6542a60	-3.1615127e-06
26	0xb72a6273	-1.0155712e-05
27	0xb66ac83a	-3.4985264e-06
28	0x36a6ad05	4.9673276e-06
29	0x356280fb	8.437925e-07
30	0x37c65ae4	2.3645764e-05
31	0x37235a74	9.736617e-06
32	0x37eb3813	2.8040295e-05
33	0x377d32b1	1.5091778e-05
34	0xb7a003d9	-1.9075278e-05
35	0x37a1839b	1.925398e-05
36	0x358e49ba	1.0601282e-06
37	0x3792e2f5	1.7510241e-05
38	0xb79f37fc	-1.8980347e-05
39	0x37c0e288	2.299367e-05
40	0xb7c816af	-2.385242e-05
41	0xb3a8f199	-7.867056e-08
42	0xb6bef489	-5.690909e-06
43	0x3804c0c4	3.165078e-05
44	0x36ed4f28	7.0723654e-06
45	0xb7aef572	-2.085671e-05
46	0x372c3787	1.0264927e-05
47	0xb7e6f3da	-2.7531689e-05
48	0xb5badfb4	-1.3923186e-06
49	0x36e452c6	6.8045656e-06
50	0xb7992188	-1.8254636e-05
51	0xb7c48717	-2.3427927e-05
52	0xb70e8a01	-8.495991e-06
53	0x37d43dc5	2.5301133e-05
54	0xb71dc82d	-9.404536e-06
55	0x375c92bc	1.3147186e-05
56	0x36d19d1f	6.2469767e-06
57	0xb7cc6750	-2.4366804e-05
58	0xb7d6b411	-2.5594638e-05
59	0xb75d3ee9	-1.3187274e-05
60	0xb881899e	-6.1768325e-05
61	0x37d92eb3	2.5890162e-05
62	0xb844e7fe	-4.69461e-05
63	0xb83c1f9e	-4.485214e-05
64	0xb7274ec8	-9.972318e-06
65	0x38320beb	4.2449607e-05
66	0xb86bcc4a	-5.6218625e-05
67	0xb7b46207	-2.150332e-05
68	0xb7127dc4	-8.73156e-06
69	0xb7f5d4c0	-2.9305345e-05
70	0x383ca0ac	4.497233e-05
71	0xb6ba444e	-5.5511837e-06
72	0xb82a8f7c	-4.066479e-05
73	0xb85f1b12	-5.3192554e-05
74	0xb87f45c4	-6.0861712e-05
75	0xb732bf69	-1.0654193e-05
76	0x388f2d50	6.8272115e-05
77	0x3802d8d3	3.119635e-05
78	0x3855ad3d	5.0944498e-05
79	0x3796f0a9	1.799346e-05
80	0x379a8d91	1.8424153e-05
81	0x371042d2	8.598627e-06
82	0x383094b3	4.2100157e-05
83	0xb815844d	-3.5647583e-05
84	0x381040d8	3.4392666e-05
85	0xb704bc4f	-7.911657e-06
86	0xb78624a7	-1.5991112e-05
87	0xb842b36b	-4.64203e-05
88	0xb6d8e3f3	-6.4638384e-06
89	0xb8291a32	-4.0317136e-05
90	0xb7226f1b	-9.681821e-06
91	0xb79ca0cc	-1.8671526e-05
92	0xb77de0e0	-1.5132333e-05
93	0x37b8dbbb	2.203683e-05
94	0x3789dd7f	1.6434815e-05
95	0x37ce3d41	2.4585637e-05
96	0xb7bcedbf	-2.2522056e-05
97	0x382245b9	3.8688744e-05
98	0xb7ac4c3b	-2.0539495e-05
99	0x374da143	1.2256499e-05
100	0x378497cc	1.5806312e-05
101	0x379dab70	1.879569e-05
102	0x37d85947	2.579078e-05
103	0x374eb713	1.2321182e-05
104	0xb7db6e2c	-2.6158137e-05
105	0x3655e9c7	3.187555e-06
106	0x37e1b75d	2.6907475e-05
107	0x373c6f17	1.1231538e-05
108	0xb808b318	-3.259172e-05
109	0x3825cc16	3.9529135e-05
110	0xb807b8df	-3.2358683e-05
111	0x37b09c0b	2.1053498e-05
112	0xb80cb24e	-3.354466e-05
113	0x37d2a0e4	2.5108871e-05
114	0xb79a8368	-1.8419421e-05
115	0x360f7470	2.1376436e-06
116	0x37e9fc37	2.7893211e-05
117	0x3703833c	7.838764e-06
118	0xb754fa5d	-1.2694477e-05
119	0xb58d5473	-1.0529897e-06
120	0x3690ac58	4.311598e-06
121	0x370ae046	8.277659e-06
122	0x37650ff9	1.3653183e-05
123	0xb4c4c0e9	-3.6648206e-07
124	0xb71520fe	-8.888774e-06
125	0x3671b12f	3.6014933e-06
126	0x36c04be5	5.730881e-06
127	0xb69257bf	-4.361354e-06
128	0x3625beb9	2.4697931e-06
129	0xb580ecf4	-9.605706e-07
130	0xb7457a16	-1.177054e-05
131	0xb5c65424	-1.4776638e-06
132	0xb726b255	-9.935892e-06
133	0x36d5249c	6.3521566e-06
134	0x37056885	7.951753e-06
135	0xb6dbb4a8	-6.5477398e-06
136	0x3447a748	1.8594176e-07
137	0xb72a1902	-1.0138612e-05
138	0x37351b49	1.07947935e-05
139	0xb6fcfe06	-7.5397575e-06
140	0x37181f11	9.067139e-06
141	0xb7849f19	-1.5809712e-05
142	0x3713737e	8.788773e-06
143	0x361db5a6	2.3500556e-06
144	0x36edf7ac	7.091983e-06
145	0x37272193	9.961793e-06
146	0xb60e9183	-2.1244348e-06
147	0xb783c9cd	-1.5710388e-05
148	0xb737affe	-1.0948626e-05
149	0xb7591ee3	-1.2941399e-05

exp_avg_sq f4 [5, 30]
0	0x3083da8e	9.593621e-10
1	0x3154b77e	3.0954364e-09
2	0x31dca351	6.4214096e-09
3	0x31d2659d	6.1233565e-09
4	0x3159c31c	3.1688563e-09
5	0x30909663	1.0520121e-09
6	0x31e2a217	6.595893e-09
7	0x315a6173	3.1778569e-09
8	0x3167b9c7	3.3720526e-09
9	0x3023e33b	5.962197e-10
10	0x31a8081d	4.890366e-09
11	0x31558bb3	3.107499e-09
12	0x319dce0b	4.5927258e-09
13	0x31a6cb50	4.85435e-09
14	0x31e2c3fc	6.5997465e-09
15	0x30fe2721	1.8492053e-09
16	0x317e2462	3.6982546e-09
17	0x30d31940	1.5359447e-09
18	0x31a56590	4.8136783e-09
19	0x312e71ee	2.5385094e-09
20	0x318bb94b	4.066498e-09
21	0x317238ed	3.5247993e-09
22	0x315933da	3.160713e-09
23	0x319457de	4.3173563e-09
24	0x304e1ab8	7.4980333e-10
25	0x31dca5b3	6.4216805e-09
26	0x31ad828a	5.0498032e-09
27	0x30f7a855	1.8019458e-09
28	0x314f7eec	3.0194611e-09
29	0x3102999d	1.9004809e-09
30	0x31801df4	3.7286956e-09
31	0x30d90e08	1.5792816e-09
32	0x318cf890	4.1027945e-09
33	0x30dd4c98	1.6101636e-09
34	0x31883cfe	3.965055e-09
35	0x3194bfcc	4.3291717e-09
36	0x310d6045	2.0572923e-09
37	0x316157f6	3.279181e-09
38	0x31d4b275	6.1903003e-09
39	0x31c075bb	5.60132e-09
40	0x314e445f	3.001581e-09
41	0x2ffafd1a	4.5654575e-10
42	0x30b42aaa	1.310885e-09
43	0x31cc4168	5.9446172e-09
44	0x30e63add	1.6751432e-09
45	0x319ec151	4.6203827e-09
46	0x31660ddd	3.3477285e-09
47	0x31a62917	4.8359072e-09
48	0x309e699a	1.1526027e-09
49	0x311e4165	2.3029199e-09
50	0x31fa5ab7	7.2862707e-09
51	0x315a37ce	3.1754896e-09
52	0x30dd3e66	1.6097601e-09
53	0x31907649	4.204399e-09
54	0x30f5adb4	1.7875466e-09
55	0x30a038e2	1.1657699e-09
56	0x30430bf5	7.095758e-10
57	0x31a1fc63	4.7144098e-09
58	0x317483ba	3.558155e-09
59	0x3092661d	1.065192e-09
60	0x327c0c0b	1.4671069e-08
61	0x314ef350	3.0115253e-09
62	0x31fba883	7.324219e-09
63	0x3215d584	8.721489e-09
64	0x305a9c81	7.9530343e-10
65	0x3191a85b	4.239195e-09
66	0x320ad066	8.0800415e-09
67	0x3189a711	4.006218e-09
68	0x2f66c57d	2.098854e-10
69	0x31b48b9e	5.254562e-09
70	0x31e33688	6.612769e-09
71	0x2ff47919	4.4469387e-10
72	0x31fa0a19	7.2771056e-09
73	0x324ee0d6	1.20419e-08
74	0x32299160	9.870149e-09
75	0x2ff0fae9	4.3834028e-10
76	0x324feda1	1.2103016e-08
77	0x3190a777	4.20999e-09
78	0x324de78d	1.1985219e-08
79	0x30467002	7.2191153e-10
80	0x318e0ac0	4.133966e-09
81	0x30340f90	6.5505734e-10
82	0x3220c07d	9.3569925e-09
83	0x31e386ca	6.6218933e-09
84	0x31db9b88	6.3914207e-09
85	0x2fa14093	2.9331612e-10
86	0x30fc8e24	1.8375812e-09
87	0x3205432c	7.756892e-09
88	0x2f90e4a2	2.63559e-10
89	0x31e051fe	6.5285795e-09
90	0x31674602	3.365472e-09
91	0x318a8c84	4.0323034e-09
92	0x31839eaa	3.83064e-09
93	0x316c4363	3.4380825e-09
94	0x31a0c4a9	4.6789705e-09
95	0x319da725	4.5883035e-09
96	0x31b98917	5.399794e-09
97	0x3210b28f	8.422503e-09
98	0x3130277a	2.563381e-09
99	0x303593f5	6.6057676e-10
100	0x31817f22	3.7688475e-09
101	0x3173165e	3.5373868e-09
102	0x31d23374	6.117654e-09
103	0x30734822	8.850539e-10
104	0x31f480cf	7.1159785e-09
105	0x30e0cf9a	1.6357149e-09
106	0x31f60300	7.1598834e-09
107	0x31494bfd	2.9292544e-09
108	0x320186ad	7.53941e-09
109	0x322fc98d	1.0232168e-08
110	0x319b1ae3	4.5141504e-09
111	0x31966f67	4.3782395e-09
112	0x31e0497e	6.527613e-09
113	0x31544d4a	3.0893994e-09
114	0x30b194fc	1.2920789e-09
115	0x3016ee88	5.4908655e-10
116	0x31d745f9	6.2652785e-09
117	0x3105f15c	1.9491244e-09
118	0x30721688	8.8071106e-10
119	0x2fc11d34	3.5127246e-10
120	0x3020a4f9	5.84421e-10
121	0x3120cb27	2.3398543e-09
122	0x3208f3fd	7.971718e-09
123	0x3088aa54	9.943713e-10
124	0x311f0f01	2.3146074e-09
125	0x303a4c15	6.7774525e-10
126	0x31479361	2.9042087e-09
127	0x308dc943	1.0316302e-09
128	0x30f7895d	1.8010656e-09
129	0x307b9808	9.152932e-10
130	0x31c76b23	5.8038423e-09
131	0x30101bc3	5.2426347e-10
132	0x3180e5c7	3.751413e-09
133	0x31107ca6	2.1025612e-09
134	0x3182c908	3.8063526e-09
135	0x30afd61f	1.2793783e-09
136	0x30474e15	7.250674e-10
137	0x315486d4	3.0926701e-09
138	0x31ab8056	4.991345e-09
139	0x3132fd58	2.6046418e-09
140	0x31ef8340	6.970737e-09
141	0x322ae912	9.948296e-09
142	0x317aca58	3.6494807e-09
143	0x30771fba	8.990316e-10
144	0x315c46d3	3.2054472e-09
145	0x31e28b2e	6.5932886e-09
146	0x304f2688	7.536092e-10
147	0x32271883	9.726253e-09
148	0x31c37567	5.688594e-09
149	0x321b4d8e	9.039821e-09

exp_avg f4 [5]
0	0x2e0bfe0a	3.1830573e-11
1	0xadd5d318	-2.4309041e-11
2	0xae4f0ee9	-4.7079594e-11
3	0xacd2cda7	-5.991391e-12
4	0xad51e7a8	-1.19317126e-11

exp_avg_sq f4 [5]
0	0x2865b722	1.2751764e-14
1	0x26b8d434	1.2825083e-15
2	0x27ba3dd6	5.1692413e-15
3	0x28a08529	1.7821317e-14
4	0x234ed6b2	1.1212746e-17
