tutorial/DLPFC_output/version_3/checkpoints/mlp.ckpt (torch, 18997 bytes, 12 tensors)

model.classifier.0.weight f4 [30, 30]
00000000: 0b96 a4bc a182 023e 427e 0d3e dbd7 6f3d
00000010: f2a9 8ebd f438 91bc b207 613e dc27 efbd
00000020: d8b1 5dbb 86fd b83c d0cb f33d b19b e4bd
00000030: 7ffa 4bbd 4a21 4e3d dcf0 233e 99b1 833d
00000040: 5af5 b63c 4956 4abc 28d5 93bd 1783 b3bd
00000050: c211 61bd c817 bbbd 1154 c23d 7397 8bbc
00000060: c1ef 16bd 909c 033e 38a2 be3d 8959 1d3d
00000070: e10e 293e 0e7d aabc cc1a 0c3d 4519 3c3d
00000080: b69d 823d 0ec1 2c3e 5872 3abd 7a0d 37bd
00000090: dc58 223d 09d7 863d 7a3a 9f3d 9e09 bbb8
000000a0: 1d93 fc3d 8c12 42bd bc22 413e c1ff aabc
000000b0: 0169 f0bd f96c b0bd 747b 753d 4b24 38be
000000c0: 8267 173e 63ea 03bd 8e65 503d 65c1 d63d
000000d0: 68c8 15bd d856 1abd f0dd ff3d 9369 823c
000000e0: 036b 27be 8c28 d43d 9e68 15bb 36e7 b23d
000000f0: c236 fd3c a746 263c 78c4 483e 0c72 54bd
00000100: 6250 ba3d ec09 53bd 20c1 8e3e 5610 1abd
00000110: 2824 6dbe fc34 febd f091 6c3d 1341 e9bc
00000120: 6bc2 d5ba 94d4 a13d 988a 423e 88a6 e13d
00000130: 34d9 693e 92a8 fbbb d128 abbd 343f 49be
00000140: 71fe 843d 6760 db3d fd1e afbd 5f7b 25bd
00000150: f5d6 22be 8447 63bb 1dfb 3a3e c0db 11bc
00000160: 3390 423e e9d2 053c 8023 39bd c7a7 b63d
00000170: 6748 ed3c 6518 1f3e be9e aa3d 73fb abbd
00000180: 759e 453e 81be 053e 3e95 8b3c 115d 0e3c
00000190: ec5f 053e ac19 b7bd 1d65 65bc 3a52 b23c
000001a0: 423f 053d 0fd4 91bd 6780 a33d f971 2ebe
000001b0: e5bc b53d 318c 70be d7ee 6c3d fa81 ab3d
000001c0: ccb7 afbd b316 a1bd a8d6 4e3d 5759 fa3c
000001d0: e3b0 8cbd 935c 373d daa5 493e 9e07 8c3d
000001e0: dd67 82bd f696 d53d 51ce 21bd 577e 163e
000001f0: 3779 393c 2e02 2ebd 5223 b83d 1045 983d
00000200: fd55 e43d 0ed5 9e3d 4d4b cc3d b4c2 bdbd
00000210: 82ef 6cbd f5a9 c4b8 c51e 4c3c 8ec5 9fbd
00000220: 6b74 51bd 6844 e8bd 681e 933d 9929 fabd
00000230: 115d 17bc bd1f d2bc 1b28 013c 04cf 43bd
00000240: 976a b63d 2e2f 8c3d 4cf1 b1bd 1298 223d
00000250: 2bac 043e 30dc 063d 6aca 663c c1df 5c3c
00000260: 78c5 2a3d 244f 0c3d 34ee d63d a8ea 84bd
00000270: 60a2 0a3e af79 733d e7e0 10be ad4f e7bd
00000280: 0abc 143c f6b4 763c ff34 6d3d 9441 263d
00000290: 2edb 2c3d 87ea ed3c a86f 183e 71ec c5bd
000002a0: ba91 3f3d 4aae 12be 8b9c ba3d b352 193e
000002b0: 7f22 1bbe de8c ddbc 4af1 9cbd 4796 6abd
000002c0: b7b2 c9bc c165 d1bc aa7d fc3d ac76 ae3d
000002d0: 5952 73bb 402f 953d 4e14 3c3e 5432 67bd
000002e0: e071 e8bd 5a10 063d d7fb 303e a37b 4cbe
000002f0: 2fd7 aebc 5624 183d bde8 be3d f724 c0bd
00000300: 0b73 c8bd 5b04 483d a4c9 4b3e e2f9 dc3d
00000310: 8119 c33b fecc f33d 4db3 36be 8474 19bc
00000320: 5ffc bfbd d517 30be 5339 3f3e d95e e53b
00000330: 76f1 a1bd 3cd6 113e 5f3f 5b3e 18a5 f23c
00000340: bcba c83d ae46 d4bd 6189 533b 81ec 01bd
00000350: b984 18bd d8cc 2e3d f995 cf3c 5f94 04bc
00000360: 9aaf 4fbd bdb7 c43d e227 5b3d d8ae cb3c
00000370: ce00 4d3c ccad 253b 686c 213d cb19 fabc
00000380: 5e51 bfbd 0c3b 96bd c515 03bb 2de0 45bd
00000390: 00ab 943d e105 b5bb ce43 f43c 40de 643d
000003a0: 1c32 0bbd ba96 b3bc 0b9a 9c3d 2956 ecbc
000003b0: cd13 89bd d045 013d 5275 46bd c75b 953c
000003c0: 9ff7 68bc 3bb1 9c3d 901a d93d a8d7 f9bc
000003d0: 980b 44bd 9541 0d3c 1edc 2b3e 4c2b 2abe
000003e0: 70aa 78bd 839b b93b c845 183d fd9b 8abd
000003f0: 80b5 c1bd 57f1 643d c7e9 413e c242 ed3d
-0.020091077 0.12745143 0.13817695 0.058555465 -0.06966008 -0.017727353 0.21975592 -0.116775244
-0.0033827927 0.022581827 0.119041085 -0.11162508 -0.04979944 0.050324716 0.1600985 0.064303584
0.02233379 -0.012349674 -0.07218391 -0.08765238 -0.054948576 -0.09135395 0.09488691 -0.01703999
-0.03684974 0.12852693 0.093082845 0.038415466 0.16509582 -0.020811584 0.034205243 0.045922536
0.06377737 0.1687052 -0.045519203 -0.044690587 0.039635524 0.065839835 0.077748254 -8.918646e-05
0.12332747 -0.04738097 0.18860906 -0.020873906 -0.11738778 -0.08614535 0.059932187 -0.17982595
0.14785579 -0.03220595 0.0508781 0.10486106 -0.036568075 -0.037680477 0.12493503 0.015919482
-0.16349415 0.10359296 -0.0022797952 0.08735506 0.0309099 0.010148681 0.19606197 -0.051866576
0.09097363 -0.051523134 0.27881718 -0.037613235 -0.23158324 -0.1241245 0.057756364 -0.028473413
-0.0016308551 0.07901874 0.18998182 0.110180914 0.22836763 -0.0076800073 -0.083573945 -0.19653016
0.06493843 0.10711747 -0.085508324 -0.04040086 -0.15902312 -0.0034680078 0.18259855 -0.00890249
0.1900032 0.008167961 -0.04519987 0.0891872 0.028965188 0.1553665 0.08331059 -0.083975695
0.19298728 0.13060953 0.017038938 0.008689181 0.13024873 -0.089404434 -0.014001158 0.021767724
0.03253103 -0.07120525 0.07983475 -0.17035665 0.088739194 -0.23490979 0.057844963 0.083744004
-0.08579978 -0.07865658 0.05049768 0.030560179 -0.06869676 0.04476602 0.19692174 0.0683739
-0.063674666 0.10429184 -0.0395034 0.14696632 0.011320404 -0.042482547 0.08991112 0.074350476
0.111492135 0.07755481 0.099753 -0.09265652 -0.0578456 -9.377665e-05 0.012458508 -0.078013524
-0.051136415 -0.113411725 0.07183534 -0.122149654 -0.009238497 -0.0256499 0.007883097 -0.047804847
0.08907049 0.06844936 -0.08688602 0.039695807 0.12956302 0.03292483 0.014086345 0.013481081
0.041692227 0.034255162 0.104946524 -0.0649007 0.13538504 0.05944222 -0.14148293 -0.11294494
0.009078035 0.015057793 0.05791187 0.040589884 0.042201214 0.029042495 0.14886343 -0.09664238
0.046769835 -0.14324299 0.091118895 0.14972953 -0.15149878 -0.02704471 -0.0766321 -0.057272222
-0.02462135 -0.025561215 0.12328656 0.085187286 -0.003712794 0.07284403 0.1836712 -0.05644448
-0.11349845 0.032730438 0.1728357 -0.19969039 -0.021342842 0.037144028 0.09321735 -0.093820505
-0.09787568 0.04883228 0.19901139 0.10789849 0.005953968 0.119043335 -0.17841835 -0.009366158
-0.09374308 -0.17196591 0.18674211 0.006999832 -0.07907383 0.1424188 0.21410893 0.029619738
0.09801242 -0.103650436 0.003227793 -0.03171969 -0.03723595 0.042675823 0.025340067 -0.008092015
-0.050704576 0.09605358 0.053504832 0.024863645 0.012512399 0.0025280593 0.039410025 -0.030529877
-0.093416914 -0.07335481 -0.002000199 -0.048309494 0.07259178 -0.0055243825 0.029817488 0.055876017
-0.033983335 -0.021922458 0.07646569 -0.028849678 -0.0669323 0.03156072 -0.04845173 0.01823224
-0.014219194 0.076509915 0.106007695 -0.03049834 -0.04786262 0.008621593 0.16783187 -0.16618079
-0.060709417 0.0056642904 0.037175924 -0.06768034 -0.094584465 0.055894222 0.18936835 0.11584999

model.classifier.0.bias f4 [30]
00000000: 4e41 b4b4 761f d7b2 96fd 3fb4 8d68 bab3
00000010: c8f6 e8b3 5afa 7fb3 094d 21b4 0bb4 2f33
00000020: c5ba f8b3 e05b 45b4 5477 2934 b76b bfb2
00000030: 461c 4c34 3509 ab33 c733 04b3 4aa2 1bb4
00000040: ee00 25b2 e1a2 1f34 2ec0 8333 e314 3ab4
00000050: 39e4 1bb2 3a68 08b4 a0c4 45b3 472a bfb3
00000060: 68d5 cb32 7476 12b3 7f78 aa33 e63a beb3
00000070: 321d c334 f698 2eb2
-3.3575128e-07 -2.5043601e-08 -1.7880515e-07 -8.6803176e-08 -1.0848231e-07 -5.9599508e-08 -1.5022319e-07 4.090911e-08
-1.1582373e-07 -1.8380479e-07 1.5782763e-07 -2.228431e-08 1.9009266e-07 7.964483e-08 -3.0780736e-08 -1.449454e-07
-9.604475e-09 1.4867284e-07 6.13512e-08 -1.7330198e-07 -9.074079e-09 -1.2703904e-07 -4.6046466e-08 -8.901821e-08
2.3729356e-08 -3.4101006e-08 7.93816e-08 -8.858278e-08 3.6342823e-07 -1.0162912e-08

model.classifier.1.weight f4 [7, 30]
00000000: af58 3f3e fa98 893e e06b 9dbd 5046 843e
00000010: ec55 933e 1f13 513b f12d dc3c c5e6 2c3d
00000020: 2960 183d bde2 143e cceb babd 733d 9b3e
00000030: 74c5 1f3d 9724 003e 9d13 98be cb29 88bd
00000040: affa 8fbe 8537 783e 1cb5 88be b0f2 47be
00000050: 8222 623d 4037 e5bd d0ee 48be d0b2 793d
00000060: e0da de3d 2d70 063d a83a 93bd 7bbd 40be
00000070: a894 223e 17ab f83d b669 9e3e cf77 32bc
00000080: 47c9 093f b52f a83e 45fc e93d 1842 603e
00000090: 80f5 9a3e 9611 8abd e2d0 823e fd84 c53e
000000a0: d772 cdbe a34a cfbd d852 ddbe fca0 00bf
000000b0: 4bf7 39be fb3d be3e 36e7 723c 344e 81be
000000c0: a07c 343d 0539 d33e a741 3dbd 4495 c13e
000000d0: 803c 74bd 7787 e93d afd9 2a3e 2cef 1fbe
000000e0: c707 f0be fe25 a53e 0a8c 9cbd 2420 dabd
000000f0: 27f3 b5bd a8d6 c43d 4435 d43d c847 303e
00000100: 29d8 363d 9bb5 653e 8c7f 6bbe 6a8d f23c
00000110: 53fe 0fbe 2a90 913d 2f58 0abc eb8a 223e
00000120: cb98 33be a504 45be afa2 5bbe dbd0 b8bd
00000130: 0051 b73d 0fdc 313c 08c6 223d 555c 793d
00000140: 8b53 85bd c088 323c a0dd 6cbe d6e0 cb3c
00000150: 7d5b 243e af0c 6fbe 6244 09bd 3069 be3d
00000160: 1213 2c3e 214b e0bd 2df7 7bbe 0d08 22bd
00000170: 1875 8fbd 7f99 1fbe af8f 25be 8b98 2abd
00000180: 9f58 31be 6743 a03d 6362 3fbe b8b4 58be
00000190: 8a96 f53d e927 bdbd 4ab8 34bd e871 723c
000001a0: 99ab f03d 5256 9ebc 481a 673d c43d 81bd
000001b0: 3542 813d 6a46 babc 9bfe f3bd 44d8 d7ba
000001c0: 44da a83b 2484 a4bd 8ea0 20be 1ee7 8e3d
000001d0: 1600 3e3e 60cb 023c 0a52 48bd 7f20 f0bc
000001e0: 9930 953c f4dd 47be c625 9abe 85bc 30bd
000001f0: 6db5 183e ff3c 90be 47b0 d33d 0d07 ad3b
00000200: 793d ef3c d1d8 a9bc 5455 bc3e b981 0e3e
00000210: 7c33 ad3e 6668 c63e c2df 23be ae34 d4be
00000220: 80cb f53d 74e1 ce3e 6eec 5b3e b53d 89be
00000230: 4296 993e e917 d5be 7d00 a23d ac76 9abe
00000240: 79b6 943e 3b9a f03c 3ee8 99bc b76b a2be
00000250: 3711 393d b844 283e 5a9e d03d 3426 e23d
00000260: a0ea 08be d808 1bbe 136a 4bbd 5be2 55be
00000270: bea2 673e 38f0 72bc 1d1f fa3c 5457 b3bd
00000280: b804 10be 8e3d 23be f05f e83d 4ec8 713e
00000290: f99f a63e ad36 663e ca45 adbe fd2d a4bd
000002a0: f2a2 c1be 94af 3abe 588f 0abd 0254 173e
000002b0: 485c 763e 525f 8f3e bc4e b7be 430e dd3e
000002c0: ed4c 343e b7c8 dcbd e314 66be 7495 1f3e
000002d0: 7d40 603e 579a b6be d856 753e dafb 74be
000002e0: 6853 39be 5e0f 3ebd 66aa db3e fb4d 67be
000002f0: 1c90 c43e 2fb3 8c3d 46cf febd c50c c9be
00000300: 0322 023d 01b6 3bbe c6f7 ac3e 594f 873e
00000310: b05d 8f3e 2d0a a0be 93ec 963e 08a3 b73e
00000320: 5131 343e 5380 143e 2208 bc3e 2401 5b3d
00000330: ddfc cdbd 2b4b 9bbd 76d4 78be 3c27 853e
00000340: cbc2 5bbe a05f 9fbd
0.18686174 0.26874524 -0.07686591 0.25834894 0.2877649 0.0031902266 0.026877375 0.042212266
0.03720108 0.14539619 -0.09127006 0.3032032 0.039006665 0.12513958 -0.29702464 -0.066485964
-0.28120944 0.24239929 -0.26700675 -0.19526172 0.05520869 -0.11192179 -0.1962235 0.060961545
0.10881591 0.032821823 -0.07188922 -0.18822281 0.1587702 0.12142008 0.30940026 -0.010892822
0.5382275 0.32848898 0.1142507 0.21900213 0.30265427 -0.067416355 0.2554999 0.38578025
-0.40126678 -0.10121658 -0.43227267 -0.5024564 -0.18160741 0.37156662 0.014825633 -0.25254977
0.044064164 0.4125444 -0.04620519 0.37809193 -0.05962801 0.11402791 0.16684602 -0.1561858
-0.46880934 0.32255548 -0.07643898 -0.106506616 -0.08884268 0.09611255 0.10361722 0.17214882
0.04463974 0.22432558 -0.22997874 0.029608447 -0.1406186 0.07107575 -0.008443876 0.15873305
-0.17538755 -0.19240053 -0.21448778 -0.09024211 0.089509964 0.010855689 0.03973964 0.06087907
-0.06510075 0.010896862 -0.23131418 0.024887484 0.16050525 -0.23344682 -0.03351248 0.09297407
0.1680415 -0.1095183 -0.24606009 -0.03955846 -0.07004756 -0.15585898 -0.16168092 -0.041649383
-0.17318963 0.07825356 -0.18689875 -0.21162689 0.11991604 -0.09236128 -0.044121064 0.014797665
0.1175148 -0.01932827 0.056421548 -0.06310609 0.06311456 -0.022738654 -0.119137965 -0.001646765
0.0051529724 -0.08033016 -0.15686247 0.06977676 0.1855472 0.007983059 -0.048906364 -0.02931237
0.01821165 -0.19518262 -0.30106944 -0.043148536 0.14912958 -0.28171536 0.103363566 0.0052803815
0.029204117 -0.020733269 0.3678385 0.13916673 0.33828342 0.38751525 -0.16003326 -0.4144644
0.12001705 0.40406382 0.2147691 -0.2680489 0.2999745 -0.41619805 0.079102494 -0.30168664
0.29045466 0.029370418 -0.0187875 -0.31722805 0.045182433 0.16432464 0.10186453 0.11042443
-0.13370752 -0.15140092 -0.049661707 -0.20887129 0.22620675 -0.01482778 0.030532414 -0.08756891
-0.140643 -0.1594145 0.113464236 0.23611566 0.32543924 0.22481795 -0.33842307 -0.08016584
-0.3781963 -0.1823104 -0.03382811 0.1477814 0.2405864 0.2800241 -0.35802257 0.43174943
0.1760747 -0.10780471 -0.22468905 0.15584356 0.218996 -0.35664627 0.2395891 -0.23924199
-0.18098223 -0.046401374 0.4290344 -0.22588341 0.38391197 0.06870114 -0.12441878 -0.39267555
0.031770717 -0.18331148 0.33782786 0.26427725 0.28001165 -0.31257764 0.29477367 0.3586657
0.17596938 0.14502077 0.36724955 0.053467885 -0.100579955 -0.075826965 -0.24299797 0.26006496
-0.21461026 -0.07781911

model.classifier.1.bias f4 [7]
00000000: 7234 58b5 11d8 1eb4 0c2a 6db3 f1aa b6b3
00000010: 4a90 81b3 32a1 39b4 0d11 b1b4
-8.054259e-07 -1.4793501e-07 -5.5219104e-08 -8.5061295e-08 -6.0332766e-08 -1.728811e-07 -3.2981225e-07

exp_avg f4 [30, 30]
00000000: 2edf f0b5 8fab e4b5 5ab9 78b6 37f4 6fb5
00000010: 37d3 4335 55b4 3cb5 bf0c e8b5 d955 b332
00000020: fd51 9b33 812e 2fb6 cca0 0fb6 1439 4f36
00000030: 55df e635 bec1 4eb5 e81f a0b5 e896 e634
00000040: aff5 c035 762d 33b5 c6c9 2db6 0599 9e35
00000050: f621 5fb5 177d f1b4 f7a1 06b5 36b1 5435
00000060: 000a cdb5 880e 12b5 6c2f 2ab6 ee39 85b5
00000070: 5e31 77b6 b5f8 94b5 78ae 5db5 38df 1f35
00000080: f856 2ab5 3dcb 0d34 a178 9435 4844 98b4
00000090: aa64 4935 cd0b 90b4 1cbd eab4 4d6d 26b4
000000a0: 82c3 61b4 d485 9c34 ba66 e0b2 4af5 ea34
000000b0: 4ffc 3e35 dbad 2633 b572 d5b4 279d 51b4
000000c0: 7032 fd33 746d 0fb3 fa46 0134 bf59 fa34
000000d0: 2a4d a1b4 35cc 1fb5 7572 40b5 ecd9 1f34
000000e0: 9c47 11b4 0d71 fa32 d436 9235 eb73 a635
000000f0: fbf0 82b6 372b 56b6 b647 b2b6 7fa5 75b6
00000100: b602 8d35 6e8f d2b5 c6ac 57b6 4ab0 f6b5
00000110: cd89 6fb5 e03c c5b6 3e32 1fb6 576f c836
00000120: 7f62 6936 6db3 8134 d070 0134 67f1 ca35
00000130: 772d 2d36 011e f3b5 9719 e0b6 f47d b335
00000140: de5a beb5 d08a eeb5 bb0f 59b5 39cd c635
00000150: 6a3a 6eb6 dbba 33b4 c39a 72b6 a8de 32b6
00000160: 006a d3b6 9a51 0cb6 0e34 6ab6 e1d8 3cb6
00000170: c0f2 6db6 9717 f7b5 a4e3 f535 e1e1 78b5
00000180: e6fa ddb5 89da 8cb3 97d3 48b5 0aab 6eb6
00000190: 90eb 81b5 f3b8 7636 01b0 0136 2d52 33b3
000001a0: cb68 d934 9823 6235 cc91 d735 7c44 a1b5
000001b0: 714f 8eb6 9b6a e034 c3b3 06b5 ca01 86b5
000001c0: f8bb efb4 93aa bc34 c3d9 4cb6 afe1 5734
000001d0: b0b8 0ab6 6089 b1b5 0cee 51b6 e239 71b5
000001e0: d34b b6b5 4c0e ceb5 d982 c6b5 e1ae c8b4
000001f0: 20bb 9635 ec8a 47b4 2d72 24b5 1240 2035
00000200: 0633 b0b4 7c68 90b5 a9f9 90b4 ddcf 9b35
00000210: 77aa 1e35 2323 f4b4 9e05 3734 6c37 8833
00000220: bb24 0335 94c3 ceb4 4de6 8bb5 8845 83b3
00000230: c1da b933 8850 b6b3 5872 2fb4 43ce efb3
00000240: a1f1 8db5 5795 3733 3f5c 58b5 9519 05b4
00000250: 90a4 9cb5 6dfb 9fb4 11fa 0fb6 c4ec 2bb5
00000260: 8fb4 0db6 e986 c7b5 264f d334 a815 6fb5
00000270: dfa9 0eb5 b969 cab5 1848 85b5 49a7 58b6
00000280: c416 6db5 6a02 3536 4875 f135 ec6c 8435
00000290: 7366 2535 e545 a635 5200 a035 d4da 1ab5
000002a0: 2aca 5fb6 4236 2535 77f2 aeb4 2690 a7b5
000002b0: 82dd a4b4 dcf8 2335 66e6 35b6 f501 d334
000002c0: 7400 13b6 f601 d5b5 ad5c 3eb6 11ae f5b3
000002d0: 685a 99b5 9df7 34b6 1237 6ab6 9407 98b5
000002e0: 5a4a da34 7017 c5b4 7887 53b6 9161 8b34
000002f0: ab4d 6935 35d3 f5b5 4683 f6b5 4651 4a36
00000300: b18a a435 7792 bfb5 09a2 f2b5 720e bbb4
00000310: 9ed2 b835 e129 84b4 ab62 1cb6 5487 a635
00000320: e8e3 08b5 90df d7b4 cd92 2a34 c7a7 8235
00000330: 97af 19b5 2bab 9db5 5a48 25b6 fe3d 57b5
00000340: 4fb2 34b6 d2ec f9b5 9930 9cb3 e9a8 9b32
00000350: dc20 3e35 5b25 a534 a94c 3c35 1b08 2734
00000360: de91 8a35 7b39 7b35 ffd5 2db4 4b7e 1d35
00000370: 5052 2735 33a8 4fb5 a74b 17b5 45dc 4634
00000380: b200 be34 bd82 e0b3 0f64 a5b4 f5fc 1e34
00000390: 0f0d 1435 aa74 0fb5 4057 9b34 b68f e234
000003a0: 7e8d e533 ee9b 0cb5 5a25 e633 c84e 7a34
000003b0: a555 9035 054e c634 bce7 8235 64ab f334
000003c0: 109a 56b5 9de1 04b6 3665 2db6 f714 59b5
000003d0: d716 aab4 4e8d e8b4 fedc 19b6 8435 a5b5
000003e0: f00a e234 a3bd feb5 c5a6 cdb5 6331 2436
000003f0: baec f135 3a1f 3bb5 1bfb 0db6 4167 a934
-1.7946347e-06 -1.7037254e-06 -3.7062769e-06 -8.938982e-07 7.295052e-07 -7.0297875e-07 -1.7289057e-06 2.0877382e-08
7.2326635e-08 -2.61041e-06 -2.1402257e-06 3.0878628e-06 1.7201334e-06 -7.702291e-07 -1.1930215e-06 4.2950637e-07
1.4376618e-06 -6.674885e-07 -2.5896456e-06 1.1816452e-06 -8.3123393e-07 -4.4980763e-07 -5.015458e-07 7.923403e-07
-1.5276601e-06 -5.4410384e-07 -2.5359577e-06 -9.926132e-07 -3.6834604e-06 -1.1099243e-06 -8.25828e-07 5.955694e-07
-6.345649e-07 1.3205586e-07 1.1061967e-06 -2.8361887e-07 7.502482e-07 -2.6830676e-07 -4.3723492e-07 -1.5499718e-07
-2.1025883e-07 2.9154637e-07 -2.6123747e-08 4.3764368e-07 7.1147673e-07 3.8808007e-08 -3.9757802e-07 -1.9521813e-07
1.1790405e-07 -3.339433e-08 1.2039882e-07 4.6631428e-07 -3.004473e-07 -5.9529276e-07 -7.169213e-07 1.4887308e-07
-1.3530229e-07 2.915524e-08 1.0893805e-06 1.24017e-06 -3.9023557e-06 -3.191364e-06 -5.3131616e-06 -3.6604176e-06
1.0506108e-06 -1.5687963e-06 -3.2138064e-06 -1.8379735e-06 -8.9234965e-07 -5.8781443e-06 -2.372209e-06 5.973426e-06
3.4777038e-06 2.4158672e-07 1.2055102e-07 1.512043e-06 2.5805473e-06 -1.8113643e-06 -6.6786993e-06 1.3373196e-06
-1.4182549e-06 -1.7772782e-06 -8.086169e-07 1.4811877e-06 -3.5498765e-06 -1.6738652e-07 -3.6150893e-06 -2.665367e-06
-6.30063e-06 -2.0909124e-06 -3.4899017e-06 -2.8140423e-06 -3.545705e-06 -1.84098e-06 1.8320175e-06 -9.2715896e-07
-1.6538804e-06 -6.559009e-08 -7.481371e-07 -3.5564321e-06 -9.679807e-07 3.6764511e-06 1.9324946e-06 -4.1751424e-08
4.0495647e-07 8.4243356e-07 1.6061181e-06 -1.2015366e-06 -4.241178e-06 4.1800817e-07 -5.018048e-07 -9.984299e-07
-4.4653984e-07 3.5141838e-07 -3.0525123e-06 2.0105539e-07 -2.0671105e-06 -1.3227509e-06 -3.1281988e-06 -8.9863727e-07
-1.3582124e-06 -1.5352357e-06 -1.4790231e-06 -3.7380144e-07 1.1230331e-06 -1.8583859e-07 -6.126091e-07 5.969788e-07
-3.281968e-07 -1.0759245e-06 -2.7003742e-07 1.1608896e-06 5.9107646e-07 -4.5474107e-07 1.7045247e-07 6.343075e-08
4.885475e-07 -3.8512792e-07 -1.0423333e-06 -6.1128105e-08 8.654525e-08 -8.489684e-08 -1.6339743e-07 -1.11668236e-07
-1.0575642e-06 4.274383e-08 -8.0600506e-07 -1.2395897e-07 -1.16708e-06 -2.9798994e-07 -2.1454218e-06 -6.4047003e-07
-2.1115736e-06 -1.4865919e-06 3.93594e-07 -8.906595e-07 -5.314632e-07 -1.5080942e-06 -9.930254e-07 -3.228388e-06
-8.832251e-07 2.6972507e-06 1.7990033e-06 9.866467e-07 6.1616373e-07 1.2388306e-06 1.1921022e-06 -5.768791e-07
-3.3347264e-06 6.1546245e-07 -3.2586442e-07 -1.2484422e-06 -3.070855e-07 6.108437e-07 -2.7105211e-06 3.9303237e-07
-2.190497e-06 -1.5870307e-06 -2.836615e-06 -1.1440364e-07 -1.14257e-06 -2.696622e-06 -3.4900772e-06 -1.1327088e-06
4.0659762e-07 -3.6711162e-07 -3.1520303e-06 2.5961756e-07 8.6912286e-07 -1.8315392e-06 -1.8366634e-06 3.0147653e-06
1.2259317e-06 -1.4273236e-06 -1.8077563e-06 -3.4841975e-07 1.3770366e-06 -2.4617387e-07 -2.3303244e-06 1.240735e-06
-5.0995595e-07 -4.0209534e-07 1.588589e-07 9.734584e-07 -5.725246e-07 -1.1747228e-06 -2.462903e-06 -8.018395e-07
-2.692588e-06 -1.862087e-06 -7.273156e-08 1.8121186e-08 7.082833e-07 3.0760825e-07 7.014701e-07 1.5556036e-07
1.0324254e-06 9.358843e-07 -1.6189732e-07 5.867084e-07 6.233213e-07 -7.735827e-07 -5.636197e-07 1.852032e-07
3.5390764e-07 -1.0454594e-07 -3.0806447e-07 1.4806922e-07 5.51533e-07 -5.344142e-07 2.8934483e-07 4.2200344e-07
1.0689381e-07 -5.238097e-07 1.0717004e-07 2.3311725e-07 1.0753762e-06 3.693714e-07 9.753198e-07 4.538698e-07
-7.99454e-07 -1.9800857e-06 -2.5837921e-06 -8.086931e-07 -3.1681586e-07 -4.331618e-07 -2.292741e-06 -1.2309033e-06
4.2103738e-07 -1.8979666e-06 -1.5322227e-06 2.4466651e-06 1.8024796e-06 -6.970837e-07 -2.11568e-06 3.155383e-07

exp_avg_sq f4 [30, 30]
00000000: 3cf9 972e f2ec ea2f 1298 082f 489f ad2f
00000010: 547f 542f 146f 172e a7e1 2830 6cc0 e22f
00000020: 5b78 bf2e 747f b32e 211a b22f c87a 932f
00000030: aa1f 6b2e 328a b12e 1ca5 2830 b621 302f
00000040: 442c f82e 7bcf 932f ba97 a92e aaa5 8e2e
00000050: a176 fa2e 5574 a42f 24ad 992f 78cd fb2d
00000060: ab53 312e f822 902f a5f1 892e ac65 062e
00000070: 7f89 1a30 8625 562e a53d 052d e6cb 332e
00000080: 4377 562e 0fa3 e62e 1e63 0a2e 05a6 642d
00000090: 7f93 272e 2122 0d2e 9919 c12d bef8 0a2e
000000a0: a0b6 2a2e 49ab 952e 830c 112e 244c 7e2d
000000b0: 4576 3e2e e30d 532d 27a0 572d 70c9 2f2f
000000c0: 8f07 822e 5fb4 892d 6883 072e 3525 842e
000000d0: f49b 0b2e bac0 552e 4d0f a72d c8af 9e2d
000000e0: 0901 9f2d c60e 372e 72d9 022f 2af6 492e
000000f0: ddff 8d2e 52c0 e92e e19d 002f d42a 802f
00000100: 1587 e92e 73d0 7d2e 64f0 8a2f 262f 0a2f
00000110: 91f5 522f 97dd 7f2f 5581 0c2f 9afb 652f
00000120: 9636 522e f92b ea2e 32f2 ef2e 06e2 292f
00000130: a1a0 e02f 01e2 2c2f 311d 752f de18 002f
00000140: 5080 832e 8386 042f ea86 3d2f 534e 942e
00000150: 993f a02f e162 a72e 72ed 2d2f 660c 012f
00000160: 2ed1 9f2f 3e4d 102f 3d0b bb2e 40a7 d92f
00000170: 40e9 832e da7c 8e2f b022 842e c412 9b2e
00000180: ece5 232f 6270 fd2e 409e d82e 010a 8f2e
00000190: ff80 e62e ef12 702f eec8 952e 09d5 272e
000001a0: 1b30 822e 729f 732e 63f8 8e2e abc1 242f
000001b0: b0f4 ea2e 9ac5 612f c550 422e 322d 9a2e
000001c0: 4904 952e 79b8 052e 1dcb 0a2e b727 162f
000001d0: 3e12 182f 2467 222e 5430 bc2f 3ab1 c82e
000001e0: c530 672e e4d4 c82f 57a1 6a2e cc2f bf2f
000001f0: cf34 442e a04f ab2d 66c6 b62f 2889 b62e
00000200: ef9d 312d 7dd8 cb2d ae54 762e 0584 a42e
00000210: 8233 5b2d 2c81 da2d d6f8 b32e 5e6e 032e
00000220: 116d ed2d ae70 772f 43a0 5a2e 911e b12e
00000230: 3002 682d 7acb a22e 1579 282e 2a23 552d
00000240: ab45 2e2d 980e 592e 0d01 052e 77b5 882d
00000250: da8a 1130 dc44 c82e 5042 ad2e ce74 1a30
00000260: d6ab b02e acc0 a72f 10bf 222e c023 be2e
00000270: 223c 912f d53d 162e b61f 152e 9aa1 0a2f
00000280: 521c d32e cafe 3f2e 01bc 152e 7ec6 4c2e
00000290: c96d 2f2e c276 e52d 6caf f62d bc55 4430
000002a0: b672 9b2e d703 792f 778f a72d f7b9 062f
000002b0: 3964 062f 92cf f22d 226d 062e 9c11 782e
000002c0: 66a0 fc2f 607e 9f2e 2868 f02f b254 7f2f
000002d0: 58f8 2c2e 170a d02e 8a56 772f 4645 fd2e
000002e0: 0c58 552f c947 b62e 44c5 612f d3ec 962f
000002f0: 8a71 952e 882b 1c2f 9158 352f a6bf 412f
00000300: d509 122e 0c9d 9e2e 1b64 ec2f ff06 832e
00000310: 6405 ca2e efe8 3a2f 2932 222f d822 0d2f
00000320: 356e 8e2f 0868 9b2f f002 0030 49cb 1d2e
00000330: 7127 792e 8ac0 612f 0647 072f 0ee7 932e
00000340: da89 182f 8e43 192f ed28 a62d 0a90 6c2f
00000350: f8d7 4f2d 82b0 7f2e 7ee7 ee2e 59bd 552d
00000360: bab1 922e 17ad 4b2f 6cf3 472e 8188 0a2d
00000370: bffc 882e 3cd1 282e 1922 652e c17e ef2d
00000380: 6043 092f 1731 d42d 7c85 1e2e 7932 902e
00000390: 4e95 822d 6bbe e22d 4843 952d 7ebb 682f
000003a0: f238 4c2e 0bbf 442d 14b5 162d ac4a 8b2e
000003b0: 6c51 042f 5d14 a82d 1528 142f fc70 952d
000003c0: db6c 812e 724e d32e af7b a82e 2be0 b32e
000003d0: cd60 152f ea77 0f2e 1610 3a2f 722d 682f
000003e0: 3466 9d2e 526e c92e d32f f22e 42ec 062f
000003f0: 6b0e ad2e e283 822e 5013 0c30 7be4 872e
6.910958e-11 4.2732712e-10 1.2423154e-10 3.1581693e-10 1.9326524e-10 3.4432082e-11 6.1438715e-10 4.1245884e-10
8.707054e-11 8.162618e-11 3.2396577e-10 2.6826386e-10 5.3460937e-11 8.0735765e-11 6.135268e-10 1.6019083e-10
1.12855975e-10 2.6886568e-10 7.712182e-11 6.48684e-11 1.13897565e-10 2.9914085e-10 2.7953562e-10 2.8626643e-11
4.0319453e-11 2.6218294e-10 6.2729634e-11 3.0558375e-11 5.622027e-10 4.8691294e-11 7.5738625e-12 4.0880986e-11
4.8763892e-11 1.0488154e-10 3.14656e-11 1.2997163e-11 3.8102407e-11 3.209e-11 2.1952927e-11 3.1598495e-11
3.881573e-11 6.806162e-11 3.2980296e-11 1.4455135e-11 4.3306043e-11 1.1997045e-11 1.2256896e-11 1.5987722e-10
5.913058e-11 1.5655198e-11 3.081216e-11 6.009274e-11 3.1743455e-11 4.860177e-11 1.8992497e-11 1.8040583e-11
1.8076667e-11 4.1622504e-11 1.1900683e-10 4.5920746e-11 6.457388e-11 1.0629776e-10 1.1697622e-10 2.3313496e-10
1.0619609e-10 5.771068e-11 2.5272862e-10 1.2567777e-10 1.9186631e-10 2.327084e-10 1.2778874e-10 2.0916816e-10
4.7796954e-11 1.0648899e-10 1.0911484e-10 1.545076e-10 4.0859496e-10 1.5723602e-10 2.2292991e-10 1.1650367e-10
5.979983e-11 1.2053118e-10 1.7237381e-10 6.744174e-11 2.914902e-10 7.611845e-11 1.5818616e-10 1.1736886e-10
2.9070563e-10 1.3124166e-10 8.505772e-11 3.9590908e-10 5.998624e-11 2.5918362e-10 6.008827e-11 7.0519174e-11
1.4906448e-10 1.1525071e-10 9.8506536e-11 6.504664e-11 1.04821034e-10 2.18346e-10 6.811428e-11 3.8160617e-11
5.920261e-11 5.539342e-11 6.501535e-11 1.4984518e-10 1.0684553e-10 2.0533833e-10 4.418223e-11 7.0111375e-11
6.776497e-11 3.0404543e-11 3.1557968e-11 1.365653e-10 1.38308e-10 3.6926143e-11 3.423134e-10 9.126429e-11
5.2566635e-11 3.6531056e-10 5.334874e-11 3.477666e-10 4.4612144e-11 1.947581e-11 3.3246578e-10 8.3007656e-11
1.00963534e-11 2.3174568e-11 5.6009135e-11 7.481308e-11 1.2460146e-11 2.4841094e-11 8.18418e-11 2.9883977e-11
2.6992216e-11 2.2504551e-10 4.9709802e-11 8.054458e-11 1.3188159e-11 7.403052e-11 3.830632e-11 1.2115456e-11
9.906224e-12 4.935305e-11 3.0241632e-11 1.5541997e-11 5.294801e-10 9.107179e-11 7.8789086e-11 5.6190863e-10
8.0340776e-11 3.0514025e-10 3.7004233e-11 8.64655e-11 2.6418073e-10 3.416097e-11 3.3906843e-11 1.2608439e-10
9.6002e-11 4.365467e-11 3.404566e-11 4.6560526e-11 3.9887902e-11 2.6087025e-11 2.8044865e-11 7.142622e-10
7.068961e-11 2.2647782e-10 1.9049413e-11 1.2253297e-10 1.2222835e-10 2.7604394e-11 3.0565002e-11 5.6404312e-11
4.5952503e-10 7.2529316e-11 4.3729753e-10 2.3222205e-10 3.9328846e-11 9.460537e-11 2.2495264e-10 1.15174134e-10
1.9403518e-10 8.2891534e-11 2.0533714e-10 2.7453115e-10 6.795904e-11 1.4203583e-10 1.6493319e-10 1.7621335e-10
3.320529e-11 7.212905e-11 4.299928e-10 5.958433e-11 9.186854e-11 1.6999356e-10 1.4751635e-10 1.2836254e-10
2.5907956e-10 2.8268254e-10 4.6570303e-10 3.587822e-11 5.6651076e-11 2.0532034e-10 1.2303411e-10 6.7258296e-11
1.3873294e-10 1.3939269e-10 1.889019e-11 2.1515248e-10 1.1814542e-11 5.8137058e-11 1.0864108e-10 1.2149692e-11
6.670882e-11 1.8524236e-10 4.5463563e-11 7.874702e-12 6.229461e-11 3.8384615e-11 5.2098856e-11 2.7227444e-11
1.2484014e-10 2.412341e-11 3.60436e-11 6.5573276e-11 1.4845594e-11 2.5777788e-11 1.6969218e-11 2.1166888e-10
4.6434807e-11 1.118373e-11 8.56672e-12 6.3342526e-11 1.2034257e-10 1.9108432e-11 1.3474762e-10 1.6989514e-11
5.8855774e-11 9.609104e-11 7.661726e-11 8.179798e-11 1.3585862e-10 3.262094e-11 1.6922316e-10 2.1116422e-10
7.157688e-11 9.1600186e-11 1.1013381e-10 1.2271165e-10 7.86969e-11 5.935143e-11 5.095915e-10 6.1796755e-11

exp_avg f4 [30]
00000000: a814 232d 7ad5 7dac 0683 492b 476a bc2c
00000010: fb67 8a2c 7b11 032b edbd 222d da9e 9fac
00000020: bf05 252d 92f5 042d 0228 0baa 7f0f f0ab
00000030: 8eb6 df2c 0fac dfac fa31 e6ac 393f b7aa
00000040: 98e5 4a2c b268 d8aa 5ca6 972c 4849 882b
00000050: beeb 0a2d 021f 03ac a9da b32a d1e3 d12b
00000060: 2a93 312d 3f06 312c 6f95 6fad 956e 96a9
00000070: b42c 9daa 5eda a0ab
9.270064e-12 -3.6071966e-12 7.1591376e-13 5.3550805e-12 3.93374e-12 4.656481e-13 9.250806e-12 -4.536688e-12
9.38044e-12 7.557859e-12 -1.235956e-13 -1.7057327e-12 6.358309e-12 -6.3571435e-12 -6.5425417e-12 -3.25512e-13
2.8833377e-12 -3.8441955e-13 4.3101477e-12 9.683721e-13 7.896737e-12 -1.8633432e-12 3.1948513e-13 1.4913575e-12
1.0093962e-11 2.515668e-12 -1.3618758e-11 -6.680521e-14 -2.7919821e-13 -1.1429293e-12

exp_avg_sq f4 [30]
00000000: 4ed4 1f29 eefe 3c2c 1724 022b 7aa1 962b
00000010: 338f d129 f2f8 832b 0481 2e2c e483 a52c
00000020: 730d d72b 7d98 132a e5ff cd2a 5351 0f2a
00000030: ca7e ec28 cc3e 342c e56c c12c 2cdd 0b2c
00000040: fa38 c12a a1ff 0f27 b439 f22c 7367 8a29
00000050: e93e ad2b 20f8 832b 4410 022d 56a3 072d
00000060: 01e6 ea2b c38f fe26 846a 062d bdb9 b829
00000070: 4e4a c222 c425 672c
3.5489237e-14 2.6857921e-12 4.623536e-13 1.070296e-12 9.3063056e-14 9.377206e-13 2.4798505e-12 4.704225e-12
1.5280402e-12 1.3109128e-13 3.6592878e-13 1.2729166e-13 2.625625e-14 2.5614398e-12 5.4974796e-12 1.9875863e-12
3.4323222e-13 1.9983813e-15 6.88446e-12 6.146377e-14 1.230985e-12 9.376978e-13 7.393256e-12 7.710129e-12
1.6690539e-12 1.7663757e-15 7.640669e-12 8.203462e-14 5.266248e-18 3.2848039e-12

exp_avg f4 [7, 30]
00000000: c317 9134 d0ad 2836 4f9a 60b5 1786 0cb4
00000010: b25a 8f35 f4e9 bb34 fe79 84b5 387c 9934
00000020: da6f d6b3 d818 67b5 b385 d3b4 a2cf 0836
00000030: 863c b333 3ffe fb34 ec85 c9b5 f15f 79b4
00000040: 8abc c1b5 be49 5f35 2eaa bfb5 3d14 85b5
00000050: f0d1 1e34 4cec e4b5 ab26 12b6 4f12 0f35
00000060: 1aad 1eb6 8eee fdb4 d6cd 6034 d70e 61b5
00000070: 6e7c 0436 3bb5 bc34 722f 07b7 238c ccb6
00000080: b3be 3ab6 d17d d7b6 b34a c6b6 b118 d7b5
00000090: 9f7d 96b6 f5a5 e534 f1ce 9ab6 8505 bdb6
000000a0: 0570 ea36 aa44 8fb6 125c b435 7307 8835
000000b0: 0d05 9e36 d0b7 85b6 1edf e836 00db 94b5
000000c0: 78ac e336 85a1 adb3 8073 34b5 0a69 d5b5
000000d0: b54a 4236 3846 88b6 ac99 6ab5 2d99 3fb5
000000e0: cd1f a336 8669 7335 169c 09b6 bf83 edb5
000000f0: 41fc fab5 34cd 60b5 a67d e0b3 caa8 57b5
00000100: ddd5 a1b5 db61 7835 a93b 4fb5 15cc 9bb5
00000110: c02b 3bb6 3622 2cb5 3b72 b735 c673 6eb4
00000120: 041d 84b5 5968 1ab5 8ed9 2c35 f557 ebb5
00000130: c220 4536 95bc fdb4 d37e 8f35 203a 84b5
00000140: d245 f135 2413 10b5 43bc c834 0333 9236
00000150: 1121 2434 bb7f abb5 b223 9135 d2df 7635
00000160: 04f2 d134 df68 76b5 bdd5 6234 4c57 f934
00000170: ff03 8235 7a1f 6f35 06c7 8535 94cd 4bb5
00000180: 0eb1 8735 9d16 1e35 97bc 42b5 c01c 89b4
00000190: f275 74b4 3127 fe34 2932 3cb6 5c01 09b5
000001a0: eabe 24b6 4020 7f34 ef5e 09b5 5c13 3a35
000001b0: 2302 ca34 9e03 3a33 f1e1 0f35 9d00 4db5
000001c0: 252e c3b5 6a60 6eb5 3e9b c0b4 094e 9934
000001d0: 531f 89b5 a788 b9b4 66d1 fa33 eddd 7d35
000001e0: 2799 e7b5 228c 33b4 2f8c a4b5 0774 cd35
000001f0: 66ae b635 97e6 d5b5 e3f5 86b5 4e4b e335
00000200: 909d 43b6 4263 f5b3 7f44 2b36 42b2 ce35
00000210: 3f59 91b5 8be5 ca35 c529 28b6 bce0 40b6
00000220: a8c1 1eb3 25f9 4836 30bb db34 998f 24b6
00000230: d70b 2134 58f0 9cb5 cb06 9db5 883e d7b5
00000240: 425f 2236 c60a a435 ead3 2b35 24d3 03b6
00000250: df3d 9034 e1d1 9d35 8baf 41b6 6e5a dcb4
00000260: c47d 33b6 26a2 e034 763b 2a35 adf3 34b5
00000270: 0354 37b6 90c8 8c35 45ea 88b6 3c72 92b5
00000280: b154 8636 73ef 2336 d4d6 3435 479e 1536
00000290: 09ea 2eb6 da06 afb6 ec53 0436 2447 6836
000002a0: 15b7 bf35 db1a 45b6 025e c835 2fb1 65b6
000002b0: d46d aeb5 ef59 e2b5 51ed 5936 8a6e 43b5
000002c0: 3803 f535 0e94 0fb6 ab4f c535 805f 1035
000002d0: 85e1 45b5 fe1f 3136 8f14 34b6 e793 e2b5
000002e0: f68d 02b5 f346 c8b4 76e7 beb5 d985 8a34
000002f0: 42cf b3b5 07d1 15b6 c836 0835 c137 9135
00000300: 64b6 c235 445b 1f36 e855 e535 2bce 04b5
00000310: 01d9 05b6 8ab4 f034 ff0d 2fb6 ca71 37b6
00000320: b8fc 7eb4 790b 9eb5 3fba deb4 f08e 0536
00000330: dc62 6eb6 af63 ce35 bd97 4436 199d b9b5
00000340: b96a 8e35 79e7 4335
2.7025644e-07 2.5135123e-06 -8.367105e-07 -1.3087298e-07 1.0680726e-06 3.5001688e-07 -9.870271e-07 2.8588852e-07
-9.985497e-08 -8.609036e-07 -3.9399092e-07 2.0386437e-06 8.346346e-08 4.6937382e-07 -1.5014643e-06 -2.3224835e-07
-1.4434493e-06 8.318128e-07 -1.4280138e-06 -9.915162e-07 1.4791271e-07 -1.7056095e-06 -2.1778203e-06 5.3298294e-07
-2.3644593e-06 -4.7298494e-07 2.0936508e-07 -8.3840627e-07 1.974196e-06 3.514959e-07 -8.057674e-06 -6.095988e-06
-2.7827161e-06 -6.4221463e-06 -5.909556e-06 -1.6025934e-06 -4.4849726e-06 4.2775324e-07 -4.613649e-06 -5.6332815e-06
6.9867842e-06 -4.2697257e-06 1.3437841e-06 1.0134958e-06 4.709355e-06 -3.9851075e-06 6.940113e-06 -1.1090597e-06
6.785205e-06 -8.0853205e-08 -6.72233e-07 -1.5900307e-06 2.8951738e-06 -4.0612904e-06 -8.7395415e-07 -7.1375945e-07
4.8614806e-06 9.067811e-07 -2.0505445e-06 -1.7696219e-06 -1.8699867e-06 -8.374511e-07 -1.0453668e-07 -8.033936e-07
-1.2057677e-06 9.25296e-07 -7.7200326e-07 -1.1607796e-06 -2.7890637e-06 -6.4124777e-07 1.3667808e-06 -2.2207595e-07
-9.843211e-07 -5.7521316e-07 6.4391577e-07 -1.7534463e-06 2.9374355e-06 -4.7262134e-07 1.0691241e-06 -9.851683e-07
1.797622e-06 -5.3672034e-07 3.738988e-07 4.3570776e-06 1.528572e-07 -1.2777667e-06 1.0813731e-06 9.196784e-07
3.9105373e-07 -9.179475e-07 2.1125648e-07 4.644338e-07 9.686918e-07 8.908024e-07 9.967196e-07 -7.592255e-07
1.0109814e-06 5.8892493e-07 -7.2545066e-07 -2.5539157e-07 -2.2767179e-07 4.7339702e-07 -2.804338e-06 -5.1038455e-07
-2.454903e-06 2.3760458e-07 -5.1174624e-07 6.931857e-07 3.7626987e-07 4.330979e-08 5.360044e-07 -7.6369344e-07
-1.4542062e-06 -8.880221e-07 -3.587574e-07 2.855525e-07 -1.0216412e-06 -3.4558363e-07 1.16796215e-07 9.457279e-07
-1.7255414e-06 -1.6721654e-07 -1.2259751e-06 1.5307459e-06 1.3610813e-06 -1.5936847e-06 -1.005534e-06 1.6934735e-06
-2.9148978e-06 -1.14267564e-07 2.5520856e-06 1.5400076e-06 -1.0829316e-06 1.5116979e-06 -2.5058264e-06 -2.8741042e-06
-3.696337e-08 2.9947344e-06 4.0928126e-07 -2.452149e-06 1.4998601e-07 -1.1692855e-06 -1.1699389e-06 -1.6036947e-06
2.4195328e-06 1.2222088e-06 6.401084e-07 -1.9643421e-06 2.6867107e-07 1.1758494e-06 -2.886142e-06 -4.104399e-07
-2.6746284e-06 4.184123e-07 6.341646e-07 -6.740982e-07 -2.7318026e-06 1.0489184e-06 -4.0803884e-06 -1.0911094e-06
4.0033706e-06 2.442827e-06 6.736784e-07 2.229486e-06 -2.6064247e-06 -5.216204e-06 1.9718382e-06 3.4612103e-06
1.4283893e-06 -2.937092e-06 1.4928521e-06 -3.4226794e-06 -1.2995974e-06 -1.6864486e-06 3.2473656e-06 -7.2804016e-07
1.8254859e-06 -2.139484e-06 1.470083e-06 5.378315e-07 -7.3716393e-07 2.6393677e-06 -2.6834057e-06 -1.6881357e-06
-4.8635354e-07 -3.7304525e-07 -1.4223467e-06 2.580189e-07 -1.3396859e-06 -2.23244e-06 5.0743665e-07 1.0819568e-06
1.4507209e-06 2.374597e-06 1.7086832e-06 -4.9473846e-07 -1.9944857e-06 4.4834843e-07 -2.608518e-06 -2.733536e-06
-2.3747532e-07 -1.1775256e-06 -4.1486234e-07 1.9901745e-06 -3.5522307e-06 1.5377208e-06 2.92946e-06 -1.3829296e-06
1.0610885e-06 7.298e-07

exp_avg_sq f4 [7, 30]
00000000: 25e1 f82e 4006 b330 f39d 8c2f a834 4431
00000010: 413c dc30 569e a12e 2485 6c2e 04d7 092e
00000020: 0747 2a2f ae84 1530 9586 5d2f ccc4 d030
00000030: 9490 822f 33c9 192e 64ad a130 bc49 262f
00000040: df66 2a30 055c dc2f 97c5 912f 6ac1 332f
00000050: 1a3c ed2d e436 4a2f 24dd d02f dfcf 2130
00000060: 2851 d330 e6d9 b12e 554e 602e ca7d 952e
00000070: 28e2 532f 19bd da2e 5586 b430 54e0 2730
00000080: fa7d 4630 0280 a930 32f5 2a30 3a0a 0130
00000090: 30ba 2130 acb4 f72e fabe 8f2f f0fe 8130
000000a0: 6c63 ea2f 532e 9230 8fec 0630 c5ba b42f
000000b0: 25d9 db30 15e9 ce2f 9cbf f32f 91fb b930
000000c0: 89c5 0130 07ed a830 b572 ad2e 1ce0 a62f
000000d0: a939 6930 7d69 ca2f 39c2 7e30 8e21 af2f
000000e0: 214d 842f e3cf e12f 9ffc 0630 df35 a02f
000000f0: fb03 262e b76a 0930 af4e d22e 0d5f d82e
00000100: bffe 172f 1707 9d30 0567 1f30 3abb f02f
00000110: 592f 5730 feb5 ee2e bbf2 d22f 1ab4 932f
00000120: e646 f22f 08b3 3e2f 1f1e 7e2f b06d a42f
00000130: d936 bb30 e731 c62e ffa6 c92d 9fd2 5a30
00000140: c23a d130 5d5c 0630 9d55 c02f 1095 3231
00000150: 4e1b 1130 f37c f12f 2e06 c72e 874b 0a2f
00000160: 389e 1c2f bd17 022e a63c 3031 d5c9 0731
00000170: 9c66 1a30 534e 092f c3c0 d030 b0e3 812f
00000180: 8241 7e2f 6fa0 442f d663 b130 6d25 0631
00000190: 2813 2330 445b 2630 1131 e230 5363 0d2f
000001a0: 6870 7c30 c422 a52e 9d3c 392f ad5f 072f
000001b0: 4f56 f32e 293b c42e f79f 942d 1fb8 4f30
000001c0: 4206 3b30 e51c c930 1562 8930 552e 432f
000001d0: 6f5e a92d 3f2e 912f 6a93 b32c 8168 8430
000001e0: 37e3 a82f 78eb 9e2f 2879 ff2f 389f a72f
000001f0: 2ce1 8d2f 9cc1 4e30 809e a12f 291e e12f
00000200: 202c 892f 10a1 be2f fffc 4a30 9dfd 5b2f
00000210: aeb2 7c30 af24 4e30 d5cd e32f 1da6 6e30
00000220: 8266 872f 1d30 f230 32ee 192f a157 cb2f
00000230: d4a9 742f 5a45 4430 da58 542f d390 a230
00000240: f036 f62f b8dc b42f 6ae8 5c2e 2cb6 9a2f
00000250: c849 b42e 3b96 7a2f 994d b430 afe2 332f
00000260: 42de 182f 0fbd c32f 816d 7c30 d3ba 9130
00000270: 7cb7 d130 50ac 892e 7c5d 4731 56a7 0b30
00000280: 1173 992f 818f 8a2f d20e 5d31 3c5d 0230
00000290: 9e7a b130 1312 6630 d0ca 9730 cd43 9f2f
000002a0: 1d1e 5230 44a4 702f e92a 7130 5910 0830
000002b0: e6ae 3d31 9a6d 902f 058c 9730 7070 6130
000002c0: 41a5 672f f6dc 2a30 c6e0 0f30 18e4 892f
000002d0: 023d 9b2f 2a4e af2f 0c28 882f 8f6a 932f
000002e0: 4b45 dc2f c5a6 332f 6552 0c30 cf3f 972e
000002f0: fc7c e72f 9709 cf2f da18 bb2e 1a6c 9430
00000300: 01f1 5a2f cba0 af2f 821a fd2f 2356 2a2f
00000310: 6607 322f 0437 4530 4dcb f32e 46c1 df2f
00000320: 611d 172f 6d6a ef2e 36f6 1430 9980 ee2e
00000330: 56f0 c82f 881e f62e 06c3 cf2e 5b19 8f2f
00000340: 2797 cb2f 2bfd 852e
1.1317728e-10 1.302574e-09 2.557808e-10 2.8551685e-09 1.6024232e-09 7.3495585e-11 5.377844e-11 3.1341166e-11
1.5486644e-10 5.4394433e-10 2.0147646e-10 1.5189925e-09 2.374959e-10 3.4966873e-11 1.1763572e-09 1.5123808e-10
6.199183e-10 4.008315e-10 2.6515742e-10 1.634867e-10 2.6970471e-11 1.8391294e-10 3.799211e-10 5.886686e-10
1.5375337e-09 8.0877346e-11 5.1001276e-11 6.79808e-11 1.9270685e-10 9.947083e-11 1.3134903e-09 6.1073036e-10
7.2211004e-10 1.233275e-09 6.2194083e-10 4.694446e-10 5.8836047e-10 1.1264353e-10 2.6147245e-10 9.458443e-10
4.2634996e-10 1.0636064e-09 4.9085086e-10 3.2874517e-10 1.5996063e-09 3.7636796e-10 4.433759e-10 1.3532021e-09
4.721064e-10 1.2290976e-09 7.887505e-11 3.0354463e-10 8.4846846e-10 3.681854e-10 9.268067e-10 3.1856157e-10
2.4065464e-10 4.1074974e-10 4.910791e-10 2.9142108e-10 3.7747565e-11 4.999196e-10 9.5636714e-11 9.839427e-11
1.3823874e-10 1.1425269e-09 5.799026e-10 4.3788778e-10 7.828383e-10 1.0855315e-10 3.8371248e-10 2.6867114e-10
4.406992e-10 1.7344004e-10 2.3111867e-10 2.9909364e-10 1.3621629e-09 9.012862e-11 2.2925216e-11 7.960725e-10
1.5223451e-09 4.888017e-10 3.4985428e-10 2.5987141e-09 5.2789495e-10 4.3926426e-10 9.05057e-11 1.257786e-10
1.4244328e-10 2.957966e-11 2.5645845e-09 1.9759814e-09 5.617069e-10 1.2487904e-10 1.5188778e-09 2.3626745e-10
2.3124438e-10 1.7883094e-10 1.290682e-09 1.952084e-09 5.9326277e-10 6.0520144e-10 1.645761e-09 1.2859162e-10
9.1836805e-10 7.509507e-11 1.6847186e-10 1.231217e-10 1.1065692e-10 8.923557e-11 1.689669e-11 7.5567813e-10
6.8039097e-10 1.4632887e-09 9.995939e-10 1.7751607e-10 1.9255013e-11 2.6408206e-10 5.1038522e-12 9.633966e-10
3.0720468e-10 2.8907343e-10 4.6470316e-10 3.0490255e-10 2.5807745e-10 7.52175e-10 2.939835e-10 4.0948692e-10
2.4951508e-10 3.467524e-10 7.38467e-10 2.0008036e-10 9.1930985e-10 7.4994494e-10 4.1437312e-10 8.6819957e-10
2.4629193e-10 1.7621492e-09 1.3999893e-10 3.698775e-10 2.2252006e-10 7.140294e-10 1.9312854e-10 1.1828213e-09
4.4786175e-10 3.289864e-10 5.0228634e-11 2.8141878e-10 8.1985585e-11 2.279074e-10 1.3118778e-09 1.636049e-10
1.3903281e-10 3.5604628e-10 9.183268e-10 1.0603237e-09 1.5258901e-09 6.2606476e-11 2.901145e-09 5.0805704e-10
2.7912297e-10 2.520402e-10 3.2168157e-09 4.742622e-10 1.2913295e-09 8.36992e-10 1.1044339e-09 2.8970107e-10
7.644035e-10 2.1886232e-10 8.773627e-10 4.9499743e-10 2.7602538e-09 2.6271324e-10 1.1026492e-09 8.2014306e-10
2.1068038e-10 6.2159644e-10 5.234252e-10 2.5082225e-10 2.8237684e-10 3.1887853e-10 2.476671e-10 2.681486e-10
4.0067002e-10 1.6339204e-10 5.1048793e-10 6.87802e-11 4.2107462e-10 3.7659895e-10 8.50819e-11 1.0799142e-09
1.9912606e-10 3.1946565e-10 4.6039267e-10 1.5492012e-10 1.6191634e-10 7.1746364e-10 1.1086474e-10 4.0700793e-10
1.3743807e-10 1.0887367e-10 5.4191973e-10 1.08458305e-10 3.6550557e-10 1.1192208e-10 9.447913e-11 2.6029565e-10
3.7032885e-10 6.0931114e-11

exp_avg f4 [7]
00000000: ec7a 4fad 2dbb 4e2d 9f39 7c2d 2cd9 bcad
00000010: c15a 662a ddc6 c7ab 5227 2b2d
-1.1793882e-11 1.1751306e-11 1.4337336e-11 -2.146957e-11 2.045959e-13 -1.4194996e-12 9.7289555e-12

exp_avg_sq f4 [7]
00000000: db4f 5c28 4f9d 6b2c 8276 c12c 5064 882c
00000010: 310b a229 c128 952c 1a8f 822a
1.2229769e-14 3.3482832e-12 5.498547e-12 3.8764894e-12 7.1961866e-14 4.2393593e-12 2.3191936e-13
