tutorial/DLPFC_output/version_3/checkpoints/mlp.ckpt (torch, 18997 bytes, 12 tensors)

model.classifier.0.weight f4 [30, 30]
000000 66 95 a4 bc aa 82 02 3e 4d 7e 0d 3e 0b d8 6f 3d
       -0.02009077 0.12745157 0.13817711 0.058555644
000010 1d aa 8e bd b4 38 91 bc ad 07 61 3e c2 27 ef bd
       -0.0696604 -0.017727233 0.21975584 -0.11677505
000020 5d af 5d bb d9 fd b8 3c dd cb f3 3d ac 9b e4 bd
       -0.0033826448 0.022581981 0.11904118 -0.111625046
000030 b9 fa 4b bd 4d 21 4e 3d e6 f0 23 3e 82 b1 83 3d
       -0.049799655 0.050324727 0.16009864 0.06430341
000040 7d f5 b6 3c ce 55 4a bc e2 d4 93 bd 0e 83 b3 bd
       0.022333855 -0.012349559 -0.072183385 -0.08765231
000050 ce 11 61 bd 0b 18 bb bd 42 54 c2 3d fc 97 8b bc
       -0.05494862 -0.09135445 0.09488727 -0.017040245
000060 60 ef 16 bd 8c 9c 03 3e 39 a2 be 3d 54 59 1d 3d
       -0.03684938 0.12852687 0.09308285 0.038415268
000070 e9 0e 29 3e 97 7c aa bc 08 1b 0c 3d fa 18 3c 3d
       0.16509594 -0.020811362 0.034205467 0.045922257
000080 98 9d 82 3d 1d c1 2c 3e 37 72 3a bd 84 0d 37 bd
       0.06377715 0.16870542 -0.04551908 -0.044690624
000090 9b 58 22 3d 27 d7 86 3d 52 3a 9f 3d fc 8c bb b8
       0.039635282 0.06584006 0.077747956 -8.943115e-05
0000a0 00 93 fc 3d 7e 12 42 bd af 22 41 3e c3 ff aa bc
       0.123327255 -0.047380917 0.18860887 -0.02087391
0000b0 d2 68 f0 bd 04 6d b0 bd a7 7b 75 3d 49 24 38 be
       -0.11738743 -0.08614543 0.059932377 -0.17982592
0000c0 a9 67 17 3e 4c ea 03 bd d3 65 50 3d 40 c1 d6 3d
       0.14785637 -0.032205865 0.050878357 0.10486078
0000d0 75 c8 15 bd 02 57 1a bd 08 de ff 3d d0 68 82 3c
       -0.036568124 -0.037680633 0.12493521 0.01591912
0000e0 04 6b 27 be 66 28 d4 3d c2 66 15 bb 59 e7 b2 3d
       -0.16349417 0.10359268 -0.0022796844 0.08735532
0000f0 f5 35 fd 3c 8f 47 26 3c 7b c4 48 3e 21 72 54 bd
       0.030909518 0.010148897 0.19606201 -0.051866654
000100 42 50 ba 3d de 09 53 bd 22 c1 8e 3e 44 10 1a bd
       0.09097339 -0.051523082 0.27881724 -0.03761317
000110 23 24 6d be c8 34 fe bd 02 92 6c 3d d7 40 e9 bc
       -0.23158316 -0.12412411 0.05775643 -0.0284733
000120 d4 bd d5 ba a8 d4 a1 3d 93 8a 42 3e a2 a6 e1 3d
       -0.0016307184 0.07901889 0.18998174 0.11018111
000130 2d d9 69 3e b1 a7 fb bb df 28 ab bd 42 3f 49 be
       0.22836752 -0.0076799025 -0.08357405 -0.19653037
000140 52 fe 84 3d 6f 60 db 3d d3 1e af bd 43 7b 25 bd
       0.0649382 0.107117526 -0.08550801 -0.040400755
000150 04 d7 22 be 10 44 63 bb 1f fb 3a 3e 0e db 11 bc
       -0.15902334 -0.003467802 0.18259858 -0.008902324
000160 27 90 42 3e 99 d2 05 3c 70 23 39 bd c5 a7 b6 3d
       0.19000302 0.008167886 -0.04519981 0.08918718
000170 ab 48 ed 3c 6c 18 1f 3e 9a 9e aa 3d 74 fb ab bd
       0.028965315 0.1553666 0.08331032 -0.0839757
000180 6c 9e 45 3e 8e be 05 3e 34 95 8b 3c 57 5d 0e 3c
       0.19298714 0.13060972 0.017038919 0.008689246
000190 f6 5f 05 3e a1 19 b7 bd 26 65 65 bc 76 52 b2 3c
       0.13024887 -0.08940435 -0.014001166 0.021767836
0001a0 37 3f 05 3d 15 d4 91 bd 6d 80 a3 3d f5 71 2e be
       0.03253099 -0.071205296 0.0798348 -0.17035659
0001b0 16 bd b5 3d 35 8c 70 be fb ee 6c 3d e6 81 ab 3d
       0.08873956 -0.23490985 0.057845097 0.083743855
0001c0 bc b7 af bd c1 16 a1 bd d6 d6 4e 3d 30 59 fa 3c
       -0.085799664 -0.07865668 0.050497852 0.030560106
0001d0 ec b0 8c bd 8a 5c 37 3d d4 a5 49 3e ae 07 8c 3d
       -0.06869683 0.044765987 0.19692165 0.06837402
0001e0 b0 67 82 bd ff 96 d5 3d 2c ce 21 bd 62 7e 16 3e
       -0.06367433 0.10429191 -0.03950326 0.14696649
0001f0 f1 77 39 3c 31 02 2e bd 40 23 b8 3d 20 45 98 3d
       0.0113201 -0.04248256 0.089910984 0.074350595
000200 fe 55 e4 3d fd d4 9e 3d 53 4b cc 3d b1 c2 bd bd
       0.11149214 0.07755468 0.099753045 -0.0926565
000210 c8 ef 6c bd 4e a4 c4 b8 dc 1f 4c 3c a7 c5 9f bd
       -0.05784586 -9.3766124e-05 0.012458768 -0.07801371
000220 3e 74 51 bd 51 44 e8 bd 9f 1e 93 3d 96 29 fa bd
       -0.051136248 -0.11341155 0.07183575 -0.12214963
000230 6e 5c 17 bc c8 20 d2 bc 5b 29 01 3c 38 cf 43 bd
       -0.009238346 -0.025650397 0.007883395 -0.04780504
000240 c1 6a b6 3d 22 2f 8c 3d 45 f1 b1 bd cc 97 22 3d
       0.089070804 0.06844927 -0.08688597 0.039695546
000250 32 ac 04 3e 54 dc 06 3d 6c c9 66 3c bc df 5c 3c
       0.12956312 0.032924965 0.014086109 0.013481077
000260 80 c5 2a 3d 01 4f 0c 3d 48 ee d6 3d b0 ea 84 bd
       0.041692257 0.03425503 0.10494667 -0.064900756
000270 5f a2 0a 3e 9d 79 73 3d f5 e0 10 be b2 4f e7 bd
       0.13538502 0.05944215 -0.14148314 -0.112944975
000280 bc bb 14 3c cd b5 76 3c 62 35 6d 3d bb 41 26 3d
       0.0090779625 0.015057993 0.057912238 0.04059003
000290 d5 da 2c 3d 1c eb ed 3c a3 6f 18 3e 6c ec c5 bd
       0.042200882 0.029042773 0.14886336 -0.096642345
0002a0 6c 91 3f 3d 59 ae 12 be 92 9c ba 3d c7 52 19 3e
       0.046769544 -0.14324321 0.09111895 0.14972983
0002b0 91 22 1b be 9b 8c dd bc 7e f1 9c bd 4d 96 6a bd
       -0.15149905 -0.027044585 -0.076632485 -0.057272244
0002c0 a8 b2 c9 bc 8a 65 d1 bc 95 7d fc 3d ab 76 ae 3d
       -0.024621323 -0.025561113 0.1232864 0.08518728
0002d0 81 4c 73 bb 60 2f 95 3d 48 14 3c 3e 1d 32 67 bd
       -0.0037124457 0.07284427 0.18367112 -0.056444276
0002e0 18 72 e8 bd 80 10 06 3d cf fb 30 3e 9e 7b 4c be
       -0.11349887 0.03273058 0.17283557 -0.19969031
0002f0 a4 d6 ae bc 97 24 18 3d c0 e8 be 3d 04 25 c0 bd
       -0.021342583 0.03714427 0.09321737 -0.0938206
000300 39 73 c8 bd 5a 04 48 3d b1 c9 4b 3e d4 f9 dc 3d
       -0.09787602 0.048832275 0.19901158 0.107898384
000310 0f 18 c3 3b 13 cd f3 3d 32 b3 36 be db 73 19 bc
       0.0059537957 0.11904349 -0.17841795 -0.009366001
000320 71 fc bf bd f6 17 30 be 69 39 3f 3e 6e 5d e5 3b
       -0.09374321 -0.1719664 0.18674244 0.006999663
000330 4d f1 a1 bd 41 d6 11 3e 65 3f 5b 3e bc a4 f2 3c
       -0.079073526 0.14241888 0.21410902 0.029619567
000340 f2 ba c8 3d 9c 46 d4 bd 2a 87 53 3b 79 ec 01 bd
       0.09801282 -0.1036503 0.003227661 -0.03171966
000350 e3 84 18 bd e9 cc 2e 3d 07 96 cf 3c cc 94 04 bc
       -0.037236106 0.042675886 0.025340093 -0.008092117
000360 86 af 4f bd b1 b7 c4 3d d9 27 5b 3d ab ae cb 3c
       -0.0507045 0.09605349 0.0535048 0.024863562
000370 dd 00 4d 3c c7 ad 25 3b 5a 6c 21 3d d2 19 fa bc
       0.012512413 0.0025280581 0.039409973 -0.03052989
000380 4c 51 bf bd 0d 3b 96 bd ee 15 03 bb 37 e0 45 bd
       -0.09341678 -0.07335482 -0.0020002085 -0.04830953
000390 ee aa 94 3d bd 06 b5 bb ed 43 f4 3c 34 de 64 3d
       0.07259165 -0.005524485 0.029817546 0.055875972
0003a0 3d 32 0b bd 9c 96 b3 bc 01 9a 9c 3d 27 56 ec bc
       -0.033983458 -0.021922402 0.076465614 -0.028849674
0003b0 c1 13 89 bd ce 45 01 3d 3d 75 46 bd d2 5b 95 3c
       -0.06693221 0.03156071 -0.04845165 0.01823226
0003c0 01 f7 68 bc 4c b1 9c 3d 9c 1a d9 3d 69 d7 f9 bc
       -0.014219047 0.07651004 0.106007785 -0.030498223
0003d0 d8 0b 44 bd 34 42 0d 3c 13 dc 2b 3e 42 2b 2a be
       -0.047862858 0.008621741 0.1678317 -0.16618064
0003e0 29 aa 78 bd 6d 9d b9 3b ca 45 18 3d f6 9b 8a bd
       -0.060709152 0.0056645186 0.03717593 -0.067680284
0003f0 83 b5 c1 bd 50 f1 64 3d c3 e9 41 3e b7 42 ed 3d
       -0.09458449 0.055894196 0.1893683 0.115849905

model.classifier.0.bias f4 [30]
000000 7c 15 42 b3 5d e2 a6 b1 64 86 d2 b2 5a 87 51 b3
       -4.5188685e-08 -4.8569704e-09 -2.4508331e-08 -4.8784706e-08
000010 d3 32 d9 b1 01 87 40 b3 f3 93 17 b3 85 83 bb 32
       -6.3213093e-09 -4.482627e-08 -3.5291986e-08 2.1829473e-08
000020 a8 de ed b2 cb 11 6d b3 24 02 84 33 3e da 8f 31
       -2.7691684e-08 -5.5197045e-08 6.1471184e-08 4.186659e-09
000030 93 6e 87 34 43 a0 e5 33 15 86 ec b2 22 c1 9f b3
       2.5226163e-07 1.0692795e-07 -2.753499e-08 -7.439145e-08
000040 b2 0b 83 33 5b cd cc b4 ca 5a 8f b2 85 4c 9b b3
       6.10229e-08 -3.8147377e-07 -1.6688677e-08 -7.231669e-08
000050 9f 67 88 32 fc aa 71 b3 32 e4 60 b2 8e 14 4f b3
       1.5879605e-08 -5.6267695e-08 -1.3090402e-08 -4.8214638e-08
000060 ea eb ee 31 f2 fc b9 34 20 01 95 33 fc 82 af b3
       6.953532e-09 3.4642977e-07 6.938558e-08 -8.1728984e-08
000070 59 2d 83 b4 9c 64 1d 33
       -2.4433646e-07 3.6645915e-08

model.classifier.1.weight f4 [7, 30]
000000 b8 58 3f 3e fc 98 89 3e e3 6b 9d bd 52 46 84 3e
       0.18686187 0.2687453 -0.076865934 0.258349
000010 ea 55 93 3e a4 0d 51 3b 9b 2e dc 3c fc e6 2c 3d
       0.28776485 0.0031899 0.026877692 0.04221247
000020 2b 60 18 3d c5 e2 14 3e d8 eb ba bd 72 3d 9b 3e
       0.037201088 0.1453963 -0.09127015 0.30320317
000030 56 c5 1f 3d 92 24 00 3e 9a 13 98 be b0 29 88 bd
       0.039006554 0.1251395 -0.29702455 -0.06648576
000040 b7 fa 8f be 84 37 78 3e 1c b5 88 be b6 f2 47 be
       -0.28120968 0.24239928 -0.26700675 -0.1952618
000050 44 22 62 3d 03 37 e5 bd d8 ee 48 be db b2 79 3d
       0.05520846 -0.11192133 -0.19622362 0.060961585
000060 ce da de 3d ab 70 06 3d ad 3a 93 bd 87 bd 40 be
       0.108815774 0.032822292 -0.07188926 -0.18822299
000070 9b 94 22 3e 45 ab f8 3d b8 69 9e 3e 63 78 32 bc
       0.15877001 0.12142042 0.30940032 -0.01089296
000080 47 c9 09 3f b6 2f a8 3e 56 fc e9 3d 13 42 60 3e
       0.5382275 0.328489 0.114250824 0.21900205
000090 77 f5 9a 3e 89 11 8a bd dc d0 82 3e 03 85 c5 3e
       0.302654 -0.06741626 0.25549972 0.38578042
0000a0 c4 72 cd be ad 4a cf bd da 52 dd be 00 a1 00 bf
       -0.40126622 -0.10121665 -0.43227273 -0.50245667
0000b0 55 f7 39 be ef 3d be 3e 70 e8 72 3c 31 4e 81 be
       -0.18160756 0.37156627 0.014825925 -0.25254968
0000c0 f2 7c 34 3d 06 39 d3 3e 49 41 3d bd 48 95 c1 3e
       0.04406447 0.41254443 -0.04620484 0.37809205
0000d0 62 3c 74 bd 59 87 e9 3d b9 d9 2a 3e 35 ef 1f be
       -0.059627898 0.11402769 0.16684617 -0.15618594
0000e0 d1 07 f0 be fd 25 a5 3e 11 8c 9c bd 24 20 da bd
       -0.46880963 0.32255545 -0.07643903 -0.106506616
0000f0 de f2 b5 bd b1 d6 c4 3d 2d 35 d4 3d cb 47 30 3e
       -0.08884214 0.09611262 0.10361705 0.17214887
000100 37 d8 36 3d 9a b5 65 3e 7a 7f 6b be 20 8d f2 3c
       0.044639792 0.22432557 -0.22997847 0.02960831
000110 51 fe 0f be 26 90 91 3d 01 58 0a bc eb 8a 22 3e
       -0.14061858 0.07107572 -0.008443833 0.15873305
000120 b7 98 33 be a0 04 45 be ac a2 5b be d3 d0 b8 bd
       -0.17538725 -0.19240046 -0.21448773 -0.09024205
000130 f4 50 b7 3d 41 dd 31 3c bf c5 22 3d 64 5c 79 3d
       0.089509875 0.010855974 0.039739367 0.060879126
000140 7d 53 85 bd 4b 88 32 3c 9a dd 6c be b6 e0 cb 3c
       -0.06510065 0.010896753 -0.2313141 0.024887424
000150 75 5b 24 3e aa 0c 6f be 99 44 09 bd 1b 69 be 3d
       0.16050513 -0.23344675 -0.033512685 0.09297391
000160 18 13 2c 3e 08 4b e0 bd 32 f7 7b be ff 07 22 bd
       0.16804159 -0.10951811 -0.24606016 -0.039558407
000170 2a 75 8f bd 82 99 1f be ae 8f 25 be 8b 98 2a bd
       -0.07004769 -0.15585902 -0.1616809 -0.041649383
000180 aa 58 31 be 56 43 a0 3d 65 62 3f be b8 b4 58 be
       -0.17318979 0.07825343 -0.18689878 -0.21162689
000190 7f 96 f5 3d eb 27 bd bd 2d b8 34 bd e6 72 72 3c
       0.119915955 -0.092361294 -0.044120956 0.014797902
0001a0 ad ab f0 3d 69 56 9e bc 0c 1a 67 3d bd 3d 81 bd
       0.117514946 -0.019328313 0.056421325 -0.06310604
0001b0 1c 42 81 3d b7 46 ba bc 8b fe f3 bd d4 df d7 ba
       0.063114375 -0.022738798 -0.119137846 -0.0016469904
0001c0 52 da a8 3b 0f 84 a4 bd 94 a0 20 be 26 e7 8e 3d
       0.005152979 -0.08033001 -0.15686256 0.06977682
0001d0 21 00 3e 3e 38 cb 02 3c f1 51 48 bd 71 20 f0 bc
       0.18554737 0.007983021 -0.04890627 -0.029312344
0001e0 79 31 95 3c ef dd 47 be c0 25 9a be 6c bc 30 bd
       0.018212067 -0.19518255 -0.30106926 -0.043148443
0001f0 84 b5 18 3e 0d 3d 90 be 97 b0 d3 3d 23 07 ad 3b
       0.14912993 -0.28171578 0.10336416 0.005280392
000200 4e 3e ef 3c 54 d8 a9 bc 4a 55 bc 3e b9 81 0e 3e
       0.029204514 -0.020733036 0.3678382 0.13916673
000210 7e 33 ad 3e 68 68 c6 3e d3 df 23 be aa 34 d4 be
       0.33828348 0.3875153 -0.16003351 -0.4144643
000220 5c cb f5 3d 77 e1 ce 3e 62 ec 5b 3e c1 3d 89 be
       0.12001678 0.4040639 0.21476892 -0.26804927
000230 3e 96 99 3e ed 17 d5 be 8f 00 a2 3d ac 76 9a be
       0.29997438 -0.41619816 0.07910263 -0.30168664
000240 7f b6 94 3e bd 9a f0 3c ec e7 99 bc b9 6b a2 be
       0.29045483 0.02937066 -0.018787347 -0.3172281
000250 01 11 39 3d cc 44 28 3e 8f 9e d0 3d f9 25 e2 3d
       0.04518223 0.16432494 0.10186493 0.11042399
000260 9a ea 08 be ce 08 1b be df 69 4b bd 68 e2 55 be
       -0.13370743 -0.15140077 -0.049661513 -0.20887148
000270 d6 a2 67 3e 16 f1 72 bc 9f 1f fa 3c 25 57 b3 bd
       0.2262071 -0.014827987 0.030532656 -0.08756856
000280 cb 04 10 be a0 3d 23 be f8 5f e8 3d 5f c8 71 3e
       -0.14064328 -0.15941477 0.113464296 0.23611592
000290 03 a0 a6 3e b0 36 66 3e cf 45 ad be 1f 2e a4 bd
       0.32543954 0.22481799 -0.33842322 -0.080166094
0002a0 f4 a2 c1 be 98 af 3a be 11 8f 0a bd 02 54 17 3e
       -0.37819636 -0.18231046 -0.033827845 0.1477814
0002b0 47 5c 76 3e 57 5f 8f 3e bb 4e b7 be 46 0e dd 3e
       0.24058639 0.28002426 -0.35802254 0.43174952
0002c0 c1 4c 34 3e d5 c8 dc bd 03 15 66 be 93 95 1f 3e
       0.17607404 -0.10780493 -0.22468953 0.15584402
0002d0 76 40 60 3e 59 9a b6 be df 56 75 3e e0 fb 74 be
       0.2189959 -0.35664633 0.2395892 -0.23924208
0002e0 67 53 39 be 4b 0f 3e bd 6b aa db 3e fb 4d 67 be
       -0.18098222 -0.046401303 0.42903456 -0.22588341
0002f0 13 90 c4 3e 3a b3 8c 3d 6f cf fe bd c4 0c c9 be
       0.3839117 0.06870122 -0.124419086 -0.39267552
000300 e5 21 02 3d fd b5 3b be bf f7 ac 3e 58 4f 87 3e
       0.031770606 -0.18331142 0.33782765 0.26427722
000310 b2 5d 8f 3e 33 0a a0 be 87 ec 96 3e 0b a3 b7 3e
       0.2800117 -0.3125778 0.2947733 0.3586658
000320 46 31 34 3e 64 80 14 3e 33 08 bc 3e 69 01 5b 3d
       0.17596921 0.14502102 0.36725006 0.05346814
000330 d9 fc cd bd 15 4b 9b bd 67 d4 78 be 3d 27 85 3e
       -0.100579925 -0.0758268 -0.24299775 0.260065
000340 d1 c2 5b be 97 5f 9f bd
       -0.21461035 -0.07781904

model.classifier.1.bias f4 [7]
000000 a4 b7 e5 b3 39 98 da b3 77 c5 a1 b3 b1 48 d1 b3
       -1.06970475e-07 -1.0179105e-07 -7.5330654e-08 -9.7455434e-08
000010 44 ef 90 34 ba e3 7e b2 f9 8d 2c af
       2.699618e-07 -1.4836525e-08 -1.5693748e-10

exp_avg f4 [30, 30]
000000 c0 e3 f0 b5 fb ab e4 b5 9c ba 78 b6 4d fc 6f b5
       -1.7947677e-06 -1.7037377e-06 -3.70635e-06 -8.9401584e-07
000010 09 db 43 35 c7 b7 3c b5 5d 0d e8 b5 c6 98 b3 32
       7.29619e-07 -7.030289e-07 -1.7289236e-06 2.0907816e-08
000020 97 52 9b 33 a3 2e 2f b6 cd a1 0f b6 73 3a 4f 36
       7.232773e-08 -2.6104178e-06 -2.140284e-06 3.0879426e-06
000030 45 e1 e6 35 b3 c3 4e b5 ca 24 a0 b5 6d 9a e6 34
       1.7201897e-06 -7.702576e-07 -1.1931636e-06 4.2953198e-07
000040 68 f4 c0 35 ea 30 33 b5 a4 cc 2d b6 07 96 9e 35
       1.4376246e-06 -6.6753876e-07 -2.5898125e-06 1.1815581e-06
000050 15 22 5f b5 2b 5f f1 b4 78 ae 06 b5 32 b4 54 35
       -8.312357e-07 -4.4958992e-07 -5.0172775e-07 7.9238373e-07
000060 4a 0d cd b5 eb 10 12 b5 b9 30 2a b6 72 39 85 b5
       -1.5277558e-06 -5.441386e-07 -2.5360334e-06 -9.925991e-07
000070 20 33 77 b6 e0 f9 94 b5 a5 a0 5d b5 57 e1 1f 35
       -3.6835627e-06 -1.1099582e-06 -8.2562684e-07 5.956003e-07
000080 a6 4c 2a b5 31 f0 0d 34 f6 71 94 35 db 38 98 b4
       -6.3441473e-07 1.321903e-07 1.1060026e-06 -2.8353574e-07
000090 cd 67 49 35 a7 19 90 b4 1e b9 ea b4 9b 64 26 b4
       7.5029385e-07 -2.6840755e-07 -4.3720587e-07 -1.5496555e-07
0000a0 ca a5 61 b4 e8 73 9c 34 ea 08 e1 b2 4a fb ea 34
       -2.1015072e-07 2.9141597e-07 -2.6197501e-08 4.3768733e-07
0000b0 21 0d 3f 35 5d 93 26 33 eb 6f d5 b4 8b 8a 51 b4
       7.117215e-07 3.8783913e-08 -3.9755773e-07 -1.9515043e-07
0000c0 c1 ae fd 33 c6 ad 0e b3 55 3f 01 34 6a 30 fa 34
       1.1813018e-07 -3.3219997e-08 1.2037101e-07 4.6601355e-07
0000d0 05 25 a1 b4 70 d1 1f b5 38 69 40 b5 90 e8 1f 34
       -3.0015522e-07 -5.953689e-07 -7.167869e-07 1.4892635e-07
0000e0 ba 27 11 b4 17 65 fa 32 c9 39 92 35 2b 75 a6 35
       -1.351863e-07 2.91498e-08 1.0894665e-06 1.2402064e-06
0000f0 3b f2 82 b6 b5 2b 56 b6 4a 48 b2 b6 5a a7 75 b6
       -3.9025012e-06 -3.1913926e-06 -5.313229e-06 -3.6605256e-06
000100 23 06 8d 35 3d 91 d2 b5 b3 ad 57 b6 3b af f6 b5
       1.0507105e-06 -1.5688489e-06 -3.2138603e-06 -1.8379427e-06
000110 8d 8a 6f b5 3a 3d c5 b6 82 33 1f b6 df 6f c8 36
       -8.9236056e-07 -5.878185e-06 -2.3722828e-06 5.973488e-06
000120 38 63 69 36 8d ac 81 34 15 57 01 34 e1 f1 ca 35
       3.4777458e-06 2.415367e-07 1.2045741e-07 1.5120569e-06
000130 3c 2d 2d 36 b8 1e f3 b5 17 1b e0 b6 81 7b b3 35
       2.5805339e-06 -1.8113851e-06 -6.678874e-06 1.3372484e-06
000140 17 5b be b5 e5 85 ee b5 60 1b 59 b5 b2 ce c6 35
       -1.4182614e-06 -1.777135e-06 -8.0878635e-07 1.4812306e-06
000150 de 3b 6e b6 49 c6 33 b4 c3 9b 72 b6 c0 de 32 b6
       -3.549961e-06 -1.674281e-07 -3.6151475e-06 -2.6653724e-06
000160 0d 6b d3 b6 c9 51 0c b6 83 33 6a b6 db d8 3c b6
       -6.3007524e-06 -2.090923e-06 -3.48987e-06 -2.814041e-06
000170 20 f2 6d b6 30 16 f7 b5 dd e1 f5 35 76 e0 78 b5
       -3.5456687e-06 -1.8409391e-06 1.8319657e-06 -9.2713833e-07
000180 99 fa dd b5 83 e9 8c b3 1a d3 48 b5 fa aa 6e b6
       -1.6538717e-06 -6.5617336e-08 -7.4813e-07 -3.5564285e-06
000190 d9 ea 81 b5 31 b8 76 36 3a af 01 36 d3 49 33 b3
       -9.679599e-07 3.676407e-06 1.9324493e-06 -4.1743828e-08
0001a0 cf 73 d9 34 ab 23 62 35 71 91 d7 35 7f 43 a1 b5
       4.0503662e-07 8.4243464e-07 1.6061077e-06 -1.2015079e-06
0001b0 3c 4f 8e b6 a8 72 e0 34 1d b5 06 b5 a1 04 86 b5
       -4.241154e-06 4.1806675e-07 -5.0182445e-07 -9.985125e-07
0001c0 84 b2 ef b4 20 a9 bc 34 1a d9 4c b6 92 e4 57 34
       -4.4647106e-07 3.5140783e-07 -3.0524739e-06 2.0106589e-07
0001d0 d3 b7 0a b6 e9 89 b1 b5 b4 ed 51 b6 08 39 71 b5
       -2.0670602e-06 -1.3227665e-06 -3.1281788e-06 -8.986249e-07
0001e0 f9 4a b6 b5 6e 0d ce b5 84 82 c6 b5 30 ab c8 b4
       -1.3581877e-06 -1.5352105e-06 -1.4790135e-06 -3.7377458e-07
0001f0 80 ba 96 35 21 88 47 b4 45 70 24 b5 99 3e 20 35
       1.123015e-06 -1.8582843e-07 -6.1258135e-07 5.9695736e-07
000200 d5 32 b0 b4 83 68 90 b5 88 f6 90 b4 ca ce 9b 35
       -3.281954e-07 -1.0759253e-06 -2.7001465e-07 1.1608583e-06
000210 05 a9 1e 35 84 21 f4 b4 ec 14 37 34 cf 37 88 33
       5.910554e-07 -4.5472927e-07 1.7050814e-07 6.343145e-08
000220 8f 24 03 35 23 c3 ce b4 2e e5 8b b5 83 3d 83 b3
       4.88545e-07 -3.851247e-07 -1.0423007e-06 -6.111352e-08
000230 59 d8 b9 33 fd 55 b6 b3 33 65 2f b4 29 d6 ef b3
       8.654087e-08 -8.4906766e-08 -1.6334961e-07 -1.116826e-07
000240 02 f1 8d b5 47 a8 37 33 53 5b 58 b5 6c 1c 05 b4
       -1.0575461e-06 4.2761055e-08 -8.0599165e-07 -1.239693e-07
000250 62 a3 9c b5 d1 fa 9f b4 42 f9 0f b6 2e ed 2b b5
       -1.1670456e-06 -2.979855e-07 -2.1453748e-06 -6.4047606e-07
000260 11 b4 0d b6 80 86 c7 b5 22 4a d3 34 99 14 6f b5
       -2.111545e-06 -1.48658e-06 3.935575e-07 -8.906441e-07
000270 cd aa 0e b5 1b 6b ca b5 b1 47 85 b5 65 a7 58 b6
       -5.314767e-07 -1.5081345e-06 -9.930137e-07 -3.2283945e-06
000280 bd 16 6d b5 24 02 35 36 61 74 f1 35 da 6c 84 35
       -8.832247e-07 2.6972348e-06 1.798977e-06 9.866446e-07
000290 2e 6b 25 35 f4 45 a6 35 96 ff 9f 35 07 d8 1a b5
       6.1623257e-07 1.2388323e-06 1.1920808e-06 -5.768383e-07
0002a0 d0 c9 5f b6 97 39 25 35 4d f5 ae b4 c5 92 a7 b5
       -3.334706e-06 6.1551094e-07 -3.2588505e-07 -1.2485185e-06
0002b0 8b d9 a4 b4 a0 f8 23 35 38 e6 35 b6 7f 02 d3 34
       -3.0705664e-07 6.108403e-07 -2.7105107e-06 3.930363e-07
0002c0 ad ff 12 b6 7d 02 d5 b5 44 5c 3e b6 14 a3 f5 b3
       -2.1904518e-06 -1.5870461e-06 -2.8365912e-06 -1.1438365e-07
0002d0 0b 62 99 b5 16 f8 34 b6 2f 39 6a b6 bb 0d 98 b5
       -1.1427923e-06 -2.6966495e-06 -3.4902002e-06 -1.1328879e-06
0002e0 77 64 da 34 33 24 c5 b4 2c 88 53 b6 f8 6e 8b 34
       4.0678762e-07 -3.6720448e-07 -3.1520713e-06 2.5971508e-07
0002f0 63 4c 69 35 22 d4 f5 b5 99 86 f6 b5 b6 53 4a 36
       8.691042e-07 -1.8315661e-06 -1.8367601e-06 3.0149072e-06
000300 22 8e a4 35 1a 94 bf b5 03 ae f2 b5 bc 09 bb b4
       1.2260318e-06 -1.4273712e-06 -1.8081049e-06 -3.4838547e-07
000310 6a d1 b8 35 a3 36 84 b4 e6 67 1c b6 5a 80 a6 35
       1.3770016e-06 -2.462667e-07 -2.3306288e-06 1.2405319e-06
000320 cd e1 08 b5 1d ad d7 b4 47 34 2a 34 eb aa 82 35
       -5.099253e-07 -4.0172827e-07 1.5851502e-07 9.735498e-07
000330 af b9 19 b5 0b ad 9d b5 b5 4a 25 b6 d2 3b 57 b5
       -5.7267147e-07 -1.1747774e-06 -2.4630401e-06 -8.018079e-07
000340 e0 b4 34 b6 e3 ee f9 b5 1e fd 9b b3 17 c6 9b 32
       -2.6927373e-06 -1.8621471e-06 -7.263792e-08 1.8134456e-08
000350 c9 24 3e 35 d8 2e a5 34 84 46 3c 35 3c 12 27 34
       7.0834045e-07 3.0767728e-07 7.013807e-07 1.555972e-07
000360 a9 92 8a 35 5b 36 7b 35 1c d4 2d b4 d2 7e 1d 35
       1.0324485e-06 9.3583884e-07 -1.6189045e-07 5.8671606e-07
000370 da 55 27 35 62 ac 4f b5 45 4e 17 b5 0e e2 46 34
       6.233728e-07 -7.736436e-07 -5.636578e-07 1.8522425e-07
000380 c7 12 be 34 90 8a e0 b3 98 61 a5 b4 0e 08 1f 34
       3.540392e-07 -1.0456017e-07 -3.0804654e-07 1.4810959e-07
000390 b9 14 14 35 58 6f 0f b5 52 56 9b 34 9d 7b e2 34
       5.516445e-07 -5.343368e-07 2.8933806e-07 4.218572e-07
0003a0 03 e0 e5 33 84 9e 0c b5 83 45 e6 33 b8 55 7a 34
       1.0704391e-07 -5.2384735e-07 1.0722854e-07 2.3314249e-07
0003b0 09 58 90 35 f7 4c c6 34 9c e9 82 35 a9 ae f3 34
       1.0754458e-06 3.6936373e-07 9.753744e-07 4.538936e-07
0003c0 1d a7 56 b5 01 e2 04 b6 fc 66 2d b6 3d 1e 59 b5
       -7.9964394e-07 -1.9801084e-06 -2.5838954e-06 -8.08828e-07
0003d0 d0 ff a9 b4 77 97 e8 b4 cd dd 19 b6 42 33 a5 b5
       -3.166483e-07 -4.3323573e-07 -2.2927882e-06 -1.2308376e-06
0003e0 64 09 e2 34 4a be fe b5 24 aa cd b5 9d 33 24 36
       4.2102613e-07 -1.8979856e-06 -1.5323208e-06 2.4467947e-06
0003f0 c8 ef f1 35 dd 21 3b b5 8d ff 0d b6 04 6c a9 34
       1.8025685e-06 -6.9712206e-07 -2.1159387e-06 3.1557295e-07

exp_avg_sq f4 [30, 30]
000000 53 f9 97 2e f6 ec ea 2f 18 98 08 2f 41 9f ad 2f
       6.910974e-11 4.2732723e-10 1.2423162e-10 3.1581673e-10
000010 6b 7f 54 2f 0f 6f 17 2e a1 e1 28 30 69 c0 e2 2f
       1.9326556e-10 3.4432065e-11 6.143868e-10 4.1245876e-10
000020 58 78 bf 2e 61 7f b3 2e 10 1a b2 2f c0 7a 93 2f
       8.707052e-11 8.1626046e-11 3.239653e-10 2.6826363e-10
000030 b3 1f 6b 2e 31 8a b1 2e 1c a5 28 30 a6 21 30 2f
       5.346097e-11 8.073576e-11 6.135268e-10 1.6019061e-10
000040 1c 2c f8 2e 70 cf 93 2f cf 97 a9 2e c3 a5 8e 2e
       1.128557e-10 2.6886537e-10 7.712197e-11 6.4868576e-11
000050 ab 76 fa 2e 55 74 a4 2f 1e ad 99 2f 2e cd fb 2d
       1.13897634e-10 2.9914085e-10 2.7953545e-10 2.8626514e-11
000060 b7 53 31 2e f6 22 90 2f ad f1 89 2e 8d 65 06 2e
       4.0319494e-11 2.621829e-10 6.272969e-11 3.0558268e-11
000070 8a 89 1a 30 87 25 56 2e ae 3d 05 2d ee cb 33 2e
       5.622033e-10 4.8691298e-11 7.57387e-12 4.0881014e-11
000080 50 77 56 2e 0a a3 e6 2e 0f 63 0a 2e 1c a6 64 2d
       4.8763937e-11 1.04881506e-10 3.146555e-11 1.2997183e-11
000090 82 93 27 2e 2f 22 0d 2e 89 19 c1 2d b8 f8 0a 2e
       3.8102417e-11 3.209005e-11 2.19529e-11 3.1598474e-11
0000a0 a8 b6 2a 2e 50 ab 95 2e 83 0c 11 2e 34 4c 7e 2d
       3.8815756e-11 6.806167e-11 3.2980296e-11 1.4455149e-11
0000b0 4d 76 3e 2e f1 0d 53 2d 2a a0 57 2d 7b c9 2f 2f
       4.330607e-11 1.1997057e-11 1.2256899e-11 1.5987738e-10
0000c0 a8 07 82 2e 77 b4 89 2d 6d 83 07 2e 30 25 84 2e
       5.9130756e-11 1.565524e-11 3.0812176e-11 6.009271e-11
0000d0 1e 9c 0b 2e af c0 55 2e 31 0f a7 2d c7 af 9e 2d
       3.17436e-11 4.860173e-11 1.8992448e-11 1.8040581e-11
0000e0 18 01 9f 2d c8 0e 37 2e 75 d9 02 2f 25 f6 49 2e
       1.8076693e-11 4.162251e-11 1.1900687e-10 4.592073e-11
0000f0 bc ff 8d 2e 53 c0 e9 2e dc 9d 00 2f d5 2a 80 2f
       6.457365e-11 1.0629777e-10 1.1697615e-10 2.3313498e-10
000100 f5 86 e9 2e 4f d0 7d 2e 5b f0 8a 2f 28 2f 0a 2f
       1.06195865e-10 5.7710555e-11 2.5272837e-10 1.256778e-10
000110 8a f5 52 2f 83 dd 7f 2f 54 81 0c 2f 7e fb 65 2f
       1.9186622e-10 2.3270812e-10 1.2778872e-10 2.0916777e-10
000120 93 36 52 2e fb 2b ea 2e f4 f1 ef 2e fe e1 29 2f
       4.7796943e-11 1.06489005e-10 1.0911441e-10 1.5450749e-10
000130 87 a0 e0 2f e9 e1 2c 2f 1c 1d 75 2f c9 18 00 2f
       4.0859424e-10 1.5723568e-10 2.2292962e-10 1.1650338e-10
000140 42 80 83 2e 6b 86 04 2f a8 86 3d 2f 37 4e 94 2e
       5.9799735e-11 1.2053085e-10 1.723729e-10 6.7441545e-11
000150 98 3f a0 2f b7 62 a7 2e 6b ed 2d 2f 4e 0c 01 2f
       2.9149017e-10 7.611816e-11 1.5818606e-10 1.1736853e-10
000160 1f d1 9f 2f 3e 4d 10 2f 4e 0b bb 2e 48 a7 d9 2f
       2.907052e-10 1.3124166e-10 8.5057836e-11 3.959093e-10
000170 52 e9 83 2e e4 7c 8e 2f 8c 22 84 2e c1 12 9b 2e
       5.998636e-11 2.591839e-10 6.008802e-11 7.051915e-11
000180 db e5 23 2f 6c 70 fd 2e 40 9e d8 2e ee 09 8f 2e
       1.4906425e-10 1.1525078e-10 9.8506536e-11 6.504651e-11
000190 f5 80 e6 2e c6 12 70 2f ed c8 95 2e 05 d5 27 2e
       1.04820964e-10 2.1834543e-10 6.811427e-11 3.8160603e-11
0001a0 01 30 82 2e 6c 9f 73 2e 49 f8 8e 2e b6 c1 24 2f
       5.920243e-11 5.5393398e-11 6.501517e-11 1.4984533e-10
0001b0 9a f4 ea 2e ad c5 61 2f b9 50 42 2e 26 2d 9a 2e
       1.0684538e-10 2.053386e-10 4.418219e-11 7.011129e-11
0001c0 1e 04 95 2e 65 b8 05 2e 12 cb 0a 2e 9f 27 16 2f
       6.776467e-11 3.0404474e-11 3.155793e-11 1.3656497e-10
0001d0 3f 12 18 2f 17 67 22 2e 55 30 bc 2f 3a b1 c8 2e
       1.3830802e-10 3.6926098e-11 3.4231343e-10 9.126429e-11
0001e0 bc 30 67 2e e5 d4 c8 2f 72 a1 6a 2e c2 2f bf 2f
       5.2566604e-11 3.653106e-10 5.3348832e-11 3.4776632e-10
0001f0 e3 34 44 2e b7 4f ab 2d 67 c6 b6 2f 22 89 b6 2e
       4.4612213e-11 1.947585e-11 3.324658e-10 8.3007615e-11
000200 fd 9d 31 2d 7f d8 cb 2d a5 54 76 2e f9 83 a4 2e
       1.0096366e-11 2.3174572e-11 5.6009104e-11 7.4812996e-11
000210 74 33 5b 2d 40 81 da 2d ce f8 b3 2e 5d 6e 03 2e
       1.2460134e-11 2.484113e-11 8.184174e-11 2.9883974e-11
000220 07 6d ed 2d a7 70 77 2f 42 a0 5a 2e 7d 1e b1 2e
       2.6992198e-11 2.2504541e-10 4.97098e-11 8.054444e-11
000230 31 02 68 2d 76 cb a2 2e 1b 79 28 2e 07 23 55 2d
       1.318816e-11 7.403049e-11 3.830634e-11 1.2115426e-11
000240 c0 45 2e 2d 94 0e 59 2e 0f 01 05 2e 78 b5 88 2d
       9.9062425e-12 4.9353036e-11 3.024164e-11 1.5541998e-11
000250 dd 8a 11 30 ed 44 c8 2e 52 42 ad 2e d1 74 1a 30
       5.294803e-10 9.107191e-11 7.87891e-11 5.619088e-10
000260 da ab b0 2e 9f c0 a7 2f f1 be 22 2e b6 23 be 2e
       8.03408e-11 3.0513989e-10 3.7004125e-11 8.646543e-11
000270 1d 3c 91 2f e0 3d 16 2e b7 1f 15 2e 9d a1 0a 2f
       2.641806e-10 3.4161007e-11 3.3906846e-11 1.2608443e-10
000280 41 1c d3 2e 89 fe 3f 2e fe bb 15 2e 86 c6 4c 2e
       9.600188e-11 4.3654445e-11 3.4045648e-11 4.6560554e-11
000290 88 6d 2f 2e c2 76 e5 2d 4c af f6 2d c6 55 44 30
       3.9887676e-11 2.6087025e-11 2.804481e-11 7.1426276e-10
0002a0 a7 72 9b 2e cc 03 79 2f 71 8f a7 2d f5 b9 06 2f
       7.06895e-11 2.2647767e-10 1.9049403e-11 1.2253294e-10
0002b0 27 64 06 2f 8e cf f2 2d 17 6d 06 2e 93 11 78 2e
       1.222281e-10 2.7604388e-11 3.0564964e-11 5.640428e-11
0002c0 5a a0 fc 2f 5e 7e 9f 2e 1e 68 f0 2f ae 54 7f 2f
       4.595247e-10 7.25293e-11 4.3729725e-10 2.3222199e-10
0002d0 5d f8 2c 2e 14 0a d0 2e 86 56 77 2f 24 45 fd 2e
       3.9328863e-11 9.460535e-11 2.2495258e-10 1.151739e-10
0002e0 0f 58 55 2f d1 47 b6 2e 3f c5 61 2f cf ec 96 2f
       1.9403522e-10 8.289159e-11 2.0533707e-10 2.7453104e-10
0002f0 89 71 95 2e 81 2b 1c 2f 7d 58 35 2f a0 bf 41 2f
       6.7959034e-11 1.4203573e-10 1.6493291e-10 1.7621327e-10
000300 cb 09 12 2e 0e 9d 9e 2e 27 64 ec 2f f3 06 83 2e
       3.3205255e-11 7.212907e-11 4.2999312e-10 5.958425e-11
000310 45 05 ca 2e e5 e8 3a 2f 44 32 22 2f e0 22 0d 2f
       9.1868325e-11 1.6999342e-10 1.4751672e-10 1.2836265e-10
000320 32 6e 8e 2f 11 68 9b 2f e0 02 00 30 25 cb 1d 2e
       2.5907948e-10 2.826828e-10 4.6570214e-10 3.5878096e-11
000330 6c 27 79 2e 77 c0 61 2f 11 47 07 2f 04 e7 93 2e
       5.665106e-11 2.0532008e-10 1.2303426e-10 6.725823e-11
000340 c1 89 18 2f 93 43 19 2f ed 28 a6 2d 07 90 6c 2f
       1.387326e-10 1.3939276e-10 1.889019e-11 2.1515244e-10
000350 13 d8 4f 2d 72 b0 7f 2e 77 e7 ee 2e 56 bd 55 2d
       1.1814566e-11 5.8137002e-11 1.08641034e-10 1.2149689e-11
000360 af b1 92 2e 14 ad 4b 2f 5a f3 47 2e 76 88 0a 2d
       6.670874e-11 1.8524232e-10 4.54635e-11 7.874692e-12
000370 bf fc 88 2e 2e d1 28 2e 0f 22 65 2e bd 7e ef 2d
       6.229461e-11 3.8384566e-11 5.2098822e-11 2.7227437e-11
000380 4d 43 09 2f f4 30 d4 2d 76 85 1e 2e 78 32 90 2e
       1.2483987e-10 2.412335e-11 3.6043578e-11 6.557327e-11
000390 5c 95 82 2d 62 be e2 2d 55 43 95 2d 80 bb 68 2f
       1.4845618e-11 2.5777772e-11 1.696924e-11 2.116689e-10
0003a0 e3 38 4c 2e f9 be 44 2d 19 b5 16 2d a1 4a 8b 2e
       4.6434755e-11 1.11837145e-11 8.566725e-12 6.334245e-11
0003b0 6b 51 04 2f 59 14 a8 2d 16 28 14 2f e9 70 95 2d
       1.2034256e-10 1.9108425e-11 1.3474763e-10 1.6989481e-11
0003c0 e4 6c 81 2e 7d 4e d3 2e bc 7b a8 2e 22 e0 b3 2e
       5.885584e-11 9.6091114e-11 7.661735e-11 8.1797916e-11
0003d0 da 60 15 2f e6 77 0f 2e 11 10 3a 2f 7d 2d 68 2f
       1.358588e-10 3.2620927e-11 1.692231e-10 2.1116438e-10
0003e0 30 66 9d 2e 3d 6e c9 2e dc 2f f2 2e 48 ec 06 2f
       7.1576856e-11 9.160004e-11 1.10133874e-10 1.2271173e-10
0003f0 67 0e ad 2e ee 83 82 2e 51 13 0c 30 70 e4 87 2e
       7.8696875e-11 5.935151e-11 5.0959154e-10 6.179668e-11

exp_avg f4 [30]
000000 f5 56 2d ac a6 2a 7a 2d 8d a8 3a 2c 4d 52 26 2d
       -2.463305e-12 1.4220325e-11 2.6525754e-12 9.454282e-12
000010 cf 73 9d 2c 2c 90 ad 2c e8 c7 fb ac 0c 35 86 2c
       4.4750657e-12 4.932962e-12 -7.156043e-12 3.8143984e-12
000020 d0 71 a7 ac 46 15 ad 2c 3d b8 10 ad 0a 15 c9 2c
       -4.759061e-12 4.9193176e-12 -8.226361e-12 5.7150994e-12
000030 00 25 d4 ac 2f 04 90 2c e9 a1 5f ad a3 1a 5a ac
       -6.0295102e-12 4.0931906e-12 -1.2712034e-11 -3.099445e-12
000040 c1 49 23 ad 11 78 e3 2b 81 89 70 ad 0c 09 0b aa
       -9.281854e-12 1.6162645e-12 -1.36729525e-11 -1.2348819e-13
000050 cc b2 83 ac 5b a6 58 2b b5 33 58 ad 66 66 90 2c
       -3.7430944e-12 7.696948e-13 -1.228966e-11 4.1040947e-12
000060 f3 63 35 2c d1 bc 0c ab 1f d5 2e 2c ab 21 f1 2b
       2.577713e-12 -5.0000027e-13 2.4845193e-12 1.7133425e-12
000070 0d a0 13 2d fc 97 50 2c
       8.391521e-12 2.9642946e-12

exp_avg_sq f4 [30]
000000 59 d4 1f 29 e7 fe 3c 2c 12 24 02 2b 76 a1 96 2b
       3.5489274e-14 2.6857906e-12 4.6235335e-13 1.0702955e-12
000010 33 8f d1 29 f4 f8 83 2b 04 81 2e 2c e9 83 a5 2c
       9.3063056e-14 9.377208e-13 2.4798505e-12 4.704227e-12
000020 7c 0d d7 2b 85 98 13 2a e2 ff cd 2a 53 51 0f 2a
       1.5280411e-12 1.3109139e-13 3.659287e-13 1.2729166e-13
000030 de 7e ec 28 c5 3e 34 2c ea 6c c1 2c 2e dd 0b 2c
       2.6256283e-14 2.5614383e-12 5.497482e-12 1.9875867e-12
000040 00 39 c1 2a a7 ff 0f 27 b4 39 f2 2c 6b 67 8a 29
       3.432324e-13 1.9983826e-15 6.88446e-12 6.146371e-14
000050 e8 3e ad 2b 19 f8 83 2b 48 10 02 2d 56 a3 07 2d
       1.2309849e-12 9.376971e-13 7.39326e-12 7.710129e-12
000060 01 e6 ea 2b f7 8f fe 26 81 6a 06 2d b0 b9 b8 29
       1.6690539e-12 1.7663812e-15 7.640667e-12 8.203453e-14
000070 47 42 c2 22 c6 25 67 2c
       5.265398e-18 3.2848043e-12

exp_avg f4 [7, 30]
000000 86 22 91 34 e3 ad 28 36 09 9c 60 b5 bd 86 0c b4
       2.7033474e-07 2.5135166e-06 -8.3673564e-07 -1.3087534e-07
000010 5e 5b 8f 35 4e e1 bb 34 47 76 84 b5 51 7b 99 34
       1.0680922e-06 3.4995395e-07 -9.86919e-07 2.8588195e-07
000020 4d 4d d6 b3 26 17 67 b5 5e 89 d3 b4 ac cf 08 36
       -9.9792125e-08 -8.608789e-07 -3.940176e-07 2.038646e-06
000030 3f 59 b3 33 76 07 fc 34 b9 85 c9 b5 b7 58 79 b4
       8.351571e-08 4.6944086e-07 -1.5014585e-06 -2.3222206e-07
000040 ae be c1 b5 5b 4b 5f 35 67 ab bf b5 4b 15 85 b5
       -1.4435116e-06 8.318363e-07 -1.4280494e-06 -9.915469e-07
000050 e2 da 1e 34 58 ec e4 b5 f1 25 12 b6 d2 12 0f 35
       1.4794526e-07 -1.7056109e-06 -2.177778e-06 5.329904e-07
000060 45 ad 1e b6 d9 e3 fd b4 a9 c8 60 34 3d 12 61 b5
       -2.364469e-06 -4.7290703e-07 2.0934625e-07 -8.384557e-07
000070 08 7c 04 36 47 bc bc 34 4a 30 07 b7 71 8c cc b6
       1.9741728e-06 3.515472e-07 -8.05787e-06 -6.0960233e-06
000080 87 be 3a b6 1f 7e d7 b6 9d 4b c6 b6 18 15 d7 b5
       -2.7827061e-06 -6.4221817e-06 -5.9096624e-06 -1.6024887e-06
000090 44 7f 96 b6 42 ac e5 34 f4 cf 9a b6 1e 06 bd b6
       -4.485164e-06 4.2779908e-07 -4.6137666e-06 -5.633351e-06
0000a0 d2 70 ea 36 b4 44 8f b6 13 5a b4 35 08 04 88 35
       6.9868775e-06 -4.26973e-06 1.343726e-06 1.0133963e-06
0000b0 1d 05 9e 36 2e b8 85 b6 59 e0 e8 36 63 dc 94 b5
       4.709362e-06 -3.98515e-06 6.9402563e-06 -1.1091e-06
0000c0 68 ad e3 36 59 7d ad b3 40 79 34 b5 3d 6a d5 b5
       6.7853143e-06 -8.078741e-08 -6.723167e-07 -1.5900656e-06
0000d0 c3 49 42 36 b0 46 88 b6 79 97 6a b5 dd a1 3f b5
       2.8951188e-06 -4.061345e-06 -8.7392215e-07 -7.1388587e-07
0000e0 46 20 a3 36 82 6e 73 35 af 9a 09 b6 3e 87 ed b5
       4.8615357e-06 9.0685364e-07 -2.0504629e-06 -1.7697237e-06
0000f0 1a fe fa b5 b6 cf 60 b5 da 69 e0 b3 26 a9 57 b5
       -1.8700405e-06 -8.374876e-07 -1.0450067e-07 -8.0339885e-07
000100 ab d7 a1 b5 b1 66 78 35 1e 41 4f b5 27 cc 9b b5
       -1.2058202e-06 9.2536635e-07 -7.7208267e-07 -1.1607816e-06
000110 cc 2c 3b b6 2c 23 2c b5 1b 73 b7 35 8b 79 6e b4
       -2.7891247e-06 -6.4126175e-07 1.3668063e-06 -2.2209694e-07
000120 66 1e 84 b5 98 6d 1a b5 91 d9 2c 35 dc 58 eb b5
       -9.843613e-07 -5.752895e-07 6.4391594e-07 -1.7534726e-06
000130 3b 22 45 36 6b c2 fd b4 ca 80 8f 35 25 38 84 b5
       2.9375212e-06 -4.726638e-07 1.0691813e-06 -9.851107e-07
000140 51 44 f1 35 28 12 10 b5 7a b8 c8 34 dc 32 92 36
       1.7975782e-06 -5.36706e-07 3.7387127e-07 4.35706e-06
000150 fd 25 24 34 55 82 ab b5 e3 23 91 35 0a e4 76 35
       1.528751e-07 -1.2778424e-06 1.0813786e-06 9.197398e-07
000160 42 f5 d1 34 12 6c 76 b5 ff cc 62 34 e6 56 f9 34
       3.9107732e-07 -9.1799404e-07 2.1122467e-07 4.644309e-07
000170 49 03 82 35 1f 1d 6f 35 63 c6 85 35 95 ce 4b b5
       9.686711e-07 8.9076815e-07 9.96701e-07 -7.592401e-07
000180 2b b0 87 35 91 17 1e 35 81 be 42 b5 54 20 89 b4
       1.0109555e-06 5.889388e-07 -7.254785e-07 -2.554176e-07
000190 03 75 74 b4 9e 23 fe 34 23 32 3c b6 c9 00 09 b5
       -2.276684e-07 4.7337102e-07 -2.8043366e-06 -5.103762e-07
0001a0 35 be 24 b6 6a 22 7f 34 3e 5f 09 b5 42 12 3a 35
       -2.454862e-06 2.3761245e-07 -5.117507e-07 6.931697e-07
0001b0 69 01 ca 34 61 fc 39 33 59 e0 0f 35 a5 ff 4c b5
       3.7626458e-07 4.3303206e-08 5.359812e-07 -7.6367934e-07
0001c0 d5 2d c3 b5 17 60 6e b5 04 a1 c0 b4 97 51 99 34
       -1.4541971e-06 -8.880174e-07 -3.587994e-07 2.8557835e-07
0001d0 1e 1e 89 b5 9f 89 b9 b4 95 c8 fa 33 5e de 7d 35
       -1.0216061e-06 -3.4559068e-07 1.1678018e-07 9.457343e-07
0001e0 7b a0 e7 b5 ae 80 33 b4 85 88 a4 b5 40 77 cd 35
       -1.7257547e-06 -1.6717487e-07 -1.2258685e-06 1.5308397e-06
0001f0 ef ac b6 35 34 df d5 b5 bd 01 87 b5 b1 4d e3 35
       1.3610387e-06 -1.5934697e-06 -1.005879e-06 1.6935429e-06
000200 02 a1 43 b6 5d 74 f5 b3 b9 45 2b 36 a7 b5 ce 35
       -2.9150983e-06 -1.1429868e-07 2.552157e-06 1.5401064e-06
000210 85 5f 91 b5 cd dd ca 35 ba 2c 28 b6 e3 e2 40 b6
       -1.0831142e-06 1.5114725e-06 -2.5059985e-06 -2.8742295e-06
000220 1d 07 1e b3 aa f8 48 36 01 cf db 34 0c 8e 24 b6
       -3.679371e-08 2.9947064e-06 4.0942544e-07 -2.4520587e-06
000230 74 e5 20 34 77 f0 9c b5 24 0f 9d b5 8a 42 d7 b5
       1.4984636e-07 -1.169289e-06 -1.1701818e-06 -1.6038114e-06
000240 3f 61 22 36 cd 02 a4 35 49 d6 2b 35 fc d0 03 b6
       2.4196486e-06 1.2219767e-06 6.401429e-07 -1.9642166e-06
000250 06 54 90 34 d6 cc 9d 35 68 b0 41 b6 90 55 dc b4
       2.6883225e-07 1.1757027e-06 -2.8861923e-06 -4.1040448e-07
000260 40 7e 33 b6 63 a1 e0 34 65 39 2a 35 0e f2 34 b5
       -2.6746566e-06 4.1840676e-07 6.3413455e-07 -6.740746e-07
000270 d8 54 37 b6 0b c9 8c 35 c9 ea 88 b6 7b 73 92 b5
       -2.731851e-06 1.0489324e-06 -4.0804484e-06 -1.0911457e-06
000280 b2 54 86 36 4e ef 23 36 eb d4 34 35 4a 9e 15 36
       4.003371e-06 2.4428186e-06 6.736506e-07 2.2294867e-06
000290 87 e9 2e b6 c0 06 af b6 67 53 04 36 e7 46 68 36
       -2.6063951e-06 -5.216192e-06 1.971808e-06 3.4611965e-06
0002a0 2b b6 bf 35 2b 1b 45 b6 73 5b c8 35 d8 b0 65 b6
       1.4283627e-06 -2.9371101e-06 1.4927776e-06 -3.4226596e-06
0002b0 22 6f ae b5 07 59 e2 b5 9f ec 59 36 2b 6c 43 b5
       -1.2996354e-06 -1.6864223e-06 3.2473251e-06 -7.2800566e-07
0002c0 53 05 f5 35 0a 94 0f b6 72 4f c5 35 93 5e 10 35
       1.8255472e-06 -2.139483e-06 1.4700765e-06 5.3781804e-07
0002d0 c2 f9 45 b5 f0 1f 31 36 5f 14 34 b6 a7 92 e2 b5
       -7.3751664e-07 2.6393645e-06 -2.6833948e-06 -1.6880994e-06
0002e0 78 95 02 b5 85 2c c8 b4 ec f6 be b5 3f 92 8a 34
       -4.864628e-07 -3.7285295e-07 -1.4227967e-06 2.581091e-07
0002f0 c4 d9 b3 b5 35 d3 15 b6 b4 42 08 35 d2 3b 91 35
       -1.3399917e-06 -2.2325669e-06 5.0761014e-07 1.0820752e-06
000300 4c b1 c2 35 d0 58 1f 36 1c 51 e5 35 79 dc 04 b5
       1.4505727e-06 2.3744542e-06 1.7085436e-06 -4.949466e-07
000310 1b d5 05 b6 d0 b4 f0 34 b9 0a 2f b6 bc 70 37 b6
       -1.9942588e-06 4.4835042e-07 -2.6083273e-06 -2.7334745e-06
000320 d0 27 7f b4 82 0d 9e b5 3d da de b4 21 8c 05 36
       -2.376321e-07 -1.1775849e-06 -4.1509512e-07 1.990011e-06
000330 c6 60 6e b6 9f 5b ce 35 19 9a 44 36 21 9a b9 b5
       -3.5521093e-06 1.5374861e-06 2.9295973e-06 -1.3828432e-06
000340 7b 70 8e 35 d3 dc 43 35
       1.0612561e-06 7.29645e-07

exp_avg_sq f4 [7, 30]
000000 21 e1 f8 2e 40 06 b3 30 ee 9d 8c 2f a0 34 44 31
       1.1317725e-10 1.302574e-09 2.5578067e-10 2.8551668e-09
000010 3d 3c dc 30 6c 9e a1 2e 1b 85 6c 2e 12 d7 09 2e
       1.6024228e-09 7.349574e-11 5.377841e-11 3.1341214e-11
000020 17 47 2a 2f a7 84 15 30 95 86 5d 2f c2 c4 d0 30
       1.5486666e-10 5.4394395e-10 2.0147646e-10 1.5189914e-09
000030 94 90 82 2f 22 c9 19 2e 5f ad a1 30 c7 49 26 2f
       2.374959e-10 3.4966814e-11 1.1763567e-09 1.5123823e-10
000040 d7 66 2a 30 05 5c dc 2f 92 c5 91 2f 65 c1 33 2f
       6.1991784e-10 4.008315e-10 2.6515729e-10 1.6348663e-10
000050 db 3b ed 2d dc 36 4a 2f 39 dd d0 2f dc cf 21 30
       2.6970362e-11 1.8391283e-10 3.7992168e-10 5.8866845e-10
000060 2f 51 d3 30 fa d9 b1 2e 50 4e 60 2e c0 7d 95 2e
       1.5375344e-09 8.0877485e-11 5.100126e-11 6.798073e-11
000070 48 e2 53 2f 08 bd da 2e 50 86 b4 30 55 e0 27 30
       1.927073e-10 9.947071e-11 1.3134898e-09 6.107304e-10
000080 02 7e 46 30 fc 7f a9 30 21 f5 2a 30 36 0a 01 30
       7.221105e-10 1.2332744e-09 6.219399e-10 4.694444e-10
000090 34 ba 21 30 ad b4 f7 2e f6 be 8f 2f f2 fe 81 30
       5.883607e-10 1.1264354e-10 2.6147234e-10 9.458445e-10
0000a0 74 63 ea 2f 53 2e 92 30 8c ec 06 30 c1 ba b4 2f
       4.2635018e-10 1.0636064e-09 4.908507e-10 3.2874506e-10
0000b0 19 d9 db 30 09 e9 ce 2f 9b bf f3 2f 81 fb b9 30
       1.599605e-09 3.7636763e-10 4.4337586e-10 1.3532003e-09
0000c0 82 c5 01 30 06 ed a8 30 6d 72 ad 2e 05 e0 a6 2f
       4.72106e-10 1.2290975e-09 7.887455e-11 3.03544e-10
0000d0 b7 39 69 30 8a 69 ca 2f 27 c2 7e 30 8d 21 af 2f
       8.4846924e-10 3.6818576e-10 9.268057e-10 3.1856154e-10
0000e0 1a 4d 84 2f e9 cf e1 2f 95 fc 06 30 e6 35 a0 2f
       2.4065444e-10 4.107499e-10 4.9107857e-10 2.9142128e-10
0000f0 e3 03 26 2e a7 6a 09 30 a0 4e d2 2e 05 5f d8 2e
       3.7747482e-11 4.999187e-10 9.563661e-11 9.8394216e-11
000100 c6 fe 17 2f 17 07 9d 30 15 67 1f 30 47 bb f0 2f
       1.3823884e-10 1.1425269e-09 5.799035e-10 4.3788814e-10
000110 69 2f 57 30 d6 b5 ee 2e b7 f2 d2 2f 1f b4 93 2f
       7.828392e-10 1.08552875e-10 3.8371237e-10 2.6867128e-10
000120 f5 46 f2 2f 14 b3 3e 2f 01 1e 7e 2f c3 6d a4 2f
       4.4069962e-10 1.734402e-10 2.3111825e-10 2.9909417e-10
000130 d7 36 bb 30 e4 31 c6 2e 08 a7 c9 2d 8d d2 5a 30
       1.3621627e-09 9.01286e-11 2.2925231e-11 7.960715e-10
000140 c1 3a d1 30 5f 5c 06 30 a0 55 c0 2f 11 95 32 31
       1.522345e-09 4.8880183e-10 3.4985437e-10 2.5987144e-09
000150 4a 1b 11 30 0a 7d f1 2f 1f 06 c7 2e 84 4b 0a 2f
       5.2789473e-10 4.392649e-10 9.0505596e-11 1.2577855e-10
000160 3b 9e 1c 2f a4 17 02 2e a8 3c 30 31 d5 c9 07 31
       1.4244332e-10 2.9579575e-11 2.564585e-09 1.9759814e-09
000170 a5 66 1a 30 4b 4e 09 2f bf c0 d0 30 b4 e3 81 2f
       5.617074e-10 1.2487893e-10 1.5188774e-09 2.3626756e-10
000180 79 41 7e 2f 78 a0 44 2f d5 63 b1 30 6e 25 06 31
       2.3124426e-10 1.7883106e-10 1.2906819e-09 1.9520843e-09
000190 31 13 23 30 47 5b 26 30 24 31 e2 30 58 63 0d 2f
       5.9326327e-10 6.052016e-10 1.6457631e-09 1.2859169e-10
0001a0 71 70 7c 30 c1 22 a5 2e a3 3c 39 2f 9a 5f 07 2f
       9.1836855e-10 7.509505e-11 1.6847194e-10 1.2312143e-10
0001b0 4f 56 f3 2e 2b 3b c4 2e c5 9f 94 2d 31 b8 4f 30
       1.1065692e-10 8.9235584e-11 1.6896604e-11 7.5567913e-10
0001c0 46 06 3b 30 f9 1c c9 30 0f 62 89 30 6a 2e 43 2f
       6.803912e-10 1.4632909e-09 9.995932e-10 1.7751636e-10
0001d0 80 5e a9 2d 3a 2e 91 2f 9c 93 b3 2c 88 68 84 30
       1.9255042e-11 2.6408192e-10 5.103874e-12 9.633974e-10
0001e0 2e e3 a8 2f 75 eb 9e 2f 26 79 ff 2f 37 9f a7 2f
       3.0720443e-10 2.8907335e-10 4.647031e-10 3.0490252e-10
0001f0 34 e1 8d 2f a6 c1 4e 30 87 9e a1 2f 2e 1e e1 2f
       2.5807767e-10 7.5217554e-10 2.939837e-10 4.0948706e-10
000200 19 2c 89 2f 14 a1 be 2f f5 fc 4a 30 a5 fd 5b 2f
       2.4951488e-10 3.4675252e-10 7.3846645e-10 2.0008047e-10
000210 ae b2 7c 30 bd 24 4e 30 d9 cd e3 2f 2e a6 6e 30
       9.1930985e-10 7.499457e-10 4.1437323e-10 8.682005e-10
000220 88 66 87 2f 1c 30 f2 30 3c ee 19 2f c4 57 cb 2f
       2.462921e-10 1.7621491e-09 1.3999907e-10 3.6987846e-10
000230 c2 a9 74 2f 50 45 44 30 f3 58 54 2f d5 90 a2 30
       2.2251981e-10 7.1402884e-10 1.9312889e-10 1.1828215e-09
000240 03 37 f6 2f cb dc b4 2f 3f e8 5c 2e 26 b6 9a 2f
       4.4786228e-10 3.2898692e-10 5.0228485e-11 2.814186e-10
000250 dc 49 b4 2e 69 96 7a 2f a1 4d b4 30 af e2 33 2f
       8.1985724e-11 2.2790804e-10 1.3118787e-09 1.636049e-10
000260 40 de 18 2f 19 bd c3 2f 7f 6d 7c 30 d4 ba 91 30
       1.3903279e-10 3.5604655e-10 9.183267e-10 1.0603238e-09
000270 80 b7 d1 30 52 ac 89 2e 78 5d 47 31 59 a7 0b 30
       1.5258905e-09 6.260649e-11 2.9011442e-09 5.080572e-10
000280 13 73 99 2f 85 8f 8a 2f d0 0e 5d 31 2c 5d 02 30
       2.7912303e-10 2.520403e-10 3.2168153e-09 4.742613e-10
000290 99 7a b1 30 14 12 66 30 ba ca 97 30 c9 43 9f 2f
       1.2913289e-09 8.3699203e-10 1.1044314e-09 2.8970096e-10
0002a0 00 1e 52 30 24 a4 70 2f d6 2a 71 30 60 10 08 30
       7.644019e-10 2.1886187e-10 8.7736163e-10 4.949978e-10
0002b0 e0 ae 3d 31 a0 6d 90 2f 09 8c 97 30 48 70 61 30
       2.7602525e-09 2.627134e-10 1.1026496e-09 8.2014084e-10
0002c0 3a a5 67 2f fb dc 2a 30 bd e0 0f 30 15 e4 89 2f
       2.1068028e-10 6.215967e-10 5.234247e-10 2.5082217e-10
0002d0 08 3d 9b 2f 2e 4e af 2f 0e 28 88 2f 90 6a 93 2f
       2.82377e-10 3.1887865e-10 2.4766716e-10 2.6814861e-10
0002e0 51 45 dc 2f cc a6 33 2f 6b 52 0c 30 ce 3f 97 2e
       4.006702e-10 1.6339213e-10 5.1048826e-10 6.878019e-11
0002f0 19 7d e7 2f 9e 09 cf 2f e0 18 bb 2e 15 6c 94 30
       4.2107542e-10 3.7659914e-10 8.508194e-11 1.0799136e-09
000300 ec f0 5a 2f c0 a0 af 2f 8d 1a fd 2f 26 56 2a 2f
       1.9912577e-10 3.1946534e-10 4.6039297e-10 1.5492016e-10
000310 6a 07 32 2f 02 37 45 30 2f cb f3 2e 43 c1 df 2f
       1.619164e-10 7.1746353e-10 1.1086453e-10 4.0700784e-10
000320 66 1d 17 2f 8f 6a ef 2e 3e f6 14 30 cd 80 ee 2e
       1.3743814e-10 1.088739e-10 5.419202e-10 1.08458666e-10
000330 5c f0 c8 2f 76 1e f6 2e 03 c3 cf 2e 58 19 8f 2f
       3.6550574e-10 1.1192196e-10 9.447911e-11 2.6029556e-10
000340 2c 97 cb 2f 2d fd 85 2e
       3.70329e-10 6.093113e-11

exp_avg f4 [7]
000000 94 3e d5 2d ac 0e bb ac 2a 71 f6 2c 06 35 ab ad
       2.4243087e-11 -5.3164886e-12 7.0043043e-12 -1.9463996e-11
000010 90 d6 85 ad 55 b1 9d 2b 70 2c 46 ad
       -1.5215634e-11 1.120474e-12 -1.1264864e-11

exp_avg_sq f4 [7]
000000 ff 4f 5c 28 53 9d 6b 2c 82 76 c1 2c 4e 64 88 2c
       1.22298e-14 3.348284e-12 5.498547e-12 3.8764885e-12
000010 45 0b a2 29 bd 28 95 2c 16 8f 82 2a
       7.1962e-14 4.2393576e-12 2.3191925e-13
