tutorial/Mouse_cerebellum_output/version_4/checkpoints/mlp.ckpt (torch, 18229 bytes, 12 tensors)

model.classifier.0.weight f4 [30, 30]
00000000: 574c 17bd de4a 36bc edd6 903d 1974 d4bd
00000010: 2988 ba3d d485 b43c 50d4 553d ddb7 30bc
00000020: 344f 5fbd 1b49 86bc 92ae a6bd a02a 94bd
00000030: 171f e1bc 5ead 8dbd 625b 10be 2ec9 93bd
00000040: 7747 813d cac9 9c3d eba3 193e e343 b0bd
00000050: 1cb7 2bbd 42e4 3e3d 2519 1f3d dc2b a73c
00000060: 4185 3fbe 2a67 4c3b e866 00be 3faa 0f3e
00000070: 3a2e 933c e291 52bd 2546 bb3b efa8 9abd
00000080: f6b7 323c 4f2a 763d 07a1 d6bc 1533 4cbd
00000090: 032b 253e f4ae fe3d 9dca 2e3c b5c8 52be
000000a0: 81db aa38 6614 07bd a6f8 e53d f1d1 efbb
000000b0: 2105 d3bd 0f06 8abd 97c9 c43d 484a b73d
000000c0: 3fd2 573e 3b61 c93d 17eb 8fbd 5901 383d
000000d0: 7029 2e3c 63d0 96bb fdad cabd 1066 0d3d
000000e0: 8ab8 aabd cb75 143e 919e be3d abd1 efbd
000000f0: 8bca d13b 97c7 8abb 6d21 ea3d 730b 74bd
00000100: ad95 833d 230e 443e 6df3 0abc d96e 15bd
00000110: 63dd 79bd 8bb8 57bd 6f74 b1bd 039e d6bd
00000120: 5493 ff3d 49c8 c3bd 109d 3abe 7da1 223d
00000130: b4ee 883d e4a2 b03d 9af3 823d 80e1 00be
00000140: e1e7 39bd b591 c23d 00e9 25bd 17a3 a63d
00000150: 3aba 5dbe 896f 18bc cc8a 2fbe dc2d 983d
00000160: 85e1 583e 822f 29bd 1405 eebc 8d14 8fbd
00000170: df59 a0bc 35ff 8c3d b00a 34bd dcac d0bd
00000180: 97b5 843d ca94 803d 1d61 6a3c e304 24be
00000190: e3c6 a53d 67b7 41bd 7aee 563e 5a3b df3b
000001a0: 90b1 88bb 1b02 463e 7b5c 403e c18c bdbd
000001b0: 836d 40be 269b 2f3d 927a b3bb 769a 263c
000001c0: d9b9 7ebd 720f 0e3e 0e97 6a3d 8494 16bc
000001d0: cc7a 403d 0b49 8d3d 61c9 193e ed84 8c3d
000001e0: a60d 05be 5711 b2bc f7f0 3338 900b 28be
000001f0: d7f7 f63d 563e 6ebe a91e 4b3d 2d4d e4bc
00000200: a2d4 5bbd 1356 4b3d 6c39 b9bb a160 70bd
00000210: df5c dcbd 26cb 0abd 9b2e a1bc 1467 0f3d
00000220: c993 173e 20a0 bcbd 9ff9 c0bd ebcf cabd
00000230: 1b40 af3c 4a34 bcbc 36ec 743d b0c4 9d3d
00000240: faa6 efbc 6a77 74bc ce80 253d bf9b 283e
00000250: 85f1 2dbe a706 c73d 9561 b1bc 3314 bebc
00000260: f819 dcbd 30ba 853d d17f 78bd 01d9 63be
00000270: 396f 3d3d 0040 783d 7eba 5e3d f8d5 1dbc
00000280: 7cd2 c53d ea37 9d3d 755a 7fbd f23c ae3d
00000290: fae3 193e 9c1b 2f3a 1aed 903b 4e75 c2bd
000002a0: b577 a4bd 166a 043e 7b0a 073d fe9c a5bd
000002b0: 3d5d ee3c a4e6 1abd 7c4c 483e a0fe 1b3c
000002c0: ed1a 243e c786 acbc b1fe 25be 5c05 3b3d
000002d0: 44a8 80bd 7104 66bd fab0 153d 65d4 7dbd
000002e0: 6128 803d 217a c5bd a7f5 e73d 93dd 373d
000002f0: debd 16bd 63b9 dfbd 4a47 c8bc 99fa a3bd
00000300: 8bc5 533d 6d2c 43bd 35e1 f1bd 84be b93a
00000310: a29a 213e 8297 9c3c 5b58 943d 1f92 f5bc
00000320: ac01 2ebd 495c 203d 9f6b c63c 7f79 913d
00000330: 50e4 03be 9707 d83b 3418 98bd b3e2 413e
00000340: e0e0 173d cc7c a6bc 9312 85bd faad 993c
00000350: c4f9 9f3d 4bef 24be 2253 013e f2d4 043d
00000360: e77d 1abd 5fc6 b8bd 550f 9fbd e816 aa3d
00000370: fb0d 93bd 1094 b5bd a235 22bd 6731 acbd
00000380: a144 d1bd 9d29 293d 4c47 973d 9919 0dbc
00000390: b14c 46bd 54e1 39be 922e 9c3b 1359 0b3d
000003a0: e8c6 473c e865 ab3d d1b2 11be 9cd8 debc
000003b0: 6e9a 9ebd 21ca b23d b348 143c 1451 583d
000003c0: 9c68 423d 4c02 6abd e3b6 623d 06f8 b13d
000003d0: af4b 1dbd 152d ed3d f171 cb3d caa4 b73d
000003e0: af0b 12bb e5a6 58be dc37 b2bc 8cb3 67bd
000003f0: 5348 583e b001 0abd dbfc 14be 78a0 4abb
-0.036938038 -0.011126248 0.07072244 -0.10373706 0.09108002 0.02203647 0.05220443 -0.010786024
-0.054518893 -0.016392281 -0.081387654 -0.072346926 -0.027480645 -0.06917833 -0.1409736 -0.07216106
0.06312459 0.07655676 0.15003936 -0.08606698 -0.041922674 0.046604402 0.03884234 0.020406656
-0.18703176 0.003118942 -0.12539256 0.14029787 0.017966378 -0.051408656 0.005715149 -0.07551753
0.0109081175 0.060098942 -0.02619983 -0.049853403 0.16129689 0.124357134 0.010668424 -0.20584376
8.1471175e-05 -0.032978438 0.112290666 -0.007318728 -0.10303713 -0.06739437 0.09608763 0.08949715
0.21076296 0.09832998 -0.07027262 0.04492316 0.010629997 -0.0046024784 -0.09896467 0.034521163
-0.08335979 0.1449806 0.09307588 -0.11709913 0.006402319 -0.0042352187 0.11432157 -0.05958123
0.06425033 0.19146018 -0.008480889 -0.036482666 -0.061002146 -0.05266623 -0.08664786 -0.10479357
0.124792725 -0.09559686 -0.18223977 0.03970479 0.06686154 0.08624819 0.063941196 -0.12586021
-0.045387153 0.09500448 -0.04050541 0.08136576 -0.21653071 -0.009303936 -0.1714279 0.07430622
0.21179779 -0.041305073 -0.029055156 -0.069863416 -0.019574104 0.068846144 -0.043955505 -0.1018922
0.06479948 0.06278379 0.01430538 -0.16017489 0.08094575 -0.047294047 0.20989409 0.006812495
-0.0041715577 0.1933674 0.18785278 -0.09255362 -0.18791775 0.04287257 -0.005477258 0.010168662
-0.062188957 0.1387308 0.057272963 -0.009190682 0.04699211 0.068986975 0.15018226 0.06861291
-0.12993488 -0.021736784 4.290134e-05 -0.1641066 0.120589904 -0.23265967 0.049589787 -0.027868832
-0.05366958 0.049642634 -0.005652597 -0.058685903 -0.10759901 -0.033885144 -0.019675544 0.035010412
0.1480247 -0.09210229 -0.094226114 -0.099029385 0.021392873 -0.022974152 0.05979558 0.07703531
-0.029254425 -0.014921049 0.04040604 0.16465662 -0.16986664 0.09718066 -0.021652976 -0.023202991
-0.10747141 0.06529653 -0.06066877 -0.22250749 0.04624865 0.06060791 0.05437707 -0.009633534
0.09659287 0.076766804 -0.062342126 0.08507718 0.15028372 0.00066798343 0.004422796 -0.0949503
-0.08030645 0.12931094 0.03296898 -0.080865845 0.029097194 -0.037817612 0.19560426 0.009521157
0.16025896 -0.02106036 -0.16210438 0.045659408 -0.06282094 -0.05615658 0.03654573 -0.061970133
0.06257702 -0.09642435 0.11326151 0.044889044 -0.036802165 -0.109240316 -0.024448056 -0.08006782
0.051702064 -0.04764979 -0.11810533 0.0014171158 0.15781644 0.019115213 0.07243415 -0.029976903
-0.042482063 0.03915051 0.02422124 0.07103252 -0.12880063 0.0065927017 -0.074264914 0.18934135
0.037079692 -0.02032318 -0.064976834 0.018759716 0.07811311 -0.16106908 0.12629369 0.032429643
-0.037717726 -0.09022211 -0.07766596 0.0830515 -0.07180401 -0.08866131 -0.03960193 -0.0840786
-0.10218168 0.04129945 0.07386646 -0.00861206 -0.048412982 -0.18152362 0.004766294 0.034020495
0.012193419 0.083690464 -0.1422837 -0.027202897 -0.07744299 0.08729959 0.009050536 0.052811697
0.047463045 -0.057131097 0.055350196 0.08689885 -0.038402256 0.11580864 0.09933842 0.08966978
-0.0022284796 -0.21157415 -0.021755151 -0.056567714 0.2112134 -0.033693016 -0.14549582 -0.00309184

model.classifier.0.bias f4 [30]
00000000: bfe2 29b4 fd30 4ab6 d64a 2334 557b 1936
00000010: 229d 8436 e8ef 6ab4 3ded 1134 35e5 1136
00000020: 763f 9db4 11c2 3eb4 fd6f 1c34 35fa c6b4
00000030: a990 a3b5 8232 adb4 c9fa 46b6 9a23 eb33
00000040: 1ff9 c0b6 f260 d0b4 eb00 7335 036d cab3
00000050: f997 2c35 1ac5 1136 f6ae 9ab5 7d09 91b4
00000060: db3e 01b6 d2d8 21b6 fa58 5d35 d9dc acb5
00000070: 1bb9 e134 5467 2bb5
-1.5821841e-07 -3.012886e-06 1.5207783e-07 2.2870565e-06 3.952199e-06 -2.1880226e-07 1.3590484e-07 2.17401e-06
-2.9289703e-07 -1.776573e-07 1.4569373e-07 -3.7062424e-07 -1.2186548e-06 -3.226051e-07 -2.9650275e-06 1.0949516e-07
-5.7510474e-06 -3.8813556e-07 9.052589e-07 -9.426187e-08 6.429614e-07 2.1721412e-06 -1.1524814e-06 -2.7015258e-07
-1.9259085e-06 -2.4117076e-06 8.2458394e-07 -1.2879274e-06 4.2044198e-07 -6.3852826e-07

model.classifier.1.weight f4 [5, 30]
00000000: 12a2 8e3e 1409 843e 01b0 303e 09a8 a1be
00000010: b655 b2bd 0fd5 4ebe 5a24 fc3d 87a9 0a3d
00000020: 1d1e 653e 87bb a0bc 6c1e b5bc b71c 433e
00000030: aa15 aa3e 3813 1d3e 4c93 623e bf30 4cbe
00000040: 0bc3 873e 7d5b ab3e a8ea 2ebe 975f 853d
00000050: ac8d 84bd b338 72be d677 8d3e e11f 5abd
00000060: b5d3 803e da7c 903e c7cb 54be 4685 873e
00000070: 72f1 993e e0f1 a43e 564a 583e 3054 3c3e
00000080: 005c e33e 5654 a33e bdd9 c13d a7a8 9bbe
00000090: fd27 973e cf43 823e eb6a b33e 7356 ba3e
000000a0: f9d0 b6be 90c4 35be d195 dcbe 9380 bb3e
000000b0: df96 babe 46ec 603e 67e4 ebbe 7326 7cbc
000000c0: ba7e abbc 14bf 053f 219b 96bd 9acf ec3e
000000d0: f711 08be 636e 7ebe f65a 863d edab f5be
000000e0: 88c2 9d3e acf3 33be fc25 8d3e 8e60 28be
000000f0: f73d 54bd 27eb 54be 7053 6cbe 4fc0 f63c
00000100: 1d3b c13e b48d 613e 47fa 7d3c a1f0 ec3d
00000110: e0ba bfbe 6a64 74be 4fe2 8f3e 321d 13bd
00000120: e05e 063e 2830 80be 77b9 25be 25e0 b43d
00000130: a092 9fbe 586a 08be 32ee a43e 7fa8 78be
00000140: b5fb 693e d49f 073e 4d2f 9ebe 1749 eebd
00000150: e2c0 1cbe 903a 933d b72a c2bb 5bd1 c9bd
00000160: ab67 46bd 6485 32be ecc1 61be 5a35 4a3e
00000170: 2183 43be dd5a 8c3e 5dba 4bbe 4f14 7b3e
00000180: b773 00bd f372 b4be 3145 323e 3684 c2bd
00000190: fb35 47be 1231 663e 00ed dcbd 5e80 243e
000001a0: 182a cfbc 42ad 5f3e 02dd 8b3e 5fa6 893d
000001b0: f349 8abe dff8 103e 1120 a2be 7864 933d
000001c0: 0c7e c3bd 02c6 c93e f8a1 a4be 98a9 b7be
000001d0: 63de 3fbe e9b0 f63d 1ee1 b7be c3fd 4fbe
000001e0: 499a 13be dd02 92be b720 903d e0e7 d0bd
000001f0: e939 84be a872 0fbe 1cdb 8bbe 6fca 823b
00000200: 17e8 b2bd 3a35 763e bf54 9b3c bdc7 8fbe
00000210: 9bf0 5ebe 76a8 31be bdcc 323e 3f04 55be
00000220: ec13 bf3d 944e 79be 0360 b23c 5df3 18be
00000230: 2c81 cd3d 4555 56be a18a 833e 8c7b b1bc
00000240: d26c 403e 2c7d 273e de1d 823e 8f10 39be
00000250: 35d1 a0bd 7b8c 133e
0.27858025 0.25788176 0.1725464 -0.31573513 -0.08707754 -0.20198463 0.12311621 0.03385308
0.22374769 -0.01962067 -0.022109233 0.19053923 0.33219653 0.15339363 0.22126502 -0.1994047
0.26515993 0.33468238 -0.17081702 0.06512373 -0.06472334 -0.23654442 0.2763049 -0.05325306
0.2516152 0.28220254 -0.2078086 0.26468867 0.3006702 0.32215786 0.21122107 0.1839149
0.44406128 0.3190028 0.094653584 -0.3040211 0.29522696 0.2544236 0.3504251 0.3639408
-0.35706308 -0.17750764 -0.4308305 0.36621532 -0.3644323 0.21965131 -0.46072695 -0.015390026
-0.020934451 0.5224469 -0.07353807 0.46252137 -0.13288103 -0.24846797 0.06560318 -0.4798273
0.30812478 -0.17573422 0.27568042 -0.16443083 -0.051816907 -0.20792829 -0.23078704 0.030120997
0.37740412 0.22026712 0.015501565 0.11569334 -0.37447262 -0.2386643 0.28102347 -0.035916515
0.1312213 -0.2503674 -0.1618403 0.08831815 -0.31166553 -0.13321817 0.3221298 -0.24283026
0.22849925 0.13244563 -0.30895463 -0.116350345 -0.15307954 0.07188904 -0.005925502 -0.098543845
-0.04843871 -0.17433697 -0.22046632 0.19746915 -0.1909299 0.27413073 -0.1989531 0.24519466
-0.031360354 -0.3524395 0.17409207 -0.094978735 -0.19454186 0.22479656 -0.10787392 0.16064593
-0.025288627 0.21843436 0.27317053 0.06721186 -0.27009544 0.14157437 -0.3166509 0.07196897
-0.09545526 0.3940888 -0.32154822 -0.35871577 -0.18737178 0.12045462 -0.35913938 -0.20311646
-0.14414324 -0.2851781 0.0703749 -0.10200477 -0.25825432 -0.14008582 -0.27315605 0.003991417
-0.08735674 0.24043742 0.018961309 -0.28082076 -0.21771471 -0.17349419 0.17460914 -0.20802401
0.09329972 -0.24346381 0.021774298 -0.14936586 0.10034403 -0.20930965 0.25691703 -0.021665357
0.18791512 0.16356343 0.25413412 -0.18072723 -0.07852403 0.14409058

model.classifier.1.bias f4 [5]
00000000: a6b5 8db6 5edc 9935 8ba8 8935 740f e0b4
00000010: da16 2234
-4.223274e-06 1.1463524e-06 1.0256348e-06 -4.1734495e-07 1.5095739e-07

exp_avg f4 [30, 30]
00000000: a9ee 36b6 f9ca b436 ed9e 0236 7b92 5836
00000010: ba05 1fb7 ad45 e436 6a52 8ab5 4bbc 8fb6
00000020: d11d 2ab5 035b a036 d23a f0b6 4573 77b6
00000030: b34a 46b7 c26d 1c36 ce0d 4136 73d6 28b7
00000040: 1e17 8b36 dbd8 fd36 e46f d536 04ea ed36
00000050: fbcc afb6 4c33 0cb7 d430 0b36 1202 a135
00000060: b1f8 5436 98d9 7f36 f25f 52b6 1f06 ebb4
00000070: de89 90b6 eba7 41b5 dca5 f2b6 eb58 4636
00000080: 9ef2 02b7 bb7d d435 803e 8cb6 ca74 6836
00000090: 0e49 2836 32ab 4cb2 9384 9635 0d68 5537
000000a0: 7806 27b7 174b cab6 ad1b bab7 898d 11b5
000000b0: 2b44 2b36 8bba 80b7 61fa fd36 4a64 ccb6
000000c0: ab2b 68b5 b5f8 8136 827c 5eb6 519b 31b7
000000d0: 163b 5d37 3688 0337 689e a1b6 086d b136
000000e0: 6800 fab6 3349 a736 89e0 10b7 0fec 3937
000000f0: 27ad 18b5 7160 8d36 bbd7 9e36 1b4b 9835
00000100: 23f7 abb6 2c32 b7b6 2394 8b36 52c4 89b5
00000110: 1aa1 f234 fe3d 68b7 7364 7cb6 1dc7 1c35
00000120: 55e7 a0b5 532d 8f36 6618 ad36 0c0a 9935
00000130: e676 27b7 f7d1 e836 b2a7 7337 57d0 1b37
00000140: 7ea0 b0b5 ab77 8936 8784 54b6 63c5 62b7
00000150: dfd6 3837 da21 2a37 e474 1437 c05c f8b6
00000160: 3f4e 83b7 f559 65b6 6434 b6b5 166e b0b4
00000170: ad23 10b7 9fbe df36 f57d d0b5 c4af 76b6
00000180: 0788 9136 cc3c 8736 7355 0436 9056 fb36
00000190: 40bf bcb6 5ee6 35b4 1e66 1ab7 0608 67b5
000001a0: 6f38 ef36 cb6c 13b4 ca12 a634 c17b 77b7
000001b0: f0e1 cf36 eccd a836 bdc7 1c36 aa3a 84b6
000001c0: fa1d 5b37 aaf2 2736 1ad5 9cb6 6afc c536
000001d0: 849b a436 301e 1cb6 e46a 00b7 62df f436
000001e0: ee0a 26b5 f812 8c36 757d 0db6 0c44 3037
000001f0: c2a0 5db7 c672 8437 7631 b8b6 db40 91b6
00000200: 6b70 cfb5 7062 bc37 915d 0ab7 6f31 8bb6
00000210: 8021 67b7 f40b 0ab4 9da2 a536 e3d5 2db7
00000220: 493a 6a37 13f9 7a35 3d57 8536 56b9 d636
00000230: 17eb 9fb6 39f3 8fb7 52ec 0537 4bcc 6337
00000240: 2a61 c1b6 a840 f8b5 231c c8b6 e726 c134
00000250: c13e 0737 a321 79b5 0372 48b5 e055 5eb6
00000260: 1dd5 f6b6 6f81 c235 8400 4e36 48e0 ba36
00000270: e337 40b6 b95e cf35 d5b7 18b4 2b1b 9237
00000280: 51de b634 ec01 d6b5 0e59 9fb6 12bf 8bb6
00000290: 1002 2ab6 3d37 7bb6 9626 3b37 0e54 2cb7
000002a0: a239 42b7 e4f9 d5b6 ebb9 7d35 8c95 f0b6
000002b0: f141 0637 324a 7937 496f 4bb7 bc1a f9b6
000002c0: cc76 0ab7 21e9 e936 4c10 4937 f434 ca36
000002d0: 3e41 96b6 ab8c aa36 9023 9ab6 eff6 ee36
000002e0: 392f 31b7 5ab5 0a37 b18c c3b3 c65a 24b6
000002f0: b086 2934 016e 7e37 8112 3db7 1dd0 acb6
00000300: dcf0 aab7 beda 5b35 bb7b c336 6f0f 65b7
00000310: fc83 0b37 49fd fdb5 458d ce36 4fb1 0b37
00000320: a8eb 9bb6 ffe5 65b7 1389 4137 c0fb 0037
00000330: 497b 47b6 c7ef a936 9839 9cb6 e2d0 4b35
00000340: 906d b0b6 1e33 ac36 1941 0036 8d7b 9436
00000350: cc9f c136 9e82 c036 e57b 25b7 a3bd a536
00000360: 6470 e3b5 0a03 82b6 5815 9ab5 6c07 d1b5
00000370: 98c6 44b6 2d76 9cb3 f484 0eb4 8caa 5636
00000380: e0eb 9e36 60cb e8b3 4d8e 89b5 ad84 1d37
00000390: 3ddb 4237 a485 0837 fe8c 3fb6 5e33 67b6
000003a0: fbe8 7bb6 1f08 89b6 ad70 e236 d35e 4d36
000003b0: 10bc 8c36 92d7 d4b6 e0e4 9db5 a723 ffb6
000003c0: caea b0b6 ab5b 2436 b200 86b6 8f59 83b5
000003d0: 1247 a3b4 978c dfb6 2bc0 d436 1102 f735
000003e0: d860 c235 95fe 8eb6 9d92 ddb6 3b14 1ab6
000003f0: 48e7 4fb7 ddc9 c635 0905 6e36 16d4 ceb6
-2.7259032e-06 5.388047e-06 1.9464017e-06 3.227177e-06 -9.478472e-06 6.803041e-06 -1.0305787e-06 -4.2836523e-06
-6.3373324e-07 4.7789667e-06 -7.159405e-06 -3.6872964e-06 -1.1819112e-05 2.33097e-06 2.8767276e-06 -1.0063511e-05
4.145214e-06 7.565233e-06 6.3609205e-06 7.0903934e-06 -5.2392693e-06 -8.356594e-06 2.0741036e-06 1.1996037e-06
3.173522e-06 3.8124617e-06 -3.1348286e-06 -4.3776615e-07 -4.3075843e-06 -7.2142456e-07 -7.2314706e-06 2.9556056e-06
-7.8050925e-06 1.5831823e-06 -4.179601e-06 3.4638674e-06 2.5076474e-06 -1.1913288e-08 1.1214455e-06 1.2720016e-05
-9.955482e-06 -6.0288107e-06 -2.2185815e-05 -5.422267e-07 2.5520665e-06 -1.5345655e-05 7.5691355e-06 -6.091349e-06
-8.649028e-07 3.873453e-06 -3.315305e-06 -1.05861845e-05 1.31863835e-05 7.839923e-06 -4.816615e-06 5.287704e-06
-7.450628e-06 4.9855093e-06 -8.6353475e-06 1.1081821e-05 -5.687638e-07 4.2133547e-06 4.7338813e-06 1.1346741e-06
-5.1249676e-06 -5.4596658e-06 4.159768e-06 -1.0264432e-06 4.519323e-07 -1.3842711e-05 -3.7609395e-06 5.8404277e-07
-1.1988255e-06 4.2670085e-06 5.158642e-06 1.1402312e-06 -9.981659e-06 6.938582e-06 1.4522973e-05 9.287228e-06
-1.3159731e-06 4.0968494e-06 -3.1667603e-06 -1.3516607e-05 1.1017283e-05 1.0140671e-05 8.848703e-06 -7.4017735e-06
-1.5652853e-05 -3.417602e-06 -1.3575304e-06 -3.2862653e-07 -8.591375e-06 6.668109e-06 -1.5533866e-06 -3.6759166e-06
4.3371724e-06 4.030391e-06 1.971927e-06 7.49046e-06 -5.625101e-06 -1.6940746e-07 -9.202891e-06 -8.606588e-07
7.129325e-06 -1.373002e-07 3.093358e-07 -1.4751161e-05 6.1953833e-06 5.0307626e-06 2.3362074e-06 -3.940736e-06
1.3060397e-05 2.5026188e-06 -4.6739706e-06 5.9004424e-06 4.9056853e-06 -2.3263383e-06 -7.654282e-06 7.297772e-06
-6.1855724e-07 4.1745334e-06 -2.1083663e-06 1.0506261e-05 -1.3210056e-05 1.5789072e-05 -5.4893853e-06 -4.328887e-06
-1.545542e-06 2.2457185e-05 -8.247226e-06 -4.1482776e-06 -1.3776473e-05 -1.28566e-07 4.936314e-06 -1.0361403e-05
1.3961057e-05 9.349471e-07 3.9738648e-06 6.399273e-06 -4.7659373e-06 -1.7160188e-05 7.98244e-06 1.357782e-05
-5.7631596e-06 -1.8496257e-06 -5.96374e-06 3.5977357e-07 8.061238e-06 -9.2808676e-07 -7.4671715e-07 -3.3130564e-06
-7.356181e-06 1.4491796e-06 3.0696692e-06 5.5693417e-06 -2.864276e-06 1.545027e-06 -1.4222981e-07 1.7417207e-05
3.4061898e-07 -1.5944802e-06 -4.7489366e-06 -4.1647663e-06 -2.5333175e-06 -3.7434068e-06 1.1155053e-05 -1.0271569e-05
-1.157672e-05 -6.3769858e-06 9.452039e-07 -7.169967e-06 8.002376e-06 1.48588315e-05 -1.21256535e-05 -7.4238906e-06
-8.2531005e-06 6.971081e-06 1.1984328e-05 6.0262337e-06 -4.4779435e-06 5.0827707e-06 -4.5936977e-06 7.1216996e-06
-1.0561017e-05 8.267665e-06 -9.105987e-08 -2.4490741e-06 1.578835e-07 1.5165192e-05 -1.1269586e-05 -5.150227e-06
-2.0377738e-05 8.190217e-07 5.825857e-06 -1.3653057e-05 8.315776e-06 -1.8923685e-06 6.1557243e-06 8.3263285e-06
-4.646794e-06 -1.3703014e-05 1.15356115e-05 7.68801e-06 -2.9725072e-06 5.0645062e-06 -4.655867e-06 7.592736e-07
-5.2579635e-06 5.1319503e-06 1.9111378e-06 4.425127e-06 5.770451e-06 5.7372517e-06 -9.863613e-06 4.93946e-06
-1.6945528e-06 -3.8746557e-06 -1.1480106e-06 -1.5573873e-06 -2.9321873e-06 -7.285812e-08 -1.3273149e-07 3.1987756e-06
4.7362264e-06 -1.08403356e-07 -1.024871e-06 9.38882e-06 1.16143465e-05 8.137347e-06 -2.8543286e-06 -3.4451582e-06
-3.7537527e-06 -4.0838636e-06 6.748442e-06 3.0602575e-06 4.1942185e-06 -6.343188e-06 -1.1764023e-06 -7.6037427e-06
-5.272542e-06 2.4491262e-06 -3.993592e-06 -9.786326e-07 -3.0412826e-07 -6.6622847e-06 6.3404636e-06 1.8403535e-06
1.4482312e-06 -4.261567e-06 -6.6033813e-06 -2.2959564e-06 -1.2392011e-05 1.48109e-06 3.5467694e-06 -6.1639685e-06

exp_avg_sq f4 [30, 30]
00000000: 6cf0 cc2f a673 c62f d577 d92f 75b6 7e30
00000010: a7ab 7330 12c3 1231 7e70 d030 e492 5430
00000020: 0fcb a62f 5c30 4431 5814 2d30 88d7 a52f
00000030: 6628 d730 f64a ad2f 826a 9530 5c5e 8230
00000040: 09a2 8b30 dbc5 9230 df8b 4231 835e 5730
00000050: d65c bb2f 3c12 9c30 f098 a42f 3159 7530
00000060: f892 e430 6393 a82f ae1a 7630 dafa ed30
00000070: 6b4d 5830 998d 6830 3186 6130 2ea8 df30
00000080: 2648 e72f 7841 9430 a424 9930 f1fe 0f32
00000090: 43a1 b331 d651 5431 cb63 e22f 098a 5132
000000a0: 1842 ca30 7309 812f c1ab d231 c25b 982f
000000b0: 26a6 8a30 8ce9 4531 d073 1e31 78ef a430
000000c0: 6c3b b631 1992 f930 0615 5e30 d367 5431
000000d0: 2f82 7830 a3b5 0931 3538 0131 d651 5530
000000e0: 3960 ce30 5fd7 8b31 1d01 3231 829b 0f31
000000f0: 56c7 ff2f 9321 0230 dc6d 6430 1401 6d30
00000100: 17a2 ad30 cac2 9631 9614 0531 cda5 c130
00000110: 8384 2b30 46ac 9e31 66b2 5830 ecec 0c30
00000120: 99e2 5b31 de55 1430 764a aa30 25d9 b930
00000130: c731 f230 833d ce30 5087 6531 a80a f930
00000140: 0b91 0330 d0ac fc30 583e 7330 672c 2131
00000150: 6ebb 1331 b629 2030 97bf 0731 f79c 4030
00000160: 71c0 3f31 6ea4 9c30 a442 c92f 4e89 1030
00000170: b19e ef2f 4621 6030 7d0a 8330 fcdc 3431
00000180: 3182 b430 c8c5 6f30 b27b 862f 1e38 6d31
00000190: 1cd1 4230 bc96 932f ce2b 4931 2de4 592f
000001a0: 83df 1430 09b0 0c31 d5c5 1e31 f112 d430
000001b0: 3c82 7d31 81a2 4f30 1a02 a32f 181b 8a30
000001c0: e1c7 1830 cf15 d130 9dc7 6f30 ee57 c72f
000001d0: 2861 3f30 8562 8e30 e5d9 8330 f68d 9130
000001e0: 0a87 0531 c3be b230 0c83 5730 c6d5 4531
000001f0: f5dd 4031 2dc7 2e32 351c 4331 ee20 dc30
00000200: 6468 9730 cf61 0632 32a2 a630 bd51 0b30
00000210: 9310 b531 bc06 e02f edb1 4f30 96fb 7531
00000220: d538 5c31 9590 bd30 00c3 4d31 b8af 0231
00000230: f669 4730 ccab 5731 582f b930 8a7c 2b31
00000240: aac3 ff30 5abf 6f30 bcd0 0231 de8e 7d31
00000250: 91a0 ab31 31e5 c030 4950 0a30 6815 1930
00000260: dfcd 2b30 9f5d 5530 e602 8730 4f95 c231
00000270: 2c3b 0231 07f3 b230 b10e 1130 abf7 9131
00000280: 81a5 7030 d2dd b02f 9268 2b31 1f56 df2f
00000290: ba15 8130 a8d8 dd30 10fa bc30 c1f9 cf30
000002a0: 3e9e 4131 3650 bf30 e209 0530 b2c2 ce30
000002b0: a320 3f30 37dd e730 95d7 0131 700e f22f
000002c0: 3aff ff30 e20e 8e30 9434 2d31 a908 8530
000002d0: b588 5f30 7560 9730 c208 d92f 04b3 9630
000002e0: 6d77 9230 327d c031 3072 6531 f770 ec30
000002f0: 3307 8c2f 741b f631 9ff1 7830 43f7 e22f
00000300: 5345 8a31 1445 972f b0b8 7d30 3739 ef30
00000310: ade6 3831 81a4 2630 dafd 3b31 75f1 8930
00000320: ca0d 1430 7101 2531 4bc4 2830 76c9 c930
00000330: 2369 a230 ce7c 1630 4666 4c30 e9f6 8831
00000340: aebd f030 5ee7 8130 1e23 fb2f 7f5f 7c2f
00000350: 3f5d f42f 12fb a430 edaf 8830 beb5 a230
00000360: d98a 2b30 d37c 2c30 fcda fe2f d5a3 cf30
00000370: 9fd6 0330 89b0 d92f f6e9 8b30 194d d12f
00000380: b1bc 1530 88ec 4630 716d 4130 772e 9f30
00000390: e591 ac30 8427 cd30 4dc9 8f2f d9b5 1230
000003a0: 7e48 882f 5c3b 7030 81be 9030 5e2a 902f
000003b0: cd0e 4f30 c361 bf2f 627b 1330 e514 2630
000003c0: b3ce 7a30 a493 9530 e816 6a30 55e9 d530
000003d0: cefa 0831 4a79 e631 5ad0 6d31 2c83 2a31
000003e0: dd24 8330 5338 3732 682b a630 6db1 ca2f
000003f0: 03d1 e331 7249 fd2f 8133 a730 7c39 2c31
3.7278214e-10 3.6098163e-10 3.9557216e-10 9.266395e-10 8.864682e-10 2.135668e-09 1.5165964e-09 7.7333895e-10
3.0339506e-10 2.8549243e-09 6.2965944e-10 3.016647e-10 1.5654791e-09 3.152178e-10 1.0871448e-09 9.485563e-10
1.0159634e-09 1.0679132e-09 2.8310223e-09 7.8350854e-10 3.4081066e-10 1.1355676e-09 2.9940095e-10 8.925723e-10
1.6630954e-09 3.0663747e-10 8.953219e-10 1.7315316e-09 7.869036e-10 8.460233e-10 8.204522e-10 1.6273185e-09
4.206992e-10 1.0787025e-09 1.1142629e-09 8.3816625e-09 5.227919e-09 3.0896579e-09 4.1180068e-10 1.2196787e-08
1.4716219e-09 2.3471677e-10 6.1313306e-09 2.7713837e-10 1.0088044e-09 2.880003e-09 2.3057858e-09 1.2000632e-09
5.3036526e-09 1.8158658e-09 8.0793006e-10 3.0909078e-09 9.0406876e-10 2.0039372e-09 1.880392e-09 7.7605244e-10
1.5015821e-09 4.0699173e-09 2.5903042e-09 2.0897635e-09 4.6525866e-10 4.7341436e-10 8.3102036e-10 8.622163e-10
1.2633475e-09 4.3877195e-09 1.936575e-09 1.4089722e-09 6.239775e-10 4.6179904e-09 7.883386e-10 5.126839e-10
3.19975e-09 5.396411e-10 1.2390291e-09 1.3522238e-09 1.7621965e-09 1.5005955e-09 3.3400802e-09 1.8120163e-09
4.786364e-10 1.838453e-09 8.849148e-10 2.3453823e-09 2.1497857e-09 5.8266936e-10 1.9753992e-09 7.0072254e-10
2.7903548e-09 1.1397228e-09 3.6609038e-10 5.2582017e-10 4.3586604e-10 8.153801e-10 9.534485e-10 2.6319062e-09
1.3133726e-09 8.722876e-10 2.446235e-10 3.4519938e-09 7.087395e-10 2.6846247e-10 2.927425e-09 1.98171e-10
5.4159716e-10 2.0472746e-09 2.310448e-09 1.5430414e-09 3.6890375e-09 7.5537093e-10 2.965102e-10 1.0048522e-09
5.5581323e-10 1.521295e-09 8.723136e-10 3.6260367e-10 6.962346e-10 1.0359861e-09 9.593434e-10 1.0590486e-09
1.9430808e-09 1.3005422e-09 7.8402773e-10 2.878879e-09 2.8065845e-09 1.017342e-08 2.8392269e-09 1.6016466e-09
1.1016366e-09 7.822066e-09 1.2124188e-09 5.068406e-10 5.2696776e-09 4.0750148e-10 7.555901e-10 3.5795202e-09
3.2046519e-09 1.3792653e-09 2.994227e-09 1.9017374e-09 7.254636e-10 3.1384273e-09 1.3473977e-09 2.4954567e-09
1.8609303e-09 8.721962e-10 1.9036142e-09 3.6897556e-09 4.9950093e-09 1.4034979e-09 5.03182e-10 5.5691496e-10
6.2502e-10 7.762199e-10 9.823367e-10 5.6631175e-09 1.8951125e-09 1.3020277e-09 5.277157e-10 4.248212e-09
8.7546687e-10 3.2171826e-10 2.4943216e-09 4.0624656e-10 9.39216e-10 1.6141444e-09 1.3749872e-09 1.5132217e-09
2.8175147e-09 1.3919876e-09 4.839916e-10 1.5043808e-09 6.9531775e-10 1.6870335e-09 1.8894515e-09 4.4029802e-10
1.8626232e-09 1.033609e-09 2.52047e-09 9.679485e-10 8.13212e-10 1.1014111e-09 3.9478293e-10 1.0964816e-09
1.0656841e-09 5.6021685e-09 3.3388794e-09 1.7203367e-09 2.5470967e-10 7.1626634e-09 9.056524e-10 4.128485e-10
4.02421e-09 2.7515823e-10 9.230332e-10 1.74058e-09 2.6906648e-09 6.062422e-10 2.735638e-09 1.0036688e-09
5.386168e-10 2.401148e-09 6.1396993e-10 1.4681933e-09 1.1816933e-09 5.474704e-10 7.4360107e-10 3.9861914e-09
1.7516208e-09 9.451744e-10 4.5681586e-10 2.2953194e-10 4.4449597e-10 1.2003929e-09 9.945303e-10 1.1838706e-09
6.240675e-10 6.275062e-10 4.6357929e-10 1.5107796e-09 4.796252e-10 3.9597506e-10 1.0180077e-09 3.807166e-10
5.447403e-10 7.236811e-10 7.0368517e-10 1.1581979e-09 1.2556113e-09 1.4926944e-09 2.615458e-10 5.337291e-10
2.4789765e-10 8.7395846e-10 1.0531523e-09 2.622355e-10 7.5327194e-10 3.4812161e-10 5.3653626e-10 6.042014e-10
9.124321e-10 1.0883139e-09 8.5161256e-10 1.5564107e-09 1.993317e-09 6.70767e-09 3.4606473e-09 2.4812818e-09
9.541982e-10 1.0664809e-08 1.2090426e-09 3.6869655e-10 6.6303314e-09 4.6072618e-10 1.2165488e-09 2.506197e-09

exp_avg f4 [30]
00000000: 1044 58ac efc3 012e f2b4 5a2c e39c 25ae
00000010: 82ea 6fae 9f28 93ad 1a39 55ad d370 41ae
00000020: 42f6 2b2e 0f0f 622c 81a7 0bac 7bc3 f62d
00000030: e10c 1a2e 4e8e 292d 2594 6c2e 429f 12ae
00000040: 2cb8 bb2e b3ba 452e 5f33 14ae 23a8 9aac
00000050: c6d3 f3ad 6e35 85ae 671b 6a2e 9194 172d
00000060: e8bf ed2d aba3 2f2e 29d6 31ae ad55 322e
00000070: 38f2 4e2d 5c23 622e
-3.0733228e-12 2.9505228e-11 3.1080108e-12 -3.7656e-11 -5.4550593e-11 -1.6730005e-11 -1.2120327e-11 -4.3983327e-11
3.909962e-11 3.212489e-12 -1.9846071e-12 2.8053773e-11 3.5026985e-11 9.638136e-12 5.3791766e-11 -3.3338006e-11
8.536491e-11 4.4958436e-11 -3.369693e-11 -4.39561e-12 -2.7719948e-11 -6.057631e-11 5.3229778e-11 8.616345e-12
2.7029004e-11 3.993576e-11 -4.0435353e-11 4.054861e-11 1.1763528e-11 5.1417856e-11

exp_avg_sq f4 [30]
00000000: dba0 5326 d1f8 5421 e31d 9b28 0b26 4325
00000010: 319e 8624 5f08 0328 972e 8128 a7b8 a724
00000020: d66f 8528 bb5e 0a27 596b b527 9580 e126
00000030: a9ea 5126 1b85 e926 87ce 9924 d11c 5228
00000040: 5baf 9422 25c0 6a28 fd18 bc27 05ee 1228
00000050: c675 8626 f332 db25 4649 c526 8b49 6c27
00000060: a0e9 4425 281c b723 fdc8 1d28 d0f3 5826
00000070: 81ea fa27 adeb a327
7.342333e-16 7.21577e-19 1.7221418e-14 1.6926443e-16 5.838122e-17 7.273776e-15 1.4342082e-14 7.273752e-17
1.4814467e-14 1.92027e-15 5.035398e-15 1.5647364e-15 7.2829465e-16 1.6203701e-15 6.6703044e-17 1.166359e-14
4.0301145e-18 1.3031274e-14 5.2207575e-15 8.15624e-15 9.33004e-16 3.8024969e-16 1.3689482e-15 3.2791447e-15
1.7079445e-16 1.9852824e-17 8.758833e-15 7.527048e-16 6.964319e-15 4.549711e-15

exp_avg f4 [5, 30]
00000000: d6d5 1e37 e416 b536 b78c 1e37 1f3a f2b6
00000010: 08fd a6b5 c3bb 22b7 3e21 9436 6ba7 b636
00000020: 18e2 eb36 3065 9236 8f79 f8b5 1084 0335
00000030: 506e 8f36 8219 a736 c84b 6236 ed2d b6b6
00000040: c677 c935 46c0 df36 70da 2eb6 a5ff 8b36
00000050: fc1f ae34 97b5 64b6 cf91 fc36 0c09 ceb6
00000060: 94df 2037 c95c c336 b5fa 1ab4 901e 6b36
00000070: 7aeb 4237 e7aa 0d37 3f92 d6b6 b24c 1536
00000080: 2077 a4b7 c490 62b7 213e b1b6 383f 7837
00000090: 7d23 05b7 482f 87b7 3521 06b7 44a1 a4b7
000000a0: 082d 4437 0d69 8c37 5352 cc37 04b0 14b7
000000b0: e6b1 8b37 5fda e9b6 9e2b df37 8d9b 2037
000000c0: d800 c5b6 0663 91b7 216b 67b6 ccf5 a6b7
000000d0: 10ae bf36 17e2 8837 72fb b8b6 179d 9637
000000e0: c18a b6b7 7820 8137 544e 45b7 552b fd36
000000f0: 850f b136 56c6 2736 df11 7837 4780 86b5
00000100: e6c1 27b7 a51a 70b7 c534 7835 0144 a136
00000110: 8fa7 4137 8541 7737 066b 1fb7 379e e7b6
00000120: d908 25b7 9f2f fd36 8950 fc35 72e3 8fb6
00000130: 91c5 7235 aef1 6f34 af0a bdb6 8ec7 2137
00000140: 5de2 13b6 c9be 89b5 d447 3c37 5aba b3b6
00000150: 0cc3 3937 a4b5 cdb5 58db 1437 4557 3fb6
00000160: af45 1037 4f63 dc36 59e4 9236 e6aa 23b6
00000170: bd27 b6b5 49c1 4536 f312 8837 11b5 4736
00000180: 5b98 f636 d2f3 0237 757a f7b6 8a1c b3b6
00000190: cbe4 bd36 7341 73b5 2145 6636 729c 35b6
000001a0: cfb5 23b7 1aee ae36 5d2a 8db7 8b60 9fb5
000001b0: 0bac 2e37 e4ef 97b5 2e06 dd36 1360 2837
000001c0: 9b85 4ab7 dde4 03b7 add6 69b6 9ff0 05b6
000001d0: ecaa 7b35 23cd 26b6 8b92 a936 32ad d5b6
000001e0: e3b2 18b7 3752 8537 88f9 c035 f912 9437
000001f0: 4219 82b7 255e 7736 6c00 7035 031a 8bb7
00000200: ef26 ae37 e2b7 b436 00b3 a8b7 bd30 0e37
00000210: 08b4 7db7 1816 9337 4cdb 4fb6 53a9 4637
00000220: b7e2 5237 d12d 8f36 f993 a5b7 a8e9 9f37
00000230: ba83 acb7 80de 0437 0344 b2b5 e08c 9c37
00000240: 44be 47b7 0187 deb7 5d42 84b6 2186 8536
00000250: bdf0 74b7 d0f9 17b7
9.467321e-06 5.396885e-06 9.450297e-06 -7.218928e-06 -1.2441606e-06 -9.699669e-06 4.4146136e-06 5.4435127e-06
7.0298665e-06 4.362919e-06 -1.8512818e-06 4.899348e-07 4.274574e-06 4.9799573e-06 3.3720735e-06 -5.429369e-06
1.5010526e-06 6.6683015e-06 -2.6055168e-06 4.1722838e-06 3.2433297e-07 -3.4080347e-06 7.5271596e-06 -6.1403316e-06
9.588799e-06 5.8222545e-06 -1.4433574e-07 3.5035519e-06 1.1618127e-05 8.444046e-06 -6.3947223e-06 2.2247373e-06
-1.9605795e-05 -1.3504356e-05 -5.282244e-06 1.4796671e-05 -7.9356805e-06 -1.6115271e-05 -7.994754e-06 -1.9625419e-05
1.1692995e-05 1.6738219e-05 2.435703e-05 -8.862469e-06 1.6652932e-05 -6.969363e-06 2.6603982e-05 9.57296e-06
-5.8711557e-06 -1.7331458e-05 -3.448404e-06 -1.99032e-05 5.712507e-06 1.6317745e-05 -5.5128994e-06 1.7954544e-05
-2.1760703e-05 1.5393118e-05 -1.1760352e-05 7.545032e-06 5.276818e-06 2.5000386e-06 1.4786113e-05 -1.0021112e-06
-9.999121e-06 -1.4311318e-05 9.246399e-07 4.8060906e-06 1.1542709e-05 1.4737602e-05 -9.502057e-06 -6.902755e-06
-9.836826e-06 7.5455314e-06 1.8798902e-06 -4.28821e-06 9.043952e-07 2.2346532e-07 -5.6338827e-06 9.64281e-06
-2.2036468e-06 -1.0262821e-06 1.1222397e-05 -5.35631e-06 1.1072272e-05 -1.5326555e-06 8.872557e-06 -2.8512015e-06
8.599293e-06 6.568072e-06 4.3777222e-06 -2.4388369e-06 -1.3571622e-06 2.9467794e-06 1.6221287e-05 2.9758705e-06
7.349108e-06 7.805373e-06 -7.3754295e-06 -5.337938e-06 5.659274e-06 -9.0619795e-07 3.431291e-06 -2.7062165e-06
-9.757888e-06 5.2133228e-06 -1.6828237e-05 -1.1874521e-06 1.0411265e-05 -1.1320194e-06 6.5870327e-06 1.0035949e-05
-1.2071246e-05 -7.861495e-06 -3.4844663e-06 -1.9958604e-06 9.375351e-07 -2.4855333e-06 5.0536523e-06 -6.3680573e-06
-9.101556e-06 1.589312e-05 1.4377738e-06 1.765181e-05 -1.550897e-05 3.6860667e-06 8.940758e-07 -1.6582204e-05
2.0760546e-05 5.385825e-06 -2.0110514e-05 8.475207e-06 -1.5121892e-05 1.7534054e-05 -3.0973051e-06 1.18411435e-05
1.2569762e-05 4.267066e-06 -1.9738438e-05 1.9063082e-05 -2.0565338e-05 7.919618e-06 -1.3281827e-06 1.866225e-05
-1.1905624e-05 -2.6527328e-05 -3.9416323e-06 3.9793235e-06 -1.4599585e-05 -9.058465e-06

exp_avg_sq f4 [5, 30]
00000000: f1d7 f931 4e41 0f32 03ab 8131 0f0f 0432
00000010: 1421 0331 096b a631 7737 6d31 c6aa 2531
00000020: 7283 ba31 97a4 ad30 8fd7 8830 7f60 b731
00000030: 1713 0232 e36c 8a31 4e75 7f31 8765 9431
00000040: 4c81 ca31 de5d 2432 1ee0 7031 faef 2431
00000050: 8bd4 2f31 051c 9d31 c273 d831 6498 5531
00000060: f178 f031 b3b5 0332 f0fb a931 9b79 c831
00000070: 5c67 2032 662e 0732 c059 0c31 b942 f831
00000080: 1803 d331 0aa9 9131 6356 a231 ced7 8431
00000090: c669 3b31 d9ca d331 69c1 1932 3cc4 9831
000000a0: 77ff c331 bbc8 d331 9222 e631 3297 ee31
000000b0: 7f31 bd31 116b 2b31 d5bd 8932 3853 a031
000000c0: 54d7 f631 006a 1b32 ecd2 c331 c0b0 0032
000000d0: 5729 5f31 7821 ea31 9825 1831 4505 0f32
000000e0: e5f4 f831 794e b431 4eeb 8531 4f24 3531
000000f0: 2ca6 0831 89fb 5632 8bd8 e831 793b d931
00000100: 84d4 6132 33bb 1132 8416 8631 4380 1332
00000110: 789e 6b32 0aaf ef31 b7be 0832 6d5c 2332
00000120: 940f fd30 3ea3 2732 3f19 d531 b433 0332
00000130: 5976 8b32 ede3 be31 c4fd 5932 1aef 1c32
00000140: 26d0 4232 ff36 0732 7eeb 5332 9c20 3232
00000150: dc6d 3332 a406 4c32 6955 0032 d0fd ab31
00000160: 0e04 ba31 351f f631 59f1 3e31 fcb4 4331
00000170: 7a5e 6c31 45f7 a331 8a86 ac31 fa01 a031
00000180: e1c7 c32f 7c98 bc31 b044 9131 90c2 dd30
00000190: 9189 3531 6361 2c31 ce41 b730 8f5e 1c31
000001a0: 0bb1 2631 dce4 6b31 6e84 0032 ec15 dc30
000001b0: 6dce b631 64c0 fd30 f3d3 a531 e638 4131
000001c0: 73a4 a931 5e1e e631 0ccb da31 1774 e231
000001d0: 6092 0831 4653 e630 fc6d d931 092a a031
000001e0: aafb 1632 382e 2833 6fab 0e31 ab63 5132
000001f0: 63bd ae32 2719 0132 8498 e632 f0d9 af31
00000200: f96c 6832 01bf 8932 a0b9 dd31 3279 0733
00000210: 423a 8132 071a b032 c479 6832 52a1 b132
00000220: a843 2332 2953 d932 f8df 1032 8e3e 9832
00000230: 8ed6 6832 4e42 b132 9255 c932 2e63 e931
00000240: 857b 9232 ecec d632 9440 cf32 be37 8332
00000250: 15c3 c331 633a 4d32
7.2714035e-09 8.338544e-09 3.773836e-09 7.686835e-09 1.9081812e-09 4.8434043e-09 3.4519567e-09 2.4107734e-09
5.428256e-09 1.2634186e-09 9.956568e-10 5.3369713e-09 7.5713364e-09 4.0287076e-09 3.7174064e-09 4.3189092e-09
5.893673e-09 9.567399e-09 3.5051992e-09 2.4001552e-09 2.5586668e-09 4.572487e-09 6.2995875e-09 3.1082203e-09
6.9986688e-09 7.666517e-09 4.9471893e-09 5.834591e-09 9.336727e-09 7.868584e-09 2.0423698e-09 7.2253354e-09
6.14126e-09 4.239273e-09 4.7246416e-09 3.8662398e-09 2.7272207e-09 6.1639693e-09 8.9497485e-09 4.4460915e-09
5.70429e-09 6.1637286e-09 6.697811e-09 6.9439006e-09 5.506251e-09 2.4944635e-09 1.6035225e-08 4.6660737e-09
7.1840223e-09 9.046289e-09 5.699226e-09 7.490769e-09 3.247427e-09 6.8141013e-09 2.214028e-09 8.324894e-09
7.2455912e-09 5.247611e-09 3.8975605e-09 2.6359606e-09 1.9885062e-09 1.2513632e-08 6.7767068e-09 6.3222925e-09
1.3145044e-08 8.482675e-09 3.902473e-09 8.5856895e-09 1.3714832e-08 6.975715e-09 7.959605e-09 9.508864e-09
1.84126e-09 9.757796e-09 6.201986e-09 7.6369595e-09 1.6235548e-08 5.55564e-09 1.2688762e-08 9.1347605e-09
1.1339614e-08 7.870539e-09 1.2335361e-08 1.0368378e-08 1.044415e-08 1.1875873e-08 7.470001e-09 5.00561e-09
5.4137734e-09 7.16309e-09 2.778583e-09 2.8479112e-09 3.4396224e-09 4.7720357e-09 5.021154e-09 4.6568376e-09
3.5612316e-10 5.4888556e-09 4.2278643e-09 1.6135164e-09 2.6417164e-09 2.5084652e-09 1.3333705e-09 2.2754738e-09
2.4256817e-09 3.4327092e-09 7.480692e-09 1.6013337e-09 5.320365e-09 1.8462853e-09 4.826228e-09 2.811754e-09
4.937243e-09 6.6973334e-09 6.367719e-09 6.5906636e-09 1.987381e-09 1.675837e-09 6.328035e-09 4.6613917e-09
8.788371e-09 3.9157584e-08 2.0761168e-09 1.2188063e-08 2.0342389e-08 7.514507e-09 2.684488e-08 5.117947e-09
1.3528955e-08 1.6035758e-08 6.4530497e-09 3.1542363e-08 1.5044069e-08 2.0500933e-08 1.3531864e-08 2.0678872e-08
9.503232e-09 2.5299942e-08 8.432828e-09 1.7723575e-08 1.3552961e-08 2.0635664e-08 2.3438393e-08 6.792468e-09
1.7052807e-08 2.5020618e-08 2.4127338e-08 1.5275756e-08 5.697425e-09 1.1945846e-08

exp_avg f4 [5]
00000000: 6b6e ea2e ba94 31ae f4bd 28ae 508c a12e
00000010: 0ec5 532e
1.0660702e-10 -4.0377236e-11 -3.836749e-11 7.346357e-11 4.8150865e-11

exp_avg_sq f4 [5]
00000000: 652e b624 42f3 1425 48f7 4126 9aa8 c526
00000010: 0504 0128
7.9008514e-17 1.2919373e-16 6.7295455e-16 1.3715321e-15 7.16181e-15
