tutorial/Mouse_cerebellum_output/version_18/checkpoints/mlp.ckpt (torch, 17217 bytes, 12 tensors)

model.classifier.0.weight f4 [30, 30]
00000000: cbc8 0e3b c5b6 f63d debc 713d df6c c5bd
00000010: f4f1 dfbd b819 d5bd b569 ec3d a30f babd
00000020: 34e1 843d 872c 40bd 385f 7fbd 627c 55bd
00000030: 355f 0cbe be48 3c3d 6559 013e 548a 26bd
00000040: f5a5 f73d 8fe0 503e 9673 b53d ba0e 3e3d
00000050: 3fed 093e 59d6 a23d ddc3 5bbd 9c11 943d
00000060: 13c1 92bc 418d e6bd f3f6 0b3c 1dd7 2fbd
00000070: 14c1 8dbd 9fad 073e 2b70 79bc 577f 61bc
00000080: 985b 42bd ce36 aa3d 1d61 7cbd 7cff 0d3e
00000090: 8dfa a8bd a2b6 49bd aab5 c23d 240b 933d
000000a0: 73e6 173e c2f2 c43d 001b 213d 8989 463d
000000b0: e538 13be eaf7 e23d 48b1 2dbe 72f6 84bd
000000c0: 9a2a 42bd fb89 2d3d ac0a 7dbd 6e2e 4dbd
000000d0: 202d c03c aa66 c03c 3f47 b73d 1d28 183d
000000e0: 61b8 d43b d761 da3d c3dc e2bc b23a 9dbd
000000f0: 8852 cdbd f71c af3d 3b27 873d 5ef4 a3bc
00000100: 4510 12bd f649 503d fae5 b0bd 05dc 73bd
00000110: 59a5 80bd b860 aebd 5c70 7abc 3d49 69bd
00000120: 8889 c7bd a0b0 a03d 9f50 bbbd b888 21ba
00000130: b29b b1bc dba1 c63d 665b 22bd d0f7 b73d
00000140: a01e 78bd c525 10be 85d8 4d3d 563e b23d
00000150: 7443 0c3e 46ea 0e3c bbe8 7d3c 54bb 53bb
00000160: 4648 d2bd 4eab 1ebd 6cb9 d73d b312 aabd
00000170: 8419 95bd 1c99 253d 50dd 263d c48b 54bd
00000180: 8d6c db3d 8a9c 623d 18a7 0a3d d2d8 283e
00000190: 540f 603d 4a45 123d 0fca f43d 6181 a1bd
000001a0: 58e3 123e c4a2 203c 78f2 36bc 0c82 d3bd
000001b0: e684 b83d 7616 d8bd 567f 2a3d bf43 303e
000001c0: 1653 a7bd 5840 b1bd e250 20be 865c 6abc
000001d0: e5e2 253c 4d76 623c 84a3 c53d 61a8 a63d
000001e0: ad06 dabd 4dbd 013d f2ae b63d ca7a 42bd
000001f0: 931e c53d b706 1ebc 07fb d0bd cb1b 303d
00000200: 2543 55be ee80 2bbe c51f 0dbe 6b3d 00be
00000210: 9e7d 8bbd 881c 3d3c f05e 80bd 7c8a b9bd
00000220: 3f85 9c3d e246 363d 0c3e 97bd f3d1 113d
00000230: e40a c4bd ad1d 38be d399 a43d d2ac fa3c
00000240: ead6 b43d 8969 4f3d bcf4 b6ba 0f9c adbd
00000250: fbf4 30bd 44f3 92bd 397c 1b3d 46ec 50bc
00000260: 5d21 163d 1f1e aabd d8b4 ba3d f4a0 27be
00000270: 5130 d73d f1d5 9e3d f862 e1bd dc6e 67bd
00000280: 3ee8 26be 61f8 cbbd 2417 36bc 6605 9fbd
00000290: d559 383e 38ed 00be e728 423e 090d 143d
000002a0: 1d8e 763d 3ded 95bd 0f94 8d3d c81f a63d
000002b0: 8c26 12bd 2d69 54bd b323 07be c229 0fbd
000002c0: e282 18bc 5e9e f7bd e8fc 713d 6677 b83d
000002d0: fb69 3d3c 8979 f3bd 4d91 523a cf10 90bc
000002e0: 9c24 453e 3883 69bd e158 2dbd 13e3 263e
000002f0: 341f 28be 5930 f1bd 4dff 20be 3813 31bd
00000300: 4423 a93d 617b e2bd d783 1cbc ecd4 d1bd
00000310: 868a e33d 489d 0cbe 14cc abbd 5896 b2bd
00000320: db53 60bd 1401 67bd 29a4 6d3d 14e9 dabd
00000330: 6d8e 93bd 6cb9 a83d 65d6 30bd 580b c6bd
00000340: f232 ec3d 844f afbd 4d1e 013d f5de 19be
00000350: f83c 85bd 6575 9a3d c953 163e b94f 423d
00000360: a9b1 8ebd 736f 063e 1247 a1bd 550b 153d
00000370: 41f4 483c 587c 2e3d 906f 223e 138c b6bd
00000380: 487c 84bd 8636 2d3b 3572 68bd fb77 63be
00000390: 10e6 93bd fb90 b3bd 975c cdbd c237 edbc
000003a0: 41f6 1a3d b778 e1bd 28c0 4bbd 0758 d53d
000003b0: cf9f aabc a33a f13b 434f eb3d 414f d9bd
000003c0: a18c 29bd a8c0 243d 8e89 95bc 7d03 373d
000003d0: fd49 fabd ed6b 0f3e 14d5 bcbd 337f c6bd
000003e0: 6a2c 163e af78 42bc 255a f53d 0818 d23d
000003f0: 23cf 18bd 1ffa b73d 16b0 3fbe a982 e23d
0.0021787162 0.12046579 0.05901801 -0.09639906 -0.10934821 -0.10405296 0.115435995 -0.09085014
0.064882666 -0.046917465 -0.062346667 -0.052120574 -0.13708194 0.04596781 0.12631758 -0.040659264
0.12092201 0.20398162 0.08859937 0.046400763 0.13469408 0.0795104 -0.053653587 0.07229921
-0.01791433 -0.11257411 0.008542764 -0.042929757 -0.06921592 0.13249825 -0.015224497 -0.01376327
-0.04745063 0.083112344 -0.061616052 0.13866991 -0.08250914 -0.049246438 0.09507306 0.07179859
0.14834003 0.09616615 0.03933239 0.048471007 -0.14377172 0.11082442 -0.16962159 -0.06492318
-0.04740391 0.042367917 -0.061777756 -0.050093107 0.023459017 0.023486454 0.08949136 0.03714763
0.0064917062 0.10663193 -0.027693158 -0.07677211 -0.10025507 0.085504465 0.065992795 -0.020013984
-0.035660047 0.050851785 -0.086376145 -0.059536 -0.062815376 -0.085145414 -0.015285578 -0.05695461
-0.09743029 0.078461885 -0.09146237 -0.0006162035 -0.021680687 0.0969884 -0.039637946 0.08982813
-0.06057608 -0.14076908 0.050255317 0.08703296 0.13697606 0.008722847 0.015497382 -0.0032307701
-0.10267691 -0.038737588 0.10533413 -0.08304348 -0.07280257 0.04042922 0.040738404 -0.051891103
0.10714064 0.05532507 0.03385076 0.1648896 0.054702118 0.03571061 0.11952602 -0.07886005
0.14344537 0.009804431 -0.0111662075 -0.10327539 0.09009723 -0.10551159 0.041625343 0.17213343
-0.08170144 -0.08654851 -0.15655854 -0.014304286 0.010124897 0.01382215 0.09650329 0.081375845
-0.106458046 0.031674672 0.08920087 -0.047480382 0.09624972 -0.009645156 -0.1020413 0.042995255
-0.20826395 -0.16748402 -0.1378165 -0.12523429 -0.06811069 0.011542447 -0.06268108 -0.09059617
0.07642602 0.044501193 -0.073848814 0.035600614 -0.0957239 -0.1798007 0.08037152 0.030599985
0.08830054 0.050637756 -0.0013958435 -0.084770314 -0.04320238 -0.071753055 0.037960265 -0.0127516445
0.03665291 -0.083065264 0.091165245 -0.16369992 0.105072625 0.0775565 -0.11005205 -0.056502208
-0.16299531 -0.09959484 -0.011113916 -0.077647015 0.18003018 -0.12590492 0.18960916 0.036145244
0.060194124 -0.0732064 0.069130056 0.081115305 -0.035681292 -0.051858116 -0.13197212 -0.034951933
-0.009308549 -0.12090753 0.05907908 0.090071484 0.011560912 -0.11888415 0.0008032516 -0.01758614
0.19252247 -0.057009906 -0.04232109 0.1629756 -0.16418153 -0.117768 -0.1572239 -0.04323122
0.082586795 -0.11058689 -0.009552917 -0.1024569 0.111104056 -0.13731873 -0.08388534 -0.08720082
-0.05476747 -0.056397513 0.058017883 -0.106889874 -0.072049 0.082384914 -0.043173213 -0.096701324
0.115331545 -0.08560088 0.031523038 -0.15026458 -0.065057695 0.075419225 0.14680399 0.04743931
-0.0696748 0.13128452 -0.07874884 0.03638776 0.012265266 0.042599052 0.1586287 -0.08913436
-0.06469017 0.0026430204 -0.05674954 -0.22213738 -0.07221615 -0.08767887 -0.10027426 -0.028957251
0.037832502 -0.11009353 -0.0497438 0.104171805 -0.020828156 0.0073617264 0.11489727 -0.106108196
-0.04139388 0.040222794 -0.018254068 0.04468106 -0.122211434 0.14006014 -0.09220329 -0.0969223
0.1466538 -0.0118695935 0.11980084 0.1025849 -0.037306916 0.08983254 -0.18719515 0.11060078

model.classifier.0.bias f4 [30]
00000000: 3ba1 b3b6 326e 0334 e033 e435 6273 78b6
00000010: e2a2 9f34 2f1e 9cb2 0ed6 2b36 e215 5135
00000020: 9d0e c733 45ed 6235 349b ceb4 72b0 0c35
00000030: 7e22 e6b5 0fd7 8c35 9c51 2ab3 6adb af34
00000040: 7999 2d34 7a6c 27b6 dccf 02b5 3bd0 f135
00000050: c482 30b6 7e34 5f33 ad7d a033 5589 5236
00000060: 0ba0 4235 9cce 7cb5 0cc3 2935 f435 ad35
00000070: c8df 3935 ab00 44b5
-5.3533854e-06 1.2240415e-07 1.7002421e-06 -3.7022041e-06 2.973457e-07 -1.8174516e-08 2.5605582e-06 7.789041e-07
9.269318e-08 8.4536833e-07 -3.8483415e-07 5.2410826e-07 -1.7146374e-06 1.0493403e-06 -3.9655433e-08 3.2755935e-07
1.6167714e-07 -2.494808e-06 -4.873125e-07 1.8016502e-06 -2.630216e-06 5.1968975e-08 7.473441e-08 3.1372376e-06
7.2503525e-07 -9.417797e-07 6.3241237e-07 1.2905207e-06 6.9243515e-07 -7.301666e-07

model.classifier.1.weight f4 [5, 30]
00000000: 57bb 9fbe 56cf 0d3e b6f2 6c3e ed81 91be
00000010: db38 b83e 3d47 39be cdce 683e 83c4 633e
00000020: e0e7 123e dca0 513e 88c6 c3bd 5c8e 9e3e
00000030: 1777 8ebd 4b72 403e 596a 37be 5e03 783e
00000040: 79db b0bd 69ec a6be 719d 763c 3892 8b3e
00000050: 9d5e 6abe bcd1 4cbe 4ecc 81be a8c6 143e
00000060: aa98 4d3e d3f7 72be 621f 553e 0704 4a3e
00000070: 68d2 6c3e 3e0e 8ebe 36f1 25be ea45 3bbe
00000080: e6f1 9abe 27d2 9b3e 9ff2 74bd b479 953e
00000090: ec4c cf3e ce11 a73e 49d0 abbe 2a39 cf3e
000000a0: 0772 26bd 92cd 12be 9f84 8bbe eff8 983e
000000b0: 0363 8f3e 667a 9bbe 3e65 c43e 279c 6fbd
000000c0: 287b 97be 6745 06be fac8 d8bd 14fd 503e
000000d0: 8faa 8a3e 1d6f 863e e19b 6dbe 2cf1 92be
000000e0: 07fc 6e3e b054 7d3e 3977 8dbe ce9f a2be
000000f0: 66f4 083e 7f58 8dbd 655a 30bd 5148 143e
00000100: 1436 d1bd 8a9f af3d 5c88 23be b0cd f9bd
00000110: 157d 01be 55f9 f3bd 6b0f 903e 84b5 d0bd
00000120: e84f 723e 5c7b d7bd 3838 e8bc d350 b8bc
00000130: 2fcf fc3d 7663 333e f590 e83d e830 32be
00000140: a842 a63d 84c6 353d 2bd9 043d 5331 f0bd
00000150: 2005 fcbd 6cf7 be3d 8baa 4bbe e27f 73be
00000160: 9f37 05be 012d 3b3e fcf7 9d3e d48d 43be
00000170: 2b65 c83d bf96 46be c8ee 063e 9947 2a3e
00000180: c7cc 36bc 3f0d 8dbe d83b d3bc ea93 8bbe
00000190: d874 73be e115 403d 643f 96bd d74d b3be
000001a0: 4c98 863e 390e 5c3e 1d46 ddbd d1ef 24be
000001b0: b045 0e3e f352 b9bc 282e 1dbe 33fa 4dbe
000001c0: a621 4d3e b8c6 353d b3bb 003e c7bb 41bd
000001d0: a47d c63c a4b4 933e af60 133c 05bb d73d
000001e0: 0d50 23be 7f2e a43e ab8e a1bd 2e65 8b3d
000001f0: ac4b 9fbe 57a3 b2be 8ea8 5cbe da87 a83d
00000200: f702 a43e 9422 203d 39e1 a6bd f581 d8bd
00000210: 4770 89bd c473 463e 1567 84be 136f 83be
00000220: f155 7fbe cc70 863e 9635 36be 9f67 043e
00000230: 71f6 b13e 6b83 683e 0fc7 54be 3ea7 33be
00000240: a34a 033c 5b22 aa3e b375 70bd b02d 95be
00000250: 9133 1f3e 9104 793d
-0.31197616 0.13848624 0.23139462 -0.28419438 0.35980877 -0.18093581 0.22735138 0.22242932
0.14346266 0.20471519 -0.09559351 0.30967987 -0.06956308 0.187936 -0.17911662 0.24220034
-0.08635611 -0.32602242 0.015052185 0.27259994 -0.22887655 -0.20001882 -0.25351185 0.14528906
0.20077768 -0.2372735 0.20812753 0.19728099 0.23127139 -0.2774524 -0.16205296 -0.18288389
-0.3026268 0.3043377 -0.059801694 0.29194415 0.40488374 0.3263077 -0.33557346 0.404733
-0.04063609 -0.14336231 -0.2724962 0.2987742 0.28005227 -0.3036682 0.38358492 -0.058498528
-0.29586148 -0.13112412 -0.10585208 0.20409042 0.2708325 0.26256648 -0.23203994 -0.28699625
0.23338328 0.24739337 -0.27630022 -0.31762546 0.1337448 -0.06901645 -0.043054957 0.14480712
-0.10215393 0.085753515 -0.15969986 -0.12197435 -0.12645371 -0.11912791 0.28136763 -0.10190871
0.23663294 -0.10521576 -0.02834712 -0.022499477 0.12344205 0.1751841 0.11355773 -0.17401469
0.081181824 0.044378772 0.03243367 -0.11728158 -0.12305665 0.09324536 -0.19889276 -0.23779252
-0.13009499 0.18278886 0.3085326 -0.19097072 0.09784921 -0.19393443 0.13177025 0.16628875
-0.011157221 -0.27549168 -0.025785372 -0.27261287 -0.23775041 0.046895865 -0.073363096 -0.35020325
0.26288068 0.214898 -0.10804389 -0.16107108 0.13893771 -0.022622561 -0.15349638 -0.20114975
0.20032367 0.044378966 0.12571602 -0.04729822 0.024229832 0.28848755 0.008995219 0.10533718
-0.15948506 0.32066724 -0.0788854 0.06806408 -0.3111242 -0.34890243 -0.21548674 0.08229037
0.32033512 0.039095476 -0.081484266 -0.10571662 -0.06710868 0.19380099 -0.25859895 -0.2567068
-0.24935128 0.26257932 -0.17793879 0.12930153 0.34758332 0.22706382 -0.2077906 -0.17544267
0.0080134 0.33229336 -0.058705997 -0.2913642 0.15547015 0.06079537

model.classifier.1.bias f4 [5]
00000000: 1608 9b36 68c7 f035 345a edb5 964b eab4
00000010: 7beb 9235
4.6203013e-06 1.7939428e-06 -1.7684129e-06 -4.3640892e-07 1.0946382e-06

exp_avg f4 [30, 30]
00000000: 3404 43b6 01f8 3bb7 2c79 c6b6 d578 4237
00000010: bdd5 a137 bde2 0f37 f5e8 56b6 166d 0337
00000020: 430d 97b7 f5b7 3538 03bd 6c37 9ff2 7e33
00000030: f3cb 8f37 5451 7ab5 bd70 b036 b9ac 6635
00000040: a1c4 b7b7 2666 8fb7 4cec 9936 9adc edb6
00000050: d4b5 a4b7 6b13 2d34 6f21 7fb6 6bd5 dc35
00000060: fc5d f4b4 9def 7c37 f855 2637 9bd7 2f37
00000070: 9256 82b4 dba4 2136 764d aeb5 c6ce 5c36
00000080: 1c4a 8e36 1534 53b7 73c5 36b6 01bc 91b6
00000090: d6b1 ceb5 9a1e fdb2 dbb1 18b5 6b89 0ab8
000000a0: ede9 83b7 8b0c aab6 5f22 10b7 08b3 ce34
000000b0: a2d0 03b7 ff15 dbb6 70a6 b937 6dcb 1a37
000000c0: 3293 3bb7 f722 1236 c6fc 1c37 b2de 17b7
000000d0: 9dd7 e436 5eac b4b6 8ad7 59b6 0c54 20b6
000000e0: 150b 32b7 450f 19b7 810f 85b5 6d21 93b6
000000f0: 33e9 4036 f3b3 f9b6 bbb2 e4b4 1984 b0b6
00000100: 0adf 3e37 f05f 64b6 f986 3736 78c7 ea36
00000110: 40b0 1db7 c21f 2f36 08f8 c1b6 d92e 61b6
00000120: 632d f236 94bc 9ab6 6436 c736 8243 c6b6
00000130: 5f59 1037 19ce 9bb6 d36f a5b6 8e17 9bb6
00000140: 97cc 82b5 3556 87b5 1c46 b735 50c1 89b6
00000150: fe93 16b7 17dc de36 ac33 29b6 d0f7 0eb6
00000160: fc7c 8036 366e 1f36 a898 93b6 4073 2737
00000170: 1532 fc35 7d71 1436 c4c4 7fb7 9e1b 0135
00000180: 7dc1 6cb6 436d 16b7 fc6c 3737 e90b 6eb7
00000190: 1c14 c034 1466 0736 b192 62b7 7a13 cd36
000001a0: faf2 1bb7 fb4e a036 a5e8 6db6 9b9b 1d37
000001b0: 3936 8736 755c d336 fece b336 7695 1cb5
000001c0: ab4a a8b4 5ad0 7936 e156 2737 b1ae 23b7
000001d0: 0e1b 23b5 42d1 94b4 ce8f adb6 7936 62b6
000001e0: 3240 ef36 b088 b7b6 39f1 a6b5 dc52 e333
000001f0: e112 9636 7751 90b6 2e6d f336 8a71 6e36
00000200: fe81 aa35 cfdc 3a37 aa36 eb35 dffd ce35
00000210: e0cb 0237 cd02 bfb6 020b 5237 7df0 0fb5
00000220: 3f2f 2f35 1f89 a3b6 7e29 3e36 a013 66b6
00000230: caaf 9035 f35c 0c37 91b9 58b6 a4c3 65b4
00000240: fe57 f2b6 7dc6 8735 79c8 1436 128f 6235
00000250: 68a8 cf36 7de0 c236 0415 9c35 b208 90b5
00000260: ea69 8cb6 ec4d 7137 2219 bab5 7172 9a36
00000270: 82ba d735 d9ba 24b6 f60c 9636 6268 0a38
00000280: 75af 9437 8f3a da36 142a d836 b188 3135
00000290: a921 f636 2ae0 1137 4b96 d2b7 0c3b 03b7
000002a0: 8ae3 6537 e629 3db5 927f 0db7 d9c7 3337
000002b0: 8b9f 04b7 cb5e ea36 582c c236 214b b9b4
000002c0: b349 4437 fce1 2437 e23f 9f34 c0f4 9736
000002d0: 0578 d836 14f6 c236 efb5 20b4 0439 bc36
000002e0: 88e4 72b7 f357 beb5 e5e5 dc36 df16 f0b6
000002f0: e707 a237 c445 8136 caa3 1437 fb63 fc36
00000300: f0fb 0cb6 d612 68b5 8460 f836 69e1 0a37
00000310: 1cd5 04b7 6603 4d36 eb4e 2837 6778 7936
00000320: 6e8a c936 2a5e 5537 ec2e b7b6 36d5 b836
00000330: 204a 6e36 aaf0 36b7 7381 aa36 549b 0636
00000340: 7af5 3136 ecbb 9436 1c77 4136 376d 5137
00000350: b708 9d36 0bd7 c8b6 ae2d bcb7 5581 ccb6
00000360: 07d8 6236 6c34 2bb7 dade b737 af27 0db8
00000370: 7b1f ebb6 c639 4736 a1a8 88b7 a8d6 0636
00000380: 19b8 88b6 95b9 5a36 5a06 4e37 b9e2 8237
00000390: 0340 4a35 aaf4 0537 e180 9037 07ba 7236
000003a0: 138c 8c35 7d97 cc35 2112 8c36 2250 8cb7
000003b0: 4cee bdb6 b18e eab6 4f7b bdb4 c311 aeb5
000003c0: ccbc 55b5 43b1 66b6 db2d eb35 9193 24b7
000003d0: a3e3 1237 c8a8 24b5 de18 f8b5 bf8c c236
000003e0: 27cb 27b7 ba97 7bb7 8c43 38b7 a742 bdb6
000003f0: 80e6 0936 1131 03b6 6030 7eb6 3f50 03b7
-2.905971e-06 -1.12038115e-05 -5.914966e-06 1.15914345e-05 1.9292225e-05 8.576256e-06 -3.2024084e-06 7.833607e-06
-1.8006778e-05 4.3325086e-05 1.4110704e-05 5.9359646e-08 1.71419e-05 -9.3250605e-07 5.258333e-06 8.593302e-07
-2.1906862e-05 -1.7094495e-05 4.587264e-06 -7.088832e-06 -1.9634994e-05 1.6118945e-07 -3.8017422e-06 1.645339e-06
-4.5516924e-07 1.507616e-05 9.914387e-06 1.0481012e-05 -2.4277375e-07 2.4086828e-06 -1.2986554e-06 3.2902913e-06
4.2405572e-06 -1.2588706e-05 -2.7235044e-06 -4.3432233e-06 -1.5399953e-06 -2.9466992e-08 -5.6883226e-07 -3.3029744e-05
-1.5725347e-05 -5.067855e-06 -8.5910715e-06 3.8500752e-07 -7.856785e-06 -6.5292693e-06 2.2131222e-05 9.226479e-06
-1.118034e-05 2.1776048e-06 9.357178e-06 -9.052152e-06 6.82003e-06 -5.384484e-06 -3.246098e-06 -2.389078e-06
-1.0612207e-05 -9.123066e-06 -9.913784e-07 -4.3848327e-06 2.874597e-06 -7.441727e-06 -4.2598353e-07 -5.260587e-06
1.1376813e-05 -3.403049e-06 2.734769e-06 6.9969647e-06 -9.398966e-06 2.6095518e-06 -5.780723e-06 -3.3554882e-06
7.2174457e-06 -4.611511e-06 5.936994e-06 -5.908719e-06 8.603877e-06 -4.643353e-06 -4.9304012e-06 -4.622102e-06
-9.745298e-07 -1.0083373e-06 1.3654967e-06 -4.1054227e-06 -8.975154e-06 6.6417374e-06 -2.521304e-06 -2.1303895e-06
3.8292474e-06 2.3756998e-06 -4.398713e-06 9.980809e-06 1.8790039e-06 2.2119777e-06 -1.52449975e-05 4.8096433e-07
-3.5279365e-06 -8.966136e-06 1.0933025e-05 -1.41886785e-05 3.5777418e-07 2.0175985e-06 -1.3504804e-05 6.1117435e-06
-9.295292e-06 4.777566e-06 -3.545117e-06 9.394159e-06 4.029626e-06 6.2990534e-06 5.3587128e-06 -5.8332023e-07
-3.1346767e-07 3.7225168e-06 9.974204e-06 -9.756231e-06 -6.07616e-07 -2.7719403e-07 -5.172543e-06 -3.3708332e-06
7.1302284e-06 -5.4697375e-06 -1.2438169e-06 1.0585583e-07 4.472546e-06 -4.301018e-06 7.2546745e-06 3.5530852e-06
1.270382e-06 1.1137875e-05 1.7524774e-06 1.5422082e-06 7.796072e-06 -5.6925696e-06 1.2519538e-05 -5.362161e-07
6.526133e-07 -4.8737415e-06 2.8336358e-06 -3.4284094e-06 1.0779997e-06 8.366292e-06 -3.2294522e-06 -2.139846e-07
-7.2224057e-06 1.0116051e-06 2.217041e-06 8.4399755e-07 6.188686e-06 5.8077844e-06 1.1629022e-06 -1.0731367e-06
-4.184655e-06 1.4382862e-05 -1.3865395e-06 4.6028804e-06 1.6073029e-06 -2.4546664e-06 4.471857e-06 3.2998978e-05
1.7724678e-05 6.5037234e-06 6.4422e-06 6.613655e-07 7.33529e-06 8.694866e-06 -2.5103936e-05 -7.821956e-06
1.3702442e-05 -7.0468957e-07 -8.433957e-06 1.0715762e-05 -7.90496e-06 6.984779e-06 5.786813e-06 -3.45136e-07
1.169967e-05 9.827778e-06 2.966254e-07 4.5286433e-06 6.4512737e-06 5.810298e-06 -1.4967348e-07 5.609474e-06
-1.4477533e-05 -1.41817e-06 6.583274e-06 -7.15522e-06 1.9315585e-05 3.8526214e-06 8.8596225e-06 7.5218245e-06
-2.1008273e-06 -8.6454145e-07 7.402212e-06 8.277923e-06 -7.9174315e-06 3.0549359e-06 1.0031955e-05 3.7173975e-06
6.006382e-06 1.2717714e-05 -5.4592874e-06 5.5084483e-06 3.550791e-06 -1.0904079e-05 5.0814647e-06 2.005797e-06
2.6517941e-06 4.4326207e-06 2.8828572e-06 1.2482799e-05 4.679979e-06 -5.985499e-06 -2.2432618e-05 -6.09473e-06
3.3802369e-06 -1.02046e-05 2.1919073e-05 -3.3653978e-05 -7.0072106e-06 2.968694e-06 -1.6290987e-05 2.0092502e-06
-4.0745476e-06 3.2592554e-06 1.2280036e-05 1.5602784e-05 7.5344013e-07 7.984383e-06 1.7226152e-05 3.6169092e-06
1.047158e-06 1.5243273e-06 4.1744356e-06 -1.6726615e-05 -5.6603803e-06 -6.990355e-06 -3.5293712e-07 -1.296918e-06
-7.962342e-07 -3.437585e-06 1.752221e-06 -9.80952e-06 8.755279e-06 -6.134037e-07 -1.8484677e-06 5.7980355e-06
-1.0001276e-05 -1.4996092e-05 -1.0982982e-05 -5.6403983e-06 2.054876e-06 -1.9549082e-06 -3.7877107e-06 -7.826892e-06

exp_avg_sq f4 [30, 30]
00000000: a0bc 852f 9bc7 3330 8b4f ce2f c049 5030
00000010: e022 0930 28e1 7a30 18f7 7f30 57f1 ef2f
00000020: ea73 7430 1301 2531 1de4 9e30 299a 2430
00000030: 97ae b030 83e4 b02f 84e2 b030 f243 bc2f
00000040: c60d b330 0cf3 d130 e51e 6f30 4af6 be2f
00000050: 32fa 6530 5f47 3b30 1869 e52f edc5 c22f
00000060: 3d3d de2f d773 1230 32eb 952f af4b aa2f
00000070: 00e8 be2f 6005 a230 6e64 6e2f 3aee b92f
00000080: 9b96 902f 063f 1d30 de04 b02f 729f 8130
00000090: 6f1a 1730 95bc 5a2f 2618 fa30 99d9 8f30
000000a0: af8c 9a30 d5e1 a130 baaa 0130 2859 532f
000000b0: f68e 9530 9397 1730 24ba a630 fe94 0b30
000000c0: f68e f22f 3cda 942f 76ab 9e2f 6348 e12f
000000d0: 2b8c 382f e4fd 602f 234e bb2f 9803 2f2f
000000e0: ca31 512f 3338 1130 0256 492f 43d6 1230
000000f0: 5c90 ea2f 55cb 1030 7547 cd2f 0367 002f
00000100: d42b 292f 6e4c 912f e6ab cc2f 981c 602f
00000110: 800b 1330 616c 6530 d057 9a2f 811c f62f
00000120: da41 3630 c800 ab2f bf9a d92f ae37 312f
00000130: b10e cc2f 0182 3730 4d7a 6a2f ab26 ad2f
00000140: 540a 962f 0d27 4e30 7e01 302f f04d dc2f
00000150: 0ce8 4330 1531 012f 3c4c 0c2f a259 e52e
00000160: b1a1 fd2f c41f 8e2f 44e9 0d30 cd20 3a30
00000170: 79f9 0e30 804e 8c2f 0a56 832f 3e74 dd2f
00000180: f1e1 3d30 37f2 8c2f 2e20 4830 3dde 2e31
00000190: 8b81 2d30 3e23 2330 e7eb 8430 f2b7 cc2f
000001a0: 30fe 9430 ce8a 842f 9537 2c30 5a48 7430
000001b0: 64ae 5030 0bd6 ec2f b0b8 ca2f 5499 a730
000001c0: c5e7 f52f 6ff3 1130 07f5 8730 e539 632f
000001d0: 6b40 8f2f 8276 372f 83ba 0130 5fce 3a30
000001e0: 9818 3c30 d23e d72f 4e5f 6430 6d20 bd2f
000001f0: ca97 0030 001c 4830 2858 4130 f450 7e2f
00000200: 3072 2731 7139 0d31 2e74 a230 f506 ae30
00000210: 1f0a 3030 705f c02f 481b 6930 6cff 3330
00000220: 530f 8630 081e 3030 b742 fe2f cd98 a32f
00000230: 485d 1c30 c0d3 bc30 09f2 bc2f af34 912f
00000240: 608c 0630 21d7 af2f ab16 762f 77b7 1430
00000250: f87a b72f 3885 1e30 5c6f ba2f 25a7 0a30
00000260: 2a91 a62f e631 2e30 9db5 0b30 0341 a830
00000270: b47b 4b30 d156 b72f 8047 2631 e586 a630
00000280: 356f b630 a744 d530 26e8 1730 2e2c c02f
00000290: c5eb cd30 57f8 3c30 7044 c830 d548 2030
000002a0: bcda 2a30 11c6 e12f 7b19 d02f 7b6d 2b30
000002b0: 5134 7e2f d6ba c52f 4184 2f30 5fe4 572f
000002c0: fd9c 952f b97d 3230 4cf5 ae2f 0773 4330
000002d0: 7021 d02f 3189 5f30 fea0 9a2f c4a9 902f
000002e0: bfe0 9830 8af8 0930 568d 2830 1b32 8130
000002f0: beca 0131 6304 f330 d31b a830 e7a5 8c30
00000300: 5142 4130 c494 3230 5fc6 7430 0391 0a30
00000310: 98c9 6f30 7a5a 9730 ce6c 7030 eb2c 1230
00000320: c3e9 f42f f977 2130 037b d12f 0b3b 2530
00000330: 8236 d42f bf91 e92f ba1e eb2f b22e 0730
00000340: 93ff 3d30 6f74 8730 b6f3 862f e7b0 7830
00000350: 29ca a12f 60c3 1230 df16 4830 0987 fb2f
00000360: 6608 3a30 eeec 3530 fc28 5730 6d7a f830
00000370: b740 5130 9b31 1930 da78 c230 0628 ef2f
00000380: f9f8 7830 042c 772f 357f 6130 ff23 f530
00000390: e7ad 4b30 422c 0a30 529a 2c30 737f f52f
000003a0: 48d0 ba2f c541 1830 8465 f72f b274 0330
000003b0: fac1 9a2f 624e 642f 3efc 2730 dba8 8830
000003c0: 39de c22f dee6 1e30 ebae 7a2f 6e38 cd2f
000003d0: 4bdc 3a30 bf2f 7930 df08 3130 a785 d42f
000003e0: 5457 3d31 ae44 8d30 2e7b 4d30 3514 ea30
000003f0: b880 fe2f 9def d32f 14ba e730 514f 1330
2.4326585e-10 6.5403477e-10 3.75277e-10 7.5774764e-10 4.988987e-10 9.1269436e-10 9.31196e-10 4.364533e-10
8.8931407e-10 2.401127e-09 1.1560847e-09 5.9881927e-10 1.2855307e-09 3.217658e-10 1.2870065e-09 3.424528e-10
1.3027879e-09 1.527583e-09 8.69916e-10 3.4735798e-10 8.3665264e-10 6.813163e-10 4.172953e-10 3.542903e-10
4.0425077e-10 5.327911e-10 2.7270058e-10 3.0976596e-10 3.4725645e-10 1.1788579e-09 2.1681654e-10 3.3820574e-10
2.630046e-10 5.720583e-10 3.2017672e-10 9.431302e-10 5.4971044e-10 1.9893982e-10 1.8196757e-09 1.0466464e-09
1.1244959e-09 1.1778477e-09 4.7172544e-10 1.9222013e-10 1.0881809e-09 5.514888e-10 1.2130994e-09 5.0779636e-10
4.4121123e-10 2.7076108e-10 2.8861863e-10 4.0978695e-10 1.67845e-10 2.0462881e-10 3.407062e-10 1.5917434e-10
1.9026128e-10 5.2830557e-10 1.83114e-10 5.3418975e-10 4.2666926e-10 5.2675847e-10 3.7340056e-10 1.1678129e-10
1.5386031e-10 2.6429653e-10 3.7229525e-10 2.038284e-10 5.349463e-10 8.346373e-10 2.807483e-10 4.4767393e-10
6.6304795e-10 3.1105274e-10 3.9582024e-10 1.6117838e-10 3.7117823e-10 6.675976e-10 2.1325626e-10 3.1495992e-10
2.729218e-10 7.499786e-10 1.6007637e-10 4.0073145e-10 7.1270345e-10 1.1749919e-10 1.276001e-10 1.0429636e-10
4.613532e-10 2.585222e-10 5.162699e-10 6.771302e-10 5.201382e-10 2.552163e-10 2.3889896e-10 4.028226e-10
6.907888e-10 2.5637956e-10 7.2805306e-10 2.544666e-09 6.3121125e-10 5.9349137e-10 9.671312e-10 3.7238085e-10
1.0840662e-09 2.4109287e-10 6.265222e-10 8.88695e-10 7.5917783e-10 4.3080237e-10 3.6874814e-10 1.2194428e-09
4.4729923e-10 5.309663e-10 9.892184e-10 2.0666098e-10 2.605732e-10 1.6685855e-10 4.7194976e-10 6.7959677e-10
6.842895e-10 3.915291e-10 8.3081353e-10 3.440194e-10 4.6781834e-10 7.2799367e-10 7.033827e-10 2.3129926e-10
2.4366607e-09 2.0550852e-09 1.1820072e-09 1.2662144e-09 6.404281e-10 3.499241e-10 8.4803675e-10 6.5482797e-10
9.754139e-10 6.4071104e-10 4.6249735e-10 2.97581e-10 5.688503e-10 1.3738983e-09 3.4368977e-10 2.641278e-10
4.89484e-10 3.1985173e-10 2.2381623e-10 5.4102806e-10 3.337488e-10 5.766938e-10 3.3912329e-10 5.0441634e-10
3.029837e-10 6.337174e-10 5.0825993e-10 1.2242086e-09 7.402676e-10 3.3349193e-10 2.4196822e-09 1.2116429e-09
1.327385e-09 1.5517302e-09 5.526338e-10 3.4955988e-10 1.4982723e-09 6.8746914e-10 1.4571366e-09 5.831116e-10
6.215648e-10 4.1067996e-10 3.7853085e-10 6.236502e-10 2.3119752e-10 3.5966846e-10 6.3852573e-10 1.963527e-10
2.721449e-10 6.4934685e-10 3.182471e-10 7.110405e-10 3.7858738e-10 8.132189e-10 2.812683e-10 2.6314073e-10
1.1123332e-09 5.0193505e-10 6.1318894e-10 9.400226e-10 1.8887216e-09 1.7681824e-09 1.2231517e-09 1.0233493e-09
7.030723e-10 6.496743e-10 8.9048585e-10 5.041018e-10 8.7234175e-10 1.1012411e-09 8.746611e-10 5.3178323e-10
4.454944e-10 5.874195e-10 3.8104284e-10 6.0110555e-10 3.8601305e-10 4.2486012e-10 4.2768084e-10 4.917907e-10
6.912099e-10 9.855635e-10 2.4547625e-10 9.047327e-10 2.9429373e-10 5.3392135e-10 7.279208e-10 4.5752582e-10
6.767834e-10 6.6184114e-10 7.8274787e-10 1.807917e-09 7.612572e-10 5.573157e-10 1.4149706e-09 4.3502285e-10
9.0575686e-10 2.2480157e-10 8.2035295e-10 1.7836327e-09 7.40981e-10 5.0267e-10 6.279254e-10 4.4655799e-10
3.3981196e-10 5.539074e-10 4.500117e-10 4.7823356e-10 2.8150265e-10 2.0764326e-10 6.1112704e-10 9.943294e-10
3.5446293e-10 5.7808147e-10 2.2799511e-10 3.7329378e-10 6.797946e-10 9.0653524e-10 6.440483e-10 3.865754e-10
2.755276e-09 1.027862e-09 7.4753614e-10 1.7031484e-09 4.629379e-10 3.8550932e-10 1.6860349e-09 5.3591004e-10

exp_avg f4 [30]
00000000: c96d 622e 7f27 7dac 5b13 eead 52ef 2d2e
00000010: a1c8 85ae 0933 612c d0cf 58ae 1c3f 4dae
00000020: 3ba6 ddac e278 4dae 3d88 742e e11d 52ae
00000030: 5a4b 4d2e e95f e4ac 836d 54ad 0797 29ae
00000040: a603 cc2c 1d06 932e d623 be2d bb7e 3fae
00000050: 6d0c 6b2e c70e f62d e971 cf2c 18ff 3dae
00000060: 8a41 16ae 5d87 692e 3a8a 86ae 69e0 a3ae
00000070: 63c6 0fae 29f3 9c2e
5.148396e-11 -3.5975387e-12 -2.7066063e-11 3.9548205e-11 -6.0837786e-11 3.2002753e-12 -4.929729e-11 -4.6667656e-11
-6.299653e-12 -4.671897e-11 5.560018e-11 -4.777501e-11 4.667853e-11 -6.490798e-12 -1.2075121e-11 -3.856029e-11
5.7984338e-12 6.685872e-11 2.1616414e-11 -4.354093e-11 5.344385e-11 2.7973525e-11 5.8959404e-12 -4.3200193e-11
-3.416426e-11 5.3098293e-11 -6.1181685e-11 -7.452245e-11 -3.269064e-11 7.1372526e-11

exp_avg_sq f4 [30]
00000000: 2087 e220 b8bd 1128 40b0 321f 8373 b821
00000010: d76f 9128 436e a527 df62 1126 7322 8128
00000020: 701e a128 642f ee26 c404 a628 fed6 c227
00000030: 14d2 5926 ba22 af25 6777 9b28 54b6 4027
00000040: da11 6228 33be 0026 e676 8428 efe1 a325
00000050: 0ffa 8124 0897 8128 9a61 8827 a500 1223
00000060: ff2a 7926 8647 2227 4d61 8428 fb3c a027
00000070: 0224 bf26 b8e1 9828
3.8375307e-19 8.090256e-15 3.7838757e-20 1.2498901e-18 1.6146737e-14 4.5916246e-15 5.0440976e-16 1.4336817e-14
1.7887791e-14 1.6527413e-15 1.8431769e-14 5.407891e-15 7.557171e-16 3.0381192e-16 1.726024e-14 2.6744193e-15
1.2549391e-14 4.466669e-16 1.4706508e-14 2.842909e-16 5.636845e-17 1.4387376e-14 3.7853403e-15 7.914812e-18
8.64475e-16 2.252079e-15 1.4697141e-14 4.4475036e-15 1.3263047e-15 1.697328e-14

exp_avg f4 [5, 30]
00000000: 9d4a a037 0a23 7ab7 c566 20b7 f46e 3337
00000010: b75d 23b7 494a 9537 df7e 3cb6 bd5a 4ab7
00000020: 3378 6bb7 0e6c 26b7 7a70 0335 6f22 4ab7
00000030: 53de b0b4 0f7c 64b7 4066 9737 ebee cdb6
00000040: 508f 1837 72e4 f036 210c 9135 c2ea 77b7
00000050: 5b9e c635 3ef0 7936 18be a137 5963 1cb4
00000060: fc0b 0db7 e859 0636 3d21 adb6 ef73 4236
00000070: 1369 6fb7 b5a6 2037 0526 3737 a764 c537
00000080: d951 e6b5 ede4 1837 871e 16b8 e2ef e9b7
00000090: 8d30 4bb8 dac3 abb7 5c22 d437 d897 dbb7
000000a0: 0075 9437 4080 87b7 36d2 c937 e92d 1bb7
000000b0: 91e9 f3b7 21ab 64b7 26d9 c3b7 a5ff 2d38
000000c0: db10 ce36 9731 63b6 4ae3 2b38 3d04 8837
000000d0: 505c 9fb7 0459 13b8 f1dd 4fb6 6f6e 4938
000000e0: bd37 07b8 6654 5db8 5e10 0e37 519b 1738
000000f0: f6ac 1137 f8fb c5b5 c457 19b5 f721 ab36
00000100: 5ca1 d8b6 1f6a b035 68ec 4eb7 c7ed 1db7
00000110: e660 29b6 6500 28b7 c160 5737 9c06 a8b6
00000120: 579c 5a37 bf0d 07b7 43bd 5bb6 7538 f733
00000130: ae13 f435 bd57 2e37 4151 f636 ce9b fcb6
00000140: 4824 d936 480d d135 dd7e b6b2 f627 12b7
00000150: b832 90b6 810a 1237 145c 49b7 3968 6db7
00000160: b399 87b6 f292 5037 7e3c 63b8 3c82 1d38
00000170: 4a3a 09b8 aad3 7838 b662 48b8 dfc1 fdb7
00000180: 7e19 66b7 f115 5038 bb55 0eb6 f2f5 4e38
00000190: d970 8d38 a5d6 ddb7 0d8e eb37 6f21 9038
000001a0: 5dd0 6cb8 8083 76b8 c649 fe37 5fa0 6a38
000001b0: 102f f2b7 853d 37b7 010f 4938 ceab 6738
000001c0: 138d 1ab8 2b6e b2b7 98c3 29b8 e4fb d337
000001d0: a076 b2b7 882f aeb8 fac3 73b7 9d2b ceb6
000001e0: fe61 a8b6 52c8 ca36 cd78 eb36 0c83 dcb6
000001f0: b404 b136 3438 04b7 606f 16b6 2b12 8f35
00000200: 7290 db36 d3b1 deb4 2aa6 1e36 5465 cf36
00000210: c67a 9036 e0a7 d635 a11a 17b7 12ba d436
00000220: baf7 aeb6 0b5e 28b6 6392 6c36 1ce5 bb36
00000230: f0b2 3ab5 62ac 8cb6 0f0a 1db7 4d35 09b6
00000240: 9ae4 9b36 896d 4335 2c0f 84b5 fa0e 61b6
00000250: 7e34 e636 ab07 a0b4
1.910823e-05 -1.4909319e-05 -9.560671e-06 1.0695065e-05 -9.737377e-06 1.7796776e-05 -2.8088032e-06 -1.2061265e-05
-1.4035078e-05 -9.9195295e-06 4.896498e-07 -1.2048155e-05 -3.2944317e-07 -1.3618744e-05 1.8048217e-05 -6.13729e-06
9.093274e-06 7.179152e-06 1.0806872e-06 -1.4777006e-05 1.4798237e-06 3.724373e-06 1.9281215e-05 -1.4564775e-07
-8.407045e-06 2.0019888e-06 -5.159671e-06 2.8975735e-06 -1.4269975e-05 9.575558e-06 1.0916502e-05 2.35311e-05
-1.7160156e-06 9.113207e-06 -3.5791218e-05 -2.7887469e-05 -4.8444188e-05 -2.0475989e-05 2.528837e-05 -2.6177542e-05
1.7697457e-05 -1.6152975e-05 2.4058954e-05 -9.249409e-06 -2.907662e-05 -1.3629703e-05 -2.3346929e-05 4.14845e-05
6.1412406e-06 -3.38545e-06 4.0981256e-05 1.6214437e-05 -1.8997263e-05 -3.5130433e-05 -3.097459e-06 4.8024984e-05
-3.223842e-05 -5.2769108e-05 8.46767e-06 3.6145855e-05 8.682944e-06 -1.4750976e-06 -5.712466e-07 5.100151e-06
-6.4560863e-06 1.3143907e-06 -1.2333599e-05 -9.413291e-06 -2.5239365e-06 -1.0013672e-05 1.2837526e-05 -5.0075596e-06
1.3030213e-05 -8.049828e-06 -3.2743708e-06 1.1512103e-07 1.8185144e-06 1.0391636e-05 7.3408305e-06 -7.5283233e-06
6.4713277e-06 1.5575579e-06 -2.124528e-08 -8.711582e-06 -4.297439e-06 8.704724e-06 -1.2001972e-05 -1.4150567e-05
-4.0412065e-06 1.24319795e-05 -5.4177355e-05 3.7553007e-05 -3.271763e-05 5.9324935e-05 -4.7775648e-05 -3.0250229e-05
-1.3715004e-05 4.96115e-05 -2.120955e-06 4.934328e-05 6.7444234e-05 -2.6445205e-05 2.808033e-05 6.8726826e-05
-5.6460838e-05 -5.877344e-05 3.0313513e-05 5.5939305e-05 -2.8870563e-05 -1.0921974e-05 4.7936108e-05 5.5234697e-05
-3.6847847e-05 -2.1270554e-05 -4.04749e-05 2.5270456e-05 -2.1274493e-05 -8.30582e-05 -1.4529558e-05 -6.1443557e-06
-5.018198e-06 6.0433895e-06 7.017609e-06 -6.571767e-06 5.2755586e-06 -7.880899e-06 -2.241657e-06 1.0659618e-06
6.5435243e-06 -4.1480106e-07 2.3640555e-06 6.180877e-06 4.305827e-06 1.59931e-06 -9.006501e-06 6.339754e-06
-5.2144433e-06 -2.508869e-06 3.5251949e-06 5.599706e-06 -6.955079e-07 -4.192393e-06 -9.360271e-06 -2.0445616e-06
4.6459727e-06 7.2802555e-07 -9.839182e-07 -3.353633e-06 6.860645e-06 -2.9807902e-07

exp_avg_sq f4 [5, 30]
00000000: e9ee a731 0011 5731 a91b 2431 8983 7d31
00000010: d32b d031 7183 8631 4f93 4231 288b 3531
00000020: 5367 1c31 a9c2 1e31 b07b 7e30 32d7 7631
00000030: 43c3 0330 a07a 6631 862f 9331 dfdd 8231
00000040: c590 9630 91fd b731 2c2b 4430 5bcc 4331
00000050: 4ef3 8b31 6155 4431 9d78 9431 e12c d530
00000060: c278 f230 f8a2 7731 2a3f f630 1469 b031
00000070: f60f 2831 9175 4131 efa5 3f31 af49 ca30
00000080: 9da9 7931 ab1f 7631 91e4 d330 a769 3f31
00000090: b1f7 d131 3411 bb31 7c3d 6531 7f81 fe31
000000a0: 6271 9730 8fa0 a030 3451 8e31 bdb5 bf31
000000b0: febf 3431 e6e8 b031 d09c 9331 fa2f 9630
000000c0: c62b a631 7739 6b30 b954 ab30 42bc 3831
000000d0: 2a89 2431 644f 2e31 508a fc30 d5fe 5331
000000e0: 203d 3b31 c752 4f31 ce78 1e31 0714 a031
000000f0: a6bf f631 fb61 3731 dd88 1630 18a7 b731
00000100: d817 2831 eacb 7631 420c 0032 ba95 c731
00000110: 63dc bf31 c496 be31 aec6 c332 a2cc 3a31
00000120: 3ef8 9132 849c b431 d8fe 9230 d715 de2f
00000130: 048f a031 eebb 0532 d142 a931 c7bb 1e32
00000140: 14d0 e030 c8b5 1430 b6b1 af30 4acd 8331
00000150: bcea 8b31 6740 1e31 15bc 4632 096d 8232
00000160: 205d b431 6b25 3232 3ea6 b831 3331 1b31
00000170: e5e3 e230 f2e9 b031 140c 3b31 860e 0c31
00000180: bd86 1830 9276 9031 2c2d 9c30 27d2 8d31
00000190: bab8 eb31 bbcc c530 94b0 e330 b5b1 eb31
000001a0: 5d67 9631 8afa 8a31 36b4 1931 bcb7 8431
000001b0: e1e9 a230 741b d130 4110 1a31 d0fe 7031
000001c0: fdcc 3d31 b8d8 1730 c935 3331 72d8 1a30
000001d0: 548d 9f30 3e9e 0b32 3ba5 c430 d2e0 9930
000001e0: 306e 6131 4836 0232 51a2 9f30 1d3d 9830
000001f0: 23ac e931 313f 1c32 a0f2 4031 0b07 cf30
00000200: 7c7b 0332 eb52 8a30 b44c d430 347d b930
00000210: 30c1 d130 f582 8731 9408 ac31 8fdd bb31
00000220: 05c5 9d31 6460 9931 be25 6131 7ef5 1c31
00000230: 763f 0532 9377 8931 e29f 8431 4d77 fa30
00000240: a731 0b30 617c e731 5453 2d30 967e b031
00000250: 3972 2f31 1f54 5e30
4.8875006e-09 3.1296281e-09 2.3880864e-09 3.6891115e-09 6.058579e-09 3.9148564e-09 2.831445e-09 2.6418068e-09
2.275972e-09 2.3102678e-09 9.258043e-10 3.5920036e-09 4.7935006e-10 3.353911e-09 4.283666e-09 3.808722e-09
1.0955082e-09 5.354828e-09 7.1365736e-10 2.8492397e-09 4.073093e-09 2.8570286e-09 4.321079e-09 1.5510545e-09
1.7642139e-09 3.6035868e-09 1.7916808e-09 5.13422e-09 2.445629e-09 2.8152025e-09 2.788848e-09 1.4718377e-09
3.6330683e-09 3.5815713e-09 1.5417233e-09 2.7854214e-09 6.11086e-09 5.444372e-09 3.3358836e-09 7.407095e-09
1.1018921e-09 1.1687166e-09 4.1419757e-09 5.579493e-09 2.6302582e-09 5.1487516e-09 4.2960906e-09 1.0927572e-09
4.8362123e-09 8.5574164e-10 1.2465967e-09 2.6882536e-09 2.394311e-09 2.536546e-09 1.8374724e-09 3.0849396e-09
2.7246827e-09 3.0169518e-09 2.3060696e-09 4.6588897e-09 7.18133e-09 2.66857e-09 5.4764177e-10 5.3449973e-09
2.4460771e-09 3.5913623e-09 7.453368e-09 5.808684e-09 5.5838867e-09 5.546868e-09 2.2791337e-08 2.7182883e-09
1.699311e-08 5.2564832e-09 1.0695329e-09 4.0397083e-10 4.672872e-09 7.784349e-09 4.9261435e-09 9.239506e-09
1.6357284e-09 5.4100413e-10 1.2783434e-09 3.8359405e-09 4.0721186e-09 2.3028635e-09 1.1567882e-08 1.5183575e-08
5.2492766e-09 1.03694715e-08 5.3740044e-09 2.2583435e-09 1.6508436e-09 5.1488707e-09 2.7218947e-09 2.0380937e-09
5.548875e-10 4.2044315e-09 1.1363332e-09 4.1275316e-09 6.860401e-09 1.4391824e-09 1.656661e-09 6.859603e-09
4.3773256e-09 4.0448116e-09 2.2366868e-09 3.862594e-09 1.1853524e-09 1.5214554e-09 2.2419189e-09 3.506944e-09
2.7619642e-09 5.5241456e-10 2.6078502e-09 5.633246e-10 1.160894e-09 8.126845e-09 1.4307838e-09 1.1196113e-09
3.2804444e-09 7.579338e-09 1.1614906e-09 1.1076825e-09 6.800762e-09 9.094763e-09 2.8077594e-09 1.5063234e-09
7.653281e-09 1.0064388e-09 1.544683e-09 1.3496106e-09 1.5261659e-09 3.943905e-09 5.006834e-09 5.4676046e-09
4.5917e-09 4.4638444e-09 3.2763263e-09 2.2840534e-09 7.756048e-09 4.000819e-09 3.859882e-09 1.8223801e-09
5.0638466e-10 6.737125e-09 6.305545e-10 5.1366653e-09 2.553078e-09 8.0882673e-10

exp_avg f4 [5]
00000000: 8b29 dfae 461c d2ab e593 f72e 8d21 95ae
00000010: 961b 4d2d
-1.01482454e-10 -1.4929245e-12 1.1258531e-10 -6.781695e-11 1.1659026e-11

exp_avg_sq f4 [5]
00000000: 0d0f 6225 3f7d dc25 4998 2c28 ed84 f727
00000010: cf63 0125
1.9607475e-16 3.8248787e-16 9.58094e-15 6.870039e-15 1.1222783e-16
