tutorial/DLPFC_output/version_4/checkpoints/mlp.ckpt (torch, 18997 bytes, 12 tensors)

model.classifier.0.weight f4 [30, 30]
000000 93 0e 94 3d e2 07 1b 3e 64 02 74 bc e4 06 b0 bd
       0.07229342 0.15139726 -0.014893148 -0.08595064
000010 49 d5 c3 3c d4 71 a3 bc 52 35 90 bd 38 5e 99 3b
       0.023905413 -0.019951738 -0.0704142 0.004680421
000020 d5 de 55 bb ed 0e 87 3d 41 0f 51 bd 90 ba 5f bc
       -0.003263404 0.06594644 -0.051039938 -0.01365532
000030 3a 60 f2 bd 77 25 46 3e 88 41 b2 3d 22 da 65 be
       -0.1183476 0.19350229 0.08703905 -0.22446492
000040 f8 b2 db 3c 6f 20 e7 bd 8f a2 25 bc 53 42 0c bd
       0.026818737 -0.11285483 -0.010109558 -0.03424294
000050 db a1 d9 bd c3 41 76 bc 56 86 d6 bc 67 84 b1 3b
       -0.106265746 -0.015030327 -0.026187103 0.005417395
000060 f9 e8 65 bd 78 b5 ee 3c a0 24 dd bd 35 d7 a2 be
       -0.056130383 0.029139265 -0.10798001 -0.31804815
000070 34 32 24 3d 0d 64 2d be 46 28 99 bc 79 80 18 be
       0.04008694 -0.16932698 -0.018695962 -0.14892758
000080 fe c6 92 bd f1 96 58 3d 23 d4 26 3e 9a 83 b0 bd
       -0.07166861 0.052878324 0.16291861 -0.08618851
000090 b0 3d 24 bd e9 96 3d ba 7d 3a e8 bd 05 2b d5 bd
       -0.040097892 -0.0007232265 -0.11339281 -0.10408596
0000a0 24 58 2e 3d 78 2f ff 3c 5d 3a 3c be f6 53 85 be
       0.042564526 0.031150565 -0.18381639 -0.2604062
0000b0 f5 e4 e8 bd 50 4b d3 bd 6f ca 21 be 6c 28 f7 3d
       -0.11371795 -0.10317099 -0.15799879 0.12068257
0000c0 d8 6d 2d 3c ab 6f b2 bd cc 0a cf 3d 34 9e de 3c
       0.010585271 -0.08712705 0.10109481 0.027175047
0000d0 38 d3 76 bd e9 94 c2 bd de 0c ad 3d 8a 83 22 3c
       -0.060260028 -0.095010586 0.0844972 0.009919057
0000e0 34 e2 5c bc 9b 0f a9 3d 06 1a f4 3d a2 e6 f5 bd
       -0.013481665 0.0825493 0.11919026 -0.1200688
0000f0 83 15 85 3d d0 d3 c7 3d d8 94 ba bb 3b a2 2a bd
       0.06498244 0.09757197 -0.005694013 -0.04165862
000100 90 04 2f bd 69 f2 34 bd 43 2b 05 bd b4 e7 5f bd
       -0.04272896 -0.044176493 -0.03251196 -0.05466433
000110 b2 3e 59 3d 8c 82 b4 3c 20 be 89 bd 4d 20 ed bd
       0.053038307 0.022034906 -0.067257166 -0.115784265
000120 37 d6 ed bb 40 ff f0 3d 2c 79 7d 3d b2 85 9f bd
       -0.0072582024 0.11767435 0.061883137 -0.07789172
000130 9b 09 d5 3c 94 76 5b bd a9 52 65 bb 90 c0 a4 bc
       0.026005557 -0.05357988 -0.0034991896 -0.020111352
000140 67 b6 1e bc d8 bc 3d bc f0 b9 b3 bc 0b d7 e4 3c
       -0.009687043 -0.011580668 -0.021939248 0.027934572
000150 a8 0a 01 be 3b 12 69 bd cb c6 15 bd 21 b3 2c be
       -0.12601721 -0.05690215 -0.036566537 -0.16865207
000160 51 c9 de 3d 65 74 18 bc 93 b5 af bd b8 7e 70 3e
       0.10878242 -0.009305094 -0.085795544 0.2348584
000170 89 1f 97 3d 2e 20 66 bc 96 64 a5 3d 6a 81 01 3e
       0.07379062 -0.014045758 0.08075826 0.12647024
000180 10 dd 7e bb be 04 f4 3d c1 c6 92 bc 6e a8 3a 3e
       -0.0038889088 0.11914967 -0.017917039 0.18228313
000190 c0 76 80 bd 73 69 9d 3d ca ff 61 bc 1c 22 51 3e
       -0.0627265 0.076861285 -0.013793895 0.20423168
0001a0 82 c8 92 3d 1f 81 f2 bc e6 c1 3c 3d 40 94 f3 bd
       0.0716715 -0.029602585 0.046083353 -0.11893511
0001b0 c0 68 81 bd 3e d8 ab 3d 15 89 a0 bd 2e d3 e3 bc
       -0.063188076 0.08390854 -0.07838646 -0.02781066
0001c0 fb fe a1 3c d6 bf a4 3d 04 ad 22 3d 0c 19 06 3e
       0.019774904 0.08044402 0.03971578 0.13095492
0001d0 f0 83 79 bd 2d 18 07 be da 46 74 be 6c 77 a2 bd
       -0.06091684 -0.13192816 -0.23855153 -0.07932934
0001e0 4b 4d 8f 3c c6 ac 48 be 83 30 68 3d f3 ef 9f bd
       0.01749291 -0.19597158 0.05668689 -0.078094386
0001f0 22 3a 7a be fe 1f 09 3e e9 75 8a bc 0f ed d6 3b
       -0.24436238 0.1339111 -0.016901927 0.0065590213
000200 f1 74 18 3e f5 59 09 be 80 76 8f 3c ef 1d 44 bd
       0.1488836 -0.13413222 0.01751256 -0.04788011
000210 04 0a e3 3d 98 e0 bf 3d 98 6b 04 3d 51 39 24 3e
       0.11085895 0.0936901 0.032329172 0.1603749
000220 b8 fc c5 3d f9 86 b1 bd 9c 60 9c 3d ee 65 3c 3d
       0.09667343 -0.08668322 0.07635614 0.045995645
000230 aa bf e6 bd 43 39 11 3d 66 72 30 bc 2b 0a 5a 3d
       -0.11267026 0.035455 -0.010769462 0.053232353
000240 7e 74 47 3c e8 4c 0d 3d 76 64 8f 3d 4b 2b d8 3c
       0.01217377 0.03449717 0.07001583 0.026387831
000250 c8 0d d2 bd 30 5c 24 3e 4b 71 8e bd 8f 06 73 bd
       -0.10256535 0.16050792 -0.06955203 -0.059332427
000260 4d f9 0d 3d 17 42 a2 bb cb eb 98 bd 64 44 e3 3d
       0.03466158 -0.004951726 -0.07466849 0.11097029
000270 11 ac 8a 3c 8a d2 4e 3d a1 b8 74 3d 6c f2 15 bd
       0.01692775 0.050493754 0.05974639 -0.036608145
000280 50 32 67 3c 57 b4 60 3b cf d4 a0 3d 65 db b4 3c
       0.0141111165 0.0034287178 0.0785309 0.022077272
000290 99 f4 6c 3c 36 8f 11 3e 49 29 15 3d 36 8b e2 bc
       0.0144626135 0.14214787 0.036416326 -0.027654272
0002a0 53 31 01 ba 8b 3e 17 3d 69 eb 17 bd 62 df c4 3b
       -0.00049283094 0.03692488 -0.03708974 0.0060080746
0002b0 17 c9 ad b9 ce 48 f5 3c 4a 76 68 3d 96 3b 73 3d
       -0.00033146955 0.029941943 0.056753434 0.059382997
0002c0 8d db 32 3d 7b 64 b7 3d 0f 41 0f be 57 07 db 3d
       0.04366641 0.08954712 -0.13989662 0.10694759
0002d0 3f 54 1d 3d 65 69 f6 bc a5 e9 20 3c b8 47 b6 bd
       0.03841042 -0.030079553 0.00982133 -0.08900398
0002e0 00 d9 6b be 3d 96 9e 3d 49 c6 c1 3c 8c 97 f5 bb
       -0.23031998 0.077434994 0.02365412 -0.0074948724
0002f0 7d cf 03 3e 7d b4 20 bd 70 e6 1d 3d d6 3f a9 bc
       0.12872119 -0.039234627 0.03854984 -0.020660322
000300 a1 ad 11 3e 4b 1b 3a 3e 55 82 c9 3d f6 bb d4 3d
       0.1422639 0.18174474 0.09839312 0.10387413
000310 78 10 18 3e 36 b2 c4 bd 61 2b c4 3c d1 53 84 3c
       0.14850032 -0.096043035 0.023946466 0.016153248
000320 e9 cf 1e be d7 81 f4 bb 48 61 d8 3c d6 54 d2 3c
       -0.15508999 -0.007461767 0.026413575 0.025675219
000330 1a ce 4f bc 1e 7b 30 3b 54 7b f5 3c 79 83 3f bd
       -0.012683416 0.0026928852 0.029966034 -0.04675624
000340 a9 f7 a9 bd 27 3c 04 3e 11 cc b7 bc ad 3a 11 3d
       -0.082991906 0.12913571 -0.022436174 0.03545635
000350 13 11 ad 3c 05 59 e7 3d 4e 3d 77 3e 15 0f b9 bd
       0.021126306 0.11296276 0.2414448 -0.0903608
000360 33 56 a3 bb 6c 45 e4 bb bb 07 19 be b3 67 a1 3d
       -0.004984641 -0.0069662835 -0.14944355 0.07881107
000370 9f 26 44 bd 03 5f 35 3d 01 72 e0 bd 2e 63 4e be
       -0.047888394 0.044280063 -0.109592445 -0.20155022
000380 c5 74 06 be cb 82 99 bd 04 f8 14 be 4c 68 eb 3d
       -0.13130482 -0.0749565 -0.14547735 0.114945024
000390 55 66 0c bc c9 29 d9 3c 76 de 42 3e 7b ad 4f 3c
       -0.00856932 0.026509183 0.19030175 0.012675638
0003a0 ae 7e 02 3c 85 e6 5c bb e8 a5 c4 bb c1 0c f1 bc
       0.007964773 -0.0033706736 -0.006001223 -0.029425027
0003b0 e9 54 08 bc 2f 47 cf 3d e0 02 a5 3d f7 1e f9 bd
       -0.008321025 0.10120999 0.08057189 -0.12164109
0003c0 58 39 64 bd 62 f1 2a 3d 82 3c 0f 3d 85 75 f0 3d
       -0.05571875 0.041734107 0.034969814 0.11741165
0003d0 82 be e4 3d 9f b5 38 bd 40 27 4a 3d d2 47 ba bc
       0.11169149 -0.045095082 0.049353838 -0.022739325
0003e0 8e 0a 69 bd 4a 1c 84 3d cb dc 1e bd 17 0a 4e bc
       -0.05689483 0.06450708 -0.038784783 -0.012575648
0003f0 43 6b 6d 3d 70 2c 1d be 52 01 b1 bd d7 39 b7 3d
       0.05796362 -0.15348983 -0.0864283 0.08946579

model.classifier.0.bias f4 [30]
000000 dc 02 2f 33 36 7c 29 34 db 45 8d b2 08 9a 41 32
       4.0747963e-08 1.5784539e-07 -1.6446327e-08 1.1269101e-08
000010 e5 c1 bb b2 22 7f 3d 33 4a a9 db 32 66 22 14 b3
       -2.1857838e-08 4.412062e-08 2.557194e-08 -3.449022e-08
000020 aa c1 e2 b1 7a 4c cd b2 06 a5 04 b3 fe 24 79 b2
       -6.5994827e-09 -2.3899918e-08 -3.0883733e-08 -1.4502119e-08
000030 82 4c 23 b3 8c 83 60 b3 f6 c5 8b 30 bb 61 6f 33
       -3.802098e-08 -5.2273705e-08 1.0169845e-09 5.573541e-08
000040 27 dc 90 34 38 ee 2b 33 99 7e b8 33 45 8f c8 b3
       2.6982272e-07 4.00307e-08 8.591196e-08 -9.339286e-08
000050 63 a3 12 34 2f e3 bc 32 9b 26 15 b3 61 c3 f3 b2
       1.365675e-07 2.1989392e-08 -3.4726877e-08 -2.8377771e-08
000060 ee de 25 b3 7e ca 4e 34 0a 43 00 32 7f f9 be 32
       -3.861981e-08 1.9258911e-07 7.4658235e-09 2.2232369e-08
000070 18 0d 42 b3 14 db d4 32
       -4.5181054e-08 2.4779673e-08

model.classifier.1.weight f4 [7, 30]
000000 0d 50 87 3e dc 53 72 3e b3 43 2d 3e ae a7 b7 bd
       0.2642826 0.23664802 0.16920356 -0.08967529
000010 20 c1 64 be 78 eb 4a be ec d6 42 be c6 09 d6 3d
       -0.22339296 -0.19816387 -0.19027299 0.10451083
000020 cd 6d c7 bd 5e ec dc bc 52 62 3b 3e 79 1e 14 be
       -0.0973774 -0.026968177 0.18299225 -0.1446475
000030 7c 6f 03 bc 3d d3 e6 3d f9 5e 7f 3e c3 51 90 bd
       -0.008022185 0.11270759 0.24938573 -0.07046845
000040 8b 10 ca 3d 80 6b e1 3d f4 0a 2b be aa 9e d6 3d
       0.098664366 0.11006832 -0.16703397 0.104794815
000050 a4 89 42 3d 52 9f 30 3d 5b 5c 34 3d 21 12 26 be
       0.047494546 0.04312069 0.04403339 -0.16217853
000060 0e 82 82 3e 76 5b a3 3e 4c 3c 05 be 10 30 a6 3e
       0.2548985 0.31905717 -0.13011283 0.32458544
000070 89 b7 56 3e 51 c6 03 3e f6 ab b6 3e 1d 67 9b be
       0.2096845 0.1286862 0.3567807 -0.30352107
000080 04 43 54 3e 8b 67 c0 3e af 68 63 be 40 8f fd bd
       0.2072869 0.37578997 -0.22207902 -0.123808384
000090 4a 9c 24 3d 90 6c db bc f5 e6 80 bd 73 98 91 3e
       0.04018811 -0.026785165 -0.062940516 0.28436622
0000a0 1d 53 84 be df cb 9d 3c df 7d a8 be bd 1d fc 3e
       -0.2584466 0.019262252 -0.32908532 0.49241439
0000b0 52 d6 6c bd 7d fa 8d be 3f 10 f6 be c1 07 ef be
       -0.05782158 -0.2773017 -0.4805927 -0.46685603
0000c0 2f ba 05 bf 74 39 a1 3e 2f fd fd bc a0 41 e7 3e
       -0.5223722 0.31489146 -0.031004516 0.45167255
0000d0 7b bb 6c bd db 31 fa 3d 2e b4 cf 3d ce e7 d1 be
       -0.057795983 0.122165404 0.101417884 -0.40997165
0000e0 88 80 76 3e 61 5e 34 be 56 fc 68 3e fd 28 91 be
       0.24072468 -0.17614128 0.22752509 -0.28351584
0000f0 f9 41 4c 3d 72 b6 d2 3d 30 64 b1 bd 32 55 0f 3e
       0.049867604 0.10288705 -0.086616874 0.13997343
000100 ba 87 0d bd 5e a7 dc bc 1d c7 0c be 8a b0 44 3e
       -0.034553267 -0.026935276 -0.1374783 0.1920797
000110 5c e4 89 3c 00 af a9 3d 86 97 a9 bd f5 99 1d 3e
       0.016832523 0.08285332 -0.08280854 0.15390761
000120 5d c1 af bd 16 cb 62 3e 1e 9e 3b 3e fe 6c 45 be
       -0.08581803 0.22147784 0.18322036 -0.19279858
000130 0c 1f ca bd 51 99 35 3d bc 57 08 3e 14 64 41 be
       -0.09869203 0.044335667 0.13314718 -0.18885833
000140 93 06 1c be bb 6e 4e 3e aa 66 b1 bd e6 0f 37 be
       -0.15236883 0.20159428 -0.0866216 -0.17877159
000150 98 a5 e8 3d 8f dc 17 3e 5e 0b 29 be ca 78 0a be
       0.113597095 0.1483023 -0.16508242 -0.1352264
000160 8f ed e8 3d 9e b3 87 be b7 3b 67 be 89 68 1a 3c
       0.11373436 -0.26504225 -0.22581373 0.009424337
000170 eb c0 3c be c4 90 5d 3d 48 36 a4 bc f5 b2 f1 3d
       -0.18432967 0.054093137 -0.020045415 0.118017115
000180 30 6b 66 3c 5b c7 d9 bb d9 1b c0 3d eb d1 0a bc
       0.014063641 -0.0066460795 0.093803115 -0.0084729
000190 a5 8c 49 bd 1a d4 d4 3d 23 11 44 3e c8 ba 88 bd
       -0.049206395 0.10392018 0.19147162 -0.06676251
0001a0 3b 23 50 bd 27 9d 24 3d ee 07 26 3e f0 cf 1d 3d
       -0.05081485 0.040188935 0.16213962 0.038528383
0001b0 3e c1 8f 3d d3 fc ab bd d0 6a 6c be e4 4e ef bd
       0.0701928 -0.08397832 -0.2308762 -0.11684969
0001c0 c6 1e dc 3d aa a9 55 3e 73 cc 32 be 26 61 03 be
       0.10748057 0.20865503 -0.17460804 -0.12830028
0001d0 ca ae 69 bd 13 6e da bd 75 44 11 be 7e 37 3f bd
       -0.057051457 -0.10665526 -0.1418627 -0.04668378
0001e0 9a 7e 8e be eb 6f 9a 3d 88 8b c5 3c 7a 3a 94 be
       -0.27830964 0.07540878 0.024114385 -0.28950864
0001f0 07 de e7 bd c7 ba 84 bd 5a bd 21 be 12 ec 82 3e
       -0.11321645 -0.064809375 -0.15794888 0.25570732
000200 83 7f b8 3e 7e 97 fc bd d1 62 d1 3e 1f 42 bf be
       0.36034784 -0.12333582 0.40895703 -0.37355134
000210 3b b1 a1 3e 42 f6 cc be 0d 81 52 3d fe 53 6d be
       0.3158053 -0.4003163 0.051392604 -0.23176572
000220 a5 af f1 3d 65 a6 12 3e bc 9b 4d 3e 95 b1 a1 3e
       0.1180108 0.14321287 0.20078939 0.31580797
000230 d9 09 84 bc 2e dc a8 be c2 57 d6 3d 9c 93 b3 bd
       -0.016117977 -0.32980484 0.10465957 -0.08768389
000240 70 ab 33 3e 21 48 07 3e 8b 02 c7 bd 77 e9 db 3d
       0.17545867 0.13211109 -0.09717282 0.10737889
000250 1e 59 21 3e 78 49 a9 3e fc e4 65 3d 38 94 b9 bd
       0.15756652 0.33063865 0.05612658 -0.090614736
000260 77 98 bd 3d d7 89 7b be dd 95 4b 3e d7 dd 46 bd
       0.09257596 -0.245643 0.19881387 -0.048551407
000270 4e b9 6c 3e 9a 09 6a be 44 bc 33 be 73 dc 51 be
       0.23117563 -0.22855225 -0.17552286 -0.20494251
000280 54 18 64 3e 3f 75 4c be d8 20 05 3e 8d 3b a2 be
       0.22274905 -0.19966601 0.1300081 -0.3168606
000290 c2 17 45 be 70 dd 8e 3e a7 27 28 3e 5f 8e b5 bd
       -0.19247344 0.27903318 0.16421376 -0.08865046
0002a0 3c 46 5a be 65 f6 89 3e 23 85 9b 3e ec aa 65 be
       -0.21315855 0.26945797 0.30375013 -0.22428483
0002b0 b8 72 d1 3d a2 15 15 3e 65 c1 38 be ff 4d b9 bd
       0.10226959 0.14559034 -0.18042524 -0.0904808
0002c0 e1 d1 5c 3e ba 9f a6 3e 86 38 3b be f9 f0 8f 3e
       0.21564437 0.32543737 -0.1828328 0.28113535
0002d0 32 30 18 3b d0 8e ca be 78 de d8 3d 3f 9f 16 3e
       0.0023222086 -0.39562082 0.105893075 0.14709185
0002e0 f8 07 cb 3e b4 61 4a 3e 10 83 ac 3e 90 b7 b6 be
       0.39654517 0.19763833 0.33693743 -0.35686922
0002f0 7a 98 f0 bd af d3 b7 3d a6 2e ba be 56 d0 3c 3e
       -0.117478326 0.08975922 -0.36363715 0.18438849
000300 b3 80 6b be 73 c3 dd 3d ce ba a8 be ca 5b 6d 3e
       -0.22998314 0.108282946 -0.3295502 0.23179546
000310 56 b3 aa be e6 b8 2e be 7b ee d3 3c 77 9c 34 be
       -0.33339947 -0.1706272 0.025870552 -0.17637812
000320 50 b2 a5 3e ab ad 2c 3e d8 18 45 be 0e 55 b7 3d
       0.32362604 0.16863124 -0.19247758 0.0895177
000330 38 c5 21 be 6d c5 bb be fe 2c aa 3e c9 23 9d be
       -0.15797889 -0.3667406 0.3323745 -0.30691364
000340 cb d6 3d be 3b d2 d6 bd
       -0.18538968 -0.10489317

model.classifier.1.bias f4 [7]
000000 96 58 68 b2 af 6c 20 b4 9f 4a 3b b3 52 16 02 b4
       -1.3524319e-08 -1.49407e-07 -4.3607198e-08 -1.2115314e-07
000010 bc 42 fb 33 7f bc b2 b3 a0 a3 16 b5
       1.1700237e-07 -8.323058e-08 -5.611746e-07

exp_avg f4 [30, 30]
000000 dc 32 66 34 a0 42 a8 b4 5d ba ac b5 a9 68 35 35
       2.1438922e-07 -3.1340915e-07 -1.2869237e-06 6.7580055e-07
000010 a8 26 2e b5 6d fb c1 35 46 fe 80 35 bf 8e a7 b5
       -6.4876303e-07 1.4452795e-06 9.610746e-07 -1.2484014e-06
000020 11 ed f1 b3 52 b2 1e 34 76 28 bf 35 4c a3 e3 35
       -1.1265559e-07 1.4779769e-07 1.4242385e-06 1.6960344e-06
000030 6a 12 d8 35 28 c0 e7 b5 42 e3 ec b4 d9 ac 14 36
       1.6098613e-06 -1.7266766e-06 -4.4123777e-07 2.215433e-06
000040 54 4e a1 35 e5 ba e3 35 0e 21 25 34 4d 6f fc b4
       1.2018231e-06 1.6967211e-06 1.5378848e-07 -4.701964e-07
000050 ea ca d0 35 48 e9 92 34 a3 21 1b b6 77 2f a8 b5
       1.5556263e-06 2.7364354e-07 -2.311638e-06 -1.253079e-06
000060 21 0a 8f 34 08 b3 06 35 88 3d 30 35 fd 46 ad 35
       2.6643195e-07 5.0179415e-07 6.565465e-07 1.2910165e-06
000070 10 c9 aa 34 86 f3 4c 35 57 0b 36 35 1c 01 d2 34
       3.181126e-07 7.6350295e-07 6.7816785e-07 3.9116355e-07
000080 cc ad 03 35 df 2b 13 35 55 36 15 b4 6e 21 cc b5
       4.905421e-07 5.482561e-07 -1.3896472e-07 -1.5208914e-06
000090 00 cc 79 b4 44 f1 a1 35 1e ef 41 b5 c3 72 06 34
       -2.3264147e-07 1.2065652e-06 -7.2246064e-07 1.2521473e-07
0000a0 65 18 d4 35 e5 f0 1c 36 3f ba b0 34 ec 14 02 b4
       1.5802331e-06 2.338603e-06 3.2918066e-07 -1.2114805e-07
0000b0 f6 c6 53 33 a1 cc d6 b4 3f 31 e7 b4 80 98 2d b5
       4.930822e-08 -4.0009493e-07 -4.3062934e-07 -6.466944e-07
0000c0 16 2d 87 35 7e 05 06 35 7d df da b5 d8 e4 29 35
       1.0071406e-06 4.992688e-07 -1.6307309e-06 6.329042e-07
0000d0 05 ab 95 36 e0 2e 76 b3 5d 47 37 b4 55 1f 82 35
       4.4604553e-06 -5.731897e-08 -1.7069165e-07 9.694874e-07
0000e0 ec ee b1 b3 f0 7b f3 35 10 0d 0c b6 89 45 fe b3
       -8.2856644e-08 1.8140981e-06 -2.086923e-06 -1.1840445e-07
0000f0 2e 95 c3 b4 99 c1 86 35 ac 6c ae b5 f8 d6 6c b4
       -3.6430123e-07 1.0040122e-06 -1.2995638e-06 -2.2057418e-07
000100 43 f3 f7 b4 f2 bb 21 b4 96 6e 8f 35 a3 9e 8c b5
       -4.618433e-07 -1.5062668e-07 1.0686515e-06 -1.0476982e-06
000110 a2 30 82 35 79 d0 3d 34 e2 93 1a b5 aa 62 4f b6
       9.699909e-07 1.7677839e-07 -5.758467e-07 -3.0902834e-06
000120 3e f9 2c 34 d2 de 4a b4 77 8f 28 34 2d 5b 5d 35
       1.6109422e-07 -1.8893778e-07 1.5698411e-07 8.2461594e-07
000130 2c 95 14 35 78 f2 0a 35 98 14 18 b5 d4 67 09 b5
       5.535137e-07 5.1761845e-07 -5.665438e-07 -5.1187567e-07
000140 67 8b 9d 35 8e 43 07 b5 81 01 4e b6 ba c6 3c 34
       1.1737983e-06 -5.0389724e-07 -3.0697267e-06 1.758116e-07
000150 f1 44 02 b5 dd 24 1a b5 c1 d9 f6 34 9c 5e 8c 34
       -4.8529097e-07 -5.7423114e-07 4.5979507e-07 2.614587e-07
000160 b2 32 b7 35 a7 a6 75 35 5b 03 5f 35 86 78 cd b5
       1.3649317e-06 9.1512123e-07 8.3078857e-07 -1.5308767e-06
000170 63 47 9c b5 6d 88 e3 b3 de f5 88 b5 99 c8 b9 35
       -1.1643682e-06 -1.0595327e-07 -1.0204346e-06 1.3841956e-06
000180 5f 2d 2c 35 34 19 e6 b5 c3 a0 55 b3 8d 1e b9 31
       6.4141017e-07 -1.714367e-06 -4.973914e-08 5.387682e-09
000190 b3 ad 62 35 fd 82 66 35 03 53 30 35 8c 4e 8f b5
       8.4444326e-07 8.587229e-07 6.568591e-07 -1.067719e-06
0001a0 eb a7 bc b4 9e 20 00 36 60 cc f6 35 12 b6 c8 35
       -3.5139905e-07 1.9092472e-06 1.8387909e-06 1.4954151e-06
0001b0 28 0b bc b4 8e 07 84 b5 0e 75 a4 35 0f 02 7b 34
       -3.5025846e-07 -9.836965e-07 1.225302e-06 2.3376946e-07
0001c0 fa 59 5d b6 fd f4 b0 b5 56 61 64 34 a1 96 b7 b4
       -3.298394e-06 -1.3184323e-06 2.1269565e-07 -3.4196003e-07
0001d0 82 9b 14 35 68 65 9d 33 08 32 a1 35 58 77 82 34
       5.536059e-07 7.329328e-08 1.2009996e-06 2.430122e-07
0001e0 7b d4 cc b5 24 e7 79 b5 e5 36 35 36 a5 7c fc 34
       -1.5261024e-06 -9.309608e-07 2.7003055e-06 4.702935e-07
0001f0 0a 63 97 35 dc de 4d 36 97 08 d0 b5 50 d9 08 36
       1.1279201e-06 3.0677102e-06 -1.5499708e-06 2.0392072e-06
000200 9e 58 1e b5 fa 7a 59 b4 7a bd aa b5 a4 a2 b5 35
       -5.898854e-07 -2.0254438e-07 -1.2721132e-06 1.3532886e-06
000210 50 df 6a b4 63 79 5e 34 42 8f 97 33 9d ea 7e 35
       -2.1874189e-07 2.0719521e-07 7.057544e-08 9.496378e-07
000220 e7 d0 9c b4 32 c6 9c b5 69 91 9a b4 d3 8d b9 35
       -2.920926e-07 -1.1680588e-06 -2.8790535e-07 1.382485e-06
000230 4a 20 4e b5 b2 83 f0 b3 e6 75 05 36 98 76 5c 35
       -7.6787967e-07 -1.1199826e-07 1.988717e-06 8.2128963e-07
000240 93 4d c5 35 29 06 44 35 eb 27 77 b5 17 5c 09 34
       1.4700221e-06 7.3024654e-07 -9.207276e-07 1.2792621e-07
000250 ef 3d 48 b6 8e 94 bc b0 5a 1c 2a b5 66 b2 4b b5
       -2.9838372e-06 -1.3721022e-09 -6.337119e-07 -7.5882997e-07
000260 64 79 c1 35 4b 04 93 32 94 f8 2c 35 bb fe d4 35
       1.441495e-06 1.7115005e-08 6.443672e-07 1.5869367e-06
000270 34 cd 7b b5 92 e1 5b 35 91 7f ab b4 f2 52 36 b4
       -9.3803396e-07 8.1912106e-07 -3.194405e-07 -1.6980246e-07
000280 66 4c 3a b5 61 e3 a6 34 57 66 20 b3 56 06 a2 33
       -6.9401574e-07 3.108535e-07 -3.734598e-08 7.544865e-08
000290 74 40 54 33 1b ca 13 35 fc fc 21 b3 5f f4 2f b5
       4.9418716e-08 5.505587e-07 -3.771582e-08 -6.5548187e-07
0002a0 4c 47 aa b4 78 a8 cd 34 0c ed 24 b5 56 9e 9b 33
       -3.1716843e-07 3.8306803e-07 -6.143971e-07 7.246551e-08
0002b0 84 d8 a2 35 77 a1 88 34 e5 18 35 35 b9 d7 4f 34
       1.2132955e-06 2.5449455e-07 6.746398e-07 1.9356857e-07
0002c0 c5 7e 0f b5 57 2a 01 b4 f6 cd b3 b5 b8 19 f9 b3
       -5.3456125e-07 -1.2029464e-07 -1.3396482e-06 -1.1599644e-07
0002d0 3b 15 d7 b5 9c 53 d2 b4 97 57 9b 35 cb c0 a3 34
       -1.6024927e-06 -3.9176382e-07 1.1573892e-06 3.050139e-07
0002e0 5a 4e 85 35 32 d3 56 36 a1 99 8c b5 db 5d 4f 35
       9.932075e-07 3.2011417e-06 -1.0475525e-06 7.7250087e-07
0002f0 55 f9 a0 b4 85 1e 9a b4 85 5b 96 b5 c9 43 1e 35
       -2.9983735e-07 -2.870694e-07 -1.1202507e-06 5.8958227e-07
000300 bd ed dc b4 d2 2b 89 b4 24 d3 ef b3 2f 40 87 35
       -4.115117e-07 -2.5550122e-07 -1.1167711e-07 1.0076964e-06
000310 77 fa 1d b5 3a c8 80 b4 da 90 fe b4 e8 4b a8 34
       -5.885153e-07 -2.3987542e-07 -4.741658e-07 3.1347668e-07
000320 13 f3 fc 34 95 92 9a b3 78 34 16 b5 4a e4 9d 33
       4.7115518e-07 -7.197847e-08 -5.5955707e-07 7.352408e-08
000330 aa bb 8d 35 dd b3 10 35 78 e7 de b4 4a 03 34 b5
       1.0559936e-06 5.3905916e-07 -4.1519138e-07 -6.706001e-07
000340 90 d4 c0 b5 15 b3 d1 b1 d0 5e 0b 36 3c 4d 10 35
       -1.4366979e-06 -6.10306e-09 2.0767802e-06 5.375657e-07
000350 10 80 cd b5 c5 6c 5a b5 df 23 9a b5 86 bc 8a b6
       -1.5310961e-06 -8.136961e-07 -1.1484334e-06 -4.1346675e-06
000360 cc 1a 94 35 f8 65 8e b5 0c 38 1f 35 56 38 a7 34
       1.1034658e-06 -1.0609501e-06 5.9313675e-07 3.1147164e-07
000370 ee 34 28 35 a7 81 d2 b5 32 bf 99 b4 18 d7 6a 35
       6.26619e-07 -1.5683953e-06 -2.8637584e-07 8.7484796e-07
000380 bf 0a 30 33 63 5c e0 b5 f7 bd e4 34 74 01 89 34
       4.0987967e-08 -1.6716189e-06 4.2606527e-07 2.5519296e-07
000390 5a 11 02 35 97 49 cc b4 75 b2 ff b4 73 d1 08 b4
       4.8454024e-07 -3.8051505e-07 -4.7627296e-07 -1.2742184e-07
0003a0 d5 a4 26 b4 7f cc 9c 34 a9 2f c1 b5 5b ca 85 b5
       -1.551992e-07 2.9206055e-07 -1.4393491e-06 -9.968165e-07
0003b0 34 14 2e 35 81 10 db 33 f3 4e 26 36 be 08 eb b4
       6.484945e-07 1.0200984e-07 2.4781882e-06 -4.3778522e-07
0003c0 67 ea cc 34 89 14 cf 35 3d d2 a3 b5 79 45 96 b5
       3.816851e-07 1.5428678e-06 -1.2205634e-06 -1.119609e-06
0003d0 21 df 20 b5 f9 c6 73 b6 17 3b 46 35 4d b5 5d b5
       -5.992934e-07 -3.632564e-06 7.3846735e-07 -8.2592743e-07
0003e0 6b 14 a2 35 68 27 c9 33 1b c1 8c b5 65 f7 8f b6
       1.2075883e-06 9.36696e-08 -1.0487014e-06 -4.2905326e-06
0003f0 11 d8 3f b5 61 7c e7 35 a1 9f 14 35 39 99 4a b6
       -7.146746e-07 1.724704e-06 5.5366587e-07 -3.0189533e-06

exp_avg_sq f4 [30, 30]
000000 b8 ad 11 2f a1 99 04 2e e0 c5 7d 2e db d9 54 2e
       1.324939e-10 3.0149775e-11 5.7701288e-11 4.8396714e-11
000010 41 21 f0 2e 75 26 a1 2e 91 d5 ca 2e 70 80 39 2e
       1.09198435e-10 7.328264e-11 9.2238335e-11 4.2178205e-11
000020 2d 4e 18 2e 97 1b 09 2e c5 53 28 2f 89 d3 62 2f
       3.4630233e-11 3.1174698e-11 1.5309272e-10 2.0629733e-10
000030 4f 19 af 2f 6b 54 95 2e 3c dc 0d 2e 8a d5 7f 2f
       3.1850297e-10 6.790731e-11 3.2255296e-11 2.3267979e-10
000040 7a 14 1c 2f c7 ec 92 2e 43 6f 89 2e 3e 39 42 2e
       1.4195392e-10 6.6813714e-11 6.249803e-11 4.4161334e-11
000050 64 a1 d3 2e 74 16 f6 2d ab b5 e2 2e 51 61 10 2e
       9.623838e-11 2.7976933e-11 1.0309561e-10 3.2828244e-11
000060 e6 4e 09 2f 26 76 c9 2d 06 fb 10 2e 01 35 a5 2f
       1.2488108e-10 2.2903523e-11 3.2964763e-11 3.0050987e-10
000070 74 bf 6c 2f 64 39 dc 2e 93 e8 9f 2d f3 ca 0a 2e
       2.1532093e-10 1.0014636e-10 1.8179491e-11 3.1557822e-11
000080 0b a9 cf 2e be 6b 0f 2e 4a 53 85 2f ce f6 98 2e
       9.443298e-11 3.261013e-11 2.425174e-10 6.956001e-11
000090 ac 7e 01 2e 06 83 ba 2d e2 a7 80 2e f2 bb 5b 2e
       2.944371e-11 2.1203938e-11 5.850588e-11 4.9961764e-11
0000a0 3c 6b 04 2e fe 11 93 2e 0b 7b 3a 2f 40 6a 6d 2e
       3.010857e-11 6.687982e-11 1.6960315e-10 5.398193e-11
0000b0 31 1a ce 2d 79 9d 81 2f bc c9 5b 2f 65 1a ec 2d
       2.343112e-11 2.3576854e-10 1.9989604e-10 2.6841815e-11
0000c0 e0 c1 f8 2d 46 21 e5 2e 2b 25 4d 2e 56 80 b0 2d
       2.8280434e-11 1.0419625e-10 4.6644615e-11 2.0065876e-11
0000d0 13 13 81 2e 41 3f 05 2e 7b ed 0c 2e a9 16 ae 2d
       5.869629e-11 3.029688e-11 3.204324e-11 1.9791573e-11
0000e0 91 c0 bc 2d c4 35 c8 2e cc 71 a4 2e 41 62 ae 2e
       2.1458642e-11 9.104498e-11 7.478071e-11 7.930057e-11
0000f0 3a ef a0 2d 1b 9e 90 2f de 89 73 2e 29 8b 1f 2e
       1.8296132e-11 2.6305788e-10 5.5374254e-11 3.6276013e-11
000100 51 43 4b 2e ee ea a6 2e 6e 8a ed 2d 65 73 1f 2e
       4.6216645e-11 7.590538e-11 2.7005256e-11 3.6254905e-11
000110 31 cd 91 2e f0 3b c2 2d d5 b6 a1 2e 7c 4f fc 2f
       6.630286e-11 2.2081864e-11 7.35391e-11 4.589501e-10
000120 5b 11 83 2e 8d 52 e9 2f 1c b2 27 2f f8 55 15 2f
       5.960273e-11 4.244111e-10 1.5251839e-10 1.3582013e-10
000130 43 2a 7f 2e 59 97 83 2e ed 1d 24 2e 12 65 77 2e
       5.8017823e-11 5.984075e-11 3.7315862e-11 5.6251066e-11
000140 65 ad 11 2e 8c ba 7e 2e 47 ca 15 2f 94 89 6c 2e
       3.3123188e-11 5.79186e-11 1.3623334e-10 5.378238e-11
000150 c3 6d 9a 2e 87 e3 23 2e 40 a1 07 2e ef d2 0c 30
       7.022607e-11 3.7263994e-11 3.0838665e-11 5.123146e-10
000160 97 12 a0 2f 2b 76 81 2e a4 7d aa 2e b4 83 c4 2e
       2.911704e-10 5.887232e-11 7.753023e-11 8.936443e-11
000170 dc 20 bd 2e ee 80 b6 2e 64 e3 be 2e 03 2b 11 2f
       8.600562e-11 8.299304e-11 8.6805924e-11 1.3202954e-10
000180 45 39 90 2e 1a 08 54 2e e4 c8 7e 2e 0f 19 ad 2e
       6.558535e-11 4.8210415e-11 5.793134e-11 7.8715805e-11
000190 e2 1b 3c 2f 36 9b 43 2f 76 10 21 2f 89 3e dc 2e
       1.7108406e-10 1.7790289e-10 1.4648713e-10 1.001555e-10
0001a0 cf 73 0c 2e 96 7b 97 2f 53 e9 b4 2e 0c ac b9 2e
       3.1935173e-11 2.7554553e-10 8.226899e-11 8.443388e-11
0001b0 6d 5f 88 2e 7f 03 be 2e 1b d3 af 2e d1 30 1d 2e
       6.201515e-11 8.640821e-11 7.9955785e-11 3.5741025e-11
0001c0 fe de 09 2f ac 57 36 2e 78 86 85 2f ba ff 53 2e
       1.25393e-10 4.1459877e-11 2.4288105e-10 4.8202976e-11
0001d0 3a 9c 16 2e 43 5d 93 2f ac 26 6e 2f 63 f9 2f 2f
       3.424481e-11 2.680541e-10 2.1659713e-10 1.6004757e-10
0001e0 d5 f6 53 2f 07 bd 53 2f 0c e5 24 2f 10 11 59 2e
       1.927803e-10 1.9257494e-10 1.4997087e-10 4.9355242e-11
0001f0 32 96 9d 2f 27 37 44 2f 49 d1 17 2e 60 56 fd 2d
       2.8664854e-10 1.784569e-10 3.4519308e-11 2.8801128e-11
000200 9a 07 47 2e 63 c9 1f 2e 70 9b 1d 2e 38 69 0e 2f
       4.5254113e-11 3.633128e-11 3.5835723e-11 1.2952206e-10
000210 ed 9d 82 2e f2 c4 ae 2e 8f a3 22 2e a0 f7 23 2f
       5.939769e-11 7.9475884e-11 3.6979805e-11 1.4912738e-10
000220 d8 75 ce 2e f0 7a af 2e ec 54 d2 2e 9c 91 d3 2e
       9.388729e-11 7.979917e-11 9.5647795e-11 9.6210345e-11
000230 b2 95 2e 2f f5 73 31 2e b8 10 3c 2f 86 d1 30 2e
       1.587839e-10 4.034813e-11 1.710444e-10 4.020386e-11
000240 d9 e6 49 2e da 85 0e 2e a5 16 08 2e 37 46 6e 2e
       4.5907143e-11 3.2405946e-11 3.0942932e-11 5.4177298e-11
000250 19 d5 02 2f eb 9d 74 2e 5e 7b 85 2e e8 4d df 2d
       1.1899139e-10 5.5619436e-11 6.070054e-11 2.5386762e-11
000260 1c a1 23 2e fb 14 b3 2d 05 be e0 2d bb fc 9c 2e
       3.7205003e-11 2.0359261e-11 2.5550237e-11 7.1389526e-11
000270 99 3a 14 2e 52 82 00 2e 44 9a 55 2e da 3d cb 2d
       3.370335e-11 2.9219578e-11 4.856761e-11 2.3105896e-11
000280 2a 20 0b 2f a0 c9 68 2f 6a bd 5c 2e 0a 44 02 2e
       1.2653403e-10 2.1171909e-10 5.0190442e-11 2.961901e-11
000290 f7 61 68 2d 0d 63 60 2f b3 e0 e7 2d 92 56 fb 2d
       1.3209426e-11 2.0407871e-10 2.6361446e-11 2.8573841e-11
0002a0 d8 7b 82 2e 25 0f c5 2d c1 c7 a8 2d 10 7c a5 2d
       5.9337146e-11 2.2403033e-11 1.9188097e-11 1.8813423e-11
0002b0 b1 f8 34 2e ad b2 f9 2d ba 57 e9 2e 6e 54 80 2d
       4.1148144e-11 2.838737e-11 1.06111966e-10 1.458941e-11
0002c0 a2 cf 25 2d 44 06 62 2f 1a c8 03 2f e2 f6 6a 2e
       9.425268e-12 2.0556806e-10 1.1985471e-10 5.3424716e-11
0002d0 80 59 4a 2e 2f 58 0f 2e c8 7d c6 2d 8f b5 ea 2d
       4.6008974e-11 3.259276e-11 2.2565852e-11 2.6683348e-11
0002e0 20 35 a9 2f a9 56 fe 2d 9c 62 f2 2d 96 e9 0f 2e
       3.0778669e-10 2.8914942e-11 2.7556006e-11 3.27219e-11
0002f0 4b 90 77 2e 05 66 00 2e d5 1c 05 2e ca ee 87 2e
       5.6289456e-11 2.9194442e-11 3.0266307e-11 6.181507e-11
000300 eb 8a bf 2e 6a 8d cf 2e 6f 0c 38 2e 7c 6b f0 2e
       8.710351e-11 9.4383903e-11 4.18478e-11 1.09330295e-10
000310 72 2b b2 2f 8c f6 1b 2e 16 f6 ab 2d de ef 00 2e
       3.240888e-10 3.5461897e-11 1.9549733e-11 2.9316875e-11
000320 ea a9 81 2f 5c 83 67 2d 7c db b3 2e 55 f9 9f 2d
       2.3585695e-10 1.3159997e-11 8.178966e-11 1.8186933e-11
000330 5a 6b f4 2d 4f 2c b1 2d 03 6a 6b 2e c3 a6 cd 2e
       2.7787262e-11 2.0142247e-11 5.352697e-11 9.3519435e-11
000340 f3 f8 81 2e 0b d5 3f 2e 74 62 39 2e f2 78 90 2d
       5.910463e-11 4.3617592e-11 4.2151574e-11 1.6424615e-11
000350 0e 70 6a 2e 6d b0 cd 2e 5e 87 54 2f 1f 9f b8 2e
       5.3304965e-11 9.35366e-11 1.932938e-10 8.395617e-11
000360 38 c0 da 2e 8b 31 32 2e c3 b1 da 2e 76 f0 d3 2d
       9.947637e-11 4.0516517e-11 9.945069e-11 2.4094709e-11
000370 ba 1f 37 2f 59 34 25 2f 2d df 71 2f d5 cd 2e 2f
       1.6655025e-10 1.502526e-10 2.199811e-10 1.5898334e-10
000380 5f 63 a6 2e 7a b1 bb 2f 74 df 8b 2f b0 af af 2e
       7.566458e-11 3.4141207e-10 2.5442726e-10 7.989287e-11
000390 80 9c 03 2e 53 9a ad 2d 8a ad 5d 2f 4b 2c 71 2e
       2.992495e-11 1.9736357e-11 2.0161486e-10 5.4836396e-11
0003a0 d9 58 ec 2e 5d 50 0d 2e 30 96 75 2e eb bb 15 2e
       1.074782e-10 3.2131065e-11 5.5839944e-11 3.4045582e-11
0003b0 56 f4 a9 2d ea 0e 7d 2f 48 58 13 2f bf 25 94 2f
       1.9321583e-11 2.3015514e-10 1.3400936e-10 2.6947863e-10
0003c0 fe 54 0e 2f 7f 14 18 2f d7 b7 42 2e f9 96 18 2f
       1.294502e-10 1.3831601e-10 4.4273776e-11 1.3877956e-10
0003d0 93 dd 3e 2e 05 d8 73 2e ab 40 11 2e 80 0f 31 2e
       4.3397796e-11 5.5443667e-11 3.302662e-11 4.0258907e-11
0003e0 0a b1 2d 2e f8 ce 07 2e fb df 70 2e 3d 60 69 2f
       3.9492888e-11 3.087927e-11 5.4768617e-11 2.1225417e-10
0003f0 31 d6 2b 2e 09 1e f2 2e 99 4e 4d 2e 87 0d 25 2e
       3.907114e-11 1.1010221e-10 4.6681412e-11 3.752867e-11

exp_avg f4 [30]
000000 02 aa 7a 2c dd 4b 95 2c c9 79 0e ac 74 d0 44 2c
       3.562151e-12 4.2432572e-12 -2.0247018e-12 2.796899e-12
000010 c5 79 36 aa 31 12 6e 2b c5 9c 62 ac 70 fe 0e ad
       -1.6207095e-13 8.457983e-13 -3.2203556e-12 -8.128262e-12
000020 c3 40 9e aa cc 34 d1 2b 57 19 b3 ac 8b 98 3b 2c
       -2.8111376e-13 1.4864997e-12 -5.0902993e-12 2.6658977e-12
000030 ef fa 8b ac d2 27 93 2c 63 ee 76 ac cb 12 76 ac
       -3.978477e-12 4.1824122e-12 -3.5091034e-12 -3.4969135e-12
000040 8c ec 4a ad 21 d1 1f 2a aa 13 16 2c 18 75 e5 ac
       -1.1534895e-11 1.4194593e-13 2.1327198e-12 -6.5215715e-12
000050 2b 05 26 2c f6 d1 bd 2c 62 7b 46 ac 4c bf 67 ac
       2.3592888e-12 5.3950134e-12 -2.8205984e-12 -3.2933265e-12
000060 69 6a d8 2a 53 77 e9 ac be 3d 5a ac 7d 24 b5 ab
       3.8443145e-13 -6.635506e-12 -3.1013937e-12 -1.2870951e-12
000070 39 94 e8 2b be 93 e1 ac
       1.6525732e-12 -6.4112873e-12

exp_avg_sq f4 [30]
000000 6f 3d a7 2a e7 9a a0 25 e0 29 f5 2c 0b 34 9a 29
       2.9707787e-13 2.7860542e-16 6.967968e-12 6.848002e-14
000010 c8 b4 d4 28 3b 19 4f 2c 60 2c cc 2c 07 86 04 29
       2.361513e-14 2.9430475e-12 5.8029553e-12 2.9426138e-14
000020 f6 e5 d2 2c cd b1 5a 2b 03 5e 0f 2c 40 34 32 2b
       5.9940898e-12 7.7695906e-13 2.037371e-12 6.3310815e-13
000030 9d e2 a5 2a 3e 8a 38 2b a7 08 f3 28 f1 0a a6 2c
       2.9467132e-13 6.556178e-13 2.6982172e-14 4.7192185e-12
000040 61 c3 e7 26 52 83 b9 2c 36 a5 14 2c 3d 39 68 2c
       1.6081802e-15 5.2725957e-12 2.1123775e-12 3.3000957e-12
000050 e8 83 d4 2a c7 37 2d 2a db e7 1b 2b 10 ba ba 2b
       3.7750293e-13 1.5384838e-13 5.5388826e-13 1.3267738e-12
000060 4d 99 9b 29 38 6a 10 28 6b 61 79 2c 63 72 ab 2a
       6.909976e-14 8.016638e-15 3.5439106e-12 3.0455074e-13
000070 95 49 46 2c e7 89 01 2c
       2.8178339e-12 1.8408554e-12

exp_avg f4 [7, 30]
000000 fe cd 59 b6 91 c4 ce b5 1f d9 1f 34 14 72 2e b3
       -3.2455423e-06 -1.5405404e-06 1.4887017e-07 -4.0616285e-08
000010 fe 9b 96 35 36 98 fe 35 6c 0e 80 35 b7 22 a3 b5
       1.1221271e-06 1.8968774e-06 9.54094e-07 -1.215455e-06
000020 22 66 df 35 68 04 99 b4 18 92 0d 34 ee 7d 8a b4
       1.6644519e-06 -2.8501677e-07 1.3184797e-07 -2.579613e-07
000030 81 35 8e 36 de fc aa b5 78 93 ce b5 02 c6 53 35
       4.2381585e-06 -1.2739581e-06 -1.5391115e-06 7.8891765e-07
000040 be 8b 3f 35 cf bb 80 35 ce a3 88 35 f1 ea d9 34
       7.1356396e-07 9.591403e-07 1.0180463e-06 4.0590342e-07
000050 da 3f d6 b3 c4 f8 09 b6 90 e3 93 35 99 47 3c 36
       -9.976766e-08 -2.0559391e-06 1.1018583e-06 2.8055858e-06
000060 50 c6 50 b5 1f c8 4e b6 52 10 51 35 56 45 56 b5
       -7.777462e-07 -3.0812878e-06 7.7882316e-07 -7.982211e-07
000070 ea 70 83 b5 0c 14 dd 35 ed 8f 65 35 35 a6 13 36
       -9.793123e-07 1.6471618e-06 8.551859e-07 2.2001452e-06
000080 bb 2e 6a 36 b3 b1 b3 b6 c9 2b 03 b6 d9 96 37 b6
       3.4895918e-06 -5.3553026e-06 -1.9546007e-06 -2.735693e-06
000090 34 d2 ba b5 57 07 67 35 ab b1 d4 34 28 2a 39 b6
       -1.3919257e-06 8.6064887e-07 3.9617348e-07 -2.7591686e-06
0000a0 ed 07 e6 36 ec 2c db b6 f8 49 5d 36 1f 5a 9c b6
       6.855457e-06 -6.531938e-06 3.2974622e-06 -4.6596538e-06
0000b0 87 39 a9 35 d8 49 1f b4 d4 46 4e 36 43 5e fa 35
       1.2608224e-06 -1.4834893e-07 3.073762e-06 1.8653885e-06
0000c0 12 67 04 b6 f0 09 c5 36 e9 ad 5b 36 a0 ea 91 b6
       -1.9729528e-06 5.8722144e-06 3.2734772e-06 -4.3486507e-06
0000d0 68 d8 13 36 44 a2 82 b5 13 67 4e 36 57 e2 72 36
       2.2030672e-06 -9.73298e-07 3.075639e-06 3.6192557e-06
0000e0 e2 8b d0 b3 d6 6c e5 36 cb 50 29 36 5b f7 f1 36
       -9.711199e-08 6.837402e-06 2.522999e-06 7.2111557e-06
0000f0 6b dd 0a 35 18 f4 b8 b5 84 5e 4b b3 55 e8 33 b5
       5.173121e-07 -1.3780109e-06 -4.7350582e-08 -6.7020784e-07
000100 04 9b d8 36 03 2f 81 b4 61 5a 1c 36 b6 c1 13 34
       6.455348e-06 -2.4062328e-07 2.329842e-06 1.3760913e-07
000110 f5 ce c7 b5 14 c6 cc b5 5b cc c9 35 6a d0 5b 35
       -1.4886888e-06 -1.5256833e-06 1.5035142e-06 8.188714e-07
000120 59 8c d1 35 79 cd 10 b5 39 d3 4e b4 8a 81 6e b4
       1.561256e-06 -5.394318e-07 -1.9262087e-07 -2.2212603e-07
000130 16 82 5c b5 40 00 25 b5 6d be dd 35 87 6c 3e b5
       -8.2145687e-07 -6.1467654e-07 1.6521204e-06 -7.0938444e-07
000140 c7 64 75 36 e9 63 a1 35 69 b9 80 b5 d5 7d 0c b6
       3.6566505e-06 1.2024512e-06 -9.590705e-07 -2.093487e-06
000150 69 b8 2a b5 61 cd c2 34 4f cd 68 35 46 b7 89 34
       -6.359829e-07 3.628475e-07 8.67255e-07 2.5651588e-07
000160 f6 3a 77 b5 36 a2 0c b6 03 0d 6c 35 6c 45 e9 34
       -9.210047e-07 -2.0956045e-06 8.7935786e-07 4.3450143e-07
000170 51 e6 d6 35 cd e6 1b 35 a1 26 d9 b4 ae 16 6b b4
       1.6011273e-06 5.807786e-07 -4.0447506e-07 -2.1894331e-07
000180 96 c7 18 b5 5f 69 d3 b4 8c f9 be b4 c5 41 aa 34
       -5.691485e-07 -3.937848e-07 -3.5571827e-07 3.171282e-07
000190 32 5d d8 b3 b5 30 30 34 4b f6 0d 36 59 f1 22 36
       -1.0075236e-07 1.6408997e-07 2.1153999e-06 2.4280364e-06
0001a0 09 8c bc 35 f3 cd 06 b5 35 31 bd b0 fd ad 66 35
       1.4047847e-06 -5.0218586e-07 -1.3765545e-09 8.5934863e-07
0001b0 91 50 73 b5 df ae 90 b4 6f 38 a3 34 eb 4a a6 35
       -9.0641794e-07 -2.6949326e-07 3.0402177e-07 1.2389768e-06
0001c0 32 0d 20 35 94 c7 56 35 8a 19 e5 35 f7 12 09 35
       5.9623846e-07 8.0011637e-07 1.7069262e-06 5.1064075e-07
0001d0 94 e1 9a b4 e3 49 fe 34 67 a4 5b 35 f1 52 8f b3
       -2.8848865e-07 4.7364946e-07 8.1823094e-07 -6.6740434e-08
0001e0 a1 6b b5 36 dd 23 de b5 5b 0a f5 36 57 2b 20 b6
       5.40675e-06 -1.6550727e-06 7.3027745e-06 -2.3867085e-06
0001f0 07 7b db b5 96 79 8f b6 77 d9 27 b2 bd ac 0c b5
       -1.6352577e-06 -4.2758866e-06 -9.770125e-09 -5.240543e-07
000200 33 65 42 b5 54 a7 cd b3 f6 fe 83 36 46 d8 d7 b6
       -7.2417896e-07 -9.576493e-08 3.9337856e-06 -6.432677e-06
000210 52 19 61 b5 f6 36 2e 35 a0 bb cb 34 fb 30 0b b6
       -8.385588e-07 6.490003e-07 3.7948212e-07 -2.0741124e-06
000220 0f ba 1b b6 5b 8f 1b b6 93 ee cb b6 c2 20 09 37
       -2.32051e-06 -2.3180244e-06 -6.077645e-06 8.173463e-06
000230 64 61 dc 36 1d 57 91 35 38 74 3b 34 4e c1 d4 b5
       6.5678487e-06 1.0828695e-06 1.7458012e-07 -1.585149e-06
000240 f6 15 b0 36 50 e7 2d 35 87 dd 66 36 5c 77 b8 36
       5.2477653e-06 6.4784126e-07 3.4401617e-06 5.4975226e-06
000250 13 70 91 36 56 5b ad 36 26 cd 86 35 13 12 0c 35
       4.334384e-06 5.1664347e-06 1.0043484e-06 5.2180366e-07
000260 13 aa 76 b5 75 c7 1a 36 81 91 00 36 d0 27 2f 34
       -9.188963e-07 2.3063888e-06 1.915818e-06 1.6312629e-07
000270 c5 af b9 b4 29 48 d4 35 47 0f fc b4 b1 62 12 35
       -3.4586824e-07 1.5816232e-06 -4.6949773e-07 5.4532853e-07
000280 37 93 f3 b5 b2 f8 4a 36 d7 5a bd b5 7e b7 78 36
       -1.8147756e-06 3.0245105e-06 -1.4108035e-06 3.7061686e-06
000290 07 b7 fc 35 94 39 db b5 0a f0 10 b6 84 aa 1a 33
       1.8828731e-06 -1.6333529e-06 -2.1597393e-06 3.6011002e-08
0002a0 88 4a ea 35 2e 16 64 b6 19 19 85 b5 89 e9 81 36
       1.745605e-06 -3.3987558e-06 -9.916577e-07 3.8716867e-06
0002b0 a5 a7 bd b5 6e 6a 0f b6 3a d2 5a 35 a7 19 b2 35
       -1.4130388e-06 -2.137061e-06 8.151725e-07 1.3269499e-06
0002c0 8e e8 c3 b5 76 1f e8 b5 d8 2d 97 35 3c 93 99 b6
       -1.4596314e-06 -1.7294503e-06 1.1263719e-06 -4.5768957e-06
0002d0 2a ea 63 b5 f0 28 2c b6 11 c4 8b 35 e3 bb 2f 35
       -8.4904843e-07 -2.5653826e-06 1.041337e-06 6.546599e-07
0002e0 b2 0c 52 36 52 7b a7 35 73 cf c7 35 44 19 c1 b5
       3.1299828e-06 1.247836e-06 1.4887031e-06 -1.4386974e-06
0002f0 d6 c9 20 35 68 34 be 34 0b 6a ca b5 a9 1a 17 35
       5.9898355e-07 3.5428388e-07 -1.5081035e-06 5.629068e-07
000300 87 45 27 35 ee c2 5d 35 88 73 ca b5 a7 a1 d1 34
       6.2313524e-07 8.2612576e-07 -1.5083797e-06 3.90469e-07
000310 66 4a 2b b6 ca bb 39 35 b2 d0 81 35 9d 3d b1 b5
       -2.5524291e-06 6.919114e-07 9.671987e-07 -1.320546e-06
000320 63 70 26 36 0a e6 80 35 7a 29 9b b5 49 4e 4e 33
       2.4801345e-06 9.603693e-07 -1.1560471e-06 4.8034313e-08
000330 22 7e 25 35 c6 f4 e8 b5 2a 07 dd 35 87 5a 27 b6
       6.165084e-07 -1.7356585e-06 1.6467868e-06 -2.4937633e-06
000340 0b 4d de b4 6a 2c 86 b4
       -4.1406778e-07 -2.499176e-07

exp_avg_sq f4 [7, 30]
000000 e6 1c cc 2f 92 8d 98 30 5e 22 67 30 69 c4 06 30
       3.7127917e-10 1.1099692e-09 8.408615e-10 4.902803e-10
000010 9a fe 91 30 ae 97 ea 2f 69 40 49 30 1f 13 e8 2f
       1.0622501e-09 4.2672127e-10 7.3214906e-10 4.221414e-10
000020 76 46 b4 2e c4 7c 96 30 e1 19 db 2f 2a fa c0 2f
       8.197969e-11 1.0949397e-09 3.9854256e-10 3.510235e-10
000030 c5 f8 14 31 0a 8d 0c 30 75 90 8c 30 3a ea ab 2e
       2.1678244e-09 5.113213e-10 1.0227398e-09 7.817787e-11
000040 e7 ac 68 2e 5b e6 b8 2f 7c 27 9d 2e 08 b0 33 2e
       5.290426e-11 3.3633082e-10 7.146547e-11 4.0856235e-11
000050 e1 5b 9c 2f 0b 63 a1 30 24 c4 10 2f 47 f7 ea 2f
       2.8441519e-10 1.1742441e-09 1.3166407e-10 4.2740053e-10
000060 19 df eb 30 88 b5 28 31 4a aa 4d 2e 3f 11 f5 2f
       1.7161909e-09 2.4550406e-09 4.676285e-11 4.4577494e-10
000070 cf fc 85 30 83 c6 50 2f 85 1f e2 2f b0 bf 33 30
       9.748876e-10 1.8988015e-10 4.1131556e-10 6.5392225e-10
000080 8f d4 2a 2f 0a 88 a1 2f 54 93 60 30 24 ee 82 2f
       1.5536926e-10 2.938239e-10 8.170009e-10 2.381607e-10
000090 1b fe 25 30 bf 95 20 30 89 0b 21 2f d3 95 07 30
       6.0387756e-10 5.8420463e-10 1.4646963e-10 4.9325627e-10
0000a0 bd 7f 1f 30 ef c1 a3 2f 9f 5a 46 30 e1 d5 88 30
       5.802539e-10 2.9787325e-10 7.216076e-10 9.95609e-10
0000b0 68 37 38 30 4b f1 39 30 19 03 38 30 56 71 c4 2f
       6.7017547e-10 6.7645506e-10 6.694321e-10 3.5732722e-10
0000c0 6e 25 02 30 c5 e2 40 2f 9f 21 e8 2f 16 52 62 30
       4.7346915e-10 1.7542863e-10 4.2224443e-10 8.233497e-10
0000d0 fc 70 e9 2f c7 7a 9e 2f 7d fa 68 30 8d 3d 91 30
       4.2462733e-10 2.882727e-10 8.4757074e-10 1.0567632e-09
0000e0 3d 2b de 2f 7d 00 23 30 56 98 16 30 fe a3 b3 2f
       4.0412287e-10 5.929975e-10 5.4786164e-10 3.2676434e-10
0000f0 8f 47 4a 2f 9f 7f a2 30 ba 86 3d 2f 95 52 e6 2f
       1.8397216e-10 1.1823323e-09 1.7237314e-10 4.1895434e-10
000100 7e 93 66 31 55 44 a6 2e d5 45 ac 30 ac ba 4c 2f
       3.3553245e-09 7.560944e-11 1.2534495e-09 1.8620011e-10
000110 b5 ed 5f 2f 2f 38 cd 2f 6e 3f 12 30 28 9c 90 30
       2.0366182e-10 3.7329204e-10 5.320463e-10 1.0521761e-09
000120 29 1f 32 30 cd 99 91 2e f4 16 fe 30 8d 1a b6 2f
       6.4800304e-10 6.621157e-11 1.8487456e-09 3.3124473e-10
000130 69 96 39 30 89 8e 44 30 dc a7 79 30 ec 08 37 31
       6.7516354e-10 7.150694e-10 9.0824215e-10 2.6635076e-09
000140 5b 84 f0 30 fd 8f 2c 31 ec 10 3e 2f 35 a8 cd 30
       1.7499916e-09 2.5111142e-09 1.7286411e-10 1.496352e-09
000150 c0 92 6b 30 d4 04 57 30 b8 11 76 2e 04 dc 01 31
       8.5701046e-10 7.8223406e-10 5.594966e-11 1.8897035e-09
000160 a8 f9 ac 2f c7 5c 2d 31 26 bb ae 2f b1 cb 12 2f
       3.146401e-10 2.5227551e-09 3.1783393e-10 1.3350988e-10
000170 8a 67 63 30 52 a2 01 2f 89 30 39 2f 52 76 de 2e
       8.2729257e-10 1.179015e-10 1.6842895e-10 1.0116409e-10
000180 d6 5f ef 2e 8b 87 29 31 77 03 1d 2e 4e 7b 24 2e
       1.08854856e-10 2.4669784e-09 3.5700744e-11 3.73988e-11
000190 d3 f8 f7 2e 8b d1 04 30 fd fd 21 31 4f 13 e2 2f
       1.12764596e-10 4.83191e-10 2.357296e-09 4.112288e-10
0001a0 e3 7d c8 2f a7 3c 4c 30 5d a0 80 2f f3 9e 13 2f
       3.6469236e-10 7.430096e-10 2.339701e-10 1.3426042e-10
0001b0 c0 03 e1 2e b0 e1 5e 2d 5b ca ef 2f 79 bc 13 31
       1.02324815e-10 1.2669352e-11 4.361763e-10 2.149845e-09
0001c0 5d 21 cc 2f 99 83 7f 30 1d e5 42 31 37 38 1e 2f
       3.713109e-10 9.295547e-10 2.8360951e-09 1.4389988e-10
0001d0 8b 94 25 2e 86 89 12 2e e9 fd d4 2d c6 99 91 2e
       3.764859e-11 3.3318702e-11 2.4214368e-11 6.621152e-11
0001e0 fb 5b 3e 30 72 5b 20 2f 48 56 64 2f 4c cb 6a 2f
       6.925231e-10 1.4584403e-10 2.0767132e-10 2.1354402e-10
0001f0 11 96 9f 2f b1 c9 75 2e 21 ad 86 2f 73 a1 ed 2f
       2.902856e-10 5.588569e-11 2.4497473e-10 4.3224765e-10
000200 00 1d 34 30 c1 f2 09 2f 98 c1 68 30 3e 26 79 30
       6.552483e-10 1.2546321e-10 8.467622e-10 9.064002e-10
000210 a2 5e ad 30 8d 5e 63 30 76 e1 2e 2f c9 f8 d2 2f
       1.2614303e-09 8.2716484e-10 1.5905308e-10 3.837555e-10
000220 85 02 a8 2e 6f 0d 55 30 4a 23 4e 30 6c ea 16 30
       7.640203e-11 7.750804e-10 7.499251e-10 5.4902816e-10
000230 b6 27 a6 2f 5e 2f 86 2f ad fa 4e 2e 8e fd 9c 2e
       3.022344e-10 2.4408114e-10 4.7061622e-11 7.139099e-11
000240 ee dc 08 30 ac cb 4e 2f 50 ad 1d 30 4d f6 85 2f
       4.979047e-10 1.880795e-10 5.736256e-10 2.4367566e-10
000250 09 00 33 2f eb 59 fc 2f b1 2e 0c 2f ab 2a 5a 2f
       1.6279968e-10 4.5902424e-10 1.2749514e-10 1.9842143e-10
000260 38 e3 44 2e 27 b2 74 30 96 41 12 31 21 1b 0d 2e
       4.476705e-11 8.901985e-10 2.1283078e-09 3.2083784e-11
000270 bd 16 f9 2f 80 dd 1f 2f aa 1f ce 2e 06 44 b7 30
       4.5308993e-10 1.4539658e-10 9.37342e-11 1.3334336e-09
000280 5c 62 8b 2f 06 04 7c 2f 20 fc b6 2f 41 5f 05 30
       2.535384e-10 2.2920696e-10 3.3284753e-10 4.852048e-10
000290 20 a2 bc 2f ad e7 0e 30 be 3c 32 2f 67 52 22 30
       3.4312198e-10 5.198853e-10 1.6210586e-10 5.905236e-10
0002a0 f1 a6 d7 2e 31 87 b0 2f 0c 43 32 30 f5 15 65 30
       9.806723e-11 3.2110273e-10 6.48513e-10 8.334092e-10
0002b0 8c db df 2e e6 26 4b 2e cf d4 6a 2f 7e 6e 18 2f
       1.0179865e-10 4.6191405e-11 2.1357781e-10 1.3863574e-10
0002c0 b7 9f 57 2f 7f 95 14 30 60 76 a3 2e 73 02 8d 30
       1.9610878e-10 5.4054533e-10 7.4334094e-11 1.0259796e-09
0002d0 cd f1 0d 2f 51 b4 f0 2f a4 6d 28 2e 65 f3 1d 2f
       1.290978e-10 4.3783868e-10 3.8296158e-11 1.4365538e-10
0002e0 63 87 6c 30 ec 9b 67 2e 81 fa a4 2f 83 d6 c1 2f
       8.6048696e-10 5.2661805e-11 3.000942e-10 3.5258915e-10
0002f0 a8 ec 0a 2f e8 0e b7 2e d3 13 b8 30 84 e5 1d 2f
       1.2635104e-10 8.3245244e-11 1.3393396e-09 1.4360607e-10
000300 6e 05 88 30 1e a1 39 2f db d0 d2 2f 30 f9 2c 2f
       9.896846e-10 1.6882892e-10 3.8347178e-10 1.5731838e-10
000310 f3 5e f7 2f fb d8 eb 30 74 9b 82 2e fe d9 ba 2e
       4.4996504e-10 1.716017e-09 5.9393296e-11 8.497024e-11
000320 16 16 79 2f 04 28 35 2f 9d 47 56 2e d1 93 f9 2d
       2.2654265e-10 1.647607e-10 4.8721572e-11 2.8373666e-11
000330 12 f3 af 2f 57 3f 0a 30 af 60 32 2f 9b 05 d1 2f
       3.2005026e-10 5.029412e-10 1.6223355e-10 3.8020861e-10
000340 fc 01 e7 2e e2 1f 9d 2f
       1.0505016e-10 2.8580788e-10

exp_avg f4 [7]
000000 3d 34 88 2c f2 ab 00 2a c3 72 72 2d c3 df 48 2c
       3.871152e-12 1.1428339e-13 1.378159e-11 2.8545922e-12
000010 66 02 cf ad 12 2f e9 ac 5f aa 17 2d
       -2.353424e-11 -6.627484e-12 8.621186e-12

exp_avg_sq f4 [7]
000000 10 77 9a 2c c3 77 32 2c c6 bd 65 2c b2 9e fb 2b
       4.390162e-12 2.5361803e-12 3.2648203e-12 1.787867e-12
000010 7a 39 df 27 0a f9 97 2c ed dd 40 26
       6.195725e-15 4.319327e-12 6.6914147e-16
