tutorial/DLPFC_output/version_4/checkpoints/mlp.ckpt (torch, 17985 bytes, 12 tensors)

model.classifier.0.weight f4 [30, 30]
0	0x3d9f7ce0	0.0778749
1	0x3ce5adaf	0.02803692
2	0xbb773f98	-0.0037727114
3	0xbdd357ea	-0.10319503
4	0xbd6870bd	-0.05674814
5	0x3c83b795	0.01607875
6	0xbd5b0125	-0.05346789
7	0x3ca35507	0.019938005
8	0x3d71d47f	0.059040543
9	0xbbcb91ee	-0.0062124645
10	0xbd6a26bc	-0.057165846
11	0xbdd59ca0	-0.104302645
12	0xbd915e7b	-0.07098099
13	0x3e84a76a	0.25908977
14	0x3da2b455	0.07944552
15	0xbe1934ed	-0.14961596
16	0x3c47ffcc	0.012206983
17	0xbe364483	-0.17799573
18	0x3a66e9b4	0.0008808628
19	0xbd24d868	-0.040245444
20	0xbe022a1a	-0.12711373
21	0xbcb2f1ac	-0.021843754
22	0xbd55212b	-0.052033585
23	0xbc6b8156	-0.014374098
24	0x3d4eae44	0.05045916
25	0xbd8d069c	-0.06886026
26	0xbd7a13bd	-0.06105398
27	0xbe71fd0f	-0.2363169
28	0x3d89abdd	0.067222334
29	0xbd776904	-0.060402885
30	0xbdff7685	-0.12473778
31	0xbc99f568	-0.018793777
32	0xbdc7fa4c	-0.09764537
33	0xbe10f6d4	-0.14156657
34	0x3de9694d	0.11397038
35	0xbdbb79f3	-0.09154119
36	0x3c13b04e	0.009014202
37	0x3c216034	0.009849597
38	0xbdf9cfb6	-0.12197821
39	0xbc0ad123	-0.008472714
40	0x3d3e983b	0.046531897
41	0xbd371ad6	-0.044703327
42	0xbe8518f7	-0.2599561
43	0x3d7db6e2	0.06194199
44	0xbb6382ed	-0.003471549
45	0xbd9f4d39	-0.07778401
46	0x3bd4972a	0.0064877467
47	0xbc2f459f	-0.010697751
48	0xbd00be6a	-0.031431593
49	0xbdcd7b67	-0.10033303
50	0xbdee5746	-0.1163774
51	0xbd28b234	-0.041185573
52	0xbe0270a2	-0.12738279
53	0xbd3842a1	-0.044985417
54	0x3e5d9612	0.21639279
55	0x3cd878d5	0.026424805
56	0xbd766a66	-0.060160063
57	0xbd05def8	-0.032683343
58	0xbdd7a11a	-0.105287746
59	0xbdde211a	-0.10846157
60	0x3e0ee36d	0.13953944
61	0x3d53f8cf	0.051750954
62	0x3d8c9f40	0.06866312
63	0x3d809e28	0.06280166
64	0xbd8c611b	-0.06854459
65	0x3da3ee7d	0.080044724
66	0xbda562d3	-0.0807549
67	0x3cae5453	0.021280443
68	0x3e150056	0.1455091
69	0xbc8dfb35	-0.017331699
70	0xbdd62ebb	-0.10458132
71	0xbda91f9f	-0.08257984
72	0x3dbe50a1	0.092927225
73	0x3dc75651	0.097332604
74	0x3d5119ee	0.05105012
75	0xbda47b98	-0.08031386
76	0xbd90542a	-0.07047303
77	0xbde4db1f	-0.111746065
78	0x3bbb9bf6	0.005725379
79	0x3cfb8d26	0.030706953
80	0x3d7102e3	0.058840644
81	0x3d000571	0.03125519
82	0x3ca0fc6e	0.019651618
83	0x3d1060b2	0.035248466
84	0xbe283822	-0.16427663
85	0xbd46f313	-0.048571657
86	0xbc411a42	-0.0117860455
87	0xbe3f98ec	-0.18710679
88	0x3e3426ab	0.17592876
89	0x3c42e4c6	0.011895364
90	0xbd96349d	-0.07334254
91	0x3d807734	0.06272736
92	0x3d98e763	0.074660085
93	0xbb1f5f81	-0.00243184
94	0x3d336b8e	0.043803744
95	0x3e1166ea	0.14199415
96	0xbc84c0fb	-0.016205302
97	0x3e0df19e	0.13861701
98	0xbc0e97d9	-0.0087031955
99	0x3d9814a0	0.07425809
100	0xbd3bdd5e	-0.04586541
101	0x3d3f742c	0.04674165
102	0xbcb4bc83	-0.022062546
103	0x3dd6164d	0.10453472
104	0x3c4f1ea7	0.012641585
105	0xbc3b7d68	-0.011443473
106	0xbd222f19	-0.039595697
107	0xbe006792	-0.12539509
108	0xbcc02601	-0.023455622
109	0x3d9cdfb2	0.07659854
110	0xbd2a09f2	-0.04151339
111	0x3c98e001	0.0186615
112	0xbc358427	-0.011078871
113	0x3d6e15cd	0.05812626
114	0x3dd241f1	0.102664836
115	0x3db99bea	0.09062941
116	0xbbcb4f4e	-0.006204522
117	0xbd1cc51c	-0.038273916
118	0xbe496abd	-0.19669624
119	0xbd11f3d5	-0.035632927
120	0x3da78106	0.08178906
121	0xbd1203b8	-0.035648078
122	0xb9996f33	-0.00029265284
123	0xbc15fa7f	-0.009153961
124	0xbe0358c2	-0.12826827
125	0x3cfc3357	0.0307862
126	0x3c606637	0.013696245
127	0xbbbddf43	-0.005794437
128	0x3d371d29	0.044705544
129	0xbd31abf7	-0.04337689
130	0x3cfdaecb	0.030967137
131	0x3d94a9f7	0.07258981
132	0x3de8bb54	0.11363855
133	0x3cffbd0b	0.031218072
134	0x3cdd5487	0.027017845
135	0x3cc4c78a	0.024020929
136	0x3d933ec9	0.0718971
137	0xbc2befec	-0.010494214
138	0x3d41f126	0.047349118
139	0x3bb01912	0.0053740824
140	0xbd5bb30b	-0.053637546
141	0x3ccec288	0.025239244
142	0x3dae4c09	0.08510596
143	0xbc28f182	-0.010311486
144	0xbd0224ae	-0.03177326
145	0xbc62c8d3	-0.013841826
146	0x3b20cc83	0.002453596
147	0xbbce2339	-0.00629082
148	0x3b23bcdf	0.0024984402
149	0x3cff899e	0.03119355
150	0xbda3275e	-0.07966493
151	0x3c0cc4bb	0.008591826
152	0x3c668532	0.014069842
153	0x3c45f672	0.012082683
154	0x3d3cdb3b	0.046107512
155	0x3d2f9295	0.0428644
156	0x3ca68f2f	0.020331947
157	0x3d605a13	0.0547734
158	0xbd3f75ae	-0.046743087
159	0x3cdc2982	0.026875261
160	0x3c9c7898	0.019100472
161	0x3d8437ad	0.06455932
162	0xbc5bc5ac	-0.013413828
163	0xbd393bb7	-0.045222964
164	0xbcb9bea7	-0.022673918
165	0x3d3b289b	0.04569302
166	0xbc230ba9	-0.0099515105
167	0x3c8033ef	0.015649764
168	0xbc38f946	-0.0112899
169	0x3cf9864b	0.030459544
170	0x3adc8d46	0.0016826771
171	0x3c47a0c8	0.012184329
172	0x3b981682	0.004641355
173	0x3ca39111	0.019966634
174	0x3d8629fc	0.06550977
175	0x3d946a72	0.07246865
176	0x3c39be45	0.011336868
177	0x3d99b2c3	0.07504799
178	0xbe0d339e	-0.13789222
179	0xbbf47fe0	-0.007461533
180	0x3db2dd50	0.08733618
181	0x3c9dc30f	0.01925805
182	0xbce1a2da	-0.027543474
183	0xbd91629f	-0.070988886
184	0xbe34aac4	-0.17643267
185	0xbcd2c13a	-0.025726903
186	0x3d8e8669	0.069592305
187	0xbd3ad2b1	-0.045611087
188	0x3d450b71	0.048106615
189	0x3ce9df93	0.028548991
190	0x3d3e781b	0.04650126
191	0xbc5c865d	-0.013459769
192	0x3e173a1f	0.14768265
193	0x3e4919c2	0.19638732
194	0x3dabd209	0.083896704
195	0x3d0601d4	0.032716587
196	0x3e188887	0.14895831
197	0xbd994395	-0.074835934
198	0x3bc56ab0	0.006024681
199	0xbc526c9f	-0.01284328
200	0xbe2279c6	-0.15866765
201	0xbd6f5f30	-0.058440387
202	0x3d83e9b5	0.064410605
203	0xbd5cf515	-0.053944666
204	0x3d47baf1	0.048762266
205	0xbe04d97a	-0.12973586
206	0x3c88f177	0.016716702
207	0xbccebaf5	-0.025235632
208	0x3d15a62e	0.036535434
209	0x3daf6bf9	0.08565516
210	0xbd817394	-0.06320873
211	0xbd5f3357	-0.05449232
212	0x3b0ebaa2	0.0021778722
213	0x3c72821b	0.014801527
214	0x3e2ee487	0.17079364
215	0xbdfbb7c7	-0.12290912
216	0xbc115c31	-0.008872078
217	0xbdbb1376	-0.09134571
218	0xbdce9372	-0.10086717
219	0x3d54b730	0.051932514
220	0xbc8d7ee1	-0.017272415
221	0xbd8b952c	-0.06815562
222	0xbe2632c3	-0.16230302
223	0xbe2493bb	-0.1607198
224	0xbde0b487	-0.10971933
225	0xbbcacee6	-0.006189215
226	0xbd65c0ac	-0.05609195
227	0x3dfc4975	0.12318698
228	0x3ac6f4aa	0.0015179117
229	0x3bf38db7	0.007432665
230	0x3dfae93e	0.12251519
231	0xbce1a50c	-0.02754452
232	0xbdb88e88	-0.09011561
233	0x3c80f5cf	0.01574221
234	0xbca0cd09	-0.019629018
235	0xbaf8b6bb	-0.0018975356
236	0x3c88ea7f	0.016713379
237	0x3df94b36	0.121725485
238	0x3d4c65cb	0.049901765
239	0xbd19ce7d	-0.03755044
240	0xbc770eee	-0.015079243
241	0x3c07879d	0.008272079
242	0x3d54dd5a	0.05196891
243	0x3e449484	0.19197279
244	0x3d0f416b	0.034974497
245	0x3dac25d8	0.084056556
246	0xbcbefaf1	-0.023313018
247	0x3d04e1ad	0.032441784
248	0x3d3396d1	0.043845
249	0xbd6d889c	-0.05799161
250	0xbc61ae51	-0.01377447
251	0x3dd416fd	0.10355947
252	0x3e0d6a22	0.13810018
253	0xbe9844c8	-0.29739976
254	0xbd71a4ad	-0.058994938
255	0x3ddcd2ae	0.107823715

model.classifier.0.bias f4 [30]
0	0xb51af77b	-5.77296e-07
1	0xb71812f4	-9.064319e-06
2	0x35476e4d	7.4293786e-07
3	0x363f1032	2.8470645e-06
4	0xb68bd816	-4.1676785e-06
5	0x344776d2	1.8576546e-07
6	0xb58952f8	-1.0231443e-06
7	0x3600f8a2	1.921821e-06
8	0x35efff1e	1.7881137e-06
9	0x3501894f	4.8256055e-07
10	0xb5a6446f	-1.2387881e-06
11	0x35a677f3	1.2402874e-06
12	0xb6075ff1	-2.0172413e-06
13	0x360bb4ed	2.0817927e-06
14	0x368181ff	3.859633e-06
15	0xb520f21c	-5.995696e-07
16	0xb69919ec	-4.562773e-06
17	0x357f53aa	9.511665e-07
18	0x3612355c	2.1786755e-06
19	0xb5684e28	-8.654047e-07
20	0xb5c8067f	-1.4903052e-06
21	0x365cd6ca	3.2907578e-06
22	0xb5cbbddf	-1.5179938e-06
23	0xb60e9b41	-2.1250019e-06
24	0x3620eef8	2.3980956e-06
25	0x374d3703	1.2231761e-05
26	0xb4b64d8e	-3.395657e-07
27	0xb68d9f22	-4.220653e-06
28	0x34b31c89	3.336211e-07
29	0xb48a4e1c	-2.5761335e-07

model.classifier.1.weight f4 [7, 30]
0	0x3e671ca1	0.22569515
1	0x3e6b805c	0.22998184
2	0x3e0dae45	0.1383601
3	0xbd8398a2	-0.06425597
4	0xbe24c199	-0.16089477
5	0xbdd356d3	-0.10319295
6	0xbe1a6c4a	-0.15080371
7	0x3dfb20d8	0.12262124
8	0xbe1660b7	-0.14685331
9	0xbcde4e35	-0.027136901
10	0x3e5cf05a	0.21576062
11	0xbe0095f7	-0.12557207
12	0x3cd36575	0.025805214
13	0x3e148f5e	0.14507815
14	0x3e870557	0.2637126
15	0xbe115cec	-0.14195603
16	0x3dbeaeac	0.0931066
17	0x3e417dc9	0.1889564
18	0xbd97ee25	-0.07418469
19	0xbdbf5320	-0.09342027
20	0x3e0edc67	0.13951264
21	0x3d5a255a	0.053258277
22	0xbcc7d1dc	-0.024392061
23	0xbe456e12	-0.1928027
24	0x3e8ee464	0.27908623
25	0x3ea5b5a0	0.3236513
26	0xbdea7156	-0.11447398
27	0x3e909b87	0.28243658
28	0x3e6b7e31	0.22997357
29	0x3deacf68	0.11465341
30	0x3e875803	0.26434335
31	0xbdf49c31	-0.11943854
32	0x3e84b5c3	0.25919923
33	0x3e1125aa	0.14174524
34	0x3b150661	0.0022739398
35	0xbd94ce59	-0.0726592
36	0x3e606b4a	0.21915928
37	0xbe2749a9	-0.16336693
38	0xbe5f4c1c	-0.21806377
39	0x3e3c4332	0.18385008
40	0xbe6443a2	-0.22291425
41	0xbcdddee8	-0.027083829
42	0xbebc20b4	-0.367437
43	0x3eba8489	0.3642924
44	0xbe8ff421	-0.28115943
45	0xbe2e1eb9	-0.17003907
46	0xbeca8779	-0.39556482
47	0xbedd1eba	-0.43187505
48	0xbeb66a75	-0.35628095
49	0x3e7172ff	0.23579024
50	0x3d95bb62	0.07311131
51	0x3ec77c95	0.38962236
52	0xbcc4afbe	-0.024009582
53	0x3d495a99	0.049158666
54	0x3dca20f9	0.0986957
55	0xbec97bb7	-0.393522
56	0x3e6c5450	0.23079038
57	0xbdfe8d5b	-0.12429305
58	0x3d8c79a3	0.06859138
59	0xbe9a1a01	-0.30097964
60	0x3b60e39d	0.0034315356
61	0x3deaac05	0.11458591
62	0xbd98b55c	-0.074564666
63	0x3e0c67b5	0.13711436
64	0xbcdfc448	-0.027315274
65	0x3d95a66b	0.07307132
66	0xbe2a2fea	-0.1661984
67	0x3e0ddd7a	0.13854018
68	0xbd5ddf17	-0.054167833
69	0x3daa9f45	0.083311595
70	0xbc935225	-0.017983506
71	0x3e137591	0.14400317
72	0xbd49bc30	-0.049251735
73	0x3e7a477f	0.24441336
74	0x3e47b235	0.19501574
75	0xbe58e05c	-0.21179336
76	0xbd45c342	-0.048281915
77	0x3dc3951b	0.09549924
78	0x3e394597	0.18092953
79	0xbe6273b1	-0.22114445
80	0xbe038746	-0.12844571
81	0x3e501e8a	0.2032415
82	0xbe04494a	-0.12918583
83	0xbe546366	-0.20741042
84	0x3e1d06bb	0.15334599
85	0x3e3c2b81	0.1837597
86	0xbe49fea4	-0.19726044
87	0xbdf64f06	-0.12026791
88	0x3dc72388	0.09723574
89	0xbe7d565e	-0.24739978
90	0xbe494fdf	-0.19659375
91	0x3d9f6ae1	0.077840574
92	0xbe6976f2	-0.2279928
93	0x3d408150	0.046998322
94	0xbcd37f56	-0.025817554
95	0x3defc06d	0.11706624
96	0x3cd84f96	0.026405137
97	0x3c20cdc0	0.00981468
98	0x3d184dc9	0.037183557
99	0x3da3e632	0.08002891
100	0xbd28e148	-0.04123047
101	0x3d9fffde	0.07812475
102	0x3e3bdf99	0.18347014
103	0xbd25ad1d	-0.040448297
104	0x3b94e6ea	0.0045441287
105	0x3d9e4d63	0.07729604
106	0x3e401509	0.18758024
107	0x3cd2bb48	0.025724068
108	0x3d506252	0.050875016
109	0xbce3bc1a	-0.027799655
110	0xbe50aedd	-0.20379205
111	0xbe0a3996	-0.1349853
112	0x3d3fe754	0.04685147
113	0x3e548747	0.20754729
114	0xbe229307	-0.15876399
115	0xbd8c486f	-0.06849753
116	0xbdadc9c3	-0.084857486
117	0xbd25228a	-0.040316142
118	0xbe0514b0	-0.12996173
119	0xbd4e4bb9	-0.050365184
120	0xbe9866f0	-0.29766035
121	0xbe9a9b88	-0.30196786
122	0x3da38a0a	0.07985313
123	0xbe7ab947	-0.2448474
124	0xbd2f52f5	-0.042803723
125	0xbd62cc3a	-0.055370547
126	0xbe1a3621	-0.15059711
127	0x3e8aa7aa	0.27081043
128	0x3eca742b	0.39541754
129	0xbe149d8c	-0.14513224
130	0x3e9e0642	0.3086415
131	0xbec0571b	-0.37566456
132	0x3ea94e1f	0.33067414
133	0xbee52c13	-0.44760188
134	0x3e040309	0.12891783
135	0xbe5a7107	-0.21332179
136	0x3b8c26b5	0.004277075
137	0x3e48d6de	0.19613215
138	0x3e90d74e	0.28289264
139	0x3e5f6246	0.21814832
140	0x3df876eb	0.12132057
141	0xbe958c77	-0.2920873
142	0xbc04e84c	-0.0081120245
143	0xbe1274d8	-0.14302385
144	0x3ddf64aa	0.10907872
145	0x3e4f752b	0.2025954
146	0xbd9f79bc	-0.07786891
147	0xbdba73ed	-0.09104142
148	0x3e1c2c32	0.15251234
149	0x3ed34c6c	0.41269243
150	0x3e22d6f6	0.15902314
151	0xbd03ed82	-0.032208927
152	0x3d72b385	0.059253234
153	0xbe7870bd	-0.24261756
154	0x3e31374a	0.17306247
155	0xbe1fcac6	-0.15604696
156	0x3e9f7612	0.31144768
157	0xbddd5cff	-0.10808753
158	0xbe7506f6	-0.23928437
159	0xbe0fcc9b	-0.14042895
160	0x3e6af2ae	0.22944137
161	0xbe77221c	-0.24134105
162	0x3d8f833a	0.07007451
163	0xbe8769aa	-0.26447803
164	0xbe3cb183	-0.1842709
165	0x3e855064	0.26037896
166	0x3dc926e4	0.09821871
167	0xbe2969a7	-0.1654421
168	0xbeb5b963	-0.35493
169	0x3ea20df9	0.31651285
170	0x3e9c374a	0.30510932
171	0xbe559bd2	-0.20860222
172	0x3e24d553	0.16097002
173	0x3e68bb8c	0.22727793
174	0xbe11816d	-0.14209528
175	0xbe0e4584	-0.13893706
176	0x3e7cd88a	0.24691978
177	0x3eb6f714	0.3573538
178	0xbd6bc470	-0.057560384
179	0x3e8818b1	0.26581338
180	0x3be403a9	0.006958444
181	0xbea5040c	-0.3222965
182	0x3e91d9df	0.28486535
183	0x3d64b69f	0.055838224
184	0x3e0748f5	0.13211425
185	0xbccebd23	-0.025236672
186	0xbcd1ec21	-0.02562529
187	0xbe7da27f	-0.24769019
188	0x3e90b5bf	0.2826366
189	0xbe1c0138	-0.1523484
190	0xbe8c0578	-0.27347922
191	0x3e3d3f93	0.18481283
192	0xbe4c01d2	-0.1992257
193	0xbd23bf89	-0.039977584
194	0xbe59dabc	-0.21274847
195	0x3d686053	0.056732487
196	0xbeac28b1	-0.33624795
197	0xbd29843a	-0.041385867
198	0x3e107a3c	0.14109129
199	0xbdbb3747	-0.09141403
200	0x3dae7ba6	0.08519678
201	0x3e2edd26	0.17076549
202	0xbd6ad57b	-0.057332497
203	0xbe0f9c24	-0.14024407
204	0xbd909dc3	-0.07061341
205	0xbe340025	-0.1757818
206	0x3e48329a	0.19550553
207	0xbe829d82	-0.25510794
208	0xbdd04a57	-0.10170429
209	0xbcbfeff5	-0.02342985

model.classifier.1.bias f4 [7]
0	0xb40be327	-1.3028021e-07
1	0x329a518b	1.7965041e-08
2	0x3387971b	6.313913e-08
3	0xb4125373	-1.3627668e-07
4	0xb4f1df36	-4.5052155e-07
5	0xb1bf9407	-5.5756604e-09
6	0xb4c867cd	-3.7328428e-07

exp_avg f4 [30, 30]
0	0xb3bd5113	-8.8157456e-08
1	0x359bbd16	1.1603431e-06
2	0xb52a8839	-6.3528165e-07
3	0xb4fcc862	-4.7084455e-07
4	0xb440d05a	-1.7957191e-07
5	0xb60ba9c2	-2.0811426e-06
6	0x35209a6d	5.9829364e-07
7	0xb3816ea3	-6.027155e-08
8	0xb42ada8e	-1.5911994e-07
9	0xb4495584	-1.8750694e-07
10	0x34810033	2.4028267e-07
11	0xb5b58749	-1.3524924e-06
12	0xb4a5d19a	-3.088615e-07
13	0x35c73602	1.4842374e-06
14	0x34ea4d91	4.3642333e-07
15	0xb529a57d	-6.3198223e-07
16	0xb4abcb82	-3.1999303e-07
17	0xb52c490a	-6.418128e-07
18	0xb4aa1237	-3.167822e-07
19	0xb5769cfe	-9.1870595e-07
20	0xb530a637	-6.5806984e-07
21	0xb43820a3	-1.7148209e-07
22	0xb54d91e5	-7.6580756e-07
23	0x3492f584	2.7373255e-07
24	0x357d9fe3	9.448251e-07
25	0xb355d9b9	-4.9790945e-08
26	0xb48319de	-2.4419472e-07
27	0xb5847a1a	-9.870303e-07
28	0xb207ae67	-7.897689e-09
29	0xb3d561e0	-9.936389e-08
30	0x35eca33c	1.7630878e-06
31	0x34af8b52	3.269766e-07
32	0xb58f4c2a	-1.0676497e-06
33	0xb489ccb7	-2.5667188e-07
34	0xb62a197f	-2.5346815e-06
35	0x35eb08b1	1.7511394e-06
36	0x326d226f	1.3803045e-08
37	0x3594df26	1.1091804e-06
38	0x364111be	2.8769568e-06
39	0xb610b907	-2.1565372e-06
40	0xb49bf5db	-2.9049883e-07
41	0x359bd218	1.1609545e-06
42	0x364d468a	3.058844e-06
43	0x33bf6923	8.913255e-08
44	0x3582332d	9.700649e-07
45	0xb4b6ede4	-3.407323e-07
46	0x3498abff	2.843735e-07
47	0xb566b816	-8.594956e-07
48	0x350be93b	5.212093e-07
49	0xb527c83e	-6.250374e-07
50	0xb501f3f9	-4.841127e-07
51	0x35840413	9.835952e-07
52	0x357b2808	9.356304e-07
53	0x34ba8815	3.4744212e-07
54	0xb5f69233	-1.8370978e-06
55	0x354217ee	7.2305454e-07
56	0xb520091c	-5.96179e-07
57	0xb5beeda5	-1.4225267e-06
58	0x34bbdc52	3.4991768e-07
59	0x350fc7cc	5.3562394e-07
60	0xb5e71291	-1.7216245e-06
61	0x357291c9	9.036417e-07
62	0x34465f57	1.8474871e-07
63	0xb1b4ae1e	-5.2584843e-09
64	0x360a1e41	2.0581213e-06
65	0xb62599d5	-2.4676458e-06
66	0x350d876e	5.272367e-07
67	0xb5470bfa	-7.4150705e-07
68	0xb61c195c	-2.3260573e-06
69	0x35e467b6	1.7017508e-06
70	0x35033779	4.8882026e-07
71	0xb6153e52	-2.2239005e-06
72	0xb629c743	-2.5298948e-06
73	0x35478df6	7.433986e-07
74	0xb41d300d	-1.4639245e-07
75	0x34f4af0d	4.5575908e-07
76	0xb4b2721f	-3.3238118e-07
77	0x34ba4180	3.4692857e-07
78	0xb558eae8	-8.0808104e-07
79	0xb4e0b970	-4.1858175e-07
80	0xb40924aa	-1.2772458e-07
81	0xb5683c26	-8.651426e-07
82	0xb59c1217	-1.1628171e-06
83	0xb4ea23a3	-4.3611826e-07
84	0x360f30db	2.1337098e-06
85	0xb561a706	-8.406208e-07
86	0x3474a4b6	2.2784192e-07
87	0x35643ebe	8.502792e-07
88	0xb3be461b	-8.8603166e-08
89	0xb3aeb8e5	-8.1361385e-08
90	0x34649f9b	2.1292219e-07
91	0xb3b7cae7	-8.558509e-08
92	0xb58bb424	-1.0408735e-06
93	0xb5172a2f	-5.631327e-07
94	0xb4064efb	-1.2508455e-07
95	0xb5c7e1fa	-1.4892423e-06
96	0x3505b7eb	4.9813997e-07
97	0xb584ebbb	-9.903373e-07
98	0xb4868a8b	-2.5060248e-07
99	0x337956bd	5.805372e-08
100	0xb4115df9	-1.3538364e-07
101	0xb567b48f	-8.6316953e-07
102	0xb559c191	-8.1120476e-07
103	0x35b4ba28	1.3465224e-06
104	0x34fb5f4b	4.6821728e-07
105	0x340c38f1	1.3059231e-07
106	0x35cf6064	1.5450755e-06
107	0x332aabbf	3.973741e-08
108	0xb12fa1f9	-2.5557922e-09
109	0xb59d512e	-1.1721038e-06
110	0xb5a4a82f	-1.22679e-06
111	0xb50e5f43	-5.3037746e-07
112	0x350237e3	4.85101e-07
113	0xb54f0b8c	-7.713031e-07
114	0x33d0414e	9.6976336e-08
115	0xb5ca17fe	-1.5057155e-06
116	0xb56d2e87	-8.8357086e-07
117	0x351ad74c	5.768277e-07
118	0x35b247e6	1.3282959e-06
119	0x350c40d3	5.2248396e-07
120	0xb5035f16	-4.893967e-07
121	0xb58fe727	-1.0721604e-06
122	0x32e1cd88	2.6286912e-08
123	0xb54a36e1	-7.5330723e-07
124	0xb0b4477e	-1.3117043e-09
125	0xb592506b	-1.0901252e-06
126	0xb22598b5	-9.638986e-09
127	0xb4bc3ccc	-3.5061964e-07
128	0xb589d77e	-1.0270012e-06
129	0x34959d6d	2.7867955e-07
130	0x34cbec30	3.7983546e-07
131	0xb559f211	-8.119105e-07
132	0xb58e9fd6	-1.0626343e-06
133	0x325ce21e	1.28570985e-08
134	0xb50028fb	-4.774335e-07
135	0xb42e2a1a	-1.6220329e-07
136	0x31bfd596	5.5831135e-09
137	0x34434b87	1.8188267e-07
138	0x34a8adef	3.1418992e-07
139	0xb32589be	-3.8542332e-08
140	0xb4a5a6f0	-3.0855108e-07
141	0xb51b6abc	-5.789732e-07
142	0xb54d0417	-7.63744e-07
143	0xb3e32810	-1.05777985e-07
144	0x35a40d91	1.22229e-06
145	0x345a5ca0	2.0336529e-07
146	0x3541141f	7.192738e-07
147	0x3502a89c	4.867413e-07
148	0xb531a10d	-6.6172e-07
149	0xb4c22c4a	-3.616754e-07
150	0x34feff9c	4.7497167e-07
151	0xb5134538	-5.4862494e-07
152	0xb4bc7bf7	-3.5107925e-07
153	0xb41ce460	-1.4611715e-07
154	0xb505d5f2	-4.985769e-07
155	0x34e44425	4.251789e-07
156	0xb33f45c9	-4.4534122e-08
157	0xb48b5ec0	-2.5959707e-07
158	0x34dd1521	4.117983e-07
159	0xb483e4de	-2.4567174e-07
160	0xb42da1fd	-1.6170812e-07
161	0x3337a74a	4.2760156e-08
162	0x34c3d192	3.6474063e-07
163	0xb39811b1	-7.0812696e-08
164	0x3425ee9d	1.545363e-07
165	0x33c54358	9.185777e-08
166	0x35695171	8.6917777e-07
167	0x343dbd4f	1.7670867e-07
168	0x348a7ce2	2.5795367e-07
169	0xb46e9266	-2.2218737e-07
170	0xb4cac31f	-3.77674e-07
171	0xb393e197	-6.8862555e-08
172	0x353495e6	6.7273356e-07
173	0xb4c18bf2	-3.6050875e-07
174	0xb510bb90	-5.391712e-07
175	0xb4fa3727	-4.6606257e-07
176	0xb49d0301	-2.9245714e-07
177	0x34e30172	4.2283096e-07
178	0x352ace9a	6.363058e-07
179	0x348cf21e	2.6253196e-07
180	0xb3e66247	-1.0728086e-07
181	0x359ebd4c	1.182701e-06
182	0x348834a3	2.5370272e-07
183	0x31a597b4	4.8193787e-09
184	0x34aaef6a	3.1839164e-07
185	0xb5ac3e38	-1.2833107e-06
186	0xb41dcf7b	-1.4697245e-07
187	0x34f87606	4.6279473e-07
188	0xb3440a6c	-4.5644285e-08
189	0xb3c4960b	-9.154254e-08
190	0xb3c68a68	-9.2452694e-08
191	0xb5f56da1	-1.8285829e-06
192	0xb52717d6	-6.2247034e-07
193	0x3587166e	1.0064812e-06
194	0xb47a5231	-2.3312965e-07
195	0xb556ad31	-7.997324e-07
196	0xb612771e	-2.182503e-06
197	0xb5736c80	-9.068244e-07
198	0xb4a055c7	-2.9864734e-07
199	0xb33e0b56	-4.4248132e-08
200	0x34abd533	3.2006355e-07
201	0x33f6baae	1.14892245e-07
202	0xb5aa251b	-1.2676786e-06
203	0x356db96e	8.8559216e-07
204	0x3545b4f5	7.3651546e-07
205	0x35783a9a	9.2472476e-07
206	0x3481cb91	2.4176236e-07
207	0xb5d5cafc	-1.5928813e-06
208	0xb532c6f8	-6.6599705e-07
209	0xb53636b7	-6.7879904e-07
210	0x35bcf444	1.4078182e-06
211	0x335ac2fe	5.0934425e-08
212	0x355e127c	8.2728343e-07
213	0x359c77c8	1.1657767e-06
214	0xb548214a	-7.455425e-07
215	0x3652d514	3.1416466e-06
216	0xb51049ff	-5.375186e-07
217	0x3580c770	9.594787e-07
218	0x3601bad1	1.933124e-06
219	0xb549c643	-7.5166844e-07
220	0xb55fe602	-8.340868e-07
221	0x36365963	2.7172143e-06
222	0x360a6a3d	2.0625441e-06
223	0xb59a5440	-1.1498414e-06
224	0x348029e7	2.3872346e-07
225	0x34b1def1	3.313103e-07
226	0xb51d2c5a	-5.85516e-07
227	0xb45d0b82	-2.0586415e-07
228	0x34dc5481	4.1039678e-07
229	0x358d4457	1.0525208e-06
230	0x35af4e0e	1.3061233e-06
231	0x35c1c17d	1.4435933e-06
232	0x3586ba3e	1.0037982e-06
233	0x3528cfa5	6.288704e-07
234	0xb6248f13	-2.4521185e-06
235	0x355f2c26	8.313822e-07
236	0xb50738af	-5.0373905e-07
237	0xb4f6fb1f	-4.6003785e-07
238	0x335ae09d	5.0961365e-08
239	0x3458c22c	2.0187207e-07
240	0xb6021b77	-1.9387496e-06
241	0xb553d5ee	-7.8914934e-07
242	0x35079202	5.050389e-07
243	0x33d595fe	9.945869e-08
244	0x35eb15b9	1.7515187e-06
245	0x351742a8	5.634888e-07
246	0xb41258cc	-1.3629614e-07
247	0xb5729967	-9.0375255e-07
248	0xb60c430d	-2.0900654e-06
249	0x35dd8074	1.6503168e-06
250	0x3508ac67	5.0914826e-07
251	0x35525277	7.83511e-07
252	0xb5d9e185	-1.6233395e-06
253	0xb5f6a870	-1.837745e-06
254	0xb5480dc9	-7.4525866e-07
255	0x359349b3	1.0973803e-06

exp_avg_sq f4 [30, 30]
0	0x2f0dc2ff	1.2893152e-10
1	0x2dc7647c	2.2668305e-11
2	0x2e01d97d	2.9524373e-11
3	0x2dc02402	2.1843864e-11
4	0x2e854054	6.059567e-11
5	0x2e57c5bf	4.9060974e-11
6	0x2eceb777	9.400385e-11
7	0x2e24a5af	3.743644e-11
8	0x2e063404	3.051427e-11
9	0x2da11f76	1.8317552e-11
10	0x2f2787f8	1.5236867e-10
11	0x2f9283a6	2.6650787e-10
12	0x2f81d308	2.361491e-10
13	0x2f0b8ddd	1.2692376e-10
14	0x2dc7b0d4	2.2702208e-11
15	0x2f8206d0	2.3651703e-10
16	0x2ec2dbe2	8.8611576e-11
17	0x2ed1231a	9.510455e-11
18	0x2e4e807d	4.6953098e-11
19	0x2d969e4d	1.7123325e-11
20	0x2e8277af	5.9329756e-11
21	0x2d665470	1.3092735e-11
22	0x2eaef1a2	7.9555265e-11
23	0x2d331c92	1.0181316e-11
24	0x2f1e7cdf	1.441438e-10
25	0x2dd58a7e	2.42768e-11
26	0x2e15a310	3.4023506e-11
27	0x2f794fb9	2.2674741e-10
28	0x2f5110dd	1.901443e-10
29	0x2e9911cd	6.9607965e-11
30	0x2e5d784f	5.0356438e-11
31	0x2ddec135	2.5324279e-11
32	0x2e6f78f2	5.444973e-11
33	0x2e97f68b	6.91048e-11
34	0x2f36460b	1.6577688e-10
35	0x2f124e2b	1.3306393e-10
36	0x2e047093	3.011331e-11
37	0x2e4ee730	4.7044313e-11
38	0x2ea44138	7.469442e-11
39	0x2dd7d7a5	2.4538436e-11
40	0x2db528ca	2.0595432e-11
41	0x2f036641	1.1950708e-10
42	0x2f990886	2.7836594e-10
43	0x2e449a09	4.470205e-11
44	0x2d79c86c	1.4198514e-11
45	0x2f1bd7a4	1.4173779e-10
46	0x2f02ec36	1.190735e-10
47	0x2de18dc5	2.5642497e-11
48	0x2dc83f7d	2.2765562e-11
49	0x2e95e525	6.81644e-11
50	0x2e7504e4	5.5710894e-11
51	0x2e237cac	3.717264e-11
52	0x2ead356a	7.8766174e-11
53	0x2d30f52f	1.0058883e-11
54	0x2eed6344	1.0795145e-10
55	0x2e330c18	4.071063e-11
56	0x2d29303e	9.61725e-12
57	0x2ee00ecd	1.018897e-10
58	0x2eba92c3	8.484371e-11
59	0x2dd85833	2.4595525e-11
60	0x2e686c43	5.284685e-11
61	0x2f6477b9	2.0779013e-10
62	0x2ea12697	7.328287e-11
63	0x2f46ee61	1.8092684e-10
64	0x2e76e6f0	5.6139038e-11
65	0x2f7dd322	2.3085225e-10
66	0x2e5e6721	5.0568553e-11
67	0x2ec28252	8.845248e-11
68	0x2f05efcb	1.2181471e-10
69	0x2e2fc3da	3.9964344e-11
70	0x2e97fbe4	6.91143e-11
71	0x2fc9e927	3.6727352e-10
72	0x2f79005d	2.2646547e-10
73	0x2f8e91bc	2.59332e-10
74	0x2f20f584	1.463914e-10
75	0x2ea10b64	7.323456e-11
76	0x2ebea9bc	8.6703505e-11
77	0x2ea0abbc	7.306464e-11
78	0x2db68698	2.0750776e-11
79	0x2e859d92	6.07613e-11
80	0x2df57b3d	2.7908004e-11
81	0x2e9c969b	7.1208116e-11
82	0x2f14508a	1.3489135e-10
83	0x2df857b5	2.8233286e-11
84	0x2f0cf67f	1.2820499e-10
85	0x2e800163	5.8210124e-11
86	0x2dcc18c8	2.320312e-11
87	0x30181697	5.532938e-10
88	0x2f88458e	2.4787677e-10
89	0x2ddd9baf	2.5193929e-11
90	0x2ea28c12	7.3917886e-11
91	0x2e4ff709	4.7285762e-11
92	0x2e625752	5.1464007e-11
93	0x2e757014	5.5806096e-11
94	0x2e04916f	3.0142496e-11
95	0x2f0a8bf2	1.2600745e-10
96	0x2ea7ba2e	7.627353e-11
97	0x2e2d0d88	3.9347664e-11
98	0x2e51c2d5	4.7694144e-11
99	0x2ddb0d83	2.4903418e-11
100	0x2f3dc7ab	1.7260386e-10
101	0x2f3a85ce	1.6964138e-10
102	0x2f03a009	1.1971237e-10
103	0x2e76150b	5.5952614e-11
104	0x2d7fc5de	1.4539007e-11
105	0x2fad5190	3.152647e-10
106	0x2e310f99	4.0258994e-11
107	0x2e90ab19	6.578755e-11
108	0x2e130fb7	3.3437888e-11
109	0x2ea363e2	7.4301246e-11
110	0x2df515b1	2.7862908e-11
111	0x2d709e65	1.3677591e-11
112	0x2ee257e4	1.02929026e-10
113	0x2d4e6721	1.17326435e-11
114	0x2f82e615	2.3810345e-10
115	0x2e29cd2d	3.8608384e-11
116	0x2e35a363	4.1299752e-11
117	0x2f408333	1.750891e-10
118	0x2f5196bb	1.906199e-10
119	0x2f0353a8	1.1944101e-10
120	0x2f8b8b07	2.5382738e-10
121	0x2f3ad1ba	1.6991111e-10
122	0x2e7933ee	5.6662168e-11
123	0x2e3d393c	4.302446e-11
124	0x2f395321	1.6855185e-10
125	0x2f33c808	1.635102e-10
126	0x2e4cfc65	4.66084e-11
127	0x2e0fd5fb	3.270449e-11
128	0x2e0865b6	3.1013157e-11
129	0x2e0c4036	3.1889345e-11
130	0x2d891942	1.5586313e-11
131	0x2fa3279c	2.9677671e-10
132	0x2e79eedf	5.6828205e-11
133	0x2d896f24	1.5624453e-11
134	0x2db335d3	2.0373847e-11
135	0x2df608e9	2.7970919e-11
136	0x2e9037e5	6.558291e-11
137	0x2dccaaca	2.326796e-11
138	0x2ece97d8	9.394768e-11
139	0x2e257452	3.761997e-11
140	0x2e6fdbbc	5.4537472e-11
141	0x2e745934	5.5558405e-11
142	0x2f8f1f71	2.603389e-10
143	0x2d1be698	8.861932e-12
144	0x2e2649e1	3.7809648e-11
145	0x2e8f68d7	6.5215104e-11
146	0x2ca6a656	4.7364708e-12
147	0x2e915662	6.609181e-11
148	0x2ea80853	7.641234e-11
149	0x2d7a862e	1.4240649e-11
150	0x2e9fd92d	7.269061e-11
151	0x2dcc5796	2.323101e-11
152	0x2dcf8ed9	2.3596613e-11
153	0x2dec6d22	2.6878558e-11
154	0x2d5daccb	1.2600763e-11
155	0x2e863c11	6.1042844e-11
156	0x2e4f60e8	4.715242e-11
157	0x2e0e740f	3.2390143e-11
158	0x2e34a446	4.1073166e-11
159	0x2de07d9e	2.5521637e-11
160	0x2f0e4317	1.293866e-10
161	0x2fa1f76a	2.9461528e-10
162	0x2e39727f	4.2165823e-11
163	0x2e54fb74	4.8426554e-11
164	0x2d61c6db	1.2833924e-11
165	0x2f4e7616	1.8777543e-10
166	0x2d93096e	1.6716153e-11
167	0x2e0b7fae	3.1718343e-11
168	0x2e5e333d	5.0522465e-11
169	0x2d440db4	1.1144353e-11
170	0x2d59667a	1.2357776e-11
171	0x2dcfd159	2.3626144e-11
172	0x2e08f186	3.1137336e-11
173	0x2d75b77f	1.3967382e-11
174	0x2ef43867	1.11058544e-10
175	0x2d6ce57f	1.3466005e-11
176	0x2d77eb5b	1.4092584e-11
177	0x2f31bb09	1.6164504e-10
178	0x2f04c9c8	1.2077017e-10
179	0x2e388c5f	4.196143e-11
180	0x2e1af96d	3.523708e-11
181	0x2e01257f	2.9364507e-11
182	0x2d250386	9.3799465e-12
183	0x2da45768	1.8683458e-11
184	0x2f4c1e9f	1.8564571e-10
185	0x2dc863fc	2.278177e-11
186	0x2da056e5	1.8228483e-11
187	0x2e44b353	4.4724512e-11
188	0x2d9d17a6	1.7859336e-11
189	0x2d691179	1.3248396e-11
190	0x2ddcc314	2.5097736e-11
191	0x2e93b26a	6.716479e-11
192	0x2e8ea7cf	6.487221e-11
193	0x2e7d80c8	5.763992e-11
194	0x2dabe409	1.9541717e-11
195	0x2e95e36a	6.8161324e-11
196	0x2fb6cfc9	3.3253247e-10
197	0x2d8eea01	1.624745e-11
198	0x2d58d9e4	1.232656e-11
199	0x2d4197fd	1.1004528e-11
200	0x2f542cc7	1.9297196e-10
201	0x2d3124dd	1.006947e-11
202	0x2eac0268	7.822082e-11
203	0x2d978284	1.7224673e-11
204	0x2e1828a9	3.4596912e-11
205	0x2dec35bc	2.6853957e-11
206	0x2e0bcfdb	3.1789554e-11
207	0x2e9aceb1	7.039825e-11
208	0x2e61a233	5.130314e-11
209	0x2ddd3b7d	2.515121e-11
210	0x2e835bf1	5.9735224e-11
211	0x2d4620d2	1.12622845e-11
212	0x2e1c1a48	3.5493636e-11
213	0x2e87f886	6.183236e-11
214	0x2efd12c5	1.1508442e-10
215	0x2f312d51	1.6114156e-10
216	0x2e91c024	6.6279676e-11
217	0x2e47931a	4.5378014e-11
218	0x2e9e7729	7.206175e-11
219	0x2e049360	3.014422e-11
220	0x2f19cd49	1.3988201e-10
221	0x2fc1f4d7	3.5280465e-10
222	0x2f51ea26	1.9091626e-10
223	0x2eddb584	1.008216e-10
224	0x2e02d193	2.9744717e-11
225	0x2f8d519d	2.570574e-10
226	0x2f0f60ca	1.304016e-10
227	0x2e92dd5d	6.678633e-11
228	0x2d95a722	1.701356e-11
229	0x2dd639f5	2.4354721e-11
230	0x2ed0c841	9.494317e-11
231	0x2e462cb1	4.505968e-11
232	0x2f6517fa	2.0835947e-10
233	0x2d27895c	9.523351e-12
234	0x2ec5a424	8.98768e-11
235	0x2e21cd59	3.6789547e-11
236	0x2da0ea76	1.8294016e-11
237	0x2f82775d	2.3731675e-10
238	0x2f1b3463	1.411578e-10
239	0x2ec9938b	9.1666306e-11
240	0x2ecb89fe	9.2558836e-11
241	0x2f11674d	1.3224373e-10
242	0x2e2b5ba9	3.896231e-11
243	0x2fb4e3de	3.290372e-10
244	0x2e30ab21	4.016976e-11
245	0x2f4bc33b	1.8532102e-10
246	0x2e8b6857	6.339523e-11
247	0x2f0265cb	1.1859595e-10
248	0x2ea1c313	7.3560845e-11
249	0x2e1712bc	3.4350064e-11
250	0x2e15b5c4	3.4040118e-11
251	0x2f3ca4c5	1.7157038e-10
252	0x2f3a4298	1.694026e-10
253	0x2f5460cd	1.9315678e-10
254	0x2e2ae54c	3.885718e-11
255	0x2e86f9bc	6.137976e-11

exp_avg f4 [30]
0	0xaf1fba72	-1.4527204e-10
1	0xaf29e924	-1.5453289e-10
2	0xaf0a774f	-1.2593414e-10
3	0xaf415ec7	-1.758692e-10
4	0x2df2de1f	2.7610856e-11
5	0xae737e26	-5.5363845e-11
6	0x2dd11f43	2.3774432e-11
7	0x2ec57467	8.9792e-11
8	0x2ee949ba	1.060871e-10
9	0xaf8285b4	-2.3741864e-10
10	0x2fbc5a64	3.4261227e-10
11	0xaf4ca2c7	-1.8611522e-10
12	0x2f61d9a7	2.0540956e-10
13	0xaffb81c9	-4.5748852e-10
14	0x2d473f9e	1.1325966e-11
15	0x2f8d918b	2.5751165e-10
16	0x2fb4ff31	3.2923134e-10
17	0x2f8b77cf	2.5369082e-10
18	0x2f3cb7ba	1.7163773e-10
19	0x2eb73fe3	8.333225e-11
20	0x2f15b129	1.3614411e-10
21	0xaf7d0101	-2.3010573e-10
22	0x2e51ecb6	4.773134e-11
23	0x2caddc0a	4.941385e-12
24	0x2d68c3f8	1.3231187e-11
25	0x2fc3198d	3.5488448e-10
26	0xadd34a15	-2.4020822e-11
27	0x2e37000f	4.1609435e-11
28	0xae731218	-5.5267874e-11
29	0x30090077	4.984097e-10

exp_avg_sq f4 [30]
0	0x2aa73cde	2.9707394e-13
1	0x25a0a0ed	2.7864623e-16
2	0x2cf52bdb	6.9681877e-12
3	0x299a3874	6.848767e-14
4	0x28d4c193	2.3620678e-14
5	0x2c4f19ea	2.9430854e-12
6	0x2ccc2c00	5.8029137e-12
7	0x2904865c	2.9426426e-14
8	0x2cd2e60f	5.9941006e-12
9	0x2b5ab09f	7.769427e-13
10	0x2c0f5d8f	2.0373458e-12
11	0x2b323435	6.3310755e-13
12	0x2aa5e14e	2.9466224e-13
13	0x2b3887ff	6.5558664e-13
14	0x28f30e64	2.698466e-14
15	0x2ca60ba1	4.719295e-12
16	0x26e7eb0b	1.6092553e-15
17	0x2cb983f3	5.2726656e-12
18	0x2c14a326	2.112263e-12
19	0x2c683a57	3.3001568e-12
20	0x2ad48226	3.7749074e-13
21	0x2a2d3820	1.5384959e-13
22	0x2b1bea14	5.539191e-13
23	0x2bbab923	1.3267481e-12
24	0x299b98d4	6.909894e-14
25	0x28106a73	8.016688e-15
26	0x2c79615a	3.543907e-12
27	0x2aab7341	3.0455675e-13
28	0x2c464954	2.8178198e-12
29	0x2c018a4f	1.840878e-12

exp_avg f4 [7, 30]
0	0x3278bd9f	1.4478615e-08
1	0xb516b752	-5.614612e-07
2	0x361c85f5	2.3323785e-06
3	0x34d3cba6	3.9449986e-07
4	0xb58755dc	-1.0083272e-06
5	0xb43f87f3	-1.7837719e-07
6	0x34a0527a	2.9862332e-07
7	0xb6151e77	-2.2220463e-06
8	0x359d6e47	1.1729506e-06
9	0xb3ac81b7	-8.032969e-08
10	0xb5e14e45	-1.6786586e-06
11	0x350b4865	5.1886883e-07
12	0x35af439a	1.3058191e-06
13	0x34edc012	4.428444e-07
14	0xb58d1051	-1.0510067e-06
15	0x352661e1	6.198225e-07
16	0xb49aefe3	-2.8859276e-07
17	0x34c4dc10	3.6667961e-07
18	0xb5853613	-9.92501e-07
19	0x348dfb17	2.6445989e-07
20	0xb1c4b2db	-5.7246843e-09
21	0xb29ed4f4	-1.849046e-08
22	0x354eb38a	7.7002244e-07
23	0x35dedb76	1.660416e-06
24	0xb55bf72c	-8.194354e-07
25	0xb625db93	-2.4714725e-06
26	0x35733e91	9.06156e-07
27	0x34fd221e	4.7149746e-07
28	0xb536b0e2	-6.805768e-07
29	0x35616b0b	8.39748e-07
30	0x362407d6	2.4442465e-06
31	0x35ef4544	1.7827047e-06
32	0x361fd4eb	2.381678e-06
33	0x355408ba	7.8988853e-07
34	0xb6440b4e	-2.9212856e-06
35	0xb57977bc	-9.2933965e-07
36	0xb595813b	-1.1138976e-06
37	0x35e7bf15	1.7266453e-06
38	0xb5fb19b2	-1.8708436e-06
39	0x3617b31f	2.2605016e-06
40	0x3586574e	1.0009187e-06
41	0xb5f9eee7	-1.8621475e-06
42	0xb505e1c8	-4.9874916e-07
43	0x36962fbe	4.4759063e-06
44	0x35fe22ed	1.893464e-06
45	0xb6a1c054	-4.820564e-06
46	0xb5af95d4	-1.3082122e-06
47	0xb4bd427a	-3.525236e-07
48	0xb605a28f	-1.9913166e-06
49	0x34e8cd04	4.3362536e-07
50	0x3501a5d9	4.8297585e-07
51	0x364fd882	3.0971428e-06
52	0xb5593f37	-8.093079e-07
53	0xb5de31c7	-1.6554776e-06
54	0x3691534b	4.3310333e-06
55	0x35998d6f	1.1440551e-06
56	0xb5758b9d	-9.1472776e-07
57	0x358361c8	9.788719e-07
58	0x3663573a	3.3876408e-06
59	0xb5a9056f	-1.2593063e-06
60	0x35991d95	1.1407998e-06
61	0xb5a00aba	-1.1924051e-06
62	0x33c151b6	9.002126e-08
63	0xb5b4f103	-1.3481189e-06
64	0x36b71698	5.4564553e-06
65	0xb54bb687	-7.5889005e-07
66	0x360ac6c1	2.0679292e-06
67	0x356a27da	8.7229785e-07
68	0xb666b027	-3.4375205e-06
69	0xb6092e59	-2.0441569e-06
70	0x3672739f	3.612811e-06
71	0x330318d8	3.052341e-08
72	0x357b985c	9.37265e-07
73	0xb53b006d	-6.966355e-07
74	0x34e097ed	4.1833792e-07
75	0xb4baf02c	-3.4819948e-07
76	0xb5a1f250	-1.2065957e-06
77	0xb51a7d1d	-5.7551534e-07
78	0x34ca17cd	3.764275e-07
79	0x34f43b62	4.5491748e-07
80	0x36478233	2.9729097e-06
81	0x35b94019	1.3802229e-06
82	0xb50548cb	-4.965229e-07
83	0xb5df3f01	-1.6633131e-06
84	0xb4607c0e	-2.0906757e-07
85	0x35718e49	8.998655e-07
86	0x34a6c36c	3.1062098e-07
87	0x359cbf44	1.1678571e-06
88	0x348a91dd	2.5810633e-07
89	0xb5bb1847	-1.3939651e-06
90	0x35286f34	6.27467e-07
91	0xb548d0c1	-7.4809583e-07
92	0x36921b6e	4.3543323e-06
93	0x33b256fc	8.304593e-08
94	0xb5a744eb	-1.2462527e-06
95	0xb527932e	-6.242652e-07
96	0xb464b025	-2.1298236e-07
97	0xb5c4a5fc	-1.4651446e-06
98	0x35750bd8	9.128685e-07
99	0xb428191c	-1.5655354e-07
100	0x32d3db9b	2.4663498e-08
101	0xb548263c	-7.4561444e-07
102	0x36337415	2.6740647e-06
103	0x3615751a	2.2270892e-06
104	0x33b640c8	8.486819e-08
105	0xb6452a1f	-2.9379805e-06
106	0xb5b7c5fe	-1.3692186e-06
107	0x34911182	2.7021093e-07
108	0xb56a4371	-8.7269933e-07
109	0x34a1b1b6	3.011789e-07
110	0x3566ba3f	8.59527e-07
111	0x3612221a	2.1775545e-06
112	0xb3c4c663	-9.1630476e-08
113	0x3503d032	4.9104267e-07
114	0x35d09b3d	1.5542388e-06
115	0xb54c5b85	-7.61291e-07
116	0x35177ff2	5.643807e-07
117	0x34a30e89	3.0371692e-07
118	0x358726dc	1.0069593e-06
119	0x33f43a4f	1.1372742e-07
120	0xb63cd9a6	-2.814087e-06
121	0xb6107a06	-2.15287e-06
122	0x356485e6	8.5131467e-07
123	0x35ba7597	1.3892303e-06
124	0xb5a9de24	-1.2656133e-06
125	0x35801dda	9.545431e-07
126	0xb66689df	-3.4352922e-06
127	0x3615f56b	2.2345582e-06
128	0x3689fbc1	4.112226e-06
129	0x35164a4d	5.5987476e-07
130	0xb57b7ff1	-9.3690966e-07
131	0x34faf791	4.6746257e-07
132	0x352001ab	5.960707e-07
133	0x35a6bbce	1.2422622e-06
134	0x35f93f3e	1.8570352e-06
135	0xb69d7cf9	-4.6935133e-06
136	0xb61d4902	-2.343732e-06
137	0x35cf9c91	1.5468269e-06
138	0x369e1da7	4.712219e-06
139	0xb5d8a402	-1.6140987e-06
140	0xb5f7e458	-1.8469391e-06
141	0x36047205	1.97359e-06
142	0xb604e5fa	-1.9803397e-06
143	0xb6645648	-3.402487e-06
144	0x361e9573	2.3630826e-06
145	0x35d77420	1.6052545e-06
146	0xb6102316	-2.1478095e-06
147	0xb69bf765	-4.6481605e-06
148	0x35bc43a7	1.4026781e-06
149	0xb5b116ca	-1.319416e-06
150	0x359675c4	1.1210145e-06
151	0x359cd0de	1.1683694e-06
152	0x3400a939	1.1982492e-07
153	0x35cec9cb	1.5406926e-06
154	0x35f729bc	1.841508e-06
155	0x35145802	5.5262365e-07
156	0xb58bceef	-1.0416533e-06
157	0x35178df1	5.6458435e-07
158	0xb5c4d485	-1.4664989e-06
159	0xb4c2add3	-3.626179e-07
160	0xb376fe55	-5.7507652e-08
161	0x3644de5c	2.9335706e-06
162	0xb588064a	-1.013462e-06
163	0x365d223a	3.2951489e-06
164	0x35e8e8f3	1.7353144e-06
165	0xb6091147	-2.0424648e-06
166	0xb59fd284	-1.1907691e-06
167	0x35769640	9.1860784e-07
168	0x36010b70	1.9229155e-06
169	0xb66a6dbd	-3.4932593e-06
170	0xb4b8fa21	-3.4454663e-07
171	0x367c4a2a	3.7594095e-06
172	0xb5df61f5	-1.6643304e-06
173	0xb633ed4d	-2.6811206e-06
174	0x35c78e7a	1.4868122e-06
175	0x35ec0ba5	1.7586759e-06
176	0xb5ce7770	-1.5382957e-06
177	0xb54d2cfa	-7.64339e-07
178	0x357fede0	9.5341056e-07
179	0xb67abc87	-3.736264e-06
180	0xb56e7679	-8.883431e-07
181	0x36f79d09	7.379455e-06
182	0xb6c46c40	-5.853857e-06
183	0xb5dee28d	-1.6606224e-06
184	0xb60772c3	-2.0183368e-06
185	0x354053b9	7.1647406e-07
186	0x34434b87	1.8188267e-07
187	0x3684c772	3.957125e-06
188	0xb6b7517c	-5.463311e-06
189	0x35d0e894	1.5564897e-06
190	0x36df85fe	6.6615166e-06
191	0xb6140107	-2.2054317e-06
192	0x36ede923	7.090291e-06
193	0xb48bd67d	-2.6046828e-07
194	0x36a7340a	4.983046e-06
195	0xb3f81a70	-1.1553209e-07
196	0x370ad567	8.275128e-06
197	0x3642cfe1	2.9029254e-06
198	0xb6040b91	-1.9676265e-06
199	0xb2eca05e	-2.7546943e-08
200	0xb5d8703f	-1.6125922e-06
201	0xb68cbc31	-4.1942335e-06
202	0x35d33dd5	1.573872e-06
203	0x3664ce7d	3.409484e-06
204	0x34ebbf7a	4.3911479e-07
205	0x369018bf	4.2944152e-06
206	0xb68f4293	-4.2694824e-06
207	0x36eabbd8	6.9956113e-06
208	0x35a2e6e5	1.213714e-06
209	0x35bac3ad	1.3915029e-06

exp_avg_sq f4 [7, 30]
0	0x2fc20e03	3.529835e-10
1	0x30af98b6	1.2776329e-09
2	0x304549d7	7.1773115e-10
3	0x3027e4cd	6.107939e-10
4	0x309a912f	1.1246238e-09
5	0x2fdf6ef0	4.064229e-10
6	0x30178b3b	5.513134e-10
7	0x30142bb8	5.3904214e-10
8	0x2f317c6a	1.6142257e-10
9	0x30ab1a54	1.244937e-09
10	0x306f71fc	8.7109675e-10
11	0x2fd2f6a7	3.8374035e-10
12	0x31286673	2.4505453e-09
13	0x30085add	4.9605636e-10
14	0x30a730da	1.2164734e-09
15	0x2f2b4aaf	1.5578892e-10
16	0x2e59ca8f	4.9519996e-11
17	0x304a7d02	7.366482e-10
18	0x2ef41457	1.10994484e-10
19	0x2eb80fb1	8.3701386e-11
20	0x2fd1e644	3.8180492e-10
21	0x3013a35b	5.371043e-10
22	0x2f3c996a	1.7153004e-10
23	0x2fb15738	3.2258085e-10
24	0x310c66b4	2.0431061e-09
25	0x3122ea3c	2.370725e-09
26	0x2e2ece22	3.9746102e-11
27	0x2feb9881	4.2854612e-10
28	0x309b0e38	1.1281776e-09
29	0x2f6a5de7	2.1315537e-10
30	0x2f394e5c	1.6853491e-10
31	0x2edae168	9.9535324e-11
32	0x2ebb7b27	8.525652e-11
33	0x2e4fae05	4.722091e-11
34	0x2f50f580	1.9004709e-10
35	0x2dc2e0ba	2.2155045e-11
36	0x2f4f1a33	1.8835848e-10
37	0x2f855cb2	2.4258423e-10
38	0x2fd10fdf	3.8028156e-10
39	0x2fdb597d	3.9899453e-10
40	0x2fa320d2	2.9672848e-10
41	0x2f6b4fde	2.14015e-10
42	0x3093e06b	1.0759441e-09
43	0x304e6054	7.5079254e-10
44	0x2f812a93	2.3495214e-10
45	0x2ffd184e	4.6037701e-10
46	0x301a8ed1	5.622783e-10
47	0x30cb4610	1.4790107e-09
48	0x2fb098b7	3.2122724e-10
49	0x2f1b3ea7	1.4119426e-10
50	0x2ec27a65	8.84384e-11
51	0x301b3317	5.6461275e-10
52	0x2f9e14aa	2.8754715e-10
53	0x2f6056ea	2.040356e-10
54	0x30226cc0	5.90898e-10
55	0x303f1e5f	6.9528555e-10
56	0x2e893256	6.23898e-11
57	0x2f37e775	1.6725983e-10
58	0x2eb40b4e	8.1874604e-11
59	0x2fcb2875	3.695423e-10
60	0x2e917207	6.614092e-11
61	0x30b05c58	1.2831931e-09
62	0x2f1a74ef	1.4047762e-10
63	0x300ed9f2	5.196902e-10
64	0x31260055	2.4156368e-09
65	0x2e92760b	6.66028e-11
66	0x3087ba6c	9.875527e-10
67	0x2f966159	2.735401e-10
68	0x2ff4ad11	4.4506313e-10
69	0x2fca6a8d	3.6819295e-10
70	0x308691c8	9.791217e-10
71	0x3040a212	7.007951e-10
72	0x30007f8d	4.674739e-10
73	0x2eaca4c2	7.850921e-11
74	0x312c984c	2.5115865e-09
75	0x3008640d	4.961869e-10
76	0x2ffba650	4.5774806e-10
77	0x308f979d	1.044771e-09
78	0x304cf5b1	7.4563916e-10
79	0x312e0e42	2.5328437e-09
80	0x30c47c5c	1.4296222e-09
81	0x30a739de	1.2167296e-09
82	0x2f025d4a	1.1856574e-10
83	0x30b5e707	1.3235145e-09
84	0x3086cc6b	9.807882e-10
85	0x308056d1	9.3379e-10
86	0x2ef81020	1.1280599e-10
87	0x309774ea	1.1019925e-09
88	0x3003353f	4.773319e-10
89	0x30afb42c	1.2784134e-09
90	0x2fd71322	3.9121867e-10
91	0x2ec5aa5a	8.988783e-11
92	0x308e62f4	1.0359984e-09
93	0x2ef3a537	1.1079709e-10
94	0x2f90f8a1	2.637011e-10
95	0x2f102870	1.311109e-10
96	0x2edea791	1.0125157e-10
97	0x31321f43	2.592018e-09
98	0x2f939ed0	2.6851987e-10
99	0x2e6c21e5	5.3690292e-11
100	0x2e9c9d52	7.1220044e-11
101	0x2fb03341	3.2050632e-10
102	0x314c4abe	2.9728393e-09
103	0x2ff4dada	4.4538845e-10
104	0x2fefe250	4.3634651e-10
105	0x30491003	7.314613e-10
106	0x2f18cbdf	1.3896749e-10
107	0x2f515607	1.9039002e-10
108	0x2ea13cad	7.3322105e-11
109	0x2e13d68b	3.3614483e-11
110	0x2fad4b28	3.1521918e-10
111	0x30bb5798	1.3630936e-09
112	0x2eb49ced	8.213328e-11
113	0x30ac4476	1.2534105e-09
114	0x3122888a	2.3651716e-09
115	0x2f82c151	2.3784222e-10
116	0x2e532b5f	4.8014367e-11
117	0x2e58426b	4.9171705e-11
118	0x2e3929fc	4.210142e-11
119	0x2f530eb6	1.9195565e-10
120	0x30785c8c	9.035339e-10
121	0x2f392027	1.6837075e-10
122	0x2f205f12	1.4585691e-10
123	0x2f32e9c0	1.627205e-10
124	0x2f51dece	1.9087595e-10
125	0x2e858b8f	6.0729304e-11
126	0x2f59af52	1.9798321e-10
127	0x300d18c3	5.133069e-10
128	0x303173f6	6.4557015e-10
129	0x2eca5626	9.2011995e-11
130	0x300c95ec	5.1144755e-10
131	0x304295a8	7.0789463e-10
132	0x30e48f98	1.6629995e-09
133	0x30505717	7.579372e-10
134	0x2f599f4e	1.9792631e-10
135	0x2f7e8e25	2.3151665e-10
136	0x2eb2a5f0	8.123979e-11
137	0x30cd98b2	1.4959112e-09
138	0x3075cc36	8.942068e-10
139	0x2f9ce30a	2.8537556e-10
140	0x2f6da15f	2.1612355e-10
141	0x2f944135	2.6967376e-10
142	0x2eb7959e	8.348454e-11
143	0x2ef7e439	1.12728e-10
144	0x2fd0eee1	3.8004713e-10
145	0x2f98f252	2.7820818e-10
146	0x3002916f	4.75004e-10
147	0x2fa1bd37	2.9420175e-10
148	0x2f19b5ce	1.3979859e-10
149	0x305bab0f	7.9914825e-10
150	0x2f31c25c	1.6167107e-10
151	0x2f124fde	1.3306997e-10
152	0x2e6c44ea	5.3721395e-11
153	0x3030ea38	6.436127e-10
154	0x30c55e37	1.4360414e-09
155	0x2eb977a4	8.4340784e-11
156	0x30188025	5.547938e-10
157	0x2eaf810e	7.9810034e-11
158	0x2f4541e9	1.7940462e-10
159	0x303d4a3a	6.886328e-10
160	0x2fbaaaa5	3.3954453e-10
161	0x2fd00ae3	3.7842715e-10
162	0x2f44c581	1.7896264e-10
163	0x2fcb91a4	3.702897e-10
164	0x2fadd9e7	3.1623346e-10
165	0x3007c47b	4.939193e-10
166	0x2f0f8e98	1.3056434e-10
167	0x308b9e3b	1.0158553e-09
168	0x2f8193c0	2.3569946e-10
169	0x30243590	5.973897e-10
170	0x3037780b	6.6745603e-10
171	0x302024eb	5.8260125e-10
172	0x2f10b515	1.3161057e-10
173	0x2eb0b7cc	8.036202e-11
174	0x2f34e6a8	1.645285e-10
175	0x2f09d2cc	1.2534968e-10
176	0x2f8bb84d	2.5414906e-10
177	0x2fecedd3	4.3097134e-10
178	0x2e0299e5	2.9695264e-11
179	0x309f3ddf	1.1586357e-09
180	0x2f6c83bc	2.1510876e-10
181	0x30418bb7	7.041154e-10
182	0x301419ef	5.387894e-10
183	0x2f1dc285	1.4348174e-10
184	0x2f7fafad	2.3254527e-10
185	0x2e287d9d	3.8310344e-11
186	0x2ec6343e	9.0132776e-11
187	0x30a6348a	1.2093022e-09
188	0x3013183a	5.3512716e-10
189	0x2f60d04d	2.0446685e-10
190	0x3190f3c0	4.2186628e-09
191	0x30a15915	1.173961e-09
192	0x30dfe6fb	1.6291034e-09
193	0x2e5bc220	4.9967253e-11
194	0x2f92f9c5	2.6734717e-10
195	0x2e5a4598	4.9629273e-11
196	0x3032a8a6	6.4995687e-10
197	0x2fc5b9bd	3.5966066e-10
198	0x2f8c866e	2.556137e-10
199	0x300afd88	5.0564397e-10
200	0x2fce9a96	3.7581022e-10
201	0x30569c02	7.8074447e-10
202	0x2e74f57c	5.569721e-11
203	0x2ff0f241	4.3827877e-10
204	0x2f48fc63	1.827956e-10
205	0x2f36aa03	1.6613204e-10
206	0x2f6a58f8	2.1313784e-10
207	0x30a5409b	1.2023692e-09
208	0x2f7f8673	2.3239881e-10
209	0x30bb03e6	1.3607149e-09

exp_avg f4 [7]
0	0x2d42ac7d	1.1065923e-11
1	0xadad83be	-1.9726328e-11
2	0xad34267c	-1.0240361e-11
3	0xabe870cf	-1.6515902e-12
4	0xad5c01ef	-1.25059815e-11
5	0xadacde67	-1.9652903e-11
6	0xad8354b4	-1.4930591e-11

exp_avg_sq f4 [7]
0	0x2c9a770d	4.3901605e-12
1	0x2c3277c3	2.5361803e-12
2	0x2c65bdb8	3.2648172e-12
3	0x2bfb9ea6	1.7878656e-12
4	0x27df3983	6.195729e-15
5	0x2c97f908	4.319326e-12
6	0x2640dde3	6.6914094e-16
