tutorial/DLPFC_output/version_4/checkpoints/mlp.ckpt (torch, 18997 bytes, 12 tensors)

model.classifier.0.weight f4 [30, 30]
0.07229346 0.15139736 -0.014893263 -0.08595062 0.023905374 -0.019951612 -0.07041425 0.004680349
-0.00326335 0.06594642 -0.05103996 -0.013655394 -0.11834769 0.19350252 0.08703932 -0.22446522
0.02681872 -0.112854905 -0.010109537 -0.034242854 -0.10626575 -0.015030288 -0.026187094 0.0054173544
-0.056130372 0.029139278 -0.10798015 -0.3180483 0.040086817 -0.16932695 -0.018695757 -0.1489277
-0.07166875 0.052878436 0.16291854 -0.086188294 -0.04009792 -0.000723036 -0.113392755 -0.10408617
0.04256484 0.031150674 -0.1838159 -0.26040637 -0.11371804 -0.10317092 -0.15799902 0.12068274
0.0105853565 -0.087127045 0.10109473 0.027175032 -0.060259923 -0.09501057 0.08449726 0.009919106
-0.013481567 0.08254935 0.1191904 -0.120068744 0.06498226 0.09757193 -0.005693973 -0.04165862
-0.042728923 -0.044176612 -0.032511905 -0.054664478 0.053038325 0.022034952 -0.06725743 -0.115784496
-0.00725834 0.11767433 0.061883174 -0.07789169 0.0260056 -0.053579904 -0.0034992134 -0.020111313
-0.009686875 -0.01158072 -0.021939356 0.027934566 -0.12601729 -0.056902293 -0.03656644 -0.16865191
0.10878242 -0.009304904 -0.08579569 0.23485847 0.07379056 -0.01404589 0.0807582 0.12646993
-0.0038887633 0.119149305 -0.017916905 0.18228312 -0.062726684 0.0768612 -0.013794141 0.20423187
0.071671814 -0.029602751 0.04608359 -0.11893519 -0.06318815 0.0839086 -0.07838646 -0.027810756
0.019774817 0.08044399 0.0397157 0.13095473 -0.0609169 -0.13192825 -0.23855162 -0.07932922
0.01749285 -0.19597167 0.056686994 -0.07809405 -0.24436231 0.13391137 -0.016902145 0.0065595875
0.14888324 -0.13413233 0.01751297 -0.04787966 0.110859245 0.093689956 0.032328814 0.16037515
0.096673235 -0.08668309 0.07635618 0.045995682 -0.112670146 0.035455227 -0.01076935 0.05323232
0.012174177 0.034497567 0.07001578 0.026387928 -0.102565534 0.16050774 -0.06955201 -0.05933232
0.03466166 -0.004951601 -0.07466851 0.11097048 0.01692766 0.050493944 0.059746373 -0.036608115
0.014111126 0.003428856 0.07853101 0.022077477 0.01446258 0.14214791 0.0364163 -0.027654346
-0.0004928634 0.03692496 -0.037089802 0.006008178 -0.00033135896 0.029942002 0.056753453 0.059383277
0.043666266 0.08954691 -0.13989684 0.10694748 0.038410444 -0.0300797 0.009821388 -0.08900369
-0.23031998 0.0774352 0.023654014 -0.0074947933 0.12872107 -0.039234687 0.038549967 -0.020660046
0.14226381 0.18174465 0.09839293 0.10387417 0.14850031 -0.0960429 0.023946572 0.016153354
-0.15508978 -0.0074614882 0.026413655 0.025675146 -0.012683274 0.0026929989 0.029966012 -0.046756174
-0.08299189 0.12913556 -0.022436125 0.0354564 0.021126093 0.11296259 0.24144468 -0.090361126
-0.0049845506 -0.0069665094 -0.14944337 0.078811035 -0.04788837 0.044279758 -0.10959237 -0.20155017
-0.1313046 -0.07495663 -0.14547738 0.11494504 -0.008569396 0.026508832 0.19030167 0.012675489
0.007964684 -0.0033707174 -0.006001397 -0.029425256 -0.008320915 0.10120996 0.08057212 -0.12164101
-0.055718973 0.041734047 0.03496983 0.11741141 0.111691564 -0.045095377 0.04935387 -0.022739468
-0.056894694 0.064507104 -0.038785048 -0.012575923 0.05796323 -0.15348981 -0.08642824 0.089465864
00000000: 980e 943d e907 1b3e df02 74bc e106 b0bd
00000010: 34d5 c33c 9071 a3bc 5935 90bd 9d5d 993b
00000020: eedd 55bb eb0e 873d 470f 51bd e0ba 5fbc
00000030: 4660 f2bd 8625 463e ac41 b23d 36da 65be
00000040: efb2 db3c 7920 e7bd 79a2 25bc 3c42 0cbd
00000050: dca1 d9bd 9941 76bc 5186 d6bc 1084 b13b
00000060: f6e8 65bd 7fb5 ee3c b224 ddbd 3ad7 a2be
00000070: 1332 243d 0b64 2dbe d827 99bc 8180 18be
00000080: 11c7 92bd 0f97 583d 1ed4 263e 7d83 b0bd
00000090: b73d 24bd 208a 3dba 763a e8bd 212b d5bd
000000a0: 7858 2e3d b32f ff3c 3c3a 3cbe fc53 85be
000000b0: 01e5 e8bd 464b d3bd 7fca 21be 8328 f73d
000000c0: 346e 2d3c aa6f b2bd c10a cf3d 2c9e de3c
000000d0: 1cd3 76bd e794 c2bd e60c ad3d bf83 223c
000000e0: cae1 5cbc a20f a93d 191a f43d 9ae6 f5bd
000000f0: 6b15 853d cbd3 c73d 8294 babb 3ba2 2abd
00000100: 8604 2fbd 89f2 34bd 342b 05bd dce7 5fbd
00000110: b73e 593d a582 b43c 43be 89bd 6c20 edbd
00000120: 5ed7 edbb 3dff f03d 3679 7d3d ae85 9fbd
00000130: b209 d53c 9a76 5bbd 0f53 65bb 7bc0 a4bc
00000140: b3b5 1ebc 0fbd 3dbc 2aba b3bc 08d7 e43c
00000150: ad0a 01be 6112 69bd b1c6 15bd 16b3 2cbe
00000160: 51c9 de3d 9973 18bc a7b5 afbd bd7e 703e
00000170: 811f 973d bc20 66bc 8e64 a53d 5581 013e
00000180: 9fda 7ebb 8d04 f43d 79c6 92bc 6da8 3a3e
00000190: d976 80bd 6869 9d3d d200 62bc 2922 513e
000001a0: acc8 923d 7881 f2bc 25c2 3c3d 4b94 f3bd
000001b0: ca68 81bd 46d8 ab3d 1589 a0bd 62d3 e3bc
000001c0: ccfe a13c d2bf a43d eeac 223d ff18 063e
000001d0: 0084 79bd 3318 07be e046 74be 5c77 a2bd
000001e0: 2a4d 8f3c ccac 48be 9f30 683d c6ef 9fbd
000001f0: 1d3a 7abe 1020 093e 5e76 8abc cff1 d63b
00000200: d974 183e fc59 09be 5c77 8f3c 761d 44bd
00000210: 2c0a e33d 85e0 bf3d 386b 043d 6239 243e
00000220: 9efc c53d e786 b1bd a160 9c3d f865 3c3d
00000230: 9bbf e6bd 8039 113d ee71 30bc 220a 5a3d
00000240: 3376 473c 524d 0d3d 6f64 8f3d 7f2b d83c
00000250: e10d d2bd 245c 243e 4971 8ebd 7206 73bd
00000260: 63f9 0d3d 0a41 a2bb ceeb 98bd 7e44 e33d
00000270: e0ab 8a3c bdd2 4e3d 9db8 743d 64f2 15bd
00000280: 5a32 673c a8b6 603b ded4 a03d d3db b43c
00000290: 75f4 6c3c 398f 113e 4229 153d 5e8b e2bc
000002a0: 8133 01ba a03e 173d 7aeb 17bd 40e0 c43b
000002b0: 3fba adb9 ee48 f53c 4f76 683d e13b 733d
000002c0: 66db 323d 5f64 b73d 1e41 0fbe 4807 db3d
000002d0: 4554 1d3d b469 f6bc e3e9 203c 9147 b6bd
000002e0: 00d9 6bbe 5996 9e3d 10c6 c13c e296 f5bb
000002f0: 75cf 033e 8db4 20bd 92e6 1d3d 423f a9bc
00000300: 9bad 113e 451b 3a3e 3c82 c93d fbbb d43d
00000310: 7710 183e 24b2 c4bd 9a2b c43c 0a54 843c
00000320: dbcf 1ebe 807f f4bb 7361 d83c af54 d23c
00000330: 82cd 4fbc 067d 303b 487b f53c 6783 3fbd
00000340: a7f7 a9bd 1d3c 043e f7cb b7bc bb3a 113d
00000350: a110 ad3c ee58 e73d 463d 773e 410f b9bd
00000360: 7155 a3bb 5147 e4bb af07 19be ae67 a13d
00000370: 9826 44bd b15e 353d f771 e0bd 2b63 4ebe
00000380: b774 06be dd82 99bd 06f8 14be 4e68 eb3d
00000390: a766 0cbc 0d29 d93c 71de 423e dbac 4f3c
000003a0: 4e7e 023c 41e7 5cbb 5ea7 c4bb 3c0d f1bc
000003b0: 7254 08bc 2b47 cf3d ff02 a53d ec1e f9bd
000003c0: 9439 64bd 52f1 2a3d 863c 0f3d 6575 f03d
000003d0: 8cbe e43d eeb5 38bd 4927 4a3d 1f48 babc
000003e0: 690a 69bd 4d1c 843d 12dd 1ebd 3f0b 4ebc
000003f0: da6a 6d3d 6f2c 1dbe 4a01 b1bd e139 b73d

model.classifier.0.bias f4 [30]
8.647384e-09 5.2749823e-07 8.259489e-09 -9.842304e-08 -1.1124271e-07 -8.232647e-09 -2.7931813e-08 8.351044e-08
3.9615433e-08 7.361359e-08 -2.9882703e-08 2.6839873e-08 -4.275314e-08 1.3595118e-07 8.184769e-08 -6.3525384e-08
3.5452626e-07 -5.094557e-09 1.4841415e-08 -5.656234e-09 -9.522034e-08 1.45458205e-08 -3.8292438e-08 -5.798986e-08
5.2059608e-08 2.4673433e-08 -1.9694088e-08 -8.320925e-08 6.3589404e-08 -5.8590704e-08
00000000: 998f 1432 6799 0d35 9ee5 0d32 a35c d3b3
00000010: 54e4 eeb3 906f 0db2 b5ee efb2 5a56 b333
00000020: a125 2a33 8015 9e33 6158 00b3 818d e632
00000030: 939f 37b3 faf9 1134 3ec4 af33 736b 88b3
00000040: b855 be34 330c afb1 3cf9 7e32 c358 c2b1
00000050: ef7b ccb3 32e5 7932 fb76 24b3 8610 79b3
00000060: 2598 5f33 74f1 d332 c22b a9b2 c5b0 b2b3
00000070: a58e 8833 29a5 7bb3

model.classifier.1.weight f4 [7, 30]
0.26428276 0.23664781 0.16920355 -0.089675315 -0.22339304 -0.1981638 -0.19027284 0.10451085
-0.09737717 -0.026968066 0.18299234 -0.1446477 -0.008022224 0.11270758 0.2493857 -0.07046871
0.09866409 0.11006815 -0.16703403 0.10479534 0.047494497 0.043120667 0.044033457 -0.16217846
0.25489843 0.31905705 -0.13011274 0.3245858 0.20968443 0.12868634 0.356781 -0.30352145
0.20728697 0.37579012 -0.2220792 -0.123808146 0.04018802 -0.026785176 -0.06294073 0.28436622
-0.2584468 0.019262562 -0.32908547 0.4924147 -0.05782155 -0.2773015 -0.4805928 -0.4668559
-0.5223714 0.3148914 -0.031004567 0.45167273 -0.057795968 0.122165196 0.10141821 -0.4099716
0.24072431 -0.17614126 0.22752543 -0.2835161 0.049867686 0.10288699 -0.08661691 0.1399734
-0.034553207 -0.026935333 -0.1374783 0.19207951 0.016832536 0.082853235 -0.08280855 0.15390779
-0.085818 0.22147779 0.1832203 -0.19279845 -0.09869194 0.044335775 0.13314722 -0.18885858
-0.15236878 0.2015942 -0.08662153 -0.17877163 0.11359703 0.14830233 -0.16508242 -0.13522634
0.11373429 -0.2650423 -0.22581376 0.009424409 -0.18432957 0.054093096 -0.020045238 0.118017
0.014063649 -0.0066460995 0.09380305 -0.008473176 -0.049206264 0.10392013 0.19147173 -0.066762626
-0.050814934 0.040189072 0.16213979 0.03852836 0.07019282 -0.0839781 -0.2308761 -0.116849646
0.10748053 0.20865504 -0.17460805 -0.12830018 -0.057051107 -0.10665501 -0.14186278 -0.046683528
-0.2783099 0.0754088 0.0241148 -0.2895086 -0.11321652 -0.064809784 -0.1579487 0.2557073
0.36034772 -0.12333574 0.40895712 -0.3735516 0.3158053 -0.40031648 0.051392436 -0.23176555
0.11801067 0.14321274 0.20078953 0.3158083 -0.016117634 -0.32980472 0.10465955 -0.087684005
0.17545883 0.13211095 -0.097172625 0.10737866 0.15756659 0.33063856 0.056126483 -0.090614714
0.09257576 -0.24564287 0.19881389 -0.048551314 0.23117574 -0.22855215 -0.17552303 -0.2049424
0.22274908 -0.1996659 0.13000795 -0.31686032 -0.19247347 0.27903274 0.16421376 -0.08865054
-0.21315843 0.26945814 0.30374983 -0.22428481 0.10226951 0.14559081 -0.18042547 -0.09048103
0.21564423 0.32543725 -0.18283285 0.28113535 0.002322093 -0.39562097 0.10589288 0.14709203
0.39654508 0.19763869 0.33693722 -0.35686913 -0.1174781 0.0897594 -0.3636373 0.1843884
-0.2299832 0.10828294 -0.32955042 0.23179519 -0.3333994 -0.17062712 0.025870213 -0.1763781
0.32362568 0.16863124 -0.19247745 0.08951774 -0.15797883 -0.3667408 0.33237416 -0.30691388
-0.18538955 -0.10489324
00000000: 1250 873e ce53 723e b243 2d3e b1a7 b7bd
00000010: 25c1 64be 74eb 4abe e2d6 42be c909 d63d
00000020: af6d c7bd 22ec dcbc 5862 3b3e 871e 14be
00000030: a56f 03bc 3bd3 e63d f75e 7f3e e651 90bd
00000040: 6610 ca3d 696b e13d f80a 2bbe f09e d63d
00000050: 9789 423d 4c9f 303d 6d5c 343d 1c12 26be
00000060: 0c82 823e 725b a33e 463c 05be 1c30 a63e
00000070: 84b7 563e 5ac6 033e 00ac b63e 2a67 9bbe
00000080: 0943 543e 9067 c03e bb68 63be 208f fdbd
00000090: 319c 243d 966c dbbc 12e7 80bd 7398 913e
000000a0: 2453 84be 85cc 9d3c e47d a8be c81d fc3e
000000b0: 4ad6 6cbd 76fa 8dbe 4210 f6be bd07 efbe
000000c0: 22ba 05bf 7239 a13e 4afd fdbc a641 e73e
000000d0: 77bb 6cbd bf31 fa3d 5ab4 cf3d cce7 d1be
000000e0: 6f80 763e 605e 34be 6dfc 683e 0629 91be
000000f0: 0f42 4c3d 6ab6 d23d 3564 b1bd 3055 0f3e
00000100: aa87 0dbd 7da7 dcbc 1dc7 0cbe 7eb0 443e
00000110: 63e4 893c f5ae a93d 8797 a9bd 019a 1d3e
00000120: 59c1 afbd 13cb 623e 1a9e 3b3e f56c 45be
00000130: 001f cabd 6e99 353d bf57 083e 2564 41be
00000140: 9006 1cbe b66e 4e3e a166 b1bd e90f 37be
00000150: 8fa5 e83d 91dc 173e 5e0b 29be c678 0abe
00000160: 86ed e83d a0b3 87be b93b 67be d668 1a3c
00000170: e4c0 3cbe b990 5d3d e935 a4bc e6b2 f13d
00000180: 386b 663c 86c7 d9bb d01b c03d 13d3 0abc
00000190: 828c 49bd 14d4 d43d 2a11 443e d8ba 88bd
000001a0: 5223 50bd 4c9d 243d f907 263e eacf 1d3d
000001b0: 41c1 8f3d b6fc abbd c96a 6cbe de4e efbd
000001c0: c11e dc3d aba9 553e 74cc 32be 1f61 03be
000001d0: 6cae 69bd f16d dabd 7a44 11be 3a37 3fbd
000001e0: a37e 8ebe ee6f 9a3d 678c c53c 793a 94be
000001f0: 10de e7bd feba 84bd 4ebd 21be 11ec 823e
00000200: 7f7f b83e 7397 fcbd d462 d13e 2842 bfbe
00000210: 3bb1 a13e 48f6 ccbe e080 523d f353 6dbe
00000220: 94af f13d 5ca6 123e c59b 4d3e a0b1 a13e
00000230: 2109 84bc 2adc a8be bf57 d63d ac93 b3bd
00000240: 7bab 333e 1848 073e 7102 c7bd 58e9 db3d
00000250: 2359 213e 7549 a93e e2e4 653d 3594 b9bd
00000260: 5c98 bd3d ce89 7bbe de95 4b3e bedd 46bd
00000270: 55b9 6c3e 9309 6abe 4fbc 33be 6cdc 51be
00000280: 5618 643e 3875 4cbe ce20 053e 843b a2be
00000290: c417 45be 61dd 8e3e a727 283e 6a8e b5bd
000002a0: 3446 5abe 6bf6 893e 1985 9b3e ebaa 65be
000002b0: ad72 d13d c215 153e 74c1 38be 1e4e b9bd
000002c0: d7d1 5c3e b69f a63e 8938 3bbe f9f0 8f3e
000002d0: 412e 183b d58e cabe 5ede d83d 4b9f 163e
000002e0: f507 cb3e cc61 4a3e 0983 ac3e 8db7 b6be
000002f0: 5c98 f0bd c7d3 b73d ab2e babe 50d0 3c3e
00000300: b780 6bbe 72c3 dd3d d5ba a8be b85b 6d3e
00000310: 53b3 aabe e0b8 2ebe c5ed d33c 769c 34be
00000320: 44b2 a53e abad 2c3e cf18 45be 1455 b73d
00000330: 34c5 21be 73c5 bbbe f22c aa3e d123 9dbe
00000340: c2d6 3dbe 44d2 d6bd

model.classifier.1.bias f4 [7]
3.86138e-08 6.806108e-08 5.424915e-08 6.6438877e-10 4.7148628e-08 -1.2555344e-07 8.72336e-07
00000000: 52d8 2533 f928 9233 92ff 6833 34a0 3630
00000010: 7780 4a33 decf 06b4 792a 6a35

exp_avg f4 [30, 30]
2.1440688e-07 -3.1338536e-07 -1.2869724e-06 6.758412e-07 -6.4879083e-07 1.4452959e-06 9.610648e-07 -1.2483804e-06
-1.1262789e-07 1.4776646e-07 1.4243011e-06 1.6960266e-06 1.6099452e-06 -1.7266486e-06 -4.4122342e-07 2.2154375e-06
1.2017883e-06 1.6967457e-06 1.537793e-07 -4.7017687e-07 1.5556509e-06 2.736175e-07 -2.3116352e-06 -1.2530764e-06
2.664483e-07 5.018285e-07 6.565397e-07 1.291004e-06 3.1814727e-07 7.6353473e-07 6.782248e-07 3.9116898e-07
4.905103e-07 5.4836147e-07 -1.3898297e-07 -1.5207568e-06 -2.3268514e-07 1.206649e-06 -7.224954e-07 1.2515237e-07
1.580309e-06 2.338708e-06 3.2926422e-07 -1.2120283e-07 4.9293117e-08 -4.0010966e-07 -4.306882e-07 -6.4665613e-07
1.0071752e-06 4.993194e-07 -1.6307364e-06 6.3296363e-07 4.460552e-06 -5.7327245e-08 -1.7064728e-07 9.695513e-07
-8.289627e-08 1.8140902e-06 -2.086953e-06 -1.1843149e-07 -3.6433173e-07 1.0040158e-06 -1.2995755e-06 -2.205832e-07
-4.618456e-07 -1.5065093e-07 1.0686598e-06 -1.0477034e-06 9.700019e-07 1.7677424e-07 -5.7583196e-07 -3.0902836e-06
1.6111088e-07 -1.8891602e-07 1.5698743e-07 8.246348e-07 5.535253e-07 5.176214e-07 -5.6656404e-07 -5.1188965e-07
1.1738047e-06 -5.0392083e-07 -3.0697474e-06 1.7581411e-07 -4.852866e-07 -5.742315e-07 4.598058e-07 2.614594e-07
1.3649333e-06 9.151473e-07 8.308147e-07 -1.53086e-06 -1.1643924e-06 -1.05962705e-07 -1.0204533e-06 1.3841628e-06
6.414228e-07 -1.7143693e-06 -4.9709143e-08 5.38231e-09 8.4446805e-07 8.587251e-07 6.568969e-07 -1.067667e-06
-3.513936e-07 1.909209e-06 1.8387661e-06 1.4954097e-06 -3.5025485e-07 -9.83693e-07 1.2253253e-06 2.3374852e-07
-3.2984383e-06 -1.3184256e-06 2.1269528e-07 -3.419532e-07 5.5359834e-07 7.3238084e-08 1.2010611e-06 2.4300738e-07
-1.5261872e-06 -9.309681e-07 2.700362e-06 4.7020782e-07 1.1279585e-06 3.0675774e-06 -1.5499231e-06 2.039147e-06
-5.8989025e-07 -2.0248245e-07 -1.272214e-06 1.3532193e-06 -2.188631e-07 2.0719975e-07 7.058332e-08 9.4966447e-07
-2.9203326e-07 -1.1681142e-06 -2.8793684e-07 1.3824334e-06 -7.6790144e-07 -1.1203189e-07 1.9886445e-06 8.212878e-07
1.4699929e-06 7.301803e-07 -9.20688e-07 1.2797919e-07 -2.9838782e-06 -1.3610291e-09 -6.337273e-07 -7.5884043e-07
1.441531e-06 1.7096577e-08 6.443901e-07 1.5868998e-06 -9.3801606e-07 8.190988e-07 -3.194503e-07 -1.6976655e-07
-6.940654e-07 3.1083871e-07 -3.740577e-08 7.5443275e-08 4.94028e-08 5.505561e-07 -3.770166e-08 -6.555061e-07
-3.1716843e-07 3.8307073e-07 -6.1439727e-07 7.247138e-08 1.2132908e-06 2.5449572e-07 6.74625e-07 1.9355872e-07
-5.3454943e-07 -1.2028106e-07 -1.3396751e-06 -1.16009154e-07 -1.6025552e-06 -3.917753e-07 1.1574363e-06 3.0495906e-07
9.932346e-07 3.2010555e-06 -1.0475177e-06 7.724465e-07 -2.998251e-07 -2.8701518e-07 -1.1203186e-06 5.8953987e-07
-4.1159765e-07 -2.5547706e-07 -1.116754e-07 1.0077146e-06 -5.884666e-07 -2.3991487e-07 -4.7418663e-07 3.1345033e-07
4.7116018e-07 -7.20117e-08 -5.596087e-07 7.353321e-08 1.0559638e-06 5.3902056e-07 -4.151545e-07 -6.705723e-07
-1.4367199e-06 -6.094408e-09 2.0768377e-06 5.37571e-07 -1.531148e-06 -8.1366034e-07 -1.1484744e-06 -4.134625e-06
1.1034414e-06 -1.0609243e-06 5.931428e-07 3.1141846e-07 6.2668136e-07 -1.5683682e-06 -2.8630984e-07 8.7483284e-07
4.099731e-08 -1.6716413e-06 4.2602892e-07 2.5522942e-07 4.84556e-07 -3.8052022e-07 -4.762686e-07 -1.2739362e-07
-1.5516612e-07 2.92047e-07 -1.439339e-06 -9.968045e-07 6.4846796e-07 1.01982266e-07 2.4782316e-06 -4.3779318e-07
3.817022e-07 1.5428553e-06 -1.2205597e-06 -1.1196261e-06 -5.992967e-07 -3.6325882e-06 7.3846184e-07 -8.2594374e-07
1.2075906e-06 9.3671645e-08 -1.0486998e-06 -4.2905235e-06 -7.146909e-07 1.7246979e-06 5.536677e-07 -3.0189503e-06
00000000: b737 6634 5b3f a8b4 09bc acb5 746b 3535
00000010: 9128 2eb5 fdfb c135 effd 8035 068e a7b5
00000020: d6dd f1b3 bca9 1e34 9d2a bf35 08a3 e335
00000030: 4c15 d835 32bf e7b5 49e1 ecb4 edac 1436
00000040: 224d a135 bdbb e335 881e 2534 9e6c fcb4
00000050: c2cb d035 b4e5 9234 9721 1bb6 612f a8b5
00000060: 600c 8f34 64b5 0635 113d 3035 8f46 ad35
00000070: d4cd aa34 b5f5 4c35 410f 3635 db01 d234
00000080: 9cab 0335 1d33 1335 593b 15b4 ce1c ccb5
00000090: 01d8 79b4 25f4 a135 81f1 41b5 9f61 0634
000000a0: 011b d435 b3f2 1c36 bbc5 b034 fb23 02b4
000000b0: 5bb6 5333 a7ce d6b4 5639 e7b4 df95 2db5
000000c0: 472e 8735 f808 0635 addf dab5 eee8 2935
000000d0: daab 9536 f937 76b3 2b3b 37b4 8721 8235
000000e0: b504 b2b3 aa7b f335 940d 0cb6 6654 feb3
000000f0: 5f99 c3b4 b8c1 8635 136d aeb5 73d9 6cb4
00000100: 93f3 f7b4 9dc2 21b4 df6e 8f35 d19e 8cb5
00000110: 0331 8235 55cf 3d34 df92 1ab5 ab62 4fb6
00000120: d2fd 2c34 d7d8 4ab4 6090 2834 795c 5d35
00000130: f895 1435 acf2 0a35 fc15 18b5 ca68 09b5
00000140: 9f8b 9d35 2d45 07b5 dc01 4eb6 6ac7 3c34
00000150: a444 02b5 e324 1ab5 3adb f634 b55e 8c34
00000160: c032 b735 72a8 7535 2705 5f35 f377 cdb5
00000170: 3848 9cb5 9d8d e3b3 82f6 88b5 79c7 b935
00000180: 3d2e 2c35 4819 e6b5 c87f 55b3 4def b831
00000190: 67af 6235 2483 6635 9c55 3035 c24c 8fb5
000001a0: 2ba7 bcb4 f61f 0036 86cb f635 e3b5 c835
000001b0: a90a bcb4 6f07 84b5 db75 a435 4efc 7a34
000001c0: bd5a 5db6 c2f4 b0b5 3c61 6434 b195 b7b4
000001d0: fd9a 1435 1047 9d33 2534 a135 ae76 8234
000001e0: 65d7 ccb5 a4e7 79b5 de37 3536 df70 fc34
000001f0: 5c64 9735 94dc 4d36 f406 d0b5 47d8 0836
00000200: f358 1eb5 f469 59b4 f1c0 aab5 43a0 b535
00000210: a100 6bb4 a27a 5e34 9793 9733 72ec 7e35
00000220: bfc8 9cb4 19c8 9cb5 bd95 9ab4 0d8c b935
00000230: c921 4eb5 2f96 f0b3 a774 0536 7876 5c35
00000240: 924c c535 9c01 4435 3325 77b5 a76a 0934
00000250: a33e 48b6 f40e bbb0 691d 2ab5 1eb3 4bb5
00000260: a17a c135 c5db 9232 27fa 2c35 76fd d435
00000270: f9cb 7bb5 0ae0 5b35 ea80 abb4 1349 36b4
00000280: d04f 3ab5 59e1 a634 14a8 20b3 6103 a233
00000290: f42e 5433 edc9 1335 6aed 21b3 09f6 2fb5
000002a0: 4c47 aab4 d7a8 cd34 0fed 24b5 90a1 9b33
000002b0: 5bd8 a235 a0a1 8834 e117 3535 04d5 4f34
000002c0: f57d 0fb5 9b26 01b4 e3ce b3b5 b520 f9b3
000002d0: 6117 d7b5 3055 d2b4 3559 9b35 41b9 a334
000002e0: 484f 8535 b7d1 5636 6f98 8cb5 1f5a 4f35
000002f0: a6f7 a0b4 1117 9ab4 db5d 96b5 df40 1e35
00000300: 8df9 dcb4 8028 89b4 33d2 efb3 cf40 8735
00000310: 1ef7 1db5 a6cd 80b4 b793 feb4 4948 a834
00000320: c3f3 fc34 daa4 9ab3 0438 16b5 4fe9 9d33
00000330: a4ba 8d35 36b1 1035 66e2 deb4 6101 34b5
00000340: 52d5 c0b5 fb66 d1b1 cd5f 0b36 994d 1035
00000350: d881 cdb5 506a 5ab5 4825 9ab5 29bc 8ab6
00000360: f519 9435 1565 8eb5 7638 1f35 0731 a734
00000370: 3739 2835 b980 d2b5 20b6 99b4 0ed6 6a35
00000380: 0515 3033 285d e0b5 f8b8 e434 7706 8934
00000390: 6f12 0235 4d4a ccb4 dcb1 ffb4 b1c9 08b4
000003a0: bd9b 26b4 a2ca 9c34 502f c1b5 f1c9 85b5
000003b0: 6112 2e35 5801 db33 b24f 2636 d609 ebb4
000003c0: c0ec cc34 1b14 cf35 1dd2 a3b5 0f46 96b5
000003d0: 5bdf 20b5 64c7 73b6 b63a 4635 6cb6 5db5
000003e0: 7f14 a235 8828 c933 0dc1 8cb5 51f7 8fb6
000003f0: 2fd9 3fb5 2b7c e735 c19f 1435 2c99 4ab6

exp_avg_sq f4 [30, 30]
1.3249371e-10 3.014986e-11 5.7701316e-11 4.839678e-11 1.0919845e-10 7.328265e-11 9.223836e-11 4.2178122e-11
3.4630392e-11 3.117472e-11 1.5309287e-10 2.0629722e-10 3.1850209e-10 6.79075e-11 3.2255358e-11 2.3267971e-10
1.4195398e-10 6.681382e-11 6.2498076e-11 4.4161022e-11 9.6238614e-11 2.797698e-11 1.0309542e-10 3.2828195e-11
1.2488105e-10 2.290361e-11 3.2964777e-11 3.0050984e-10 2.1532091e-10 1.001465e-10 1.8179491e-11 3.1557836e-11
9.443302e-11 3.261064e-11 2.425176e-10 6.9559865e-11 2.944372e-11 2.1204077e-11 5.850606e-11 4.9961788e-11
3.010857e-11 6.688022e-11 1.69603e-10 5.3982156e-11 2.343129e-11 2.3576835e-10 1.9989656e-10 2.6841819e-11
2.828047e-11 1.0419618e-10 4.6644816e-11 2.0065997e-11 5.8696395e-11 3.0296873e-11 3.204327e-11 1.9791592e-11
2.1458616e-11 9.104493e-11 7.4780716e-11 7.9300726e-11 1.8296085e-11 2.6305771e-10 5.537431e-11 3.6275937e-11
4.6216725e-11 7.590503e-11 2.7005249e-11 3.6254832e-11 6.630286e-11 2.2081868e-11 7.3539196e-11 4.5895007e-10
5.960259e-11 4.244107e-10 1.5251839e-10 1.3582015e-10 5.8017924e-11 5.984075e-11 3.73159e-11 5.6250896e-11
3.312321e-11 5.791857e-11 1.362331e-10 5.3782374e-11 7.022604e-11 3.7263973e-11 3.083871e-11 5.123147e-10
2.9117045e-10 5.887234e-11 7.7530274e-11 8.93644e-11 8.600568e-11 8.299349e-11 8.680607e-11 1.3202965e-10
6.558536e-11 4.821051e-11 5.793146e-11 7.8715694e-11 1.7108415e-10 1.7790351e-10 1.464874e-10 1.00155745e-10
3.1935347e-11 2.7554561e-10 8.226911e-11 8.4434e-11 6.201519e-11 8.640831e-11 7.9956e-11 3.5741254e-11
1.2539329e-10 4.1459818e-11 2.4288105e-10 4.820296e-11 3.4244798e-11 2.6805413e-10 2.1659687e-10 1.6004739e-10
1.9278001e-10 1.9257501e-10 1.4997087e-10 4.935498e-11 2.8664837e-10 1.7845696e-10 3.4519332e-11 2.880097e-11
4.525414e-11 3.633135e-11 3.5835775e-11 1.2952166e-10 5.939781e-11 7.947581e-11 3.6979794e-11 1.4912739e-10
9.388707e-11 7.979916e-11 9.564799e-11 9.6210116e-11 1.5878387e-10 4.034807e-11 1.7104401e-10 4.0203844e-11
4.5907115e-11 3.2405856e-11 3.094294e-11 5.4177215e-11 1.1899123e-10 5.561941e-11 6.070052e-11 2.5386766e-11
3.7205027e-11 2.035913e-11 2.5550262e-11 7.1389374e-11 3.370336e-11 2.9219516e-11 4.8567584e-11 2.3105903e-11
1.265341e-10 2.1171886e-10 5.0190352e-11 2.961903e-11 1.3209388e-11 2.0407873e-10 2.6361429e-11 2.8573864e-11
5.933717e-11 2.2402937e-11 1.918806e-11 1.8813407e-11 4.1148078e-11 2.8387345e-11 1.06111786e-10 1.4589354e-11
9.425274e-12 2.0556797e-10 1.1985475e-10 5.3424706e-11 4.600898e-11 3.2592786e-11 2.2565855e-11 2.6683378e-11
3.077868e-10 2.8914758e-11 2.755596e-11 3.2721745e-11 5.628948e-11 2.9194397e-11 3.0266272e-11 6.1815005e-11
8.7103415e-11 9.438407e-11 4.184783e-11 1.0933031e-10 3.2408914e-10 3.5461946e-11 1.9549725e-11 2.9316924e-11
2.35857e-10 1.3159939e-11 8.1789533e-11 1.8186964e-11 2.778722e-11 2.0142122e-11 5.3526936e-11 9.351941e-11
5.9104555e-11 4.361761e-11 4.2151577e-11 1.6424603e-11 5.330493e-11 9.353666e-11 1.9329408e-10 8.3955946e-11
9.9476254e-11 4.0516358e-11 9.945075e-11 2.4094724e-11 1.6655015e-10 1.5025248e-10 2.1998121e-10 1.5898337e-10
7.56646e-11 3.4141207e-10 2.544272e-10 7.989293e-11 2.9924917e-11 1.973635e-11 2.0161468e-10 5.483632e-11
1.0747805e-10 3.2131072e-11 5.5839926e-11 3.4045437e-11 1.9321532e-11 2.3015508e-10 1.340092e-10 2.694786e-10
1.2945034e-10 1.3831601e-10 4.4273783e-11 1.3877961e-10 4.3397872e-11 5.5443768e-11 3.30267e-11 4.025892e-11
3.9493003e-11 3.08793e-11 5.4768485e-11 2.1225442e-10 3.9071024e-11 1.1010234e-10 4.66816e-11 3.7528695e-11
00000000: aaad 112f b999 042e e8c5 7d2e eed9 542e
00000010: 4321 f02e 7726 a12e 95d5 ca2e 5880 392e
00000020: 5b4e 182e 9d1b 092e d053 282f 81d3 622f
00000030: 2f19 af2f 8654 952e 4edc 0d2e 84d5 7f2f
00000040: 7e14 1c2f d6ec 922e 4a6f 892e e438 422e
00000050: 86a1 d32e 8f16 f62d 90b5 e22e 4361 102e
00000060: e44e 092f 5876 c92d 0afb 102e 0035 a52f
00000070: 73bf 6c2f 7839 dc2e 93e8 9f2d f7ca 0a2e
00000080: 10a9 cf2e 516c 0f2e 5153 852f b9f6 982e
00000090: ae7e 012e 5683 ba2d fca7 802e f9bb 5b2e
000000a0: 3c6b 042e 3712 932e 007b 3a2f 816a 6d2e
000000b0: 931a ce2d 729d 812f e1c9 5b2f 671a ec2d
000000c0: f5c1 f82d 3c21 e52e 6525 4d2e 9c80 b02d
000000d0: 2213 812e 3f3f 052e 84ed 0c2e b416 ae2d
000000e0: 82c0 bc2d bd35 c82e cd71 a42e 5762 ae2e
000000f0: 1fef a02d 159e 902f ee89 732e 138b 1f2e
00000100: 6843 4b2e bcea a62e 6a8a ed2d 5073 1f2e
00000110: 31cd 912e f23b c22d e3b6 a12e 7b4f fc2f
00000120: 4611 832e 7f52 e92f 1cb2 272f f955 152f
00000130: 602a 7f2e 5997 832e f81d 242e e164 772e
00000140: 6bad 112e 83ba 7e2e 35ca 152f 9289 6c2e
00000150: bf6d 9a2e 81e3 232e 4da1 072e f1d2 0c30
00000160: 9912 a02f 2e76 812e aa7d aa2e af83 c42e
00000170: e520 bd2e 2e81 b62e 79e3 be2e 0b2b 112f
00000180: 4639 902e 3508 542e 07c9 7e2e ff18 ad2e
00000190: e81b 3c2f 639b 432f 8a10 212f ac3e dc2e
000001a0: 0174 0c2e 997b 972f 64e9 b42e 1eac b92e
000001b0: 735f 882e 8e03 be2e 3ad3 af2e 1331 1d2e
000001c0: 13df 092f 9b57 362e 7886 852f b5ff 532e
000001d0: 379c 162e 445d 932f 9926 6e2f 56f9 2f2f
000001e0: c0f6 532f 0cbd 532f 0ce5 242f c410 592e
000001f0: 2c96 9d2f 2b37 442f 50d1 172e 0556 fd2d
00000200: a207 472e 77c9 1f2e 7f9b 1d2e 1b69 0e2f
00000210: ff9d 822e e7c4 ae2e 8ca3 222e a1f7 232f
00000220: b975 ce2e ef7a af2e 0855 d22e 7b91 d32e
00000230: b095 2e2f e373 312e 9c10 3c2f 81d1 302e
00000240: d1e6 492e c085 0e2e a716 082e 1f46 6e2e
00000250: 0ed5 022f e39d 742e 5b7b 852e ea4d df2d
00000260: 23a1 232e af14 b32d 13be e02d a5fc 9c2e
00000270: 9c3a 142e 4082 002e 3d9a 552e de3d cb2d
00000280: 2f20 0b2f 90c9 682f 50bd 5c2e 1044 022e
00000290: cb61 682d 0e63 602f a9e0 e72d 9f56 fb2d
000002a0: db7b 822e ee0e c52d acc7 a82d 077c a52d
000002b0: 9ef8 342e 9eb2 f92d a057 e92e 4e54 802d
000002c0: a9cf 252d 3d06 622f 1dc8 032f dff6 6a2e
000002d0: 8259 4a2e 3758 0f2e ca7d c62d a0b5 ea2d
000002e0: 2435 a92f 3f56 fe2d 8162 f22d 69e9 0f2e
000002f0: 5290 772e f865 002e cb1c 052e c1ee 872e
00000300: dd8a bf2e 828d cf2e 780c 382e 7e6b f02e
00000310: 7e2b b22f 9af6 1b2e 11f6 ab2d ecef 002e
00000320: eca9 812f 1983 672d 6adb b32e 67f9 9f2d
00000330: 426b f42d 072c b12d f969 6b2e bfa6 cd2e
00000340: e8f8 812e 10d5 3f2e 7562 392e eb78 902d
00000350: 0470 6a2e 75b0 cd2e 7287 542f ff9e b82e
00000360: 27c0 da2e 5d31 322e ccb1 da2e 7ff0 d32d
00000370: b31f 372f 5034 252f 35df 712f d7cd 2e2f
00000380: 6263 a62e 7ab1 bb2f 72df 8b2f b9af af2e
00000390: 769c 032e 4f9a ad2d 7dad 5d2f 352c 712e
000003a0: c358 ec2e 5f50 0d2e 2b96 752e c1bb 152e
000003b0: 39f4 a92d e50e 7d2f 3d58 132f be25 942f
000003c0: 0855 0e2f 7f14 182f d9b7 422e fd96 182f
000003d0: a9dd 3e2e 22d8 732e c240 112e 840f 312e
000003e0: 2bb1 2d2e 00cf 072e d5df 702e 4f60 692f
000003f0: 10d6 2b2e 1b1e f22e cf4e 4d2e 8e0d 252e

exp_avg f4 [30]
6.9600432e-12 -1.1194413e-11 -7.292766e-15 1.1683026e-11 -5.008857e-12 1.4179716e-12 3.2477764e-12 1.055767e-11
2.0572378e-12 6.911355e-12 -5.254964e-12 3.8400277e-12 -1.3202593e-11 1.1734527e-11 5.763522e-12 -3.041606e-12
-6.9902218e-12 -4.487395e-12 1.2768377e-12 4.9565636e-13 -2.5266564e-12 1.772598e-11 -7.1265147e-12 -3.5125256e-12
7.1256902e-12 4.5099757e-12 3.9396242e-12 -1.39364215e-11 1.8089792e-12 -7.546574e-12
00000000: 7fe2 f42c 27ef 44ad f25f 03a8 ac87 4d2d
00000010: c63b b0ac d08f c72b bd8a 642c 85bb 392d
00000020: e7c3 102c f42b f32c 82e4 b8ac e51b 872c
00000030: 3143 68ad 9d6f 4e2d 31c9 ca2c b408 56ac
00000040: 52f2 f5ac dce2 9dac edb2 b32b ce83 0b2b
00000050: 32cc 31ac 5ceb 9b2d f0bd faac 092c 77ac
00000060: 83b6 fa2c 40ae 9e2c fb9c 8a2c 102c 75ad
00000070: 5897 fe2b bfc2 04ad

exp_avg_sq f4 [30]
2.970777e-13 2.786043e-16 6.9679713e-12 6.8480025e-14 2.3615124e-14 2.9430484e-12 5.802955e-12 2.9426138e-14
5.9940833e-12 7.7695906e-13 2.0373714e-12 6.33108e-13 2.9467124e-13 6.556178e-13 2.6982172e-14 4.7192194e-12
1.6081743e-15 5.2725957e-12 2.1123767e-12 3.3000957e-12 3.775028e-13 1.5384846e-13 5.5388815e-13 1.3267732e-12
6.909977e-14 8.016655e-15 3.5439115e-12 3.0455068e-13 2.8178334e-12 1.8408562e-12
00000000: 693d a72a bd9a a025 e829 f52c 0c34 9a29
00000010: c5b4 d428 3f19 4f2c 5f2c cc2c 0786 0429
00000020: e7e5 d22c cdb1 5a2b 055e 0f2c 3d34 322b
00000030: 9ae2 a52a 3e8a 382b a708 f328 f30a a62c
00000040: 29c3 e726 5283 b92c 32a5 142c 3d39 682c
00000050: e383 d42a cd37 2d2a d9e7 1b2b 0bba ba2b
00000060: 4e99 9b29 4c6a 1028 6f61 792c 6172 ab2a
00000070: 9349 462c eb89 012c

exp_avg f4 [7, 30]
-3.2456153e-06 -1.5404622e-06 1.4871067e-07 -4.0533386e-08 1.1221309e-06 1.8969498e-06 9.540421e-07 -1.2153905e-06
1.6644876e-06 -2.8498874e-07 1.3174149e-07 -2.5780335e-07 4.238148e-06 -1.2738955e-06 -1.5390585e-06 7.88896e-07
7.135921e-07 9.59214e-07 1.0182017e-06 4.0570114e-07 -9.994356e-08 -2.055896e-06 1.1018316e-06 2.8055504e-06
-7.777937e-07 -3.0812348e-06 7.7870806e-07 -7.98357e-07 -9.79353e-07 1.6469934e-06 8.552137e-07 2.2000975e-06
3.4896314e-06 -5.3553263e-06 -1.954586e-06 -2.7357135e-06 -1.3918677e-06 8.6062227e-07 3.961346e-07 -2.7591882e-06
6.8554923e-06 -6.532013e-06 3.2974608e-06 -4.659686e-06 1.2607806e-06 -1.4832415e-07 3.0737572e-06 1.8653426e-06
-1.9730123e-06 5.872311e-06 3.2735477e-06 -4.348674e-06 2.2030738e-06 -9.732686e-07 3.0756207e-06 3.619202e-06
-9.7044556e-08 6.837425e-06 2.5229895e-06 7.211193e-06 5.1739687e-07 -1.3780327e-06 -4.7264088e-08 -6.702328e-07
6.4553205e-06 -2.4068535e-07 2.3298483e-06 1.3758847e-07 -1.4887222e-06 -1.5256787e-06 1.5035649e-06 8.1879546e-07
1.5612351e-06 -5.3942966e-07 -1.926201e-07 -2.2214265e-07 -8.214812e-07 -6.147202e-07 1.6520252e-06 -7.092784e-07
3.6567278e-06 1.2024591e-06 -9.590602e-07 -2.0934838e-06 -6.3593797e-07 3.6283114e-07 8.673007e-07 2.5659057e-07
-9.209569e-07 -2.095537e-06 8.7937775e-07 4.345634e-07 1.6010407e-06 5.8090416e-07 -4.045304e-07 -2.1893048e-07
-5.692371e-07 -3.9367436e-07 -3.5570815e-07 3.1720947e-07 -1.0086866e-07 1.6423841e-07 2.1152978e-06 2.4282062e-06
1.4048926e-06 -5.022954e-07 -1.4394291e-09 8.5937245e-07 -9.0632545e-07 -2.696457e-07 3.0387596e-07 1.2391189e-06
5.961781e-07 8.000266e-07 1.7069716e-06 5.1071333e-07 -2.8859438e-07 4.7352137e-07 8.1826767e-07 -6.693898e-08
5.4067596e-06 -1.655078e-06 7.3027963e-06 -2.3867099e-06 -1.6352567e-06 -4.2758966e-06 -9.758259e-09 -5.2407296e-07
-7.2419573e-07 -9.5774e-08 3.9338047e-06 -6.432712e-06 -8.3855565e-07 6.4898103e-07 3.794747e-07 -2.0741081e-06
-2.3205043e-06 -2.3180378e-06 -6.0776683e-06 8.17351e-06 6.567872e-06 1.0828558e-06 1.745898e-07 -1.5851438e-06
5.247773e-06 6.478367e-07 3.440169e-06 5.4975535e-06 4.3343834e-06 5.166451e-06 1.0043336e-06 5.2178626e-07
-9.188858e-07 2.3063901e-06 1.9158374e-06 1.6315367e-07 -3.458625e-07 1.5816144e-06 -4.6947676e-07 5.453302e-07
-1.8147923e-06 3.0245199e-06 -1.4108239e-06 3.7061855e-06 1.8828415e-06 -1.633356e-06 -2.1597632e-06 3.602734e-08
1.7456231e-06 -3.3987835e-06 -9.916399e-07 3.871697e-06 -1.4130601e-06 -2.1370702e-06 8.151691e-07 1.3269494e-06
-1.4596286e-06 -1.7294726e-06 1.1263687e-06 -4.5768925e-06 -8.4903536e-07 -2.5653874e-06 1.0413279e-06 6.5469635e-07
3.1299505e-06 1.2478303e-06 1.4886771e-06 -1.4386576e-06 5.9900833e-07 3.5431654e-07 -1.5081214e-06 5.629072e-07
6.231063e-07 8.261774e-07 -1.5083708e-06 3.9040543e-07 -2.5524616e-06 6.9191407e-07 9.67203e-07 -1.320548e-06
2.4800881e-06 9.604119e-07 -1.1560554e-06 4.801012e-08 6.1655356e-07 -1.735648e-06 1.6467595e-06 -2.4937958e-06
-4.1401987e-07 -2.4994694e-07
00000000: 3fcf 59b6 e1c1 ceb5 47ad 1f34 ee16 2eb3
00000010: 209c 9635 b39a fe35 a30c 8035 8020 a3b5
00000020: 5c67 df35 8e00 99b4 d374 0d34 3968 8ab4
00000030: 6a35 8e36 b7fa aab5 a691 ceb5 85c4 5335
00000040: ad8d 3f35 58be 8035 25a9 8835 24cf d934
00000050: 8ea0 d6b3 06f8 09b6 a5e2 9335 fd46 3c36
00000060: 93c9 50b5 36c7 4eb6 6908 5135 ad4e 56b5
00000070: 5072 83b5 430e dd35 d791 6535 63a5 1336
00000080: 692f 6a36 e7b1 b3b6 882b 03b6 3397 37b6
00000090: 36d0 bab5 8305 6735 53ac d434 7e2a 39b6
000000a0: 3b08 e636 902d dbb6 f249 5d36 665a 9cb6
000000b0: 1738 a935 0843 1fb4 bf46 4e36 af5c fa35
000000c0: 1868 04b6 c40a c536 1faf 5b36 d3ea 91b6
000000d0: 85d8 1336 41a1 82b5 c366 4e36 6be1 7236
000000e0: cf66 d0b3 096d e536 a150 2936 adf7 f136
000000f0: 3ee3 0a35 d8f4 b8b5 6aff 4ab3 0cea 33b5
00000100: c89a d836 8b37 81b4 7d5a 1c36 08bc 1334
00000110: 1bd0 c7b5 ecc5 ccb5 19ce c935 32cb 5b35
00000120: a18b d135 53cd 10b5 03d3 4eb4 1b86 6eb4
00000130: c283 5cb5 4003 25b5 27bb dd35 3e65 3eb5
00000140: 1b66 7536 2e64 a135 0fb9 80b5 c77d 0cb6
00000150: 53b5 2ab5 22cb c234 73d0 6835 8ac1 8934
00000160: ad37 77b5 0da1 0cb6 610e 6c35 f04d e934
00000170: 57e3 d635 6eef 1b35 3c2e d9b4 2713 6bb4
00000180: adcd 18b5 315a d3b4 28f8 beb4 f04c aa34
00000190: 229d d8b3 8359 3034 8af4 0d36 44f4 2236
000001a0: be8f bc35 7ad5 06b5 69d5 c5b0 a0af 6635
000001b0: 364a 73b5 d3c3 90b4 6524 a334 cd4f a635
000001c0: 0c09 2035 69c1 5635 191b e535 f417 0935
000001d0: 1cf0 9ab4 4838 fe34 eda6 5b35 18c0 8fb3
000001e0: b66b b536 0c24 deb5 8b0a f536 5d2b 20b6
000001f0: fe7a dbb5 ac79 8fb6 47a5 27b2 05ae 0cb5
00000200: 5a66 42b5 50ac cdb3 20ff 8336 93d8 d7b6
00000210: 1b19 61b5 a335 2e35 9bba cb34 e830 0bb6
00000220: f6b9 1bb6 968f 1bb6 c6ee cbb6 f520 0937
00000230: 9761 dc36 a456 9135 e176 3b34 20c1 d4b5
00000240: 0716 b036 00e7 2d35 a7dd 6636 a077 b836
00000250: 1270 9136 7a5b ad36 a4cc 8635 e110 0c35
00000260: 5aa9 76b5 7bc7 1a36 d691 0036 572f 2f34
00000270: fbae b9b4 db47 d435 650c fcb4 ce62 1235
00000280: ca93 f3b5 dbf8 4a36 8a5b bdb5 c8b7 7836
00000290: f1b5 fc35 af39 dbb5 73f0 10b6 7bbc 1a33
000002a0: 274b ea35 a816 64b6 7d18 85b5 a0e9 8136
000002b0: 60a8 bdb5 966a 0fb6 fed1 5a35 a219 b235
000002c0: 75e8 c3b5 3a20 e8b5 bc2d 9735 3593 99b6
000002d0: 44e9 63b5 0529 2cb6 c1c3 8b35 64be 2f35
000002e0: 240c 5236 1f7b a735 8ece c735 e617 c1b5
000002f0: 8acb 2035 e538 be34 a86a cab5 b01a 1735
00000300: 8a43 2735 7bc6 5d35 3a73 cab5 ea98 d134
00000310: f54a 2bb6 f9bb 3935 d8d0 8135 af3d b1b5
00000320: 976f 2636 80e7 8035 c329 9bb5 af33 4e33
00000330: 3d81 2535 69f4 e8b5 3a06 dd35 165b 27b6
00000340: 7546 deb4 7230 86b4

exp_avg_sq f4 [7, 30]
3.7127854e-10 1.109968e-09 8.4086144e-10 4.902802e-10 1.0622503e-09 4.2672152e-10 7.3214856e-10 4.2214102e-10
8.19797e-11 1.0949391e-09 3.9854292e-10 3.51023e-10 2.1678241e-09 5.113211e-10 1.0227397e-09 7.8177895e-11
5.2904316e-11 3.36331e-10 7.146545e-11 4.0856294e-11 2.8441566e-10 1.1742445e-09 1.3166405e-10 4.2740034e-10
1.7161906e-09 2.4550393e-09 4.6762833e-11 4.4577447e-10 9.748871e-10 1.8987978e-10 4.113153e-10 6.5392197e-10
1.553686e-10 2.9382402e-10 8.170008e-10 2.3816032e-10 6.0387767e-10 5.842057e-10 1.4646988e-10 4.9325594e-10
5.8025384e-10 2.978725e-10 7.216081e-10 9.956087e-10 6.701755e-10 6.764552e-10 6.694329e-10 3.5732772e-10
4.734685e-10 1.7542828e-10 4.2224513e-10 8.2334994e-10 4.2462722e-10 2.8827288e-10 8.4757024e-10 1.0567638e-09
4.0412365e-10 5.9299604e-10 5.478612e-10 3.267639e-10 1.8397216e-10 1.1823325e-09 1.7237296e-10 4.18954e-10
3.3553282e-09 7.560938e-11 1.2534495e-09 1.8620014e-10 2.0366181e-10 3.7329242e-10 5.320466e-10 1.052177e-09
6.4800376e-10 6.6211675e-11 1.8487456e-09 3.3124467e-10 6.751634e-10 7.1506884e-10 9.082424e-10 2.66351e-09
1.7499916e-09 2.5111146e-09 1.7286428e-10 1.4963515e-09 8.570107e-10 7.82234e-10 5.594965e-11 1.8897022e-09
3.1464029e-10 2.5227551e-09 3.17834e-10 1.3350988e-10 8.272924e-10 1.179015e-10 1.68429e-10 1.01164105e-10
1.08855015e-10 2.4669802e-09 3.5700845e-11 3.7398848e-11 1.12764735e-10 4.831911e-10 2.3572961e-09 4.1122875e-10
3.6469303e-10 7.4300877e-10 2.3396993e-10 1.3426045e-10 1.0232486e-10 1.2669327e-11 4.361762e-10 2.1498447e-09
3.713111e-10 9.295553e-10 2.8360956e-09 1.4389984e-10 3.7648603e-11 3.3318667e-11 2.4214407e-11 6.6211564e-11
6.925241e-10 1.4584411e-10 2.0767173e-10 2.1354447e-10 2.9028552e-10 5.5885737e-11 2.4497457e-10 4.3224727e-10
6.552484e-10 1.2546329e-10 8.467622e-10 9.06401e-10 1.2614292e-09 8.271657e-10 1.5905312e-10 3.837552e-10
7.6402044e-11 7.750797e-10 7.499266e-10 5.4902827e-10 3.0223501e-10 2.4408114e-10 4.7061643e-11 7.1391115e-11
4.97905e-10 1.8807944e-10 5.7362587e-10 2.436763e-10 1.6279976e-10 4.590244e-10 1.2749536e-10 1.9842115e-10
4.4766933e-11 8.901987e-10 2.1283086e-09 3.2083766e-11 4.5308957e-10 1.4539671e-10 9.3734194e-11 1.3334333e-09
2.5353764e-10 2.2920713e-10 3.3284772e-10 4.852037e-10 3.4312178e-10 5.198855e-10 1.6210584e-10 5.905233e-10
9.806683e-11 3.2110178e-10 6.485117e-10 8.334095e-10 1.0179861e-10 4.6191353e-11 2.1357789e-10 1.3863571e-10
1.9610905e-10 5.4054594e-10 7.433424e-11 1.0259782e-09 1.2909784e-10 4.3783882e-10 3.82962e-11 1.4365563e-10
8.6048846e-10 5.2661823e-11 3.0009428e-10 3.525893e-10 1.26351e-10 8.3245404e-11 1.3393383e-09 1.4360595e-10
9.89684e-10 1.6882935e-10 3.834718e-10 1.5731856e-10 4.4996515e-10 1.716018e-09 5.939297e-11 8.497019e-11
2.2654287e-10 1.6476091e-10 4.8721603e-11 2.837371e-11 3.2005043e-10 5.029417e-10 1.6223356e-10 3.8020806e-10
1.0504999e-10 2.8580785e-10
00000000: cf1c cc2f 878d 9830 5d22 6730 67c4 0630
00000010: 9cfe 9130 b797 ea2f 6040 4930 1113 e82f
00000020: 7846 b42e bf7c 9630 ee19 db2f 18fa c02f
00000030: c4f8 1431 068d 0c30 7490 8c30 3eea ab2e
00000040: f7ac 682e 61e6 b82f 7927 9d2e 19b0 332e
00000050: f25b 9c2f 0e63 a130 23c4 102f 40f7 ea2f
00000060: 17df eb30 82b5 2831 45aa 4d2e 2e11 f52f
00000070: cafc 8530 68c6 502f 7b1f e22f abbf 3330
00000080: 60d4 2a2f 0e88 a12f 5293 6030 16ee 822f
00000090: 1dfe 2530 d295 2030 9b0b 212f cd95 0730
000000a0: bc7f 1f30 d4c1 a32f a85a 4630 ded5 8830
000000b0: 6937 3830 4ef1 3930 2703 3830 6871 c42f
000000c0: 6225 0230 ace2 402f b821 e82f 1a52 6230
000000d0: f870 e92f cd7a 9e2f 74fa 6830 923d 9130
000000e0: 592b de2f 6300 2330 4e98 1630 eea3 b32f
000000f0: 8f47 4a2f a07f a230 ad86 3d2f 8952 e62f
00000100: 8f93 6631 4c44 a62e d545 ac30 aeba 4c2f
00000110: b4ed 5f2f 3d38 cd2f 733f 1230 309c 9030
00000120: 361f 3230 dc99 912e f416 fe30 8b1a b62f
00000130: 6796 3930 7f8e 4430 e1a7 7930 f708 3731
00000140: 5b84 f030 ff8f 2c31 f810 3e2f 30a8 cd30
00000150: c492 6b30 d304 5730 b511 762e fedb 0131
00000160: aff9 ac2f c75c 2d31 29bb ae2f b1cb 122f
00000170: 8767 6330 52a2 012f 8d30 392f 5476 de2e
00000180: ed5f ef2e 9387 2931 9403 1d2e 5c7b 242e
00000190: e7f8 f72e 8dd1 0430 fefd 2131 4d13 e22f
000001a0: fb7d c82f 983c 4c30 57a0 802f f59e 132f
000001b0: c603 e12e 94e1 5e2d 58ca ef2f 78bc 1331
000001c0: 6421 cc2f a483 7f30 1fe5 4231 3438 1e2f
000001d0: 8f94 252e 7c89 122e fffd d42d cc99 912e
000001e0: 0d5c 3e30 785b 202f 6556 642f 6dcb 6a2f
000001f0: 0e96 9f2f bfc9 752e 1bad 862f 65a1 ed2f
00000200: 021d 3430 c7f2 092f 98c1 6830 4d26 7930
00000210: 985e ad30 9d5e 6330 79e1 2e2f bef8 d22f
00000220: 8702 a82e 630d 5530 6523 4e30 6eea 1630
00000230: cc27 a62f 5e2f 862f b3fa 4e2e a0fd 9c2e
00000240: f3dc 0830 a8cb 4e2f 55ad 1d30 64f6 852f
00000250: 0f00 332f f159 fc2f c12e 0c2f 972a 5a2f
00000260: 16e3 442e 2ab2 7430 9a41 1231 1c1b 0d2e
00000270: b016 f92f 89dd 1f2f a91f ce2e 0344 b730
00000280: 4062 8b2f 1204 7c2f 27fc b62f 2d5f 0530
00000290: 19a2 bc2f b1e7 0e30 bd3c 322f 6252 2230
000002a0: b8a6 d72e 0f87 b02f f442 3230 fb15 6530
000002b0: 86db df2e d726 4b2e d5d4 6a2f 7c6e 182f
000002c0: ca9f 572f 8a95 1430 7576 a32e 6602 8d30
000002d0: d0f1 0d2f 56b4 f02f b06d 282e 77f3 1d2f
000002e0: 7e87 6c30 f19b 672e 84fa a42f 88d6 c12f
000002f0: a5ec 0a2f ff0e b72e c713 b830 7be5 1d2f
00000300: 6905 8830 3da1 392f dcd0 d22f 3df9 2c2f
00000310: f75e f72f 04d9 eb30 459b 822e f7d9 ba2e
00000320: 2616 792f 1328 352f a647 562e ea93 f92d
00000330: 18f3 af2f 603f 0a30 b060 322f 8705 d12f
00000340: e301 e72e e11f 9d2f

exp_avg f4 [7]
-2.2643389e-11 8.182254e-12 1.2782351e-11 -1.729733e-11 1.771467e-11 5.5307896e-13 1.4109355e-11
00000000: 612c c7ad 99f1 0f2d 97de 602d 2026 98ad
00000010: e4d1 9b2d 8aad 1b2b e336 782d

exp_avg_sq f4 [7]
4.3901605e-12 2.5361807e-12 3.2648172e-12 1.787865e-12 6.195726e-15 4.3193305e-12 6.691364e-16
00000000: 0d77 9a2c c577 322c b8bd 652c a09e fb2b
00000010: 7c39 df27 12f9 972c 8ddd 4026
