tutorial/Mouse_cerebellum_output/version_0/checkpoints/mlp.ckpt (torch, 18229 bytes, 12 tensors)

model.classifier.0.weight f4 [30, 30]
0	0x3d2d0d6a	0.04224912
1	0xbd77c075	-0.060486276
2	0xbd871f4b	-0.065977655
3	0xbcefa0e9	-0.029251533
4	0x3deda0c1	0.11602927
5	0xbdfc646d	-0.12323842
6	0xbb998138	-0.0046845935
7	0xbe54de94	-0.20788032
8	0xbcfab421	-0.03060347
9	0x3d04a427	0.03238311
10	0x3aaaa010	0.0013017673
11	0x3dfae90c	0.122514814
12	0x3cea1bbf	0.028577683
13	0xbddce498	-0.10785788
14	0xbdabdada	-0.08391352
15	0xbe18bbed	-0.14915438
16	0x3db6a2ba	0.089177564
17	0x3e0006bb	0.12502567
18	0xba9c92b3	-0.0011945575
19	0xbc3dfb68	-0.011595584
20	0x3e4c6213	0.19959287
21	0xbd6fbd32	-0.05853004
22	0xbd339d44	-0.043851152
23	0x3d9728a9	0.07380802
24	0x3d80f4b3	0.06296673
25	0xbca9cbe9	-0.020727115
26	0xbc188534	-0.009309102
27	0xbbaabbf1	-0.0052103926
28	0x3d6939c4	0.056939855
29	0x3c64c838	0.0139637515
30	0xbd24f2c9	-0.0402706
31	0xbddfe312	-0.10931982
32	0xbcb853a6	-0.022500824
33	0x3e08f002	0.13372806
34	0x3d021836	0.03176137
35	0xbdb5dc06	-0.08879857
36	0xbc98466a	-0.018588264
37	0xbdd7ed0a	-0.105432585
38	0xbd7179e3	-0.05895413
39	0xbc82d1c8	-0.015969172
40	0xbe25a0cc	-0.1617462
41	0x3dd4a0cd	0.10382233
42	0x3e14fa00	0.14548492
43	0xbde17899	-0.1100933
44	0xbe249892	-0.16073826
45	0xbdcbfe20	-0.0996058
46	0x3d3f7aa7	0.04674783
47	0xbd3a8639	-0.04553816
48	0xbd4ac17b	-0.049500924
49	0x3dfb1000	0.12258911
50	0x3e4a2a4e	0.197427
51	0xbdb8bb45	-0.09020094
52	0xbd05f7e8	-0.032707125
53	0x3dc76015	0.09735123
54	0xbbf5425a	-0.0074847164
55	0x3c921f90	0.017837316
56	0xbe028dbc	-0.1274938
57	0x3dbf41e0	0.093387365
58	0x3e058a45	0.13041027
59	0x3d85ac2c	0.0652698
60	0x3e2e0f75	0.16998084
61	0xbbb9c7c6	-0.005669567
62	0xbde549bd	-0.11195705
63	0xbe6320ef	-0.22180532
64	0x3d06ae6c	0.032881185
65	0xbdb2e9ca	-0.08735998
66	0xbc6947bf	-0.014238297
67	0xbd5a9da9	-0.053373013
68	0xbd178f6f	-0.037002023
69	0x3df7a83d	0.12092636
70	0x3da89725	0.082319535
71	0x3d460bec	0.048351213
72	0xbdd46938	-0.103716314
73	0xbd35b314	-0.044360235
74	0x3dd5e5f0	0.10444248
75	0xbe0bc62a	-0.13649812
76	0x3d19c455	0.037540752
77	0x3e115fd5	0.14196713
78	0x3a566558	0.00081785535
79	0xbdf9a131	-0.12188948
80	0x3de2af92	0.11068644
81	0x3d9886ef	0.074476115
82	0x3a284fd0	0.00064205844
83	0x3cac937a	0.021066416
84	0x3e2b05e5	0.16701467
85	0xbc9cb434	-0.019128896
86	0x3dbe1b9e	0.09282611
87	0x3cd8e6e6	0.026477288
88	0xbd8a7beb	-0.06761917
89	0xbd85c92c	-0.06532511
90	0xbd5d08b7	-0.05396339
91	0x3d353fb2	0.044250198
92	0xbd522c28	-0.051311642
93	0x3c902b3b	0.017598739
94	0xbd8c7ed5	-0.06860129
95	0x3bc98b74	0.0061506573
96	0xbb9a218e	-0.004703707
97	0x3e3bef29	0.18352951
98	0xbdb5633d	-0.08856819
99	0xbdc3b462	-0.0955589
100	0xbdcb0f22	-0.09914996
101	0xbcff5396	-0.031167787
102	0xbd48aeda	-0.048994876
103	0x3d0d8632	0.034551807
104	0xbd255233	-0.040361594
105	0x3d78264d	0.0605834
106	0xbda3923b	-0.079868756
107	0xbe42d0a9	-0.1902491
108	0xbdeb5117	-0.11490076
109	0x3dde979e	0.108687624
110	0xbd9b6b8f	-0.075888745
111	0x3d136e78	0.035994023
112	0xbdd066ea	-0.10175879
113	0x3d573540	0.052541018
114	0x3cf48a31	0.029851051
115	0x3c64101a	0.013919855
116	0xbddc21ae	-0.107486114
117	0x3d9e6a42	0.07735111
118	0x3dbc7514	0.092020184
119	0xbb8bc798	-0.004265737
120	0x3dc94d3e	0.09829186
121	0xbd80b115	-0.06283776
122	0x3daecd5b	0.08535262
123	0x3af388c8	0.0018580193
124	0xbe44f994	-0.19235831
125	0x3e05b78d	0.130583
126	0xbcf444fc	-0.02981805
127	0x3e3df879	0.18551816
128	0x3d80958a	0.06278522
129	0x3e1aa06d	0.1510026
130	0xbd198d3f	-0.03748822
131	0xbdd3c762	-0.10340764
132	0x3dac9f4c	0.08428821
133	0x3d4f0b06	0.050547622
134	0x3e457d19	0.19286002
135	0x3d360fec	0.044448778
136	0xbd607941	-0.054803137
137	0xbd2ab0e6	-0.04167261
138	0x3d97e904	0.07417491
139	0xbd832e26	-0.064052865
140	0xbd6d3ab5	-0.057917316
141	0x3dbffabd	0.093739964
142	0x3e5f865d	0.218286
143	0xbde8085b	-0.11329719
144	0xbcec81e5	-0.028870532
145	0x3d539f27	0.05166545
146	0x3d99f83d	0.07518051
147	0x3de7c326	0.113165185
148	0xbe32bb22	-0.17454198
149	0xbc82ead5	-0.015981117
150	0xbc2293a2	-0.009922894
151	0xbc8e5c7a	-0.01737808
152	0x3dca0494	0.098641545
153	0x3da1f17b	0.07907387
154	0xbdfa4d9c	-0.12221834
155	0x3df5ed50	0.120081544
156	0xbc05ad76	-0.008159032
157	0x3e09e4d2	0.13466194
158	0x3d74982c	0.059715435
159	0x3d1cca35	0.038278777
160	0xbd09a03c	-0.033600077
161	0xbdb9c1c5	-0.09070162
162	0x3d8ddbcd	0.06926689
163	0x3d793c18	0.060848325
164	0x3da607f8	0.08106989
165	0x3dc292de	0.09500669
166	0xbd58ef89	-0.052962814
167	0xbd97c677	-0.07410901
168	0x3d44d9af	0.04805916
169	0xbab791c1	-0.001400523
170	0xbdd85c21	-0.10564447
171	0x3cf08f02	0.029365066
172	0x3dfff49c	0.124978274
173	0xbdad943a	-0.084755376
174	0xbdb456d8	-0.08805627
175	0x3d0abf2f	0.033873733
176	0x3ca44059	0.020050215
177	0x3d1af33d	0.037829626
178	0xbdb08e33	-0.08620872
179	0x3c127566	0.008939123
180	0x3dda2812	0.10652174
181	0xbe3c49b0	-0.18387485
182	0x3d15eb8e	0.036601596
183	0x3d9956c2	0.07487251
184	0xbdafb6fb	-0.08579823
185	0xbbefbb2d	-0.0073160143
186	0xbd37590d	-0.04476266
187	0xbd533ce0	-0.051571727
188	0x3c989f14	0.018630542
189	0x3e381323	0.1797605
190	0xbe04f258	-0.12983072
191	0x3d59b2bb	0.053148966
192	0x3e566868	0.20938265
193	0xbdce2438	-0.10065502
194	0x3d0e92a9	0.034807835
195	0xbe016189	-0.12634863
196	0x3d4b5ecf	0.049650963
197	0x3d23fc67	0.04003563
198	0x3d7a1a78	0.0610604
199	0xbbfc36d7	-0.007696967
200	0x3e5d5326	0.2161375
201	0xbc5106c9	-0.012757965
202	0x3e3fcb62	0.18729928
203	0xbc0b4c3c	-0.008502062
204	0xba7b3883	-0.0009583311
205	0x3d3c80ce	0.046021275
206	0x3b4ad4b5	0.0030949537
207	0x3e24d650	0.16097379
208	0xbd8945ba	-0.067027524
209	0x3d18ec57	0.037334766
210	0x3e36841f	0.17823838
211	0xbcc7c6ba	-0.024386752
212	0xbd862c2a	-0.065513924
213	0xbe30a893	-0.17251806
214	0xbe4cd618	-0.20003545
215	0x3d202c4e	0.039104752
216	0xbd3365de	-0.04379832
217	0x3e8ed9a9	0.27900437
218	0xbd6e723c	-0.05821441
219	0x3e182339	0.14857186
220	0xbd71f078	-0.05906722
221	0xbd996a8c	-0.07491025
222	0xbd45e5d6	-0.04831489
223	0x3d00a209	0.03140453
224	0x3e5d20f2	0.21594599
225	0xbcd919c8	-0.026501551
226	0xbda8a558	-0.08234662
227	0xbdb4ec77	-0.088341646
228	0xbd1be209	-0.03805736
229	0xbd65aecf	-0.056074914
230	0xbc4c4bf9	-0.012469285
231	0x3e362eeb	0.17791335
232	0x3dd59502	0.104288116
233	0xbced8401	-0.028993608
234	0x3e1431ad	0.14472075
235	0x3d2ef5a0	0.042714715
236	0x3d26eb95	0.040752012
237	0x3e453c70	0.19261336
238	0xbdfb5f10	-0.12273991
239	0xbd8a6b7d	-0.06758783
240	0x3e2363bd	0.15956016
241	0xbdadc3bd	-0.084846
242	0xbdc2f056	-0.09518497
243	0xbe0ca61f	-0.13735245
244	0x3d70a50f	0.058751162
245	0xbdf7c45a	-0.12097998
246	0xbcc46d3b	-0.023977866
247	0xbe21c708	-0.1579858
248	0xbd09c857	-0.033638325
249	0x3e166f36	0.14690861
250	0x3c9ef7ff	0.019405363
251	0x3de06a7f	0.109578125
252	0x3c0295bf	0.007970273
253	0xbde42175	-0.11139194
254	0x3d0d6d8c	0.0345283
255	0xbe4d4521	-0.20045902

model.classifier.0.bias f4 [30]
0	0xb5de80eb	-1.6577809e-06
1	0xb435394a	-1.687778e-07
2	0xb5a34649	-1.2164902e-06
3	0x35e39fbc	1.6959307e-06
4	0xb4710aa4	-2.2448745e-07
5	0xb4c1f731	-3.6128907e-07
6	0xb534f19c	-6.7406813e-07
7	0xb38ffd90	-6.705079e-08
8	0xb487555c	-2.5207817e-07
9	0x36056c71	1.9881666e-06
10	0xb465bdc2	-2.139632e-07
11	0x3570c5e6	8.969495e-07
12	0x358cc153	1.0487078e-06
13	0x352fa5d7	6.543391e-07
14	0x358ae81c	1.0349354e-06
15	0x357c1ce0	9.3919334e-07
16	0x3516262b	5.5934896e-07
17	0xb50c0ae1	-5.2169895e-07
18	0xb4903860	-2.6863108e-07
19	0x353c34da	7.0112367e-07
20	0x34969879	2.8050616e-07
21	0xb3ba7928	-8.683338e-08
22	0x33cb1334	9.456417e-08
23	0x344bfaa5	1.8997032e-07
24	0xb5377bc3	-6.835291e-07
25	0x35664d67	8.579431e-07
26	0xb430b22b	-1.6456094e-07
27	0xb4eee7e6	-4.4499683e-07
28	0x34cd4fb5	3.824222e-07
29	0x350a7f5f	5.1594355e-07

model.classifier.1.weight f4 [5, 30]
0	0xbddd5dc7	-0.10808902
1	0x3dd03386	0.10166077
2	0xbed16e26	-0.4090435
3	0x3db89b8c	0.09014043
4	0xbe2477e3	-0.16061358
5	0x3d951af5	0.07280532
6	0xbe317a07	-0.17331706
7	0xbece264a	-0.40263587
8	0xbeba6556	-0.36405438
9	0xbe38f432	-0.18061903
10	0xbe434b9c	-0.19071811
11	0xbe8daf03	-0.27672586
12	0xbd8ac6d2	-0.06776203
13	0xbddbd06c	-0.10733113
14	0xbe078764	-0.13235241
15	0xbe319d4a	-0.17345157
16	0xbc38716d	-0.011257512
17	0xbe469dee	-0.19396183
18	0xbe292cb4	-0.16520959
19	0x3e0fc18d	0.14038678
20	0xbe05aa90	-0.13053346
21	0xbeb5c9d0	-0.35505533
22	0xbe9725b0	-0.2952094
23	0x3e04904c	0.1294567
24	0x3ec158ed	0.37763157
25	0xbe865658	-0.2623775
26	0xbe8e0e1e	-0.27745146
27	0x3dcc590c	0.09977922
28	0xbe876862	-0.26446825
29	0x3df9f30d	0.122045614
30	0xbecf81b3	-0.4052864
31	0xbe9ffa75	-0.3124577
32	0xbd9250b8	-0.07144302
33	0x3e8541ca	0.26026756
34	0x3eb03556	0.34415692
35	0x3e8311ff	0.25599667
36	0xbe318547	-0.17335998
37	0x3eeb6310	0.45974016
38	0xbe9ce3fd	-0.3064269
39	0x3ee5c20b	0.44874606
40	0x3f0066e8	0.5015702
41	0x3ed16868	0.40899968
42	0x3e7b8eb2	0.24566153
43	0xbe06884d	-0.13137932
44	0x3ee38e99	0.4444473
45	0x3e9f4361	0.31106094
46	0x3eec785d	0.4618558
47	0xbe164277	-0.14673792
48	0x3cd0c08b	0.025482437
49	0x3e3a755a	0.18208829
50	0x3ed6358e	0.41837734
51	0xbe9925e7	-0.2991173
52	0x3dcf27f0	0.10115039
53	0x3ebbd2e8	0.36684346
54	0xbebedbcf	-0.37277076
55	0x3e171def	0.14757513
56	0xbe1797a9	-0.14803948
57	0x3dd413fc	0.10355374
58	0xbea66137	-0.32496044
59	0xbeae5f57	-0.34057114
60	0x3d9a1351	0.075232156
61	0xbe8839be	-0.26606554
62	0x3e90c74e	0.28277057
63	0xbe370ac2	-0.17875198
64	0xbdbbc7d7	-0.09168976
65	0xbe03c734	-0.12868959
66	0xbe438c22	-0.19096425
67	0xbc75478f	-0.014970674
68	0x3e2f3d96	0.17113337
69	0xbd8a132e	-0.067419395
70	0xbda6ef8f	-0.08151161
71	0x3e007950	0.12546277
72	0x3e88e596	0.2673766
73	0x3eb99e77	0.36253712
74	0xbc98486e	-0.018589225
75	0x3e010938	0.12601173
76	0xbeabf7ae	-0.33587402
77	0x3d1c2b0e	0.038126998
78	0x3e3f8def	0.18706487
79	0x3cb34c6a	0.021887023
80	0x3da75a70	0.081715465
81	0x3e1d8f7d	0.15386768
82	0x3de971fe	0.113986954
83	0xbddce8cc	-0.1078659
84	0xbe62bfe2	-0.2214351
85	0x3e8f824a	0.2802909
86	0x3ea4a8eb	0.32160124
87	0xbeb392fe	-0.35073084
88	0x3ea55418	0.3229072
89	0x3e797965	0.24362715
90	0x3bcb060e	0.00619579
91	0x3d03d709	0.032187495
92	0x3cf9ac08	0.030477539
93	0xbe59d324	-0.2127195
94	0x3ebdfcb2	0.37106854
95	0x3e4235eb	0.1896588
96	0x3ee21d11	0.441628
97	0x3e2aa018	0.16662633
98	0x3e1624ad	0.14662428
99	0xbe7dbbaf	-0.24778627
100	0x3e877ca0	0.2646227
101	0xbd3a1599	-0.045430753
102	0xbe151ded	-0.14562197
103	0xbe74a221	-0.23889972
104	0xbe79cb45	-0.24393947
105	0xbe70fac7	-0.23533164
106	0x3e8b3169	0.27186134
107	0x3ec154bf	0.3775997
108	0x3e87de9d	0.26537028
109	0xbee591a9	-0.44837692
110	0x3e41d7b2	0.18929937
111	0x3e4c47fa	0.19949332
112	0xbd849a3c	-0.0647473
113	0x3d6ab0e8	0.057297617
114	0x3c4a561f	0.012349634
115	0xbe189010	-0.14898705
116	0x3e85d438	0.26138473
117	0x3e489faa	0.19592157
118	0xbe0dc46b	-0.13844459
119	0xbe98b7c6	-0.29827708
120	0x3e4c2efe	0.19939801
121	0x3ea560b1	0.32300332
122	0x3dd55814	0.1041719
123	0x3e4877ec	0.19576997
124	0xbe53143f	-0.20613192
125	0xbe51a0cb	-0.20471494
126	0x3dd6f536	0.10495989
127	0x3dc6c7bf	0.09706067
128	0x3e488d67	0.1958519
129	0x3e9b355d	0.3031415
130	0xbe1d3f00	-0.15356064
131	0x3c0badb1	0.008525298
132	0xbe696e95	-0.2279609
133	0xbd4540a6	-0.048157357
134	0x3e415952	0.18881729
135	0x3ddcb7af	0.10777222
136	0xbcfed254	-0.031106152
137	0xbde8dfa0	-0.11370778
138	0xbe9c2e9f	-0.3050432
139	0x3e1972d9	0.14985217
140	0xbea021a7	-0.31275675
141	0x3e1e7b94	0.15476829
142	0x3e458d46	0.19292173
143	0xbe64b028	-0.22332823
144	0x3c88ba9b	0.016690543
145	0x3c0af368	0.008480884
146	0xbe8b7955	-0.27241006
147	0x3db6462d	0.08900104
148	0x3e268ffd	0.16265865
149	0xbc016d19	-0.007899546

model.classifier.1.bias f4 [5]
0	0x3410d418	1.3488204e-07
1	0x36ce9ed8	6.1577703e-06
2	0x35f0f85e	1.7953678e-06
3	0xb566c39d	-8.596633e-07
4	0x34d55b14	3.974061e-07

exp_avg f4 [30, 30]
0	0xb69bb167	-4.6400123e-06
1	0x373b1f8f	1.1153416e-05
2	0x36d6902b	6.3944804e-06
3	0xb69a561a	-4.599581e-06
4	0x375fcf96	1.3340168e-05
5	0xb674d0d3	-3.6480385e-06
6	0xb60c4c43	-2.0906016e-06
7	0x36c59c09	5.8892224e-06
8	0xb65ff01d	-3.3369354e-06
9	0xb7351746	-1.07938595e-05
10	0xb7171856	-9.0059675e-06
11	0xb754efa5	-1.2691981e-05
12	0xb71c5898	-9.318952e-06
13	0x36fd80b2	7.5549697e-06
14	0xb70fae60	-8.564064e-06
15	0x369586bd	4.4562316e-06
16	0xb6b7e54d	-5.480519e-06
17	0x351dcf37	5.8788595e-07
18	0xb6da1b58	-6.5000895e-06
19	0x36e95a55	6.954457e-06
20	0xb700959e	-7.66423e-06
21	0x3595824e	1.1139289e-06
22	0xb7895a52	-1.6373731e-05
23	0xb6068d05	-2.004964e-06
24	0xb62784b8	-2.4962192e-06
25	0x3588200a	1.0142114e-06
26	0xb5f3b4cb	-1.8157529e-06
27	0xb716b42d	-8.982647e-06
28	0x363d0635	2.8166808e-06
29	0x36fb1fe8	7.4840973e-06
30	0x37b4d325	2.1555994e-05
31	0x37800225	1.5259788e-05
32	0xb7e8bba7	-2.7743938e-05
33	0xb7d20b93	-2.503934e-05
34	0xb6ad6a89	-5.168204e-06
35	0xb6eafea2	-7.0033866e-06
36	0x35d123f9	1.5582183e-06
37	0x37c74e5b	2.3759136e-05
38	0xb731f4d3	-1.0607025e-05
39	0x348fe4fb	2.680243e-07
40	0x34a1cb3f	3.0136468e-07
41	0x375d01c3	1.3173037e-05
42	0xb807e081	-3.2395594e-05
43	0x3546e719	7.409704e-07
44	0x3757d50f	1.2864605e-05
45	0xb70df63d	-8.461587e-06
46	0xb6d3251e	-6.292611e-06
47	0x371b8430	9.269497e-06
48	0xb721103a	-9.600126e-06
49	0xb71d031b	-9.358652e-06
50	0xb619a4d9	-2.289473e-06
51	0x37070590	8.047922e-06
52	0xb70208eb	-7.75068e-06
53	0x3700ae12	7.669923e-06
54	0x37d14491	2.494667e-05
55	0x3642f1cd	2.9049e-06
56	0x36f5c865	7.324898e-06
57	0x37045b96	7.889137e-06
58	0xb624392e	-2.4471187e-06
59	0xb725d5a4	-9.8845085e-06
60	0xb849c787	-4.810796e-05
61	0x35dcda7a	1.6454862e-06
62	0x385fa1b8	5.3317955e-05
63	0x37ba85b2	2.2235185e-05
64	0x382b2ccd	4.08113e-05
65	0x363c428a	2.8052914e-06
66	0xb641a415	-2.885475e-06
67	0xb794e4d4	-1.7749531e-05
68	0xb6cd9c6d	-6.1276864e-06
69	0xb80d8c05	-3.3747423e-05
70	0xb80d8732	-3.374293e-05
71	0xb8644833	-5.4426677e-05
72	0x379b9f78	1.8551698e-05
73	0x37890f17	1.63387e-05
74	0xb8446e0a	-4.6832523e-05
75	0x37800e8f	1.5265568e-05
76	0xb6cc2f4f	-6.085181e-06
77	0xb76b0165	-1.4007416e-05
78	0xb7208dc3	-9.56975e-06
79	0x383a1c2c	4.4372093e-05
80	0xb7863561	-1.5998901e-05
81	0xb7b64d30	-2.1732034e-05
82	0xb8097f07	-3.278165e-05
83	0xb74ceda6	-1.2214679e-05
84	0xb81227c3	-3.4846144e-05
85	0x374666a9	1.1825622e-05
86	0xb7e07594	-2.6757632e-05
87	0xb7d3b8ce	-2.5239216e-05
88	0x37a7e2d8	2.0013584e-05
89	0x380ba70a	3.329575e-05
90	0x35b0316e	1.3127408e-06
91	0xb7151185	-8.885171e-06
92	0xb62bc948	-2.5598147e-06
93	0x357db81a	9.451775e-07
94	0xb70956b2	-8.186022e-06
95	0x3621c064	2.4102856e-06
96	0x3690b583	4.312665e-06
97	0x36ec9ba7	7.0514684e-06
98	0x35519dfe	7.8088476e-07
99	0x36ca14d9	6.022496e-06
100	0xb7004832	-7.646204e-06
101	0x3697bb33	4.5219435e-06
102	0xb631dacd	-2.6502414e-06
103	0xb668497f	-3.4613474e-06
104	0x3708e3ff	8.159316e-06
105	0xb70547fc	-7.944178e-06
106	0x3608aad2	2.036501e-06
107	0x36a64d64	4.956195e-06
108	0x35b5c0e9	1.3541695e-06
109	0x360accb6	2.068276e-06
110	0x362dd915	2.5905367e-06
111	0xb67ac894	-3.7369655e-06
112	0x377d0ae2	1.5082509e-05
113	0x3501c2a5	4.833949e-07
114	0x36d4fc14	6.347438e-06
115	0x3729451b	1.0089275e-05
116	0x35d314cb	1.5726777e-06
117	0x36f936a0	7.4271375e-06
118	0x35ef6dda	1.7838859e-06
119	0xb5b6b071	-1.3611408e-06
120	0xb7888519	-1.6274442e-05
121	0x369a7d60	4.604153e-06
122	0x36e465be	6.806774e-06
123	0x350680f2	5.010653e-07
124	0x37826c2d	1.5547581e-05
125	0x35856219	9.937822e-07
126	0x3448f38c	1.8715053e-07
127	0xb7424e2c	-1.1581502e-05
128	0xb7996698	-1.8286795e-05
129	0xb7b3afd3	-2.1420337e-05
130	0xb6cb19fa	-6.0528955e-06
131	0xb7861421	-1.5983418e-05
132	0x36157209	2.2269107e-06
133	0x3661c61c	3.3642928e-06
134	0xb7de64ad	-2.6511343e-05
135	0x36124d7f	2.1800804e-06
136	0xb69ccd81	-4.673086e-06
137	0xb7470bf0	-1.1864104e-05
138	0xb73a4330	-1.1102107e-05
139	0x37a6186d	1.9800116e-05
140	0xb6b01298	-5.2473733e-06
141	0xb77a522b	-1.4920292e-05
142	0xb7ea0978	-2.7899383e-05
143	0x364338b1	2.9090263e-06
144	0xb69f4f73	-4.7478184e-06
145	0x3694ac2c	4.430787e-06
146	0xb7b5c3c9	-2.1668051e-05
147	0xb62472c2	-2.4504702e-06
148	0x37578a6a	1.2847226e-05
149	0x36cff956	6.1981073e-06
150	0x37190479	9.120552e-06
151	0xb444920f	-1.8307058e-07
152	0xb77e4261	-1.5155035e-05
153	0xb6baf788	-5.5720484e-06
154	0xb70b05a8	-8.286363e-06
155	0x3487b3c8	2.5276518e-07
156	0x35683dd0	8.6516684e-07
157	0xb610bdb2	-2.156809e-06
158	0xb6c4f139	-5.869337e-06
159	0x3655762e	3.1808263e-06
160	0x3738773c	1.0995016e-05
161	0x3754909d	1.2669855e-05
162	0xb61635d1	-2.2383067e-06
163	0xb6b06a88	-5.2576106e-06
164	0x366b5017	3.5064347e-06
165	0xb688af8b	-4.0735517e-06
166	0x3543e1a7	7.297153e-07
167	0xb6018fdd	-1.9306237e-06
168	0xb53a3b4f	-6.9376705e-07
169	0xb6e76353	-6.8958993e-06
170	0x36906207	4.3029463e-06
171	0xb198c633	-4.446315e-09
172	0xb4377d7d	-1.7088855e-07
173	0x36c058a9	5.7323673e-06
174	0x3711a2cb	8.680577e-06
175	0xb6577090	-3.2103017e-06
176	0xb5bf73c3	-1.42643e-06
177	0x371051b2	8.60209e-06
178	0xb5b7c9ba	-1.3693273e-06
179	0xb7212996	-9.60603e-06
180	0xb693885d	-4.396816e-06
181	0x37c781af	2.3783037e-05
182	0xb708c349	-8.1517e-06
183	0xb7a5ab2b	-1.9749239e-05
184	0x37b5b819	2.1662609e-05
185	0xb6da275a	-6.5014874e-06
186	0xb596b2ed	-1.1227945e-06
187	0x36ed6e55	7.0759947e-06
188	0xb7ebcb06	-2.8108723e-05
189	0xb7f009eb	-2.8614848e-05
190	0xb72969f7	-1.0097857e-05
191	0xb780e553	-1.5365576e-05
192	0xb7d69251	-2.5578922e-05
193	0x3717607f	9.022769e-06
194	0xb7cfa38e	-2.4752484e-05
195	0x354ee41b	7.707292e-07
196	0xb751b861	-1.25003e-05
197	0xb6cce48c	-6.10628e-06
198	0xb7b8ed4d	-2.2045011e-05
199	0x3791d619	1.7385044e-05
200	0xb747720e	-1.188788e-05
201	0xb705b9f4	-7.970713e-06
202	0xb84199a0	-4.615786e-05
203	0x36efd49e	7.147507e-06
204	0x372651c4	9.913409e-06
205	0x36a35986	4.8682004e-06
206	0xb795cf75	-1.7858789e-05
207	0xb66c163d	-3.5179685e-06
208	0x37523cf3	1.2531166e-05
209	0x368ceec2	4.20012e-06
210	0xb85e4c02	-5.2999712e-05
211	0xb5bae1d1	-1.3923801e-06
212	0x38473fd7	4.7504753e-05
213	0x37954b04	1.7797116e-05
214	0x382b805c	4.088912e-05
215	0x369f18d0	4.741458e-06
216	0x35d87042	1.6125925e-06
217	0xb79343c6	-1.7555325e-05
218	0xb7b233e4	-2.1243417e-05
219	0xb8311172	-4.2216336e-05
220	0xb82a2751	-4.0567775e-05
221	0xb869eadb	-5.5770255e-05
222	0x3765be35	1.369375e-05
223	0x37678db5	1.3801667e-05
224	0xb8667a18	-5.4949982e-05
225	0x36f9655a	7.432577e-06
226	0xb6f8ff24	-7.4206782e-06
227	0xb791dc14	-1.7387829e-05
228	0xb78f9f71	-1.7121174e-05
229	0x386cc378	5.644883e-05
230	0xb7840df4	-1.5742124e-05
231	0xb80e7617	-3.3965418e-05
232	0xb823cbdd	-3.905209e-05
233	0xb6e2c528	-6.758277e-06
234	0xb7de5f10	-2.650873e-05
235	0x37c14a16	2.3041892e-05
236	0xb8287ad2	-4.0168707e-05
237	0xb78cee55	-1.6800283e-05
238	0x37f981fe	2.9743645e-05
239	0x3806f813	3.2179127e-05
240	0xb80f8a27	-3.422252e-05
241	0x3761b83f	1.3453943e-05
242	0x38134ca6	3.5118916e-05
243	0x36d360b1	6.2995464e-06
244	0x38230090	3.8862752e-05
245	0xb5f1bc09	-1.8010625e-06
246	0xb664e978	-3.4110544e-06
247	0xb6d7099f	-6.4086194e-06
248	0xb75f459e	-1.3308045e-05
249	0xb810bd5c	-3.450863e-05
250	0xb7f19b44	-2.880174e-05
251	0xb83ec00a	-4.547838e-05
252	0x34aab782	3.1798487e-07
253	0x378dae6f	1.6889737e-05
254	0xb82b7f5e	-4.0888197e-05
255	0x374d6671	1.2242804e-05

exp_avg_sq f4 [30, 30]
0	0x304befad	7.419157e-10
1	0x300e2a8e	5.1719773e-10
2	0x312f1277	2.5476348e-09
3	0x307dc7dc	9.232488e-10
4	0x30402340	6.9899286e-10
5	0x30a035e9	1.1656854e-09
6	0x2f63856b	2.069293e-10
7	0x30c686f4	1.4444752e-09
8	0x305d73de	8.056399e-10
9	0x2fc84a80	3.6432724e-10
10	0x308c9f3d	1.0231599e-09
11	0x31402e90	2.7966145e-09
12	0x30ae3816	1.2676107e-09
13	0x308cad7b	1.0235647e-09
14	0x3006566f	4.8871746e-10
15	0x30a9729e	1.2328945e-09
16	0x300244cd	4.7391496e-10
17	0x30bb8d27	1.3646159e-09
18	0x30491a94	7.3161144e-10
19	0x30b6dc5d	1.3304874e-09
20	0x311c31a9	2.2729216e-09
21	0x2fe54b25	4.170825e-10
22	0x3100f15f	1.8763655e-09
23	0x30760e74	8.951482e-10
24	0x30976245	1.1014626e-09
25	0x3096492f	1.0934736e-09
26	0x301b3c4e	5.647437e-10
27	0x3046f065	7.23736e-10
28	0x307b86b5	9.15047e-10
29	0x306bb562	8.575026e-10
30	0x308eae64	1.0381425e-09
31	0x30945ff8	1.0795693e-09
32	0x31b262a7	5.1916973e-09
33	0x3138ea86	2.6908835e-09
34	0x308605b5	9.751405e-10
35	0x30d09caf	1.5178524e-09
36	0x2ff3233a	4.4226472e-10
37	0x31002242	1.8645925e-09
38	0x31014907	1.8813482e-09
39	0x306976c9	8.493371e-10
40	0x314bd8d9	2.9663652e-09
41	0x31ee5c07	6.937174e-09
42	0x3181420d	3.7619032e-09
43	0x312e2259	2.5339857e-09
44	0x310486ef	1.928523e-09
45	0x30c562a9	1.4361677e-09
46	0x308ab3c9	1.009192e-09
47	0x316b3f7f	3.4233094e-09
48	0x311dbfc1	2.2955506e-09
49	0x317e1691	3.6974692e-09
50	0x31adbc40	5.056364e-09
51	0x304b8ea5	7.405368e-10
52	0x31ca86ac	5.894284e-09
53	0x310a3052	2.010911e-09
54	0x30c9991b	1.466819e-09
55	0x3122e85b	2.3706181e-09
56	0x313551b4	2.638541e-09
57	0x310dd7ed	2.064094e-09
58	0x313bf0bb	2.734892e-09
59	0x311eca11	2.3106888e-09
60	0x3142f143	2.8367857e-09
61	0x3048879b	7.2952283e-10
62	0x31983fc1	4.43103e-09
63	0x3191a438	4.238725e-09
64	0x30a9ca13	1.2353801e-09
65	0x30952aa0	1.0853292e-09
66	0x2fa54271	3.0060535e-10
67	0x30e51306	1.666735e-09
68	0x30b23722	1.2966874e-09
69	0x3103926d	1.9146242e-09
70	0x30c9da38	1.4686696e-09
71	0x318a80fa	4.0309915e-09
72	0x3161fa53	3.2884102e-09
73	0x30e5e4a6	1.6726929e-09
74	0x31095522	1.9984516e-09
75	0x30eca2e7	1.721756e-09
76	0x30703327	8.7384183e-10
77	0x31382647	2.6797282e-09
78	0x30e18840	1.6409629e-09
79	0x31593790	3.160924e-09
80	0x3148029f	2.910532e-09
81	0x30a44567	1.1952296e-09
82	0x31b8e85c	5.381521e-09
83	0x305179e1	7.620696e-10
84	0x314043ed	2.7978289e-09
85	0x30966007	1.0941229e-09
86	0x30f01388	1.7467849e-09
87	0x30b82597	1.3398446e-09
88	0x30c1927a	1.4084229e-09
89	0x310ac090	2.0191102e-09
90	0x30489871	7.297621e-10
91	0x2fbe626c	3.4630732e-10
92	0x3108e886	1.992278e-09
93	0x3096485e	1.0934504e-09
94	0x304acb90	7.377645e-10
95	0x2ffa539b	4.553414e-10
96	0x2f8f69a3	2.6086608e-10
97	0x30f35e0b	1.7707306e-09
98	0x304a7722	7.365647e-10
99	0x30604751	8.159207e-10
100	0x30cd6c60	1.4946515e-09
101	0x31152855	2.170528e-09
102	0x30bf4b3b	1.3918461e-09
103	0x3046a051	7.2259804e-10
104	0x30290949	6.1495037e-10
105	0x30270806	6.076565e-10
106	0x3034ad05	6.5729494e-10
107	0x3132a181	2.5994213e-09
108	0x30ab2bf2	1.2454378e-09
109	0x30f782b5	1.8008764e-09
110	0x30abf8bb	1.2512581e-09
111	0x300c9fe2	5.115891e-10
112	0x31458382	2.8742027e-09
113	0x30764e3e	8.960547e-10
114	0x302a0bbf	6.186233e-10
115	0x307b9557	9.152549e-10
116	0x30bce685	1.3744318e-09
117	0x309f9465	1.1610949e-09
118	0x30931788	1.0702346e-09
119	0x305beecf	8.0011103e-10
120	0x30ca70ca	1.4729491e-09
121	0x303b2796	6.808646e-10
122	0x313b11da	2.722223e-09
123	0x30e36abc	1.654676e-09
124	0x30df2a3c	1.6237389e-09
125	0x30b26cc2	1.2982115e-09
126	0x2fb47cea	3.2830566e-10
127	0x30d2d1f5	1.5339184e-09
128	0x3071c626	8.7956875e-10
129	0x30d7b4ec	1.569473e-09
130	0x30be477f	1.384464e-09
131	0x31429fc8	2.832154e-09
132	0x30ddba1f	1.6132765e-09
133	0x3040b5a3	7.0107314e-10
134	0x31009e3a	1.8716393e-09
135	0x306a9663	8.5342416e-10
136	0x2fc3fa23	3.5648026e-10
137	0x309b5f28	1.1304779e-09
138	0x3091a9b5	1.0598372e-09
139	0x30f6712a	1.7931019e-09
140	0x30ba68b5	1.3563041e-09
141	0x3083183c	9.538392e-10
142	0x31913718	4.226319e-09
143	0x30ad239f	1.2597531e-09
144	0x308f37b6	1.0420453e-09
145	0x30c178c5	1.4076923e-09
146	0x30aa7dcf	1.2404885e-09
147	0x30b15e31	1.2905216e-09
148	0x310ea029	2.075476e-09
149	0x3088323c	9.90958e-10
150	0x301158af	5.287672e-10
151	0x2fb39c60	3.2671021e-10
152	0x313a1945	2.7080926e-09
153	0x30960d23	1.091767e-09
154	0x30517178	7.6195006e-10
155	0x309b036d	1.1278708e-09
156	0x2f5aa8a0	1.9886892e-10
157	0x3080df12	9.376626e-10
158	0x3047077c	7.2406414e-10
159	0x2fe1402e	4.0972864e-10
160	0x307d159d	9.207158e-10
161	0x31336a12	2.6108222e-09
162	0x30a32b3e	1.1872101e-09
163	0x3058d272	7.8879403e-10
164	0x3014b1d7	5.409481e-10
165	0x306e575c	8.670804e-10
166	0x2fb9fea7	3.3832245e-10
167	0x308b1557	1.0119646e-09
168	0x306536df	8.338769e-10
169	0x309698a1	1.0957316e-09
170	0x30cdb59b	1.4967328e-09
171	0x2fd2cd13	3.8344491e-10
172	0x314684dc	2.8888314e-09
173	0x3085c466	9.732843e-10
174	0x30982445	1.1069764e-09
175	0x308c6af5	1.021674e-09
176	0x301ba1d0	5.661862e-10
177	0x3048023e	7.276276e-10
178	0x3082af57	9.50858e-10
179	0x3058c026	7.88534e-10
180	0x30cdb4fd	1.4967153e-09
181	0x30db6350	1.5962573e-09
182	0x310f9bf8	2.0897897e-09
183	0x30d95e3d	1.5815612e-09
184	0x30af17d6	1.27397e-09
185	0x3004167f	4.805329e-10
186	0x3002433a	4.738926e-10
187	0x30f953d2	1.8140958e-09
188	0x3059b18d	7.9196455e-10
189	0x312508b4	2.4015607e-09
190	0x30c040aa	1.3988217e-09
191	0x31557d52	3.1066816e-09
192	0x3171246f	3.5090826e-09
193	0x30c6a7d5	1.4454097e-09
194	0x30827a63	9.493529e-10
195	0x30b3f8ac	1.3094641e-09
196	0x303d277d	6.8813916e-10
197	0x30cc99fc	1.4886719e-09
198	0x30aa6900	1.2398971e-09
199	0x30ec3f8d	1.7189322e-09
200	0x3168f2ac	3.3898386e-09
201	0x303a60bd	6.780388e-10
202	0x3193cc55	4.301493e-09
203	0x30128c34	5.331373e-10
204	0x301f830f	5.803011e-10
205	0x3095dec3	1.090449e-09
206	0x30c5d373	1.4393734e-09
207	0x30e15cee	1.6397317e-09
208	0x307a0e05	9.0969393e-10
209	0x309ba94f	1.1325855e-09
210	0x315c1503	3.2026157e-09
211	0x307e0974	9.2418095e-10
212	0x313facb4	2.7892328e-09
213	0x315b874f	3.1945608e-09
214	0x31122042	2.1264133e-09
215	0x30401e69	6.989241e-10
216	0x2f8278ec	2.3732782e-10
217	0x312855c5	2.4495972e-09
218	0x309be4e4	1.1342789e-09
219	0x3108e526	1.992086e-09
220	0x30f63f9e	1.7916937e-09
221	0x30fa3337	1.820445e-09
222	0x311806ec	2.2122846e-09
223	0x30287fd9	6.1299726e-10
224	0x3133eef7	2.6183764e-09
225	0x308211b2	9.463774e-10
226	0x300c7551	5.109842e-10
227	0x30acded4	1.2577979e-09
228	0x308f6634	1.0433667e-09
229	0x314f3ae6	3.0155944e-09
230	0x30e22de7	1.645671e-09
231	0x31100e46	2.0962871e-09
232	0x311842f2	2.2156965e-09
233	0x30092327	4.9890264e-10
234	0x3128c101	2.4556928e-09
235	0x30a67337	1.2110836e-09
236	0x3087f9aa	9.893502e-10
237	0x313e001c	2.76487e-09
238	0x30c4d0d5	1.4320231e-09
239	0x30d64833	1.559107e-09
240	0x312fef19	2.5601763e-09
241	0x307ba43c	9.154666e-10
242	0x317e6b17	3.7022738e-09
243	0x31346dfa	2.6255962e-09
244	0x30863e6b	9.767523e-10
245	0x30d0ed75	1.5201481e-09
246	0x2fbddcac	3.4535697e-10
247	0x30d9ae6f	1.5838405e-09
248	0x30a6cf98	1.2137091e-09
249	0x30fa7b52	1.8224944e-09
250	0x30cb6335	1.479839e-09
251	0x3170abb8	3.5022207e-09
252	0x3100548d	1.8674513e-09
253	0x30ddeff1	1.6148062e-09
254	0x30a272a2	1.1819632e-09
255	0x3126b18d	2.4257105e-09

exp_avg f4 [30]
0	0x2da8f249	1.9206985e-11
1	0x2d89fb88	1.5686799e-11
2	0x2cc9ce7e	5.735689e-12
3	0xae478f2a	-4.5374517e-11
4	0x2d55f7d0	1.2162674e-11
5	0x2c4aacd6	2.880187e-12
6	0x2e58db3c	4.9307433e-11
7	0xad8c3b39	-1.5942457e-11
8	0x2e1308cf	3.3431754e-11
9	0xae897709	-6.2511836e-11
10	0xad2aa4a6	-9.6999405e-12
11	0xada8cb54	-1.9189685e-11
12	0xae046aab	-3.0108065e-11
13	0xade3598a	-2.5846675e-11
14	0xae741a51	-5.550255e-11
15	0xae4ba969	-4.6307323e-11
16	0xaccef269	-5.881785e-12
17	0x2e5e6ae5	5.0571897e-11
18	0x2dd65d92	2.4370537e-11
19	0xae795d2d	-5.6698802e-11
20	0xaccaf165	-5.7679855e-12
21	0x2e0d61aa	3.214643e-11
22	0xad59c8a2	-1.2379571e-11
23	0xad5a36c6	-1.24040275e-11
24	0x2dfcdd66	2.8747404e-11
25	0xadb2e270	-2.0336816e-11
26	0x2e0198bf	2.946687e-11
27	0x2dbc4063	2.1401719e-11
28	0xad602c74	-1.2742796e-11
29	0xac48b171	-2.852021e-12

exp_avg_sq f4 [30]
0	0x252fe6d8	1.5257043e-16
1	0x2894df94	1.6528262e-14
2	0x2437e3ad	3.987465e-17
3	0x256102a1	1.951653e-16
4	0x26d60170	1.4849623e-15
5	0x271a2066	2.1389356e-15
6	0x28308ed5	9.800934e-15
7	0x277431cd	3.38888e-15
8	0x27731556	3.373459e-15
9	0x25819a17	2.2482348e-16
10	0x2724bf19	2.2863166e-15
11	0x24b1651f	7.693282e-17
12	0x27349a42	2.5063641e-15
13	0x27df910a	6.2052185e-15
14	0x273042d9	2.4461145e-15
15	0x275bd09a	3.0505438e-15
16	0x25555caf	1.8506207e-16
17	0x27af3c1e	4.8637437e-15
18	0x27e20be6	6.27405e-15
19	0x28391c65	1.027572e-14
20	0x25dde89a	3.8495006e-16
21	0x28a099e4	1.7830308e-14
22	0x281890b7	8.469075e-15
23	0x26af8d01	1.2181284e-15
24	0x273cc8e5	2.6199146e-15
25	0x25001326	1.1108718e-16
26	0x27f61047	6.8296364e-15
27	0x283b58c4	1.0399833e-14
28	0x28923fed	1.623698e-14
29	0x26f95a3a	1.7302302e-15

exp_avg f4 [5, 30]
0	0x38020757	3.100125e-05
1	0xb84ee85e	-4.9330636e-05
2	0x39153ea6	0.00014233086
3	0xb88ec26b	-6.807301e-05
4	0x38cf726f	9.891844e-05
5	0x35bf5fe1	1.4258513e-06
6	0x38cd41ed	9.7874414e-05
7	0x39183d8e	0.0001451878
8	0x390e1c01	0.00013552608
9	0x37917508	1.7339844e-05
10	0x38c6ee43	9.4857554e-05
11	0x38b8b238	8.8069995e-05
12	0x37c7c32d	2.3813534e-05
13	0x37c2dd1b	2.3229562e-05
14	0x37054f79	7.945921e-06
15	0x37f9ba55	2.976988e-05
16	0x37cb6ca5	2.4250077e-05
17	0x38edd1fc	0.00011340153
18	0x38d53a4a	0.00010167489
19	0xb8d8c3f4	-0.00010336182
20	0x38a27ae4	7.747652e-05
21	0x39125f8f	0.00013959243
22	0x38b34648	8.548476e-05
23	0xb8037382	-3.134041e-05
24	0xb906445a	-0.00012804699
25	0x38a1b5fb	7.710975e-05
26	0x3913f5e2	0.00014110611
27	0xb7e6e25d	-2.7523545e-05
28	0x389e89e3	7.5597105e-05
29	0xb8884819	-6.4984146e-05
30	0x3708fc8f	8.165035e-06
31	0x37ff9cd6	3.0471401e-05
32	0xb7b11052	-2.1107644e-05
33	0xb6795abb	-3.7156703e-06
34	0x3600e5af	1.920718e-06
35	0x36c73363	5.9366444e-06
36	0x37f1289b	2.8748347e-05
37	0xb798dcaa	-1.8222567e-05
38	0xb5b91ea6	-1.3792494e-06
39	0xb7c55bc4	-2.3526962e-05
40	0xb70d8f52	-8.437624e-06
41	0xb7f4085a	-2.9090956e-05
42	0xb8035585	-3.131248e-05
43	0xb7e3d414	-2.7159265e-05
44	0xb7d42336	-2.5288766e-05
45	0xb7f8c8d8	-2.9657429e-05
46	0x3745d1cc	1.1790962e-05
47	0x374667cc	1.1825887e-05
48	0xb6c98904	-6.0062175e-06
49	0xb7a4a225	-1.9625828e-05
50	0xb787de2b	-1.619671e-05
51	0x35ad4ffd	1.2912784e-06
52	0xb7952acc	-1.7782113e-05
53	0xb6250da1	-2.459485e-06
54	0x3810d3e9	3.4529632e-05
55	0xb806e582	-3.2161835e-05
56	0xb737fbbc	-1.09662615e-05
57	0x37d9bc67	2.5956148e-05
58	0xb7913014	-1.7307735e-05
59	0xb71fc21d	-9.522334e-06
60	0x36ef7a23	7.1369736e-06
61	0x37af371b	2.0887286e-05
62	0xb77f5da2	-1.5220985e-05
63	0xb807485d	-3.22539e-05
64	0x3808e0d1	3.2634303e-05
65	0x37bb9ab1	2.2364171e-05
66	0x3872496f	5.7765687e-05
67	0xb74815d5	-1.1926012e-05
68	0x37315258	1.0569194e-05
69	0xb8701d06	-5.724749e-05
70	0x3742d6f5	1.161335e-05
71	0xb80e9ff4	-3.4004406e-05
72	0xb809c64f	-3.2848035e-05
73	0xb816444b	-3.582639e-05
74	0xb86252f8	-5.395987e-05
75	0xb857aee4	-5.1422874e-05
76	0x37c10a83	2.3012288e-05
77	0x38439a05	4.6635065e-05
78	0x37e55fd7	2.7343556e-05
79	0xb87c771a	-6.0192404e-05
80	0x36d8eb9d	6.4647306e-06
81	0x37985d2b	1.8163197e-05
82	0xb7e6afc8	-2.7499991e-05
83	0x3680b5a2	3.835842e-06
84	0x380dab90	3.37768e-05
85	0xb827a2a7	-3.9967385e-05
86	0x37dbc828	2.620004e-05
87	0x37ff8505	3.046031e-05
88	0xb7c5c150	-2.3574248e-05
89	0xb7cf11b3	-2.4684565e-05
90	0x378c99f5	1.6760992e-05
91	0x36c8ca34	5.984004e-06
92	0x37e50998	2.7303395e-05
93	0x375bc4aa	1.3099207e-05
94	0xb7bddbf5	-2.2632981e-05
95	0xb7d1555a	-2.4954486e-05
96	0xb7275f17	-9.9761155e-06
97	0x3782f274	1.5610109e-05
98	0x37c17435	2.3061506e-05
99	0x3813a7ee	3.5203928e-05
100	0xb75b1656	-1.3058618e-05
101	0x3795fc87	1.7879776e-05
102	0x363b6e3b	2.7929334e-06
103	0x37a373db	1.9485064e-05
104	0x37e36704	2.710848e-05
105	0x37e1635e	2.6868362e-05
106	0xb79e9eaf	-1.890896e-05
107	0xb76b22da	-1.4015206e-05
108	0xb79b735b	-1.8531156e-05
109	0x37bfd40e	2.286772e-05
110	0xb797d6cc	-1.8100625e-05
111	0x37948ff4	1.7710008e-05
112	0x37f0e749	2.871793e-05
113	0xb7bb3f0c	-2.2321496e-05
114	0xb7afa9d7	-2.0940714e-05
115	0x37cb9fbe	2.4273872e-05
116	0xb7289fde	-1.0050802e-05
117	0xb77abcb0	-1.4945093e-05
118	0x38077fa3	3.230538e-05
119	0x3744a53a	1.172098e-05
120	0x36bf7d80	5.7068537e-06
121	0x37869146	1.6041693e-05
122	0x3680cc56	3.838485e-06
123	0x3735f9c2	1.0846592e-05
124	0xb58bec4b	-1.0425077e-06
125	0xb69bb25c	-4.6401237e-06
126	0x373c9fd4	1.1242886e-05
127	0x375c0726	1.3114686e-05
128	0x370c6ff7	8.370719e-06
129	0x37950738	1.7765546e-05
130	0x36091c99	2.0431237e-06
131	0x368ed950	4.2572283e-06
132	0xb75dce84	-1.322071e-05
133	0xb72414d2	-9.780009e-06
134	0x37435ef6	1.1645016e-05
135	0x36b74f2c	5.463042e-06
136	0x372290c6	9.68966e-06
137	0xb6117784	-2.167625e-06
138	0xb757bc2d	-1.2858812e-05
139	0x36575efa	3.209278e-06
140	0xb7202a89	-9.546647e-06
141	0x36efd2c5	7.147292e-06
142	0x37276604	9.977728e-06
143	0xb6d7b368	-6.428385e-06
144	0xb6138ba2	-2.1985984e-06
145	0xb5d594e4	-1.591307e-06
146	0xb76b264f	-1.4016011e-05
147	0x3735a3a7	1.0826544e-05
148	0x3581cbd0	9.670566e-07
149	0xb7277405	-9.980989e-06

exp_avg_sq f4 [5, 30]
0	0x3188f59d	3.986044e-09
1	0x31cdf6a4	5.994325e-09
2	0x328d988f	1.6483936e-08
3	0x3174a423	3.5599974e-09
4	0x32134aac	8.573505e-09
5	0x3179ebb4	3.636825e-09
6	0x320db4fa	8.2484295e-09
7	0x3281a19e	1.5091072e-08
8	0x3286e214	1.5702462e-08
9	0x31dbffe9	6.4028325e-09
10	0x31fdb0bd	7.383362e-09
11	0x32010eb4	7.512131e-09
12	0x31736e13	3.5423724e-09
13	0x312f4f87	2.5511058e-09
14	0x318ad293	4.040268e-09
15	0x319cc462	4.5625237e-09
16	0x3119422e	2.230205e-09
17	0x32102fdd	8.392786e-09
18	0x32122ef0	8.508991e-09
19	0x3211d262	8.487946e-09
20	0x3209f872	8.0309395e-09
21	0x32822996	1.5152903e-08
22	0x32198d49	8.937897e-09
23	0x31a28f99	4.7311457e-09
24	0x326aade4	1.3660131e-08
25	0x31f5c294	7.1525594e-09
26	0x325d53b0	1.2882921e-08
27	0x311264c1	2.1303068e-09
28	0x321baf43	9.062037e-09
29	0x315e860c	3.2381449e-09
30	0x31918b8b	4.2359196e-09
31	0x317c7757	3.6738663e-09
32	0x31583e37	3.1467502e-09
33	0x315d7d30	3.2230894e-09
34	0x319d4112	4.576699e-09
35	0x31466538	2.8870328e-09
36	0x31981716	4.426407e-09
37	0x3205906f	7.774459e-09
38	0x3165408c	3.3360577e-09
39	0x32385520	1.0729565e-08
40	0x31f8090f	7.21878e-09
41	0x31fd4c7f	7.3719657e-09
42	0x317802f3	3.6090426e-09
43	0x3193ec58	4.3051323e-09
44	0x3225924c	9.637528e-09
45	0x31f22641	7.047476e-09
46	0x320e15ab	8.270415e-09
47	0x3137d339	2.675007e-09
48	0x309bdbc9	1.1340201e-09
49	0x31a1d151	4.7095132e-09
50	0x319db38c	4.5897135e-09
51	0x31549dc0	3.093973e-09
52	0x314c963f	2.9771312e-09
53	0x318138cf	3.7608525e-09
54	0x32031984	7.631005e-09
55	0x31a8c853	4.9122177e-09
56	0x312ae606	2.486901e-09
57	0x316a8efd	3.413276e-09
58	0x31cdc815	5.989032e-09
59	0x31a6fb97	4.8598383e-09
60	0x313906a2	2.6924813e-09
61	0x3222f96e	9.486355e-09
62	0x32042dd0	7.693828e-09
63	0x32a67c1c	1.9381382e-08
64	0x327dcdec	1.4773359e-08
65	0x31f47774	7.114915e-09
66	0x32d1456a	2.4362368e-08
67	0x30f80181	1.8044802e-09
68	0x31cb71f8	5.9210343e-09
69	0x3310ed46	3.374341e-08
70	0x31c1cd16	5.640355e-09
71	0x3205ef33	7.7960065e-09
72	0x322dcd80	1.0116651e-08
73	0x32855dad	1.5525837e-08
74	0x32e6818b	2.6834433e-08
75	0x32aa8213	1.9849756e-08
76	0x325f798b	1.3007944e-08
77	0x32d165fd	2.4377181e-08
78	0x32b2cd1a	2.0815197e-08
79	0x33186680	3.548348e-08
80	0x3201b74a	7.550463e-09
81	0x3205e195	7.79291e-09
82	0x31e7512c	6.732213e-09
83	0x315a34b6	3.1753138e-09
84	0x3217fced	8.8468655e-09
85	0x32628803	1.3185857e-08
86	0x32fe3ab3	2.9596185e-08
87	0x325efff6	1.29802995e-08
88	0x3251206f	1.2172776e-08
89	0x32197884	8.933174e-09
90	0x30c008bf	1.3972324e-09
91	0x310209d7	1.8923083e-09
92	0x31a04980	4.664969e-09
93	0x31802dbb	3.7304893e-09
94	0x31e4db39	6.660596e-09
95	0x31143c52	2.1571123e-09
96	0x31ef4898	6.9640684e-09
97	0x31785027	3.613431e-09
98	0x31a0ca1b	4.6795896e-09
99	0x3136a2ec	2.6577096e-09
100	0x31a76864	4.8722075e-09
101	0x30b2cb5c	1.3009003e-09
102	0x30fb9c48	1.8307071e-09
103	0x31a01aef	4.659675e-09
104	0x311fe067	2.3265103e-09
105	0x30fa4520	1.820954e-09
106	0x31db9231	6.390359e-09
107	0x31decc4a	6.4842753e-09
108	0x31b45d9a	5.2493307e-09
109	0x3205f0ea	7.796396e-09
110	0x315a1900	3.1737386e-09
111	0x31b31f1a	5.2131215e-09
112	0x3091a86d	1.0598008e-09
113	0x30e1cfba	1.6429944e-09
114	0x313fe8f1	2.792657e-09
115	0x31355739	2.6388547e-09
116	0x3217e324	8.841003e-09
117	0x31859dcf	3.88875e-09
118	0x31abbe78	4.998409e-09
119	0x31ad8970	5.0505875e-09
120	0x323b079a	1.0886561e-08
121	0x32b7f78f	2.141658e-08
122	0x31b670d5	5.3097247e-09
123	0x3201c392	7.553256e-09
124	0x328319a4	1.5262067e-08
125	0x325c1f1b	1.2812758e-08
126	0x31a76eee	4.872951e-09
127	0x318c6094	4.085516e-09
128	0x323e5e3b	1.1080881e-08
129	0x32a27dd0	1.8916495e-08
130	0x32395798	1.0788334e-08
131	0x3093e6d7	1.0761266e-09
132	0x3238ccec	1.07568034e-08
133	0x318320e1	3.8163397e-09
134	0x32042b26	7.693222e-09
135	0x31851612	3.8733186e-09
136	0x31f0a818	7.0040294e-09
137	0x319357c0	4.288239e-09
138	0x32ab7420	1.9959828e-08
139	0x31fa5164	7.2852107e-09
140	0x32cd8eba	2.3930046e-08
141	0x32009ee8	7.486712e-09
142	0x322593ed	9.6378985e-09
143	0x326d64ce	1.3818136e-08
144	0x30e58678	1.6700161e-09
145	0x31110b45	2.1106683e-09
146	0x328017b2	1.4911937e-08
147	0x31801099	3.7271772e-09
148	0x324f9992	1.2083904e-08
149	0x3197803c	4.409257e-09

exp_avg f4 [5]
0	0xae8607f3	-6.0950266e-11
1	0xae5d8378	-5.036635e-11
2	0xae93c38d	-6.719523e-11
3	0x2eaedb98	7.9516116e-11
4	0xae75ea40	-5.5914606e-11

exp_avg_sq f4 [5]
0	0x287b15d8	1.39380356e-14
1	0x226e951b	3.233395e-18
2	0x2786b81c	3.7392083e-15
3	0x28a889db	1.8711532e-14
4	0x2885de8d	1.4862482e-14
