tutorial/Mouse_cerebellum_output/version_10/checkpoints/mlp.ckpt (torch, 17217 bytes, 12 tensors)

model.classifier.0.weight f4 [30, 30]
000000 21 bf 6b 3d cf bb 9f bb 50 7a 45 bd 28 de 9a bc
       0.05755532 -0.0048746835 -0.04821235 -0.01890476
000010 4e 4d 98 bc 4f e1 1e 3d 15 65 00 3d ef 78 99 3d
       -0.01859155 0.03878909 0.0313464 0.074937694
000020 1d bf e9 bc 6f 8f df bb 1d 9d 0c 3c f5 92 88 3d
       -0.028533513 -0.0068225185 0.008582381 0.06668655
000030 82 48 52 bd 6c 3a 9b bd 04 3f a7 ba 67 f6 8a 3d
       -0.05133868 -0.075795025 -0.0012759869 0.06785279
000040 f5 54 06 3e f0 a1 2a 3b 47 fe 84 3c 41 26 bd bd
       0.13118346 0.0026036464 0.01623453 -0.09235812
000050 00 a1 22 bd fe 18 54 bd 8c 18 9e bd 9a 10 0a be
       -0.039704323 -0.051781647 -0.07719526 -0.13482895
000060 37 b4 1c 3d bb 69 a1 bd 04 d5 10 3d 07 07 fd bc
       0.038257804 -0.078814946 0.035359398 -0.03088714
000070 47 4a 23 bd 66 27 80 3d 5e 96 49 be f4 8f de 3c
       -0.03986576 0.06257515 -0.19686267 0.027168252
000080 1b 73 45 3d e9 b4 8f 3d 19 82 01 be e2 a8 76 bd
       0.048205476 0.07016928 -0.12647285 -0.060219653
000090 4c 23 4a bb 8d 03 75 bd 4f 11 86 bd 96 10 b6 bd
       -0.0030843792 -0.05981784 -0.0654627 -0.08889882
0000a0 21 dc 11 be 7d 1b 6c bd 5b 7f f7 3b 58 08 26 3e
       -0.14244129 -0.057643402 0.0075530238 0.1621412
0000b0 f8 d7 77 bc 5d 1f ca bc 7e 54 b9 3c a0 be e0 3b
       -0.015127175 -0.024673158 0.022623297 0.006858662
0000c0 a7 9d df 3d 48 26 a2 bc d0 aa 65 3c dd 4c dd 3d
       0.10918742 -0.019793645 0.014017776 0.10805676
0000d0 37 09 01 3c f4 af f8 bd 3a 48 01 3e 8c 3c 02 3e
       0.007875732 -0.121429354 0.12625208 0.1271841
0000e0 cc 08 44 bd 40 f5 4f 3d 34 d4 8c 3d 40 09 33 bb
       -0.04785995 0.050770998 0.06876412 -0.0027318746
0000f0 42 94 e6 3d 21 77 1e 3e 6e 75 34 3e b1 40 d6 3b
       0.11258747 0.15475132 0.17622921 0.0065384735
000100 75 d8 b6 3d ff 26 3a 3d d1 30 db 3d 9c 44 cd 3d
       0.08928005 0.045447346 0.1070267 0.10022852
000110 81 6c 91 bc e1 b5 16 3e 81 4f d1 3d 0a a5 d9 bc
       -0.017751934 0.14717819 0.10220242 -0.026567955
000120 e6 d3 1c 3c e1 cb db 3d 80 e4 00 3e 0b 11 f7 3d
       0.009572005 0.10732246 0.12587166 0.120637976
000130 14 51 85 bd 98 18 b9 3c 7d 57 e3 bd a5 af 09 3e
       -0.06509605 0.022594735 -0.111006714 0.1344591
000140 ec fb 50 3d ff fa aa 3d 71 4b bf 3d ed e5 20 bd
       0.0510215 0.08348655 0.09340561 -0.039281774
000150 90 23 78 be 2b 6a 13 bd 64 f7 b7 3c 3d 30 87 3c
       -0.24232316 -0.03598992 0.022456832 0.016502494
000160 e3 94 ae bd 60 87 84 bd 7f 16 f2 3d c5 cf 23 bd
       -0.08524492 -0.06471133 0.11820697 -0.039993066
000170 87 e1 bf bd c1 4d 41 bd 5b 95 aa 3c 63 5c 83 3d
       -0.09369188 -0.047193293 0.020823171 0.06414106
000180 b7 2e 6f 3c 23 48 a6 3d 04 43 d7 3b 2b 9f 1f 3c
       0.01459854 0.08119228 0.006569268 0.009742538
000190 86 c3 62 3d 83 c9 b7 3d 5f cb 53 bd 9f 9b 26 be
       0.055362247 0.08973982 -0.05170762 -0.16270302
0001a0 bf d0 80 bc d5 2f 67 3d 10 a4 fd 3d 70 db c0 bb
       -0.015724538 0.0564421 0.12384808 -0.005885534
0001b0 3d 86 1e bc 53 77 c3 bd d1 17 41 bd 12 2e df bd
       -0.00967556 -0.09544244 -0.047141854 -0.10897459
0001c0 f3 be b4 bd 92 85 86 bd 13 43 aa 3c da fd 01 be
       -0.08825483 -0.06568445 0.020783937 -0.12694493
0001d0 d9 4b 49 3d 81 70 36 bd 82 96 72 bd 19 80 88 3d
       0.0491446 -0.044540886 -0.059225567 0.06665058
0001e0 f6 28 cb 3d 4d 12 ec 3d d1 33 d1 3d 71 6e 82 3a
       0.09919922 0.11526928 0.10214961 0.0009951127
0001f0 be a6 33 3d 24 db a4 3d 33 04 e3 3d e6 0b fe 3d
       0.04386019 0.0804961 0.11084785 0.12404613
000200 46 e7 f5 bc 83 5c d4 3d d5 b7 a7 3d 32 59 06 3c
       -0.030017506 0.10369208 0.0818936 0.008199977
000210 b8 fc 03 bd 00 c9 cd 3c 21 7e cd 3d bc c0 0f 3e
       -0.032223433 0.025120258 0.10033823 0.14038366
000220 97 82 3a 3d 0c 21 4a 3c 6d a9 76 bd 5e 46 3a 3d
       0.045534696 0.012336981 -0.06022017 0.045477264
000230 70 f2 cd 3c 3d e7 04 3d c1 39 a6 3c 92 9f fd bd
       0.025140017 0.03244709 0.020291211 -0.12383951
000240 86 75 11 be 4b 57 ab bd 9d 70 19 3d dd 55 79 3c
       -0.14204988 -0.08366259 0.037460912 0.015218225
000250 70 e5 da bd 50 dd c6 bc 37 f3 71 bc 67 13 a7 3d
       -0.10688293 -0.024275452 -0.01476746 0.081579976
000260 e8 2c c0 3d 96 e9 07 3c b9 26 78 bd 16 e3 35 be
       0.09383565 0.008295437 -0.060583804 -0.17762408
000270 4c 27 7c bc 05 ee 24 bc 4e b5 00 be 6d c3 ec bc
       -0.0153902285 -0.010066514 -0.12569162 -0.02890178
000280 5b ae 07 be e9 63 52 3c 41 f9 19 3c 1f 6e 78 3e
       -0.13250105 0.012841203 0.009397806 0.24260758
000290 e5 4b ea 39 3d e3 98 3b b1 f9 88 bc 73 cf 47 3d
       0.00044688504 0.004665761 -0.016720625 0.048781823
0002a0 ef c7 ca bc 41 86 48 bd 8c 8d 92 bd b8 ea e8 3d
       -0.024753539 -0.04895616 -0.07155904 0.11372894
0002b0 5a 09 a5 3b 75 28 24 be 21 93 a9 bc a4 8b 21 3e
       0.005036515 -0.16031058 -0.02070004 0.15775925
0002c0 3c b0 e6 bb f8 8a fc bd 24 c7 1c 3e 5a 67 be 3d
       -0.0070400517 -0.12331194 0.15310341 0.092970565
0002d0 a8 46 90 3d a2 17 20 3e c1 5b 26 3e 66 88 19 3b
       0.070447266 0.15634015 0.16245939 0.0023427247
0002e0 38 62 04 bc d3 eb f3 bd b6 4b 79 3d 1f 51 90 3d
       -0.008080058 -0.11910214 0.06086322 0.070467226
0002f0 d8 fb ff bd e3 7e 60 3d 10 25 5b bd ef f2 9e 3c
       -0.12499207 0.05480851 -0.053502142 0.01940295
000300 d1 ac d5 ba 24 0a 78 3e 49 18 96 3d 26 b2 ba 3d
       -0.0016302114 0.24222618 0.07328851 0.0911601
000310 11 ff 46 bc ff b8 65 3d d4 41 99 bd c0 b9 cf 3a
       -0.0121457735 0.05608463 -0.07483259 0.0015848204
000320 12 b7 35 bd c1 fc 02 3e f4 c7 01 3d e0 96 50 be
       -0.044364043 0.1279173 0.03168483 -0.20370054
000330 04 de 0e be f1 2c bf 3d 2d e6 80 3c 98 a0 e0 bd
       -0.1395188 0.09334744 0.015734756 -0.10968131
000340 d3 37 95 3d 25 fb 7f 3d 34 d8 47 be 7a 7d 9e bd
       0.07286038 0.06249537 -0.19516069 -0.077387765
000350 8d 50 77 bd 04 18 52 3d 35 f0 c6 bd be 66 4c bb
       -0.060379554 0.051292434 -0.097137846 -0.0031189169
000360 0d 70 60 bd 22 54 d2 bd b3 8a d2 3c a9 87 df bd
       -0.05479436 -0.10269953 0.025700903 -0.10914547
000370 79 ad c2 bd 43 d6 66 bd 75 b5 64 3c a7 2e 98 bb
       -0.095057435 -0.05635668 0.013959278 -0.0046442333
000380 d6 81 85 bd 27 86 b6 bd 5f 17 1b 3c 99 69 c5 bc
       -0.06518905 -0.08912306 0.009466021 -0.024098204
000390 55 86 f9 3d 19 01 a8 bc 95 ed c1 3c b4 57 65 3c
       0.12183825 -0.020508336 0.023672858 0.013997961
0003a0 9e 4d 19 bc eb b3 05 3d e1 30 3a 3e ff 30 90 3d
       -0.009356884 0.032642286 0.18182708 0.07040595
0003b0 ac 86 50 bd 0c a7 aa 3d 3a ab 28 3d 94 c7 dd bc
       -0.050909683 0.08332643 0.04117892 -0.027072705
0003c0 86 01 b4 bc e9 f7 cf bd 60 1d f6 bd 75 5b 00 bd
       -0.021973383 -0.10154707 -0.120173216 -0.03133722
0003d0 6b 8c 3e bd 43 aa e7 bd 57 d6 dd bd 4b 12 98 bd
       -0.04652063 -0.11311772 -0.10831898 -0.07425364
0003e0 7c 16 9d bc e0 33 d3 bd f2 f8 bf bd c4 2c 50 3d
       -0.01917576 -0.10312629 -0.093736544 0.05082394
0003f0 dc e5 43 3b bc 20 e8 bc f5 d0 dc bd 87 5b d1 bd
       0.0029891646 -0.028335921 -0.10782043 -0.102225356

model.classifier.0.bias f4 [30]
000000 fe e0 d8 b1 d9 69 d6 b5 5b e8 68 34 61 b4 9f 35
       -6.312006e-09 -1.5975048e-06 2.1691214e-07 1.189892e-06
000010 5a fe 36 36 e1 56 79 b5 bc d9 98 b5 96 45 0b 34
       2.7268165e-06 -9.2886154e-07 -1.1388252e-06 1.2970699e-07
000020 26 ad 90 b4 f5 ef 0b 35 30 50 0b b5 a8 53 83 35
       -2.6948072e-07 5.213072e-07 -5.1898223e-07 9.784608e-07
000030 32 33 01 b6 d8 82 e7 34 bc 37 91 34 c0 8c 23 34
       -1.9252298e-06 4.3122304e-07 2.7048907e-07 1.5231763e-07
000040 5c c0 1f b3 e0 04 ef b3 75 e0 c8 35 cc ad 83 35
       -3.7195022e-08 -1.11301915e-07 1.4966487e-06 9.810842e-07
000050 91 92 ec 34 68 b4 d2 34 2d f9 de 35 0c 01 03 b4
       4.4065067e-07 3.924681e-07 1.6612809e-06 -1.2200707e-07
000060 2d 49 c9 34 85 7e f5 b4 73 33 2c b5 af c3 d8 b4
       3.749241e-07 -4.572686e-07 -6.414986e-07 -4.0375514e-07
000070 13 17 04 b6 66 b1 e3 35
       -1.9682964e-06 1.6964448e-06

model.classifier.1.weight f4 [5, 30]
000000 3e 01 80 be 8c 56 22 be 0c 14 75 3e 20 73 4c be
       -0.25000948 -0.15853328 0.23933429 -0.19965792
000010 7c 42 67 3c 05 fa 16 be ae 63 96 bd a6 92 9f bd
       0.014114972 -0.14743812 -0.07343231 -0.07791643
000020 1f 4a 38 be 41 61 ab be 0a 18 84 be 9a ae 2d be
       -0.17997025 -0.33472636 -0.2579959 -0.16961136
000030 dd 5f 8c 3e 0b b7 aa be 27 e1 a9 3e 9d c7 82 3e
       0.27416888 -0.33342776 0.3317959 0.25542918
000040 c1 e4 9d be 35 b4 55 3e c8 6f 81 be 48 a6 85 3e
       -0.30838588 0.20869525 -0.25280595 0.26103425
000050 c0 3a 7f be 4f 19 88 3e 01 ae 9f 3e 32 34 1b 3d
       -0.24924755 0.2658181 0.31187442 0.037891574
000060 fa 7f 75 3e a2 e3 4d bd 8e 99 e1 3c c8 ad 27 3e
       0.239746 -0.050265916 0.02753904 0.16374886
000070 9e 50 9d 3e c0 1d 8f 3e 51 e4 83 bd d2 11 9a 3e
       0.3072557 0.27952385 -0.06440032 0.3009172
000080 80 fb 6e 3e e0 01 65 be b1 14 18 3e e9 79 ab 3e
       0.23338127 -0.22363997 0.14851643 0.33491448
000090 c2 20 cc 3e a4 0d 9d 3b ce 2f 22 be 5e 8e 84 be
       0.39868742 0.004792886 -0.15838549 -0.25889868
0000a0 1f b5 ad 3e 71 63 29 be 1d 77 b7 be 36 61 dc be
       0.33927247 -0.1654184 -0.35833064 -0.43042916
0000b0 37 ea 81 3d 9a 59 88 be c8 42 42 3c 43 67 a8 3e
       0.06343501 -0.2663086 0.011856742 0.32891282
0000c0 e9 b5 92 be 6a 2d c4 be 11 f9 8c be 87 ee a4 be
       -0.2865441 -0.38315898 -0.27533773 -0.32213232
0000d0 0f 21 92 be 4e e3 6d 3e 60 04 90 be 49 07 4b 3e
       -0.28540847 0.23231241 -0.28128338 0.19826998
0000e0 22 66 b0 3e b0 01 95 3e 62 7f b2 3e 34 84 37 be
       0.3445292 0.2910285 0.3486281 -0.17921525
0000f0 69 ee 1f 3d 3e 31 23 3c e0 31 3e be 88 cf 42 3d
       0.039045725 0.009960471 -0.18573713 0.0475612
000100 06 50 20 be 5e 4c 6d 3e ac d8 e0 3d e6 32 37 bc
       -0.15655527 0.23173663 0.10978827 -0.011181569
000110 e9 3d 8f 3e b1 21 a2 bc e3 3b 52 3e de 0c 33 3e
       0.2797692 -0.019791456 0.20530657 0.17485377
000120 a9 51 4e 3e 06 dc 7a 3e 5c 06 0a be 9c ae d6 bd
       0.20148338 0.24497995 -0.13478988 -0.10482523
000130 4c 4e f2 3d 99 f3 58 be b5 4f f1 3d ca 56 40 be
       0.1183134 -0.21186675 0.11782781 -0.18783107
000140 2c 78 95 3d 6a 3f 4f 3d 63 95 18 be 46 de 11 be
       0.072983116 0.050597586 -0.14900737 -0.14244947
000150 da 7f a2 bb 9e f6 0a be 4e 06 2a bc e9 f0 f5 bd
       -0.0049590888 -0.1357064 -0.01037748 -0.120088406
000160 e2 13 e2 bd 00 8f f8 bd 60 e4 4e bc 9a 09 34 3e
       -0.110389486 -0.1213665 -0.012627691 0.17581788
000170 80 5c 97 be bd 26 e4 bc 0c da 42 be a0 e6 3b be
       -0.2956276 -0.027850503 -0.19028491 -0.18349695
000180 d2 a6 a7 be 56 e7 a0 3e 2a 51 b3 3d ef b2 4e 3e
       -0.3274446 0.31426495 0.08755715 0.20185445
000190 6b c4 13 bd 39 cb 4b be 96 eb c5 bd 15 99 65 3d
       -0.03607599 -0.19901742 -0.09664075 0.056054194
0001a0 1b 1d ee 3d 49 fc 4a 3e 63 44 2a 3e 1e 26 07 3e
       0.11626645 0.19822802 0.1662765 0.13198134
0001b0 18 bb 4a bd 22 e7 99 3e 45 8b 2c 3d 0f f5 81 3d
       -0.049494833 0.30059153 0.042125005 0.06345569
0001c0 41 0a fb bd bf 66 57 3e eb 6a 30 be 03 aa 81 3e
       -0.12257815 0.21035288 -0.17228286 0.2532502
0001d0 7a bb c4 be 8e 20 a2 be a5 4d 98 3d 6e 11 ea bd
       -0.38424283 -0.31665462 0.074366845 -0.11429106
0001e0 be 15 46 3e 2a ac 7c be 39 a1 72 3e 34 70 84 3e
       0.19344231 -0.2467505 0.23694314 0.25866854
0001f0 37 a6 a1 3e ef 21 5b be dd 52 28 ba de 32 7e be
       0.31572124 -0.21399663 -0.0006421039 -0.24824092
000200 68 a4 6d be 07 bd 80 3e ea db 7a be 6d da 46 3e
       -0.23207247 0.25144216 -0.24497953 0.1941926
000210 16 93 32 be 9d d8 0b 3e 12 98 6a be 02 19 c6 bd
       -0.17438921 0.1365685 -0.22909573 -0.096727386
000220 1b 7c cf bd aa ca 54 be e0 3b 86 3e a7 3a d1 bc
       -0.10131093 -0.20780435 0.26217556 -0.025540663
000230 7f b0 65 3e 24 5f 19 be 9b fc 83 3e 52 d4 3e be
       0.22430609 -0.149777 0.2577866 -0.18635681
000240 3a d0 1f 3e 9f bc 18 be 01 db 3e 3e 5a 25 47 3e
       0.15606776 -0.14915703 0.18638231 0.19447842
000250 70 7c c2 be f9 18 31 3e
       -0.37985563 0.17294683

model.classifier.1.bias f4 [5]
000000 8f 60 18 36 a0 50 a0 b5 98 30 f2 b3 79 b0 78 35
       2.270597e-06 -1.1944394e-06 -1.1277842e-07 9.2644e-07
000010 51 3b 3a 36
       2.7750687e-06

exp_avg f4 [30, 30]
000000 c1 61 7d b7 a9 21 98 b5 5e bd 95 36 01 f0 be 36
       -1.5102735e-05 -1.1334679e-06 4.4625913e-06 5.6903814e-06
000010 95 53 d9 b6 ee 66 a5 b6 ce 7e cb b6 1b aa 27 b7
       -6.476834e-06 -4.929366e-06 -6.0646335e-06 -9.993581e-06
000020 0b 23 af b4 35 5e 61 b5 ed 4e 0c b7 68 49 07 b7
       -3.2621787e-07 -8.395612e-07 -8.363027e-06 -8.063718e-06
000030 71 a7 98 36 82 1b 8c 37 90 71 34 35 2b 91 94 b6
       4.5494457e-06 1.670211e-05 6.722048e-07 -4.4276435e-06
000040 fa 15 36 b7 ae 0b 1b b6 6a 19 27 36 38 b1 41 37
       -1.0853162e-05 -2.3103598e-06 2.4899732e-06 1.1544958e-05
000050 90 43 6c 36 c0 11 d9 36 ca f4 a9 36 10 b8 54 37
       3.5206067e-06 6.4691703e-06 5.0650897e-06 1.267904e-05
000060 fc 58 80 b6 b9 f1 32 37 b9 42 91 b6 06 03 f0 35
       -3.8250564e-06 1.0665907e-05 -4.3291043e-06 1.7882273e-06
000070 50 da b7 36 f8 f0 73 b6 c7 bc 09 38 be 24 52 37
       5.47924e-06 -3.6350084e-06 3.2839158e-05 1.252553e-05
000080 56 54 45 36 41 c7 d9 b6 10 fb 9b 37 a2 9f 3c 35
       2.9404378e-06 -6.4903e-06 1.859435e-05 7.0267754e-07
000090 14 db ec 35 3c 1f 3e 37 3e 0b 4c 36 18 96 5c 37
       1.764713e-06 1.1332155e-05 3.0404913e-06 1.3147968e-05
0000a0 b0 76 d8 36 61 e4 3e 37 74 e0 ce b3 cf 37 3b b7
       6.4511187e-06 1.1378056e-05 -9.63345e-08 -1.11590625e-05
0000b0 da e7 99 34 2b 70 0b 37 20 df 71 35 ed 28 b1 36
       2.8667165e-07 8.311162e-06 9.0104186e-07 5.2797755e-06
0000c0 bd a7 94 b7 6f 69 2d b6 53 36 b9 b6 5b ae 26 b7
       -1.7721084e-05 -2.584038e-06 -5.519754e-06 -9.934966e-06
0000d0 d8 56 c6 36 90 73 bb b6 56 be 89 b7 36 18 34 b7
       5.91097e-06 -5.5864875e-06 -1.6420305e-05 -1.0734473e-05
0000e0 8b d6 f3 35 35 15 a0 b7 d8 f1 47 36 b6 91 df 36
       1.8167351e-06 -1.9083362e-05 2.9794082e-06 6.662881e-06
0000f0 dc 38 1f b8 38 66 cc b7 24 94 69 b7 68 bc 86 36
       -3.796151e-05 -2.4366294e-05 -1.3922374e-05 4.0154446e-06
000100 fc e9 59 b7 26 77 ca 36 f4 06 42 b6 47 81 a7 b7
       -1.2988687e-05 6.03394e-06 -2.89123e-06 -1.996815e-05
000110 ff a2 08 37 01 48 61 b7 dc c6 1d b5 32 95 e9 b6
       8.144182e-06 -1.342781e-05 -5.8776436e-07 -6.9613097e-06
000120 1d c1 52 b6 db 74 2c b7 94 55 36 b7 ff eb 84 b7
       -3.1404845e-06 -1.0279206e-05 -1.0867971e-05 -1.584552e-05
000130 dd 0b f7 b6 f6 c7 48 b7 e2 a3 b7 37 ee c7 f8 36
       -7.3625547e-06 -1.1967486e-05 2.1891614e-05 7.414251e-06
000140 b9 89 8f 36 cb ee b0 b5 e5 03 33 b4 d1 4a 06 38
       4.277765e-06 -1.318252e-06 -1.6672091e-07 3.2017768e-05
000150 40 89 d9 37 0c 3c 98 36 39 cf 4d b6 cf d5 ec 37
       2.5932328e-05 4.5369434e-06 -3.0668e-06 2.8232955e-05
000160 8b 93 30 34 fc d1 24 b7 c7 0d ad b7 c8 41 3f b6
       1.6444953e-07 -9.8240525e-06 -2.0629623e-05 -2.8499508e-06
000170 f9 0d a5 36 73 0c de 36 d6 7c 46 b7 87 fd 01 b7
       4.91901e-06 6.617565e-06 -1.1830785e-05 -7.748028e-06
000180 cc bf f4 b6 b6 2d 3f b7 d7 25 7a b6 d8 9d a5 b6
       -7.2940948e-06 -1.139513e-05 -3.7274929e-06 -4.9357586e-06
000190 35 ae 45 b7 97 ce 2f b7 53 ee b1 36 44 6c be 37
       -1.1782676e-05 -1.0478913e-05 5.3027557e-06 2.270018e-05
0001a0 9e 07 56 35 72 72 c7 b6 fd 87 20 b7 31 7f 09 b6
       7.9732297e-07 -5.9439853e-06 -9.568405e-06 -2.0488626e-06
0001b0 33 cb bd 36 26 fc 1c 37 bb 1d 69 36 2d 85 27 37
       5.6562944e-06 9.3570325e-06 3.473701e-06 9.984983e-06
0001c0 2e 3c d6 35 df 6a 18 37 b7 3e 04 b5 08 31 7a 37
       1.5961757e-06 9.084789e-06 -4.9265094e-07 1.4912577e-05
0001d0 36 b9 92 b6 8a 1e 47 36 ab c2 df 36 c7 fc 44 b6
       -4.3727005e-06 2.9671087e-06 6.66858e-06 -2.9353412e-06
0001e0 b5 e0 0c b8 60 84 9f b7 25 1b 00 b7 57 5c 95 36
       -3.3587876e-05 -1.9015919e-05 -7.635715e-06 4.451296e-06
0001f0 53 90 57 b7 8d ae 7e b6 6b d1 12 b7 9c c0 b8 b7
       -1.2848602e-05 -3.7950551e-06 -8.751037e-06 -2.20242e-05
000200 c3 c2 7b 36 3d bf 46 b7 05 84 18 b7 53 96 12 b7
       3.751528e-06 -1.1846246e-05 -9.090644e-06 -8.737278e-06
000210 4a 82 95 35 f4 f1 a2 36 c2 a6 2e b7 40 ce 86 b7
       1.1139284e-06 4.8561433e-06 -1.04100345e-05 -1.6070087e-05
000220 61 81 51 b7 c5 7a 19 b7 15 60 77 37 f8 c8 19 37
       -1.2487494e-05 -9.148095e-06 1.4744718e-05 9.166302e-06
000230 17 0e c5 35 79 62 e0 35 13 18 c6 35 f1 e1 02 38
       1.4681744e-06 1.671796e-06 1.4759156e-06 3.120484e-05
000240 f5 5f 90 37 8d ee 55 37 ed 88 a5 b6 76 2b 7c 37
       1.7210821e-05 1.2751331e-05 -4.9333235e-06 1.50304895e-05
000250 16 b1 38 37 80 1b ba b6 a7 c2 62 b7 be 4c 89 36
       1.1008486e-05 -5.5464334e-06 -1.3515971e-05 4.091852e-06
000260 8d d2 e6 b5 6e 05 1f 37 a9 39 b9 36 57 a5 18 38
       -1.7197614e-06 9.478403e-06 5.520142e-06 3.639361e-05
000270 ae f2 8f 37 69 3f a1 36 de 3d a6 37 c2 0c 9b 37
       1.7159935e-05 4.805556e-06 1.9817551e-05 1.848338e-05
000280 bc f3 d9 37 7e 9a ee b6 99 07 d1 b6 6c 05 d1 b7
       2.5981913e-05 -7.110938e-06 -6.22957e-06 -2.4917266e-05
000290 03 d9 81 37 ec bd 31 37 9f a6 cd b6 25 28 26 b7
       1.5479052e-05 1.0594242e-05 -6.1288733e-06 -9.903718e-06
0002a0 1c 08 06 37 75 5e ed 37 09 9e bc 37 6e cf 86 b5
       7.9889105e-06 2.8296587e-05 2.2484937e-05 -1.0044148e-06
0002b0 8f 1c 9d 37 43 af 9d 37 16 4d 25 b7 32 80 c7 b7
       1.8729157e-05 1.8797471e-05 -9.852714e-06 -2.3782344e-05
0002c0 d9 3b 96 b4 58 39 19 38 94 8c 39 b8 2a b2 e1 b7
       -2.7983222e-07 3.6531448e-05 -4.423836e-05 -2.6905054e-05
0002d0 70 55 1a b8 8f 2d 29 b7 8c 27 06 b7 0a 48 49 37
       -3.679603e-05 -1.0083792e-05 -7.99623e-06 1.19973065e-05
0002e0 02 f5 8d b6 d6 e5 0c 38 c9 57 4e 37 a2 6c 20 b7
       -4.23065e-06 3.3592652e-05 1.2298996e-05 -9.562036e-06
0002f0 1a f9 b7 37 b4 3c 11 37 aa ed a9 37 4a e9 4e b7
       2.1931297e-05 8.656807e-06 2.025704e-05 -1.2332874e-05
000300 47 74 c4 b6 a5 4b c0 b7 ca 43 0a 37 c4 f3 34 b5
       -5.8547917e-06 -2.2923408e-05 8.241224e-06 -6.740995e-07
000310 a6 92 55 b7 43 4b 85 b7 6d 72 a7 37 5f d9 06 38
       -1.2729934e-05 -1.5889882e-05 1.9961235e-05 3.2150532e-05
000320 a8 6d c3 37 e7 1c 4f 34 dc e4 94 37 8c ad 1d 38
       2.3296874e-05 1.9288892e-07 1.7749546e-05 3.7593345e-05
000330 fa 06 98 36 b5 24 80 b7 5f 94 5c b6 91 d8 48 38
       4.530765e-06 -1.5275882e-05 -3.2868918e-06 4.788541e-05
000340 b5 39 1c b8 fa d2 fd b7 55 f6 47 38 1c 88 91 37
       -3.7247042e-05 -3.0258194e-05 4.7674712e-05 1.7348728e-05
000350 c8 aa ec 36 f3 ed 37 b7 f1 01 97 37 fc 00 62 b7
       7.0532296e-06 -1.0963052e-05 1.8001507e-05 -1.3470879e-05
000360 ac 54 22 b6 e8 8f 91 37 df 2d 01 b7 10 2b 08 37
       -2.4189167e-06 1.7352359e-05 -7.699679e-06 8.116258e-06
000370 02 d4 20 b6 70 30 82 37 ab 07 13 36 53 e3 8d 34
       -2.3965263e-06 1.5519763e-05 2.190917e-06 2.6428697e-07
000380 4b bf b7 b5 7f 52 25 37 e5 d0 1c 37 a1 b8 57 37
       -1.3690236e-06 9.853974e-06 9.346962e-06 1.2857986e-05
000390 db d1 d2 b7 5d 80 9b b7 4b d9 7d b7 83 cb 02 b7
       -2.5131672e-05 -1.8537214e-05 -1.5130568e-05 -7.795988e-06
0003a0 54 8b 8d b6 45 13 eb b7 00 42 92 b7 c4 4d 70 b6
       -4.2183474e-06 -2.8023156e-05 -1.743529e-05 -3.5808052e-06
0003b0 dc bd 80 36 91 f9 21 b8 42 a4 8b 37 28 1f a5 37
       3.8368e-06 -3.8617818e-05 1.664658e-05 1.9684041e-05
0003c0 0e 21 65 37 67 4c 9b 37 7e 85 22 37 d9 8a 74 36
       1.365716e-05 1.8513017e-05 9.6870335e-06 3.6439653e-06
0003d0 ce 75 ed 36 6d aa 69 37 2a a1 3c 37 80 a4 8a 37
       7.0768647e-06 1.3927563e-05 1.1243197e-05 1.6527483e-05
0003e0 55 14 d1 35 27 35 83 37 0c 0b 4f 37 08 92 b1 b5
       1.5577631e-06 1.5641168e-05 1.23407335e-05 -1.3230028e-06
0003f0 54 9f 33 b5 72 4d 43 b5 8d 80 8f 37 18 c5 88 37
       -6.691455e-07 -7.275586e-07 1.710679e-05 1.6304242e-05

exp_avg_sq f4 [30, 30]
000000 8b 0d 0c 30 9e 1f 10 2f c7 0c 26 2f a4 3e ad 2e
       5.095095e-10 1.3107956e-10 1.5102151e-10 7.8782564e-11
000010 82 b8 41 2f 8d 9a a5 2f ed be 33 2f 7a 7f 09 30
       1.7618798e-10 3.012314e-10 1.6347786e-10 5.0021465e-10
000020 dd 4f cd 2e 0e f4 4c 2f a1 59 34 2f 66 bc ab 2f
       9.336507e-11 1.8640398e-10 1.6402747e-10 3.1238584e-10
000030 47 37 20 2f de a9 f1 2f 73 9c 0b 2f 02 c9 c8 2f
       1.4571554e-10 4.3958343e-10 1.2697558e-10 3.6522613e-10
000040 37 12 5f 30 c1 cc f0 2e 71 0c c8 2e 5c c4 c6 2f
       8.115281e-10 1.0950308e-10 9.097157e-11 3.6155512e-10
000050 16 8b f0 2e 79 0b 3e 2f db f2 93 2f 3a fc 73 30
       1.0938643e-10 1.7284475e-10 2.6911703e-10 8.876132e-10
000060 e7 88 8f 2f 27 b5 d7 2f 5d 6d 01 2f 99 05 32 2f
       2.6108823e-10 3.923699e-10 1.1771335e-10 1.6190994e-10
000070 6e d4 b4 2f 83 c8 aa 2f ba dc 01 31 4a 82 6f 2f
       3.289275e-10 3.1065292e-10 1.889744e-09 2.1783211e-10
000080 23 17 97 2f 16 98 72 2f 2b 35 69 30 77 7d e5 2f
       2.748318e-10 2.2063804e-10 8.484046e-10 4.1744005e-10
000090 df 05 44 2f c0 5a 05 30 2e 3f 98 2f 91 61 0b 30
       1.7828182e-10 4.851408e-10 2.769353e-10 5.0706556e-10
0000a0 36 92 75 30 14 2b 08 30 d8 93 fa 2e 84 90 95 30
       8.933826e-10 4.953773e-10 1.1394946e-10 1.0882251e-09
0000b0 67 fc 41 2f a2 3c 9b 2f 82 0e c1 2f 30 93 2a 2f
       1.7642919e-10 2.8237418e-10 3.5116804e-10 1.5513701e-10
0000c0 06 33 13 30 51 d9 da 2f d7 3e 17 2f 5c cd 05 30
       5.3550797e-10 3.9808382e-10 1.3755695e-10 4.867695e-10
0000d0 41 16 5b 2f cf a3 89 30 8f 6b a0 30 7c fc 4a 30
       1.992584e-10 1.0014619e-09 1.1672102e-09 7.3845974e-10
0000e0 7e ab 13 2f e8 34 cb 2f 7a 40 34 30 a9 1d 9d 2f
       1.3430498e-10 3.6963077e-10 6.5575245e-10 2.8579208e-10
0000f0 ae 11 e0 30 7e 5e a9 30 c5 4c e2 30 40 e6 83 2f
       1.630317e-09 1.2323225e-09 1.6465483e-09 2.3992364e-10
000100 65 1a 89 30 9e 48 73 30 7e 5c 4e 30 7c 4b 48 30
       9.975564e-10 8.850608e-10 7.50738e-10 7.2866846e-10
000110 c8 02 88 2f 23 04 86 30 12 46 69 30 c1 5b 67 30
       2.4740232e-10 9.750959e-10 8.486448e-10 8.41677e-10
000120 ad b9 84 2f 25 b0 2d 30 b2 d4 89 30 4d 82 84 30
       2.414259e-10 6.318735e-10 1.0028514e-09 9.641298e-10
000130 f9 cb fd 2f 5e 90 5d 2f ff 55 66 30 55 2f 94 30
       4.6165363e-10 2.0151122e-10 8.379572e-10 1.078187e-09
000140 65 ad 24 30 9d 10 db 2f bb 5f 1c 30 87 88 83 30
       5.990926e-10 3.9847672e-10 5.688851e-10 9.570308e-10
000150 c6 d9 3a 31 73 7f 05 30 50 cf 10 2f 0c 4b 9a 30
       2.7190352e-09 4.8566234e-10 1.3170376e-10 1.1226304e-09
000160 dd 39 f8 30 af e6 c2 30 b3 53 84 30 0a 34 3a 2f
       1.8060821e-09 1.4180922e-09 9.628053e-10 1.693509e-10
000170 72 4f c1 2f 93 2f 25 2f df 62 6e 2f c4 fe 05 30
       3.5162945e-10 1.5023564e-10 2.16811e-10 4.874716e-10
000180 94 78 57 2f 27 8c 26 30 00 19 9f 2e 04 22 9a 2f
       1.9596974e-10 6.0589617e-10 7.234924e-11 2.8036606e-10
000190 e3 6a ca 2f e3 94 e6 2f 23 dd 3c 2f 56 9d 98 30
       3.6819534e-10 4.1942547e-10 1.7177064e-10 1.1104173e-09
0001a0 d8 98 3b 2f 5d eb e1 2f d5 05 57 30 15 75 0c 2f
       1.7061852e-10 4.1094497e-10 7.822483e-10 1.2774522e-10
0001b0 16 5c d5 2e c7 10 fe 2f d2 72 1c 2f 9d 13 fd 2f
       9.702476e-11 4.6214252e-10 1.422891e-10 4.6034368e-10
0001c0 3a 36 b7 2f 96 0c 30 30 40 c4 a8 2f 2d 42 5b 30
       3.3326036e-10 6.404631e-10 3.0698466e-10 7.976578e-10
0001d0 dd e2 3c 2f 55 d6 5d 2f 77 f3 1b 30 ee df b4 2f
       1.7179098e-10 2.0175979e-10 5.6734656e-10 3.290092e-10
0001e0 50 2d 98 30 e6 05 5b 30 af 72 61 30 d3 d9 19 2f
       1.1072334e-09 7.968012e-10 8.20175e-10 1.3992656e-10
0001f0 21 7e 07 30 32 85 97 30 0c 21 57 30 43 9b 82 30
       4.9291954e-10 1.1024552e-09 7.8263507e-10 9.502873e-10
000200 7d 95 f5 2e c2 06 34 30 d8 c3 3a 30 5a 80 bc 2f
       1.11678645e-10 6.549322e-10 6.7944717e-10 3.42882e-10
000210 b8 9d 10 2f cb 39 dd 2f 8a 67 3e 30 52 5a a0 30
       1.3152757e-10 4.024073e-10 6.9268735e-10 1.1667203e-09
000220 e5 69 d5 2f cd 23 c3 2e 35 ec af 2f 0b 3b 01 30
       3.8819717e-10 8.873933e-11 3.200015e-10 4.701383e-10
000230 9b 90 ae 2f 1b bd 40 2f d3 15 5b 2f a6 6c 97 30
       3.1753164e-10 1.7529482e-10 1.9925687e-10 1.1017576e-09
000240 f4 0f a0 30 fd 01 47 30 f4 68 c0 2e ca 66 2a 30
       1.1646066e-09 7.2398604e-10 8.7497926e-11 6.199171e-10
000250 55 2d ce 30 95 33 37 30 cd a9 2e 30 6d cc ea 2f
       1.5001357e-09 6.6648315e-10 6.354213e-10 4.2709605e-10
000260 b0 5a 17 30 49 39 53 2f a0 27 29 30 52 9c 16 31
       5.5062355e-10 1.921069e-10 6.153815e-10 2.191673e-09
000270 7f 86 19 30 8e c7 a2 2f d0 d4 41 30 99 a9 24 30
       5.5852206e-10 2.960942e-10 7.0515416e-10 5.9903865e-10
000280 cb 61 ab 30 ea 03 1f 30 40 77 87 2f 09 3d 27 31
       1.2469682e-09 5.7849425e-10 2.464109e-10 2.4336393e-09
000290 ab 4f 1b 30 76 2e f0 2f 21 c9 f4 2f d6 48 a0 2f
       5.6501887e-10 4.3688758e-10 4.4526252e-10 2.9155584e-10
0002a0 9f 46 b4 2f 68 f7 84 30 78 23 54 30 9e 3e 36 30
       3.2791989e-10 9.674581e-10 7.7175555e-10 6.63002e-10
0002b0 32 2a fd 2f 89 72 80 30 89 7e 41 30 f1 b1 cd 30
       4.6050413e-10 9.345779e-10 7.039281e-10 1.4966287e-09
0002c0 76 fe ed 2e 94 68 f1 30 b2 f2 51 31 01 5d ea 30
       1.08227136e-10 1.7564781e-09 3.055146e-09 1.7052174e-09
0002d0 86 b4 ab 30 49 7d 93 30 11 a9 89 30 7c 1c 19 2f
       1.2493195e-09 1.0731266e-09 1.0016113e-09 1.3925389e-10
0002e0 56 01 41 30 17 b9 6f 30 94 93 de 2f 72 1e f7 2f
       7.021489e-10 8.721072e-10 4.0486425e-10 4.495067e-10
0002f0 e4 97 34 30 f0 4b 2e 30 5c 97 1c 30 14 87 4b 30
       6.569947e-10 6.3408745e-10 5.6967564e-10 7.404293e-10
000300 6d 4b 72 2f 56 31 17 31 c1 18 0c 30 8e df d6 2f
       2.2036568e-10 2.2001436e-09 5.096688e-10 3.9085218e-10
000310 ea 62 b8 2f 71 c6 af 2f 51 c9 54 30 36 a7 27 30
       3.3539688e-10 3.1973316e-10 7.741124e-10 6.0991867e-10
000320 e3 55 d9 2f 19 59 22 30 98 11 e2 2f 64 b8 ce 30
       3.9533096e-10 5.906187e-10 4.1121662e-10 1.504088e-09
000330 a0 a0 e4 30 6c 16 52 30 d0 07 02 2f f9 f5 a4 30
       1.6634836e-09 7.642942e-10 1.1826207e-10 1.200248e-09
000340 98 dc cd 30 d6 8f 93 30 79 0d 28 31 17 a2 12 30
       1.497841e-09 1.0736538e-09 2.4454876e-09 5.3344834e-10
000350 ef 02 d2 2f 3f ef 2f 2f 50 46 81 30 fa 10 c8 2f
       3.8200862e-10 1.6001155e-10 9.405969e-10 3.639185e-10
000360 22 07 9c 2f 01 78 41 30 51 52 21 2f fc 9b 43 30
       2.8381303e-10 7.0383527e-10 1.467211e-10 7.1162254e-10
000370 e6 8a 27 30 22 b0 53 30 23 57 1f 2f 67 e4 ba 2f
       6.095163e-10 7.701165e-10 1.4491923e-10 3.3995493e-10
000380 33 78 c5 2f c6 5b 08 30 45 32 87 2f bc 99 07 2f
       3.5919498e-10 4.960693e-10 2.4592076e-10 1.2332796e-10
000390 2a 5d 80 30 2a af 93 2f 89 f3 53 2f a9 16 bc 2e
       9.339705e-10 2.6863606e-10 1.9276859e-10 8.5532754e-11
0003a0 af 0f f3 2e 91 bd 14 30 e2 70 0a 31 3e 2a 05 30
       1.10531466e-10 5.4111476e-10 2.014581e-09 4.844515e-10
0003b0 58 4e 13 2f 09 6c 45 30 d4 fa 39 30 5c 89 1b 30
       1.3397405e-10 7.182171e-10 6.7659056e-10 5.658387e-10
0003c0 8e 11 3d 30 7b fd 2e 30 d9 e7 aa 30 13 a9 9d 2f
       6.8782746e-10 6.366105e-10 1.2435023e-09 2.8678268e-10
0003d0 a7 95 ed 2f e5 22 f8 30 83 96 7b 30 74 03 f3 2f
       4.3216383e-10 1.8054293e-09 9.152716e-10 4.4203896e-10
0003e0 54 08 65 2f 4a bf 32 30 e2 ec 63 30 3a 7e 30 30
       2.0830387e-10 6.502786e-10 8.291875e-10 6.4207806e-10
0003f0 99 14 4e 2f 59 91 9b 2f c9 57 83 30 bb 77 80 30
       1.8742909e-10 2.8297611e-10 9.556455e-10 9.347255e-10

exp_avg f4 [30]
000000 cb 05 16 ad 5e 70 3e 2e 04 e6 2b ae 81 1b b5 ad
       -8.527799e-12 4.33008e-11 -3.9085193e-11 -2.0589532e-11
000010 0c 99 d2 ad a8 60 21 2e f8 46 3f 2e be 45 83 2d
       -2.3942202e-11 3.669301e-11 4.3491405e-11 1.4923947e-11
000020 8c 16 ea 2d 92 5d 19 ae 4e 0d 76 2e f2 38 8f 2c
       2.6612733e-11 -3.487128e-11 5.594574e-11 4.0706266e-12
000030 90 18 9d 2d f5 ad ae ad 71 00 80 ab 48 01 33 2d
       1.7859741e-11 -1.9858762e-11 -9.09507e-13 1.01752565e-11
000040 78 bc 81 2d 13 9d 9c 2d 10 eb 9b ad 5d e1 98 ac
       1.4749299e-11 1.7804902e-11 -1.7725849e-11 -4.34512e-12
000050 19 2e 03 ae ad b0 db ad 60 7b 82 ae 63 5b 43 2d
       -2.9826894e-11 -2.4975877e-11 -5.9336314e-11 1.1104759e-11
000060 13 17 dc ad 01 19 2f 2d 11 ba d1 ac 55 52 df ad
       -2.5021351e-11 9.95315e-12 -5.960795e-12 -2.5388728e-11
000070 7d 2a c6 2d 60 62 45 ae
       2.2528862e-11 -4.487999e-11

exp_avg_sq f4 [30]
000000 43 34 4a 28 67 9f d3 24 f9 8e 51 27 1a 23 6f 24
       1.1224585e-14 9.17767e-17 2.9082082e-15 5.1854596e-17
000010 86 26 f9 20 31 39 83 27 da 3e 33 28 d1 bc 05 28
       4.2207733e-19 3.642181e-15 9.950125e-15 7.423926e-15
000020 a0 e5 26 28 57 22 6d 28 b3 21 06 27 31 95 d2 26
       9.264643e-15 1.3163589e-14 1.8614504e-15 1.4612116e-15
000030 fb 6c 38 25 50 38 ee 27 14 87 40 28 58 36 7c 27
       1.599638e-16 6.6119324e-15 1.06874314e-14 3.5001485e-15
000040 83 08 a3 27 76 7f 12 28 9b e9 fa 26 80 f6 9b 27
       4.5250817e-15 8.132267e-15 1.7410554e-15 4.32884e-15
000050 be c5 de 27 cb bc 77 28 cb 75 df 24 c6 f2 3c 28
       6.183177e-15 1.3752192e-14 9.691038e-17 1.04887395e-14
000060 96 42 6f 27 c4 04 57 24 9b 3d f3 25 2a be 8f 27
       3.320401e-15 4.662473e-17 4.2195526e-16 3.989665e-15
000070 ec 03 e4 26 fa 90 4d 26
       1.5821741e-15 7.132014e-16

exp_avg f4 [5, 30]
000000 c9 3e 97 37 bd ed ea 35 df 40 c7 b7 2d 23 a5 37
       1.802984e-05 1.750355e-06 -2.3752857e-05 1.9685913e-05
000010 76 5e c1 b6 13 80 91 b3 b4 b9 fc b6 2f a8 b0 36
       -5.762845e-06 -6.775385e-08 -7.531804e-06 5.264788e-06
000020 92 58 92 37 6a e4 ff 37 9a 0e 01 37 5c c3 84 37
       1.74458e-05 3.0504732e-05 7.692399e-06 1.5826598e-05
000030 2d e5 0e b7 24 fe 12 38 4d 52 c5 b7 6c 41 10 b7
       -8.517219e-06 3.50458e-05 -2.3522554e-05 -8.598301e-06
000040 95 33 ad 37 70 ed c3 b7 e8 9c d1 37 6a ca ce b6
       2.0647227e-05 -2.3356377e-05 2.4987807e-05 -6.1628425e-06
000050 da ad cf 37 49 c2 05 b7 1e d6 5d b7 60 e7 21 b7
       2.4757279e-05 -7.972653e-06 -1.32224795e-05 -9.650219e-06
000060 bd b7 06 b7 15 23 42 b6 56 08 55 b7 50 f4 a9 b7
       -8.029802e-06 -2.8928673e-06 -1.269773e-05 -2.0260137e-05
000070 e9 a3 fd b7 e9 f9 65 b7 fd 47 eb b6 99 03 b5 b7
       -3.0236277e-05 -1.370765e-05 -7.0119263e-06 -2.1578557e-05
000080 04 7a e4 b4 fb 72 83 36 f0 97 a7 b6 fa 14 da b7
       -4.2557087e-07 3.9174897e-06 -4.9946757e-06 -2.5997393e-05
000090 15 a0 ce b7 86 04 1c b6 77 c7 36 b6 e0 bb 15 36
       -2.4631658e-05 -2.3248444e-06 -2.7236217e-06 2.2312088e-06
0000a0 e1 b9 fc b7 6f e5 8a b4 d3 6a d9 37 3e 6b f4 36
       -3.0127298e-05 -2.5871438e-07 2.591816e-05 7.2842513e-06
0000b0 27 0e 3a 37 44 ca cf 37 94 5c 6a b7 7b 3f e9 b6
       1.1089759e-05 2.477051e-05 -1.3969042e-05 -6.951331e-06
0000c0 4c c7 95 36 99 07 04 38 11 b6 9b 36 38 c5 d8 37
       4.4637472e-06 3.147833e-05 4.6405553e-06 2.5841044e-05
0000d0 9e 94 f0 37 f8 04 0b b7 e0 e6 c3 37 f4 e2 20 b7
       2.8679435e-05 -8.2862025e-06 2.3353321e-05 -9.589585e-06
0000e0 41 57 88 b7 6f a3 ef b6 13 51 d2 b6 4d 27 b5 37
       -1.6253094e-05 -7.141781e-06 -6.267926e-06 2.1595182e-05
0000f0 70 7c 10 b7 85 9d 0a b7 dd cd 66 38 b7 82 3e b7
       -8.612042e-06 -8.262116e-06 5.5028e-05 -1.1355317e-05
000100 22 17 2e 38 11 88 0e b8 c2 43 cf b5 c5 3a 63 b7
       4.1506377e-05 -3.398216e-05 -1.5442422e-06 -1.3543938e-05
000110 08 d6 80 b8 16 e4 34 b7 c4 ac 1a b8 ce 59 e7 b7
       -6.143382e-05 -1.07819415e-05 -3.687736e-05 -2.7579164e-05
000120 59 b7 11 b8 0d 3a 72 b8 16 af cb 37 f4 39 20 37
       -3.474145e-05 -5.775136e-05 2.4281017e-05 9.550236e-06
000130 74 15 10 b8 7f 0d 29 38 85 d8 d9 b7 32 34 ad 37
       -3.4352255e-05 4.030531e-05 -2.596924e-05 2.0647512e-05
000140 4f 34 b3 b7 64 0e 82 b7 ef 66 12 38 f0 84 a9 37
       -2.1362821e-05 -1.5503909e-05 3.4904977e-05 2.0208274e-05
000150 f9 8c 06 37 4b 44 81 37 a2 a9 cc 37 1a 39 36 38
       8.019845e-06 1.54098e-05 2.4397687e-05 4.344536e-05
000160 10 ea cd 37 7a 89 fa 37 1b 5f ba 37 5f 62 31 b7
       2.4546898e-05 2.986634e-05 2.2217215e-05 -1.0572926e-05
000170 35 44 14 37 01 18 a9 37 b2 f5 f7 36 ab a9 c3 38
       8.837368e-06 2.0157548e-05 7.3897763e-06 9.329928e-05
000180 f1 79 c2 38 e6 64 5c b8 3d 8c 3e 38 00 04 c8 b7
       9.273354e-05 -5.2546056e-05 4.5430137e-05 -2.384372e-05
000190 66 36 93 38 93 b7 9a 38 f2 c6 da 37 46 a5 4a 38
       7.019639e-05 7.3774856e-05 2.6080266e-05 4.8314476e-05
0001a0 fd b2 89 b8 9b 2e a2 b8 24 7d 61 37 5c 2a 8e b8
       -6.566008e-05 -7.733443e-05 1.3440182e-05 -6.778978e-05
0001b0 b8 d6 28 38 7e b5 f2 b8 d8 64 8a 37 1b 36 cc b7
       4.0254294e-05 -0.00011573265 1.6497841e-05 -2.434389e-05
0001c0 89 eb 10 b8 7d 7b 77 b8 a2 05 cb 36 05 74 7c b8
       -3.4551635e-05 -5.9004396e-05 6.050527e-06 -6.0189534e-05
0001d0 72 5e 9b 38 28 ab 02 38 d4 4f 3d b8 bf de d6 b7
       7.408568e-05 3.1153817e-05 -4.5135457e-05 -2.5614512e-05
0001e0 e3 12 08 b8 26 a5 56 38 6e 10 2d b8 d7 da 43 b8
       -3.2442516e-05 5.1175382e-05 -4.1261716e-05 -4.6695433e-05
0001f0 cf 9c 5f b8 44 d2 30 38 98 09 07 36 b4 34 45 38
       -5.3313383e-05 4.2157495e-05 2.0122152e-06 4.7017544e-05
000200 98 77 26 38 71 5b 30 b8 79 f4 4f 38 2d 34 1c b8
       3.9688864e-05 -4.204683e-05 4.958033e-05 -3.724189e-05
000210 4a 2e b5 37 57 34 e1 b7 a7 d2 25 38 db b5 68 37
       2.1598436e-05 -2.6846463e-05 3.953525e-05 1.3870619e-05
000220 a8 3c bf 37 e4 d3 2a 38 a0 5a 4a b8 eb 56 bc 34
       2.279722e-05 4.0728497e-05 -4.8244954e-05 3.508097e-07
000230 15 4b 29 b8 be cd a2 37 06 c8 5c b8 33 b0 22 38
       -4.0362665e-05 1.9407711e-05 -5.2638374e-05 3.8787908e-05
000240 0b 3d 19 b8 17 51 0c 38 25 0b 00 b8 49 e4 09 b8
       -3.6534893e-05 3.3454122e-05 -3.0527957e-05 -3.2875952e-05
000250 cb a3 90 38 08 cf 19 b8
       6.896964e-05 -3.6670855e-05

exp_avg_sq f4 [5, 30]
000000 73 29 5f 31 f5 a0 d5 30 d9 25 4d 31 e3 b1 37 31
       3.2474332e-09 1.5543536e-09 2.985294e-09 2.6731122e-09
000010 84 33 93 30 e4 1e d0 30 a5 c5 01 31 48 9f dc 30
       1.0710299e-09 1.5142771e-09 1.8884319e-09 1.6052377e-09
000020 f7 9a bf 30 fd ce ba 31 8b 48 41 31 35 7c 3c 31
       1.3941123e-09 5.4368443e-09 2.8126432e-09 2.7428204e-09
000030 3b ce 7b 31 0a 33 c4 31 5e 17 d0 31 be c4 87 31
       3.6642536e-09 5.7101532e-09 6.0562533e-09 3.951384e-09
000040 ba 99 7c 31 e1 f7 6b 31 a9 e1 8b 31 5f c2 a4 31
       3.675821e-09 3.4337904e-09 4.071087e-09 4.7951256e-09
000050 c8 eb 6d 31 75 91 7b 31 a6 4b 83 31 d9 d5 ae 30
       3.4622065e-09 3.660799e-09 3.821202e-09 1.2720945e-09
000060 ee 36 29 31 b7 5f 98 30 75 82 16 31 90 6d 12 31
       2.462396e-09 1.1086659e-09 2.190203e-09 2.1308075e-09
000070 a3 f2 dc 31 3d f6 4f 31 41 e3 34 30 68 c9 60 31
       6.4304273e-09 3.0262435e-09 6.5806566e-10 3.2710776e-09
000080 3f a6 54 31 73 00 0e 31 ee 3e d7 30 b4 b6 8e 31
       3.094456e-09 2.0663975e-09 1.5661195e-09 4.153515e-09
000090 da cc c5 31 a3 c1 57 30 c5 8f ed 30 40 c9 44 31
       5.7567435e-09 7.849172e-10 1.7284881e-09 2.8636151e-09
0000a0 45 69 98 31 7b 0f df 30 0d 70 9f 31 e5 1d f8 31
       4.43575e-09 1.6229785e-09 4.6402477e-09 7.2211486e-09
0000b0 8f 32 bb 30 5b 58 5a 31 a4 d6 5c 30 b0 ca 93 31
       1.362041e-09 3.17734e-09 8.0340556e-10 4.301306e-09
0000c0 40 1a 6a 31 4d 1e cc 31 52 d1 4c 31 ef a1 87 31
       3.4066403e-09 5.940626e-09 2.9804892e-09 3.947427e-09
0000d0 af b1 71 31 b6 9e 12 31 29 c9 48 31 66 8d dd 30
       3.5171117e-09 2.1336013e-09 2.9218177e-09 1.6120054e-09
0000e0 77 ec a8 31 1b 3b 81 31 c3 d3 b1 31 de 33 eb 30
       4.9163265e-09 3.7611136e-09 5.1754525e-09 1.7113242e-09
0000f0 e6 59 b0 2f 45 af 0d 30 5f 58 27 32 bf 78 de 2f
       3.207809e-10 5.1544574e-10 9.740773e-09 4.046736e-10
000100 f2 4f ec 31 ce 2a 44 32 7e bb 2d 31 15 c8 2e 30
       6.8775927e-09 1.1418434e-08 2.528139e-09 6.3585165e-10
000110 aa e0 99 32 de e2 8a 30 c6 02 24 32 f4 56 c4 31
       1.791371e-08 1.0105301e-09 9.546687e-09 5.714236e-09
000120 3b 76 24 32 28 5b 59 32 f7 8d 63 31 f6 70 07 31
       9.572939e-09 1.2651789e-08 3.3113545e-09 1.9709296e-09
000130 95 92 85 31 a7 70 14 32 db 64 32 31 8b 73 e5 31
       3.887474e-09 8.640348e-09 2.5959739e-09 6.677913e-09
000140 d5 84 9c 30 4f 1b aa 30 28 ff cb 31 a8 fc 85 31
       1.1388247e-09 1.237689e-09 5.9370855e-09 3.899533e-09
000150 31 79 0c 30 fb 53 80 31 d9 85 8a 30 85 17 aa 31
       5.1103927e-10 3.7348378e-09 1.0078863e-09 4.950325e-09
000160 73 11 16 31 6b d4 88 31 7b 8e 85 2f c2 27 52 31
       2.1837792e-09 3.98227e-09 2.4293798e-10 3.0581622e-09
000170 70 76 f7 31 06 c8 59 2f fe 57 40 31 39 9b 99 31
       7.202111e-09 1.9807098e-10 2.7989695e-09 4.470533e-09
000180 9a 59 19 32 5d 5d 07 32 6b 29 fe 30 1a ec 5a 31
       8.926145e-09 7.879263e-09 1.8492704e-09 3.1857383e-09
000190 33 d7 11 31 ca aa 8d 31 da 24 fb 30 28 a5 ba 30
       2.1222604e-09 4.1230566e-09 1.8273127e-09 1.3580221e-09
0001a0 a1 58 0b 31 3e df 87 31 b4 60 46 31 eb fb 34 31
       2.0277542e-09 3.954397e-09 2.8867762e-09 2.6336646e-09
0001b0 8f 7b 44 30 ba 49 19 32 9b bc 9a 2f 05 c3 32 30
       7.147997e-10 8.922536e-09 2.814645e-10 6.503316e-10
0001c0 47 55 41 31 86 a6 90 31 12 51 54 31 aa cd c6 31
       2.813367e-09 4.209883e-09 3.0896143e-09 5.7859397e-09
0001d0 7a 3e 43 32 35 22 04 32 cd da 8a 30 26 ac 0d 31
       1.1364699e-08 7.691189e-09 1.0103008e-09 2.0616056e-09
0001e0 0e 51 29 31 69 cb b9 31 f4 52 df 31 01 9f 94 31
       2.463881e-09 5.4073337e-09 6.499585e-09 4.3254436e-09
0001f0 8c 7f 13 32 c1 34 a7 31 6b 4c 8d 2f 4d 8d ab 31
       8.585527e-09 4.866337e-09 2.570205e-10 4.992819e-09
000200 4f 8b da 31 ca ed 8c 31 3e 49 e6 31 b7 6c 25 31
       6.3604726e-09 4.1015698e-09 6.7022077e-09 2.4072457e-09
000210 6e ca 69 31 25 32 d9 30 71 90 66 31 ea 5c 86 30
       3.402103e-09 1.580308e-09 3.355151e-09 9.776191e-10
000220 29 b6 10 31 d2 5d 3d 31 53 54 94 31 e2 e4 58 30
       2.1058304e-09 2.755645e-09 4.3169535e-09 7.8905604e-10
000230 91 95 56 31 a6 67 16 31 1a 2d 00 32 13 c2 26 31
       3.1226117e-09 2.188679e-09 7.4608355e-09 2.4266498e-09
000240 06 a1 43 31 11 a9 f4 30 5b f2 57 31 5d 14 91 31
       2.8467766e-09 1.7801388e-09 3.142438e-09 4.2223705e-09
000250 ee b9 1d 32 db 72 84 31
       9.180878e-09 3.854763e-09

exp_avg f4 [5]
000000 87 2f a1 2d 48 7a 1b 2e 20 89 d6 2d f8 71 a6 ae
       1.8324687e-11 3.5351527e-11 2.4389879e-11 -7.569051e-11
000010 f8 74 05 af
       -1.2137835e-10

exp_avg_sq f4 [5]
000000 94 75 c2 25 31 f8 14 28 31 08 6c 28 0c 89 82 28
       3.373331e-16 8.269468e-15 1.3102408e-14 1.4492334e-14
000010 43 17 40 27
       2.6657963e-15
