tutorial/Mouse_cerebellum_output/version_17/checkpoints/mlp.ckpt (torch, 17217 bytes, 12 tensors)

model.classifier.0.weight f4 [30, 30]
000000 d5 1f 6f 3e 22 66 f2 bd d0 cb 56 3d f9 06 85 3d
       0.23351987 -0.118358865 0.052440464 0.064954706
000010 8a 3a a7 3c bd 00 84 3e 53 aa 27 be 4d f1 07 be
       0.020413656 0.25781813 -0.16373567 -0.13275643
000020 49 c2 72 3d ac 33 19 3e 8a d8 4a bc a1 7c a6 3d
       0.059267316 0.14961118 -0.0123807285 0.0812924
000030 61 6a df 3d af 5d 24 3b 02 4a 43 3d 85 29 e0 3c
       0.10908962 0.0025080254 0.047678 0.027363548
000040 3e f7 cf bc 13 e7 d4 3d 29 30 a0 bd ce 16 e2 3d
       -0.025386449 0.103956364 -0.07821686 0.11039506
000050 60 1b e8 3c 6f dc a1 3c cd 9d 77 3e 04 7c 8b 3d
       0.028333366 0.019758431 0.2418129 0.068107635
000060 e9 79 43 3e 23 12 08 be 7f ce 89 3b de d6 3d bd
       0.19089474 -0.13288169 0.0042055245 -0.04634749
000070 37 0c 90 bd 4b 1a 77 3d 93 08 e7 bd 34 f9 15 3e
       -0.0703358 0.06032781 -0.11280932 0.14645845
000080 fb 5c 80 3c 81 f1 79 3c a4 9c 23 3d ad 82 86 bd
       0.015669337 0.015255333 0.039944306 -0.06567893
000090 bb 1a fa bb fc 3f f2 3d d0 0c 09 be 09 29 c4 bb
       -0.007632581 0.1182861 -0.13383794 -0.005986337
0000a0 ed e0 66 bb 2a 64 b7 bd 4d e4 b5 bd b6 bb b0 3c
       -0.003522928 -0.08954652 -0.088814355 0.021573883
0000b0 0a ec f7 bb b0 44 09 3e da 7d e2 bc 5d 73 ed bd
       -0.00756598 0.13405108 -0.027647901 -0.115942694
0000c0 38 c1 a0 3d 25 4a ba bd 98 e3 c6 3c 06 1b 00 bd
       0.078493536 -0.09096173 0.024278447 -0.03127577
0000d0 2f d9 37 be d8 80 a8 bc 12 c1 37 3d 02 5a 20 bd
       -0.17953943 -0.02056925 0.04486186 -0.03914834
0000e0 50 8f 8e bd 88 4d 92 bb d0 1e c7 3d a1 8c 82 bd
       -0.069609284 -0.004464809 0.09722674 -0.06374479
0000f0 ff 3b 50 bd d4 b9 60 3c 80 53 62 3d 66 8a 36 3d
       -0.050838467 0.01371618 0.055255413 0.04456558
000100 63 74 9d bd f1 38 5b 3e af 0e 6b be bf 22 df bc
       -0.07688215 0.2140844 -0.2295482 -0.027238248
000110 ec 55 92 bd 19 8e 04 3e cc e0 cb bd 33 56 f0 3b
       -0.071452945 0.12944831 -0.09954986 0.0073344945
000120 7b 56 8f 3d 17 91 88 3d f0 61 e5 3c 47 24 32 3e
       0.06998917 0.06668299 0.028000802 0.17396651
000130 12 86 3d bd 5d e8 c9 3c 06 55 47 bd a2 57 14 bc
       -0.046270438 0.024646932 -0.04866507 -0.009054096
000140 e8 0f b6 3d 4f 6c e1 3b d7 57 f3 3c ce 03 be 3d
       0.088897526 0.0068793665 0.029704971 0.092780694
000150 2a 9a d9 3d 89 98 ec bd f9 49 01 bd 19 9b 89 3b
       0.106251076 -0.11552531 -0.031564686 0.0041993973
000160 e0 92 df 3d 35 64 c3 bb 42 14 9b 3d 57 92 0d bd
       0.10916686 -0.0059628733 0.07572223 -0.03456339
000170 c2 6f 3b 3d 02 5f 96 3d 68 c4 ea ba 09 14 70 3e
       0.045760877 0.0734234 -0.0017911317 0.23445143
000180 45 57 72 be 89 2f 8e bd e1 4a 76 bc 74 38 f1 3d
       -0.23666103 -0.0694266 -0.015032501 0.11778346
000190 84 0c 8b bd 5f e9 b3 3c 79 6d 8a 3d ab 7a 2a 3d
       -0.067894965 0.021961866 0.067591615 0.04162089
0001a0 f9 fe 1e 3d 84 22 ce 3d 26 e5 2f bd 52 78 2f 3d
       0.03881738 0.10065177 -0.042943142 0.042839356
0001b0 45 4d 80 bd db 23 2c 3d d2 bf 75 3d 46 13 32 3b
       -0.06264738 0.042026382 0.059997387 0.0027172132
0001c0 e1 b3 06 3e a6 dd 94 3d d5 ac 16 3e 03 84 02 be
       0.13154556 0.072688386 0.14714368 -0.12745671
0001d0 26 37 17 bd a5 07 aa bc e4 30 1a 3d d3 50 9b 3c
       -0.036917828 -0.020755598 0.037644282 0.018959438
0001e0 07 dd 13 3e 4b 23 67 3d 2c 4b 83 3d a5 cd 4f bd
       0.14439784 0.056430142 0.06410822 -0.050733227
0001f0 94 9e 05 3d c7 25 aa bd 0d 2b 8a 3e 6f b5 8b 3d
       0.032621935 -0.08307987 0.2698597 0.06821715
000200 4d 74 9f bd 09 dd e6 3d dd eb 12 3e cd e4 e0 3c
       -0.077858545 0.11272628 0.14347787 0.02745285
000210 c1 28 0e bc 08 25 67 bd 4d e1 0a 3b 2c 79 df 3d
       -0.008676709 -0.0564318 0.0021191419 0.109117836
000220 86 2f d3 3b f7 ff 92 bc 01 61 05 3e f6 aa b7 bc
       0.006444874 -0.01794432 0.13025285 -0.022420388
000230 33 24 bd bc 24 00 19 3c 26 55 e7 bd fd ca 86 bc
       -0.02308855 0.009338412 -0.11295538 -0.016454214
000240 e3 ed 36 3e 27 03 9b bd 19 cb f0 3c 38 e7 81 bd
       0.17864184 -0.07568961 0.02939372 -0.063429296
000250 b8 f9 9e bd 1b 6b c9 bc 9f 14 65 be 4e 11 1d 3e
       -0.07762474 -0.024587205 -0.22371148 0.15338632
000260 93 01 4b bd 79 20 f6 bc 14 53 16 3d 2b d4 7b be
       -0.04956205 -0.030044781 0.036700323 -0.24592654
000270 e1 43 dd 3d 66 59 1d 3e 96 55 b5 bd 17 53 1e be
       0.108039625 0.15366134 -0.08854215 -0.15461384
000280 e9 04 15 3c 71 ee ec bd df a5 14 be ba d2 57 3b
       0.009095409 -0.115689166 -0.145164 0.0032932
000290 10 f0 26 bd 92 cf fa 39 47 4e 04 3c b5 5a 13 be
       -0.040756285 0.00047838368 0.008075303 -0.1439007
0002a0 d0 e5 ba 3d ff ad f7 bd b9 03 c0 bc bd c2 1b bd
       0.091258645 -0.12093734 -0.023439275 -0.038027514
0002b0 4a e4 7e be 9e 1b a3 bd b4 3e 14 be 91 b6 ca 3d
       -0.24891773 -0.07964252 -0.14477044 0.09898103
0002c0 d8 38 3a bd 75 6d 08 3d 52 c5 b4 3d 10 65 95 bd
       -0.045464367 0.03330751 0.08826698 -0.07294667
0002d0 41 79 a6 bd cb 62 d2 3d 76 b1 db 3c 72 b8 33 3d
       -0.08128596 0.102727495 0.026818018 0.043877073
0002e0 48 27 9f 3c db 63 52 3d 9f 0b 00 be 3a df 81 3d
       0.01942791 0.05136476 -0.12504433 0.06341405
0002f0 a6 a9 e5 bd 83 03 1a 3d 27 c1 39 bd b2 c7 84 bd
       -0.112139985 0.037601005 -0.04535022 -0.06483401
000300 3b 5c 26 bd e1 ad 29 3d f7 28 13 3c 97 ca 17 3e
       -0.0406153 0.04142559 0.008981935 0.14823376
000310 50 6b 26 bd d6 69 98 bd 82 bd d9 3c 17 bb 6a bd
       -0.040629685 -0.074420616 0.026579622 -0.05730733
000320 d9 8d 49 3d 69 ef c0 bc 7b 47 b6 bd fe 25 97 3c
       0.049207542 -0.02355166 -0.089003526 0.018450733
000330 d7 19 a3 3d 48 69 9f bd 09 07 93 bd ea 88 96 bb
       0.07963913 -0.07783753 -0.07179076 -0.004593958
000340 0e 79 d7 3d 4e e9 2d bd 47 d6 9a bd 89 44 dc bd
       0.10521136 -0.042458825 -0.075604014 -0.107552595
000350 47 e1 e3 bc 77 08 2f bd e6 82 0c be 03 88 42 3d
       -0.027817382 -0.042732682 -0.13721809 0.047492992
000360 34 ac 21 bd c4 3f b1 bd 4a c8 c6 3d b7 1a cb bc
       -0.039470866 -0.086547405 0.09706171 -0.024793012
000370 bb 52 8d bd 6e 60 86 3d fb 5d bb 3d a2 0a 94 3c
       -0.06900545 0.06561361 0.09148785 0.018071476
000380 05 aa 0b bc 99 66 c6 bd e5 af da 3c cf 73 ce 3d
       -0.0085244225 -0.09687538 0.026695201 0.100806825
000390 c5 c0 c4 bd 3a bc 1d 3d 81 cf 0e 3c b0 92 0c 3d
       -0.0960708 0.038509585 0.008716465 0.03431958
0003a0 04 08 b5 3d 79 01 28 3d fe 46 23 be e3 86 b6 3d
       0.088394195 0.04101703 -0.1594505 0.08912446
0003b0 8a 42 94 3d 29 af 5b 3d 43 bc 20 3b 5b 2f 28 3d
       0.07239254 0.053633843 0.0024526275 0.041060787
0003c0 c9 32 72 be 01 ae be 3c 59 2e b1 bb 51 fe 29 bd
       -0.23652185 0.02327633 -0.0054071364 -0.0415023
0003d0 01 2d 2a be d2 31 c0 3c eb e2 a0 bd b3 5d 6f 3c
       -0.1661873 0.023461256 -0.07855781 0.014609742
0003e0 70 46 11 bd cf fb cf bb 4b 31 dc bd 80 48 8e bb
       -0.035467565 -0.0063471566 -0.107515894 -0.004342139
0003f0 3a cc 2b 3d 9a 09 73 3d 8d 78 88 bc 25 d5 82 3d
       0.041942813 0.05933533 -0.016659046 0.0638831

model.classifier.0.bias f4 [30]
000000 ba 64 f7 b3 d0 43 6d 34 77 27 90 b3 c4 7e 8e b5
       -1.1520156e-07 2.2097015e-07 -6.712701e-08 -1.0616718e-06
000010 b1 c9 67 b5 b9 ea b5 34 dc 24 5d 34 75 19 24 b5
       -8.6347706e-07 3.388466e-07 2.0595638e-07 -6.1131806e-07
000020 14 1f c3 b4 e7 67 33 33 a0 8e b4 34 2a 24 c3 af
       -3.6344193e-07 4.1771184e-08 3.3631386e-07 -3.549599e-10
000030 05 58 d6 34 d1 93 6b b3 cd df c0 34 fb 34 a1 b4
       3.992465e-07 -5.484964e-08 3.5925623e-07 -3.0027135e-07
000040 69 52 1d 35 99 2e 16 34 7f 5e 7f b4 4c ab 7e b5
       5.860698e-07 1.3986791e-07 -2.3783103e-07 -9.4871643e-07
000050 f6 7b 0d 35 9e c6 80 b4 4f f7 7c 34 ca 68 0b 35
       5.270698e-07 -2.398637e-07 2.3559299e-07 5.1934023e-07
000060 3b 3a e3 b3 f6 e3 85 34 7e c8 80 b5 4e bb 23 35
       -1.0581103e-07 2.4939044e-07 -9.595094e-07 6.0994796e-07
000070 6d 42 cb 33 03 48 2a b5
       9.465007e-08 -6.3434726e-07

model.classifier.1.weight f4 [5, 30]
000000 4e 98 b3 3e 77 b9 78 be b8 92 f1 bd 48 6b 94 3d
       0.35077137 -0.24289499 -0.117955625 0.07247025
000010 39 20 73 3e 8d 5c c0 be 5d 16 4b be 96 f6 37 bd
       0.2374276 -0.3757061 -0.1983275 -0.044912897
000020 0d e8 b1 be 08 14 48 be 2c 9f 86 be a4 64 2a be
       -0.34747353 -0.19538891 -0.26293314 -0.16639954
000030 c1 a1 31 bd e2 f8 21 3e 81 b6 8d be dd d3 55 3e
       -0.04336715 0.15817598 -0.27678302 0.208816
000040 f2 3e 8e 3e 8c a2 99 3e fd 6d 60 3e ea 3f 56 3e
       0.27782398 0.30006826 0.21916957 0.20922819
000050 dd 20 c0 3e ef 37 12 be dd 14 7e be 11 dd a4 bd
       0.37525073 -0.1427915 -0.24812646 -0.080499776
000060 db 03 7e be dd d0 90 be ad 54 cf bc 07 de 26 3e
       -0.24806158 -0.2828435 -0.025308931 0.16295634
000070 ee aa e0 3d 3e 91 94 3e ad 31 c1 3e 63 10 5e be
       0.10970102 0.2901706 0.37733212 -0.21685939
000080 c1 cd a9 3e db fe ac 3e 13 14 98 be 44 d4 d4 be
       0.3316479 0.3378819 -0.29702815 -0.41568196
000090 f5 31 1d bc 82 cd 89 3e 0f 79 2d 3e 55 47 a8 3e
       -0.00959443 0.26914603 0.16940711 0.32866922
0000a0 f4 98 9a bd 96 5f 11 3e d2 0c d5 be 0f e9 f9 3d
       -0.07548705 0.1419662 -0.41611344 0.122026555
0000b0 34 67 2f be a4 34 c8 be 1f 4f 0b be c2 97 b8 be
       -0.17129213 -0.39102662 -0.13604401 -0.36053282
0000c0 4d fb 23 3e 65 4b 50 3e 49 2b 3f be 23 ff b3 3e
       0.16013832 0.2034126 -0.18668856 0.3515559
0000d0 3c 39 a6 bd 56 9d c0 be 35 52 c0 bd 4b a8 f0 be
       -0.08116385 -0.37620038 -0.0939068 -0.47003397
0000e0 a6 5d c1 bb 1a 89 c0 be f6 53 4c be bb 21 79 be
       -0.0059010563 -0.376046 -0.19953904 -0.24329273
0000f0 71 47 f7 bd 3d 76 68 3d 79 1e ad bd c4 39 4d bd
       -0.12074173 0.056753386 -0.08453078 -0.050103918
000100 ae 05 5d be f9 00 37 3e bc c1 0f 3d 0c d5 f4 bc
       -0.21584198 0.17871465 0.03509687 -0.029886745
000110 42 60 97 bc 0f 66 f0 bc b5 e1 14 3e b2 7b bd bd
       -0.018478516 -0.02934554 0.14539225 -0.09252109
000120 7a 63 cc 3d 81 d4 35 be 92 ae 52 3c f0 ce c4 3c
       0.09979911 -0.17756845 0.012859004 0.024024457
000130 1e a0 63 be a7 f4 03 be dd e7 16 3d 15 5d 23 be
       -0.22229049 -0.12886296 0.036842216 -0.15953477
000140 d1 78 61 be ba 2a 97 bd 2a fd 47 3e f9 3c 62 3e
       -0.22018744 -0.07381196 0.19530168 0.22093572
000150 fb 4d 91 3e 8e b7 a6 3d 16 8e 71 bd 1d 17 32 be
       0.28379807 0.08140479 -0.058973394 -0.1739163
000160 72 a1 2e 3e 22 60 4f be e1 0f c3 bc ff 3b 92 3e
       0.17053774 -0.20251516 -0.023811283 0.28561398
000170 a9 00 76 3e 91 99 ec 3d 45 b2 7a 3e 7e 16 b3 3d
       0.2402369 0.11552728 0.24482067 0.087445244
000180 ab 37 8a 3e b2 5e 72 be cd 35 89 3d 58 10 8b 3e
       0.26995596 -0.23668936 0.06699715 0.27160907
000190 07 52 9e 3e b6 89 35 3e 4c 2d de 3d d0 34 71 3b
       0.30921957 0.17728314 0.108484834 0.003680516
0001a0 97 6d 79 3e ad 1b 86 3e 4e 0b 8a 3e fd 24 db bd
       0.24358211 0.2619299 0.2696175 -0.10700414
0001b0 0a 69 34 be 94 4e 17 3e 18 4f 17 ba df 75 47 bd
       -0.17618194 0.14776069 -0.0005771979 -0.048696395
0001c0 fd b0 2d be 76 38 40 3e 95 f8 99 bd a1 ec 08 bc
       -0.16962047 0.18771538 -0.075181164 -0.008357198
0001d0 85 54 64 be df 78 66 3e ec 9d ba 3d d8 1e 6d 3e
       -0.22297867 0.22507046 0.091121525 0.23156297
0001e0 d2 6d ac be 4b 9e 4d bd c4 12 75 be 8c 5a aa be
       -0.33677536 -0.050199788 -0.2393294 -0.33272207
0001f0 81 6e 39 3d ca 30 63 3e f1 0e 31 be ba 3e 34 3e
       0.0452714 0.2218658 -0.17290856 0.17602053
000200 2c 05 24 3e c3 4a 95 be 10 d2 91 be 5f 4c f0 3b
       0.16017598 -0.291586 -0.28480577 0.007333323
000210 8a 50 d9 3c c2 51 5a 3d 31 6b 88 3d 07 41 85 be
       0.026527662 0.053300627 0.0666107 -0.26026174
000220 76 05 de bd 3e 5c 91 3e 0a 7c 29 be af aa 6a be
       -0.10840885 0.28390688 -0.16551223 -0.22916673
000230 d5 c6 02 3e 75 d2 96 3d 73 87 1d 3e 56 a8 6e be
       0.12771161 0.0736436 0.15383701 -0.23306403
000240 10 14 9a bd cf 2c df 3e 1a 57 bc 3e 70 57 f1 3d
       -0.07523358 0.43588874 0.36785203 0.117842555
000250 b7 a5 a9 be d8 6a 20 bd
       -0.33134243 -0.039164394

model.classifier.1.bias f4 [5]
000000 a2 96 28 b6 b4 94 76 b5 26 67 92 34 ed 3a bc 35
       -2.512163e-06 -9.1858533e-07 2.726967e-07 1.4024241e-06
000010 19 21 70 34
       2.2363783e-07

exp_avg f4 [30, 30]
000000 98 22 b6 37 a7 63 f7 36 45 7a 19 b6 e8 b7 c3 36
       2.17122e-05 7.3727747e-06 -2.2869947e-06 5.8328624e-06
000010 f2 a7 a1 37 9b 12 15 36 2b 70 f5 b6 2f 5e 0f 36
       1.9270901e-05 2.221356e-06 -7.314627e-06 2.1363483e-06
000020 14 e4 25 36 be 41 b4 b6 54 b5 3f 36 67 24 97 b6
       2.4719675e-06 -5.3720714e-06 2.8566765e-06 -4.5043885e-06
000030 d0 34 9f b7 f1 41 f6 b6 1b 3e 38 36 85 8c d3 b6
       -1.897887e-05 -7.339048e-06 2.7454287e-06 -6.3046487e-06
000040 c6 28 a8 b5 c9 4c fc b6 ed 21 fb 34 c6 f1 3c 37
       -1.2528842e-06 -7.519124e-06 4.6777078e-07 1.12619655e-05
000050 8a ec a9 b6 be 20 f4 b6 a5 ab 32 36 e9 b9 52 b7
       -5.0641293e-06 -7.2755784e-06 2.6623977e-06 -1.2560261e-05
000060 43 2a 1d 37 44 cd 05 36 c7 9c 58 b7 a4 b1 d1 b6
       9.367769e-06 1.9938025e-06 -1.2911106e-05 -6.2493655e-06
000070 a4 82 75 b6 04 7a 63 36 33 2c 05 37 a4 42 75 b6
       -3.6583888e-06 3.3896658e-06 7.937709e-06 -3.6546635e-06
000080 de 93 fa 35 17 cd 8d 35 8f 39 a8 b6 5f 28 f1 35
       1.8669487e-06 1.0565008e-06 -5.013491e-06 1.7967649e-06
000090 8a 25 5f 37 1f d5 df b6 de 6a 1f b5 5e 38 c3 36
       1.3300576e-05 -6.6707285e-06 -5.938763e-07 5.818015e-06
0000a0 84 d7 c5 36 fb f3 9b 36 01 80 f5 36 23 df a8 b6
       5.896147e-06 4.647763e-06 7.3164706e-06 -5.0327667e-06
0000b0 7d 01 92 36 e5 48 2f b6 33 7a 89 35 71 e3 ee 36
       4.3513123e-06 -2.6119462e-06 1.024286e-06 7.1194304e-06
0000c0 5b fa e8 b4 0a 2f 97 36 62 95 60 b5 44 74 b1 36
       -4.3395525e-07 4.5056267e-06 -8.3663883e-07 5.288546e-06
0000d0 84 f3 f1 36 7a 05 02 36 ab bc bd 36 b8 20 4a b6
       7.2107086e-06 1.9374697e-06 5.654603e-06 -3.011939e-06
0000e0 9f f4 83 36 12 36 e6 b6 f3 84 96 b6 25 a1 b0 34
       3.932582e-06 -6.8608288e-06 -4.4858257e-06 3.2899803e-07
0000f0 1e a4 c4 37 bc 1c 47 36 67 da ee b5 28 e7 6d 36
       2.3441444e-05 2.9670036e-06 -1.7795945e-06 3.5450303e-06
000100 38 37 88 37 c2 3c 9a b5 67 47 f6 36 b1 c2 19 b6
       1.6238177e-05 -1.1491577e-06 7.3396836e-06 -2.2912102e-06
000110 43 fa ee 35 6f 7d 76 b6 82 60 07 37 d6 e6 19 b6
       1.7805218e-06 -3.6729868e-06 8.069097e-06 -2.293314e-06
000120 bd 1d 5e b7 27 14 31 b7 47 f8 88 36 70 aa 2a b7
       -1.3239155e-05 -1.0554714e-05 4.082019e-06 -1.0172473e-05
000130 8b d3 05 36 1b 88 69 b6 a2 ce d1 35 39 d4 1e 37
       1.9941679e-06 -3.479893e-06 1.5631852e-06 9.466946e-06
000140 7b 96 d8 b6 e8 15 b8 b5 01 9f d4 36 59 0d 48 b7
       -6.45482e-06 -1.3715444e-06 6.336603e-06 -1.1924037e-05
000150 42 0c f5 36 93 aa f9 35 6d 94 c4 b6 50 75 05 b7
       7.302996e-06 1.8601589e-06 -5.858534e-06 -7.954732e-06
000160 0e 64 00 b7 8b 31 1a 36 24 bf d0 37 d8 08 87 36
       -7.65269e-06 2.2976626e-06 2.4884539e-05 4.024343e-06
000170 13 d0 eb b5 6e 96 bd 36 a2 bb 52 37 87 6a 12 36
       -1.7569422e-06 5.6501513e-06 1.2560662e-05 2.1817702e-06
000180 42 1b 08 37 28 83 34 b6 64 08 be 35 8f 4b f5 b4
       8.112578e-06 -2.6898433e-06 1.4158545e-06 -4.5689782e-07
000190 9e 99 0e 37 8c 95 88 35 ad c7 2d b7 4f 12 38 b7
       8.499626e-06 1.0176313e-06 -1.0358094e-05 -1.0971517e-05
0001a0 fe c1 cd 36 3e 3b 07 b7 b5 5e 99 35 7f e9 31 b5
       6.1320598e-06 -8.06042e-06 1.1426952e-06 -6.627742e-07
0001b0 9c 24 25 36 42 51 43 37 1b f5 c3 b6 b1 26 c3 b5
       2.4608225e-06 1.1641825e-05 -5.839987e-06 -1.4539893e-06
0001c0 37 d1 b9 36 8a 54 28 b7 47 d4 4d 37 d9 c3 36 b6
       5.5377855e-06 -1.0033264e-05 1.2268377e-05 -2.7234112e-06
0001d0 c6 5e 99 b6 2a 5f 4b b7 69 4c f2 b6 4b b1 3c 36
       -4.5707884e-06 -1.21219e-05 -7.2210573e-06 2.811738e-06
0001e0 c4 55 17 35 ca e4 7f 36 e3 ca 94 35 5b 1f 4f b5
       5.637669e-07 3.8131134e-06 1.1085907e-06 -7.715914e-07
0001f0 0f e5 b7 37 08 b0 0d b6 ba 4a 10 b8 44 e8 c1 36
       2.1921964e-05 -2.11131e-06 -3.440187e-05 5.7788875e-06
000200 c2 eb 73 36 ec 8b 68 b7 a4 26 3c b7 25 d6 8c b7
       3.634705e-06 -1.3860856e-05 -1.121467e-05 -1.678902e-05
000210 5c 7c bd b7 ff cf af 36 cb e6 fb b6 37 be 1e b6
       -2.2588465e-05 5.2396204e-06 -7.5072508e-06 -2.3654554e-06
000220 9d 1e bc b6 e3 29 83 b7 14 72 1a b7 05 b8 3d 36
       -5.6064005e-06 -1.5635922e-05 -9.205676e-06 2.8270308e-06
000230 36 1c 77 34 67 0a 42 b7 19 ab a9 36 9a f3 07 b7
       2.301393e-07 -1.1565723e-05 5.056511e-06 -8.103345e-06
000240 c0 72 0b b7 d1 ec a3 37 12 73 da b7 1c ef 81 37
       -8.311763e-06 1.954139e-05 -2.6041209e-05 1.5489342e-05
000250 89 3d b6 36 06 84 6a 35 f6 1b 73 b7 14 3a 0f b7
       5.4311863e-06 8.736391e-07 -1.4490439e-05 -8.536987e-06
000260 b4 37 48 36 3b 65 6e b6 f0 ee c9 b7 b0 bf 54 35
       2.9834746e-06 -3.5523688e-06 -2.4072331e-05 7.9255096e-07
000270 04 b5 96 37 e0 d9 d4 b6 41 44 50 b6 40 1e 39 37
       1.7965685e-05 -6.3434563e-06 -3.1034144e-06 1.1033902e-05
000280 7c 43 11 36 6d 46 29 37 53 9b cf 37 c2 f1 48 36
       2.1645965e-06 1.0089582e-05 2.4748651e-05 2.9943044e-06
000290 25 ea ed 35 c1 11 ba 36 5d a0 f5 35 22 62 65 37
       1.7726021e-06 5.545299e-06 1.8300594e-06 1.3672312e-05
0002a0 70 85 71 35 b0 13 ea b6 d3 e9 91 36 ad be 30 37
       8.9973673e-07 -6.9760354e-06 4.3485575e-06 1.0534813e-05
0002b0 f4 20 26 35 64 92 6b 37 86 ad fb b5 32 fa 03 b7
       6.188777e-07 1.4041176e-05 -1.8751459e-06 -7.866462e-06
0002c0 d0 61 91 37 23 d9 00 b6 97 f5 cf 34 ed 81 32 b6
       1.7330894e-05 -1.9199877e-06 3.8735445e-07 -2.6599694e-06
0002d0 1c 27 8a 37 ee 76 cb b5 78 93 0a 35 35 28 50 36
       1.6469094e-05 -1.5159292e-06 5.16236e-07 3.1017819e-06
0002e0 e8 a0 bf 33 41 72 1b 36 23 06 86 37 3c 8e e4 b6
       8.923399e-08 2.3163304e-06 1.5976902e-05 -6.8114878e-06
0002f0 87 41 85 b3 de 6f a6 36 51 a3 14 37 76 d7 a4 36
       -6.2052145e-08 4.9602086e-06 8.8595125e-06 4.912664e-06
000300 91 58 35 36 a1 9f 14 b7 7f 68 d4 36 1a 2d b9 b6
       2.7022654e-06 -8.858654e-06 6.3302573e-06 -5.51868e-06
000310 43 0c ee 35 f1 c9 cc 36 e8 31 8f 35 5d 03 08 37
       1.773595e-06 6.103183e-06 1.0668855e-06 8.107015e-06
000320 36 f0 54 b6 c8 45 93 36 3f d3 02 37 95 d6 15 b6
       -3.1730283e-06 4.389065e-06 7.797788e-06 -2.2327633e-06
000330 f8 fc 20 37 92 17 93 b6 98 96 3e 36 43 33 3a b7
       9.595642e-06 -4.3836853e-06 2.8399863e-06 -1.1098399e-05
000340 be 66 eb b6 0b 48 bc 35 af 67 4c b7 fe 11 9e 35
       -7.0155065e-06 1.4028059e-06 -1.2183488e-05 1.1777154e-06
000350 5d 99 03 b6 19 be 86 b6 36 6d d6 35 1b 54 a8 b6
       -1.960979e-06 -4.0156415e-06 1.5976027e-06 -5.0165813e-06
000360 8b f7 b2 b6 ca 79 c7 36 f0 50 71 b4 00 02 b7 b6
       -5.333631e-06 5.9448403e-06 -2.2474319e-07 -5.454058e-06
000370 75 f8 8e b6 c8 03 77 b6 9b 78 4c b6 62 7b ac 36
       -4.260854e-06 -3.680807e-06 -3.046857e-06 5.140363e-06
000380 ba 38 ae b6 ed 1a e8 35 1d cf bb 35 83 06 c2 b6
       -5.192208e-06 1.7293183e-06 1.3992864e-06 -5.7824086e-06
000390 f3 7b 02 36 cc 5a 16 b7 d2 84 3a 35 bc 67 f1 b5
       1.9443657e-06 -8.961837e-06 6.948368e-07 -1.798609e-06
0003a0 db d2 10 b7 ab 8d 59 b5 3a 96 2a b7 5d b3 3f 36
       -8.6321625e-06 -8.1044954e-07 -1.0167767e-05 2.856562e-06
0003b0 f9 2e 27 36 5b 1c 0d 37 bd 92 68 36 02 9c d7 b5
       2.491228e-06 8.410857e-06 3.4656107e-06 -1.6064153e-06
0003c0 e1 ac 7b b6 6f 4e dd b5 39 cb 8e b5 a2 20 86 b6
       -3.7502543e-06 -1.648861e-06 -1.063897e-06 -3.99731e-06
0003d0 32 e6 14 36 e9 bb c3 b6 4c 96 b3 36 de 3e 8d 35
       2.218771e-06 -5.8333285e-06 5.3521126e-06 1.0523615e-06
0003e0 5c 83 12 33 3a 3f 79 b6 b9 da 88 35 59 98 20 b6
       3.4112745e-08 -3.7140694e-06 1.0196446e-06 -2.3930536e-06
0003f0 67 e0 96 b5 81 d1 8d 34 d8 88 32 b6 e3 1a 36 b6
       -1.1241181e-06 2.641573e-07 -2.660372e-06 -2.7135764e-06

exp_avg_sq f4 [30, 30]
000000 67 d0 6c 31 ca 84 7e 30 9c e9 18 30 01 72 2e 30
       3.4460983e-09 9.2593366e-10 5.5629257e-10 6.346284e-10
000010 09 91 92 30 f0 bb 26 31 9d 9f 80 31 2d 0b 32 30
       1.066412e-09 2.426301e-09 3.7434362e-09 6.4771905e-10
000020 c2 04 f2 2f 8a 4e c6 30 22 52 e0 2f f7 c8 27 30
       4.4022924e-10 1.4428718e-09 4.0803722e-10 6.1039834e-10
000030 93 0f 94 30 ae 8d e5 2f 2a a4 55 2f a6 6b 04 31
       1.0772844e-09 4.1755527e-10 1.943056e-10 1.926972e-09
000040 d4 b1 36 2f b5 4c 3d 30 0a 04 1b 30 68 4b 4c 30
       1.6615981e-10 6.8866807e-10 5.639441e-10 7.4321926e-10
000050 e8 0e 64 2f 00 32 45 2f 92 e8 19 31 59 a6 35 30
       2.0741775e-10 1.7934809e-10 2.2396631e-09 6.608381e-10
000060 09 13 40 31 6e bb b2 30 ce 90 1e 30 9d e4 13 30
       2.7950497e-09 1.3004475e-09 5.7685845e-10 5.380317e-10
000070 7d cd 55 30 40 d4 9b 2f de c3 84 30 ad 82 8a 30
       7.7780965e-10 2.8345148e-10 9.659933e-10 1.0077962e-09
000080 a9 70 15 2f f3 96 25 2f 3b e1 bd 2f 98 06 a8 2f
       1.3591496e-10 1.506029e-10 3.4538936e-10 3.0563707e-10
000090 63 19 8a 30 0d 63 18 30 73 e4 6a 30 51 8f c6 2f
       1.0048037e-09 5.543804e-10 8.545335e-10 3.6117823e-10
0000a0 55 4c 8f 2f d3 5f dc 2f 9e ec 0e 30 df 97 52 2f
       2.6065786e-10 4.0085854e-10 5.199555e-10 1.9153344e-10
0000b0 33 5a 5f 2e 9f b2 ef 30 f1 80 bc 2e 3a 2c 33 30
       5.0784443e-11 1.7440306e-09 8.572155e-11 6.518267e-10
0000c0 53 b1 e6 2f cb 3b ef 2f 9c 14 1e 2f c1 f7 f4 2e
       4.1962753e-10 4.3516332e-10 1.4377338e-10 1.1139845e-10
0000d0 48 f0 bc 30 97 ae 62 2f 9c 44 67 30 75 67 0a 30
       1.3747092e-09 2.0616607e-10 8.413481e-10 5.035113e-10
0000e0 99 5f f2 2f 8f 75 65 2f 2f 18 1b 30 25 ab 90 2f
       4.408747e-10 2.0869194e-10 5.642304e-10 2.6315053e-10
0000f0 98 5f 31 30 54 3d 7f 2f 53 1d de 2f 30 20 a2 2f
       6.452807e-10 2.3213903e-10 4.04024e-10 2.94905e-10
000100 0c 08 45 30 c0 08 d8 30 b5 7d 18 31 42 f7 33 2f
       7.167962e-10 1.5718555e-09 2.2190367e-09 1.6367799e-10
000110 14 75 f5 2f 65 ab 82 30 fa 3d e3 2f dd 7e 5c 2f
       4.464843e-10 9.507458e-10 4.1335096e-10 2.0053954e-10
000120 40 f1 fa 2f ea c1 64 2f 55 04 e9 2e 13 a9 f1 30
       4.5646154e-10 2.0805371e-10 1.0596383e-10 1.7583112e-09
000130 7c 85 1e 2f cd 2e 8e 2f b2 16 90 2f c2 a5 2a 2f
       1.441744e-10 2.5862903e-10 2.6209573e-10 1.5520299e-10
000140 25 b9 a9 2f 34 07 c6 2e 15 37 c3 2f 18 ac d3 2f
       3.0872474e-10 9.005277e-11 3.5509432e-10 3.8502956e-10
000150 35 0d ae 30 14 76 73 30 f7 0e eb 2f aa 19 6d 2f
       1.266392e-09 8.8570684e-10 4.2756884e-10 2.1564142e-10
000160 4d a8 fc 2f 01 03 d4 2e 8d 1f 8e 30 70 aa 78 2f
       4.5958118e-10 9.6411774e-11 1.0340827e-09 2.261602e-10
000170 11 aa bb 2f 11 d9 10 30 02 b5 28 30 f7 23 ff 30
       3.413594e-10 5.2695365e-10 6.137527e-10 1.8563914e-09
000180 47 71 50 31 fb 46 7c 2f 23 d7 6e 2f 68 bf 35 30
       3.0332374e-09 2.2944484e-10 2.1722406e-10 6.611942e-10
000190 e3 53 94 2f 5f c4 69 2f 65 03 c2 2f 16 6c 4b 2f
       2.6980648e-10 2.1260992e-10 3.5290806e-10 1.8501142e-10
0001a0 54 2e 12 2f bf e3 57 30 e7 ac 2c 2f 4c 8f 89 2f
       1.3295082e-10 7.854019e-10 1.5704736e-10 2.5021973e-10
0001b0 d1 06 88 2f e3 9f 4d 2f a3 87 25 2f cb e1 cb 2e
       2.47431e-10 1.8701445e-10 1.505485e-10 9.27148e-11
0001c0 a9 02 48 30 3e 94 84 2f 71 c9 d4 30 b8 0a 73 30
       7.2763356e-10 2.4115993e-10 1.5482283e-09 8.841812e-10
0001d0 e0 e2 09 30 cf 33 95 2f e4 32 98 2f 6b 79 c5 2e
       5.016272e-10 2.7139754e-10 2.76848e-10 8.980091e-11
0001e0 b7 bb af 30 e1 65 e4 2f 22 18 29 30 92 5f 34 30
       1.2786278e-09 4.1545348e-10 6.1516137e-10 6.561943e-10
0001f0 97 8f a1 30 4c ef bb 2f d1 1e 8e 31 9a aa c4 2f
       1.1755102e-09 3.4185133e-10 4.1362473e-09 3.5773412e-10
000200 39 60 2d 30 c5 88 03 31 53 d2 53 30 23 4b 3f 30
       6.3073774e-10 1.9140753e-09 7.706024e-10 6.959217e-10
000210 ac c5 84 30 0e 11 5e 2f c2 1d 18 2f 6f 64 2e 31
       9.660446e-10 2.0196841e-10 1.3834892e-10 2.5377422e-09
000220 a3 46 a4 2e 5e b1 2d 30 bd 3a 84 30 72 08 a8 2f
       7.470404e-11 6.318909e-10 9.620958e-10 3.0565023e-10
000230 5d 9f 00 2f a0 82 83 2f 02 9b a5 30 41 d7 c9 2f
       1.169815e-10 2.3921576e-10 1.2049386e-09 3.6714634e-10
000240 96 69 0e 31 06 8c 7f 30 e7 f9 78 30 56 0c b3 2f
       2.0723738e-09 9.2967445e-10 9.0577007e-10 3.2568676e-10
000250 07 ac da 2f 79 3e ec 2e 57 43 60 31 a4 f1 b3 30
       3.9776202e-10 1.0743135e-10 3.2634568e-09 1.3092643e-09
000260 f3 5c 29 30 48 c2 0a 30 07 44 a0 30 11 1d 18 31
       6.161393e-10 5.04802e-10 1.1660867e-09 2.2135433e-09
000270 a3 79 6b 31 ef af 6a 30 f2 9f 17 30 be 13 01 31
       3.4266143e-09 8.537872e-10 5.5160776e-10 1.8783193e-09
000280 e8 3b 00 30 7f c7 86 30 a6 cb de 30 20 89 e8 2f
       4.665126e-10 9.806483e-10 1.6210506e-09 4.2297987e-10
000290 02 cd 43 2f 78 2f 0e 31 b0 b4 fa 2e fd fb a0 30
       1.780798e-10 2.0690702e-09 1.140078e-10 1.1713152e-09
0002a0 36 47 35 30 64 72 65 30 15 e4 77 2f b6 4f 88 2f
       6.5948613e-10 8.3472274e-10 2.254555e-10 2.4794894e-10
0002b0 bf 75 20 31 48 1e 5c 30 bd a6 1b 31 d8 20 92 30
       2.3349995e-09 8.0078566e-10 2.2650248e-09 1.0632233e-09
0002c0 e7 1f 4a 30 3a 7c 09 30 61 37 6d 30 09 a0 c0 2f
       7.353251e-10 5.0016846e-10 8.6298796e-10 3.5038308e-10
0002d0 e4 7f 35 30 92 50 20 30 fe 0f 18 2f 75 0d 8f 2f
       6.602916e-10 5.832216e-10 1.3830001e-10 2.602111e-10
0002e0 f0 1c b2 2f d4 01 94 2f 22 50 bc 30 3d 34 80 2f
       3.2398573e-10 2.6922342e-10 1.3701575e-09 2.3320182e-10
0002f0 04 18 2b 30 90 d4 a6 2f 34 a2 81 2f cc 70 99 2f
       6.2243566e-10 3.034626e-10 2.3580216e-10 2.7910685e-10
000300 7f 09 9b 2f 3d 83 43 2f 11 bb 8c 2e a1 86 d8 30
       2.8201083e-10 1.7781772e-10 6.3996926e-11 1.5754332e-09
000310 e1 93 03 2f 97 6f de 2f f3 9e 57 2f 37 18 85 2f
       1.1966918e-10 4.0460854e-10 1.9610606e-10 2.4209765e-10
000320 2f ad 2b 2f c3 80 d2 2e da cc 1a 30 bb 85 1c 2f
       1.5613887e-10 9.572567e-11 5.6315985e-10 1.4235628e-10
000330 e3 93 83 30 d2 ef 31 30 61 42 05 30 23 c1 50 2f
       9.573536e-10 6.473303e-10 4.847945e-10 1.8986106e-10
000340 ae 7a 0d 30 90 eb 28 2f 6f 73 dd 2f 7a 3f 17 30
       5.146984e-10 1.53632e-10 4.0281686e-10 5.5023686e-10
000350 89 ff 02 2f 78 d5 90 2f d3 60 80 30 c3 53 73 2f
       1.1914215e-10 2.6345126e-10 9.340745e-10 2.213048e-10
000360 2e fb 0c 30 84 1d bf 2f f5 08 17 30 a6 96 83 2f
       5.128865e-10 3.476367e-10 5.494621e-10 2.3935803e-10
000370 69 51 95 2f 54 05 9c 2f 79 f8 df 2f 5c d2 80 2e
       2.7160788e-10 2.838002e-10 4.0740014e-10 5.8581334e-11
000380 b6 5b 37 2e 96 a0 8b 30 08 b2 e1 2e 9b 9d 1d 30
       4.169084e-11 1.0159222e-09 1.026344e-10 5.734024e-10
000390 29 84 e8 2f 05 52 3c 2f 5f 21 8c 2e 79 9c e8 2e
       4.229446e-10 1.712764e-10 6.372391e-11 1.0577934e-10
0003a0 13 b8 04 30 37 a7 d1 2e 83 e8 c4 30 24 9e 3a 30
       4.8282905e-10 9.533923e-11 1.4326961e-09 6.7891137e-10
0003b0 c6 a5 03 30 3d 87 8e 2f 9e e7 1e 2f 3e b0 06 2f
       4.78931e-10 2.5925742e-10 1.4452303e-10 1.2249843e-10
0003c0 c9 04 21 31 48 ad 97 2f 25 01 df 2e a4 5c b2 2f
       2.3431304e-09 2.7589864e-10 1.0141069e-10 3.2443837e-10
0003d0 dd 98 d5 30 cc 61 a2 2f 4c 87 8b 30 1f 31 01 2f
       1.5541236e-09 2.9537117e-10 1.0152035e-09 1.1749933e-10
0003e0 f4 de 4a 2f 6d 91 9a 2f 73 45 0a 30 a2 c3 44 2f
       1.8451002e-10 2.8115768e-10 5.03028e-10 1.7895599e-10
0003f0 58 92 12 30 06 83 a0 2f 00 13 b0 2e c3 60 eb 30
       5.332246e-10 2.9196928e-10 8.0069285e-11 1.7126002e-09

exp_avg f4 [30]
000000 72 ee 7f 2d e6 cc 05 ad 9f 1b 5c 2d 21 e4 3f 2c
       1.4548017e-11 -7.605671e-12 1.2511685e-11 2.726937e-12
000010 e6 eb 3f ad 76 81 ec ad a3 a2 11 ad ca 2e ad 2d
       -1.0909473e-11 -2.6887586e-11 -8.278408e-12 1.9688601e-11
000020 b9 db b4 2d c9 bb 3f 2d 61 b2 31 ad 6e 50 7d 2c
       2.0561207e-11 1.089879e-11 -1.0100893e-11 3.599811e-12
000030 1c eb fe ad 6b b2 1f 2d 6e c7 2c ad ae f9 63 ad
       -2.8980866e-11 9.07772e-12 -9.82135e-12 -1.2958896e-11
000040 ce 46 c3 ac d7 58 be 2c 23 4e f6 2c af f6 cc 2d
       -5.5500942e-12 5.409988e-12 7.0004154e-12 2.3301664e-11
000050 8f a0 cf 2d 39 30 04 2e 82 18 7a ad 98 c3 b1 ad
       2.3604478e-11 3.0056155e-11 -1.42162965e-11 -2.0209431e-11
000060 4a dd 60 ac b8 03 82 ad 1e a6 0d ab 54 89 ae ad
       -3.1955155e-12 -1.478094e-11 -5.0323797e-13 -1.9842496e-11
000070 0b 72 87 ad 8a d1 4b ad
       -1.5398368e-11 -1.1585741e-11

exp_avg_sq f4 [30]
000000 ba ee 71 27 23 a5 98 27 46 68 36 28 2a 7e e0 21
       3.3574883e-15 4.2367517e-15 1.012564e-14 1.5212226e-18
000010 bc bd f3 26 4b 46 fc 25 86 1e 80 28 39 0f 1a 28
       1.691294e-15 4.3762664e-16 1.4224092e-14 8.552018e-15
000020 a6 b4 8f 26 d1 8c 8a 28 0c fa 47 27 0a 6c 09 23
       9.971583e-16 1.5382147e-14 2.7752348e-15 7.449663e-18
000030 3f 87 5d 28 88 60 47 28 3c 57 3a 28 c3 67 10 27
       1.2297291e-14 1.1067651e-14 1.034399e-14 2.0040264e-15
000040 3f 24 12 28 0e 3d 93 27 f2 59 6a 28 0c 03 a8 23
       8.112488e-15 4.086689e-15 1.3009113e-14 1.8215887e-17
000050 30 06 fc 23 1a b2 83 28 e2 95 4d 27 7f ff 3e 27
       2.7324515e-17 1.4621161e-14 2.8530717e-15 2.6506302e-15
000060 60 b7 3c 26 fd 7d c3 26 ed 45 e4 23 0b c7 3f 28
       6.547412e-16 1.3564992e-15 2.4749424e-17 1.06457904e-14
000070 25 99 01 25 65 3e 10 25
       1.1240854e-16 1.2511149e-16

exp_avg f4 [5, 30]
000000 d2 be ce b5 9d 8f f6 35 3d 79 b9 36 10 4f 18 36
       -1.5403732e-06 1.8370225e-06 5.5275436e-06 2.2695785e-06
000010 72 db 8a b6 4d 27 ab 35 3d d8 54 36 1b 05 32 36
       -4.1382673e-06 1.2751931e-06 3.171633e-06 2.6527039e-06
000020 24 d2 dc 36 5c e1 cf 36 75 95 40 36 dd 66 9d 36
       6.5809745e-06 6.195316e-06 2.8697225e-06 4.6909395e-06
000030 61 7d 77 b6 76 6f ae 33 e5 f5 47 36 e0 ff c7 b6
       -3.6878848e-06 8.122781e-08 2.979644e-06 -5.96045e-06
000040 e8 ea 5d b6 31 78 e0 b6 19 d5 25 b6 39 70 52 b3
       -3.30683e-06 -6.6897123e-06 -2.4710955e-06 -4.89965e-08
000050 ca 21 bc b6 26 25 b6 36 74 8a b3 35 9e b7 4f b6
       -5.60677e-06 5.4283473e-06 1.3376834e-06 -3.0952283e-06
000060 b4 17 64 35 0a 0d 14 34 fc f4 3e 34 d2 28 89 b6
       8.497111e-07 1.3788318e-07 1.7784254e-07 -4.0876703e-06
000070 06 b4 86 b6 c4 00 98 b6 bd cd 2c b7 ea b3 88 b5
       -4.0144687e-06 -4.530042e-06 -1.0299901e-05 -1.0185151e-06
000080 24 5e 97 b7 3e d2 86 b7 d3 fc 82 37 75 7d 05 37
       -1.804444e-05 -1.6071946e-05 1.5614938e-05 7.956628e-06
000090 f8 f7 1b b7 97 1c 93 b6 ab d1 17 b7 f5 2e b1 b7
       -9.296455e-06 -4.3842697e-06 -9.0491185e-06 -2.112191e-05
0000a0 2b 7a 41 b7 3c a8 01 b7 ed 6a 3f 37 3e e8 09 36
       -1.1532141e-05 -7.728169e-06 1.1409383e-05 2.0549774e-06
0000b0 0d 57 1e b4 7e 1d 26 37 52 5f 05 37 49 65 ce 37
       -1.4746566e-07 9.901238e-06 7.949611e-06 2.4604278e-05
0000c0 e7 d5 6b b6 36 a7 d2 b6 7c b9 94 37 f0 0a 42 b7
       -3.5142236e-06 -6.2779536e-06 1.7729348e-05 -1.1565848e-05
0000d0 4f 64 f4 33 a4 4f 4c 36 15 bb b9 b6 c9 f5 8e 37
       1.13803814e-07 3.0444726e-06 -5.535209e-06 1.7042172e-05
0000e0 0e fb 19 37 b6 e7 96 37 48 a5 37 b3 dd 09 5d 37
       9.177964e-06 1.7989292e-05 -4.275833e-08 1.3174923e-05
0000f0 04 5f 30 38 8f ea 2e b8 d0 e9 07 37 a9 f3 74 36
       4.205016e-05 -4.1703282e-05 8.101066e-06 3.6500662e-06
000100 f1 9a 92 38 41 af 91 b8 e7 07 17 b8 24 87 e7 37
       6.9906826e-05 -6.9467824e-05 -3.6008565e-05 2.7600276e-05
000110 47 09 bc 35 c3 59 8c b7 00 a6 ab b8 08 6c a5 37
       1.4009792e-06 -1.67311e-05 -8.184835e-05 1.9719839e-05
000120 3a 53 2a b8 23 26 8b 38 ce 6f b4 b7 aa 22 d7 b7
       -4.060867e-05 6.63514e-05 -2.1509735e-05 -2.5646139e-05
000130 69 82 8d 38 00 32 8c 38 ee 61 88 b6 2b ca 42 38
       6.747695e-05 6.6850334e-05 -4.0645164e-06 4.6441488e-05
000140 ff 14 bd 38 a5 91 e8 37 aa bd 7e b8 ef ed c7 b8
       9.016133e-05 2.7724376e-05 -6.0734958e-05 -9.533378e-05
000150 a0 ec d8 b8 fe 7b b2 b7 ae 73 34 38 c4 5a 6c 38
       -0.000103437575 -2.1276992e-05 4.302308e-05 5.6351317e-05
000160 a2 e8 94 b8 33 de 87 38 4f 7d e0 36 20 a0 63 b7
       -7.100521e-05 6.4786895e-05 6.690308e-06 -1.3567536e-05
000170 15 7c 7d b7 af af fe b6 6d 18 60 37 8b ae 39 b7
       -1.5108865e-05 -7.590242e-06 1.33571275e-05 -1.1067498e-05
000180 d4 0c 83 b7 30 be 04 36 a9 8e 6f b7 d6 cd ab b7
       -1.562239e-05 1.9780236e-06 -1.4278726e-05 -2.0480638e-05
000190 6a 50 b6 b7 ec c3 1f b7 f8 b1 a8 33 10 e1 0e 37
       -2.1733536e-05 -9.522755e-06 7.855482e-08 8.516261e-06
0001a0 26 b3 4e b7 eb 6a 9b 36 a0 22 2c 37 74 92 d0 37
       -1.2320268e-05 4.631807e-06 1.0260061e-05 2.486373e-05
0001b0 97 81 e1 36 d3 af 1a 36 e5 9c c0 37 d8 95 d4 b6
       6.720609e-06 2.3050131e-06 2.2961243e-05 -6.3355365e-06
0001c0 d0 e8 e2 b6 37 2f 17 b7 79 8f 5e b7 cb 29 9d b3
       -6.762428e-06 -9.011294e-06 -1.3265636e-05 -7.318484e-08
0001d0 6a ac 21 37 42 a1 4b 37 79 68 44 b6 0a df 62 37
       9.636491e-06 1.2137289e-05 -2.9267087e-06 1.352258e-05
0001e0 0c cf 39 b8 07 f4 64 37 2a 82 59 b5 bf 3f b6 b7
       -4.4300265e-05 1.3646676e-05 -8.1028213e-07 -2.1725775e-05
0001f0 8a f7 b1 b7 08 81 23 38 51 7c b5 36 26 2e 96 37
       -2.1215314e-05 3.8982398e-05 5.4086927e-06 1.7902883e-05
000200 e6 19 27 38 ce 05 16 36 d1 e8 62 36 fe d9 82 37
       3.9840023e-05 2.235512e-06 3.3812141e-06 1.5598718e-05
000210 04 a1 ed b4 04 77 0b b7 94 8e c9 37 5f ca 1e b8
       -4.4261844e-07 -8.312756e-06 2.402746e-05 -3.785861e-05
000220 3d 7d 04 b8 75 b7 4c b7 47 aa d5 b7 5f 30 ef b7
       -3.158789e-05 -1.2202062e-05 -2.547087e-05 -2.8513545e-05
000230 0d 70 d8 b7 eb c2 ac 37 14 a3 f1 37 53 21 49 b7
       -2.5801384e-05 2.0594764e-05 2.8805378e-05 -1.19882925e-05
000240 55 48 7e 37 c5 c4 36 38 67 38 c9 37 f2 25 45 b7
       1.5156421e-05 4.3575437e-05 2.3987332e-05 -1.175095e-05
000250 2f e8 01 b8 be a4 f9 b7
       -3.0972235e-05 -2.9759827e-05

exp_avg_sq f4 [5, 30]
000000 bb 8b 25 32 f1 05 5f 31 82 b2 bf 31 64 37 ac 31
       9.636035e-09 3.2454148e-09 5.5791256e-09 5.012156e-09
000010 0d 11 7f 31 75 1a 1c 32 77 99 69 31 93 6d b6 30
       3.7117076e-09 9.086411e-09 3.3993197e-09 1.3273386e-09
000020 e8 d7 bc 31 f5 b6 fd 31 0c 12 b7 31 09 66 0c 31
       5.496066e-09 7.384069e-09 5.3280527e-09 2.0430682e-09
000030 da 1d be 30 29 4a a6 30 23 27 7b 31 a6 08 8e 31
       1.3832804e-09 1.2099167e-09 3.6547554e-09 4.133727e-09
000040 2b 64 be 31 0a ae fb 31 53 bb 26 31 03 4f b3 31
       5.5411156e-09 7.3248474e-09 2.426266e-09 5.2185682e-09
000050 5f d8 e5 31 a2 a2 e9 30 5c 4e a7 31 a5 03 a7 30
       6.6893757e-09 1.6999204e-09 4.869248e-09 1.2151885e-09
000060 16 b9 50 31 b8 13 32 32 6c fe 66 31 f7 62 2b 31
       3.0373193e-09 1.0365447e-08 3.3614027e-09 2.494003e-09
000070 f9 66 d1 30 bd bd ac 31 8c 7f a9 31 2d 01 35 31
       1.5236018e-09 5.0274296e-09 4.9330477e-09 2.6339635e-09
000080 68 77 41 31 de 24 5b 31 4d 77 63 31 24 d0 d7 31
       2.815307e-09 3.188965e-09 3.3100662e-09 6.2809864e-09
000090 83 52 32 30 9d 5f 6a 31 19 ec a9 30 da 09 3f 31
       6.487328e-10 3.4105831e-09 1.2363471e-09 2.7799758e-09
0000a0 1e d3 f1 30 ea 56 17 30 f8 f4 c5 31 66 ff 50 30
       1.7595061e-09 5.505699e-10 5.7613043e-09 7.60329e-10
0000b0 2f ff e0 30 be 8f e9 31 45 f4 cd 30 2b 12 71 31
       1.6370673e-09 6.797534e-09 1.4985139e-09 3.5080443e-09
0000c0 09 34 9c 30 b7 6f d0 30 86 a6 ba 30 a1 de 8c 31
       1.1365283e-09 1.5165743e-09 1.358061e-09 4.0998462e-09
0000d0 d1 85 39 30 22 ba da 31 be b2 5e 30 10 54 ed 31
       6.749277e-10 6.365796e-09 8.101714e-10 6.9071646e-09
0000e0 15 aa 7e 30 21 d2 a0 31 c0 02 26 31 16 e1 33 31
       9.2646363e-10 4.6805018e-09 2.4157742e-09 2.6175875e-09
0000f0 0e ec a3 31 3f b9 1a 31 dd ac 10 31 1e 97 85 30
       4.7707607e-09 2.251525e-09 2.105302e-09 9.719974e-10
000100 1d c9 50 32 4c 4e 32 32 d7 40 d2 30 09 d4 85 30
       1.2152921e-08 1.0378766e-08 1.529794e-09 9.737288e-10
000110 ce 9b 15 30 6d bb 96 30 75 6b 24 32 12 dd 22 31
       5.4427296e-10 1.0967206e-09 9.570489e-09 2.3699767e-09
000120 a2 8e 74 31 55 8e 22 32 d7 4b 34 30 74 77 88 30
       3.558775e-09 9.462004e-09 6.5591393e-10 9.929253e-10
000130 e0 80 56 32 87 ae e9 31 c8 a9 39 30 7b d6 e6 31
       1.2485742e-08 6.801034e-09 6.754388e-10 6.7182646e-09
000140 65 3e 81 32 ce ed 0b 31 0b fb 2c 32 23 12 92 32
       1.504595e-08 2.0362338e-09 1.0068798e-08 1.7004885e-08
000150 ae 42 c9 32 7d 2a 2b 31 eb b0 2e 31 c9 2c 09 32
       2.3429802e-08 2.4907927e-09 2.5420899e-09 7.9846325e-09
000160 88 27 2e 32 56 33 35 32 96 52 11 30 02 68 c9 31
       1.0137121e-08 1.0547259e-08 5.2868054e-10 5.8616942e-09
000170 a3 e8 9b 31 12 e8 9e 30 79 c1 a4 31 23 04 b7 30
       4.5375415e-09 1.1561971e-09 4.7950235e-09 1.3316178e-09
000180 5f 6b bc 31 fb 8f 78 31 e6 27 8f 30 b0 f3 d0 31
       5.483727e-09 3.6170593e-09 1.0415959e-09 6.081301e-09
000190 a2 bf 02 32 de 84 28 31 b0 1a 69 30 54 19 01 30
       7.610568e-09 2.4522744e-09 8.480283e-10 4.696592e-10
0001a0 76 67 96 31 1f 72 9c 31 59 d2 bf 31 a6 7c 35 31
       4.3773367e-09 4.5531716e-09 5.5827454e-09 2.640982e-09
0001b0 a8 96 17 31 b3 81 fb 30 d2 bb 06 31 7b 3a d0 2f
       2.205903e-09 1.8299516e-09 1.960633e-09 3.7876532e-10
0001c0 9a f7 2c 31 05 20 3e 31 b7 1e d5 30 c5 ae 91 2f
       2.517004e-09 2.766684e-09 1.5506519e-09 2.6499528e-10
0001d0 e4 ff 6d 31 9a 82 86 31 f9 7f 3b 30 85 23 99 31
       3.4633496e-09 3.914761e-09 6.8212064e-10 4.456924e-09
0001e0 b5 f7 0e 32 1d 24 99 30 fc da 8e 31 46 2a fa 31
       8.32181e-09 1.1142479e-09 4.1576396e-09 7.2807635e-09
0001f0 c3 3d be 30 7a 5d 9f 31 83 cd 46 31 21 aa 2d 31
       1.3841873e-09 4.638136e-09 2.8929612e-09 2.527152e-09
000200 04 d7 5f 31 eb 8a e1 31 ce 7d 03 32 50 7e 00 30
       3.2572993e-09 6.564155e-09 7.653808e-09 4.674563e-10
000210 dd 66 b5 2f e7 2d 84 30 4b 6f 97 30 79 4a c6 31
       3.2996797e-10 9.61731e-10 1.1018327e-09 5.771025e-09
000220 18 c6 09 31 44 13 01 32 50 91 19 31 2c 30 84 31
       2.0048727e-09 7.513169e-09 2.234703e-09 3.847182e-09
000230 a2 e0 83 31 23 c9 8a 30 02 45 22 31 77 5f ba 31
       3.8381396e-09 1.0097988e-09 2.361333e-09 5.4241656e-09
000240 6f 7e 16 31 39 a5 5c 32 e4 b8 25 32 6d 39 ed 30
       2.1899742e-09 1.2843253e-08 9.646303e-09 1.7260341e-09
000250 4c 09 15 32 2e 30 d2 30
       8.675055e-09 1.5293204e-09

exp_avg f4 [5]
000000 04 e5 91 2e 9a a1 29 2e 3f f4 06 ad b4 1a 9f 2c
       6.634518e-11 3.8569682e-11 -7.671252e-12 4.5220164e-12
000010 cf 09 67 2d
       1.3133008e-11

exp_avg_sq f4 [5]
000000 4b c2 a2 23 84 4a d0 27 6c d5 41 28 68 ab 16 28
       1.7646361e-17 5.7812387e-15 1.0759931e-14 8.3638405e-15
000010 55 98 d5 22
       5.7895053e-18
