tutorial/Mouse_cerebellum_output/version_8/checkpoints/mlp.ckpt (torch, 17217 bytes, 12 tensors)

model.classifier.0.weight f4 [30, 30]
-0.020773552 -0.07992015 -0.060789146 0.037279483 0.03186029 0.05805104 0.0096306065 0.024518646
0.068229266 -0.17947909 0.0064530293 0.14146514 -0.13403611 0.114631735 0.13069168 -0.09388517
-0.080931515 0.053873867 0.086944364 -0.0968339 0.13409439 0.060088683 -0.01023326 -0.03216722
-0.074964754 -0.06251116 -0.16010891 0.16072024 -0.07513685 0.048113856 0.11282389 0.17478137
0.20826492 -0.027888201 0.06403833 0.09402 -0.03859956 0.12635387 -0.038515687 -0.009580143
-0.025797512 -0.15763126 0.07106568 -0.115287945 -0.15920497 0.071531944 -0.009195608 -0.12167186
-0.020272851 -0.010271719 0.08523367 0.0037237986 0.038582444 -0.24373943 0.0463802 0.06240193
-0.07142128 -0.03173938 0.11996612 -0.025791122 -0.0044972114 0.037610445 0.009061129 -0.029123195
-0.04631794 -0.07566045 0.0014781463 -0.052960366 -0.056219406 0.17159095 0.0007059368 -0.09434777
0.110619076 -0.08115095 -0.0873142 0.06912836 0.08248445 -0.024455361 -0.076419964 0.09426736
-0.14957127 -0.06126158 0.0017903863 0.08866548 0.06063456 0.044096228 0.16930272 -0.14541107
0.043260384 -0.041340046 0.1284759 0.21804053 0.21425022 -0.036827184 0.042692054 0.102279186
-0.009010824 0.12139577 -0.06501069 -0.00041236464 -0.017928533 -0.15435338 0.08021797 -0.1072223
-0.1827308 0.021037068 0.07698816 -0.14454573 -0.0068548094 0.0074350564 0.026101245 -0.05354296
0.061365634 -0.20947008 0.05497316 0.075426236 -0.02747585 -0.057501465 0.13654743 -0.0685109
0.10278599 0.13043025 0.20597854 -0.013896329 0.097507864 0.102937125 -0.069733195 0.1467406
-0.003666769 -0.05324582 -0.034655128 -0.14713149 0.04143732 -0.11044055 -0.123248674 0.10919989
-0.108630806 -0.09684953 -0.019459838 -0.046685256 0.17712244 0.075182214 0.016470801 -0.3017576
0.027233895 0.041739836 -0.1506316 0.02203217 0.09889545 0.02483257 -0.023204954 -0.08184482
-0.040165998 0.02476277 0.02906183 -0.07507063 -0.025761727 0.028194671 0.026851188 0.06873771
-0.026937157 -0.13671118 -0.016150983 -0.06322121 0.039266642 0.13369898 -0.13464575 0.10893282
-0.07548059 0.015609899 0.072364695 0.13795908 -0.06566024 -0.029525096 0.00028366345 0.011680394
0.0038460481 0.0073868134 0.010212389 0.06864319 0.036255907 0.1209096 0.123760015 -0.0530869
-0.020239893 -0.010904942 -0.038793445 -0.02354917 -0.07188634 0.14659303 -0.0038668853 -0.094507985
0.16642134 -0.11829925 -0.1759436 0.09578425 0.07007812 -0.1302278 -0.069924854 0.07573082
-0.113535896 -0.08865717 0.03317442 -0.026482666 0.082226165 0.056149233 0.111875445 -0.16279666
0.076838605 -0.04903357 0.008453664 0.085748896 0.050857976 -0.040798582 -0.04441378 0.07390819
0.0032567934 -0.074356385 -0.035766322 -0.045975793 0.036609054 0.19246769 0.06410561 0.062206622
-0.06908514 -0.12208243 0.14256379 -0.15915434 0.07258695 -0.006341004 -0.11476764 -0.17974167
0.07697179 0.056348797 0.0135979 -0.022119515 0.015215655 -0.044797648 -0.026414033 -0.071177214
0.060756028 0.11358589 0.05029236 -0.009190661 -0.008187959 0.12672798 0.06378535 0.036179114
-0.019957902 -0.15946484 0.024497895 0.1325725 -0.057576258 0.09887365 -0.010563505 -0.2134257
00000000: 4c2d aabc 2dad a3bd 0afe 78bd 5fb2 183d
00000010: ef7f 023d edc6 6d3d b1c9 1d3c 54db c83c
00000020: c9bb 8b3d 5ec9 37be ef73 d33b 3ddc 103e
00000030: c340 09be 0bc4 ea3d 0ad4 053e de46 c0bd
00000040: 6cbf a5bd d8aa 5c3d e30f b23d da50 c6bd
00000050: 0a50 093e 8d1f 763d 67a9 27bc c6c1 03bd
00000060: 1f87 99bd da05 80bd 97f3 23be d993 243e
00000070: 59e1 99bd 0913 453d 3610 e73d e3f9 323e
00000080: 6643 553e cc75 e4bc 8726 833d 8f8d c03d
00000090: 921a 1ebd e962 013e a0c2 1dbd 08f6 1cbc
000000a0: 4e55 d3bc 176a 21be e28a 913d 161c ecbd
000000b0: a106 23be 577f 923d 2da9 16bc 192f f9bd
000000c0: 4013 a6bc b64a 28bc fe8e ae3d f90a 743b
000000d0: a008 1e3d d496 79be 2af9 3d3d 2b99 7f3d
000000e0: 5245 92bd 2701 02bd ccb0 f53d e747 d3bc
000000f0: 585d 93bb 690d 1a3d 2175 143c c493 eebc
00000100: e1b7 3dbd def3 9abd 5cbe c13a f8ec 58bd
00000110: 5246 66bd 8ab5 2f3e 9e0e 393a 6739 c1bd
00000120: 418c e23d 7832 a6bd cad1 b2bd 2b93 8d3d
00000130: 9bed a83d 9c56 c8bc 1282 9cbd 3f0f c13d
00000140: 3629 19be 6ced 7abd 65ab ea3a 3f96 b53d
00000150: f25b 783d 3f9e 343d b15d 2d3e a4e6 14be
00000160: cd31 313d 2e54 29bd 308f 033e 0446 5f3e
00000170: 6964 5b3e 1ad8 16bd dddd 2e3d c077 d13d
00000180: 23a2 13bc 589e f83d 5324 85bd a532 d8b9
00000190: dcde 92bc d00e 1ebe 5249 a43d 5d97 dbbd
000001a0: c81d 3bbe ee55 ac3c f8ab 9d3d cc03 14be
000001b0: 4f9e e0bb c6a1 f33b 47d2 d53c dd4f 5bbd
000001c0: 885a 7b3d 537f 56be 892b 613d 1279 9a3d
000001d0: 0915 e1bc a886 6bbd 17d3 0b3e 714f 8cbd
000001e0: 7681 d23d 828f 053e 0aec 523e 6ead 63bc
000001f0: 34b2 c73d b3d0 d23d 47d0 8ebd 2b43 163e
00000200: 2d4e 70bb 4a18 5abd 89f2 0dbd a3a9 16be
00000210: 2eba 293d a82e e2bd cd69 fcbd 31a4 df3d
00000220: d479 debd 0c59 c6bd 3d6a 9fbc 0a39 3fbd
00000230: 965f 353e 22f9 993d c6ed 863c f97f 9abe
00000240: 9e19 df3c 64f7 2a3d 2c3f 1abe cf7c b43c
00000250: b389 ca3d ad6d cb3c 5118 bebc 429e a7bd
00000260: 1a85 24bd 4bdb ca3c 1313 ee3c a1be 99bd
00000270: 420a d3bc 83f8 e63c 06f7 db3c 5bc6 8c3d
00000280: 50ab dcbc 04fe 0bbe 114f 84bc 1f7a 81bd
00000290: 0fd6 203d 63e8 083e 93e0 09be 2c18 df3d
000002a0: 9195 9abd a9c0 7f3c f133 943d 2545 0d3e
000002b0: e078 86bd 9dde f1bc aab8 9439 205f 3f3c
000002c0: fb0d 7c3b 150d f23b dd51 273c cd94 8c3d
000002d0: 1381 143d 749f f73d e475 fd3d a671 59bd
000002e0: 22ce a5bc a4aa 32bc e0e5 1ebd 30ea c0bc
000002f0: 2539 93bd 7c1c 163e 926b 7dbb 678d c1bd
00000300: 5b6a 2a3e e146 f2bd 8f2a 34be 882a c43d
00000310: 1e85 8f3d 705a 05be c334 8fbd c318 9b3d
00000320: 8285 e8bd e491 b5bd e7e1 073d 2df2 d8bc
00000330: 3166 a83d bdfc 653d f41e e53d 2bb4 26be
00000340: 8f5d 9d3d 6dd7 48bd 3d81 0a3c 1e9d af3d
00000350: 7450 503d 6a1c 27bd 39eb 35bd 2d5d 973d
00000360: ed6f 553b 2948 98bd b57f 12bd 1d51 3cbd
00000370: 60f3 153d 4016 453e cd49 833d 5fcc 7e3d
00000380: 837c 8dbd 5a06 fabd 3efc 113e 5bf9 22be
00000390: 78a8 943d 32c8 cfbb 4c0b ebbd 330e 38be
000003a0: 63a3 9d3d ffcd 663d bac9 5e3c fc33 b5bc
000003b0: 154b 793c bd7d 37bd 3e62 d8bc 5cc5 91bd
000003c0: 50db 783d b89f e83d 5dff 4d3d 6d94 16bc
000003d0: ca26 06bc fbc4 013e e5a1 823d 8d30 143d
000003e0: c17e a3bc c04a 23be cfaf c83c 16c1 073e
000003f0: 15d5 6bbd 457e ca3d 8d12 2dbc 448c 5abe

model.classifier.0.bias f4 [30]
-1.817947e-07 -4.697213e-06 1.9035991e-06 -7.6949254e-07 -1.2762933e-06 -5.7032366e-07 -1.03325615e-08 1.2933182e-06
4.4664944e-07 7.3387594e-07 -1.6448852e-06 4.9996027e-07 -1.594428e-06 -2.2407265e-07 -1.3485377e-06 -2.6009877e-06
-1.2481819e-06 1.7256776e-06 1.3363706e-06 4.4577993e-07 -7.38351e-07 5.531355e-07 2.456837e-06 -5.3060637e-07
9.984193e-07 5.1787374e-06 -5.6300814e-07 3.1437622e-07 1.0072628e-06 7.5995587e-07
00000000: 5933 43b4 c19c 9db6 2b7f ff35 208f 4eb5
00000010: 1b4d abb5 5818 19b5 1683 31b2 1396 ad35
00000020: 08cb ef34 92ff 4435 d3c5 dcb5 0235 0635
00000030: 2100 d6b5 9f98 70b4 67ff b4b5 a18c 2eb6
00000040: 3487 a7b5 d59d e735 585d b335 8753 ef34
00000050: 1833 46b5 2f7b 1435 23e0 2436 fe6e 0eb5
00000060: 6d01 8635 04c5 ad36 a021 17b5 8ac7 a834
00000070: 4931 8735 c5ff 4b35

model.classifier.1.weight f4 [5, 30]
0.13586104 0.28173366 -0.19085862 0.32338643 0.28799438 -0.21032459 -0.02097872 0.18700346
0.37600318 0.2972426 0.24983093 -0.06619385 -0.09556029 -0.057225715 -0.19657227 0.2281368
-0.24020924 -0.24384396 0.22907186 0.23517902 0.00727263 0.34264204 -0.16385067 0.31645703
0.2245217 -0.31490067 0.2481207 0.048572306 0.005393098 -0.25125948 -0.33352616 0.41344002
0.21633387 0.3917259 0.40311667 0.15452926 0.3750148 -0.14712524 -0.24742122 0.05215683
0.40686262 0.13932662 0.2179877 0.34519842 0.2071056 0.08553867 -0.10048284 0.25088662
-0.07389216 -0.3657201 0.36552826 -0.13264726 -0.14520837 -0.0231612 0.09262416 -0.2886449
-0.0980311 -0.43085563 -0.39806673 0.26154113 -0.0451424 -0.18094064 0.08587159 -0.14709857
-0.23558943 0.062184915 -0.0684469 -0.10962906 -0.056739252 -0.1428321 -0.14055789 -0.067542024
-0.009417688 0.094162844 0.04723866 -0.18963383 0.2842866 -0.023771279 0.038162455 -0.19009504
-0.20111163 -0.061678465 0.034807775 -0.23613243 -0.18273662 0.07395503 -0.1794423 -0.010202731
-0.071984164 0.019185735 -0.14245792 -0.14072445 0.17173819 -0.07931327 -0.2411215 -0.1731582
0.18567283 0.29978922 0.04435466 0.14230414 -0.16106604 0.32426146 -0.26879287 -0.10664653
-0.2924009 -0.08999875 -0.2274065 0.31654486 0.13618337 0.23021403 0.11604297 0.17554975
0.2501592 -0.076760784 0.12951154 0.24653454 0.0049769664 0.045113374 0.0910558 0.21310025
0.31007135 -0.07489332 -0.2814578 -0.22535996 0.1258355 0.18073756 -0.2943832 -0.21850349
-0.15982209 -0.23090504 -0.08796011 -0.24886231 0.25588462 -0.21466514 0.28643116 0.13952869
0.0590167 -0.2143345 -0.39298946 0.07917803 -0.01642274 -0.33102098 -0.07110474 0.1844521
-0.103964716 0.10235517 0.1160944 0.20023502 0.2778253 -0.18160675
00000000: 281f 0b3e 653f 903e 7170 43be e892 a53e
00000010: 0074 933e 545f 57be 91db abbc d67d 3f3e
00000020: 7d83 c03e 2f30 983e aed3 7f3e a490 87bd
00000030: 1db5 c3bd 8365 6abd 3e4a 49be b19c 693e
00000040: 69f9 75be 3bb2 79be d091 6a3e c5d2 703e
00000050: 3e4f ee3b c76e af3e 78c8 27be a806 a23e
00000060: 04e9 653e a93a a1be 5a13 7e3e c1f3 463d
00000070: 96b8 b03b 15a5 80be f1c3 aabe 69ae d33e
00000080: a086 5d3e 4c90 c83e 4f65 ce3e eb3c 1e3e
00000090: f101 c03e 00a8 16be fd5b 7dbe 66a2 553d
000000a0: 4c50 d03e a3ab 0e3e 2b38 5f3e d9bd b03e
000000b0: 7e13 543e e62e af3d f2c9 cdbd 3674 803e
000000c0: c654 97bd aa3f bbbe 8526 bb3e afd4 07be
000000d0: 81b1 14be 8fbc bdbc bcb1 bd3d 44c9 93be
000000e0: 88c4 c8bd 1c99 dcbe 67cf cbbe b8e8 853e
000000f0: 3de7 38bd 8148 39be 72dd af3d 02a1 16be
00000100: 5b3e 71be 9cb5 7e3d e32d 8cbd 3385 e0bd
00000110: 6b67 68bd 9442 12be 68ee 0fbe 7953 8abd
00000120: a54c 1abc 73d8 c03d 537d 413d 5f2f 42be
00000130: 038e 913e fcbb c2bc 3c50 1c3d 46a8 42be
00000140: 35f0 4dbe 8fa2 7cbd 9992 0e3d b3cc 71be
00000150: 4f1f 3bbe bc75 973d b9bf 37be 5b29 27bc
00000160: 6f6c 93bd 672b 9d3c 7de0 11be 121a 10be
00000170: 23dc 2f3e ff6e a2bd 8ee8 76be 6250 31be
00000180: 0521 3e3e f97d 993e 3bad 353d 2db8 113e
00000190: 7fee 24be 9905 a63e 389f 89be 7f69 dabd
000001a0: 92b5 95be 4451 b8bd 40dd 68be 2b12 a23e
000001b0: a773 0b3e 3abd 6b3e f0a7 ed3d 50c3 333e
000001c0: de14 803e c234 9dbd ac9e 043e 8d73 7c3e
000001d0: d215 a33b cdc8 383d 777b ba3d f436 5a3e
000001e0: acc1 9e3e ab61 99bd 3d1b 90be c3c4 66be
000001f0: 05db 003e 4413 393e 65b9 96be 61bf 5fbe
00000200: 67a8 23be 5f72 6cbe 6e24 b4bd c3d5 7ebe
00000210: 4f03 833e 2ed1 5bbe 1ba7 923e 9ce0 0e3e
00000220: 7fbb 713d 817a 5bbe ea35 c9be 1728 a23d
00000230: fb88 86bc 957b a9be 5d9f 91bd 03e1 3c3e
00000240: 74eb d4bd 969f d13d e7c2 ed3d 690a 4d3e
00000250: 1e3f 8e3e 1ff7 39be

model.classifier.1.bias f4 [5]
-3.9513387e-07 -1.8903273e-06 7.650946e-06 5.366613e-06 -2.6058087e-06
00000000: c922 d4b4 27b7 fdb5 905c 0037 db12 b436
00000010: 74df 2eb6

exp_avg f4 [30, 30]
-7.7954246e-07 1.2769106e-05 2.1641972e-05 -6.273076e-06 7.127231e-06 4.2284028e-06 -1.7604438e-05 -3.4639506e-06
-6.4441597e-06 -2.3316885e-05 8.094874e-06 1.3825637e-05 2.2446864e-05 -9.3485676e-07 -3.3924334e-05 5.812768e-06
3.0160525e-06 -3.656546e-05 2.682283e-06 -5.881097e-06 -9.9398985e-06 -1.1361044e-05 1.16961455e-05 -1.1933214e-05
-3.2263267e-06 -8.504472e-06 2.5999088e-06 -1.0281894e-05 -6.4415354e-07 2.9548862e-06 -8.319009e-06 6.7242227e-06
1.2643201e-05 -2.8214095e-06 8.666034e-07 1.2008902e-05 -2.0481482e-05 -1.1386357e-05 1.2618577e-07 -4.432357e-05
4.7858966e-06 4.2286734e-05 1.39147905e-05 2.231881e-05 -2.550558e-05 -3.621605e-07 -8.408508e-06 -4.5214216e-05
1.4862441e-05 -1.1562347e-05 1.33326575e-05 -6.426776e-06 5.5324836e-06 -1.1167243e-05 -1.5286107e-05 -2.0349158e-05
-1.5820433e-05 6.1719957e-06 -1.6141084e-05 1.7179587e-05 3.0032754e-06 -1.3863917e-05 -2.376597e-05 6.71366e-06
-7.2257117e-06 -6.890617e-06 2.195765e-05 6.1591095e-06 6.0482894e-06 3.3145243e-05 -8.984223e-06 -2.3622202e-05
-2.4854817e-05 -4.4876583e-06 3.869998e-05 -5.4982397e-06 -8.191703e-07 4.6101242e-05 -6.2701083e-06 8.580759e-06
6.5075947e-06 1.238153e-05 -1.2796787e-05 1.3837392e-05 6.909938e-06 1.3043047e-05 1.3683559e-06 8.088312e-06
4.7506724e-06 -6.8546988e-06 -5.4159914e-06 1.9206336e-06 7.641993e-06 -7.3679865e-07 -3.9619545e-06 1.1084036e-05
-1.3106228e-05 -9.376572e-06 2.2410462e-07 -3.1307613e-05 3.2421792e-07 3.226551e-05 7.862572e-06 2.1929454e-05
-1.4243064e-05 -1.0318568e-06 -8.643248e-06 -3.0237185e-05 1.14117865e-05 -5.90611e-06 1.809279e-05 -3.6693912e-06
-1.3402035e-06 -1.1584784e-05 -1.1031275e-05 -1.5386824e-05 -1.462468e-05 4.0711643e-06 -1.1906939e-05 1.6229982e-05
-1.1975831e-05 1.4536591e-05 2.2766058e-05 -6.3222365e-06 7.1795853e-06 1.46075445e-05 -3.2948494e-05 -1.4984684e-05
-1.26356e-06 -6.511052e-05 1.1097476e-05 5.8346e-05 2.5421483e-05 2.4280043e-05 -4.528301e-05 1.4756563e-06
-8.140967e-06 -7.0741225e-05 1.9897174e-05 -1.9168096e-05 7.796838e-06 -1.1616374e-05 1.5005775e-05 -1.3841956e-05
-2.1266402e-05 -2.8597213e-05 -1.7775921e-05 6.7744195e-06 -2.1815047e-05 2.01384e-05 -8.60511e-06 1.2367791e-05
9.063793e-06 -3.8002393e-06 9.773987e-06 3.5147616e-06 -1.7965589e-05 -9.463792e-06 2.7037327e-06 -2.5270067e-05
9.124353e-06 3.0725387e-05 1.4011154e-05 1.9011023e-06 -2.2379952e-05 3.0563833e-06 -3.4638588e-06 -3.717087e-05
9.649745e-06 -1.24869375e-05 -1.1528801e-05 -7.271205e-06 1.7002734e-05 5.9938616e-06 -7.84283e-06 -1.0786272e-05
-5.966244e-06 9.866545e-06 -1.590514e-05 -9.48938e-08 1.6952633e-06 -1.610254e-05 -2.3115621e-05 6.813422e-06
-8.687912e-06 -4.383042e-06 2.0237174e-05 6.283233e-06 5.1859834e-06 2.049055e-05 -9.1717875e-06 -1.7789856e-05
-2.5995289e-05 3.7393363e-06 3.607213e-05 -8.185197e-06 -1.8816364e-06 4.1758936e-05 -3.0445908e-06 6.1983437e-06
1.538918e-05 1.3865135e-05 -1.5627886e-05 8.531398e-06 9.3090557e-07 7.6236147e-06 -2.8397596e-06 8.8504385e-06
3.875307e-06 7.0180494e-07 1.24526805e-05 -2.1252505e-05 -2.0957435e-05 7.078884e-06 -1.3082924e-05 -8.824707e-06
3.193533e-05 1.7129574e-05 -2.0801276e-06 4.2770058e-05 -1.3645299e-05 -5.2037456e-05 -2.8432543e-05 -6.2227527e-06
4.209289e-05 -7.025363e-06 6.484413e-06 6.699617e-05 -1.5320136e-05 1.783218e-05 1.5124517e-05 1.51832555e-05
-2.5600815e-05 -2.1460553e-06 1.1132098e-05 1.8616236e-05 1.0098292e-05 -1.0006175e-05 2.4357732e-05 -2.704594e-06
6.5620447e-06 -3.1734037e-06 7.196857e-06 -1.3884825e-08 -7.973092e-06 3.6498875e-06 2.4043518e-06 2.0681205e-06
-5.8566106e-06 4.9210794e-06 -5.2239475e-06 -9.79741e-06 3.6389872e-06 4.5889187e-06 -2.0983903e-06 1.7436172e-06
00000000: c041 51b5 e53a 5637 c88b b537 507d d2b6
00000010: 7326 ef36 b4e1 8d36 3ead 93b7 3876 68b6
00000020: e93a d8b6 a198 c3b7 38cf 0737 a9f4 6737
00000030: 464c bc37 def2 7ab5 fa49 0eb8 4c0b c336
00000040: 6367 4a36 dd5d 19b8 4501 3436 3d56 c5b6
00000050: 8ac3 26b7 509b 3eb7 903a 4437 c434 48b7
00000060: df83 58b6 6eae 0eb7 187a 2e36 6680 2cb7
00000070: e5e9 2cb5 8f4c 4636 df91 0bb7 a2a0 e136
00000080: 231e 5437 7257 3db6 88a0 6835 d779 4937
00000090: a6cf abb7 0808 3fb7 ae7d 0734 12e8 39b8
000000a0: 8a96 a036 095d 3138 9273 6937 4839 bb37
000000b0: d1f4 d5b7 f66e c2b4 4412 0db7 65a4 3db8
000000c0: b359 7937 e7fb 41b7 54af 5f37 96a5 d7b6
000000d0: aca3 b936 f25a 3bb7 aa3a 80b7 7cb3 aab7
000000e0: 1fb6 84b7 0a19 cf36 b766 87b7 e21c 9037
000000f0: e18b 4936 1299 68b7 085d c7b7 e645 e136
00000100: 6474 f2b6 f335 e7b6 b231 b837 59aa ce36
00000110: 69f2 ca36 6f05 0b38 f2ba 16b7 4b28 c6b7
00000120: 507f d0b7 b194 96b6 ca51 2238 857d b8b6
00000130: f4e4 5bb5 d55c 4138 d263 d2b6 14f6 0f37
00000140: d05b da36 44ba 4f37 c8b1 56b7 2527 6837
00000150: eadb e736 76d3 5a37 5aa8 b735 09b3 0737
00000160: f767 9f36 6a01 e6b6 03bb b5b6 3ce4 0036
00000170: 1c36 0037 6bc8 45b5 eef0 84b6 92f5 3937
00000180: d2e2 5bb7 1250 1db7 69a1 7034 4b50 03b8
00000190: 2c10 ae34 d454 0738 7de9 0337 25f5 b737
000001a0: 7ef5 6eb7 547e 8ab5 7802 11b7 dca5 fdb7
000001b0: 4075 3f37 192d c6b6 f8c5 9737 a93f 76b6
000001c0: 0be1 b3b5 455c 42b7 f712 39b7 f412 81b7
000001d0: 865c 75b7 099b 8836 eac3 47b7 9f25 8837
000001e0: cdeb 48b7 2fe2 7337 bdf9 be37 9923 d4b6
000001f0: 2be8 f036 ed12 7537 2d32 0ab8 ba66 7bb7
00000200: 9797 a9b5 f28b 88b8 4c2f 3a37 8ab8 7438
00000210: 3840 d537 ffac cb37 43ee 3db8 2a0f c635
00000220: 3095 08b7 e85a 94b8 dbe8 a637 2ccb a0b7
00000230: 2acf 0237 f2e3 42b7 50c1 7b37 c03a 68b7
00000240: 4065 b2b7 0ce4 efb7 801d 95b7 d24f e336
00000250: 75ff b6b7 e2ee a837 ab5e 10b7 427f 4f37
00000260: b210 1837 9d07 7fb6 f4fa 2337 25df 6b36
00000270: cfb4 96b7 adc6 1eb7 c671 3536 0efb d3b7
00000280: cc14 1937 22df 0038 7311 6b37 6129 ff35
00000290: 95bc bbb7 441c 4d36 a474 68b6 ebe7 1bb8
000002a0: 57e5 2137 fd7e 51b7 d36b 41b7 2dfb f3b6
000002b0: 18a1 8e37 e11e c936 b394 03b7 aff6 34b7
000002c0: a531 c8b6 7d88 2537 076c 85b7 6bc8 cbb3
000002d0: ce88 e335 f113 87b7 6be8 c1b7 d99e e436
000002e0: 4cc2 11b7 0b12 93b6 00c3 a937 8fd4 d236
000002f0: 4203 ae36 1fe3 ab37 87e0 19b7 6d3b 95b7
00000300: 7510 dab7 4ff1 7a36 284c 1738 2753 09b7
00000310: 898c fcb5 5126 2f38 ac51 4cb6 5efb cf36
00000320: 0318 8137 4d9e 6837 a118 83b7 1322 0f37
00000330: 58e3 7935 5ace ff36 b392 3eb6 587c 1437
00000340: a208 8236 ab63 3c35 dbeb 5037 6847 b2b7
00000350: c0cd afb7 2787 ed36 bb7e 5bb7 d40d 14b7
00000360: 4df2 0538 7bb1 8f37 5298 0bb6 0064 3338
00000370: 1dee 64b7 cb42 5ab8 6c82 eeb7 0acd d0b6
00000380: e68c 3038 69bb ebb6 af94 d936 4b80 8c38
00000390: be83 80b7 5196 9537 4ebf 7d37 96bb 7e37
000003a0: 55c1 d6b7 f304 10b6 ffc3 3a37 102a 9c37
000003b0: d56b 2937 32e0 27b7 d553 cc37 9280 35b6
000003c0: 892f dc36 a9f6 54b6 887c f136 1b8a 6eb2
000003d0: 2bc4 05b7 97f0 7436 735a 2136 0aca 0a36
000003e0: e783 c4b6 c01f a536 5e49 afb6 8e5f 24b7
000003f0: 5335 7436 83fa 9936 12d2 0cb6 3b06 ea35

exp_avg_sq f4 [30, 30]
1.15784805e-10 6.808934e-10 5.046486e-10 1.167408e-10 1.2914354e-10 2.9429867e-10 2.6906308e-10 2.9603664e-10
2.5291244e-10 1.157011e-09 7.3641364e-11 1.0389662e-09 7.2808065e-10 4.0288162e-10 9.986001e-10 5.0935156e-10
1.0287924e-09 7.774297e-10 2.801479e-10 4.777625e-10 1.060926e-09 5.336925e-10 1.7746045e-10 5.18514e-10
2.399807e-10 1.8502383e-10 1.394119e-09 9.2136654e-10 2.7538355e-10 3.0620814e-10 6.8315353e-10 1.8046342e-09
1.9468824e-09 1.8184401e-10 2.9533337e-10 7.883774e-10 7.0348694e-10 8.425913e-10 1.4346437e-10 1.0469073e-09
1.6727851e-10 1.5595556e-09 7.5837897e-10 7.139635e-10 1.5580488e-09 7.2613854e-10 6.6213635e-10 2.0269395e-09
4.0003548e-10 7.0420636e-10 7.325899e-10 3.5605216e-10 2.5779873e-10 2.4862796e-09 3.8680373e-10 3.6183065e-10
1.366106e-09 6.1801464e-10 5.8360644e-10 2.5847374e-10 1.2342702e-10 5.8010374e-10 3.9775497e-10 1.0980714e-10
1.6215451e-10 3.9445378e-10 3.5278563e-10 3.8463377e-10 1.9725671e-10 1.1268021e-09 8.9029846e-11 9.26279e-10
6.319365e-10 2.2373639e-10 8.441052e-10 4.0030118e-10 9.828376e-10 9.722219e-10 2.6826946e-10 5.007626e-10
1.1724843e-09 5.4270727e-10 1.7251932e-10 7.1277934e-10 1.7177641e-10 1.7300193e-10 1.5601137e-09 7.910724e-10
1.7018958e-10 2.8158137e-10 8.108731e-10 2.6098876e-09 1.9176531e-09 1.820908e-10 2.523495e-10 8.065873e-10
4.7679816e-10 8.792962e-10 2.6787025e-10 9.490184e-10 1.6937309e-10 1.2859535e-09 6.901339e-10 6.9083306e-10
1.7727682e-09 5.7996197e-10 1.0569591e-09 1.878899e-09 4.1007375e-10 9.2395624e-10 6.8162204e-10 6.365824e-10
3.7733935e-10 1.98517e-09 4.1319498e-10 3.8413164e-10 1.5548652e-09 8.602246e-10 6.9191525e-10 4.50111e-10
6.956917e-10 1.4953131e-09 2.2507256e-09 2.4147323e-10 4.935935e-10 1.06702e-09 1.3087992e-09 1.1086175e-09
1.1890505e-10 1.5812294e-09 2.4111912e-10 2.2884594e-09 1.0030996e-09 7.3084433e-10 1.7349285e-09 1.1726344e-09
1.4041601e-09 2.9660052e-09 5.066062e-10 8.000559e-10 1.6785048e-09 5.8800526e-10 2.9821534e-10 3.777638e-09
4.1022757e-10 4.471094e-10 2.2379536e-09 6.1112476e-10 5.586278e-10 3.531706e-10 1.4024165e-10 6.829394e-10
2.4592905e-10 7.543717e-11 1.8167098e-10 3.3381903e-10 1.6773273e-10 4.1506854e-10 9.3448034e-11 5.2115773e-10
1.02853455e-10 1.0808435e-09 2.0874746e-10 2.0378065e-10 4.0821774e-10 5.843989e-10 8.823606e-10 9.86655e-10
2.914526e-10 4.510308e-10 6.428906e-10 1.0816337e-09 2.7835514e-10 4.1997655e-10 9.658017e-11 8.855279e-11
7.899028e-10 4.179031e-10 1.0203382e-10 2.853157e-10 1.4041568e-10 8.624218e-10 9.640547e-10 1.6589416e-10
1.2595283e-10 1.9763757e-10 2.9041727e-10 3.0983452e-10 2.5614977e-10 1.0252389e-09 6.250217e-11 5.997217e-10
1.1628893e-09 4.454179e-10 1.3942116e-09 5.7173144e-10 8.044097e-10 1.2797025e-09 2.0613418e-10 3.9756473e-10
8.967742e-10 7.29635e-10 2.1385581e-10 5.5849414e-10 3.317071e-10 1.3719921e-10 8.63447e-10 1.100209e-09
2.5110283e-10 2.8713962e-10 1.9754678e-10 7.4872714e-10 4.5632328e-10 1.5133449e-10 3.046206e-10 4.459558e-10
3.306231e-10 8.665365e-10 1.3206451e-10 8.5694696e-10 1.5093998e-10 2.4140143e-09 5.874124e-10 2.3460778e-10
7.601921e-10 5.4732574e-10 1.0008827e-09 2.1566553e-09 3.2399963e-10 5.2058513e-10 1.0788512e-09 1.7988058e-09
4.1252368e-10 6.773852e-10 1.5405109e-10 1.499564e-10 9.398409e-10 6.7061506e-10 2.131049e-10 3.6064982e-10
3.6259196e-10 1.5376804e-09 3.6911227e-10 9.878309e-11 2.644416e-10 7.11548e-10 3.176652e-10 6.820579e-10
1.3863508e-10 1.1380221e-09 1.8354411e-10 9.2614344e-10 3.6410863e-10 4.5818002e-10 6.6153655e-10 1.4540897e-09
00000000: 0d9d fe2e 9d29 3b30 7db7 0a30 9d5b 002f
00000010: adfe 0d2f dbca a12f 43eb 932f 74bf a22f
00000020: 430a 8b2f b504 9f30 67f0 a12e 60cb 8e30
00000030: 1f22 4830 8c7c dd2f 1e3f 8930 6e02 0c30
00000040: 6a65 8d30 c0b2 5530 5003 9a2f 8c53 0330
00000050: 04d0 9130 45b3 1230 ad1e 432f 2e87 0e30
00000060: 48ee 832f 946f 4b2f 349b bf30 6843 7d30
00000070: ca64 972f f756 a82f a8c8 3b30 ec06 f830
00000080: ebc9 0531 8af0 472f 7a5c a22f 21b5 5830
00000090: 7e5f 4130 179c 6730 a1bd 1d2f c7e2 8f30
000000a0: b7ec 372f fc57 d630 2d76 5030 b740 4430
000000b0: f822 d630 7599 4730 b401 3630 4c4a 0b31
000000c0: fdeb db2f 1e92 4130 6e5f 4930 e3bd c32f
000000d0: f2b9 8d2f 18db 2a31 c9a5 d42f 23eb c62f
000000e0: 95c1 bb30 eae0 2930 a76b 2030 f218 8e2f
000000f0: 9eb5 072f 2c75 1f30 09ab da2f ed77 f12e
00000100: 704a 322f 6fda d82f 2af2 c12f 6474 d32f
00000110: d4e2 582f d3dd 9a30 59c7 c32e 179d 7e30
00000120: 94b4 2d30 3200 762f 9f06 6830 6211 dc2f
00000130: 8614 8730 049f 8530 927b 932f 09a6 0930
00000140: 2025 a130 a12d 1530 dfaf 3d2f 63ed 4330
00000150: c3de 3c2f b737 3e2f 9f6b d630 c572 5930
00000160: 1c20 3b2f 0ecd 9a2f 1fe4 5e30 a159 3331
00000170: b6c7 0331 0136 482f 09bb 8a2f 89b6 5d30
00000180: b00f 0330 f8b2 7130 6343 932f 9e6e 8230
00000190: 493a 3a2f 77bd b030 dbb3 3d30 0ee5 3d30
000001a0: bca5 f330 326b 1f30 7144 9130 f11d 0131
000001b0: c070 e12f a4f9 7d30 e35c 3b30 81fb 2e30
000001c0: cb71 cf2f 7b6b 0831 0628 e32f b92d d32f
000001d0: f5b2 d530 ed74 6c30 3531 3e30 7e73 f72f
000001e0: f43a 3f30 a783 cd30 2fab 1a31 56c0 842f
000001f0: 8ead 0730 6ea6 9230 47e1 b330 035e 9830
00000200: ccbc 022f 9052 d930 808e 842f 0143 1d31
00000210: 6edd 8930 99e4 4830 5f72 ee30 682a a130
00000220: 7efc c030 84d2 4b31 3e41 0b30 eeea 5b30
00000230: 23b1 e630 31a1 2130 14f2 a32f 75cc 8131
00000240: 6686 e12f 0ecd f52f 7fca 1931 15fc 2730
00000250: f08d 1930 5828 c22f 8432 1a2f 97b9 3b30
00000260: 7033 872f 5ae3 a52e d6bf 472f da84 b72f
00000270: 916c 382f b42f e42f 917e cd2e 3741 0f30
00000280: 592d e22e cd8c 9430 3085 652f 270f 602f
00000290: 8a6b e02f 6ba3 2030 9b8a 7230 d69a 8730
000002a0: 4f3a a02f f1f4 f72f 67b7 3030 9aa8 9430
000002b0: 0107 992f 72e2 e62f cd61 d42e caba c22e
000002c0: 7820 5930 a2be e52f ef5f e02e 9dda 9c2f
000002d0: 8063 1a2f 8a0f 6d30 a97f 8430 0e67 362f
000002e0: 927c 0a2f 084e 592f 99a8 9f2f 5555 aa2f
000002f0: e0d1 8c2f 63e8 8c30 9871 892e aad9 2430
00000300: 88d3 9f30 ffde f42f 769e bf30 0628 1d30
00000310: 4d1d 5d30 87e1 af30 9da5 622f 4390 da2f
00000320: e080 7630 808f 4830 0f23 6b2f 8884 1930
00000330: a05b b62f 25da 162f ae57 6d30 2a36 9730
00000340: 950b 8a2f 4fdb 9d2f 7a34 592f fdce 4d30
00000350: cbdd fa2f df64 262f 8a77 a72f b32a f52f
00000360: 11c3 b52f 1631 6e30 db34 112f 488e 6b30
00000370: d4f5 252f cae3 2531 7977 2130 1cfa 802f
00000380: c3f5 5030 a072 1630 6e8f 8930 4834 1431
00000390: e51e b22f ec18 0f30 b446 9430 da39 f730
000003a0: 8cc9 e22f bf32 3a30 8761 292f f9e0 242f
000003b0: b62b 8130 5756 3830 b24f 6a2f f344 c62f
000003c0: 4856 c72f 5256 d330 efeb ca2f f039 d92e
000003d0: d960 912f bd96 4330 67a3 ae2f 8f7b 3b30
000003e0: 4e6e 182f 9868 9c30 13cf 492f 8d93 7e30
000003f0: bc2b c82f 1be3 fb2f 7fd7 3530 3cd9 c730

exp_avg f4 [30]
2.8142717e-11 6.1334895e-11 -3.1344708e-11 2.409992e-11 9.646916e-11 5.23806e-11 -1.80878e-11 -6.710246e-11
-4.623799e-11 -3.538774e-11 4.9776985e-11 -4.8024393e-11 7.936544e-11 6.6010354e-13 8.109365e-11 4.2856052e-11
4.371246e-12 -4.7225102e-11 -7.24002e-11 -3.8322477e-11 3.022908e-11 -7.140935e-11 -5.138509e-11 4.715492e-11
-1.2402797e-11 -5.632267e-11 1.6127344e-11 -2.0167121e-11 -1.2837282e-11 -2.2563824e-11
00000000: c48b f72d 7ae0 862e 01db 09ae 32fc d32d
00000010: 4f23 d42e 505f 662e 1b1a 9fad 548f 93ae
00000020: 595b 4bae 0ea3 1bae e7eb 5a2e a936 53ae
00000030: c586 ae2e 79cd 392b ab53 b22e a07b 3c2e
00000040: afcc 992c bdb2 4fae b035 9fae 468b 28ae
00000050: ebf2 042e e407 9dae 78fe 61ae b863 4f2e
00000060: 3b31 5aad b0b5 77ae 8ddb 8d2d 5264 b1ad
00000070: fad5 61ad 3779 c6ad

exp_avg_sq f4 [30]
1.2118264e-14 3.324219e-18 9.917198e-17 1.4407146e-15 1.0973625e-14 9.463172e-15 1.8233353e-14 1.4174735e-15
9.855756e-15 5.749827e-16 7.476326e-16 9.6745325e-15 1.5386362e-15 3.7928073e-15 3.0800701e-15 1.6280564e-16
2.1540094e-17 2.731604e-16 2.4765166e-15 1.3494944e-14 1.7484035e-15 1.3086449e-14 1.7284155e-16 1.25771255e-14
3.5888664e-17 5.984063e-20 4.0093476e-16 1.7344084e-14 5.768413e-18 4.6193566e-16
00000000: a14d 5a28 b948 7522 ceac e424 fda0 cf26
00000010: eaae 4528 2e79 2a28 403b a428 8b47 cc26
00000020: a78b 3128 3cba 2526 8d7d 5726 e847 2e28
00000030: a8bd dd26 79a6 8827 44f1 5d27 beb3 3b25
00000040: 1cac c623 5c77 9d25 ab73 3227 721a 7328
00000050: b4f8 fb26 98be 6b28 d245 4725 c191 6228
00000060: db81 2524 714b 8d1f 871f e725 bc38 9c28
00000070: 1fd1 d422 d624 0526

exp_avg f4 [5, 30]
6.495181e-06 9.950172e-06 -8.462105e-06 9.812317e-06 1.2218626e-05 -4.5037164e-06 -2.4962453e-06 3.092619e-06
1.0028268e-05 7.5245825e-06 8.776402e-06 -4.4856697e-06 3.5900806e-07 -2.7423596e-06 -2.58146e-06 9.243192e-06
-7.1488357e-06 -9.7284055e-06 3.406286e-06 6.8752224e-06 1.1033203e-06 7.4015966e-06 -6.687606e-06 1.2164644e-05
6.5016234e-06 -1.0623666e-05 8.933915e-06 2.1298956e-06 1.442385e-06 -9.449052e-06 3.6270707e-05 -2.6435257e-05
-2.8188377e-05 -3.0047324e-05 -1.8057752e-05 -5.3468807e-06 -3.767694e-05 2.1093995e-06 1.5616679e-05 -9.308699e-06
-2.6506472e-05 -2.1828982e-05 -4.8124125e-06 -3.0468529e-05 -4.1243784e-06 2.3530622e-06 8.358355e-06 -3.0225652e-05
-6.6734524e-06 2.8176039e-05 -2.6929103e-05 3.4157733e-07 3.144717e-06 1.2074192e-05 -8.519786e-06 1.7281274e-05
1.3473139e-05 3.644125e-05 3.580154e-05 -2.9014182e-05 -8.474671e-06 -2.3066168e-05 1.3551181e-05 -1.8241724e-05
-3.1082687e-05 6.908639e-06 -5.665664e-06 -1.1713962e-05 -7.835356e-06 -1.6762175e-05 -1.8118764e-05 -5.0414797e-06
-3.1016546e-06 1.2298482e-05 4.0914133e-06 -2.4797577e-05 3.3768545e-05 8.989821e-07 6.0661496e-06 -2.3422836e-05
-2.320429e-05 -6.8136064e-06 6.5133404e-06 -3.1013882e-05 -2.1747008e-05 1.08866125e-05 -2.319527e-05 -2.4842484e-06
-9.859588e-06 5.5556447e-06 -1.5726117e-05 -6.880749e-05 2.9842784e-05 -7.279497e-05 -7.155999e-05 8.993852e-05
-5.320531e-05 -0.00013130787 -8.438888e-05 -0.00012109589 -4.4429395e-05 -8.158721e-05 6.782832e-05 7.616588e-05
0.00010807008 -8.47307e-05 0.00018787719 -3.878242e-05 -4.1473962e-05 -0.00016121127 -9.631357e-05 -0.00010560753
-1.9471097e-05 -0.00011938951 -0.0001248839 9.784146e-06 -0.000106663916 -3.1364605e-05 -5.9571037e-05 2.3247326e-06
-1.073373e-06 -4.5382812e-06 2.3215005e-06 3.2909412e-07 -9.820428e-06 -4.8685965e-06 -2.6419468e-06 2.5475183e-06
9.2931205e-06 2.1547469e-06 -3.0353463e-06 -2.568733e-06 -7.3599003e-06 3.8869266e-06 -7.0887477e-06 -6.906521e-06
8.732381e-06 -5.5979567e-06 1.2722266e-05 -2.5951854e-06 -1.2302642e-05 9.77976e-06 2.0457657e-08 -7.061852e-06
-3.4241655e-06 -2.8040956e-06 -4.2479883e-06 1.0167786e-06 -4.5104216e-06 -4.105958e-06
00000000: 2ef1 d936 aaef 2637 77f8 0db7 959f 2437
00000010: 99fe 4c37 a11e 97b6 2b85 27b6 ca8a 4f36
00000020: 153f 2837 ac7b fc36 5c3e 1337 9c83 96b6
00000030: b1bd c034 6109 38b6 253d 2db6 3513 1b37
00000040: 08e0 efb6 2f37 23b7 8c97 6436 b6b1 e636
00000050: cc15 9435 3b5b f836 1966 e0b6 c016 4c37
00000060: 8528 da36 4c3c 32b7 dfe2 1537 54ef 0e36
00000070: f997 c135 5f87 1eb7 6021 1838 48c1 ddb7
00000080: 1476 ecb7 230e fcb7 ba7a 97b7 5b69 b3b6
00000090: 4e07 1eb8 358f 0d36 9000 8337 8f2c 1cb7
000000a0: 375a deb7 621d b7b7 4f7a a1b6 ab96 ffb7
000000b0: 2464 8ab6 4de9 1d36 dd3a 0c37 188d fdb7
000000c0: 85ec dfb6 955b ec37 cfe5 e1b7 0862 b734
000000d0: d409 5336 4292 4a37 34f0 0eb7 41f7 9037
000000e0: b10a 6237 7fd8 1838 9c29 1638 7b63 f3b7
000000f0: 6f2e 0eb7 387e c1b7 e159 6337 ce05 99b7
00000100: c85e 02b8 c2d0 e736 af1b beb6 1587 44b7
00000110: 9974 03b7 7f9c 8cb7 c0fd 97b7 fb29 a9b6
00000120: 0526 50b6 9455 4e37 f948 8936 6404 d0b7
00000130: b3a2 0d38 9451 7135 d48b cb36 287c c4b7
00000140: d5a6 c2b7 6fa0 e4b6 2b8d da36 e714 02b8
00000150: 586d b6b7 a5a5 3637 7793 c2b7 10b7 26b6
00000160: 9c6a 25b7 a06a ba36 94eb 83b7 bd4c 90b8
00000170: e456 fa37 80a9 98b8 7a12 96b8 609d bc38
00000180: c428 5fb8 b0af 09b9 eff9 b0b8 dcf4 fdb8
00000190: b359 3ab8 cd19 abb8 0d3f 8e38 3fbb 9f38
000001a0: afa3 e238 73b1 b1b8 e600 4539 4eaa 22b8
000001b0: 54f4 2db8 d20a 29b9 f4fb c9b8 9c79 ddb8
000001c0: dd55 a3b7 c160 fab8 44f3 02b9 9626 2437
000001d0: c1b0 dfb8 7d8d 03b8 eadb 79b8 9a02 1c36
000001e0: d110 90b5 8a47 98b6 13cb 1b36 5aae b034
000001f0: 6bc2 24b7 ed5c a3b6 4d4c 31b6 08f6 2a36
00000200: a6e9 1b37 459a 1036 dab2 4bb6 7f62 2cb6
00000210: 10f5 f6b6 726c 8236 e1db edb6 90be e7b6
00000220: 4a81 1237 15d6 bbb6 b771 5537 f228 2eb6
00000230: 7267 4eb7 c013 2437 ddba af32 d9f4 ecb6
00000240: b7ca 65b6 ff2d 3cb6 f189 8eb6 3f78 8835
00000250: 3a58 97b6 e9c5 89b6

exp_avg_sq f4 [5, 30]
6.1857737e-09 3.7466443e-09 6.21388e-09 5.630052e-09 4.9408126e-09 2.944704e-09 5.719169e-09 4.284048e-09
6.144305e-09 5.378991e-09 3.105243e-09 5.8472445e-09 3.2003304e-09 1.6186676e-09 5.0130997e-09 2.9664955e-09
3.4840306e-09 8.712255e-09 5.506632e-09 3.0628267e-09 1.0990554e-09 7.4060593e-09 2.4480047e-09 5.751546e-09
2.8491303e-09 4.6582582e-09 3.1471363e-09 2.1830502e-09 2.397541e-09 6.731452e-09 4.0484007e-09 6.5459673e-09
2.1180984e-09 5.990753e-09 6.836316e-09 1.0280767e-09 4.933255e-09 1.1226432e-09 2.4577207e-09 6.955359e-10
6.218148e-09 1.1763751e-09 1.9727087e-09 3.9487777e-09 1.900603e-09 9.37221e-10 9.406537e-10 2.8142662e-09
8.1055845e-10 4.549595e-09 4.5732413e-09 1.2612184e-09 1.2123343e-09 1.0249072e-09 7.012834e-10 3.7042673e-09
7.6173207e-10 6.0953407e-09 5.3151994e-09 2.7704758e-09 1.3880587e-09 9.548339e-09 2.8371732e-09 6.0381575e-09
1.6662458e-08 9.265835e-10 1.8407548e-09 2.8685416e-09 8.818388e-10 5.0137947e-09 5.941723e-09 1.7194806e-09
3.489565e-10 2.8498108e-09 6.144269e-10 1.0199579e-08 2.0977318e-08 1.1387987e-09 1.0783476e-09 9.130739e-09
1.1823088e-08 7.9540136e-10 7.244323e-10 1.5342048e-08 8.75628e-09 1.8504699e-09 8.806488e-09 5.188674e-10
2.0277293e-09 8.3196955e-10 2.3273563e-09 2.143983e-09 3.025774e-09 1.3226187e-09 4.8772284e-09 3.0608494e-09
3.1927574e-09 7.897424e-09 2.1010247e-09 3.4832854e-09 2.0724618e-09 8.003807e-09 4.9427227e-09 1.8728552e-09
6.8554336e-09 2.0387263e-09 8.331636e-09 8.100194e-09 1.3302183e-09 7.5411615e-09 2.4839308e-09 3.655611e-09
4.1728376e-09 3.5184344e-09 3.363763e-09 4.22581e-09 2.3112023e-09 7.403562e-10 1.3702358e-09 4.2427173e-09
6.0706213e-09 1.4484705e-09 5.3078626e-09 4.020818e-09 2.671835e-09 2.4817801e-09 5.3834373e-09 3.468587e-09
2.87808e-09 4.147648e-09 1.2508125e-09 3.971087e-09 4.276135e-09 2.7965428e-09 5.5137366e-09 2.1494426e-09
1.5346654e-09 3.5099512e-09 9.751984e-09 1.2102124e-09 6.192511e-10 7.696284e-09 6.7727207e-10 3.645476e-09
1.4364382e-09 1.4161233e-09 1.7330034e-09 2.458752e-09 4.5255963e-09 2.7206604e-09
00000000: a48a d431 d5bb 8031 de81 d531 7672 c131
00000010: d9c3 a931 c85b 4a31 5882 c431 e232 9331
00000020: e11d d331 1bd2 b831 0364 5531 e8e8 c831
00000030: cfec 5b31 ce77 de30 b13f ac31 24db 4b31
00000040: b76b 6f31 e7ac 1532 d934 bd31 d179 5231
00000050: 930d 9730 6378 fe31 c139 2831 229f c531
00000060: 6eca 4331 790e a031 0245 5831 a004 1631
00000070: fdc1 2431 7a4a e731 1c1a 8b31 f0ea e031
00000080: fb8d 1131 38d7 cd31 dfe4 ea31 3c4c 8d30
00000090: 5f81 a931 7f4b 9a30 aee4 2831 fd2f 3f30
000000a0: 69a7 d531 05ae a130 4290 0731 d1ad 8731
000000b0: c39b 0231 88cf 8030 4f48 8130 1865 4131
000000c0: fbcd 5e30 a952 9c31 a822 9d31 2d57 ad30
000000d0: 399f a630 b7dc 8c30 6fc4 4030 298e 7e31
000000e0: 2162 5130 2f6f d131 fda0 b631 ba62 3e31
000000f0: f9c5 be30 0a0a 2432 14f8 4231 3278 cf31
00000100: 2221 8f32 84b2 7e30 cdfd fc30 eb1f 4531
00000110: e465 7230 ce45 ac31 f327 cc31 d852 ec30
00000120: 43d7 bf2f 67d6 4331 73e4 2830 393a 2f32
00000130: 9c31 b432 eb83 9c30 fc34 9430 6add 1c32
00000140: 7e1e 4b32 65a3 5a30 6421 4730 85c9 8332
00000150: 876e 1632 9f53 fe30 584b 1732 0ca0 0e30
00000160: 3158 0b31 a7b0 6430 49ef 1f31 5955 1331
00000170: fbed 4f31 82c7 b530 8e94 a731 0857 5231
00000180: 9567 5b31 3dad 0732 9e61 1031 9b5e 6f31
00000190: 226b 0e31 1e81 0932 a6d4 a931 9eb3 0031
000001a0: 088d eb31 a719 0c31 ec22 0f32 0829 0b32
000001b0: e5d2 b630 618e 0132 c6b1 2a31 3036 7b31
000001c0: ab60 8f31 f4c8 7131 f227 6731 9e32 9131
000001d0: 1ad3 1e31 f081 4b30 e352 bc30 56c7 9131
000001e0: c095 d031 8613 c730 7460 b631 7d27 8a31
000001f0: 6b9b 3731 f08b 2a31 37f9 b831 075c 6e31
00000200: b8c7 4531 1983 8e31 0de9 ab30 0d72 8831
00000210: 48ed 9231 4d2d 4031 5773 bd31 65b5 1331
00000220: 3dec d230 b733 7131 ae89 2732 9054 a630
00000230: ec37 2a30 9d38 0432 c92a 3a30 e483 7a31
00000240: 2d6c c530 69a1 c230 a32e ee30 d3f6 2831
00000250: 917f 9b31 5df6 3a31

exp_avg f4 [5]
-2.4300282e-11 6.08294e-11 -1.0616116e-10 -1.4439772e-10 9.3310124e-11
00000000: 5fbf d5ad e8c3 852e 6c73 e9ae 58c4 1eaf
00000010: ee30 cd2e

exp_avg_sq f4 [5]
2.297267e-15 2.5648e-16 5.1968754e-17 3.555953e-16 4.5085155e-16
00000000: 1989 2527 c4d9 9325 e0a9 6f24 9bfc cc25
00000010: f9f2 0126
