tutorial/Mouse_cerebellum_output/version_9/checkpoints/mlp.ckpt (torch, 17217 bytes, 12 tensors)

model.classifier.0.weight f4 [30, 30]
-0.120182715 0.13456197 -0.10757194 0.17407344 0.01881592 0.0518475 0.09983805 -0.12527065
0.069479495 -0.18055572 0.13525134 -0.024221063 -0.111124605 -0.16242631 0.18003094 0.033735696
0.15907048 -0.13264264 -0.12026632 -0.06802182 0.08326084 0.03508449 -0.1764461 0.042238995
-0.15183848 -0.04432891 0.05366461 0.098711126 0.032029275 -0.14203577 -0.017100798 -0.022350727
-0.10797679 0.002004401 0.030564347 0.0023225674 0.11179547 -0.11463405 0.0064173434 -0.060451638
-0.018591886 0.07863105 0.039490167 -0.100002185 -0.00998957 0.056053355 0.005540956 0.052772366
0.012224671 -0.048683383 0.06907502 -0.018829558 0.014237873 0.10595477 -0.11266322 -0.044234205
0.036007762 -0.035073183 -0.020558797 -0.010714555 0.0013115641 0.032190263 -0.23467827 0.12350803
0.07421994 0.07242474 0.10679567 -0.2837777 0.03081632 -0.0932584 0.050495952 0.033542994
0.08059983 -0.1842775 0.051420264 0.11113449 -0.008711384 -0.009199792 -0.015910283 -0.070307456
0.058180567 0.010332212 0.0145186 0.005560046 -0.21611649 -0.09491713 0.048690874 -0.056192406
-0.12308424 -0.12081295 -0.038769256 -0.013478082 -0.11122864 0.012827021 0.04478698 -0.0062958123
0.14210013 -0.10993898 0.013093693 -0.08361048 -0.01388762 0.10247274 0.014868392 -0.13232389
-0.01158331 0.057127427 0.043580554 0.042284757 -0.008109229 -0.07102511 0.090820365 -0.024090493
-0.0103379665 0.1634959 -0.12521408 -0.05468144 0.036800843 -0.011953778 0.013071333 -0.006280976
-0.1294256 -0.03446242 0.05398846 -0.14031734 -0.10708636 -0.057282526 0.15989478 0.107469454
0.030825555 -0.1375149 -0.04921873 0.083857685 -0.09126289 0.012668096 0.070725374 -0.024988992
0.097256385 0.103208624 0.02062572 0.005989739 0.13761759 -0.038354404 -0.09708422 0.20946518
-0.02501281 0.05676098 0.08511907 0.038219675 0.1367192 0.07165094 -0.09152661 -0.025175977
0.079505116 -0.1270764 -0.118805125 -0.037354354 0.07854057 0.11857249 0.02282998 -0.087138854
-0.034348212 0.02142779 -0.07200639 0.07050863 0.07709923 -0.038314953 0.052072678 0.07617296
0.030958168 0.041856557 0.07663252 -0.020653011 -0.07200373 0.09235676 0.019027771 0.07284435
0.06659643 0.024674201 0.09037594 0.05519963 -0.13819134 -0.018742675 0.055666793 -0.11669481
-0.09412957 -0.058366705 0.15986961 0.111181155 0.033998027 -0.14311284 -0.035489406 0.083650336
-0.109932736 -0.0043454506 0.07342701 -0.028144512 0.11975685 0.07838597 -1.3635121e-05 -0.0063134935
0.13827626 -0.035146818 -0.11581651 0.22156972 -0.02525171 0.049966846 0.07768704 0.058164336
0.15308008 0.06478107 0.03802188 -0.13245986 0.10229036 -0.21631762 -0.07417035 -0.06476809
-0.0008157932 0.13858698 -0.041948535 0.0785172 -0.13797341 0.05910539 0.05862353 0.14216746
-0.107201554 -0.033194132 -0.09598559 0.17010018 0.11895598 0.06271314 -9.014038e-05 -0.047504347
0.10510663 0.056470025 0.100904614 0.06411965 0.004358661 -0.07537554 0.024082914 0.14627685
-0.020910744 -0.041198723 0.19474581 -0.16491461 -0.14977413 -0.041916497 -0.0741653 0.2299413
-0.008849791 0.035451014 -0.049121477 -0.06221458 -0.05431745 0.21740489 0.03659048 -0.09044196
00000000: 5b22 f6bd 9dca 093e ad4e dcbd 4f40 323e
00000010: d823 9a3c 0b5e 543d e477 cc3d f346 00be
00000020: 444b 8e3d 99e3 38be 547f 0a3e 406b c6bc
00000030: 4c95 e3bd 1553 26be 085a 383e 712e 0a3d
00000040: 5fe3 223e 79d3 07be 304e f6bd 064f 8bbd
00000050: a984 aa3d c1b4 0f3d 49ae 34be cc02 2d3d
00000060: 8c7b 1bbe 3b92 35bd 6ccf 5b3d 0f29 ca3d
00000070: 2131 033d d371 11be f916 8cbc df18 b7bc
00000080: ef22 ddbd 455c 033b 1562 fa3c 3736 183b
00000090: 06f5 e43d 42c5 eabd 9448 d23b 239c 77bd
000000a0: 034e 98bc 5109 a13d 71c0 213d f2cd ccbd
000000b0: 4bab 23bc 3498 653d e890 b53b d627 583d
000000c0: fd49 483c 3a68 47bd 3477 8d3d 7240 9abc
000000d0: f845 693c d1fe d83d f9bb e6bd ed2e 35bd
000000e0: e07c 133d e6a8 0fbd ec6a a8bc 1a8c 2fbc
000000f0: cae8 ab3a f0d9 033d 804f 70be c7f1 fc3d
00000100: a000 983d 6c53 943d b0b7 da3d 504b 91be
00000110: 8272 fc3c 43fe bebd d8d4 4e3d 6164 093d
00000120: 8611 a53d 3eb3 3cbe 0e9e 523d 7b9a e33d
00000130: 31ba 0ebc b9ba 16bc 4856 82bc 5bfd 8fbd
00000140: bf4e 6e3d 7048 293c 6cdf 6d3c 0c31 b63b
00000150: a44d 5dbe ea63 c2bd 1570 473d 022a 66bd
00000160: 9713 fcbd c86c f7bd 83cc 1ebd 2cd3 5cbc
00000170: d7cb e3bd 6d28 523c 8d72 373d 1a4d cebb
00000180: b282 113e b027 e1bd ee86 563c f93b abbd
00000190: e688 63bc 3add d13d 8e9a 733c ea7f 07be
000001a0: ecc7 3dbc 73fe 693d 8681 323d c832 2d3d
000001b0: 92dc 04bc 9d75 91bd 0700 ba3d 6d59 c5bc
000001c0: 9360 29bc 786b 273e 1f38 00be a5f9 5fbd
000001d0: 7bbc 163d c7d9 43bc 2529 563c a5d0 cdbb
000001e0: 2588 04be 7728 0dbd 0123 5d3d 59af 0fbe
000001f0: 1850 dbbd 15a1 6abd 75bb 233e f218 dc3d
00000200: e085 fc3c b5d0 0cbe 9499 49bd 94bd ab3d
00000210: 0ae8 babd d98d 4f3c 77d8 903d b7b5 ccbc
00000220: 5b2e c73d 0b5f d33d 45f7 a83c 9345 c43b
00000230: a0eb 0c3e 8219 1dbd 17d4 c6bd 0a7e 563e
00000240: aae7 ccbc 347e 683d e852 ae3d 3c8c 1c3d
00000250: 1e00 0c3e babd 923d 4e72 bbbd da3d cebc
00000260: 94d3 a23d 5120 02be 1a50 f3bd e100 19bd
00000270: e1d9 a03d 22d6 f23d f005 bb3c db75 b2bd
00000280: b6b0 0cbd 5589 af3c 1678 93bd d466 903d
00000290: 33e6 9d3d 24f0 1cbd 294a 553d 9200 9c3d
000002a0: fc9b fd3c c871 2b3d 83f1 9c3d 8130 a9bc
000002b0: b176 93bd 8a25 bd3d 21e0 9b3c 6b2f 953d
000002c0: b663 883d 8d21 ca3c 0517 b93d 0219 623d
000002d0: 0882 0dbe 3d8a 99bc dd02 643d b0fd eebd
000002e0: 01c7 c0bd ed11 6fbd dcb4 233e f2b2 e33d
000002f0: 8441 0b3d 2c8c 12be 575d 11bd de50 ab3d
00000300: 6a24 e1bd 4864 8ebb e660 963d 528f e6bc
00000310: 1443 f53d d388 a03d 66c2 64b7 6ce1 cebb
00000320: 4b98 0d3e 1cf6 0fbd 3531 edbd 2ce3 623e
00000330: addc cebc 09aa 4c3d 621a 9f3d ba3d 6e3d
00000340: 06c1 1c3e f0ab 843d d5bc 1b3d 8fa3 07be
00000350: 9c7d d13d 5e82 5dbe a0e6 97bd 22a5 84bd
00000360: f4da 55ba bfe9 0d3e 3ad2 2bbd a0cd a03d
00000370: e748 0dbe 7e18 723d 3a1f 703d 5994 113e
00000380: 7d8c dbbd 92f6 07bd 1894 c4bd be2e 2e3e
00000390: 319f f33d bf6f 803d bf09 bdb8 eb93 42bd
000003a0: 2542 d73d 1d4d 673d 14a7 ce3d 2a51 833d
000003b0: 19d3 8e3b 7e5e 9abd 8849 c53c 99c9 153e
000003c0: 024d abbc febf 28bd 726b 473e 60df 28be
000003d0: 645e 19be a2b0 2bbd fae3 97bd bb75 6b3e
000003e0: b7fe 10bc 1535 113d 9a33 49bd b7d4 7ebd
000003f0: f97b 5ebd 639f 5e3e e6df 153d a239 b9bd

model.classifier.0.bias f4 [30]
-2.2496344e-07 6.27726e-07 -3.2996394e-07 4.1533892e-07 -1.347179e-06 -2.3261511e-07 -8.54357e-07 -1.18534686e-07
-5.0287144e-07 -3.2516577e-06 -2.9679727e-06 3.5736429e-07 -2.221621e-07 3.3024966e-07 6.187681e-07 -4.6221444e-07
-4.248336e-07 -1.2164219e-07 3.4437048e-07 -6.470543e-08 -4.9665255e-07 -6.630664e-07 1.3532504e-06 -4.896414e-08
-5.960094e-07 3.0849776e-07 -4.3333523e-09 6.7492806e-07 2.4862314e-07 -4.8210367e-08
00000000: 7b8d 71b4 0181 2835 e625 b1b4 bffb de34
00000010: b8d0 b4b5 c1c4 79b4 f756 65b5 228d feb3
00000020: 10fd 06b5 0e37 5ab6 622d 47b6 c6db bf34
00000030: 748b 6eb4 2b4d b134 6c19 2635 4526 f8b4
00000040: af14 e4b4 c09c 02b4 ebe1 b834 30f4 8ab3
00000050: b451 05b5 93fd 31b5 54a1 b535 a44c 52b3
00000060: 74fd 1fb5 9c9f a534 92e4 94b1 b42c 3535
00000070: 817a 8534 dc0f 4fb3

model.classifier.1.weight f4 [5, 30]
0.1520719 -0.14402454 -0.32584473 -0.100717604 0.30208617 0.2729901 0.3310381 -0.006034621
0.29942194 0.31002626 0.27405685 -0.15381585 0.1514941 -0.30671468 0.06971464 0.035471845
-0.2979019 -0.01563071 0.034746744 -0.25200024 -0.1182172 0.25159553 0.12982169 -0.30382147
0.2944176 -0.32018992 -0.18837194 -0.20076314 -0.25426197 0.21893038 -0.4687925 -0.24449979
-0.3397041 -0.3420228 -0.25938976 -0.0693602 -0.2966208 0.263215 0.33781374 0.2536258
0.2316095 0.21398418 0.21850036 0.072300985 0.33192477 -0.44059715 -0.15228812 0.17109193
0.147283 0.3608636 -0.25682887 -0.29671448 -0.38837647 -0.018872665 -0.15856223 0.047701415
-0.19238563 -0.20066376 -0.21868615 -0.4524707 0.0012416585 0.05623646 0.05989645 0.092554696
-0.09546697 -0.14406937 -0.071826376 -0.06194228 -0.20637876 -0.22824547 -0.079169475 0.10984505
-0.21483874 0.10269766 0.19037929 -0.058581937 0.1095508 -0.20396248 0.12981452 -0.03400425
-0.0071945977 -0.13743716 0.08842044 0.15569669 -0.11192722 0.20379303 0.21087922 0.15183267
0.21850574 0.054826137 -0.16258371 0.14866926 0.072845 0.13516204 0.22969858 0.16097228
0.1827294 0.27299866 0.06380949 -0.07426358 -0.09339986 -0.18751726 -0.2114843 -0.10659934
-0.24498555 0.11010847 0.32792476 -0.08178945 -0.133756 0.28913158 0.24921091 0.25733474
-0.16776803 0.2244576 0.26262927 0.04781874 -0.26578006 0.17572415 -0.0197047 -0.10207921
0.35296664 0.019378107 0.3403248 -0.004915777 -0.21431836 -0.15050091 -0.2044127 -0.37441912
-0.2206412 0.018144678 -0.16064729 0.03281358 0.31225714 0.18715757 -0.31613 0.23665826
-0.1827062 0.33672872 -0.1981541 -0.26889905 0.009213855 -0.10502829 0.16904642 -0.2202838
-0.28123015 -0.12729351 0.24790208 -0.14093018 0.031201102 0.10959004
00000000: bcb8 1b3e 2b7b 13be 1fd5 a6be 0845 cebd
00000010: 0aab 9a3e 5cc5 8b3e d37d a93e 12be c5bb
00000020: d54d 993e c3bb 9e3e 2e51 8c3e e781 1dbe
00000030: 4521 1b3e b509 9dbe 8dc6 8e3d ed4a 113d
00000040: 9986 98be fa0b 80bc 9a52 0e3d 2d06 81be
00000050: dc1b f2bd 21d1 803e faef 043e 7d8e 9bbe
00000060: e7bd 963e efef a3be 93e4 40be da94 4dbe
00000070: a02e 82be 492f 603e 9205 f0be 275e 7abe
00000080: b2ed adbe 9d1d afbe bcce 84be b80c 8ebd
00000090: aede 97be 1ec4 863e ecf5 ac3e 3edb 813e
000000a0: 0a2b 6d3e ab1e 5b3e 8fbe 5f3e 8a12 943d
000000b0: 0bf2 a93e f395 e1be 6bf1 1bbe b932 2f3e
000000c0: 5bd1 163e 1dc3 b83e 137f 83be f6ea 97be
000000d0: 48d9 c6be d99a 9abc 235e 22be 8f62 433d
000000e0: bd00 45be cd7a 4dbe 43ef 5fbe 3daa e7be
000000f0: 25bf a23a 3458 663d fb55 753d 518d bd3d
00000100: 3084 c3bd ec86 13be b519 93bd 30b7 7dbd
00000110: f454 53be 2eb9 69be 9b23 a2bd 71f6 e03d
00000120: b0fe 5bbe 2753 d23d caf2 423e 9df3 6fbd
00000130: 2b5c e03d 8adb 50be 19ee 043e 0a48 0bbd
00000140: a9c0 ebbb 54bc 0cbe c715 b53d f46e 1f3e
00000150: 193a e5bd 1faf 503e b9f0 573e 067a 1b3e
00000160: f8bf 5f3e 5f91 603d 587c 26be c13c 183e
00000170: c22f 953d eb67 0a3e 1b36 6b3e ebd5 243e
00000180: 6a1d 3b3e 7bc6 8b3e 8dae 823d 8117 98bd
00000190: 6d48 bfbd 8604 40be 578f 58be c150 dabd
000001a0: 7edd 7abe 8d80 e13d c1e5 a73e 3a81 a7bd
000001b0: 55f7 08be 0e09 943e 2531 7f3e 61c1 833e
000001c0: 62cb 2bbe 37d8 653e 5877 863e 95dd 433d
000001d0: 5314 88be 08f1 333e c06b a1bc e80e d1bd
000001e0: 0bb8 b43e d6be 9e3c 0d3f ae3e 8714 a1bb
000001f0: 4676 5bbe e91c 1abe 9051 51be ddb3 bfbe
00000200: c4ef 61be 26a4 943c b980 24be 8867 063d
00000210: 2be0 9f3e 3ca6 3f3e cbdb a1be 8b56 723e
00000220: 5617 3bbe b567 ac3e e9e8 4abe 23ad 89be
00000230: b5f5 163c 1219 d7bd 811a 2d3e 1492 61be
00000240: 66fd 8fbe 3b59 02be 0bda 7d3e 0050 10be
00000250: 7499 ff3c be70 e03d

model.classifier.1.bias f4 [5]
-4.441644e-08 1.8387779e-07 2.8253367e-06 -5.261603e-07 4.4547636e-07
00000000: 64c4 3eb3 f16f 4534 ea9a 3d36 763d 0db5
00000010: ce29 ef34

exp_avg f4 [30, 30]
7.69572e-06 3.914908e-06 -6.5681684e-07 1.0888095e-05 1.080616e-05 1.0493098e-06 -2.9916425e-06 -1.3225976e-05
3.052967e-06 4.1206745e-06 1.56871e-06 -4.117295e-06 3.8905223e-06 -5.013258e-06 -2.5070503e-06 3.459855e-06
-4.0185573e-06 -1.0694091e-05 -1.94514e-06 -1.5522682e-08 -1.1420167e-05 -8.14441e-07 9.433084e-06 -1.4503674e-05
9.1303554e-07 -5.4649863e-06 2.5336482e-07 -4.230664e-06 -6.613709e-06 -8.552301e-06 3.0553497e-06 8.9443205e-07
1.5746007e-06 -4.902278e-06 -1.9257598e-06 -1.6389741e-06 2.6904195e-06 3.8728317e-06 5.687137e-06 -1.3825743e-06
2.6282455e-06 4.0091376e-07 -2.0809932e-06 1.2977381e-06 -1.4343541e-06 1.1011765e-06 -2.8172606e-06 1.4077059e-06
-1.7038433e-06 4.543297e-06 -7.273513e-06 -1.9510887e-06 -2.0223952e-06 1.8711559e-06 1.701338e-06 -8.3856484e-08
-6.0401135e-07 4.216949e-06 2.8144382e-07 2.085368e-06 -1.9792972e-06 5.2289106e-06 2.4718652e-06 -8.8841e-07
-2.2911343e-06 3.1091206e-06 6.96502e-07 1.693522e-06 7.316256e-06 -3.8395942e-06 6.02017e-06 -6.2559784e-06
-6.5444638e-06 2.566786e-06 5.9827826e-06 -1.3348497e-06 1.5931945e-06 -4.674332e-06 -5.5972027e-06 7.0829265e-06
-1.0676855e-05 -1.4181649e-06 -6.4934343e-06 -4.55181e-06 3.936494e-06 1.4864116e-07 1.1846425e-07 6.986944e-06
6.3350456e-07 -2.0881967e-06 5.3646295e-06 9.019087e-07 2.3511377e-06 -5.548195e-06 -1.2184717e-06 -2.0959478e-06
2.885216e-06 2.8609115e-06 6.6825314e-06 -6.7114325e-07 2.1098215e-06 3.8396885e-07 -1.0404422e-06 1.3283158e-06
-2.452061e-06 2.0007203e-06 -4.261459e-06 1.1010409e-06 -1.048289e-06 5.115849e-06 -9.224625e-06 -2.245819e-06
5.950743e-07 -1.8685184e-07 1.9601703e-06 -3.5656396e-07 1.1825878e-07 3.2683513e-06 -9.386389e-07 1.5772976e-06
1.7495433e-05 -5.643974e-06 -5.227341e-06 -7.430598e-07 1.021286e-05 -1.0047094e-05 4.2495235e-06 -2.098015e-06
4.710089e-06 6.362247e-06 -1.8800097e-06 1.2994653e-05 9.942875e-06 -8.796943e-06 -2.0593709e-05 8.859312e-06
-1.3071029e-05 5.378206e-06 2.9415569e-06 -2.8899115e-06 -6.3156026e-06 -4.7430385e-06 1.1409264e-05 1.0207307e-05
-3.662332e-06 -7.171321e-06 -5.1700436e-06 -3.5065739e-06 -3.3616775e-06 5.573275e-06 1.2381333e-05 -4.999705e-06
-6.098399e-06 2.3345945e-06 9.577263e-06 -7.645333e-06 2.6201378e-06 -2.8471493e-06 1.5281651e-06 5.453215e-06
-1.7035811e-06 1.1207718e-05 8.533623e-06 -8.48162e-06 -1.68451e-05 6.796881e-06 -9.102814e-06 3.7610955e-06
2.3269479e-06 -4.6892774e-06 -2.050797e-06 -3.3482572e-06 8.423873e-06 1.0219706e-05 -4.092745e-06 -6.408495e-06
-5.1338266e-06 -3.6046304e-06 -2.2024328e-06 4.4350586e-06 1.770187e-05 -5.1960524e-06 -4.5718175e-06 -8.616805e-08
1.0534305e-05 -9.535414e-06 3.6161514e-06 -3.4943623e-06 4.431222e-06 6.7641326e-06 -2.2992883e-06 1.1848706e-05
1.0290192e-05 -8.5245465e-06 -1.976071e-05 8.765908e-06 -1.3084987e-05 4.2270676e-06 3.2530806e-06 -2.8401607e-06
-6.8007794e-06 -4.361138e-06 1.2815769e-05 7.304838e-06 -3.4062307e-06 -7.008996e-06 -4.320416e-06 -4.510955e-06
-4.1844874e-06 4.2428264e-06 1.885111e-06 -5.9390195e-06 -2.3623988e-06 -9.33714e-06 -4.0206323e-06 -5.8686214e-06
4.753762e-06 1.044541e-05 1.6332518e-07 -5.5481945e-07 -1.6606415e-06 1.002913e-05 1.0933957e-06 -2.326346e-07
-8.160413e-06 1.4851563e-06 -3.038651e-06 1.1583409e-05 2.561588e-06 -1.2579605e-06 5.943648e-06 -1.9241297e-06
-3.3440672e-06 1.8209541e-05 -2.5484171e-06 7.6561406e-07 -3.3483077e-06 2.5936192e-06 4.2298257e-06 1.0230816e-05
4.903517e-06 -6.0450834e-06 -7.177141e-06 4.3939817e-06 7.0364e-06 -5.2943597e-06 5.193698e-07 -2.2956303e-06
-5.1951597e-06 4.5267243e-06 -3.5949104e-06 1.0573837e-05 7.631292e-06 -7.2249463e-06 -1.2345435e-05 3.8040337e-06
00000000: de1c 0137 ce5c 8336 1c50 30b5 03ac 3637
00000010: 1b4c 3537 03d6 8c35 07c4 48b6 22e5 5db7
00000020: 93e1 4c36 5344 8a36 778c d235 4b27 8ab6
00000030: 558b 8236 8f37 a8b6 cc3e 28b6 db2f 6836
00000040: 25d7 86b6 c56a 33b7 4089 02b6 bd56 85b2
00000050: 3e99 3fb7 f69f 5ab5 ca42 1e37 ce54 73b7
00000060: 5317 7535 e05f b7b6 3206 8834 21f5 8db6
00000070: 54eb ddb6 da7b 0fb7 820a 4d36 e718 7035
00000080: de56 d335 3f7e a4b6 4d3c 01b6 b9fa dbb5
00000090: 0e8d 3436 5ff3 8136 23d4 be36 e490 b9b5
000000a0: ea60 3036 2b3d d734 31a7 0bb6 f12d ae35
000000b0: 0884 c0b5 23cc 9335 2b10 3db6 68f0 bc35
000000c0: 9caf e4b5 a072 9836 000f f4b6 73ef 02b6
000000d0: 7cb8 07b6 6d24 fb35 8759 e435 9714 b4b3
000000e0: 5823 22b5 517f 8d36 5819 9734 59f2 0b36
000000f0: 11d4 04b6 0074 af36 52e2 2536 127b 6eb5
00000100: 63c1 19b6 49a6 5036 41f7 3a35 f94c e335
00000110: 297e f536 ddd5 80b6 de00 ca36 72ea d1b6
00000120: 8498 dbb6 0c41 2c36 b6bf c836 1629 b3b5
00000130: bfd5 d535 35d8 9cb6 9bcf bbb6 e0a9 ed36
00000140: be20 33b7 c657 beb5 2de2 d9b6 c0bb 98b6
00000150: 3a16 8436 2c9a 1f34 6966 fe33 6471 ea36
00000160: 1a0e 2a35 f222 0cb6 d101 b436 b21a 7235
00000170: 3dc8 1d36 a22a bab6 5e8a a3b5 1ca8 0cb6
00000180: a29f 4136 16fe 3f36 823a e036 9d28 34b5
00000190: 7596 0d36 4724 ce34 52a5 8bb5 9548 b235
000001a0: 168e 24b6 1d44 0636 a7fd 8eb6 7ac7 9335
000001b0: f0b2 8cb5 cfa8 ab36 76c3 1ab7 e0b6 16b6
000001c0: 32bd 1f35 71a1 48b4 788b 0336 c76d bfb4
000001d0: 74f5 fd33 d955 5b36 c6f6 7bb5 88b3 d335
000001e0: 28c3 9237 5e61 bdb6 8466 afb6 ae76 47b5
000001f0: e657 2b37 f18f 28b7 2197 8e36 a0cb 0cb6
00000200: 5b0b 9e36 497b d536 a454 fcb5 9c03 5a37
00000210: 53d0 2637 9596 13b7 a7c0 acb7 75a2 1437
00000220: a44b 5bb7 7076 b436 9067 4536 4df0 41b6
00000230: 9dea d3b6 6426 9fb6 6a6a 3f37 0d40 2b37
00000240: 62c6 75b6 2ea1 f0b6 567a adb6 7b52 6bb6
00000250: 2e99 61b6 1102 bb36 6cb9 4f37 24c3 a7b6
00000260: d9a0 ccb6 07ac 1c36 08ae 2037 7544 00b7
00000270: a0d5 2f36 a711 3fb6 5a1b cd35 c3fa b636
00000280: 9aa6 e4b5 c808 3c37 a22b 0f37 484c 0eb7
00000290: 944e 8db7 c310 e436 4ab8 18b7 2167 7c36
000002a0: a928 1c36 9658 9db6 6da0 09b6 9fb2 60b6
000002b0: 4254 0d37 4e75 2b37 6954 89b6 8e08 d7b6
000002c0: 3c43 acb6 14e7 71b6 82cd 13b6 ddd0 9436
000002d0: 7a7e 9437 c059 aeb6 9d67 99b6 630b b9b3
000002e0: 7fbc 3037 4bfa 1fb7 02ad 7236 b080 6ab6
000002f0: e8af 9436 75f7 e236 794d 1ab6 cec9 4637
00000300: 0aa4 2c37 a604 0fb7 cdc3 a5b7 4a11 1337
00000310: 9787 5bb7 3cd6 8d36 804f 5a36 9799 3eb6
00000320: 4032 e4b6 e455 92b6 4f03 5737 151c f536
00000330: 9996 64b6 d12e ebb6 17f8 90b6 cf5c 97b6
00000340: 7968 8cb6 9a5d 8e36 ec03 fd35 ca47 c7b6
00000350: b489 1eb6 b6a6 1cb7 f8e8 86b6 13eb c4b6
00000360: 8182 9f36 b23e 2f37 7c5e 2f34 e7ee 14b5
00000370: 35e3 deb5 c942 2837 cac0 9235 1dca 79b4
00000380: b5e8 08b7 9555 c735 a0eb 4bb6 5d56 4237
00000390: bfe7 2b36 32d7 a8b5 8c6f c736 4c20 01b6
000003a0: a36a 60b6 b1c0 9837 7905 2bb6 9984 4d35
000003b0: 7db3 60b6 0a0e 2e36 eded 8d36 05a5 2b37
000003c0: e488 a436 dfd6 cab6 2cd3 f0b6 0470 9336
000003d0: 371a ec36 34a6 b1b6 d26a 0b35 a10e 1ab6
000003e0: 1552 aeb6 44e4 9736 1740 71b6 4966 3137
000003f0: 2608 0037 d16d f2b6 3d1f 4fb7 cd48 7f36

exp_avg_sq f4 [30, 30]
8.375814e-10 8.087068e-10 8.398464e-10 1.4994538e-09 4.6676435e-10 3.0804545e-10 6.055504e-10 1.3712383e-09
3.4294692e-10 1.1055052e-09 1.0134393e-09 5.374796e-10 8.1117546e-10 1.2877295e-09 1.9873965e-09 4.429963e-10
9.44411e-10 9.756298e-10 6.3051836e-10 3.940808e-10 6.856225e-10 2.0111056e-10 1.3067374e-09 1.0892061e-09
1.1017488e-09 3.2914876e-10 3.33904e-10 5.8384564e-10 6.279763e-10 1.4141487e-09 2.1777982e-10 1.4063878e-10
4.9631965e-10 2.4924493e-10 2.7237368e-10 5.7564828e-11 4.982144e-10 6.028559e-10 6.0462996e-11 2.2660804e-10
1.08230966e-10 3.1016165e-10 2.2964927e-10 5.443419e-10 3.6064057e-10 2.261654e-10 1.5848034e-10 3.6783593e-10
1.4226706e-10 1.7439686e-10 3.8106948e-10 9.332432e-11 2.0702617e-10 5.9633065e-10 4.989024e-10 1.4786448e-10
1.7992037e-10 1.6736036e-10 1.2667037e-10 1.5677112e-10 5.3589577e-10 4.0987194e-10 2.1905562e-09 1.3773443e-09
5.3575594e-10 4.7464155e-10 9.0211333e-10 3.6757597e-09 2.9832356e-10 7.951359e-10 5.551379e-10 4.6517853e-10
6.921096e-10 1.6370049e-09 1.1010324e-09 9.760927e-10 4.674605e-10 6.3207095e-10 4.2594073e-10 4.4460127e-10
4.4654644e-10 2.6783467e-10 5.8289057e-10 1.2968847e-09 1.8101988e-09 4.8320525e-10 5.733736e-10 4.6444598e-10
1.1332812e-09 1.13353e-09 3.5150885e-10 1.4396616e-10 5.262326e-10 3.257708e-10 4.80081e-10 8.14491e-11
6.839886e-10 5.348634e-10 8.435199e-11 2.986294e-10 1.2503636e-10 5.284638e-10 2.1755295e-10 9.0934504e-10
6.1997296e-10 2.7214012e-10 2.6007252e-10 3.6792336e-10 1.5525324e-10 3.3697573e-10 5.619586e-10 1.1181779e-10
2.457943e-10 1.260831e-09 6.060387e-10 2.485011e-10 2.1266125e-10 1.3492729e-10 1.5338662e-10 2.296375e-10
9.609785e-10 4.6538298e-10 5.102586e-10 1.6266379e-09 9.336885e-10 2.5660338e-10 1.2914089e-09 1.2916612e-09
1.8308105e-10 8.9063595e-10 4.9073207e-10 6.126284e-10 7.303117e-10 4.7175014e-10 1.1762677e-09 5.7699284e-10
6.5195166e-10 1.2225218e-09 5.074117e-10 2.5352734e-10 1.1158056e-09 2.6808364e-10 7.6910406e-10 1.9384916e-09
3.7195436e-10 3.0032257e-10 5.871481e-10 3.996512e-10 8.541297e-10 6.389706e-10 5.809319e-10 2.8044864e-10
4.88483e-10 1.323236e-09 1.1174074e-09 1.4033448e-10 5.8570243e-10 1.0589953e-09 1.7303968e-10 6.0910643e-10
2.8486277e-10 3.33534e-10 4.949073e-10 7.170465e-10 1.1202083e-09 4.743236e-10 3.2810846e-10 7.471416e-10
3.927273e-10 3.0996064e-10 4.8121496e-10 1.6953762e-10 4.926541e-10 8.339675e-10 2.1423713e-10 3.7330442e-10
5.171912e-10 2.4869115e-10 4.24909e-10 4.03288e-10 1.0131572e-09 4.260819e-10 5.536028e-10 1.3796398e-09
7.6189705e-10 2.7860667e-10 1.3182224e-09 1.427028e-09 1.795046e-10 8.725847e-10 4.5198337e-10 6.1419986e-10
8.879069e-10 4.363455e-10 1.0957915e-09 6.2631483e-10 7.8774726e-10 9.885888e-10 4.9012683e-10 2.690403e-10
1.0901008e-09 2.7819347e-10 9.147072e-10 2.1179647e-09 4.0391165e-10 2.7023078e-10 5.2442345e-10 4.750118e-10
1.0223719e-09 6.4609784e-10 4.8223453e-10 8.583055e-10 6.862495e-10 2.1571822e-09 6.0420574e-10 3.1456282e-10
3.2092876e-10 1.2899581e-09 2.3860444e-10 4.5064685e-10 1.060966e-09 5.7576166e-10 3.4724887e-10 1.053503e-09
1.2940623e-09 3.373629e-10 5.154724e-10 1.6031704e-09 6.5727185e-10 3.0023595e-10 4.1511852e-10 1.8412821e-10
6.705413e-10 1.2273492e-09 5.8150146e-10 3.2930003e-10 2.2767563e-10 4.009399e-10 5.171681e-10 1.2560846e-09
7.123266e-10 3.6839332e-10 1.5924249e-09 2.0845163e-09 1.947316e-09 2.7916308e-10 6.677434e-10 2.434091e-09
2.99174e-10 6.0974514e-10 4.3263598e-10 7.461349e-10 5.971128e-10 2.6608196e-09 1.7885156e-09 9.166893e-10
00000000: 8d3b 6630 af4b 5e30 f0da 6630 5715 ce30
00000010: 9f4d 0030 8b59 a92f d273 2630 2976 bc30
00000020: 7d89 bc2f 82f0 9730 3a49 8b30 c4bd 1330
00000030: 66f9 5e30 f4fb b030 a692 0831 308a f32f
00000040: 82cc 8130 ec16 8630 c950 2d30 f1a5 d82f
00000050: 6576 3c30 971f 5d2f bc98 b330 08b3 9530
00000060: 576c 9730 92f3 b42f cf90 b72f 7c7c 2030
00000070: e79d 2c30 ef5b c230 9273 6f2f 4ca2 1a2f
00000080: 646d 0830 1b06 892f 30bd 952f 3c2c 7d2e
00000090: b9f2 0830 36b6 2530 a4f5 842e 7e28 792f
000000a0: 9e00 ee2e 5f83 aa2f 8680 7c2f a8a0 1530
000000b0: a643 c62f e7ab 782f 4040 2e2f 4e38 ca2f
000000c0: 9e6c 1c2f 5ac0 3f2f c37e d12f ec38 cd2e
000000d0: b0a0 632f 0aeb 2330 2323 0930 2794 222f
000000e0: 15d3 452f c103 382f 8a46 0b2f 265f 2c2f
000000f0: 504e 1330 5954 e12f ac88 1631 ff4c bd30
00000100: 7944 1330 ee77 0230 95f8 7730 a698 7c31
00000110: 4f01 a42f b790 5a30 5b98 1830 0fbc ff2f
00000120: e23e 3e30 fdfc e030 2253 9730 3527 8630
00000130: 9c7e 0030 0abe 2d30 d429 ea2f 116c f42f
00000140: d37d f52f 613e 932f 4739 2030 133e b230
00000150: b5ca f830 8cd2 0430 959b 1d30 f654 ff2f
00000160: cac1 9b30 8bca 9b30 793e c12f df4a 1e2f
00000170: 54a6 1030 2a18 b32f b2f6 0330 c41b b32e
00000180: 6b03 3c30 aa05 1330 f37d b92e 5a2c a42f
00000190: 9b7a 092f 5543 1130 b633 6f2f 78f5 7930
000001a0: b86a 2a30 519c 952f f4f9 8e2f 9c44 ca2f
000001b0: e7b3 2a2f 1e41 b92f 5278 1a30 d2e3 f52e
000001c0: 7920 872f 8c49 ad30 2f96 2630 6c9d 882f
000001d0: d2d2 692f a85a 142f 7fa6 282f 367d 7c2f
000001e0: 6d13 8430 d5d8 ff2f 4242 0c30 3c90 df30
000001f0: 3e53 8030 b711 8d2f 697d b130 4a86 b130
00000200: bc4c 492f efd0 7430 33e4 0630 e465 2830
00000210: 1ebf 4830 77ac 0130 3eaa a130 439a 1e30
00000220: 0535 3330 a905 a830 ed79 0b30 cd60 8b2f
00000230: eb5a 9930 6b61 932f e368 5330 4e36 0531
00000240: ec7b cc2f a51a a52f e064 2130 e8b5 db2f
00000250: 09c8 6a30 8fa3 2f30 73af 1f30 a32d 9a2f
00000260: ef45 0630 3add b530 4793 9930 a54c 1a2f
00000270: 25ff 2030 168c 9130 5742 3e2f 0e6e 2730
00000280: df9a 9c2f bd5c b72f 010a 0830 a919 4530
00000290: d3f5 9930 8e61 0230 2961 b42f 6b5f 4d30
000002a0: 74e7 d72f 1567 aa2f 7e46 0430 9968 3a2f
000002b0: 736b 0730 3f3d 6530 648e 6b2f ed39 cd2f
000002c0: 182a 0e30 2bb8 882f a098 e92f bdb5 dd2f
000002d0: 4d3f 8b30 b23d ea2f 552c 1830 c39d bd30
000002e0: bd6d 5130 672a 992f d42c b530 1621 c430
000002f0: 0e5e 452f b1da 6f30 017b f82f 79d4 2830
00000300: e510 7430 2be2 ef2f bc9a 9630 fd28 2c30
00000310: c988 5830 e0de 8730 9cb9 0630 0ee8 932f
00000320: 83d2 9530 40f0 982f cc6e 7b30 a18b 1131
00000330: 830d de2f 9a8f 942f 0527 1030 fc91 0230
00000340: 8383 8c30 1899 3130 3d8e 0430 e1ed 6b30
00000350: 84a2 3c30 8d3d 1431 3315 2630 c8ee ac2f
00000360: b56e b02f 5e4a b130 972c 832f e8be f72f
00000370: 6cd1 9130 a043 1e30 efe6 be2f d7ca 9030
00000380: c5da b130 9b77 b92f 25b1 0d30 8b56 dc30
00000390: 65ab 3430 740e a52f bd36 e42f 7c73 4a2f
000003a0: 2651 3830 83af a830 87d7 1f30 dc08 b52f
000003b0: fe54 7a2f 466b dc2f 7828 0e30 8ca2 ac30
000003c0: 87cd 4330 c086 ca2f 78dc da30 333f 0f31
000003d0: 8cd1 0531 b678 992f 448c 3730 fb44 2731
000003e0: ff78 a42f 009b 2730 1ad8 ed2f 9318 4d30
000003f0: 1422 2430 a2d9 3631 cccf f530 46fa 7b30

exp_avg f4 [30]
4.348296e-12 -1.795362e-11 -1.0603374e-11 -5.7103116e-12 3.4240777e-11 2.1335338e-11 2.595566e-11 2.0225575e-11
2.7148745e-11 5.7268936e-11 3.2571768e-11 -1.3411999e-11 4.502086e-12 -2.635012e-11 -2.3998116e-11 4.5168136e-12
-2.2349473e-11 4.951121e-12 -7.423058e-12 7.85485e-12 -3.56624e-12 4.7337884e-11 -1.1100753e-11 -2.9027145e-11
3.5330194e-11 -2.5024937e-11 -2.6834389e-11 -1.1919268e-11 -3.6651855e-11 6.3834034e-12
00000000: f8fd 982c f5eb 9dad 5a89 3aad eae9 c8ac
00000010: b097 162e e9aa bb2d f34e e42d f2e7 b12d
00000020: 8acd ee2d 17df 7b2e 8d40 0f2e 46f2 6bad
00000030: 3067 9e2c 32c7 e7ad f416 d3ad d7eb 9e2c
00000040: 8a96 c4ad bc33 ae2c 7b96 02ad 192f 0a2d
00000050: abf3 7aac b831 502e 5949 43ad 5253 ffad
00000060: 4362 1b2e 261f dcad ac09 ecad 9caf 51ad
00000070: 5232 21ae 9698 e02c

exp_avg_sq f4 [30]
3.1833664e-15 2.0733553e-16 6.879698e-15 2.0670173e-15 4.9671997e-16 5.7277634e-15 2.7409465e-16 1.7949843e-14
2.1818472e-15 1.494541e-17 8.3588255e-18 5.4724563e-15 7.916675e-16 2.5850637e-15 1.1016778e-14 4.739423e-15
5.5844992e-15 4.7747406e-16 5.4495017e-15 1.389718e-14 5.662212e-15 1.120656e-15 3.1618209e-19 4.7119935e-15
1.276385e-14 1.6956227e-14 4.1283014e-15 1.725469e-15 3.3184525e-15 7.544032e-15
00000000: bf62 6527 a60a 6f25 04de f727 bdf1 1427
00000010: 772b 0f26 4b5d ce27 3b01 9e25 85ad a128
00000020: fa37 1d27 dad8 8923 7031 1a23 802a c527
00000030: c02e 6426 0246 3a27 ec75 4628 76c1 aa27
00000040: ea33 c927 5e9f 0926 c856 c427 6e59 7a28
00000050: b000 cc27 e980 a126 16a4 ba20 78c4 a927
00000060: deee 6528 66ba 9828 dcbc 9427 92aa f826
00000070: a51e 6f27 b5e6 0728

exp_avg f4 [5, 30]
-1.1885219e-05 1.2653177e-05 2.3743742e-05 1.04871615e-05 -1.7436925e-05 -1.7581182e-05 -1.9666724e-05 3.0921403e-06
-2.2291957e-05 -2.524115e-05 -2.0830023e-05 8.734041e-06 -1.6514023e-05 1.9934201e-05 -5.9902814e-06 -5.44341e-07
2.6171534e-05 -3.3203178e-06 -2.5094512e-06 2.0055522e-05 1.1415912e-05 -1.4340838e-05 -8.928827e-06 2.556685e-05
-1.6794827e-05 2.4705812e-05 1.1981393e-05 1.8206138e-05 2.0037565e-05 -1.4510141e-05 1.0283179e-05 3.0730864e-06
1.5029508e-07 5.1182033e-06 1.755448e-05 1.29049995e-05 1.7680892e-05 1.7916433e-07 4.5379393e-06 4.6965383e-06
1.2803073e-06 -1.2895554e-05 -4.8218084e-07 -1.1964746e-05 -1.3088895e-05 1.2741943e-05 -2.6442788e-07 -1.4331016e-06
-6.8388367e-06 -7.632765e-06 6.9993316e-06 1.8517547e-05 6.2528375e-06 -5.688865e-06 1.6215532e-05 -1.111397e-05
-8.634857e-06 -4.2095263e-07 -5.5581486e-06 1.1260411e-05 -1.1839408e-06 -7.486258e-06 -1.2180283e-05 -1.1410296e-05
1.8240813e-05 2.2476459e-05 1.5328611e-05 1.1578124e-05 3.0478666e-05 2.9855011e-05 1.3106981e-05 -1.638594e-05
2.2575769e-05 -1.789009e-05 -2.0329799e-05 7.401979e-06 -1.2925727e-05 2.0098341e-05 -1.4564765e-05 4.868103e-06
2.2560969e-06 2.1827265e-05 -1.15472485e-05 -1.8472601e-05 2.0903228e-05 -2.5964162e-05 -3.1258594e-05 -1.7973773e-05
-2.9025434e-05 -5.4087195e-06 -1.1622932e-05 1.2160217e-05 1.4499618e-06 1.4437334e-05 1.7714081e-05 8.708019e-06
1.6173004e-05 1.8664103e-05 -1.9350373e-06 -1.4648301e-05 -6.2675854e-06 -1.0132825e-05 -2.8297307e-05 -8.073153e-06
-3.7074522e-06 3.6244667e-06 2.7384212e-05 -2.0947422e-05 -1.6986898e-07 1.6658036e-05 1.5909276e-05 1.5685824e-05
-5.6315134e-06 2.2478662e-05 1.931245e-05 1.1312871e-05 -1.1212316e-05 2.0116253e-05 7.634338e-06 -9.17466e-07
1.7305914e-05 1.7828677e-06 1.5941689e-05 1.5351575e-06 -7.859063e-06 -6.4770375e-06 -7.093972e-06 -1.7308399e-05
-1.1928511e-05 -1.4038582e-06 -8.019478e-06 7.2026097e-07 1.0679559e-05 7.7277455e-06 -1.3669728e-05 1.1855572e-05
-6.4955575e-06 1.1918758e-05 -8.335389e-06 -1.3477795e-05 1.035112e-06 -3.4207221e-06 9.61542e-06 -8.476587e-06
-1.1249902e-05 -4.768016e-06 1.2435675e-05 -4.2570173e-06 3.2503788e-06 7.318803e-06
00000000: a066 47b7 fb48 5437 4c2d c737 04f2 2f37
00000010: 8345 92b7 4d7b 93b7 f8f9 a4b7 9182 4f36
00000020: 9dff bab7 f5bc d3b7 22bc aeb7 6c88 1237
00000030: 9887 8ab7 5f38 a737 2000 c9b6 d41e 12b5
00000040: f18a db37 a0d2 5eb6 0b68 28b6 e83c a837
00000050: f886 3f37 6e99 70b7 05cd 15b7 6478 d637
00000060: 9ee2 8cb7 543f cf37 b103 4937 62b9 9837
00000070: 5816 a837 9570 73b7 eb85 2c37 393b 4e36
00000080: cc60 2134 08bd ab36 f541 9337 8d82 5837
00000090: 6d51 9437 5160 4034 9a44 9836 f596 9d36
000000a0: 06d7 ab35 fc59 58b7 376f 01b5 31bc 48b7
000000b0: 6098 5bb7 3ac6 5537 b1f6 8db4 ff58 c0b5
000000c0: 2979 e5b6 7a0e 00b7 cddb ea36 2156 9b37
000000d0: 77cf d136 fae2 beb6 9706 8837 2376 3ab7
000000e0: 6ede 10b7 4aff e1b4 2280 bab6 19eb 3c37
000000f0: e5e7 9eb5 7732 fbb6 eb59 4cb7 d96e 3fb7
00000100: d903 9937 d48b bc37 f195 8037 aa3f 4237
00000110: 70ac ff37 2671 fa37 0ee6 5b37 8a74 89b7
00000120: 1861 bd37 ad12 96b7 e989 aab7 845e f836
00000130: 93db 58b7 dc98 a837 305b 74b7 b058 a336
00000140: 7367 1736 b219 b737 0ebb 41b7 9cf5 9ab7
00000150: 5759 af37 9dcd d9b7 a91b 03b8 62c6 96b7
00000160: a57b f3b7 8c7c b5b6 1d00 43b7 bc03 4c37
00000170: 4f9c c235 e137 7237 b398 9437 a818 1237
00000180: 43ab 8737 db90 9c37 b0db 01b6 f9c1 75b7
00000190: 264e d2b6 2700 2ab7 0160 edb7 ee71 07b7
000001a0: 8bcd 78b6 dd3b 7336 26b7 e537 3fb8 afb7
000001b0: 3b65 36b4 dcbc 8b37 e974 8537 0d95 8337
000001c0: 55f6 bcb6 8f90 bc37 2c01 a237 69cc 3d37
000001d0: 881c 3cb7 53bf a837 3b15 0037 c947 76b5
000001e0: 2b2c 9137 de4a ef35 84ba 8537 9c0b ce35
000001f0: 6bda 03b7 5455 d9b6 c108 eeb6 8131 91b7
00000200: 9120 48b7 336c bcb5 658b 06b7 f557 4135
00000210: 5b2c 3337 6aa6 0137 0957 65b7 4be7 4637
00000220: 6af4 d9b6 adf6 4737 39d8 0bb7 b01e 62b7
00000230: 2dee 8a35 8f8f 65b6 ea51 2137 aa36 0eb7
00000240: f6bd 3cb7 f2fc 9fb6 d1a2 5037 80d7 8eb6
00000250: 1521 5a36 0a94 f536

exp_avg_sq f4 [5, 30]
3.7551917e-09 2.2022775e-09 7.320468e-09 1.7187584e-09 5.4397105e-09 3.968486e-09 5.9705956e-09 3.7354146e-09
5.6650076e-09 5.71583e-09 4.8674127e-09 1.549098e-09 3.916595e-09 4.8952575e-09 2.1040474e-09 8.341657e-10
9.001277e-09 1.2389666e-09 6.058121e-10 7.358336e-09 2.8070593e-09 3.9181947e-09 2.6953997e-09 7.218114e-09
5.896388e-09 5.215607e-09 3.993098e-09 3.7569894e-09 3.575944e-09 3.6139653e-09 8.477838e-09 2.1785507e-09
4.9989786e-09 4.0420067e-09 2.9618208e-09 8.438475e-10 3.6631027e-09 3.5212087e-09 5.0408677e-09 3.0884932e-09
2.4158726e-09 1.6949099e-09 2.4124167e-09 9.353129e-10 3.9045145e-09 6.6396524e-09 1.8995345e-09 1.463012e-09
8.295383e-10 5.7683196e-09 2.320777e-09 3.3883434e-09 5.686388e-09 1.1737223e-09 1.8138688e-09 9.996416e-10
2.3785227e-09 1.878063e-09 2.3374052e-09 7.4454363e-09 1.1267836e-09 1.1114141e-09 9.815522e-10 2.5545697e-09
2.0173303e-09 4.7437014e-09 1.3033377e-09 1.0000276e-09 9.875191e-09 1.3378462e-08 1.7564601e-09 2.9701555e-09
1.3343312e-08 2.5090858e-09 9.414268e-09 1.6101147e-09 4.823491e-09 1.1570882e-08 4.615969e-09 1.2599095e-09
2.3535948e-10 4.3507082e-09 2.0795634e-09 7.973509e-09 2.561226e-09 1.1261489e-08 9.574492e-09 6.8265584e-09
1.1679833e-08 1.2444681e-09 2.6938363e-09 1.3770111e-09 6.4601674e-10 1.153333e-09 4.4604693e-09 2.7405007e-09
3.423028e-09 4.7255324e-09 1.2623064e-09 1.6291078e-09 9.0284064e-10 2.888766e-09 3.2196277e-09 1.761334e-09
4.2318984e-09 1.3274939e-09 6.9891866e-09 6.913108e-10 1.3844227e-09 6.1612107e-09 3.6431809e-09 5.450364e-09
2.2790276e-09 4.259092e-09 5.2723568e-09 2.0281488e-09 5.174117e-09 2.317366e-09 1.1164912e-09 1.630352e-09
7.9389375e-09 1.6633422e-10 7.552749e-09 2.3418728e-10 3.788412e-09 1.942866e-09 3.7215044e-09 8.68395e-09
3.3249197e-09 9.2454666e-10 1.8596992e-09 3.544389e-10 7.731234e-09 2.7934426e-09 6.9547808e-09 3.594921e-09
2.9112763e-09 8.653925e-09 2.7973515e-09 4.8640985e-09 9.0767026e-11 1.356898e-09 1.9070758e-09 4.092542e-09
5.760045e-09 2.0411817e-09 3.9059214e-09 1.9399922e-09 6.7930817e-10 1.2565938e-09
00000000: 0407 8131 e056 1731 8487 fb31 6f39 ec30
00000010: 33e8 ba31 2c5b 8831 ea25 cd31 0e59 8031
00000020: efa5 c231 f964 c431 373e a731 0ae8 d430
00000030: bc92 8631 2433 a831 cb96 1031 314b 6530
00000040: 09a4 1a32 4348 aa30 3d86 2630 9cd4 fc31
00000050: 4fe6 4031 cea0 8631 f939 3931 3403 f831
00000060: 2d99 ca31 f734 b331 a933 8931 d416 8131
00000070: acbc 7531 8d59 7831 eda5 1132 78b5 1531
00000080: 7bc3 ab31 dee1 8a31 e788 4b31 7df4 6730
00000090: fcb9 7b31 c2f9 7131 f133 ad31 593d 5431
000000a0: 7b04 2631 57f2 e830 afc7 2531 668c 8030
000000b0: 7928 8631 0023 e431 f788 0231 2913 c930
000000c0: 9205 6430 ad32 c631 8a7b 1f31 5ed8 6831
000000d0: ff61 c331 af50 a130 d64b f930 c363 8930
000000e0: 6a73 2331 3c0f 0131 11a0 2031 c0d2 ff31
000000f0: 2cdd 9a30 68c0 9830 4ce7 8630 778c 2f31
00000100: 40a1 0a31 0afe a231 1e21 b330 5871 8930
00000110: 8da7 2932 19d7 6532 f267 f130 871b 4c31
00000120: 823c 6532 4e6c 2c31 63bc 2132 e04a dd30
00000130: e0bb a531 47c9 4632 7e9a 9e31 2029 ad30
00000140: e763 812f 3c7d 9531 11e8 0e31 ddfb 0832
00000150: 9001 3031 8d78 4132 107d 2432 0b8f ea31
00000160: 73a8 4832 d409 ab30 781e 3931 4541 bd30
00000170: 6393 3130 4c83 9e30 b442 9931 6653 3c31
00000180: 8c3a 6b31 395e a231 757d ad30 23e7 df30
00000190: c32b 7830 b583 4631 4a40 5d31 6e13 f230
000001a0: 2c68 9131 0a73 b630 8925 f031 ac06 3e30
000001b0: 0b46 be30 95b2 d331 845b 7a31 e945 bb31
000001c0: 149d 1c31 5f57 9231 2428 b531 925f 0b31
000001d0: 04c8 b131 893f 1f31 0b73 9930 e912 e030
000001e0: d163 0832 ece2 362f 57c1 0132 eebe 802f
000001f0: 392b 8231 4383 0531 66bd 7f31 6a30 1532
00000200: 9b7c 6431 3023 7e30 5998 ff30 d7da c22f
00000210: 54d2 0432 c3f6 3f31 e6f6 ee31 850a 7731
00000220: b70f 4831 5dac 1432 873b 4031 1021 a731
00000230: 4b99 c72e 9b7d ba30 a20d 0331 619e 8c31
00000240: e4e9 c531 d944 0c31 d934 8631 b450 0531
00000250: 10ba 3a30 77b4 ac30

exp_avg f4 [5]
5.610351e-11 9.993849e-13 -8.54221e-11 2.8624846e-11 -2.008026e-11
00000000: f0be 762e a3a6 8c2b 5ed8 bbae 6cc9 fb2d
00000010: baa0 b0ad

exp_avg_sq f4 [5]
3.5930477e-15 2.8983697e-15 3.4257213e-16 1.3260818e-14 1.2589753e-14
00000000: 0474 8127 7cd9 5027 b97a c525 bbe2 6e28
00000010: fdcb 6228
