tutorial/Mouse_cerebellum_output/version_19/version_19/checkpoints/mlp.ckpt (torch, 17217 bytes, 12 tensors)

model.classifier.0.weight f4 [30, 30]
00000000: 7678 73bd ce69 3b3d a251 353d 0b54 f9b9
00000010: 99f8 df3d 7be4 84bd 2431 6abd 8605 ddbd
00000020: 61f3 d43c 496b 5abd 5cb3 fabd 4e67 503d
00000030: c7b3 1dbd 4a3d 773d 7ea0 b3bd cdcb a5bd
00000040: 3634 a83d e8ed 67bc 420f 8b3d 91ba 43bd
00000050: f08e 0dbd 0b91 27be 4108 a6bc 39d5 a53c
00000060: e66a 01bd 2037 2fbe ee48 d03d 8564 203e
00000070: 01d8 dfbc db5c 46bc 320e f7bb dad8 d5bd
00000080: 7930 373d f572 c0bd 64ba 19be 0655 bdbc
00000090: 0bf6 9a3d 82fd 0b3d 0ec9 07be 5415 4e3d
000000a0: f120 ac3d 025a 523a 2146 d83d 5839 8bbd
000000b0: c472 cf3d b054 b33d 389d be3c a31a c23d
000000c0: 52ad 5abc 84f4 78bd 7cf0 613d a1e6 5a3d
000000d0: 4d55 093e d9e8 d3bd 3889 153d fa0c a43d
000000e0: be75 9ebd 784b 8cbd b513 673d ee6a 563d
000000f0: ea96 8bbd 7b61 d53c 1f65 c0bd 17ef a03c
00000100: 7196 10be 6c27 9abd 1665 023d 7050 93bd
00000110: 3bc6 3abd 7e5c 29bd 6625 81bd f043 a1bd
00000120: 8589 2ebe 5d2f 42bd 6aa3 90bd c4e9 98bd
00000130: 8756 4f3d 2918 a8bd 8a10 ef3c 5eb0 883d
00000140: 451f 103b 735d e13c 040d c1bd d149 353b
00000150: 2532 d1bd d5d8 febd 7885 a83d 0b85 18bd
00000160: 6ec3 463d 8df6 a1bd b681 8cba 15f4 8d3d
00000170: da1b a6bb ab66 483e 861a 4f3e ff49 70bb
00000180: 6ce0 7dbc a668 14bc dba6 293e c0ed 93bc
00000190: 6a49 d03c 3a04 123d 5447 f7bd b5ee f73d
000001a0: 33b5 33bd 25b7 91bd 4ee3 7cbd 7b05 01be
000001b0: af3d 803c fa8b 803d 8be1 40bd 3149 1cbd
000001c0: d0bb dbbd ee92 b03d d6f3 16bc 9334 9abd
000001d0: d202 b33d f6e5 133d 3e9d 2cbc 055d e3bc
000001e0: ac0d 813d b6d3 54bd 6dd1 1e3e 5323 a9bc
000001f0: 1c56 463e df7d 833d baec ddbc 205e 963d
00000200: 66e4 3a3d 7380 633d 565f b43d 401d 033e
00000210: a117 653e 35a0 9f3d deb9 cc3d ed55 c23d
00000220: 11c7 37bd 4b44 eb3d ec55 9dbc f335 e5bd
00000230: 832c 8e3a 5f93 8bbd 6667 1c3e f5dc ccbc
00000240: 8f3d 0b3e 5132 003e c89f b5bd fea1 9b3d
00000250: 133b 34bd d3b6 ed3d 284a 02bd be9b 26bd
00000260: eaec f2bd 77c9 7f3d a157 7cbe 3ba0 2dbd
00000270: 32cd 033e 7ce0 003d 58f6 96bd 52aa bf3c
00000280: 720f dc3d 95c0 eebd 3fd5 1abe 57ba b4bd
00000290: 8804 263d 8c57 c53b 90dc 04bd 800d aebd
000002a0: e42f e3bc 29ac e43d d8c4 323d edec 433e
000002b0: 831c 74bd f5a6 12bd 6ffd 8abd e2c2 bd3c
000002c0: 74e8 d2ba 0191 58be 4991 e03d 8c4c 77bd
000002d0: 3eda e3bd b712 07be e5ad bd3d 474a ccbb
000002e0: 95c1 11be 517d 1ebe f7b1 123e 0004 4fbd
000002f0: bf3c 1cbe 9728 233d a84c d83d f82a 203d
00000300: 7f5f 963b 4999 72bc cdfa c23d 3374 073d
00000310: b0d3 ac3d e3b7 2d3d c12a 5e3d 7f3f a1bd
00000320: 690c 713d 6697 a0bc e726 153e 64cc 15be
00000330: 6baa 273a cc26 babd 7193 033d 3fdc d4bc
00000340: 128b 0f3e 1db6 3e3d 22aa 59bd 944e 89bd
00000350: ec88 b03d a0b5 1bbe 3745 a3bd 7ddd 8bbd
00000360: 978f d23b e986 80bd 2873 0dbe e0a7 163a
00000370: 23d4 5dbd 6aa2 293d c13d df3d eaaa 21bd
00000380: ad0e a93c 33b6 e43c 9f1a ea3d 6f1e f33d
00000390: b872 313d f0bb f8bd b7f8 f23c 7415 c8bd
000003a0: 6ced 0b3e 515b c2bd 9bf0 443c 29c6 5cbd
000003b0: 9c7e 02bc e3b9 aa3d c11c 843c c2a7 423d
000003c0: 8d35 da3d 3850 a43d 9d5c 50bc d617 c13c
000003d0: aea6 443e 5476 0d3e 8134 debd c9c9 913d
000003e0: e5b4 153e 79f9 94bb 5395 d4bc 2e79 a03c
000003f0: b5fc 883d 1e1e 513d 1cfd e4bc 97ed 043c
-0.059441052 0.0457552 0.044267304 -0.00047555598 0.10936088 -0.06488892 -0.05717577 -0.10792069
0.025994958 -0.05332497 -0.12241241 0.05087977 -0.038501527 0.060361184 -0.08770846 -0.080955125
0.082130834 -0.014155842 0.067900196 -0.047785345 -0.034560144 -0.16363923 -0.020267608 0.020243274
-0.031596087 -0.17110872 0.1017016 0.15663345 -0.027324678 -0.012107099 -0.007539534 -0.10441752
0.04472396 -0.09396926 -0.15012509 -0.023111831 0.0756646 0.03417731 -0.1326029 0.05031331
0.084047206 0.00080242765 0.10560251 -0.06798047 0.10129312 0.08756387 0.023268327 0.09477737
-0.013346987 -0.060780063 0.055160984 0.0534426 0.13411446 -0.103471465 0.036507815 0.080102876
-0.07737301 -0.06850332 0.05641528 0.05234807 -0.06815894 0.026047459 -0.09394287 0.019645257
-0.14119889 -0.075270504 0.031834684 -0.071930766 -0.045599204 -0.041347973 -0.06305961 -0.07874286
-0.17044647 -0.04740845 -0.07062419 -0.07466462 0.05061963 -0.08207733 0.029182691 0.06674264
0.0021991294 0.02751038 -0.09426311 0.0027662406 -0.102146424 -0.12443701 0.08228582 -0.037236255
0.04852622 -0.07908354 -0.0010719809 0.069313206 -0.005069238 0.19570415 0.20224962 -0.00366652
-0.015495401 -0.009058153 0.16567557 -0.018057704 0.025425632 0.035648562 -0.12074152 0.12106077
-0.043873977 -0.0711501 -0.061740212 -0.12599747 0.015654413 0.062766984 -0.047090095 -0.03815574
-0.10729182 0.086217746 -0.009213408 -0.07529559 0.08740772 0.03610798 -0.010535536 -0.027754316
0.06301436 -0.051959716 0.15509577 -0.020646727 0.19368786 0.064204924 -0.02709042 0.07342172
0.045627974 0.05554242 0.088072464 0.12804127 0.22372295 0.07794229 0.09996389 0.09489045
-0.04486758 0.11487635 -0.01920601 -0.111919306 0.0010847006 -0.06815218 0.15273818 -0.025007704
0.13597701 0.12519194 -0.088683665 0.07599257 -0.04400165 0.116071366 -0.031809002 -0.04067587
-0.11861594 0.06244799 -0.24642803 -0.042389136 0.12871245 0.031464085 -0.07371205 0.023396645
0.107451335 -0.11657826 -0.1512041 -0.08824604 0.040531665 0.0060223993 -0.032436907 -0.08498669
-0.027732797 0.111656494 0.043644756 0.19133349 -0.059597503 -0.035803754 -0.0678662 0.023164216
-0.0016091005 -0.21149065 0.10965211 -0.060375735 -0.11125611 -0.13190733 0.092616834 -0.0062344405
-0.14234002 -0.15477492 0.143257 -0.050540924 -0.15257548 0.03983363 0.10561496 0.03910348
0.0045890207 -0.014807054 0.09520493 0.0330698 0.08438814 0.042411696 0.054239992 -0.07873439
0.058849726 -0.019603442 0.14565621 -0.1462875 0.00063959387 -0.09089431 0.032123033 -0.025983928
0.14017895 0.046560396 -0.053140767 -0.06704441 0.08619866 -0.15206003 -0.07972186 -0.06829355
0.0064258086 -0.06275732 -0.1381346 0.0005747061 -0.054157387 0.041414656 0.109004505 -0.039469637
0.02063688 0.02791891 0.11430859 0.11871039 0.043322295 -0.12145221 0.029659612 -0.09769717
0.13664788 -0.094900735 0.012020255 -0.053899918 -0.007964756 0.08336236 0.016126992 0.047523268
0.10654745 0.08023113 -0.012717393 0.023570936 0.19204208 0.1381467 -0.10849858 0.071185656
0.14619787 -0.004546341 -0.02595011 0.019589033 0.06688825 0.051054113 -0.027952723 0.008113286

model.classifier.0.bias f4 [30]
00000000: 8778 9834 5374 76b3 d33e 3933 4d43 c0b5
00000010: 3c7a 3434 4ca4 ba34 5aff f5b3 a156 d933
00000020: 4fb2 9eb5 5762 9633 24f6 a5b3 d661 d6b4
00000030: 0489 3bb4 8722 4134 0a9c 4934 5461 09b5
00000040: 36d9 abb2 a21a 9c33 2143 9a34 1176 27b5
00000050: b62d 73b4 14cc e2b3 76bc d1b4 28b6 a034
00000060: 13f7 71b4 655c 2535 75e1 01b6 d5e3 c3b3
00000070: be0a dd35 df53 38b6
2.8399901e-07 -5.7382135e-08 4.3130807e-08 -1.4324702e-06 1.6808275e-07 3.4764741e-07 -1.145515e-07 1.01206076e-07
-1.1823812e-06 7.002807e-08 -7.728184e-08 -3.993179e-07 -1.7465578e-07 1.7987087e-07 1.877635e-07 -5.117811e-07
-2.0005796e-08 7.2691606e-08 2.8733578e-07 -6.238416e-07 -2.2647768e-07 -1.0561067e-07 -3.9066407e-07 2.9934859e-07
-2.2534759e-07 6.160174e-07 -1.9353731e-06 -9.1218375e-08 1.646891e-06 -2.7466956e-06

model.classifier.1.weight f4 [5, 30]
00000000: 2511 b73d 1497 5c3e 06a4 71be 9338 54be
00000010: 23e3 c03e 425c a1be d642 7e3e c6f7 b43e
00000020: 1f7c 93bd b01a bdbe 79cd 02be 0d2d 243e
00000030: 97f1 073e bab3 873d 7724 90be 8ce9 223e
00000040: e087 1dbe 497a d93e 0f9b 0cbd 0c23 f5bd
00000050: 662e 723e 4a1b 41bd 0ba6 ab3e 7635 863e
00000060: 4694 8b3d bcd4 703e 0e3d 4c3d e3ba a13e
00000070: e055 e43d 7f05 52be 4803 1abd 66bf 2c3e
00000080: 3455 933e 4e0c 69be 70bf b6be e976 b23e
00000090: 2df0 9a3e f02a 1e3e 1f41 c0be 4103 b6be
000000a0: 8254 9c3e 6e5c 75be 2909 3b3d fcf2 9a3d
000000b0: 2625 4cbe 8f68 c1be 985a 59be bdab 873e
000000c0: 8b7b b73e a67c e6bc 5f76 8e3d 7839 963e
000000d0: 87bc ccbe aa56 f0bc a59b 48be 49ec 893e
000000e0: 7aab d0be 7d75 aebe d8ce 893e 8753 c3be
000000f0: ff89 413d d744 05be a9c5 213d 1fb8 8d3e
00000100: 250f d9bc f726 813d 6c30 583d 0ac5 32be
00000110: 307c 56bc 9e5c a93d 0c3c 0f3e 3c7c 9cbd
00000120: 029a eebd 820b 5f3e 4e8d 003e 9849 163e
00000130: efd7 263e e081 56be cd83 5ebe 7957 5f3e
00000140: 3d8b 3d3e cf47 abbc 49b7 72bd 0365 78be
00000150: b72a eabc 86dd 81be b235 3abb d4db 5bbe
00000160: a8e8 09bc 6273 f73d 0c70 6a3e ce47 7ebe
00000170: b49f b13d ffbd bc3d b184 0dbe 2f1c 5bbe
00000180: 4a5c 91be 932a b4bc 9f54 133e e108 ea3d
00000190: 4ecc ebbd 433d 713e cc08 54be be8d 39be
000001a0: 3308 26be 82f4 3dbe 8132 763e fac0 883d
000001b0: 3336 983e 7e6a 673d 7c73 11be d5ab 8ebe
000001c0: 7ee0 0abe c126 853e 9e7f 6bbe e4ca e9bd
000001d0: a905 723e de7b 463e f1c9 31be 2a76 13be
000001e0: 98f0 b5be b86c 373e 63c0 18be f020 37be
000001f0: 797d fa3d 0504 2d3e 168d eabd d0cf d6bd
00000200: cb4b 083e 8dd7 803e 7d80 15be d8a1 02be
00000210: 72ec 813e c617 42be 57b8 ae3e 2644 ef3d
00000220: e5db 71be 45bd 8ebe 5cf5 61be 7e2c 7cbe
00000230: 07d7 a4be 402a 413e e555 5d3e bfb3 0dbe
00000240: d344 b73e 210d fc3d d27d 27bd 439f 233d
00000250: 06ed 23bd 7e30 c33e
0.08938817 0.21542007 -0.23597726 -0.20724706 0.37673292 -0.315157 0.24830183 0.35345286
-0.072014086 -0.36934423 -0.12773694 0.1603281 0.13275753 0.06626077 -0.2815282 0.15909404
-0.15383863 0.4247611 -0.034327563 -0.11969575 0.23650512 -0.047145166 0.33525118 0.26212662
0.0681539 0.23518652 0.049862914 0.31587896 0.11149192 -0.20509909 -0.037600785 0.16869888
0.28775942 -0.227586 -0.3569293 0.34856346 0.30261365 0.15446067 -0.37549683 -0.35549358
0.30533224 -0.2396104 0.045663033 0.07565877 -0.19936046 -0.37775084 -0.21225965 0.26498213
0.35836443 -0.028135609 0.06956171 0.2934072 -0.39987585 -0.0293382 -0.19590624 0.26938084
-0.40755826 -0.3407401 0.26915622 -0.38149664 0.047250744 -0.13014542 0.039495144 0.27679536
-0.02649648 0.0630626 0.052780554 -0.17457977 -0.013091132 0.082696185 0.1398775 -0.07640883
-0.116504684 0.21781734 0.12553903 0.14676511 0.1629331 -0.20947981 -0.21729966 0.21810712
0.18510146 -0.020908264 -0.059256826 -0.24257283 -0.028584821 -0.2536432 -0.0028413353 -0.21470577
-0.008417286 0.120825544 0.22894305 -0.24832079 0.08673039 0.092159264 -0.13820149 -0.2139747
-0.28390723 -0.021992957 0.14387749 0.11427475 -0.115135774 0.23558526 -0.2070648 -0.18120477
-0.16214065 -0.18550304 0.24042703 0.06677432 0.2972885 0.056498043 -0.1420421 -0.27865472
-0.135622 0.2600613 -0.22997901 -0.114156514 0.23634972 0.19383189 -0.17362191 -0.14400545
-0.3553512 0.17912567 -0.1491714 -0.17883658 0.12230963 0.16896065 -0.11452691 -0.10488856
0.13310163 0.25164452 -0.14599796 -0.12757051 0.25375706 -0.18954381 0.34125015 0.1168292
-0.2361904 -0.27878776 -0.22066253 -0.24626347 -0.32195303 0.18863773 0.21614797 -0.13838099
0.35794696 0.12307192 -0.040891476 0.039946806 -0.040020965 0.38122934

model.classifier.1.bias f4 [5]
00000000: 5db3 0eb5 8b03 0d34 7cf2 ebb5 cc22 6035
00000010: 289a 0834
-5.316013e-07 1.3132937e-07 -1.7579437e-06 8.349714e-07 1.2722069e-07

exp_avg f4 [30, 30]
00000000: 0af9 4fb6 6682 2fb7 6309 8536 f7fc 7c37
00000010: f151 23b7 1716 46b7 209f 8d37 7a8d 2b34
00000020: 6897 39b7 8b41 7336 db43 8537 423b 7236
00000030: d7de e5b5 d693 5336 2e59 7d37 7c67 2836
00000040: 9c7c 7db4 4a07 7fb6 7e4f 9236 eef9 9bb6
00000050: d012 cf36 9c6e 3c34 415e f836 34b0 04b7
00000060: 51e2 d6b5 fa16 43b6 efd1 e936 d4d4 89b7
00000070: e050 0837 fe59 b336 79fb 0137 da20 6037
00000080: ee52 4ab6 ea9b 75b7 2636 a537 d5aa 4e37
00000090: 6d83 a4b7 17f1 8636 1a77 8637 0f39 0db6
000000a0: 6c5f 42b7 b371 4ab4 a5b8 0237 9fbc 53b5
000000b0: da64 3db7 3a5f d1b5 f8c8 ccb6 0633 df36
000000c0: 1e81 beb6 551b d935 6905 cfb6 2f48 cbb5
000000d0: 1a47 fab6 b61c 4537 c11b 9536 4787 c836
000000e0: 7083 2cb7 c6d6 a637 3a44 44b7 8fde 8db6
000000f0: 734f 4037 2edc 94b6 aa4f 3a37 f2ec 82b6
00000100: a9aa 2737 11c6 0937 9ca8 16b6 a0a4 3d37
00000110: fa14 15b5 c824 1437 d42b 9037 bcf3 1837
00000120: 036f e437 14e8 ab35 0da7 5e37 ac61 ef36
00000130: 4575 70b7 559a 7737 933f d3b6 3882 23b6
00000140: 8f63 6836 02c2 b436 7009 3437 3fd0 c9b5
00000150: b555 7637 b3f7 9a37 23a1 81b7 7429 64b6
00000160: 71bf ccb6 cb71 3737 6543 63b7 9b46 11b7
00000170: 7442 7d36 b563 edb6 816f beb7 c701 b9b6
00000180: fc19 c936 c24d 27b7 ca50 89b7 dd0e 5db6
00000190: ac35 00b7 ed32 c7b6 be1f b5b6 3de9 dbb6
000001a0: e794 a0b6 1703 62b6 817a 6337 ab61 8fb4
000001b0: b142 7f36 b9d3 7f36 1861 db35 c9d5 7236
000001c0: 634e 9f36 83ef 5fb7 173a b2b6 3350 31b7
000001d0: 2184 0037 8e4e 83b5 960d 3a37 f0d1 8fb5
000001e0: b00f 83b7 54bd e036 039c 5eb7 c3bf c134
000001f0: 7680 4bb7 5c38 20b7 05a3 44b4 698d 7db7
00000200: 056e 6335 3fda 4bb7 e6d1 d2b7 3483 48b7
00000210: a4bf 0ab8 ab4e 3ab6 93f0 a1b7 bca1 27b7
00000220: 236e 9e37 25a3 8bb7 a4b4 ff36 cbab 6c36
00000230: afe1 abb6 49f8 deb6 97f6 64b7 ee1f e335
00000240: 29ec 9ab7 4990 cdb7 a891 9e37 297a 1c37
00000250: eb92 ff36 5d28 75b7 5574 6137 0e04 0b37
00000260: 350f 1a37 1a97 00b8 0560 ae37 403d d037
00000270: f1eb ddb7 e5e3 2937 de8b 3537 804d 7f36
00000280: ad56 b4b6 6a11 8136 906d 1138 aed1 aeb6
00000290: 6c71 02b7 ad03 5336 acb0 58b7 dee3 c937
000002a0: dd59 54b7 2d02 9236 baf8 9ab6 5401 ec36
000002b0: 6645 5b36 eaeb c336 5dc9 9837 b564 b737
000002c0: 0433 dcb7 ab13 b937 9447 83b7 880d 9336
000002d0: 6dec 0337 74a0 5537 8b7f e336 a66b 15b8
000002e0: b245 b337 f997 aa37 cb88 feb7 e1ed c036
000002f0: 0bc2 4b37 0fda 78b5 2b17 7cb7 5f23 8035
00000300: 9dee ef37 a265 deb6 84bd 66b7 328e b7b5
00000310: 8e8d 0cb7 ed01 be37 d8a5 2db7 bc88 7036
00000320: 5273 deb6 2f73 9136 a7f2 95b5 0c1d e836
00000330: edbf 5537 8f39 4537 8b97 aeb7 6e78 0d38
00000340: 9ecd 5fb7 e2e6 8bb5 0dea f336 fd02 9536
00000350: 1d1d bab5 cae2 dd36 4c15 6e37 7b44 e2b4
00000360: 59e3 b2b5 b774 ca36 0ee1 1337 7b9f 1536
00000370: d792 f636 2b8a 9e36 5e0f 5636 d71a a936
00000380: 6320 cc36 d8c7 e835 f248 13b7 23c6 c4b3
00000390: 51b2 8eb5 3d3a 8fb6 17ca f533 879c 4db6
000003a0: 6cb9 fab5 fbb6 f236 d995 1f36 6e6c 8836
000003b0: 92a2 2db6 1b06 1235 21d4 aeb6 c805 8635
000003c0: e3b6 5ab7 7855 e4b6 94b3 21b7 48b9 c237
000003d0: 4fa9 b7b7 bc7c 95b7 d599 af37 99f5 39b7
000003e0: 2176 20b7 141e 97b6 a923 56b5 58f8 d4b6
000003f0: ea52 0bb8 4eed 2836 1791 5435 e321 6bb6
-3.0990363e-06 -1.0461174e-05 3.9648016e-06 1.5079268e-05 -9.734636e-06 -1.1806863e-05 1.6882608e-05 1.5977085e-07
-1.1062111e-05 3.6247973e-06 1.5886433e-05 3.6095303e-06 -1.7126684e-06 3.1527502e-06 1.5100739e-05 2.5094187e-06
-2.3607794e-07 -3.8002204e-06 4.360393e-06 -4.6484556e-06 6.171271e-06 1.7549104e-07 7.4019486e-06 -7.908839e-06
-1.6010109e-06 -2.9070638e-06 6.9683806e-06 -1.6430778e-05 8.125062e-06 5.345092e-06 7.74755e-06 1.3359089e-05
-3.0148617e-06 -1.46394395e-05 1.9694748e-05 1.2318332e-05 -1.9611523e-05 4.0215778e-06 1.6029506e-05 -2.104385e-06
-1.1585518e-05 -1.885408e-07 7.791595e-06 -7.8878105e-07 -1.1288759e-05 -1.5599428e-06 -6.1030696e-06 6.651858e-06
-5.6774725e-06 1.6175715e-06 -6.1697106e-06 -1.5145687e-06 -7.458858e-06 1.17488e-05 4.443777e-06 5.976213e-06
-1.0282602e-05 1.9888754e-05 -1.1698396e-05 -4.2280367e-06 1.146259e-05 -4.436376e-06 1.1105012e-05 -3.901886e-06
9.993711e-06 8.211952e-06 -2.2449885e-06 1.1303608e-05 -5.553735e-07 8.830051e-06 1.7186547e-05 9.116655e-06
2.7231412e-05 1.2808036e-06 1.3271126e-05 7.1341256e-06 -1.4332419e-05 1.47582805e-05 -6.295691e-06 -2.436469e-06
3.4628645e-06 5.3870035e-06 1.0731033e-05 -1.5036275e-06 1.4682698e-05 1.8473575e-05 -1.5453033e-05 -3.3998776e-06
-6.1019605e-06 1.09341445e-05 -1.3545946e-05 -8.659113e-06 3.7738619e-06 -7.074758e-06 -2.2701688e-05 -5.5136366e-06
5.993292e-06 -9.97208e-06 -1.6369293e-05 -3.2940218e-06 -7.641891e-06 -5.9365907e-06 -5.3979156e-06 -6.553861e-06
-4.785706e-06 -3.3678423e-06 1.3558777e-05 -2.6706888e-07 3.803678e-06 3.81212e-06 1.634503e-06 3.618525e-06
4.7476947e-06 -1.3347601e-05 -5.311576e-06 -1.0568695e-05 7.660158e-06 -9.783123e-07 1.1089627e-05 -1.071543e-06
-1.5623722e-05 6.697761e-06 -1.3268555e-05 3.6088576e-07 -1.21296525e-05 -9.549865e-06 -1.8313229e-07 -1.51129e-05
8.472419e-07 -1.2150557e-05 -2.5131692e-05 -1.1951477e-05 -3.3080243e-05 -2.776195e-06 -1.9304722e-05 -9.991632e-06
1.8886354e-05 -1.6646061e-05 7.6206215e-06 3.5266737e-06 -5.12247e-06 -6.6450198e-06 -1.3647273e-05 1.6922111e-06
-1.8468201e-05 -2.4505092e-05 1.8902894e-05 9.326767e-06 7.6166957e-06 -1.4612536e-05 1.3438131e-05 8.28599e-06
9.182656e-06 -3.0658302e-05 2.0787129e-05 2.4824054e-05 -2.6455122e-05 1.0126246e-05 1.0821006e-05 3.8043072e-06
-5.3745084e-06 3.846527e-06 3.4672732e-05 -5.210014e-06 -7.775012e-06 3.144359e-06 -1.2915738e-05 2.4067176e-05
-1.2657108e-05 4.3513924e-06 -4.6185132e-06 7.0335027e-06 3.2673938e-06 5.838917e-06 1.821358e-05 2.1862195e-05
-2.62498e-05 2.2062877e-05 -1.5649748e-05 4.3825166e-06 7.863256e-06 1.2733148e-05 6.779975e-06 -3.5624624e-05
2.1370917e-05 2.0336347e-05 -3.0342859e-05 5.7497386e-06 1.2144922e-05 -9.2704516e-07 -1.5025765e-05 9.547038e-07
2.8602133e-05 -6.627947e-06 -1.3753193e-05 -1.3675947e-06 -8.3776085e-06 2.2650662e-05 -1.0350217e-05 3.5842377e-06
-6.6295406e-06 4.334746e-06 -1.1171986e-06 6.9175203e-06 1.27404755e-05 1.1755516e-05 -2.0812984e-05 3.372918e-05
-1.333971e-05 -1.0423503e-06 7.2692114e-06 4.440894e-06 -1.3866553e-06 6.612715e-06 1.4190864e-05 -4.2145606e-07
-1.33282e-06 6.0336565e-06 8.814282e-06 2.229556e-06 7.3484657e-06 4.724852e-06 3.189743e-06 5.039717e-06
6.083444e-06 1.7343509e-06 -8.778867e-06 -9.163002e-08 -1.0631721e-06 -4.268512e-06 1.14454615e-07 -3.0638491e-06
-1.8680416e-06 7.2334637e-06 2.378007e-06 4.0657387e-06 -2.5873637e-06 5.4398123e-07 -5.210299e-06 9.98546e-07
-1.3036394e-05 -6.8048794e-06 -9.638159e-06 2.321288e-05 -2.189414e-05 -1.7820268e-05 2.093326e-05 -1.1084042e-05
-9.564247e-06 -4.5036522e-06 -7.9773105e-07 -6.3470034e-06 -3.3217402e-05 2.517208e-06 7.918729e-07 -3.5037453e-06

exp_avg_sq f4 [30, 30]
00000000: 5805 0130 f9fb b12f ea07 2c30 6e80 0730
00000010: 7ec0 5b30 119b 0730 9a45 bd2f 9be6 3630
00000020: 82b7 4c2f 50b1 642f 31f8 8130 086b 862f
00000030: 4380 5030 0122 c42f 12dd 0730 ed58 2130
00000040: e65c e02f 3d25 872f 5d23 b72f 8aa6 a62f
00000050: c84c ba2e a956 c930 51cf 8f2f 060f 2c2f
00000060: 583e cd2f 50eb 0731 cb35 6130 10a0 cf30
00000070: f7a4 692f dbbc 132f 3a90 e22f b18d fa2f
00000080: 9444 3530 97ce 0631 e3c2 c830 3b83 c02f
00000090: 1904 0f30 63d4 532f a5b2 7c30 21de 2f2f
000000a0: c619 6230 8b40 682f f9c2 8530 0557 1030
000000b0: 9833 1230 a48c d22f fbe7 3c2f 7025 5930
000000c0: 5d6c 022f b53b ee2f e407 112f ed46 2930
000000d0: e648 6230 ed54 f42f d053 862f c12c 3d30
000000e0: 6be7 2530 1d62 8c30 f7a9 ef2f d2ca 442f
000000f0: eacb e82f 28c2 8e2f cc02 3030 69e3 2c30
00000100: f5b0 8730 9f95 f22f 3155 d52f 56c8 aa2f
00000110: 8154 ae2f 3222 e32e e673 d22f f7e9 be2f
00000120: 1816 9a30 8d48 6a2f f789 ab2f becd be2f
00000130: ec91 792f d955 0830 5693 fa2e 5056 c22f
00000140: fd15 432e c7c4 d62f 1069 0f30 0268 592f
00000150: ff91 c42f aa27 7b30 fa87 0130 69d9 4b30
00000160: be5f a72f 7a30 ac2f a4d0 af30 6bf4 df2f
00000170: 2d33 ff30 4fa9 cc31 4b03 6331 fdb9 3e30
00000180: 00bd 2f30 3da3 622f 45a8 0031 d89b d72e
00000190: 70b1 b330 60cf ee2f f2b4 fe30 5a03 e230
000001a0: 8c45 9e2f 1ed8 d02f 54d2 ec2f 11ba e230
000001b0: e7eb 712f c1c8 6330 aea7 092f c467 a730
000001c0: 0ae5 4530 0b35 2030 320b 0c30 2531 8130
000001d0: 578c 9130 15b1 b330 5163 a930 21e3 232f
000001e0: 3969 0e30 54b9 1930 b33e b030 4b13 9130
000001f0: d06d f530 642a 0b30 bb2f 4c30 98e1 d22f
00000200: e693 1230 a4f6 502f 7706 5f30 4e19 5c30
00000210: 250b f130 ca9e e62f 9196 2230 1b01 1830
00000220: 7189 ac2f 0f55 6930 838d 2b2f 6fd2 4330
00000230: bf66 b02e fee5 4730 f929 a230 6b0c d02f
00000240: dc9b 2130 6ad5 9c30 0503 2630 f92e ca30
00000250: ef95 fe2f beaf 3030 b37a db2f d5f5 2d30
00000260: 0de8 9930 2130 b930 9f68 2131 142d d72f
00000270: 7cfd bb30 6d77 a22f 86ea 3430 9895 492f
00000280: 75aa bf30 fe18 3830 5c77 ba30 b08e 0b30
00000290: 3475 ef2f 2cae de2f 7362 ac2f 01f5 5230
000002a0: e061 7b2f c863 4330 e163 162f 2e80 e930
000002b0: 07e9 3630 acf8 f02f f139 df2f 4c61 6530
000002c0: 9140 ec2f 1353 2f31 f639 6230 9333 c02f
000002d0: 27bf 2930 b317 3330 c39f 6130 79c8 5130
000002e0: 9063 9230 983f 9230 77a3 9330 15bf 812f
000002f0: 6d75 5e30 6edc 132f fb4c 7a30 19b9 ac2f
00000300: fc28 3130 b625 672f b330 0b30 5711 152f
00000310: 5be0 9a2f 0994 fa2f 4aca 802f 6be5 f12f
00000320: ba0f 0e2f ece2 ec2f eb02 8430 8dcd 5630
00000330: 289b a22f f46a 5a30 dac0 932f ed1d 5630
00000340: 8c94 6030 1804 592f a3f9 3830 009d f42f
00000350: f06e 9e30 e292 5d31 6f03 9b30 2d8c 0930
00000360: c16e 3430 2271 a52f 6d2a 9d30 f8fa d02e
00000370: 1c75 9130 d712 b92f 3fd0 af30 6b3e 2330
00000380: 24b4 5c2f 349c 952f 4a59 2b30 d2f5 9f30
00000390: dd7d 922f 0345 8130 8f8e 962e 5226 9730
000003a0: b625 9130 b44d 1830 88bb ef2f c69a 5030
000003b0: 44f6 d72f b8ad c030 ea76 3130 9768 832f
000003c0: 00bd 1a30 a8da 9f2f 1e6a 0d30 32f7 1230
000003d0: 3779 e030 a45f 7430 a1ee 2430 b097 af2f
000003e0: 29e6 6130 b5ea 6c2e 82fb 932f 19fd 412f
000003f0: 9278 4e30 f62b 8d2f 21bb 4d2f dfe6 032f
4.693752e-10 3.237515e-10 6.258448e-10 4.9295223e-10 7.9945284e-10 4.9333077e-10 3.4428355e-10 6.6538924e-10
1.8618887e-10 2.0799473e-10 9.456526e-10 2.4450508e-10 7.585223e-10 3.5676354e-10 4.9426874e-10 5.869783e-10
4.081137e-10 2.4582816e-10 3.3312633e-10 3.0313557e-10 8.47194e-11 1.4649305e-09 2.6158856e-10 1.5648646e-10
3.733358e-10 1.9778845e-09 8.193097e-10 1.5106725e-09 2.1249834e-10 1.3436667e-10 4.121164e-10 4.5575413e-10
6.594487e-10 1.9617e-09 1.4607305e-09 3.5017841e-10 5.202892e-10 1.9265793e-10 9.1930935e-10 1.5995073e-10
8.225495e-10 2.1123207e-10 9.732438e-10 5.2510557e-10 5.318781e-10 3.829871e-10 1.7180916e-10 7.899734e-10
1.186193e-10 4.3334372e-10 1.3190476e-10 6.1582633e-10 8.2321916e-10 4.4443685e-10 2.443401e-10 6.88214e-10
6.0355515e-10 1.0214226e-09 4.3594614e-10 1.7898152e-10 4.2345444e-10 2.5967606e-10 6.40324e-10 6.2896405e-10
9.872837e-10 4.4125856e-10 3.8805006e-10 3.1065167e-10 3.171046e-10 1.0328839e-10 3.8281128e-10 3.472704e-10
1.1211254e-09 2.1307951e-10 3.120275e-10 3.4706987e-10 2.269826e-10 4.959851e-10 1.1394856e-10 3.5349723e-10
4.4357396e-11 3.9066192e-10 5.21724e-10 1.9772986e-10 3.575593e-10 9.1369634e-10 4.712316e-10 7.415993e-10
3.0445152e-10 3.1321062e-10 1.2792225e-09 4.0737133e-10 1.8568237e-09 5.9564296e-09 3.303472e-09 6.93859e-10
6.3933214e-10 2.0612574e-10 1.8722102e-09 9.8047515e-11 1.3074395e-09 4.3439297e-10 1.853236e-09 1.6444617e-09
2.8789449e-10 3.798854e-10 4.3077597e-10 1.6496547e-09 2.2002632e-10 8.286741e-10 1.2519649e-10 1.2180341e-09
7.1993667e-10 5.828304e-10 5.0947613e-10 9.399953e-10 1.0590026e-09 1.3074294e-09 1.2324596e-09 1.4905456e-10
5.180883e-10 5.5924443e-10 1.2823506e-09 1.0555622e-09 1.7857307e-09 5.0628146e-10 7.4282597e-10 3.8359071e-10
5.3324667e-10 1.9005114e-10 8.1136114e-10 8.0071494e-10 1.7538225e-09 4.1949583e-10 5.9149224e-10 5.529885e-10
3.1384276e-10 8.488578e-10 1.5602634e-10 7.123963e-10 8.021805e-11 7.2722617e-10 1.1798981e-09 3.7843803e-10
5.879295e-10 1.141115e-09 6.039474e-10 1.4710785e-09 4.6308865e-10 6.427817e-10 3.992305e-10 6.328638e-10
1.1198168e-09 1.3474201e-09 2.3488054e-09 3.9140302e-10 1.3678085e-09 2.9552485e-10 6.5816896e-10 1.833399e-10
1.3945526e-09 6.6974326e-10 1.3567205e-09 5.0770677e-10 4.3557125e-10 4.050532e-10 3.135657e-10 7.6745726e-10
2.2863089e-10 7.1082384e-10 1.3677905e-10 1.6989412e-09 6.6542366e-10 4.3832438e-10 4.0604634e-10 8.344798e-10
4.2974027e-10 2.5513074e-09 8.230069e-10 3.4961242e-10 6.1753486e-10 6.51535e-10 8.208156e-10 7.6318646e-10
1.0651195e-09 1.0640973e-09 1.0742117e-09 2.3600735e-10 8.093e-10 1.3447884e-10 9.1058866e-10 3.1418138e-10
6.4450467e-10 2.1022725e-10 5.063711e-10 1.3557631e-10 2.817185e-10 4.557992e-10 2.34268e-10 4.4000656e-10
1.2920412e-10 4.3089388e-10 9.605093e-10 7.814485e-10 2.9577873e-10 7.945993e-10 2.6876174e-10 7.7895274e-10
8.1701823e-10 1.973749e-10 6.7293565e-10 4.4494897e-10 1.1527543e-09 3.2243226e-09 1.127871e-09 5.003951e-10
6.564101e-10 3.009371e-10 1.1435312e-09 9.503326e-11 1.0583423e-09 3.366469e-10 1.2792113e-09 5.9387756e-10
2.0072882e-10 2.721393e-10 6.2336325e-10 1.1638639e-09 2.6646677e-10 9.4056e-10 6.846534e-11 1.0997587e-09
1.0560857e-09 5.54077e-10 4.3607096e-10 7.5889905e-10 3.9283254e-10 1.4019212e-09 6.456121e-10 2.3903077e-10
5.629346e-10 2.9077296e-10 5.14463e-10 5.3465776e-10 1.6332596e-09 8.8902596e-10 6.0001965e-10 3.1940095e-10
8.21816e-10 5.386865e-11 2.691785e-10 1.7643166e-10 7.5113704e-10 2.5678987e-10 1.8711123e-10 1.1996402e-10

exp_avg f4 [30]
00000000: 3287 0c2c 2c51 2cad 92f9 c9ac c409 092e
00000010: 3cf4 132d e455 05ad ee71 f6ad 62d0 95ad
00000020: dfa8 7d2d 5505 712d 0689 ce2b 65c7 242d
00000030: 295d 6aad ce11 ccac 886f a12d 1ad6 982d
00000040: 6307 022e 8427 b5ad 1bda c6ad c99c 632d
00000050: 90ac bcac e08b 00ae ebff dd2c 639f 0ead
00000060: 88ef f12b bf84 06ae bfa7 1b2e bb41 1b2d
00000070: be31 7bad 1eea 012e
1.9970245e-12 -9.795092e-12 -5.7404715e-12 3.1158867e-11 8.4102135e-12 -7.579246e-12 -2.8017557e-11 -1.703188e-11
1.4418882e-11 1.3700448e-11 1.4675212e-12 9.366595e-12 -1.3322046e-11 -5.8000054e-12 1.835311e-11 1.737548e-11
2.956514e-11 -2.0594866e-11 -2.2606852e-11 1.2938269e-11 -5.3624397e-12 -2.9228064e-11 6.3096104e-12 -8.1071564e-12
1.7190563e-12 -3.0585975e-11 3.5391908e-11 8.825325e-12 -1.4278743e-11 2.9539142e-11

exp_avg_sq f4 [30]
00000000: f57a 0628 2aa8 6c28 5676 0428 8e2b 5325
00000010: 75e3 db26 3b15 3c26 e7f5 e227 1a7a 6927
00000020: ce4f ce24 acb0 8128 f1cf 8a28 57ec d626
00000030: 68bd 0028 d805 1925 b347 2a27 ccc3 0425
00000040: eeba ad27 d87a 8f28 5812 3528 46a6 f626
00000050: 21ea 1b28 61c2 a827 1ef8 4d25 116c 3b1f
00000060: ccf2 da27 adac 0626 a2f8 1223 ccac 9526
00000070: 4133 1d21 dcbe 5521
7.465156e-15 1.31370965e-14 7.353132e-15 1.831609e-16 1.525783e-15 6.5254375e-16 6.299421e-15 3.2401437e-15
8.9473453e-17 1.4398496e-14 1.5411258e-14 1.4913293e-15 7.146498e-15 1.3272615e-16 2.3631107e-15 1.1515514e-16
4.8219815e-15 1.5929464e-14 1.0051496e-14 1.7114748e-15 8.654997e-15 4.6840113e-15 1.7864981e-16 3.968818e-20
6.0770396e-15 4.672461e-16 7.967326e-18 1.0385789e-15 5.3261503e-19 7.2419807e-19

exp_avg f4 [5, 30]
00000000: c0cd f7b5 ba63 ed35 42fb 23b5 1de0 07b6
00000010: 1eae 8e33 2919 a135 f354 cf34 bf8f 1735
00000020: d3c4 c5b3 a766 aab4 7f4d 19b5 6201 35b5
00000030: 5002 ff35 c6e0 adb5 d6bf fb34 57af a3b4
00000040: 6082 0fb6 9321 0434 9cb1 3a34 94e2 04b6
00000050: 737d eab5 4171 cd35 6115 d134 aa58 f732
00000060: 6236 d035 a836 f935 ed4d 85b5 2b20 20b4
00000070: 5a3d f934 1f36 ad34 444e 30b8 8680 0438
00000080: fa9d 9db8 688c ccb7 8618 c138 2b9c 27b8
00000090: 7ab1 c7b7 004f 2536 8862 5638 1011 2738
000000a0: 1bc4 89b8 bc51 a737 5628 4638 c236 fcb7
000000b0: 1c6b 4138 57e5 9638 49ec f9b7 e00b f9b7
000000c0: 3e40 9cb8 f7f0 42b8 1ac6 09b8 fc0e a8b6
000000d0: 401a e038 4a04 ed36 1d37 ab38 1ddb 7037
000000e0: c000 2338 d1b4 9538 4a9f b4b7 76fb a438
000000f0: 7949 9db7 7b1d 2838 5f95 9cb7 c4c1 71b8
00000100: 00b3 c037 50a0 12b7 1984 5137 62af 1e38
00000110: 7f8e efb6 0221 e6b7 6af9 b3b7 bf96 a136
00000120: 9fa7 0f38 d61e e0b7 c858 92b7 7927 20b7
00000130: e4f8 38b8 0dc7 2538 7ce7 9e37 4fa5 37b8
00000140: 0d6a b0b7 339d 8a37 16fb e537 941e 0c38
00000150: f624 ac37 095c 6538 6346 1fb7 61b9 1338
00000160: 96d4 6737 c138 7bb7 2f9d 68b8 8787 5a38
00000170: 9c96 72b7 82af 69b7 a83d b937 a840 7c38
00000180: 865a 8338 ecf3 aab6 f993 08b8 5f79 92b7
00000190: b4bb 0538 d8e9 7eb8 62bb 3938 ac85 3438
000001a0: f280 4138 2036 2838 a40a 58b8 e0c9 eeb7
000001b0: 418e 91b8 e459 05b7 ef6d f437 dd3f 8d38
000001c0: 6892 b737 d247 94b8 0e1e 5938 2fab 9d37
000001d0: b8ad 72b8 36f0 70b8 ce38 2238 6a08 2538
000001e0: 971e 8bb7 c290 f136 7112 04b7 9831 c7b6
000001f0: d309 eb36 f31b f436 cafd cab6 79cf dfb6
00000200: 31f5 fb36 4c27 6537 1d5b ecb6 e02f c3b6
00000210: a941 3d37 38c0 02b7 b336 9537 1ad6 0437
00000220: 2d5c 20b7 4466 82b7 9c1a 5fb7 8fd7 2bb7
00000230: 8819 70b7 5c99 0537 e57f 3f37 2f1b 08b7
00000240: f111 9437 cb58 5c36 6158 07b5 f11b e335
00000250: 357a 47b6 b16e aa37
-1.8462815e-06 1.76869e-06 -6.108786e-07 -2.0247019e-06 6.644062e-08 1.2002757e-06 3.8618563e-07 5.646106e-07
-9.2093295e-08 -3.1739657e-07 -5.7109713e-07 -6.7429767e-07 1.8999654e-06 -1.2954922e-06 4.6891972e-07 -3.0488692e-07
-2.1384549e-06 1.2305672e-07 1.7387214e-07 -1.9801419e-06 -1.7470869e-06 1.5306651e-06 3.894484e-07 2.8794904e-08
1.5513035e-06 1.8567853e-06 -9.931952e-07 -1.4912864e-07 4.6424503e-07 3.226314e-07 -4.203456e-05 3.159095e-05
-7.515769e-05 -2.4384077e-05 9.207525e-05 -3.9961345e-05 -2.3805293e-05 2.46329e-06 5.111334e-05 3.9831793e-05
-6.5691966e-05 1.9946012e-05 4.7244444e-05 -3.006624e-05 4.611454e-05 7.195275e-05 -2.9793142e-05 -2.9688643e-05
-7.450626e-05 -4.647762e-05 -3.284784e-05 -5.0085346e-06 0.00010686042 7.0636497e-06 8.164181e-05 1.4356131e-05
3.8862927e-05 7.138553e-05 -2.1531847e-05 7.866968e-05 -1.8750072e-05 4.0081777e-05 -1.8666206e-05 -5.7639336e-05
2.2971537e-05 -8.739604e-06 1.2488127e-05 3.7833473e-05 -7.139344e-06 -2.7433507e-05 -2.1454605e-05 4.815723e-06
3.4249966e-05 -2.671724e-05 -1.7445898e-05 -9.545934e-06 -4.4100816e-05 3.9524446e-05 1.8942861e-05 -4.3784556e-05
-2.1030219e-05 1.6524084e-05 2.7415848e-05 3.340708e-05 2.0521209e-05 5.468357e-05 -9.493527e-06 3.522018e-05
1.38181695e-05 -1.497398e-05 -5.54595e-05 5.210147e-05 -1.44593905e-05 -1.3928746e-05 2.208243e-05 6.0141698e-05
6.263428e-05 -5.094791e-06 -3.2562737e-05 -1.7461074e-05 3.1884483e-05 -6.0776103e-05 4.428195e-05 4.3039836e-05
4.6134875e-05 4.010473e-05 -5.1508323e-05 -2.8465816e-05 -6.940636e-05 -7.948347e-06 2.9138258e-05 6.7352994e-05
2.1883476e-05 -7.0705675e-05 5.1764822e-05 1.8795572e-05 -5.7859084e-05 -5.7444173e-05 3.8676713e-05 3.93469e-05
-1.6584336e-05 7.1992117e-06 -7.872107e-06 -5.9364356e-06 7.0046895e-06 7.2750204e-06 -6.049614e-06 -6.670071e-06
7.508927e-06 1.3658613e-05 -7.043955e-06 -5.8170262e-06 1.1280566e-05 -7.793358e-06 1.7787655e-05 7.9176625e-06
-9.5582045e-06 -1.5544829e-05 -1.3298031e-05 -1.0242583e-05 -1.4311059e-05 7.9631245e-06 1.1414265e-05 -8.112561e-06
1.765133e-05 3.283424e-06 -5.042003e-07 1.692095e-06 -2.9724445e-06 2.0317124e-05

exp_avg_sq f4 [5, 30]
00000000: 3b4e 6831 0b35 6c31 3e6d 0331 2d60 2231
00000010: ea22 9e31 5a10 cd31 fc2f 8f31 b856 b031
00000020: 9b70 ad30 29b8 e531 d7f1 9230 4d0d 5a31
00000030: 0a27 1231 2b03 4930 48ac ce31 ea4a e130
00000040: c759 4f31 14de 1b32 7a66 5231 aa03 8030
00000050: 5f50 3831 5402 5831 3b97 8431 2e26 b631
00000060: 507c 3031 1141 4a31 4cfe 1b31 ec90 a331
00000070: ffaa c530 78a4 aa31 9e89 f330 9eaa 4f31
00000080: 2d99 8f31 d672 8531 2dbd e831 33eb ce31
00000090: f4bb 9831 22ba 2431 be31 c231 8bf1 df31
000000a0: cd2e 8931 3481 4b31 20af eb30 02bb 1d30
000000b0: 1649 6131 449f d631 af7a 8131 7742 af31
000000c0: f0cd d731 ea6d b530 94fb 9130 e3b8 9731
000000d0: 31a7 0c32 377d bf30 516f 6631 a51e 9e31
000000e0: e8e8 eb31 3151 c531 8a0b 5831 d6d4 fb31
000000f0: 4e0c 1f31 5a65 f131 40ec 0a31 fad8 cf32
00000100: d429 5331 8d79 d430 581a e630 ef94 0b32
00000110: a3dc aa2f d686 4531 a72a c731 6fa8 b530
00000120: 4512 cf31 37d8 8132 6c31 7931 91fb e331
00000130: 92df 2e32 43d0 3332 425d 5832 bfbd 8832
00000140: ef0a 6a32 5725 7d30 60a3 8c31 aefa 6f32
00000150: 2af7 2031 250f aa32 0d00 952f b05e 5132
00000160: 52b6 fa2f ec4c 7031 65f6 5231 f407 7931
00000170: 9ce2 8930 422c 9330 c462 1531 22ed 6431
00000180: 3537 9731 c447 4230 7a7d 8f30 d6ed 7c30
00000190: 2dc8 a130 009c 6f31 6f57 3231 d665 1a31
000001a0: 4bc7 1431 15da 3431 339a 6631 5738 b930
000001b0: c922 d031 5c11 2a30 01ba b430 85b0 9531
000001c0: fbb1 1431 4320 ae31 9618 6631 f24a a730
000001d0: 2021 5831 4258 6e31 72df db30 942f f730
000001e0: cd26 1a32 1bb5 7031 7513 1e31 1f36 9131
000001f0: 36bb 4c31 8a8f 7431 ceab 9f30 7188 1031
00000200: e547 8330 e03f a731 da03 f030 7807 ec30
00000210: 405d b431 95d4 4431 503d 0a32 5251 c430
00000220: 4e38 b431 5144 de31 7317 6531 ed2a b631
00000230: 88dc 0532 3c5a 5231 5a60 a431 866b 1e31
00000240: 5229 1632 05b8 4731 1fe0 1130 9f18 f230
00000250: 749c 612f 7cf0 1f32
3.3804912e-09 3.4372671e-09 1.9125106e-09 2.3628772e-09 4.6023745e-09 5.968144e-09 4.167303e-09 5.132133e-09
1.2619411e-09 6.6857138e-09 1.0691633e-09 3.1730736e-09 2.1267987e-09 7.3127876e-10 6.014975e-09 1.6392196e-09
3.0173497e-09 9.072682e-09 3.0617273e-09 9.314267e-10 2.682121e-09 3.143346e-09 3.8588985e-09 5.3012377e-09
2.5682034e-09 2.9431855e-09 2.270002e-09 4.7604e-09 1.4382237e-09 4.966349e-09 1.771969e-09 3.021945e-09
4.179262e-09 3.883865e-09 6.7735955e-09 6.022128e-09 4.44515e-09 2.3970945e-09 5.651798e-09 6.5176144e-09
3.9925454e-09 2.9613831e-09 1.7148274e-09 5.738202e-10 3.2783354e-09 6.246326e-09 3.7683416e-09 5.1007265e-09
6.280736e-09 1.3200723e-09 1.0621641e-09 4.4156976e-09 8.1870875e-09 1.3932667e-09 3.353268e-09 4.601889e-09
6.8658785e-09 5.742685e-09 3.1438696e-09 7.329258e-09 2.314454e-09 7.0255455e-09 2.0215936e-09 2.4196641e-08
3.0728318e-09 1.5459577e-09 1.674219e-09 8.1247284e-09 3.1079592e-10 2.8743918e-09 5.7965113e-09 1.3217355e-09
6.02657e-09 1.51159e-08 3.6262362e-09 6.6351693e-09 1.0178967e-08 1.04665245e-08 1.2594059e-08 1.591877e-08
1.3623079e-08 9.2093927e-10 4.09311e-09 1.3968629e-08 2.342356e-09 1.9797492e-08 2.7102978e-10 1.2186931e-08
4.5604281e-10 3.4968322e-09 3.069908e-09 3.623879e-09 1.0032468e-09 1.0708237e-09 2.1738495e-09 3.3313161e-09
4.4009547e-09 7.0678774e-10 1.0440282e-09 9.201505e-10 1.1771185e-09 3.4867753e-09 2.595211e-09 2.2467836e-09
2.165012e-09 2.6317413e-09 3.3557057e-09 1.3476534e-09 6.0575513e-09 6.187031e-10 1.3149589e-09 4.3565387e-09
2.1638005e-09 5.0677342e-09 3.348338e-09 1.217215e-09 3.1450966e-09 3.4683727e-09 1.5997854e-09 1.7985138e-09
8.972802e-09 3.5027543e-09 2.3003086e-09 4.2262083e-09 2.9792324e-09 3.5588266e-09 1.1617602e-09 2.1032316e-09
9.551938e-10 4.8676014e-09 1.7463393e-09 1.7173383e-09 5.249291e-09 2.8642593e-09 8.046598e-09 1.428399e-09
5.2450906e-09 6.468817e-09 3.3337215e-09 5.3017772e-09 7.791762e-09 3.0610314e-09 4.783982e-09 2.3053146e-09
8.740544e-09 2.9062914e-09 5.306919e-10 1.7614815e-09 2.0519214e-10 9.309698e-09

exp_avg f4 [5]
00000000: a0be 0e2c 0495 72ae c768 992e a546 282e
00000010: d5ec 3c2e
2.0285232e-12 -5.5156782e-11 6.976247e-11 3.8261522e-11 4.29566e-11

exp_avg_sq f4 [5]
00000000: ae2d 4327 3c3c 3627 770b b425 fdba f127
00000010: 79db 2626
2.708645e-15 2.5290227e-15 3.1232791e-16 6.709367e-15 5.789026e-16
