tutorial/DLPFC_output/version_1/checkpoints/mlp.ckpt (torch, 18997 bytes, 12 tensors)

model.classifier.0.weight f4 [30, 30]
00000000: eb36 c83d e8a4 273e a834 e53d 2339 d93d
00000010: c14d 6b3e 4a58 283e f9a6 2b3e 3cc7 e5bb
00000020: a2b1 c33d afc6 283c 38b7 163e de96 93bd
00000030: a70a 4cbe e8af c83c c8bc 143e bb15 bfbd
00000040: 4b5a 103e 2859 8ebd 9d14 f4bc c3d6 4abd
00000050: b9ba 113e 4b01 a53c 8bc2 253d 219d 3e3d
00000060: 2229 e6bc b1a5 65bd d240 4dbe aafb c9bd
00000070: 6928 613d e12e 413c 9043 95bd 73cc 2fbe
00000080: 0d1d 09be 6147 0ebe fd37 35be 3c1e 15be
00000090: 818f 1dbe 2ef4 813d c44e 4ebd b998 ff3c
000000a0: 8562 d3bd 30d6 a2bb 95ac 3d3d 0311 9abd
000000b0: 6a60 f8bd 5450 ec3b ecb9 e7bd 216c d03d
000000c0: d2e9 663c a932 a93d 34c2 cebd 99f9 5f3d
000000d0: 277d 1abd 7a9b 6fbc 1104 123d 4695 513d
000000e0: ffc5 2e3e 8551 403d 5f32 dabd 746a f9bb
000000f0: 0580 debc 16c9 0abe 87b1 1bbe bc6b c6bd
00000100: e023 04be ff81 b8bd 192f 00be e76f d73d
00000110: 6b34 37ba 6fa6 003e 643b 96bb d1af d63b
00000120: 4322 d1bd 8ed6 f0bd e6ff 34bd 465f c1bc
00000130: 9497 41be 30c8 613c 016a b1bd 82cc f9bb
00000140: e1bd 803d a865 533e 7cd2 bd3d d9aa bebc
00000150: e238 263c 7e8b 0f3c 1cb1 943d f5e5 98bc
00000160: 01ec 22be fb72 26bc 2870 a6bd d51c cbbd
00000170: 56e3 7cbd d472 cabd 771c 58be 85a7 0abe
00000180: dfa2 d2bd bb62 fcbc ff13 07be 17fd fdbd
00000190: 2fb0 4dbe 32ca d33d 226a 9e3e f3d0 99bb
000001a0: 0db3 26be 74f1 193e db12 a03c e4f0 bf3d
000001b0: 5ce9 e93d 3ab4 273d 8a60 77be fea0 14be
000001c0: a1b4 a3bd 58fb 59bd 993d 3d3d e376 ac3a
000001d0: ae91 4e3e 2cdd bb3d ff8e 8f3d ed68 d63c
000001e0: 2ca6 563c 5a9f 5a3b b5f7 1e3d baca 893d
000001f0: a9f0 213d 3779 b73d 2c0e 9bbc 1d36 0bbe
00000200: d808 c6ba 4ddf 28bd d216 f0bc 5e13 b7ba
00000210: 557d cd3d 7601 253e 0505 293d 2fdb f6bc
00000220: 3fa9 1abe 5a07 68bd a594 a73c 0503 ab3d
00000230: 3095 863d f122 afbd 0621 babd cf9e 423d
00000240: c9a5 b9bc b5ea d13d 12e5 8fbc 2cea c13d
00000250: 9b55 a4bb 5099 cebd ffc7 8cbc a51e 28bd
00000260: fa4d 29bd 736a 03be 4479 95bd d349 62bd
00000270: 7694 dcbb 0390 bc3c 8d5b 92bd 2c42 14be
00000280: 4666 16be 5b84 97bc 974b fa3d 7275 6fbd
00000290: c839 e8bd 5f31 e43c 28e6 3b3e 7be7 1b3e
000002a0: b544 1f3e 906e ab3d 0fdc 6bbe 8854 07be
000002b0: b735 f6bd f0ce 0339 79cd 883d 10e5 f6bc
000002c0: 1a66 f43d c799 70bb 247e 993d 3496 523d
000002d0: e2f8 833d b11b 163e 23f7 0f3e 52a1 a03d
000002e0: c7a6 503e bacf 153e 44f5 1d3e f990 41bd
000002f0: 9135 783d 5077 4abd 7af9 a73d 66b9 f0bd
00000300: 18cd c9bd 6337 af3d 1861 d43d 5170 a5bd
00000310: 7e68 573e d8cb 84ba 11c9 693d 0976 363d
00000320: ed65 0e3d dd72 c9bd 6f22 a8bd 0a41 793d
00000330: f75f 11bc d8d0 b0bb 90b5 0dbe 5359 1cbd
00000340: 286b a83d 3e14 713b 9481 cb3d 4a94 a43d
00000350: 6295 093d a324 cc3c 8912 423e 3275 363e
00000360: f037 d33d 4625 3e3c 5d23 c83d 8217 383d
00000370: 4761 ec3d 0c4e 11be 9800 91be dedb d13c
00000380: c23b 093e fe12 29be ac35 f83c 996e 9cbc
00000390: f822 cabc f4f7 703d 4f97 353e 899c a13d
000003a0: 86cf 83bc 7f12 9d3d 2958 23bc a5a5 043c
000003b0: 9073 25be 46c9 adbd 4310 4abd 4bac 12bd
000003c0: b409 dd3d 1392 5ebd 433e efbd 882e b6bd
000003d0: 07ff 2d3d a3b2 253e 0d0d 94bc 9e5d 7e3b
000003e0: 9230 363d ca82 9a3b 4601 8abc bc9b e7bd
000003f0: 0c83 4ebe 1679 85bb ee26 763d cb18 43be
0.097761 0.163715 0.11191684 0.10606601 0.2297888 0.1643993 0.16762914 -0.007012276
0.09555365 0.010301276 0.1471833 -0.0720651 -0.19925939 0.024497941 0.1452514 -0.09330317
0.14096944 -0.06950599 -0.029794985 -0.04952122 0.14231385 0.020142218 0.040468734 0.04653657
-0.028095786 -0.05606622 -0.20044258 -0.09862454 0.05497018 0.011790962 -0.07288277 -0.17167835
-0.13389988 -0.13894416 -0.17697139 -0.14562315 -0.15386774 0.06345402 -0.050368086 0.031200754
-0.103215255 -0.004969381 0.046307165 -0.07522776 -0.121277645 0.0072117243 -0.11314759 0.10176874
0.014093833 0.08261616 -0.10095635 0.054681394 -0.03771701 -0.014624471 0.03564841 0.05116775
0.17067717 0.046952743 -0.10654139 -0.007611567 -0.027160654 -0.1355327 -0.1520444 -0.096885175
-0.1290431 -0.0900917 -0.12517966 0.105193906 -0.0006988707 0.1256349 -0.0045847166 0.0065517207
-0.10211613 -0.11759673 -0.044189356 -0.023605 -0.18905479 0.013780639 -0.08662797 -0.007623256
0.062862165 0.20644248 0.09268662 -0.023274826 0.010145398 0.008761285 0.072603434 -0.01866434
-0.15910341 -0.010159249 -0.08126861 -0.09917609 -0.061740242 -0.09885183 -0.21104608 -0.13540466
-0.102849714 -0.030808797 -0.13191222 -0.12401789 -0.2008674 0.103413 0.30940348 -0.004694098
-0.1627924 0.15033513 0.019540241 0.09372118 0.11421463 0.04094336 -0.2415792 -0.14514539
-0.079934366 -0.053218216 0.046201322 0.001315799 0.2017276 0.091730446 0.07009696 0.02617308
0.013101142 0.003335914 0.03881045 0.0672812 0.039536152 0.08958667 -0.018927656 -0.13594861
-0.0015108837 -0.04122858 -0.029307757 -0.0013967564 0.10033671 0.16113839 0.041264553 -0.030133812
-0.15103625 -0.056647636 0.020456621 0.08350185 0.06571424 -0.085515864 -0.0908833 0.047514733
-0.02266206 0.10249845 -0.017565284 0.09468493 -0.005015088 -0.10087836 -0.01718521 -0.04104485
-0.04133413 -0.12833576 -0.0729852 -0.055246186 -0.006731565 0.023017889 -0.07146368 -0.14478368
-0.14687452 -0.01849573 0.12221449 -0.058461614 -0.11339146 0.027855573 0.18349516 0.15225022
0.15553553 0.083706975 -0.23033164 -0.1321584 -0.12021964 0.00012570224 0.06679816 -0.030138522
0.11933537 -0.0036712752 0.074947625 0.051412776 0.06443955 0.14659001 0.14059119 0.078432694
0.2037612 0.14630023 0.15425593 -0.047257397 0.06059796 -0.04943019 0.08201881 -0.11754112
-0.09853572 0.08555486 0.10370082 -0.08078063 0.21035954 -0.0010131551 0.057076517 0.04454616
0.034765173 -0.098363616 -0.08209693 0.06085304 -0.008872977 -0.00539599 -0.13838792 -0.038171124
0.082235634 0.0036785747 0.099368244 0.080360964 0.03358973 0.024919813 0.18952383 0.17818144
0.103134036 0.011605566 0.0977237 0.044944294 0.11541992 -0.14189929 -0.28320765 0.025617536
0.13401702 -0.16511151 0.03029903 -0.019095706 -0.024674878 0.058830217 0.17733501 0.07891185
-0.016090166 0.076695435 -0.0099697495 0.008096133 -0.16157365 -0.084856555 -0.049331915 -0.035808843
0.10792866 -0.054338526 -0.11681797 -0.08895594 0.04247954 0.16181426 -0.01807263 0.0038813124
0.044479914 0.0047152983 -0.01684631 -0.11309001 -0.20167178 -0.0040732725 0.06009572 -0.19052427

model.classifier.0.bias f4 [30]
00000000: 8f1f 6333 4357 49b3 e293 23b2 551f 6bb3
00000010: fca7 1d33 7086 69b3 9bd9 8333 8f5d 8933
00000020: 8836 4533 f6ba 94b3 9a68 46b3 c5f4 f932
00000030: 21d8 beb3 f422 7c34 8514 82b3 67d9 93b3
00000040: 6736 08b3 2c0c dfb2 eb84 fb32 3339 2a33
00000050: 270d 1233 4e73 0434 a351 8932 ed09 85b3
00000060: 30b9 3732 9ec1 9b32 0762 ddb3 e272 2934
00000070: 3093 f332 9cfa d134
5.288126e-08 -4.6878323e-08 -9.521473e-09 -5.4743698e-08 3.6707192e-08 -5.437181e-08 6.139745e-08 6.396578e-08
4.5917233e-08 -6.925795e-08 -4.6195602e-08 2.9098723e-08 -8.886878e-08 2.3482045e-07 -6.057329e-08 -6.884766e-08
-3.1714446e-08 -2.5966152e-08 2.928069e-08 3.9633232e-08 3.4005236e-08 1.2335406e-07 1.5986023e-08 -6.1951006e-08
1.0694109e-08 1.8132422e-08 -1.03089455e-07 1.5781146e-07 2.8355856e-08 3.9111626e-07

model.classifier.1.weight f4 [7, 30]
00000000: 7688 403e 7817 40be 65b6 82bc 6c86 e3bd
00000010: 52cd 6cbe d7b7 39bd 2fa6 193d a93a 0e3d
00000020: f823 05be 6abe 0d3e eb03 a73c 6424 5f3e
00000030: 89c6 413e f5da c8bb 0793 8a3e dc45 8f3d
00000040: f640 7f3e 1a79 0abd 86f5 b7bd a1e1 70be
00000050: f031 1f3e 29b6 a3bd 375d 87be e6cf 683d
00000060: 7b60 0d3c 043b 92be 6936 99be 383b 36be
00000070: d9d8 233e d1a6 843e 8376 d0be 40f9 903e
00000080: e06b de3d 5f2e e73e e23a 27be 12e0 533e
00000090: 6df0 a4be 1822 f6be 7ca1 d4be 0993 873e
000000a0: d635 b03e bee4 de3c ac09 26bd fdc7 89be
000000b0: 36cf 8dbe 3af8 913e 398d 843e 3d5d 463e
000000c0: 393b eabe 4e75 9ebe 3d51 263e 87c5 babe
000000d0: 5c59 663d 3494 063f cadb 62bb 0613 77be
000000e0: 76e6 e03e e485 7dbe 6ff7 74be 3213 073e
000000f0: 8377 0bbd ee05 b8bd 99f3 64be 6061 413e
00000100: 9909 003e 94dc 0a3e 6522 6c3d 17e9 f5bd
00000110: 171b e9bd c4c4 c2bd 0893 493e 2ca9 033e
00000120: 722c a4bd 39fc 123e 6886 e9bd 2cac cdbd
00000130: 626e cd3d a69f 1e3e 45fc 1bbd 20b1 acbd
00000140: 8bfb 693d 745c eb3d 6e41 f53d e9d7 1c3e
00000150: 6136 1d3e 1abe d6bc 3864 453e 94e1 25be
00000160: f1bd 063e 6025 353e 5ba9 c93d 656d 7dbd
00000170: 5d8e 05be 02b4 aabd 1e06 673d 1066 273c
00000180: 415f 533e 8b1c 213e 9890 1d3c a736 25be
00000190: 4e2e a7bd 2522 69bd d0a8 b43d f0f3 e83d
000001a0: fec7 c93c f6f4 bdbd be90 08be f693 d5bc
000001b0: 1f3b 703e 5c16 ee3d 84a2 20be 3079 b13d
000001c0: cd4c 08bd 0fc6 1ebe 6bc9 f03d 507d 623d
000001d0: c65a b0bc c05c 1c3d 087a 743d 2099 373c
000001e0: a4c7 053e 1653 e2bd b1c9 3b3e 3523 bdbe
000001f0: 941c 8e3d bda5 f9be 1802 bdbd c490 063e
00000200: 1a69 343d da5c 24be afa5 ccbe 531f 393e
00000210: b853 c7be 7696 9d3b ce3f b43e e9fa c8bd
00000220: 9581 58be c238 8ebe 87ce 9bbd dab4 90be
00000230: 7470 de3e 0f51 903e d866 2c3c ae1d a8be
00000240: e9e2 2fbe bdb3 c3bc 22cd 9abe 755d ccbd
00000250: 1bc9 c63d 9f2f c7be 4324 5a3d d395 183e
00000260: 22fd 843e c40c 4cbe 98d5 70be cfe2 a83c
00000270: 9890 3bbd d643 3f3e fee7 5d3e 6030 873e
00000280: c55d 41be e425 aabe 2861 c53e 07e9 7ebe
00000290: 5e7e 8e3d e292 423e 1a0d 96bd ee50 13be
000002a0: 7e66 163e 3928 a23e d3e3 babe f061 8ebe
000002b0: 1384 4abe 5a3b 8abd b047 98be 9486 b73d
000002c0: 4241 bdbd df9c bc3e 96ad 17be c48b c0bd
000002d0: af2a c8be 5976 b13e 8a5a a23e ddc5 843e
000002e0: 42b4 8d3d cc79 443d 896c c0be 38b0 2fbe
000002f0: 2bdd 4b3e 088e 303e 5267 183e 0220 53be
00000300: 21e0 86be a838 82be 7a3d cebe e191 203e
00000310: 1e96 6abd 9027 b13d 0008 85be 167f 613e
00000320: 0d56 5f3c 97fc 27be 7d7b ac3e c466 413e
00000330: 26eb 8abe fd03 7c3e ef0e a23e 18ea 983e
00000340: 8354 b2be 525e bebe
0.18802056 -0.18758953 -0.015956113 -0.11109623 -0.23125198 -0.04534134 0.037512 0.03472391
-0.13002002 0.13842168 0.02038761 0.21791226 0.18923391 -0.0061296173 0.27065298 0.069957465
0.24927124 -0.033806898 -0.08982377 -0.2352357 0.15546393 -0.07993729 -0.26438305 0.056838892
0.00862896 -0.2856065 -0.29924324 -0.17796028 0.1600069 0.2590852 -0.40715417 0.28315163
0.10860419 0.45152566 -0.16331056 0.20690945 -0.3221468 -0.48072886 -0.41529453 0.26479366
0.34416074 0.027208682 -0.040536568 -0.2691039 -0.27697152 0.28509694 0.25888994 0.19371505
-0.45748308 -0.3094887 0.16241927 -0.36478826 0.056237563 0.5256989 -0.0034615868 -0.2412835
0.43925828 -0.24758106 -0.23922513 0.13190916 -0.034049522 -0.08985506 -0.2235855 0.18884802
0.12503661 0.13560706 0.05764999 -0.12007349 -0.1138212 -0.09510186 0.19684994 0.12857503
-0.0801629 0.14354028 -0.11402589 -0.10042605 0.100308195 0.15490589 -0.03808238 -0.084322214
0.057124656 0.114922434 0.1197537 0.15316738 0.15352775 -0.026213694 0.19276512 -0.16199332
0.13158394 0.17690039 0.09846755 -0.061871905 -0.13042589 -0.08335115 0.05640232 0.010217205
0.20641805 0.15733545 0.009616993 -0.1613413 -0.08163129 -0.05691733 0.08821261 0.113746524
0.024631497 -0.09275238 -0.13336465 -0.02607153 0.23460053 0.116253585 -0.15686995 0.08665693
-0.033276368 -0.15505241 0.117571674 0.05529529 -0.02152766 0.03817439 0.05968669 0.011205941
0.13064438 -0.11051004 0.18338658 -0.36940923 0.069390446 -0.4875926 -0.09228915 0.13141161
0.044045545 -0.16051045 -0.39970157 0.18078355 -0.3893106 0.004809196 0.3520493 -0.09813482
-0.21143182 -0.27777678 -0.07607751 -0.2826298 0.4344517 0.28186843 0.010522567 -0.32835144
-0.17176403 -0.023889417 -0.3023463 -0.09978763 0.097063266 -0.3890352 0.053257238 0.14900903
0.25974375 -0.19926745 -0.2351898 0.020615963 -0.045792192 0.18678221 0.21670529 0.26404095
-0.18883426 -0.33232033 0.38550687 -0.2489358 0.069576964 0.19001344 -0.07326718 -0.14386341
0.14687535 0.31671312 -0.3650194 -0.27809095 -0.19776945 -0.06749602 -0.29742193 0.089612156
-0.092409626 0.36838433 -0.14812312 -0.09401658 -0.39095065 0.34660605 0.317097 0.25932208
0.06919147 0.047967717 -0.37582806 -0.17157066 0.19908588 0.1724168 0.14883164 -0.20617679
-0.26342872 -0.2543385 -0.40281278 0.15680648 -0.05727207 0.08650124 -0.25982666 0.22021136
0.013631356 -0.16404949 0.33687964 0.18886858 -0.2713253 0.24610896 0.31652018 0.298661
-0.34830102 -0.37181336

model.classifier.1.bias f4 [7]
00000000: 75e1 a1b2 109c 8bb4 ad22 d9b2 5277 cd33
00000010: 7b94 2f30 bfb6 5eb4 44bd 5fb2
-1.8845393e-08 -2.6004318e-07 -2.5277894e-08 9.5677606e-08 6.387563e-10 -2.0741844e-07 -1.3023342e-08

exp_avg f4 [30, 30]
00000000: eefd 1936 bbd2 7db5 ade2 17b6 1fb7 e434
00000010: 9248 82b3 0888 7e35 edf6 2f36 5409 3d36
00000020: 79f6 25b5 d65f e1b4 9a64 7634 d264 f335
00000030: 492e 22b6 6d0a 31b6 63be 9934 a8b5 56b5
00000040: 7655 1b36 c816 8db5 f2af 84b5 fda6 ca34
00000050: e383 06b6 a001 4535 f451 fc34 8bb3 0535
00000060: 047a 0636 a8f8 08b6 c72a 03b4 0d6d 3a36
00000070: 6e00 2835 de99 fa34 4cce 9db5 c380 ca34
00000080: 342e ce35 755d 4f33 9827 0735 d489 40b5
00000090: ffcf 79b5 b685 e9b5 14c2 1b35 cbdb ceb3
000000a0: f247 0833 ccbc 13b6 6ac5 3736 c6db 7735
000000b0: 2ad0 16b5 8cec 6334 dff5 56b5 214b 5935
000000c0: 703c ed34 87b2 5d34 ec3f 8235 8f9e 8db5
000000d0: 8f70 00b5 42f2 3fb5 3d13 d1b5 3951 0936
000000e0: 4c21 60b4 8d83 21b6 2d76 c8b4 5106 d9b3
000000f0: 13c0 9b32 c132 a7b3 6a0e 71b2 26eb 8c34
00000100: 6dcf c235 9995 9fb4 7980 6e35 6d34 73b3
00000110: e367 ba34 4fe4 b0b5 7564 cf34 dfb4 b3b5
00000120: 03f9 c635 0fe4 82b5 0719 33b5 e618 0a32
00000130: 7dee 9834 5a4c 2834 ab56 3b35 cb7a 8d34
00000140: 3624 2db2 e83f 19b5 9686 06b4 69ec e2b5
00000150: e8ae f9b3 a736 0636 4cfa 62b5 f6e4 e2b5
00000160: 874e 80b5 adb3 4535 572b 1fb6 a791 b735
00000170: 143f 2f36 6d10 53b5 e51f feb4 cae6 83b4
00000180: 0019 85b6 c8fe 80b6 2c88 6b34 08be 6a35
00000190: 07ba 8cb5 71f7 a5b5 8711 1936 26da 8336
000001a0: bc50 0e34 4e89 b235 4164 2ab6 efe0 9d35
000001b0: 5d38 aa35 a84c 0435 ffbe 4836 5d61 b632
000001c0: 83e6 29b4 8705 5a35 0803 24b6 2e03 4a35
000001d0: 0d1d 5c35 c281 1ab6 133e db34 27cc c1b5
000001e0: 42d1 9bb4 72b1 9e34 c236 4ab3 4fe1 3b35
000001f0: 0bb9 59b4 e2cd 98b4 53ae 8234 3b1a 1234
00000200: c316 83b5 8a1c d2b5 c75a 9533 a083 4436
00000210: ae11 3233 6ba7 8c35 02c5 ac33 e9a1 d235
00000220: a1f2 1c35 b054 aab5 a0db 4c32 a1c6 f2b5
00000230: d96e 9db4 7a36 eb34 d830 eb35 df63 81b4
00000240: 5f91 dcb3 33e1 93b5 081b 63b3 0e30 9d35
00000250: d360 9635 9dec 5a35 e3ec a1b5 9868 4635
00000260: be68 e735 f4e5 4ab4 76f3 bb33 88bc d332
00000270: 0c17 ecb5 8192 03b6 0da9 dc33 32ff 5e35
00000280: 28b7 04b5 b32a e9b5 8063 0736 68f6 0236
00000290: e483 7034 f73e 3db3 b666 c3b3 3902 5935
000002a0: 1295 0e35 7613 9b35 2321 9835 d56f 0db5
000002b0: 154e 42b5 bf6c 9835 4189 eab5 19c0 3835
000002c0: e691 1235 9924 f9b4 23e5 f134 3fa8 c3b5
000002d0: 2a03 cf35 cd52 eeb4 787f 8cb5 dc42 f534
000002e0: 217b feb5 422f 7c35 31c5 dd35 93b0 0736
000002f0: 9bec 4bb5 a147 8035 a0b0 da34 6d16 61b3
00000300: a409 c5b5 e32e 81b5 9b78 2235 977a 36b3
00000310: fd70 3d36 f18f 74b5 f31c 10b5 d642 7534
00000320: 68a8 a9b5 935a 3935 b135 1eb3 3fe0 8635
00000330: 9511 a935 3a29 f0b5 d5ff 3434 9eb5 4136
00000340: 01f5 3935 3668 95b3 dbc2 2e36 ba4f 41b5
00000350: 2029 05b6 f24d 9935 fe44 41b4 c918 6235
00000360: f2c0 8b36 b747 4e36 57d4 b0b5 16d5 09b6
00000370: d5a4 8235 2ba8 1b36 1985 44b6 7620 27b6
00000380: 3344 dab3 9764 4235 2628 8d36 c64d e5b5
00000390: 2ed0 76b5 7a8b 2eb5 e85e 35b6 adaf d1b4
000003a0: e16f 6a35 4387 67b5 a09e e435 ec19 c9b5
000003b0: 77c2 6bb5 e460 2d36 6069 d035 dfdb bb35
000003c0: 34e5 1e36 5fc8 06b5 491e ceb5 2328 c335
000003d0: 72d7 73b2 9110 3c35 7033 8136 5cf1 db35
000003e0: f975 f9b5 fc11 b2b6 0154 7735 d4f8 5f36
000003f0: f115 d9b4 ca61 b8b5 a5e6 28b5 b7b6 b135
2.2946583e-06 -9.45565e-07 -2.2632696e-06 4.2601548e-07 -6.066797e-08 9.4820325e-07 2.6220762e-06 2.8168624e-06
-6.1825955e-07 -4.1979246e-07 2.2947134e-07 1.8134253e-06 -2.4166823e-06 -2.6381124e-06 2.8636995e-07 -7.9985557e-07
2.3146545e-06 -1.0511949e-06 -9.885973e-07 3.7746932e-07 -2.0044324e-06 7.3390584e-07 4.6998287e-07 4.980763e-07
2.0038578e-06 -2.0410316e-06 -1.2215888e-07 2.7779636e-06 6.25855e-07 4.6678082e-07 -1.1757452e-06 3.7719118e-07
1.5361643e-06 4.8280942e-08 5.0349036e-07 -7.172614e-07 -9.30624e-07 -1.7398768e-06 5.802442e-07 -9.6326026e-08
3.17304e-08 -2.2014601e-06 2.7384035e-06 9.233448e-07 -5.6182273e-07 2.1227078e-07 -8.0079e-07 8.0948126e-07
4.4188664e-07 2.0647177e-07 9.704358e-07 -1.0551465e-06 -4.784751e-07 -7.1505576e-07 -1.5577313e-06 2.0461869e-06
-2.0873739e-07 -2.4067442e-06 -3.7338887e-07 -1.0105999e-07 1.813172e-08 -7.7857756e-08 -1.4031324e-08 2.6248125e-07
1.4514495e-06 -2.9724904e-07 8.884886e-07 -5.6625527e-08 3.4720787e-07 -1.3179468e-06 3.8629847e-07 -1.338918e-06
1.4824622e-06 -9.752129e-07 -6.6719116e-07 8.0383185e-09 2.848573e-07 1.5673996e-07 6.9789047e-07 2.635264e-07
-1.0078159e-08 -5.708994e-07 -1.2528685e-07 -1.6907117e-06 -1.1626781e-07 1.9999368e-06 -8.455579e-07 -1.6904949e-06
-9.559598e-07 7.364968e-07 -2.3718073e-06 1.3676953e-06 2.6113748e-06 -7.862753e-07 -4.7334393e-07 -2.4568573e-07
-3.9666193e-06 -3.8443577e-06 2.193562e-07 8.7448325e-07 -1.0484954e-06 -1.2365473e-06 2.280898e-06 3.9295e-06
1.3254152e-07 1.3301994e-06 -2.539033e-06 1.1762876e-06 1.2682391e-06 4.928538e-07 2.9913497e-06 2.1231864e-08
-1.5823211e-07 8.121937e-07 -2.4439669e-06 7.525549e-07 8.199866e-07 -2.3023317e-06 4.0837094e-07 -1.4439037e-06
-2.9023255e-07 2.9558902e-07 -4.7081592e-08 6.9990796e-07 -2.0277018e-07 -2.8462006e-07 2.4341225e-07 1.3606852e-07
-9.766885e-07 -1.5654525e-06 6.9548655e-08 2.9282892e-06 4.1459934e-08 1.0479538e-06 8.04521e-08 1.5693341e-06
5.84676e-07 -1.2690634e-06 1.19243e-08 -1.8088214e-06 -2.932418e-07 4.3811798e-07 1.752308e-06 -2.4100788e-07
-1.0270991e-07 -1.1017895e-06 -5.287714e-08 1.1711397e-06 1.120405e-06 8.1555646e-07 -1.2064378e-06 7.391295e-07
1.7241325e-06 -1.8896372e-07 8.7521514e-08 2.4649367e-08 -1.7590078e-06 -1.9605798e-06 1.02752985e-07 8.30728e-07
-4.944036e-07 -1.737228e-06 2.0174484e-06 1.9514937e-06 2.2399723e-07 -4.4062258e-08 -9.099078e-08 8.0842034e-07
5.311605e-07 1.1554064e-06 1.1334527e-06 -5.268933e-07 -7.2384256e-07 1.1356532e-06 -1.7474305e-06 6.882488e-07
5.460155e-07 -4.6406493e-07 4.5056467e-07 -1.4577598e-06 1.5423623e-06 -4.43912e-07 -1.0467911e-06 4.5683453e-07
-1.896031e-06 9.3946085e-07 1.6523173e-06 2.0219347e-06 -7.59677e-07 9.55759e-07 4.0734176e-07 -5.240729e-08
-1.468045e-06 -9.624895e-07 6.0525207e-07 -4.2486672e-08 2.8228962e-06 -9.1106546e-07 -5.3686307e-07 2.2841718e-07
-1.2640494e-06 6.9049673e-07 -3.6836074e-08 1.0049042e-06 1.2596598e-06 -1.7893392e-06 1.6856877e-07 2.8864956e-06
6.92744e-07 -6.957309e-08 2.6041441e-06 -7.201412e-07 -1.9842482e-06 1.1422073e-06 -1.7999625e-07 8.422763e-07
4.1649846e-06 3.0738136e-06 -1.3174821e-06 -2.0538623e-06 9.733727e-07 2.3194686e-06 -2.928375e-06 -2.4903834e-06
-1.01638214e-07 7.241701e-07 4.2068013e-06 -1.7084465e-06 -9.194508e-07 -6.5023016e-07 -2.7026344e-06 -3.9057105e-07
8.73346e-07 -8.625104e-07 1.703349e-06 -1.4983211e-06 -8.7827306e-07 2.5835407e-06 1.5527876e-06 1.3996577e-06
2.3677248e-06 -5.021047e-07 -1.535701e-06 1.4540313e-06 -1.4193448e-08 7.0059565e-07 3.8504877e-06 1.6387016e-06
-1.858628e-06 -5.306907e-06 9.213691e-07 3.3374426e-06 -4.0435364e-07 -1.3737529e-06 -6.292051e-07 1.3240705e-06

exp_avg_sq f4 [30, 30]
00000000: 8dd2 002f ac53 1a2f 4162 372f 8cc7 882f
00000010: 18ca 772f f2d8 c42e 7148 212f a59d 6e2f
00000020: 06ac 082e 3f23 1230 1667 142f 80f1 6b2f
00000030: d57d 5330 1475 0d2f 39b2 d02d 2aad a42f
00000040: 40e3 da2f a3f5 2e2f 8746 9f2e 49d3 c02f
00000050: 2ca5 cc2e 15a1 542f 0355 e92e 4f69 c82e
00000060: 8b64 e02e 05ec fd2e 0b4c 042f 259f 242f
00000070: 28bb 0330 c34d f32e e07d 7d2e dcab 492f
00000080: 42a2 cb2e edfe d32e f175 d12e 0a2c 382e
00000090: 4006 b42e 4a35 782e a62b 432e c9a5 e32e
000000a0: 75a0 3a2e 560c 682e c12c 892e 911f a52e
000000b0: 8be5 132e 672c cf2e 909e 522f 0d1a 562f
000000c0: e279 dd2d 0ba9 8a2f 0c8b bc2e 9af8 6b2e
000000d0: 1b73 032f ab9a 4d2e 6f35 422e c592 e82e
000000e0: eecd e62e a8c4 962e d00f 2d2f 5b2f 552e
000000f0: f528 a12e 20a6 732e fb10 5a2f ad82 f12e
00000100: bac6 d72f 33f1 c42d df5d a32e b546 592f
00000110: 1126 c52d 625a 8c2f 6c9e 162e c21c 592e
00000120: 016c 972f efdd ab2f 6867 902d 8b62 032f
00000130: e196 1530 37d1 022e 2eb7 912f 7fbc ee2e
00000140: ab74 ff2e 3b6d b12f 9f00 832f eb8c e32e
00000150: 3cd6 ba2e 8864 2f2f 0e81 5d2e 6ef3 372f
00000160: 8a38 972f 0988 062f 3222 562f 2bcb 1b2f
00000170: d56a 6b2f d995 862f 1782 c22f 28cb ca2e
00000180: 65de 1e2f 26d5 332f c170 832f 4940 3e30
00000190: e392 a82f 3148 0630 37cb a730 0be0 572f
000001a0: c422 922e e8fa bb2f 42b5 c72f e222 672f
000001b0: d53e c62e 03d0 3d30 b1bb 532f 4222 a22f
000001c0: 9a24 5b2f 4c03 c62e 774c d62e 94ac 7e2f
000001d0: 5c34 c32e 8a52 232f 5f3f 1130 c7b4 da2e
000001e0: 61e6 292e 38a5 5a2e 1c57 122e 3862 122e
000001f0: 24c8 a32d 80af bd2d 4355 202e b0fe 462e
00000200: b24d 7b2d 80b4 c72e 994e f42d f262 a92e
00000210: 2f8e bd2e cc8c 852e e4be 192e 5d02 0e2e
00000220: 45ac 132f d76b e62e f55e 9b2d ce50 b52e
00000230: 49a1 a52d a85d fd2d 45e6 452e eaa8 342e
00000240: 484e 6e2d b1ed 902e 2d7c 8f2d 3136 0a2e
00000250: 3de4 a52e c2ea 022f 4862 5b2e 4f6c 432e
00000260: f782 5a2e 62a7 ba2e 8a80 9a2e 9180 0e2e
00000270: 8bdf 162e 5090 8e2e 5cbd c72d 8c75 2f2f
00000280: 3395 7b2e 178e 2f2e 7d5d c32e cf1f de2e
00000290: 2286 9f2d 2b71 132e 23a8 f52e 1a94 b92e
000002a0: 33cd 482f 57f0 192f 646b 4e2e fde0 a72e
000002b0: 5078 f72e ee38 4a2e f53c 452e d6d5 952e
000002c0: d96f 092e b79d b92e 27fe a82e faa9 912e
000002d0: 7d77 462f 9179 de2e 836b 812f 6c53 0a2f
000002e0: 4fc7 2630 1ecb 982e a48d 0f2f dda7 932e
000002f0: a3eb b42e b027 ae2f 47b9 342f 493c 2230
00000300: 922a 5d30 332e b52f 7f1e 6e2e cff5 e32f
00000310: df39 dd2f 577e 432f 98a0 322e f2fa 8930
00000320: 2eda 872e 00e3 ad2e cdf0 df2f 0478 b72e
00000330: 541e 6e2e 79b5 b52f 385b 962e fb48 472f
00000340: 3fa3 b42f 47fd cc2e 95bb 612f 67f0 2b2f
00000350: b3d8 692f b3ec 562f f825 952f adaf eb2e
00000360: 7dfa 252f 73f4 0c2f b75a 392e c0c5 a92f
00000370: 699a be2e 98e0 b32f f4d0 e42f 3ce5 852f
00000380: 8080 2e2e 16d5 ad2f abd3 eb2f 79d7 292f
00000390: 6b99 902e ae2e 2430 6bb2 132f 9a07 272f
000003a0: cfa6 842f 76af fa2e 4c17 d82e c2cf 7b2f
000003b0: 4fd0 052f 4448 482f e19a da2f 49be 002f
000003c0: f70b 372f 0fb4 fd2e 563a 312f 9db7 0e2f
000003d0: bf0b 192f a621 ce2e 8eb7 082f ac0b 032f
000003e0: 2bc4 fe2d 60fc 892f f568 602e 2245 ea2e
000003f0: 6e86 272f 9435 392f 0d4b f92d c0db 2d2f
1.1716335e-10 1.4035945e-10 1.667866e-10 2.4880042e-10 2.2536317e-10 8.951585e-11 1.4668601e-10 2.170198e-10
3.1075607e-11 5.316458e-10 1.3497145e-10 2.1458924e-10 7.694017e-10 1.286547e-10 2.3726009e-11 2.9954467e-10
3.981544e-10 1.5912476e-10 7.243011e-11 3.5074724e-10 9.3061864e-11 1.9338516e-10 1.06107144e-10 9.1136536e-11
1.0204201e-10 1.15470335e-10 1.2032346e-10 1.4972253e-10 4.792349e-10 1.1064174e-10 5.763734e-11 1.83419e-10
9.260194e-11 9.640453e-11 9.52517e-11 4.187587e-11 8.1865625e-11 5.6436e-11 4.4376634e-11 1.0352214e-10
4.2434018e-11 5.276165e-11 6.2379886e-11 7.5089386e-11 3.3627805e-11 9.4211576e-11 1.9155721e-10 1.9472442e-10
2.5178918e-11 2.5222166e-10 8.57395e-11 5.3653616e-11 1.1955274e-10 4.6748976e-11 4.415795e-11 1.057621e-10
1.04957695e-10 6.8561434e-11 1.5739876e-10 4.8472653e-11 7.328708e-11 5.5399352e-11 1.9833017e-10 1.0982624e-10
3.9249476e-10 2.2389734e-11 7.429057e-11 1.9761155e-10 2.2413212e-11 2.5530073e-10 3.4246758e-11 4.936563e-11
2.754348e-10 3.1262412e-10 1.6416826e-11 1.194939e-10 5.4420296e-10 2.9744398e-11 2.6505503e-10 1.08564706e-10
1.1616782e-10 3.2273725e-10 2.3829203e-10 1.0347797e-10 8.4963564e-11 1.5951873e-10 5.0364206e-11 1.6730237e-10
2.7506913e-10 1.2235558e-10 1.9475335e-10 1.4169348e-10 2.141108e-10 2.448093e-10 3.538083e-10 9.221984e-11
1.4449027e-10 1.6355681e-10 2.3908878e-10 6.921295e-10 3.066339e-10 4.8851506e-10 1.2208606e-09 1.9633732e-10
6.645487e-11 3.4193381e-10 3.632668e-10 2.102172e-10 9.015159e-11 6.90534e-10 1.925702e-10 2.949197e-10
1.9930937e-10 9.004583e-11 9.745176e-11 2.3162477e-10 8.876874e-11 1.4854087e-10 5.284075e-10 9.945605e-11
3.863077e-11 4.9714205e-11 3.3273925e-11 3.3283792e-11 1.8619835e-11 2.156475e-11 3.6455516e-11 4.5246196e-11
1.428495e-11 9.0815355e-11 2.7774493e-11 7.7028064e-11 8.619982e-11 6.07315e-11 3.4957717e-11 3.228916e-11
1.3430775e-10 1.0478345e-10 1.766363e-11 8.245281e-11 1.8829953e-11 2.8804362e-11 4.4997134e-11 4.1077287e-11
1.3546116e-11 6.590584e-11 1.6312363e-11 3.14257e-11 7.5438746e-11 1.1906834e-10 4.9882126e-11 4.4434064e-11
4.968378e-11 8.488034e-11 7.025942e-11 3.2401252e-11 3.4304597e-11 6.4830474e-11 2.2707773e-11 1.5957918e-10
5.7203308e-11 3.9916594e-11 8.88418e-11 1.01010415e-10 1.8135774e-11 3.3524444e-11 1.1171177e-10 8.439134e-11
1.8262795e-10 1.4000655e-10 4.693436e-11 7.634247e-11 1.12536314e-10 4.5980046e-11 4.4846755e-11 6.8137204e-11
3.1249534e-11 8.440842e-11 7.684902e-11 6.6240305e-11 1.8050446e-10 1.0116986e-10 2.3541355e-10 1.2580664e-10
6.067368e-10 6.9482406e-11 1.3056095e-10 6.7146046e-11 8.22731e-11 3.1678615e-10 1.6436728e-10 5.9020927e-10
8.045983e-10 3.2956535e-10 5.414202e-11 4.1465717e-10 4.0240786e-10 1.7780032e-10 4.061515e-11 1.0039385e-09
6.177846e-11 7.9074525e-11 4.0734563e-10 8.3431956e-11 5.414187e-11 3.3052652e-10 6.837414e-11 1.8124872e-10
3.2857803e-10 9.321837e-11 2.0530273e-10 1.5637767e-10 2.1268214e-10 1.9547279e-10 2.712992e-10 1.0717769e-10
1.5095654e-10 1.2819772e-10 4.21447e-11 3.088143e-10 8.6676284e-11 3.2719494e-10 4.1621429e-10 2.435544e-10
3.967715e-11 3.1619923e-10 4.289665e-10 1.5447012e-10 6.5756144e-11 5.972919e-10 1.3432959e-10 1.5191262e-10
2.4129185e-10 1.1399852e-10 9.826681e-11 2.2902127e-10 1.2170286e-10 1.8215568e-10 3.9764017e-10 1.1709135e-10
1.6648004e-10 1.1537093e-10 1.6118781e-10 1.2980057e-10 1.3919442e-10 9.3737726e-11 1.243434e-10 1.1918527e-10
2.8963573e-11 2.5099478e-10 5.1024924e-11 1.06533685e-10 1.523632e-10 1.6844687e-10 2.8341352e-11 1.5812329e-10

exp_avg f4 [30]
00000000: ed04 15ad fc2e 192d 1e54 042d a9c4 032d
00000010: 597a f0ac 7436 712c 9a6f f8ac c213 14ad
00000020: 756f 97ac 2f0b 232d 7ddd fd2c df55 9cac
00000030: 15a1 212c 8fd8 d5ac 22b6 0aad 68f0 172d
00000040: 46a4 aa2c 1467 f12b bb6e 08ad 9fed 84ac
00000050: d355 00ac 07f1 34ad 62a2 29ab a0c8 222d
00000060: 537d b1ac 859e 5aac f807 692c ed51 9c2c
00000070: 8c75 18ad 3fbe 322d
-8.470763e-12 8.707476e-12 7.522009e-12 7.490155e-12 -6.8347936e-12 3.4278387e-12 -7.060974e-12 -8.417213e-12
-4.3040523e-12 9.2679605e-12 7.2152826e-12 -4.4433203e-12 2.2968895e-12 -6.077867e-12 -7.884833e-12 8.636737e-12
4.8499286e-12 1.715269e-12 -7.755292e-12 -3.778047e-12 -1.8237536e-12 -1.0285334e-11 -6.026621e-13 9.2531816e-12
-5.0445564e-12 -3.106766e-12 3.3115715e-12 4.4428823e-12 -8.6663e-12 1.0160372e-11

exp_avg_sq f4 [30]
00000000: 00c7 0e2c 18dd 202c 8551 af2c cb69 d02b
00000010: b0ca 862c 13ff f62c 97ba 5a2b 312c 882b
00000020: 1081 042c 33a8 c22b 4203 a22a f137 922c
00000030: 7754 112b d838 d127 7f15 8b28 f2ba cd2b
00000040: 16e8 992b 0b4b 842c f483 bf2c cab0 5c2a
00000050: d9d1 582c 99cb 952b 0607 142c 0a88 922c
00000060: 4e0a 842c 3c59 ab2c b3c8 8129 39b4 5129
00000070: da02 a82c 7c8f 1227
2.028988e-12 2.28601e-12 4.9828496e-12 1.4808652e-12 3.831012e-12 7.0200594e-12 7.7708104e-13 9.675647e-13
1.8829972e-12 1.3831214e-12 2.8779241e-13 4.1557803e-12 5.1631567e-13 5.8070783e-15 1.5441422e-14 1.4618014e-12
1.0935721e-12 3.759997e-12 5.4431962e-12 1.9601261e-13 3.0811935e-12 1.0643596e-12 2.1035964e-12 4.164673e-12
3.7528097e-12 4.8700193e-12 5.7635666e-14 4.656364e-14 4.7751638e-12 2.0339353e-15

exp_avg f4 [7, 30]
00000000: 6b25 17b5 9429 1cb5 fb5c 1a35 cc26 0635
00000010: 3e20 9334 6867 7234 e1bc 72b4 8f8b 9835
00000020: a0c1 1836 64c7 b2b4 2c21 0e36 cb2e 6535
00000030: d694 9eb5 6756 b634 507a 05b6 0768 67b4
00000040: 1587 0935 3961 a735 bfba 0833 a4d0 4536
00000050: 9e4e 1d35 81e2 b634 fa52 1736 7fa7 8132
00000060: 9cf1 32b5 d50f d635 1f5b 8cb5 1193 4936
00000070: ff48 9cb4 ef7e dbb5 00ba 1db6 0bef 8b36
00000080: 35bb a536 ce9b 41b6 4d57 9c35 1f34 85b6
00000090: 9a9d 1db6 a881 bd35 ff7c 0536 5eb3 c5b5
000000a0: 8387 c3b6 cee0 97b6 8b35 4eb6 97bf 4bb6
000000b0: 9531 86b3 7811 2a35 1ebd ecb6 b1dc 54b6
000000c0: 7125 a835 6d83 0236 8a28 60b5 af8b b034
000000d0: dcdf f635 e8da 74b6 017f 87b6 5fee 6e36
000000e0: 8afa f335 d9f2 7636 ccef 7cb6 8e1b 1bb7
000000f0: 8955 bcb5 e197 a335 c842 8a36 8c7b f2b5
00000100: 53b7 2eb5 5080 2cb6 483c 8fb6 261d b432
00000110: d6d5 8435 4c5a 2736 8a2b 3bb6 5e04 b6b5
00000120: a5c3 aab5 7a41 81b6 3336 9c35 7c66 df35
00000130: 01b5 90b5 c974 e3b5 19c6 1db6 4545 11b5
00000140: 84f9 e035 0b88 92b4 782a dd35 0992 d035
00000150: 0f1a 02b7 399d 8f35 0944 5236 b446 1936
00000160: a5c6 1f35 551f 9bb6 6302 12b5 06b5 f634
00000170: e83a 9f35 7957 2cb5 40f5 c3b5 178f 20b6
00000180: 3041 ee33 d6f8 2736 de83 cdb5 588d a2b5
00000190: 826b 8eb5 2944 e134 3757 53b5 45de 9ab5
000001a0: 6502 6934 f3ec 9135 4caa e3b5 ea47 91b5
000001b0: a083 c0b4 a4cf 60b5 6c07 e835 e092 32b5
000001c0: 6080 3db4 44fb 5cb5 82d6 23b5 860e cdb5
000001d0: a7b7 99b4 df9e c633 2e6a 27b5 d7aa 3db6
000001e0: bc44 5eb5 c1ec 1b36 0d40 9336 4851 09b6
000001f0: 32b1 56b6 0bee f4b5 beb2 31b6 dff0 9534
00000200: 85e9 1eb3 2515 6036 f15e 46b6 2de2 13b6
00000210: 7b16 a735 5d6b 91b6 5f47 e235 33e7 5836
00000220: 7a7e 2db5 d708 12b6 115e b8b5 1273 80b5
00000230: 5b14 2f33 fc9c 41b6 a67b f3b5 b13f 0e35
00000240: 5027 a1b6 9b6c 5eb5 f450 8635 925c c235
00000250: 039a e7b5 1d61 36b6 c855 9b35 8659 d435
00000260: d115 2736 3d33 6fb6 02dc 16b6 dcaf 6fb4
00000270: 7d3b e8b4 e845 1036 fa06 ab35 375b 1f36
00000280: b14b 8cb6 6f03 92b6 ba40 9136 883a 60b6
00000290: 2b38 eb35 5d0b e235 3a99 09b6 4f56 3ab6
000002a0: 2201 1d36 25ef 2836 3ca0 8db6 37c6 19b6
000002b0: 8a77 f6b5 5971 4eb5 e8cd a6b6 21f3 9335
000002c0: 3bc7 e235 564d 6c36 2cef cbb3 5a95 fbb5
000002d0: f60e 30b5 5592 4bb6 0083 61b6 67a2 8b36
000002e0: 327e 8f35 7101 dc35 def1 8a34 0a01 9bb5
000002f0: ba0d 43b6 66e8 74b5 0f51 af36 8917 b236
00000300: 2f6c 3db6 0d17 3736 b19a f7b5 78f8 9bb5
00000310: 05f9 8236 e18e 5436 41b9 4db6 2679 5bb6
00000320: b245 8f36 86f6 de35 afaa 1336 e757 5936
00000330: 1e99 6036 1951 1bb6 d5fc b534 fd27 7cb6
00000340: 4a19 3736 b732 6336
-5.6306334e-07 -5.817503e-07 5.7504775e-07 4.9975347e-07 2.7404343e-07 2.2575625e-07 -2.260672e-07 1.1365499e-06
2.276247e-06 -3.330016e-07 2.1178957e-06 8.537724e-07 -1.1815234e-06 3.3963008e-07 -1.988974e-06 -2.1551396e-07
5.123305e-07 1.2470765e-06 3.1834812e-08 2.9476732e-06 5.860146e-07 3.4064945e-07 2.2549052e-06 1.5093745e-08
-6.6661755e-07 1.594885e-06 -1.0457333e-06 3.0036938e-06 -2.9110376e-07 -1.6353714e-06 -2.350309e-06 4.170351e-06
4.939177e-06 -2.8849931e-06 1.1648314e-06 -3.9697766e-06 -2.348656e-06 1.4119332e-06 1.9891302e-06 -1.4729846e-06
-5.8272285e-06 -4.5263214e-06 -3.0727558e-06 -3.0360877e-06 -6.24888e-08 6.3355355e-07 -7.055364e-06 -3.171892e-06
1.2527872e-06 1.944801e-06 -8.3505495e-07 3.2884188e-07 1.839358e-06 -3.6486254e-06 -4.0380987e-06 3.5603514e-06
1.8177827e-06 3.6798212e-06 -3.7690506e-06 -9.2451355e-06 -1.4031986e-06 1.2188649e-06 4.120495e-06 -1.8066362e-06
-6.5086823e-07 -2.5704685e-06 -4.2687498e-06 2.0968013e-08 9.897001e-07 2.49375e-06 -2.7890515e-06 -1.3561328e-06
-1.2722927e-06 -3.852122e-06 1.163868e-06 1.6644622e-06 -1.0781515e-06 -1.6946807e-06 -2.351013e-06 -5.411751e-07
1.6761919e-06 -2.7293603e-07 1.6478143e-06 1.553971e-06 -7.754671e-06 1.0700088e-06 3.133204e-06 2.2839931e-06
5.952118e-07 -4.6230075e-06 -5.439271e-07 4.5952783e-07 1.1863567e-06 -6.420228e-07 -1.4600009e-06 -2.3925147e-06
1.1094596e-07 2.502978e-06 -1.5312069e-06 -1.2111077e-06 -1.0611113e-06 4.195911e-07 -7.873054e-07 -1.1538583e-06
2.1700687e-07 1.0872303e-06 -1.6962381e-06 -1.0824272e-06 -3.5858557e-07 -8.374866e-07 1.7287507e-06 -6.65239e-07
-1.7648699e-07 -8.2322026e-07 -6.103438e-07 -1.5277917e-06 -2.8632095e-07 9.248992e-08 -6.236686e-07 -2.8262637e-06
-8.2801466e-07 2.3234609e-06 4.388398e-06 -2.0461903e-06 -3.1991626e-06 -1.8248696e-06 -2.6479097e-06 2.792867e-07
-3.6999626e-08 3.3390909e-06 -2.9559562e-06 -2.2036359e-06 1.2449012e-06 -4.3338355e-06 1.6859084e-06 3.2321084e-06
-6.463157e-07 -2.176084e-06 -1.3736445e-06 -9.570233e-07 4.0763876e-08 -2.8850618e-06 -1.8140897e-06 5.2991805e-07
-4.8027505e-06 -8.2859486e-07 1.0007338e-06 1.4481068e-06 -1.7255664e-06 -2.717664e-06 1.1573366e-06 1.5821286e-06
2.4897638e-06 -3.56436e-06 -2.2479803e-06 -2.2322587e-07 -4.325665e-07 2.1498363e-06 1.2742523e-06 2.374594e-06
-4.181137e-06 -4.351539e-06 4.328872e-06 -3.341267e-06 1.7525211e-06 1.6841619e-06 -2.050378e-06 -2.7766398e-06
2.3395482e-06 2.5173151e-06 -4.220781e-06 -2.2914153e-06 -1.8363219e-06 -7.690592e-07 -4.971156e-06 1.1023113e-06
1.6896296e-06 3.5211756e-06 -9.496429e-08 -1.8744424e-06 -6.558688e-07 -3.0334534e-06 -3.3603865e-06 4.161429e-06
1.0691058e-06 1.6391697e-06 2.5880485e-07 -1.1548702e-06 -2.9065254e-06 -9.123527e-07 5.224843e-06 5.3075532e-06
-2.8226166e-06 2.7282542e-06 -1.8447955e-06 -1.1620714e-06 3.9032916e-06 3.1673628e-06 -3.0655212e-06 -3.270406e-06
4.2698457e-06 1.6612037e-06 2.2004058e-06 3.2386686e-06 3.3467727e-06 -2.3144005e-06 3.3897837e-07 -3.7574202e-06
2.7283845e-06 3.3855156e-06

exp_avg_sq f4 [7, 30]
00000000: 2168 022f 60eb 4830 1afb a22e 9e16 272e
00000010: bbf6 1b30 deca 1f30 e0bf 1a2e 023d a62e
00000020: 96b6 782e 184e 392e 7e83 e42f 6eb3 4e30
00000030: 6e82 fa2f 375e 0330 414b 3430 a1bd b02e
00000040: ca98 0730 41b1 cd2f 65e8 952f 90d1 2830
00000050: 11f8 df2f 6cb8 a72e 4fff 6d30 e75a 2a30
00000060: b65b e22e ec47 ac30 b7c5 3130 ebfd b230
00000070: 6bf1 5430 1eec f930 75f0 2130 51a3 9d30
00000080: 6ae5 c730 ee9c 1830 d35f 2430 ca8b f92f
00000090: 538b 2430 4c66 8230 1378 8130 1a78 8630
000000a0: ec57 3430 8d49 ff30 646d e82f d885 9330
000000b0: 64b6 8330 e164 fb2f 9a6a cf30 7a88 802f
000000c0: cba5 0f30 b7de 0731 e4a2 5930 5cbd 3630
000000d0: f0cf 3430 05d1 a82f 9c76 d330 59bb a130
000000e0: 8542 8530 7077 2d31 f895 b130 2545 1931
000000f0: a7cd 0630 b433 192f 6dbf 0331 90ff a52f
00000100: 29f1 2330 399f 602f 2475 6830 0645 152f
00000110: 41af 142f 0259 872f d5b2 292f 01f2 eb30
00000120: d6d4 e82e 37e3 e031 895d f22f 2104 bd2e
00000130: 3478 492f fc33 a62f 1943 e62f 3611 e62e
00000140: e5a7 f32f 8663 cb2f 65a8 e430 81a4 f430
00000150: 38b8 2b31 0717 8f30 0100 5131 3d20 2130
00000160: a80e 7230 e2ec 5030 14af 002f cc85 f62e
00000170: b4bc 962e cff1 042f 278b 0f30 5482 9b30
00000180: c14d 5830 0c8f 0831 abc8 452f a975 0331
00000190: 2aa9 652f 3ac7 3b2f 715d 6f2f 3928 e42e
000001a0: c129 3f2d 1717 2a2f 96ae c230 ac3d 9e2f
000001b0: 1309 c230 78b4 2e2f 8954 a32f d30f 1f2e
000001c0: a1ed 082e 8910 8b30 05f1 0b2f e2be a730
000001d0: 5f22 fa2d 8fa6 8a2e bdf1 802e 9e26 f02f
000001e0: a9de 242f dcc6 1f2f de10 882f 95dd d82f
000001f0: cd82 8f2f 0d64 d030 ee59 802f 7a69 302f
00000200: 60fa 1f2f 0c00 8d2f 1817 e82f 472c 982f
00000210: dbc6 9c2f cf3a b92f a9fb 4130 9b65 e92f
00000220: 087a 102f 0c0c 412f 4c1c 432f 4ab6 8230
00000230: 03f9 eb2f fb73 812f a4ff 2330 ba98 c32f
00000240: 1897 c92f 6c8a 232f 132f 8030 10e7 9a2f
00000250: 7980 1930 62fe c72f ab15 5d2f a561 442f
00000260: e074 c730 a78b ab2f 179d 932e 8549 d92e
00000270: bbe6 1f30 c413 5b2f 261a d72f da4e 5a2f
00000280: 57e0 fe2f 068b c330 f9e4 9d2f 78fd 3b31
00000290: 0789 d22f 0c9e d92e e8a1 b72f 5db0 672f
000002a0: d1a4 532f 4dc7 d32f d049 d12f ab79 da2e
000002b0: ea57 212f cb4f da2f 7fca 9930 8891 c82f
000002c0: 0f63 dc30 e140 d030 3562 d730 0018 b02f
000002d0: 2be8 eb2f ff49 b030 ac5b 1830 1142 0630
000002e0: 65dd 492f debb 242f c487 9830 228a f830
000002f0: 182d 7c2f f6a2 7c30 3ad6 832f ee95 8230
00000300: 8a62 7d2f 3280 c930 7558 c930 6675 fa2e
00000310: 1861 ca2f 8422 d52e 3fc2 e62f 224a cd2f
00000320: 6361 452f 4f70 272f 5bf6 6d30 35ed 772f
00000330: 4356 9630 058d bf2f bce9 d230 9847 6330
00000340: 8ec4 0c31 303f ac2f
1.1860425e-10 7.3094064e-10 7.411512e-11 3.7991492e-11 5.6739297e-10 5.8132155e-10 3.5185965e-11 7.559643e-11
5.655084e-11 4.213349e-11 4.156639e-10 7.519735e-10 4.556741e-10 4.779141e-10 6.559056e-10 8.037238e-11
4.932984e-10 3.741523e-10 2.7268068e-10 6.141585e-10 4.0739725e-10 7.627041e-11 8.6582913e-10 6.197482e-10
1.0293581e-10 1.2535089e-09 6.4673195e-10 1.3023372e-09 7.7468226e-10 1.8184243e-09 5.891317e-10 1.1469671e-09
1.4544359e-09 5.552029e-10 5.9799027e-10 4.5392162e-10 5.9860844e-10 9.487819e-10 9.420112e-10 9.783918e-10
6.5608563e-10 1.8574596e-09 4.227828e-10 1.0733698e-09 9.583343e-10 4.5728313e-10 1.509153e-09 2.3380037e-10
5.2258703e-10 1.9771684e-09 7.917562e-10 6.648031e-10 6.5779115e-10 3.070754e-10 1.5385981e-09 1.1767539e-09
9.69593e-10 2.5242706e-09 1.2921069e-09 2.2303734e-09 4.9041166e-10 1.3933638e-10 1.9171822e-09 3.0194913e-10
5.9641764e-10 2.0429249e-10 8.4567575e-10 1.3575993e-10 1.3522784e-10 2.46196e-10 1.5433994e-10 1.7167282e-09
1.0587946e-10 6.5450894e-09 4.4086004e-10 8.5954584e-11 1.8323548e-10 3.023216e-10 4.1884432e-10 1.04622463e-10
4.432074e-10 3.69962e-10 1.6637044e-09 1.7800091e-09 2.4988491e-09 1.0411164e-09 3.0413505e-09 5.861727e-10
8.8059915e-10 7.600659e-10 1.1703732e-10 1.1210552e-10 6.854731e-11 1.2091238e-10 5.2220844e-10 1.1314776e-09
7.8690837e-10 1.9871917e-09 1.7988337e-10 1.912989e-09 2.0887528e-10 1.707833e-10 2.177012e-10 1.03753846e-10
1.0866364e-11 1.5469613e-10 1.4164978e-09 2.8783853e-10 1.4117937e-09 1.5889323e-10 2.9709593e-10 3.616647e-11
3.1133877e-11 1.0118281e-09 1.2727604e-10 1.2205101e-09 2.8436973e-11 6.3051e-11 5.8637074e-11 4.3683185e-10
1.4994818e-10 1.4531615e-10 2.475024e-10 3.9447615e-10 2.6104488e-10 1.5162428e-09 2.3346963e-10 1.604458e-10
1.4549917e-10 2.5647784e-10 4.2216963e-10 2.76801e-10 2.851753e-10 3.369309e-10 7.057062e-10 4.2454648e-10
1.3140078e-10 1.7557528e-10 1.77452e-10 9.510555e-10 4.2923184e-10 2.3547372e-10 5.966234e-10 3.5578812e-10
3.6669046e-10 1.4873941e-10 9.326605e-10 2.8176617e-10 5.5843646e-10 3.637864e-10 2.0107531e-10 1.7860786e-10
1.4512374e-09 3.1203948e-10 6.712691e-11 9.881077e-11 5.817175e-10 1.9924956e-10 3.9126852e-10 1.9854998e-10
4.6361734e-10 1.422763e-09 2.8720828e-10 2.7356162e-09 3.829614e-10 9.896092e-11 3.3402547e-10 2.1071984e-10
1.9248893e-10 3.8522288e-10 3.8069325e-10 9.935105e-11 1.4674098e-10 3.9710665e-10 1.1189768e-09 3.6483194e-10
1.6035261e-09 1.5152432e-09 1.5671221e-09 3.2031267e-10 4.2911216e-10 1.2826716e-09 5.542755e-10 4.88428e-10
1.8359499e-10 1.4982457e-10 1.1098042e-09 1.8083635e-09 2.2935287e-10 9.190865e-10 2.3980978e-10 9.501357e-10
2.3045224e-10 1.466111e-09 1.4649816e-09 1.1389538e-10 3.6812575e-10 9.69225e-11 4.1974776e-10 3.7341957e-10
1.7951644e-10 1.5228462e-10 8.657019e-10 2.2548792e-10 1.0938453e-09 3.4842898e-10 1.5345942e-09 8.268386e-10
2.048441e-09 3.1331515e-10

exp_avg f4 [7]
00000000: 3519 2aaa 133f 8dac dbaa 0c2d 5930 2dad
00000010: 53c2 f2ac 3228 61ad 140d cb2b
-1.5107779e-13 -4.0144637e-12 7.996016e-12 -9.844647e-12 -6.899628e-12 -1.2798694e-11 1.4427647e-12

exp_avg_sq f4 [7]
00000000: c9b5 522c f163 2a29 e57f ed27 3436 a829
00000010: 2121 992b 27bd 192a 42c9 bd2c
2.9943706e-12 3.7834268e-14 6.5919378e-15 7.4701015e-14 1.0880499e-12 1.3654755e-13 5.394047e-12
