tutorial/DLPFC_output/version_1/checkpoints/mlp.ckpt (torch, 18997 bytes, 12 tensors)

model.classifier.0.weight f4 [30, 30]
0.10783341 0.21213982 0.18753597 0.2476594 0.23840143 0.18844378 0.17569959 -0.11947271
0.07986821 0.017808424 0.1638492 0.011102314 -0.07909294 0.14374964 0.16922572 -0.020954885
0.064224444 -0.18710063 -0.06688497 -0.101937324 0.19307706 -0.058684945 0.05363995 0.043382064
-0.076420695 -0.023431582 -0.22078823 -0.035466854 0.12885867 -0.03211315 -0.09000721 0.016110001
0.06560041 0.16834448 -0.13452014 -0.102453865 -0.0699738 -0.09767792 -0.06280954 0.06926101
0.022129726 0.22032428 0.2907245 0.083688624 -0.03515736 0.21877494 -0.14757784 -0.17566247
-0.12479362 -0.17756441 -0.0039142934 -0.037631165 0.15050253 -0.10765174 -0.06774971 -0.012461617
0.04430293 0.14218791 0.06304639 0.002420318 0.092742264 0.05225292 0.04728582 0.08117958
0.19834065 0.14748599 0.06804137 -0.024261659 0.107466556 0.084849775 0.13784127 -0.13767543
-0.2750194 0.057634085 0.1283186 -0.15941587 -0.05800074 -0.053364277 -0.059299804 0.071863286
0.20878085 0.07127356 -0.035260074 0.097355 -0.03756625 0.07886165 -0.14895086 -0.05078636
-0.067154184 -0.07759058 -0.07381798 -0.09950014 -0.04002564 -0.093098894 -0.11088869 -0.06279623
-0.10094734 -0.073748074 -0.08098142 -0.12958252 -0.1790041 0.013164581 0.25010234 0.076026835
-0.09533208 0.04043303 -0.056258474 0.094960965 0.12921426 0.13389762 -0.1638717 -0.13761424
-0.15627328 0.0056978147 0.03794282 0.09058197 0.15005307 0.12084738 0.003591149 -0.042872977
0.028692361 -0.08289946 -0.08124326 -0.13039081 0.047985956 0.03832276 -0.028797472 0.06051337
0.04323681 0.0088353 -0.018378118 -0.17226052 -0.20982297 -0.035661574 0.006253414 -0.1750071
-0.028622545 0.12397786 0.0537271 0.18309548 0.030171355 0.067287885 -0.12120157 0.08114383
0.039185677 0.076365896 0.014231237 -0.044610582 -0.12437177 -0.044268236 -0.03855994 -0.07176331
-0.09536671 -0.14323074 -0.14027475 -0.09432567 -0.049941767 0.07032459 -0.069147535 -0.07981207
-0.1284285 0.035353303 0.10946545 -0.108463205 -0.10242301 0.06053668 0.06732878 0.107712805
0.079323135 -0.0014490539 -0.16205548 -0.014755636 -0.01276301 -0.043494623 0.056578904 -0.05655896
0.116280034 -0.016433306 0.011318456 0.06042463 0.0338956 0.15457541 0.12499511 0.13360564
0.112987444 0.041757148 0.1331089 0.0022047034 0.038276132 0.024453484 0.123629615 0.044318046
-0.04692575 -0.0052513527 0.07111809 0.052776333 0.17115588 -0.09275616 -0.05271797 -0.15833823
0.047481738 -0.013013384 0.11029448 -0.029491503 -0.036486484 -0.10016566 -0.12612753 -0.06440401
0.11345532 0.067621015 0.12245628 0.139903 0.123528674 0.17310192 0.23177157 0.21680768
0.12958258 -0.09566683 0.1022946 0.06731972 0.1564053 -0.09410958 -0.20911202 0.15493406
0.17786963 -0.12677583 -0.007015397 -0.12842083 -0.06928479 0.028952075 0.2485214 0.0055965115
-0.019772546 0.093256585 -0.062441103 0.051726602 -0.20650232 -0.036743797 0.013849033 -0.08453824
0.09660945 0.08980585 0.071856186 -0.024838783 0.2337411 0.1556585 0.14002044 -0.01933755
0.06950957 -0.12239703 0.0077769393 -0.1739138 -0.17652754 0.04377826 0.08628367 -0.17155789
00000000: c3d7 dc3d 2e3b 593e 6e09 403e 6d9a 7d3e
00000010: 811f 743e 68f7 403e 98ea 333e 1cae f4bd
00000020: f291 a33d f9e2 913c 16c8 273e 7be6 353c
00000030: 7bfb a1bd 1b33 133e 8249 2d3e 94a9 abbc
00000040: 1b88 833d 4f97 3fbe fdfa 88bd 84c4 d0bd
00000050: feb5 453e a05f 70bd 90b5 5b3d 64b1 313d
00000060: 7482 9cbd 97f3 bfbc 4f16 62be b145 11bd
00000070: 87f3 033e 1489 03bd b355 b8bd 1ff9 833c
00000080: 8259 863d 7f62 2c3e a6bf 09be 55d3 d1bd
00000090: 6c4e 8fbd 5c0b c8bd 4aa2 80bd b7d8 8d3d
000000a0: 6649 b53c b09c 613e d7d9 943e f164 ab3d
000000b0: 2a01 10bd 8a06 603e a51e 17be dde0 33be
000000c0: cc93 ffbd 72d3 35be 7943 80bb 2323 1abd
000000d0: 561d 1a3e 8478 dcbd 5cc0 8abd cf2b 4cbc
000000e0: fd76 353d b599 113e 771e 813d 339e 1e3b
000000f0: a8ef bd3d 2807 563d c7ae 413d 7b41 a63d
00000100: d019 4b3e 9106 173e 4659 8b3d 63c0 c6bc
00000110: 6d17 dc3d b8c5 ad3d 4326 0d3e cafa 0cbe
00000120: 58cf 8cbe b811 6c3d f365 033e ea3d 23be
00000130: 2f92 6dbd 8094 5abd 5ae4 72bd 0f2d 933d
00000140: a6ca 553e dff7 913d de6c 10bd 0f62 c73d
00000150: 11df 19bd 3782 a13d 9386 18be 5c05 50bd
00000160: 2288 89bd cfe7 9ebd e22d 97bd bbc6 cbbd
00000170: edf1 23bd a2aa bebd 9c19 e3bd 4f9b 80bd
00000180: 7bbd cebd 3b09 97bd 96d9 a5bd 48b1 04be
00000190: da4c 37be 41b0 573c 6a0d 803e f5b3 9b3d
000001a0: 773d c3bd 1b9d 253d 496f 66bd e57a c23d
000001b0: be50 043e 751c 093e fccd 27be bfea 0cbe
000001c0: 1a06 20be bcb4 ba3b ee69 1b3d 0a83 b93d
000001d0: 83a7 193e d57e f73d 7c59 6b3b 939b 2fbd
000001e0: 3e0c eb3c 31c7 a9bd de62 a6bd 2b85 05be
000001f0: ec8c 443d 54f8 1c3d ade8 ebbc dedc 773d
00000200: 1519 313d efc1 103c b58d 96bc 1065 30be
00000210: d5db 56be df11 12bd 70e9 cc3b 1035 33be
00000220: d479 eabc 1be8 fd3d f310 5c3d 627d 3b3e
00000230: eb29 f73c 3bce 893d 8738 f8bd bd2e a63d
00000240: 2981 203d b965 9c3d 222a 693c 96b9 36bd
00000250: a0b6 febd 9c52 35bd 07f1 1dbd a4f8 92bd
00000260: 9f4f c3bd 14ab 12be 2fa4 0fbe d12d c1bd
00000270: bd8f 4cbd 5706 903d 399d 8dbd 8374 a3bd
00000280: c382 03be a0ce 103d 6c2f e03d f521 debd
00000290: 28c3 d1bd 4ff5 773d ace3 893d 8898 dc3d
000002a0: 2b74 a23d 2eee bdba dff1 25be a0c1 71bc
000002b0: f21b 51bc 6b27 32bd 48bf 673d 5eaa 67bd
000002c0: 3a24 ee3d 249f 86bc 0c71 393c d17f 773d
000002d0: 1dd6 0a3d 0449 1e3e 70fd ff3d ebcf 083e
000002e0: f665 e73d 8b09 2b3d b34d 083e c97c 103b
000002f0: 6fc7 1c3d ac52 c83c 8631 fd3d d786 353d
00000300: 3735 40bd 8a13 acbb 5ca6 913d ff2b 583d
00000310: 7d43 2f3e f1f6 bdbd ccee 57bd 6b23 22be
00000320: 367c 423d 1736 55bc 13e2 e13d 2a98 f1bc
00000330: da72 15bd a723 cdbd 9327 01be 40e6 83bd
00000340: 435b e83d e37c 8a3d 5cca fa3d bb42 0f3e
00000350: 9afc fc3d a141 313e 8755 6d3e d502 5e3e
00000360: 4cb1 043e f9ec c3bd d57f d13d ecde 893d
00000370: b628 203e 86bc c0bd 7621 56be 09a7 1e3e
00000380: 7523 363e 86d1 01be 6ae1 e5bb c080 03be
00000390: 2fe5 8dbd e72c ed3c 657c 7e3e f162 b73b
000003a0: 09fa a1bc 4ffd be3d 3ec2 7fbd 46df 533d
000003b0: 5875 53be aa80 16bd 0ee7 623c 6322 adbd
000003c0: 2ddb c53d 21ec b73d 5629 933d b47a cbbc
000003d0: d459 6f3e f164 1f3e 8561 0f3e c869 9ebc
000003e0: 095b 8e3d 4bab fabd b2d5 fe3b 7616 32be
000003f0: a3c3 34be d550 333d 7eb5 b03d dfac 2fbe

model.classifier.0.bias f4 [30]
9.1935604e-08 -7.481584e-08 1.0047643e-07 -5.6366186e-08 3.3653752e-08 -5.8043756e-08 3.71846e-09 6.81476e-08
8.651261e-08 -3.2425866e-08 -2.5788298e-08 1.3589691e-11 -3.3631743e-08 1.616849e-07 -1.3420325e-08 -5.1735437e-08
-4.8410687e-08 -1.798566e-08 1.3927863e-07 8.8854335e-08 -8.9392294e-08 5.124058e-09 -6.1180305e-09 -7.7191515e-09
-6.2591155e-08 8.576173e-09 -2.0109309e-07 8.5194266e-08 -1.6406199e-08 1.0577658e-07
00000000: 226e c533 71aa a0b3 80c5 d733 4717 72b3
00000010: b18a 1033 c94b 79b3 d787 7f31 8a58 9233
00000020: cfc8 b933 9e44 0bb3 1185 ddb2 8712 6f2d
00000030: 7e72 10b3 9b9b 2d34 378f 66b2 b733 5eb3
00000040: 1dec 4fb3 e27e 9ab2 9e8c 1534 30d0 be33
00000050: eff7 bfb3 b10f b031 c436 d2b1 309d 04b2
00000060: da69 86b3 6856 1332 0cec 57b4 0bf4 b633
00000070: 9ded 8cb2 4a27 e333

model.classifier.1.weight f4 [7, 30]
0.08594355 0.10794801 -0.11651741 0.17914261 -0.1380392 0.038992006 0.014906044 -0.04036816
0.06838848 -0.09138329 0.20251933 0.23018923 0.11346462 0.049723722 -0.12958005 0.11577068
0.1995554 0.19620147 -0.13825464 0.112984896 -0.071238644 -0.19265927 -0.13177747 0.032106213
0.11021659 -0.16900787 0.014092824 -0.09639824 0.08324132 0.23066343 -0.40075737 0.368596
-0.46489245 0.20742838 -0.21729967 0.25953007 -0.06452507 -0.5415953 -0.43078467 0.23724991
0.29714462 0.094525106 0.11420339 0.10872091 0.1304284 0.19479842 0.29860348 -0.03935196
-0.54455405 -0.3305878 0.3733127 0.065277874 -0.03177125 -0.012260074 0.40227902 -0.17262486
0.49579114 -0.37116235 0.080461666 0.1785731 -0.44729266 0.059772328 -0.16020568 0.2605299
0.11988915 0.17476021 -0.37444165 -0.28761098 -0.28748474 0.3574798 0.026773373 -0.25025988
-0.25675216 -0.16849113 -0.069217645 0.12030576 0.23126455 0.1926833 -0.34121206 -0.20001757
0.2850009 0.32162493 0.37911654 0.06572491 -0.20613527 0.30666596 0.4472839 -0.09079328
-0.014549821 -0.23835243 0.16406773 0.070663445 -0.0825873 -0.28854188 -0.20433147 0.054386705
0.29045835 -0.001830908 -0.09351877 -0.11959819 -0.07079054 0.21306942 0.11775232 0.212758
0.19448763 -0.13229628 -0.104627565 -0.32117876 0.20722261 -0.09495325 0.046818707 -0.011639669
-0.17855345 -0.15202987 0.2267108 -0.26263767 -0.21714361 -0.12197978 0.09564665 0.08345771
-0.24106187 -0.41775212 0.1478876 -0.17575513 0.31922463 0.0747287 -0.08443693 -0.06836562
0.123380326 0.06658237 -0.19089028 -0.0728802 -0.30795255 -0.10074916 0.26130086 -0.14982116
-0.21358101 -0.23118061 0.23681553 -0.0070907967 0.3152649 0.309981 0.3307582 -0.08088454
-0.064846314 0.24464908 -0.141956 -0.04088164 -0.34093365 -0.26323012 0.30206472 0.31675994
0.26478824 -0.31406 -0.1190878 -0.30002418 0.12870374 0.3150644 -0.2859931 0.1007081
-0.3617597 -0.34428403 0.18301482 -0.08170358 -0.07228761 -0.06883024 -0.19404039 -0.19085714
0.16457105 -0.23955293 -0.38157427 0.0069032665 -0.18395412 -0.0034001071 -0.4113408 0.004671141
-0.0067905597 0.39582846 0.38294467 -0.24402307 0.079260156 -0.1618809 0.1519603 0.03232778
0.12864344 -0.099601276 -0.003830556 0.18288988 0.23562576 -0.13142419 0.02098853 -0.009152755
-0.011088503 -0.059385095 -0.059359126 -0.0029722957 -0.1296873 0.08213773 0.10285429 0.1850067
-0.09419705 -0.12041951 -0.013164331 0.05531207 -0.02921216 0.06402351 -0.12243317 0.10837328
-0.13393381 0.03541679
00000000: 2c03 b03d d913 dd3d aea0 eebd 2971 373e
00000010: 265a 0dbe 15b6 1f3d 7b38 743c 1559 25bd
00000020: 420f 8c3d 2a27 bbbd 3a61 4f3e bab6 6b3e
00000030: 2460 e83d 1aab 4b3d a2b0 04be 2e19 ed3d
00000040: 4058 4c3e 0ae9 483e a092 0dbe a064 e73d
00000050: 91e5 91bd 7948 45be acf0 06be ce81 033d
00000060: 3cb9 e13d 6610 2dbe 97e5 663c 716c c5bd
00000070: 6d7a aa3d 0933 6c3e 1230 cdbe 9db8 bc3e
00000080: 6206 eebe 1b68 543e ce83 5ebe 20e1 843e
00000090: b825 84bd fda5 0abf cf8f dcbe a4f1 723e
000000a0: 5723 983e 6196 c13d 78e3 e93d 12a9 de3d
000000b0: 068f 053e 3d79 473e 8ee2 983e 852f 21bd
000000c0: e567 0bbf ce42 a9be d822 bf3e 68b0 853d
000000d0: 9222 02bd 7ade 48bc 84f7 cd3e 92c4 30be
000000e0: 56d8 fd3e fe08 bebe 16c9 a43d dedb 363e
000000f0: 8b03 e5be d4d3 743d f50c 24be 2d64 853e
00000100: 7188 f53d 57f4 323e d1b6 bfbe bf41 93be
00000110: 3331 93be 9807 b73e d553 db3c 1022 80be
00000120: 0575 83be f088 2cbe fbc1 8dbd de62 f63d
00000130: 9dd0 6c3e c54e 453e 59b3 aebe 68d1 4cbe
00000140: a3eb 913e 06ac a43e 901b c23e c89a 863d
00000150: 2015 53be 5203 9d3e 6502 e53e d4f1 b9bd
00000160: 5f62 6ebc a912 74be 5f01 283e ffb7 903d
00000170: 8823 a9bd c3bb 93be 453c 51be 98c4 5e3d
00000180: f5b6 943e 14fb efba c586 bfbd e5ef f4bd
00000190: a1fa 90bd df2e 5a3e 2128 f13d 3cdd 593e
000001a0: c427 473e ad78 07be fa46 d6bd 8b71 a4be
000001b0: 2a32 543e d976 c2bd f9c4 3f3d 4fb4 3ebc
000001c0: b7d6 36be b8ad 1bbe e026 683e 7278 86be
000001d0: e55a 5ebe 89d0 f9bd 64e2 c33d e0eb aa3d
000001e0: ecd8 76be 9be3 d5be d96f 173e 27f9 33be
000001f0: 6971 a33e 5c0b 993d 45ed acbd 4603 8cbd
00000200: d3ae fc3d 565c 883d be78 43be 3742 95bd
00000210: f5ab 9dbe 9355 cebd 3ac9 853e b86a 19be
00000220: fbb4 5abe 9cba 6cbe c57f 723e ea59 e8bb
00000230: 676a a13e d4b5 9e3e 2459 a93e cba6 a5bd
00000240: 25ce 84bd 4a85 7a3e ea5c 11be 8273 27bd
00000250: db8e aebe 19c6 86be 3aa8 9a3e 5c2e a23e
00000260: 5392 873e 79cc a0be 4ee4 f3bd c59c 99be
00000270: eaca 033e 1f50 a13e b06d 92be 0c40 ce3d
00000280: 9138 b9be ff45 b0be 3d68 3b3e 3554 a7bd
00000290: 870b 94bd def6 8cbd 86b2 46be 0e70 43be
000002a0: 5085 283e 5d4d 75be b45d c3be cc34 e23b
000002b0: 785e 3cbe 55d4 5ebb 439b d2be 5f10 993b
000002c0: 5883 debb 07aa ca3e 5311 c43e 2fe1 79be
000002d0: 2653 a23d 1bc4 25be 7b9b 1b3e 226a 043d
000002e0: 1bbb 033e c1fb cbbd 110a 7bbb 7c47 3b3e
000002f0: e147 713e 1094 06be 23f0 ab3c 70f5 15bc
00000300: 8dac 35bc c93d 73bd 8e22 73bd d9ca 42bb
00000310: bfcc 04be d437 a83d 45a5 d23d 6572 3d3e
00000320: 62ea c0bd 819e f6bd 35af 57bc e98e 623d
00000330: 574e efbc c21e 833d 3ebe fabd cff2 dd3d
00000340: f225 09be 3211 113d

model.classifier.1.bias f4 [7]
-5.8662568e-08 -2.3129174e-07 -1.0473476e-08 1.2501354e-07 -1.6325009e-09 -7.683367e-08 -7.3290664e-08
00000000: 2df4 7bb3 fd58 78b4 d6ee 33b2 763b 0634
00000010: 855e e0b0 c2ff a4b3 f863 9db3

exp_avg f4 [30, 30]
3.3773351e-06 -1.6761135e-06 -3.3618887e-06 -2.555839e-08 -1.3169478e-06 7.3024427e-07 1.5999292e-06 3.0661927e-06
-8.118246e-07 1.0003005e-06 -1.3933291e-07 3.0088597e-06 -5.018712e-06 -2.377801e-06 3.0060508e-07 -5.182926e-07
1.087841e-06 -1.3641945e-06 -1.4237187e-06 -4.2572896e-07 -1.5238785e-06 1.7494657e-06 1.2035057e-06 1.2617456e-06
2.7369795e-06 -3.4583632e-06 1.1244105e-06 2.566716e-06 9.3810945e-07 2.7246367e-07 -2.2094735e-06 1.4637195e-06
9.701376e-07 -9.559442e-07 -8.0013405e-07 -3.9062974e-07 -4.0474742e-06 -2.318899e-06 1.3791416e-06 3.2780893e-06
-1.123186e-06 -4.3208806e-07 1.7262827e-06 1.8793144e-06 7.222873e-07 -3.3282666e-07 -4.4765247e-06 6.977356e-07
1.600072e-08 -1.3252171e-06 2.8550812e-06 1.701499e-06 9.3151294e-07 1.4796242e-08 -5.170851e-07 -4.6763924e-07
2.0272758e-07 -2.3349207e-06 -1.8426722e-06 -2.931169e-07 3.1824e-06 -2.146071e-06 -2.7552853e-06 1.0441746e-06
2.6779216e-07 -1.053069e-07 3.7936416e-06 3.7214652e-06 -1.1356034e-06 -1.1981181e-06 1.1095495e-06 1.8868469e-06
-3.9051497e-06 -4.035769e-06 -7.8363945e-07 1.3104421e-06 3.511116e-06 -1.3931315e-06 -1.3510512e-06 -6.4530946e-07
-3.2037192e-06 -7.669342e-08 2.855079e-07 -1.2807163e-07 1.9353217e-06 -7.792649e-07 -1.1601015e-07 2.4230062e-06
9.037992e-07 1.3308692e-06 -2.9152623e-06 1.7664698e-06 2.7487408e-06 1.2319614e-07 4.1765688e-07 -8.57615e-07
-2.1100966e-06 -2.7618144e-06 -1.0204871e-07 -9.2673577e-07 -3.6380766e-07 7.240328e-08 3.4925142e-06 3.254749e-06
2.4990388e-07 1.796567e-06 -2.7719597e-07 1.4735306e-07 1.0103508e-06 -8.657042e-07 1.4187563e-06 6.3308363e-07
1.2203118e-06 -1.7258911e-07 -2.1656053e-06 1.1221839e-06 4.1012196e-08 -8.437605e-07 8.283977e-07 -2.5915526e-07
8.787452e-07 -6.741457e-07 -1.3346403e-07 1.1705426e-06 8.0493976e-07 -1.4914423e-07 3.0001124e-06 1.4371593e-06
-9.455874e-07 -2.5928607e-06 1.0842061e-06 -6.3962373e-09 -4.8785455e-07 -1.2510495e-06 -7.894348e-07 5.499093e-07
3.2244445e-06 -6.797037e-07 1.2790598e-07 5.78848e-07 -1.9543006e-06 -1.411285e-06 -1.9018155e-07 -9.2777395e-07
-5.6948107e-08 7.307206e-07 -5.129224e-07 1.0667235e-06 1.2893112e-06 9.2654284e-07 -1.7939535e-06 1.1764727e-06
1.92653e-06 -2.0412295e-07 2.7895786e-07 -2.6134464e-07 -1.7202863e-06 -2.3202097e-06 4.977957e-07 -2.8968228e-07
-7.0055916e-07 -2.140111e-06 3.1022273e-06 2.067912e-06 1.6803588e-07 1.5456051e-07 -8.8585875e-07 9.801411e-07
1.1212373e-06 8.054691e-07 1.2220555e-06 -1.0119052e-06 -1.2679465e-06 1.6012328e-07 -1.7608943e-06 1.89687e-06
-1.9847233e-08 -1.2967126e-06 -6.9272815e-08 -9.041397e-07 1.3216095e-06 -8.474725e-07 -1.5303701e-06 -1.0345794e-06
-6.001337e-07 8.612698e-07 -1.8741595e-07 1.1317143e-06 5.530815e-07 2.3387836e-06 -2.1529719e-07 -3.9593527e-07
-2.677934e-06 -1.4596253e-06 4.05782e-07 -1.7505906e-06 -8.744481e-07 5.902215e-07 -6.2636366e-07 7.0609354e-07
1.0861098e-07 1.2863349e-06 -6.166179e-07 1.2791401e-06 1.7967277e-06 -1.4590236e-06 5.237045e-07 7.6291184e-07
-1.0052902e-06 -6.6100097e-07 4.4918716e-06 -1.9158226e-06 -3.7066027e-06 8.440639e-07 -2.5507047e-06 6.459815e-07
3.6997503e-06 3.8534004e-06 -1.6806105e-06 -5.39849e-07 4.189074e-07 3.4925963e-06 -4.9756854e-06 -2.5023294e-06
-2.7363342e-07 6.3071786e-07 5.1157326e-06 -2.0999055e-06 -1.8266144e-06 -6.97118e-07 -2.8296054e-06 5.141393e-07
1.0593758e-06 3.061953e-07 2.548898e-06 -2.9832966e-06 4.0505395e-07 2.8292004e-06 1.6987133e-06 1.1081182e-06
2.5720867e-06 -1.3470403e-06 -1.470946e-06 8.4832976e-07 3.0854136e-07 3.3847184e-07 3.0555684e-06 2.5710428e-06
-1.2729005e-06 -1.57786e-06 8.361197e-07 2.758587e-06 -3.4818775e-06 -2.3445702e-06 -1.1498224e-07 5.158227e-07
00000000: 2da6 6236 d2f6 e0b5 cf9c 61b6 7e8b dbb2
00000010: fbc1 b0b5 0106 4435 26bd d635 cac4 4d36
00000020: 29ec 59b5 1042 8635 8a9b 15b4 d1eb 4936
00000030: 6866 a8b6 4f92 1fb6 d962 a134 cc20 0bb5
00000040: ef01 9235 5e19 b7b5 9a16 bfb5 be8f e4b4
00000050: 1188 ccb5 2fcf ea35 2488 a135 4059 a935
00000060: f3ac 3736 3a16 68b6 73ea 9635 d83f 2c36
00000070: 64d2 7b35 1f47 9234 7746 14b6 0575 c435
00000080: ad35 8235 fe4d 80b5 cbc8 56b5 beb7 d1b4
00000090: 8acf 87b6 629e 1bb6 f21a b935 25fd 5b36
000000a0: 61c0 96b5 bbf9 e7b4 9fb2 e735 c03c fc35
000000b0: 35e3 4135 59af b2b4 0e35 96b6 064c 3b35
000000c0: f571 8932 1dde b1b5 ec99 3f36 0f5f e435
000000d0: 150d 7a35 8f32 7e32 d1cd 0ab5 d90f fbb4
000000e0: 55ad 5934 a2b1 1cb6 bc51 f7b5 ae5d 9db4
000000f0: 3791 5536 3805 10b6 71e7 38b6 9125 8c35
00000100: 13c5 8f34 1525 e2b3 4496 7e36 49be 7936
00000110: 096b 98b5 06cf a0b5 d5eb 9435 913f fd35
00000120: fb08 83b6 fe6a 87b6 4b5b 52b5 73e2 af35
00000130: 83a0 6b36 a2fb bab5 c455 b5b5 5439 2db5
00000140: 7aff 56b6 a7b2 a4b3 e847 9934 1084 09b4
00000150: 93e0 0136 ad2e 51b5 4121 f9b3 ee9a 2236
00000160: 9c9c 7235 51a0 b235 d3a3 43b6 7117 ed35
00000170: 0277 3836 e647 0434 533a e034 db36 66b5
00000180: 2f9b 0db6 9c57 39b6 df25 dbb3 ccc4 78b5
00000190: 5851 c3b4 207c 9b33 f060 6a36 296c 5a36
000001a0: 872a 8634 9221 f135 86d1 94b4 1a38 1e34
000001b0: 649b 8735 bd62 68b5 186c be35 2df1 2935
000001c0: 98c9 a335 ef50 39b4 d154 11b6 f29d 9635
000001d0: 6325 3033 c87e 62b5 0e5f 5e35 0722 8bb4
000001e0: e9e2 6b35 f1f6 34b5 504e 0fb4 8a1b 9d35
000001f0: 0a13 5835 7424 20b4 8a55 4936 6be4 c035
00000200: 45d4 7db5 0201 2eb6 0a85 9135 e6c5 dbb1
00000210: 1cf5 02b5 bce9 a7b5 8ce9 53b5 7b9d 1335
00000220: 8963 5836 e274 36b5 8756 0934 2262 1b35
00000230: a126 03b6 626b bdb5 b534 4cb4 240c 79b5
00000240: 1b97 74b3 bd26 4435 c2af 09b5 572c 8f35
00000250: 650c ad35 8ab7 7835 c6c7 f0b5 4be7 9d35
00000260: 8949 0136 e42c 5bb4 adc3 9534 ef4e 8cb4
00000270: 96e4 e6b5 e6b4 1bb6 43a0 0535 a185 9bb4
00000280: 0f0e 3cb5 d49e 0fb6 dc2f 5036 75c6 0a36
00000290: 5a6d 3434 45f5 2534 c0cb 6db5 648d 8335
000002a0: 6c7d 9635 6a37 5835 8205 a435 ccd0 87b5
000002b0: 4f2e aab5 5aee 2b34 de57 ecb5 f597 fe35
000002c0: 877c aab2 b50a aeb5 22c3 94b3 02b4 72b5
000002d0: 2862 b135 de7d 63b5 1e67 cdb5 e1db 8ab5
000002e0: e018 21b5 0332 6735 813c 49b4 68e5 9735
000002f0: 7977 1435 fff3 1c36 712c 67b4 ee90 d4b4
00000300: 8eb6 33b6 58e8 c3b5 41da d934 d6f5 eab5
00000310: 9ebb 6ab5 b66f 1e35 6223 28b5 618a 3d35
00000320: 853d e933 21a6 ac35 a985 25b5 ebae ab35
00000330: 1827 f135 abd3 c3b5 b394 0c35 e7ca 4c35
00000340: 82ed 86b5 a46f 31b5 e2b8 9636 9591 00b6
00000350: f3be 78b6 a193 6235 c62c 2bb6 8367 2d35
00000360: 3a49 7836 754c 8136 5691 e1b5 24ea 10b5
00000370: 32e6 e034 5962 6a36 d0f4 a6b6 b1ed 27b6
00000380: e4e7 92b4 9a4e 2935 cfa7 ab36 1aec 0cb6
00000390: fe29 f5b5 9621 3bb5 40e4 3db6 6203 0a35
000003a0: e02f 8e35 2963 a434 bc0d 2b36 a534 48b6
000003b0: 3176 d934 4bdd 3d36 58ff e335 a7ba 9435
000003c0: 1d9c 2c36 f4cb b4b5 526d c5b5 c7b8 6335
000003d0: 9aa5 a534 37b7 b534 440e 4d36 2e8a 2c36
000003e0: 87d8 aab5 dbc6 d3b5 b571 6035 2a20 3936
000003f0: 33aa 69b6 6957 1db6 28ec f6b3 1177 0a35

exp_avg_sq f4 [30, 30]
1.2510164e-10 2.1029989e-10 2.372242e-10 2.4388414e-10 3.324287e-10 1.00661084e-10 2.0453016e-10 1.2167796e-10
3.8522772e-11 1.8238833e-10 1.1575929e-10 9.135648e-11 1.5326238e-10 1.6855789e-10 3.05369e-11 1.5783418e-10
4.4457682e-10 1.6648992e-10 5.6857925e-11 4.1678488e-10 8.396272e-11 1.170766e-10 1.10863776e-10 8.228884e-11
8.580531e-11 1.2851137e-10 2.8392444e-10 1.1325216e-10 3.5369982e-10 1.0629501e-10 1.2741237e-10 1.15315854e-10
1.1685027e-10 2.196132e-10 9.6046435e-11 8.8399815e-11 1.227251e-10 1.1060815e-10 6.0422244e-11 1.6315227e-10
5.3362603e-11 1.775731e-10 2.2861361e-10 1.504709e-10 2.6622309e-11 2.5940594e-10 2.7711644e-10 9.502694e-11
1.1777727e-10 2.5594118e-10 7.474737e-11 9.294782e-11 1.1592942e-10 1.1118006e-10 6.458643e-11 1.3357361e-10
5.5648007e-11 1.0594383e-10 2.3263945e-10 1.0348463e-10 1.4251345e-10 1.3457428e-10 2.354309e-10 1.5906189e-10
2.6746497e-10 8.034388e-11 1.3371035e-10 1.3905559e-10 9.6194365e-11 2.4694427e-10 1.7429172e-10 4.5686374e-10
5.9657596e-10 3.3068107e-10 3.8678786e-11 5.438718e-10 3.1210698e-10 1.1366524e-10 9.085498e-11 7.7735074e-10
9.5238116e-11 1.6790153e-10 5.1009236e-10 1.4336263e-10 1.15691276e-10 2.965735e-10 6.592583e-11 1.7249276e-10
3.13795e-10 1.2813539e-10 1.7615649e-10 5.6082323e-11 1.296092e-10 1.3243545e-10 1.9087215e-10 5.0689373e-11
1.2614762e-10 2.2440416e-10 8.0067425e-11 2.806087e-10 1.2878044e-10 4.296627e-11 5.4316973e-10 5.2185595e-10
2.0661257e-11 6.117421e-11 1.6814021e-10 5.7536004e-11 1.830686e-10 1.866594e-10 1.3382473e-10 5.095876e-10
4.4741932e-10 9.544556e-11 1.1215581e-10 2.2158503e-10 5.1934936e-11 2.7207478e-10 1.2073671e-10 1.6190795e-10
6.07634e-11 1.676532e-10 5.6655236e-11 1.3884323e-10 3.8477103e-11 3.740933e-11 6.2555905e-11 1.00563835e-10
6.5533856e-11 3.067012e-10 5.4980773e-11 2.7902275e-10 5.310712e-10 7.3231185e-11 2.0743563e-11 3.1149502e-10
1.0474034e-10 8.99635e-11 3.0730574e-11 4.471616e-10 2.940697e-11 6.7733597e-11 1.5364637e-10 7.152971e-11
3.9551255e-11 1.5164213e-10 4.6063483e-11 5.892102e-11 3.36321e-10 7.160953e-11 4.8171953e-11 6.506599e-11
6.514311e-11 6.786287e-11 7.9348715e-11 2.5859401e-11 4.732011e-11 6.578684e-11 1.707171e-11 1.0247645e-10
4.2884214e-11 3.0013932e-11 8.22213e-11 6.06291e-11 1.8387809e-11 4.836333e-11 1.2027039e-10 3.5677534e-11
5.8179125e-11 9.8397554e-11 4.2007137e-11 7.370112e-11 6.85931e-11 3.656958e-11 3.4342938e-11 5.1473152e-11
3.421542e-11 4.4970097e-11 9.895278e-11 3.7344572e-11 8.108586e-11 6.941111e-11 8.261531e-11 6.3767366e-11
1.8237985e-10 4.3183474e-11 1.725235e-10 1.01932816e-10 2.001034e-11 5.0621e-11 4.44248e-11 8.622144e-11
1.417048e-10 1.5896653e-10 1.4540904e-11 3.3738623e-11 1.5943905e-10 3.0727927e-11 9.902199e-11 2.0654481e-10
5.163696e-11 1.5040429e-10 2.635748e-10 1.0009064e-10 4.9242305e-11 2.21897e-10 6.950171e-11 8.669532e-11
8.336992e-11 7.392175e-11 2.2243324e-10 3.1621425e-10 3.7803052e-10 2.7171873e-10 5.794356e-10 1.3532084e-10
2.4249003e-10 2.266722e-10 5.7812383e-11 2.738947e-10 1.4427971e-10 2.0113383e-10 2.2899606e-10 3.1695668e-10
6.9405565e-11 2.3822014e-10 7.995976e-10 1.905602e-10 1.1189542e-10 4.750469e-10 1.8538832e-10 2.2025662e-10
2.4016583e-10 1.4046292e-10 1.9111757e-10 2.4059982e-10 3.1414e-10 1.9544447e-10 4.3537604e-10 1.5153294e-10
1.8224527e-10 1.5365072e-10 3.1423988e-10 2.1897877e-10 4.701772e-10 1.0646212e-10 2.1791335e-10 2.6374042e-10
1.3307934e-10 1.8629649e-10 7.558609e-11 6.417333e-10 3.534925e-10 5.983145e-10 3.489521e-11 4.2960635e-10
00000000: fb8c 092f 283a 672f 576a 822f a413 862f
00000010: 2ec1 b62f 275b dd2e 1fe2 602f 4dc9 052f
00000020: c96c 292e c089 482f b08e fe2e 20e5 c82e
00000030: 8683 282f d454 392f 7e4d 062e 5f8a 2d2f
00000040: a068 f42f bf0e 372f 5510 7a2e 4221 e52f
00000050: cfa2 b82e 22ba 002f c2ca f32e 80f4 b42e
00000060: 18b0 bc2e bc4c 0d2f d016 9c2f 4c0b f92e
00000070: d372 c22f c5be e92e 6517 0c2f 0e95 fd2e
00000080: 6d7a 002f 9f77 712f 5635 d32e ac64 c22e
00000090: 0bf0 062f da3a f32e b3de 842e 4863 332f
000000a0: f3b0 6a2e 623e 432f 035d 7b2f cb71 252f
000000b0: 1c2c ea2d 249c 8e2f ac58 982f 69f7 d02e
000000c0: 5b7f 012f 85b4 8c2f 075f a42e f964 cc2e
000000d0: 76ee fe2e cf7c f42e ee06 8e2e a1dd 122f
000000e0: 16be 742e 13f9 e82e 2fca 7f2f ab90 e32e
000000f0: f8b1 1c2f 4bf7 132f f46d 812f f1e3 2e2f
00000100: 590a 932f 95ad b02e 1e04 132f abe4 182f
00000110: 9d88 d32e 51c2 872f c2a2 3f2f db29 fb2f
00000120: 4dfc 2330 39cb b52f 711c 2a2e 937f 1530
00000130: 2795 ab2f d7f3 f92e cfca c72e 32ad 5530
00000140: 4b6e d12e 149c 382f 8f36 0c30 fea0 1d2f
00000150: 6668 fe2e 020b a32f f1f8 902e 65a8 3d2f
00000160: b882 ac2f e8e2 0c2f a5af 412f 15a7 762e
00000170: bf81 0e2f 449d 112f bcdd 512f 29ef 5e2e
00000180: 66b3 0a2f 28bc 762f f411 b02e 2a44 9a2f
00000190: 7998 0d2f b8f7 3c2e 2c4e 1530 5972 0f30
000001a0: 04bd b52d 0586 862e 43df 382f c80b 7d2e
000001b0: 3b49 492f f33b 4d2f 5024 132f 0a13 0c30
000001c0: acf8 f52f 13e3 d12e 1ca2 f62e a4a2 732f
000001d0: 8a69 642e 1f93 952f 5dc0 042f 0905 322f
000001e0: c19e 852e 2e56 382f 202c 792e e5a8 182f
000001f0: 5e39 292e 2987 242e d88f 892e 6824 dd2e
00000200: 481c 902e 5b9c a82f d9ce 712e f664 992f
00000210: d0fa 1130 7e09 a12e 5a76 b62d 073f ab2f
00000220: 9253 e62e f3d4 c52e 8d27 072e 67d4 f52f
00000230: 4e55 012e a0f2 942e 9cef 282f a64b 9d2e
00000240: c1f2 2d2e 77bb 262f df96 4a2e 9691 812e
00000250: f9e4 b82f 9578 9d2e ccdc 532e e514 8f2e
00000260: 5040 8f2e 663b 952e 5b7d ae2e 3276 e32d
00000270: b51d 502e b3aa 902e 132a 962d 1d59 e12e
00000280: 559b 3c2e af00 042e 7ace b42e 2653 852e
00000290: aabd a12d 45b4 542e 1b3d 042f 55e9 1c2e
000002a0: dfdf 7f2e e660 d82e d5bf 382e 0b12 a22e
000002b0: 7cd6 962e b0d5 202e b60a 172e 9e61 622e
000002c0: 237b 162e d4c7 452e 7799 d92e 403e 242e
000002d0: 484f b22e fba2 982e 49ac b52e d639 8c2e
000002e0: 5d87 482f 45ec 3d2e 0cb1 3d2f 1327 e02e
000002f0: 4803 b02d 2ea2 5e2e e161 432e 5b9a bd2e
00000300: 5bce 1b2f 1ac9 2e2f 69ce 7f2d 5062 142e
00000310: 1a4e 2f2f 9224 072e 6dc0 d92e 3219 632f
00000320: 0c1a 632e 0b5f 252f dbe6 902f 051a dc2e
00000330: e891 582e 74fa 732f fcd5 982e 20a5 be2e
00000340: 1855 b72e 3f8e a22e 6491 742f 33d7 ad2f
00000350: 11d3 cf2f 0361 952f 2846 1f30 6ec9 142f
00000360: 704f 852f 8d3a 792f f542 7e2e 4193 962f
00000370: 21a3 1e2f 2426 5d2f a9c8 7b2f b03f ae2f
00000380: dc9f 982e 81f6 822f aeca 5b30 ee85 512f
00000390: 850f f62e 7494 0230 2cd6 4b2f ba2c 722f
000003a0: 5608 842f cc70 1a2f d022 522f 6a45 842f
000003b0: 46b3 ac2f bae4 562f bb59 ef2f bb9c 262f
000003c0: 7c61 482f d5f0 282f 55c1 ac2f 0bc5 702f
000003d0: c73d 0130 d81c ea2e 2899 6f2f 2afe 902f
000003e0: 8152 122f cdd5 4c2f 3037 a62e f765 3030
000003f0: a655 c22f a476 2430 8478 192e b82d ec2f

exp_avg f4 [30]
-6.695305e-13 2.4676775e-12 1.4413739e-12 -9.489192e-13 1.2839427e-13 -8.994129e-13 -4.6861213e-12 -3.0436747e-12
-4.9796244e-12 5.0868663e-12 -2.7566749e-12 -4.1210394e-12 -3.5797324e-12 -4.4540083e-12 -4.4780247e-12 7.8385107e-14
1.741269e-12 -4.895404e-13 -9.0202363e-13 -8.701335e-12 -1.7331921e-12 5.3882987e-12 2.2614929e-12 1.5674098e-13
-4.9009186e-12 2.1790386e-12 4.1787047e-12 2.531988e-12 2.921505e-12 -2.1303122e-12
00000000: c274 3cab baa5 2d2c f8da ca2b 6b8c 85ab
00000010: 218f 102a 8829 7dab d4e0 a4ac f82d 56ac
00000020: 7834 afac 6bfa b22c d7fb 41ac 06ff 90ac
00000030: bae6 7bac 24b6 9cac 768e 9dac f081 b029
00000040: d40f f52b 1acb 09ab a7e5 7dab 5413 19ad
00000050: d4ec f3ab 7b95 bd2c 6f23 1f2c 8379 302a
00000060: 8d6f acac 1256 192c 6d06 932c 3e2c 322c
00000070: 2895 4d2c 4be8 15ac

exp_avg_sq f4 [30]
2.0289879e-12 2.286011e-12 4.982853e-12 1.4808645e-12 3.8310136e-12 7.0200603e-12 7.7708104e-13 9.675652e-13
1.8829983e-12 1.3831212e-12 2.8779241e-13 4.1557816e-12 5.163156e-13 5.8070783e-15 1.5441445e-14 1.4618014e-12
1.0935727e-12 3.759995e-12 5.4431962e-12 1.9601261e-13 3.081191e-12 1.0643592e-12 2.1035975e-12 4.1646708e-12
3.7528106e-12 4.870019e-12 5.7635666e-14 4.6563634e-14 4.775165e-12 2.0339334e-15
00000000: ffc6 0e2c 1ddd 202c 8d51 af2c c469 d02b
00000010: b4ca 862c 15ff f62c 97ba 5a2b 362c 882b
00000020: 1581 042c 31a8 c22b 4203 a22a f437 922c
00000030: 7654 112b d838 d127 8c15 8b28 f2ba cd2b
00000040: 1ce8 992b 064b 842c f483 bf2c cab0 5c2a
00000050: cdd1 582c 95cb 952b 0b07 142c 0588 922c
00000060: 500a 842c 3b59 ab2c b3c8 8129 37b4 5129
00000070: dd02 a82c 738f 1227

exp_avg f4 [7, 30]
-7.224299e-07 1.103874e-06 1.7386637e-06 -2.6075948e-06 1.0407819e-07 -3.8972956e-07 -1.6180071e-07 -9.372358e-07
-3.2011828e-06 2.2581262e-06 -2.8165982e-06 1.0308944e-06 -5.8898115e-07 -2.449041e-06 1.8326534e-06 2.3962815e-07
-1.4557125e-07 -2.7976403e-06 8.482618e-07 -3.2027078e-06 1.8458119e-06 2.7544513e-06 1.0274932e-06 -1.3574921e-06
-4.170482e-06 -7.325175e-07 2.8120337e-07 2.4446888e-07 1.8840165e-06 -3.0876477e-06 -8.506938e-07 6.9010355e-07
4.9742616e-06 -1.3043243e-08 4.05327e-06 -4.5593897e-06 -3.4520835e-06 3.143454e-06 -1.170395e-06 3.6986169e-06
-3.6636616e-06 -8.446216e-06 -5.9574904e-07 -5.231803e-06 -2.3563316e-06 7.039113e-07 -2.59612e-06 1.64426e-06
-5.9478106e-07 -1.7457368e-06 -3.4708978e-06 1.1618727e-06 1.7278816e-06 2.4245846e-06 -8.295596e-06 5.5077167e-06
3.311547e-06 6.935284e-06 9.068363e-07 -5.6086956e-06 1.6417143e-06 5.4579064e-06 -4.705821e-06 2.284979e-06
-5.5494047e-06 2.14658e-06 1.753699e-06 -7.3469e-07 -2.7774533e-06 -1.9296706e-06 4.0912273e-06 3.7961163e-06
3.1833754e-06 2.867356e-06 -2.2427503e-06 1.9760744e-06 3.6370125e-06 2.240262e-06 -2.6411892e-06 -4.0384668e-07
8.390331e-08 -2.9834223e-06 -3.3194513e-06 -1.6764731e-07 3.715555e-06 -4.8810593e-06 1.0487905e-06 -3.3030801e-06
3.7965488e-06 4.760745e-06 -5.2361673e-07 -8.990271e-07 -4.5889965e-07 7.431559e-07 2.5466684e-07 1.7294442e-06
-1.300756e-06 6.0686165e-07 7.195414e-08 4.1573185e-07 -2.2969996e-07 3.8463835e-07 -2.573736e-06 -4.7344543e-08
-1.668185e-06 -4.6220288e-07 3.978306e-07 2.1018989e-06 5.337277e-07 7.180652e-07 7.9244677e-07 1.0118829e-06
2.5468823e-06 2.6935413e-07 -2.0573148e-06 1.7990131e-06 3.9376062e-07 -4.4433332e-07 4.3926698e-07 -1.4750507e-06
-1.6656174e-06 -4.619622e-06 3.5989892e-06 -1.6938955e-06 4.090027e-06 -4.771962e-07 -1.4171554e-06 1.129025e-07
2.7824974e-06 7.1635856e-07 -2.043917e-06 -7.2091396e-08 -2.736331e-06 -3.3184501e-06 1.9939755e-06 -5.162351e-07
-2.312734e-06 -1.9566912e-06 2.6880623e-06 9.4710447e-07 2.1407247e-06 2.1425817e-06 3.2397968e-06 -4.016531e-07
-2.5900315e-06 2.8993493e-06 -2.2996599e-06 7.305367e-07 -3.3412248e-06 -2.5039878e-06 -3.049863e-06 9.2404656e-07
8.781904e-07 -3.2845285e-06 9.92751e-07 3.5525042e-07 -2.9870992e-07 -1.5409449e-06 -3.589876e-06 3.037847e-06
-3.0022334e-06 -2.4446897e-06 -1.0733484e-06 -1.1180489e-06 3.293366e-06 8.1503906e-08 -1.581239e-06 -4.3594473e-06
6.558164e-07 -4.3190125e-06 3.538476e-06 3.9043916e-06 1.9729805e-06 -1.1296052e-06 -1.5806063e-06 1.117249e-06
1.5078292e-06 -1.9716688e-07 -7.307479e-08 -3.1785326e-06 -9.525034e-07 9.608669e-07 6.9477085e-07 -3.3918275e-07
6.062533e-07 -1.1468654e-06 -1.6587913e-07 1.9861318e-06 -2.1426993e-06 2.1240986e-07 -5.101579e-07 -1.6141382e-06
1.9106189e-07 -1.3186442e-06 4.845481e-08 6.4326446e-07 -2.7789415e-06 -9.9542e-07 -1.2291241e-07 -1.4093603e-06
1.1947432e-06 -2.0011791e-07 1.9949601e-07 2.300442e-07 -4.5263897e-07 1.180221e-06 1.1422753e-06 1.282963e-06
-2.4563167e-07 -8.649955e-07
00000000: 01ed 41b5 d228 9435 085c e935 23fe 2eb6
00000010: 9781 df33 063c d1b4 71bb 2db4 5b96 7bb5
00000020: e7d3 56b6 508a 1736 ca04 3db6 435d 8a35
00000030: 7a1a 1eb5 345a 24b6 7ef9 f535 3ea6 8034
00000040: 524e 1cb4 18bf 3bb6 1bb4 6335 1aee 56b6
00000050: 9dbd f735 1dd9 3836 66e8 8935 1333 b6b5
00000060: 2bf0 8bb6 38a2 44b5 4cf8 9634 8c3f 8334
00000070: 50de fc35 6235 4fb6 3c5b 64b5 8e3f 3935
00000080: 95e8 a636 ca14 60b2 5301 8836 dcfc 98b6
00000090: 58aa 67b6 21f4 5236 7716 9db5 c135 7836
000000a0: 3add 75b6 39b4 0db7 90eb 1fb5 d88c afb6
000000b0: 7821 1eb6 6bf4 3c35 0139 2eb6 58b0 dc35
000000c0: 0ba9 1fb5 0f4f eab5 92ed 68b6 a4f1 9b35
000000d0: 8fe9 e735 0cb6 2236 502d 0bb7 edce b836
000000e0: f23b 5e36 a3b5 e836 516d 7335 5432 bcb6
000000f0: e058 dc35 0f23 b736 b2e6 9db6 a457 1936
00000100: 0635 bab6 f70d 1036 a460 eb35 8337 45b5
00000110: 4964 3ab6 7d7f 01b6 6047 8936 c8c0 7e36
00000120: f9a1 5536 cd6c 4036 2882 16b6 b39c 0436
00000130: 6613 7436 6857 1636 493f 31b6 44d0 d8b4
00000140: 552e b433 ce36 48b6 bdc3 5eb6 8b02 34b4
00000150: c058 7936 fbc7 a3b6 2bc4 8c35 7caa 5db6
00000160: 36c8 7e36 7dbe 9f36 ab8e 0cb5 ac54 71b5
00000170: b05e f6b4 497d 4735 25b9 8834 401f e835
00000180: a395 aeb5 37e7 2235 3585 9a33 c031 df34
00000190: 72a3 76b4 4b80 ce34 73b8 2cb6 e057 4bb3
000001a0: 66e6 dfb5 ae24 f8b4 6c95 d534 590e 0d36
000001b0: 7d45 0f35 11c1 4035 87b8 5435 08d0 8735
000001c0: 1beb 2a36 c09b 9034 6610 0ab6 9f75 f135
000001d0: 0c66 d334 b58c eeb4 65d4 eb34 5bfa c5b5
000001e0: 2e8e dfb5 4002 9bb6 2a86 7136 ce59 e3b5
000001f0: 103d 8936 ac18 00b5 1735 beb5 ce74 f233
00000200: f1ba 3a36 c94b 4035 3a2a 09b6 aad0 9ab3
00000210: cfa1 37b6 8ab2 5eb6 3dd0 0536 6893 0ab5
00000220: 7834 1bb6 b34f 03b6 8f64 3436 863c 7e35
00000230: 5fa9 0f36 46c9 0f36 496b 5936 c8a2 d7b4
00000240: 67d0 2db6 7192 4236 db53 1ab6 1a1a 4435
00000250: ce39 60b6 2f0a 28b6 3fac 4cb6 ff0b 7835
00000260: c9bc 6b35 c56b 5cb6 aa3e 8535 3fb9 be34
00000270: 615e a0b4 77d2 ceb5 9ae9 70b6 d0dd 4b36
00000280: fa79 49b6 730f 24b6 f80f 90b5 de0f 96b5
00000290: 9903 5d36 3f07 af33 f53a d4b5 5e47 92b6
000002a0: 5c0b 3035 09ec 90b6 8e76 6d36 7802 8336
000002b0: 8c67 0436 f09c 97b5 3825 d4b5 62f4 9535
000002c0: 9e60 ca35 d2b4 53b4 4aed 9cb3 c64e 55b6
000002d0: 89af 7fb5 23f7 8035 4a80 3a35 ec18 b6b4
000002e0: 69bd 2235 ffed 99b5 821c 32b4 7c49 0536
000002f0: 4bcb 0fb6 c712 6434 c9f1 08b5 5ea5 d8b5
00000300: b126 4d34 45fc b0b5 a11c 5033 ccac 2c35
00000310: da7d 3ab6 5f9a 85b5 e8f9 03b4 4029 bdb5
00000320: 105b a035 fedf 56b4 0c35 5634 1102 7734
00000330: 3a02 f3b4 1668 9e35 4850 9935 4632 ac35
00000340: 5cdf 83b4 0a32 68b5

exp_avg_sq f4 [7, 30]
2.315694e-09 5.326012e-11 1.420761e-09 2.4383223e-10 4.6760823e-10 1.0895683e-10 4.9270815e-10 2.2541728e-10
4.715173e-10 1.0522266e-10 6.995656e-11 4.2212696e-09 5.6543163e-11 3.4064784e-09 1.240404e-10 4.5495488e-10
8.8324614e-10 2.207711e-10 1.0748028e-09 1.3998228e-10 4.954781e-10 6.469822e-11 7.680695e-11 6.4862965e-10
8.680168e-10 4.5237827e-09 6.117819e-10 1.0770184e-09 8.054974e-10 2.6274403e-09 1.9239936e-09 8.8361607e-10
3.380451e-10 8.5941976e-10 1.6950654e-09 8.9338825e-10 1.5768723e-09 1.5145035e-09 6.642318e-10 1.1291392e-09
4.5782467e-10 1.9002324e-09 1.2494076e-09 9.7019e-10 4.273252e-10 2.1245512e-10 8.742456e-10 1.2367145e-09
7.1366435e-10 8.0228885e-10 1.3330084e-09 1.3956898e-09 2.0437574e-09 3.8233444e-10 1.2710915e-09 2.031474e-09
1.0165028e-09 1.4908419e-09 8.0181184e-10 1.5618479e-09 1.0028179e-09 1.8867814e-10 2.392143e-10 5.064234e-10
1.7743508e-10 3.1365713e-10 7.101354e-10 2.4453486e-09 2.7807975e-10 1.360381e-09 1.0268301e-10 2.1531771e-10
2.533036e-10 2.6168948e-10 1.0757279e-10 1.2111348e-10 8.8275015e-10 4.1283285e-10 8.252118e-10 1.6562664e-10
6.8728584e-10 4.0395406e-10 8.079912e-10 1.830576e-10 2.4850136e-10 4.843522e-10 1.0623028e-09 3.6833722e-10
3.6247164e-10 2.2121759e-10 3.8516004e-10 9.927523e-11 3.947138e-10 5.869133e-10 1.5093938e-09 2.2262319e-09
7.819888e-10 2.7297126e-11 2.605189e-10 7.7951326e-11 6.3456546e-11 7.024202e-10 5.700697e-10 1.0728805e-09
2.1644549e-10 6.378373e-10 3.8840684e-11 2.4293039e-09 2.643108e-10 2.1617598e-10 1.6601312e-10 6.115227e-11
6.1366423e-10 1.1846062e-10 6.967322e-10 5.778816e-10 3.073236e-10 1.4797759e-09 7.552638e-10 2.7476005e-10
9.925055e-10 6.6614236e-10 3.8550768e-10 2.3596203e-10 4.3245368e-10 1.275474e-10 4.3512227e-10 2.9703215e-10
1.1942168e-10 4.201411e-10 2.130498e-10 1.5891606e-09 1.4154669e-10 1.2382642e-09 4.8577214e-10 1.8036807e-10
3.7132236e-10 1.9191485e-10 3.1495273e-10 4.460768e-11 3.5017275e-10 4.2007917e-10 3.3411623e-10 9.9895925e-11
4.612136e-10 1.3776157e-09 5.259571e-10 2.4843907e-10 6.538579e-10 4.730194e-10 5.259319e-10 1.030872e-09
1.1390772e-10 7.720467e-10 8.9795685e-11 4.6984383e-10 1.7486823e-10 3.6381453e-10 5.6677746e-10 1.1222636e-10
4.2665016e-10 7.5149637e-10 1.2308975e-10 1.0285654e-10 1.06428207e-10 1.040045e-09 4.3105494e-10 2.942711e-10
2.5915814e-10 3.4460115e-10 5.9936117e-10 2.2028863e-10 3.5999573e-10 1.6162029e-10 2.621092e-10 2.5775998e-10
3.0511318e-10 1.0175162e-09 7.3933976e-10 8.4136215e-10 8.93931e-11 2.6673996e-10 7.1942136e-10 5.112299e-10
1.7441745e-09 2.4319342e-09 8.6621474e-11 3.011985e-09 6.5674716e-10 1.898932e-09 9.269972e-11 2.9382102e-10
1.8102798e-10 7.623317e-10 2.5468636e-10 6.719971e-10 9.390879e-10 1.7924296e-09 1.9291276e-10 4.187701e-10
7.302748e-10 1.4347527e-09 6.8973806e-11 8.9965355e-11 1.522965e-10 8.5414165e-10 8.241312e-11 1.2294271e-09
3.8667933e-10 4.602587e-11
00000000: 1f22 1f31 903d 6a2e 9544 c330 560c 862f
00000010: 0189 0030 3e99 ef2e 416f 0730 53d9 772f
00000020: 159c 0130 1763 e72e 0bd6 992e ae0a 9131
00000030: f1ad 782e 6717 6a31 4562 082f 351d fa2f
00000040: ecc8 7230 8abd 722f 43b8 9330 82e9 192f
00000050: 2c32 0830 dc45 8e2e 78e6 a82e 414b 3230
00000060: 4199 6e30 9d6f 9b31 532a 2830 3706 9430
00000070: d769 5d30 6b8e 3431 4137 0431 f4e2 7230
00000080: 9ed7 b92f 4a3c 6c30 d0f7 e830 9c92 7530
00000090: 43b9 d830 db26 d030 2895 3630 0e30 9b30
000000a0: 18b1 fb2f 3e95 0231 9fb7 ab30 8757 8530
000000b0: adec ea2f cd98 692f 914f 7030 06f9 a930
000000c0: aa2b 4430 0f88 5c30 1035 b730 78d2 bf30
000000d0: 2972 0c31 ca30 d22f 8eb2 ae30 129a 0b31
000000e0: 03b5 8b30 56e6 cc30 7e66 5c30 a3a8 d630
000000f0: 85d3 8930 2d74 4f2f 6b82 832f 6134 0b30
00000100: 8917 432f 516f ac2f 5633 4330 070b 2831
00000110: 3fe0 982f 27f8 ba30 65cd e12e 8cbe 6c2f
00000120: 5041 8b2f 85dd 8f2f 198e ec2e 6a2a 052f
00000130: 05a6 7230 0ff5 e22f 1ed5 6230 c11b 362f
00000140: 71eb 3c30 7b13 de2f 5319 5e30 2246 492f
00000150: 759d 882f 4223 0530 7500 9230 db7e ca2f
00000160: 5945 c72f 373b 732f 75be d32f fc4e da2e
00000170: 07ff d82f 5a54 2130 1373 cf30 49fc 1831
00000180: 92f3 5630 aa1b f02d c738 8f2f b26a ab2e
00000190: dc8a 8b2e 6d14 4130 17b3 1c30 a074 9330
000001a0: fdfb 6d2f cf53 2f30 b9d2 2a2e c4f0 2631
000001b0: 704e 912f 21b0 6d2f 8a88 362f ab79 862e
000001c0: c8ae 2830 b33f 022f 2c84 3f30 cdd8 1e30
000001d0: f4f3 a82f fc60 cb30 f79a 4f30 0a0d 972f
000001e0: af68 8830 9a1b 3730 62ef d32f b4b8 812f
000001f0: 72be ed2f 673d 0c2f 0436 ef2f 8f4b a32f
00000200: 374e 032f 9af9 e62f 3040 6a2f 9e69 da30
00000210: daa1 1b2f 8c2f aa30 2d87 0530 1951 462f
00000220: fa22 cc2f 3a03 532f a825 ad2f c82f 442e
00000230: 6f82 c02f e3f0 e62f aeae b72f 68ac db2e
00000240: 0b8e fd2f 8b56 bd30 f192 1030 b194 882f
00000250: 29bb 3330 c805 0230 2b91 1030 96ae 8d30
00000260: 587c fa2e f537 5430 7a76 c52e 5226 0130
00000270: 0845 402f 5802 c82f 6bcb 1b30 d3c9 f62e
00000280: ac8d ea2f db91 4e30 af56 072f 162f e22e
00000290: c109 ea2e 55f1 8e30 97f9 ec2f fac6 a12f
000002a0: 4479 8e2f 4d72 bd2f 4bc0 2430 bd35 722f
000002b0: e5e8 c52f 11b4 312f 9718 902f 7eb4 8d2f
000002c0: ddbc a72f abd8 8b30 693a 4b30 9945 6730
000002d0: d793 c42e 50a4 922f c7c0 4530 9b86 0c30
000002e0: afb7 ef30 0a1f 2731 8e7b be2e 67fb 4e31
000002f0: 7986 3430 5d7e 0231 4ed9 cb2e a287 a12f
00000300: d90a 472f 538c 5130 eb03 8c2f 98b7 3830
00000310: 3811 8130 8359 f630 1d1c 542f a738 e62f
00000320: 85bc 4830 df30 c530 cdac 972e fed5 c52e
00000330: a773 272f e0c8 6a30 763a b52e 9ff8 a830
00000340: 4794 d42f 866c 4a2e

exp_avg f4 [7]
-4.879959e-12 -4.1222577e-12 2.2461474e-11 -8.347272e-12 2.6597407e-12 3.8347867e-12 -1.8418718e-11
00000000: c3b2 abac ff09 91ac be92 c52d c5d8 12ad
00000010: a129 3b2c b0ec 862c 4403 a2ad

exp_avg_sq f4 [7]
2.994369e-12 3.7834268e-14 6.5919217e-15 7.470083e-14 1.08805e-12 1.3654753e-13 5.3940455e-12
00000000: c2b5 522c f163 2a29 bf7f ed27 1936 a829
00000010: 2221 992b 25bd 192a 3ec9 bd2c
