tutorial/DLPFC_output/version_1/checkpoints/mlp.ckpt (torch, 18997 bytes, 12 tensors)

model.classifier.0.weight f4 [30, 30]
00000000: e236 c83d daa4 273e 9834 e53d 1f39 d93d
00000010: c14d 6b3e 4358 283e eda6 2b3e fcc7 e5bb
00000020: 94b1 c33d 0ac6 283c 30b7 163e cf96 93bd
00000030: 9d0a 4cbe 24b0 c83c c4bc 143e b715 bfbd
00000040: 4b5a 103e 1959 8ebd a914 f4bc d6d6 4abd
00000050: a4ba 113e 1f01 a53c b0c2 253d be9c 3e3d
00000060: 7129 e6bc a8a5 65bd c940 4dbe b3fb c9bd
00000070: 8428 613d be2e 413c 8b43 95bd 69cc 2fbe
00000080: 121d 09be 6947 0ebe fc37 35be 3a1e 15be
00000090: 7f8f 1dbe 36f4 813d b54e 4ebd 1999 ff3c
000000a0: 7c62 d3bd b1d7 a2bb 68ac 3d3d 0911 9abd
000000b0: 6f60 f8bd ed4f ec3b eeb9 e7bd 1f6c d03d
000000c0: b3e9 663c c532 a93d 17c2 cebd b8f9 5f3d
000000d0: 517d 1abd b19a 6fbc 1d04 123d 4f95 513d
000000e0: fbc5 2e3e 9c51 403d 6b32 dabd 736a f9bb
000000f0: 1180 debc 0dc9 0abe 8cb1 1bbe c56b c6bd
00000100: de23 04be 0282 b8bd 1a2f 00be e36f d73d
00000110: 9c30 37ba 7fa6 003e 523b 96bb d2ae d63b
00000120: 5b22 d1bd 83d6 f0bd d0ff 34bd 585f c1bc
00000130: 9597 41be c6c7 613c 0d6a b1bd 01cd f9bb
00000140: fabd 803d ab65 533e 6ed2 bd3d beaa bebc
00000150: 9338 263c ab8b 0f3c 0bb1 943d cbe5 98bc
00000160: 06ec 22be a072 26bc 1e70 a6bd d61c cbbd
00000170: 62e3 7cbd ea72 cabd 891c 58be 80a7 0abe
00000180: eea2 d2bd b362 fcbc 0314 07be 1efd fdbd
00000190: 2fb0 4dbe 30ca d33d 246a 9e3e 97d4 99bb
000001a0: 18b3 26be 76f1 193e c512 a03c e5f0 bf3d
000001b0: 73e9 e93d 63b4 273d 8060 77be f4a0 14be
000001c0: bab4 a3bd 08fb 59bd b43d 3d3d fc73 ac3a
000001d0: b891 4e3e 35dd bb3d fb8e 8f3d e568 d63c
000001e0: 87a5 563c 719c 5a3b cbf7 1e3d ceca 893d
000001f0: c9f0 213d 0e79 b73d 0b0f 9bbc 2e36 0bbe
00000200: 860d c6ba 6edf 28bd c217 f0bc a20c b7ba
00000210: 8f7d cd3d 9701 253e d304 293d ddda f6bc
00000220: 50a9 1abe 6c07 68bd 4d95 a73c fe02 ab3d
00000230: f894 863d 0b23 afbd 2321 babd d29e 423d
00000240: 09a7 b9bc c5ea d13d 59e4 8fbc 60ea c13d
00000250: ab54 a4bb 6599 cebd cdc7 8cbc 991e 28bd
00000260: f04d 29bd 706a 03be 4f79 95bd c349 62bd
00000270: ca94 dcbb e58f bc3c 8f5b 92bd 2e42 14be
00000280: 4266 16be 4c84 97bc a84b fa3d b475 6fbd
00000290: d539 e8bd 8a31 e43c 23e6 3b3e 7be7 1b3e
000002a0: b644 1f3e 9c6e ab3d 07dc 6bbe 8354 07be
000002b0: bc35 f6bd 9ff8 0339 79cd 883d 0ee5 f6bc
000002c0: 1d66 f43d 9799 70bb 237e 993d 1d96 523d
000002d0: e0f8 833d a71b 163e 1ff7 0f3e 57a1 a03d
000002e0: cca6 503e b8cf 153e 4cf5 1d3e e290 41bd
000002f0: 8a35 783d 7377 4abd 7ff9 a73d 65b9 f0bd
00000300: 1bcd c9bd 7237 af3d 1b61 d43d 5870 a5bd
00000310: 8768 573e ccc5 84ba 1bc9 693d 0176 363d
00000320: c765 0e3d e372 c9bd 5522 a8bd ca40 793d
00000330: 4160 11bc 1ed1 b0bb 8eb5 0dbe 8b59 1cbd
00000340: 356b a83d 3714 713b 9d81 cb3d 4094 a43d
00000350: 5395 093d aa24 cc3c a212 423e 3775 363e
00000360: e937 d33d 7424 3e3c 5723 c83d 4f17 383d
00000370: 2361 ec3d 104e 11be 9d00 91be a3dc d13c
00000380: c73b 093e 0513 29be 0636 f83c 446e 9cbc
00000390: f222 cabc f7f7 703d 4097 353e 749c a13d
000003a0: b4cf 83bc 6c12 9d3d ba58 23bc 0ba6 043c
000003b0: 9373 25be 38c9 adbd 1610 4abd 64ac 12bd
000003c0: c909 dd3d f591 5ebd 333e efbd 712e b6bd
000003d0: 9dff 2d3d acb2 253e 170d 94bc 8c58 7e3b
000003e0: 8a30 363d b081 9a3b 1902 8abc ca9b e7bd
000003f0: 1483 4ebe 6e75 85bb f926 763d d918 43be
0.09776093 0.1637148 0.11191672 0.10606598 0.2297888 0.16439919 0.16762896 -0.0070123654
0.09555355 0.010301122 0.14718318 -0.07206499 -0.19925924 0.024498053 0.14525133 -0.09330314
0.14096944 -0.06950588 -0.029795008 -0.04952129 0.14231354 0.020142136 0.04046887 0.0465362
-0.028095933 -0.056066185 -0.20044245 -0.09862461 0.05497028 0.011790929 -0.072882734 -0.1716782
-0.13389996 -0.13894428 -0.17697138 -0.14562312 -0.1538677 0.06345408 -0.05036803 0.031200932
-0.10321519 -0.00496956 0.046306998 -0.075227804 -0.12127768 0.0072116763 -0.1131476 0.101768725
0.014093804 0.08261637 -0.100956134 0.05468151 -0.037717167 -0.014624284 0.035648454 0.051167782
0.17067711 0.04695283 -0.10654148 -0.0076115667 -0.027160676 -0.13553257 -0.15204448 -0.09688524
-0.12904307 -0.09009172 -0.12517968 0.105193876 -0.00069881394 0.12563513 -0.0045847083 0.006551602
-0.10211631 -0.11759665 -0.044189274 -0.023605034 -0.1890548 0.01378054 -0.08662806 -0.0076233153
0.06286235 0.20644252 0.09268652 -0.023274776 0.010145324 0.008761327 0.07260331 -0.018664261
-0.15910348 -0.010159165 -0.081268534 -0.099176094 -0.061740287 -0.09885199 -0.21104635 -0.13540459
-0.102849826 -0.030808782 -0.13191228 -0.12401794 -0.2008674 0.103412986 0.30940354 -0.004694532
-0.16279256 0.15033516 0.0195402 0.09372119 0.1142148 0.040943515 -0.24157906 -0.14514524
-0.07993455 -0.053217918 0.046201423 0.0013157125 0.20172775 0.09173051 0.07009693 0.026173064
0.013100988 0.0033357407 0.038810533 0.06728135 0.03953627 0.08958636 -0.018928071 -0.13594887
-0.0015110231 -0.041228704 -0.029308204 -0.0013965557 0.10033714 0.16113888 0.041264366 -0.030133659
-0.1510365 -0.056647703 0.020456934 0.0835018 0.06571382 -0.08551606 -0.090883516 0.047514744
-0.022662656 0.10249857 -0.01756494 0.094685316 -0.005014976 -0.100878514 -0.017185116 -0.041044805
-0.041334093 -0.12833571 -0.072985284 -0.055246126 -0.006731604 0.023017833 -0.0714637 -0.1447837
-0.14687446 -0.018495701 0.122214615 -0.05846186 -0.113391556 0.027855653 0.18349509 0.15225022
0.15553555 0.083707064 -0.23033153 -0.13215832 -0.12021968 0.00012585752 0.06679816 -0.030138519
0.11933539 -0.003671264 0.07494762 0.05141269 0.064439535 0.14658986 0.14059113 0.07843273
0.20376128 0.1463002 0.15425605 -0.04725731 0.060597934 -0.049430322 0.082018845 -0.11754111
-0.09853574 0.08555497 0.10370084 -0.080780685 0.21035968 -0.0010129749 0.057076555 0.04454613
0.03476503 -0.09836366 -0.08209673 0.060852803 -0.008873046 -0.0053960225 -0.13838789 -0.038171332
0.08223573 0.003678573 0.09936831 0.08036089 0.033589672 0.024919827 0.1895242 0.17818151
0.103133984 0.011605371 0.097723655 0.044944104 0.11541965 -0.14189935 -0.2832078 0.025617903
0.1340171 -0.16511162 0.030299198 -0.019095547 -0.024674866 0.058830228 0.17733479 0.07891169
-0.016090252 0.07669529 -0.0099698845 0.008096228 -0.1615737 -0.08485645 -0.049331747 -0.035808936
0.10792882 -0.054338414 -0.116817854 -0.08895577 0.0424801 0.16181439 -0.018072648 0.0038810102
0.044479884 0.004715167 -0.016846703 -0.11309011 -0.2016719 -0.0040728366 0.06009576 -0.19052447

model.classifier.0.bias f4 [30]
00000000: ed6f cf33 e3d7 8eb3 1c8b 55b2 104f d4b3
00000010: aa97 14b3 0489 32b3 6913 c133 e7b0 c333
00000020: 1770 2eb2 a5e0 3931 bb8c ccb3 8321 1b33
00000030: 1cc6 1834 bc4d 0634 b20a 9634 c422 1db2
00000040: 37c3 5432 040c 28b3 60b6 cd32 4ee4 00b4
00000050: 1357 7132 5f70 4132 f203 c3b3 3873 13b3
00000060: c8b9 9931 8bcf 53b3 48d0 40b4 2428 06b4
00000070: e434 5633 dcd6 a3b4
9.659548e-08 -6.65166e-08 -1.2429862e-08 -9.886401e-08 -3.4596873e-08 -4.156847e-08 8.9907935e-08 9.1125735e-08
-1.0153619e-08 2.7048739e-09 -9.525089e-08 3.611923e-08 1.4228175e-07 1.2508002e-07 2.794746e-07 -9.1465076e-09
1.2384411e-08 -3.9126476e-08 2.3948076e-08 -1.2003986e-07 1.4047845e-08 1.1259629e-08 -9.081113e-08 -3.4330895e-08
4.474007e-09 -4.9316025e-08 -1.7957166e-07 -1.2494326e-07 4.987386e-08 -3.0517447e-07

model.classifier.1.weight f4 [7, 30]
00000000: 7d88 403e 8317 40be 1eb6 82bc 9586 e3bd
00000010: 58cd 6cbe dbb7 39bd 40a6 193d 9d3a 0e3d
00000020: f423 05be 6bbe 0d3e b903 a73c 5e24 5f3e
00000030: 92c6 413e 6cdb c8bb 0a93 8a3e e645 8f3d
00000040: f440 7f3e 1d79 0abd 7cf5 b7bd 9ce1 70be
00000050: e831 1f3e 31b6 a3bd 385d 87be e9cf 683d
00000060: f05f 0d3c 023b 92be 6036 99be 2f3b 36be
00000070: dfd8 233e d4a6 843e 7776 d0be 37f9 903e
00000080: c56b de3d 612e e73e c63a 27be 0fe0 533e
00000090: 65f0 a4be 2022 f6be 8da1 d4be fb92 873e
000000a0: da35 b03e bfe4 de3c 320a 26bd eec7 89be
000000b0: 31cf 8dbe 2bf8 913e 378d 843e 435d 463e
000000c0: 3f3b eabe 4d75 9ebe 5651 263e 7ec5 babe
000000d0: 9859 663d 3394 063f dfd3 62bb 0413 77be
000000e0: 80e6 e03e e285 7dbe 75f7 74be 2513 073e
000000f0: 4277 0bbd 1406 b8bd 9ef3 64be 4d61 413e
00000100: a509 003e 97dc 0a3e 7822 6c3d e0e8 f5bd
00000110: cf1a e9bd dac4 c2bd 0293 493e 2ea9 033e
00000120: 802c a4bd 40fc 123e 5386 e9bd 4aac cdbd
00000130: 586e cd3d 9f9f 1e3e 18fc 1bbd f9b0 acbd
00000140: 6afb 693d 915c eb3d 6e41 f53d d9d7 1c3e
00000150: 6136 1d3e d9bd d6bc 3764 453e 8ae1 25be
00000160: fbbd 063e 5a25 353e 68a9 c93d 456d 7dbd
00000170: 4c8e 05be 3ab4 aabd f305 673d c065 273c
00000180: 435f 533e 911c 213e fb91 1d3c a336 25be
00000190: 762e a7bd 3b22 69bd e9a8 b43d ddf3 e83d
000001a0: fec8 c93c e6f4 bdbd c590 08be 3a94 d5bc
000001b0: 273b 703e 7716 ee3d 8fa2 20be 1e79 b13d
000001c0: 2e4d 08bd 1cc6 1ebe 3bc9 f03d 537d 623d
000001d0: 855c b0bc 0a5d 1c3d 087a 743d c898 373c
000001e0: a4c7 053e 1553 e2bd cdc9 3b3e 4123 bdbe
000001f0: 8b1c 8e3d bfa5 f9be 2702 bdbd bd90 063e
00000200: f068 343d d75c 24be b4a5 ccbe 481f 393e
00000210: b153 c7be 0b94 9d3b dd3f b43e c8fa c8bd
00000220: 9781 58be c838 8ebe 9bce 9bbd d5b4 90be
00000230: 7070 de3e 0c51 903e 3266 2c3c a71d a8be
00000240: e8e2 2fbe 1fb4 c3bc 20cd 9abe 735d ccbd
00000250: 1fc9 c63d 9e2f c7be 2024 5a3d e995 183e
00000260: 29fd 843e ba0c 4cbe c2d5 70be 9ce2 a83c
00000270: 9590 3bbd cf43 3f3e f6e7 5d3e 6d30 873e
00000280: d85d 41be e925 aabe 3b61 c53e 0ee9 7ebe
00000290: 5c7e 8e3d f292 423e 250d 96bd f550 13be
000002a0: 8466 163e 3228 a23e d2e3 babe ff61 8ebe
000002b0: 1d84 4abe 473b 8abd bd47 98be 9786 b73d
000002c0: 4041 bdbd e79c bc3e 99ad 17be b68b c0bd
000002d0: aa2a c8be 5b76 b13e 885a a23e e9c5 843e
000002e0: 91b4 8d3d e979 443d 8c6c c0be 3eb0 2fbe
000002f0: 04dd 4b3e 0d8e 303e 5267 183e 0520 53be
00000300: 30e0 86be a338 82be 7d3d cebe d391 203e
00000310: 4096 6abd 9127 b13d ff07 85be f67e 613e
00000320: 6e56 5f3c 92fc 27be 7e7b ac3e d266 413e
00000330: 1ceb 8abe 0004 7c3e f20e a23e 14ea 983e
00000340: 8754 b2be 545e bebe
0.18802066 -0.18758969 -0.01595598 -0.11109654 -0.23125207 -0.045341354 0.037512064 0.034723867
-0.13001996 0.1384217 0.020387517 0.21791217 0.18923405 -0.0061296728 0.27065307 0.06995754
0.24927121 -0.03380691 -0.08982369 -0.23523563 0.15546381 -0.07993735 -0.26438308 0.056838904
0.00862883 -0.28560644 -0.29924297 -0.17796014 0.16000699 0.2590853 -0.40715382 0.28315136
0.10860399 0.45152572 -0.16331014 0.2069094 -0.32214656 -0.4807291 -0.41529503 0.26479325
0.34416085 0.027208684 -0.040537067 -0.26910347 -0.27697137 0.2850965 0.25888988 0.19371514
-0.45748326 -0.30948868 0.16241965 -0.364788 0.056237787 0.52569884 -0.0034611148 -0.24128348
0.43925858 -0.24758103 -0.23922522 0.13190897 -0.03404928 -0.08985534 -0.22358558 0.18884774
0.12503679 0.13560711 0.05765006 -0.12007308 -0.113820665 -0.09510203 0.19684985 0.12857506
-0.080163 0.14354038 -0.114025734 -0.10042627 0.10030812 0.15490578 -0.038082212 -0.08432192
0.057124533 0.11492265 0.1197537 0.15316714 0.15352775 -0.026213573 0.1927651 -0.16199318
0.1315841 0.1769003 0.09846765 -0.061871786 -0.13042563 -0.08335157 0.056402158 0.01021713
0.20641808 0.15733553 0.009617324 -0.16134124 -0.081631586 -0.05691741 0.088212796 0.11374638
0.024631973 -0.09275226 -0.13336475 -0.026071656 0.23460065 0.116253786 -0.15687011 0.086656794
-0.03327673 -0.1550526 0.11757132 0.0552953 -0.021528492 0.038174666 0.05968669 0.0112058595
0.13064438 -0.11051003 0.183387 -0.3694096 0.06939038 -0.48759267 -0.09228926 0.13141151
0.04404539 -0.1605104 -0.3997017 0.18078339 -0.3893104 0.004808908 0.35204974 -0.09813458
-0.21143185 -0.27777696 -0.07607766 -0.28262964 0.43445158 0.28186834 0.010522412 -0.32835123
-0.17176402 -0.0238896 -0.30234623 -0.099787615 0.097063296 -0.38903517 0.053257108 0.14900936
0.25974396 -0.1992673 -0.23519042 0.020615868 -0.04579218 0.1867821 0.21670517 0.26404133
-0.18883455 -0.33232048 0.38550743 -0.24893591 0.06957695 0.19001368 -0.07326726 -0.14386351
0.14687544 0.31671292 -0.36501938 -0.2780914 -0.1977696 -0.067495875 -0.29742232 0.08961218
-0.09240961 0.36838457 -0.14812316 -0.09401648 -0.3909505 0.3466061 0.31709695 0.25932243
0.06919206 0.047967825 -0.37582815 -0.17157075 0.1990853 0.17241688 0.14883164 -0.20617683
-0.26342916 -0.25433835 -0.40281287 0.15680628 -0.057272196 0.08650125 -0.25982663 0.22021088
0.013631446 -0.16404942 0.33687967 0.18886879 -0.271325 0.24610901 0.31652027 0.29866087
-0.34830114 -0.37181342

model.classifier.1.bias f4 [7]
00000000: 2395 da33 10e4 edb3 1814 b1b1 6b50 acb4
00000010: b9fa 7433 bd9c e732 f2db c8b3
1.0178544e-07 -1.1077657e-07 -5.1536624e-09 -3.2096008e-07 5.7038708e-08 2.6963216e-08 -9.3532336e-08

exp_avg f4 [30, 30]
00000000: 9cfd 1936 0dd1 7db5 40e2 17b6 d8bb e434
00000010: f92e 82b3 a084 7e35 a4f5 2f36 b008 3d36
00000020: 57f7 25b5 6160 e1b4 3253 7634 8565 f335
00000030: 6c2e 22b6 6808 31b6 b9bb 9934 a5b3 56b5
00000040: a256 1b36 d717 8db5 43af 84b5 05a4 ca34
00000050: f884 06b6 8d02 4535 814b fc34 1db6 0535
00000060: f077 0636 44f8 08b6 6229 03b4 a76d 3a36
00000070: 9303 2835 499b fa34 89cd 9db5 727f ca34
00000080: a62d ce35 954c 4f33 4027 0735 6688 40b5
00000090: dccd 79b5 4b85 e9b5 8ac2 1b35 04dd ceb3
000000a0: 187b 0833 fbbc 13b6 70c5 3736 1ed9 7735
000000b0: e4cf 16b5 84e6 6334 e6f7 56b5 a64c 5935
000000c0: 1137 ed34 f4b6 5d34 1e40 8235 ec9e 8db5
000000d0: ea6d 00b5 62f4 3fb5 d011 d1b5 0b51 0936
000000e0: b320 60b4 c883 21b6 537a c8b4 8b05 d9b3
000000f0: 137e 9b32 de2e a7b3 04cd 70b2 7eed 8c34
00000100: 4cd1 c235 b19a 9fb4 937c 6e35 6357 73b3
00000110: 6168 ba34 d4e5 b0b5 f960 cf34 58b4 b3b5
00000120: 92f9 c635 a7e1 82b5 1f1a 33b5 324a 0a32
00000130: 5cf5 9834 aa4d 2834 c158 3b35 427a 8d34
00000140: 0f2d 2eb2 9f41 19b5 9d93 06b4 b6eb e2b5
00000150: 3acc f9b3 1537 0636 99f9 62b5 60e3 e2b5
00000160: a74d 80b5 4cb3 4535 6f2a 1fb6 c090 b735
00000170: 563e 2f36 e413 53b5 3b2d feb4 f6dc 83b4
00000180: fe17 85b6 25fe 80b6 1788 6b34 65bf 6a35
00000190: 0eb7 8cb5 9df8 a5b5 5311 1936 f7d8 8336
000001a0: 1458 0e34 b187 b235 4766 2ab6 bce1 9d35
000001b0: 4f36 aa35 674d 0435 7bc0 4836 3687 b632
000001c0: 23cb 29b4 ed00 5a35 b0ff 23b6 e2fe 4935
000001d0: f51c 5c35 9183 1ab6 9335 db34 f8cb c1b5
000001e0: e9d0 9bb4 28b1 9e34 e524 4ab3 abe1 3b35
000001f0: 5bbd 59b4 accc 98b4 b2b4 8234 4e1a 1234
00000200: 5716 83b5 ba1c d2b5 eb69 9533 1b83 4436
00000210: 0130 3233 0da6 8c35 18cc ac33 5fa1 d235
00000220: 4cef 1c35 7f54 aab5 500e 4d32 b3c5 f2b5
00000230: 656a 9db4 fd31 eb34 a031 eb35 f864 81b4
00000240: 8a86 dcb3 d1e0 93b5 cc24 63b3 e32e 9d35
00000250: de60 9635 8feb 5a35 9bea a1b5 f766 4635
00000260: 4f66 e735 85f3 4ab4 5cb6 bb33 f14a d432
00000270: 0914 ecb5 e690 03b6 23a8 dc33 0603 5f35
00000280: 1cb2 04b5 4a2b e9b5 d462 0736 e8f2 0236
00000290: d487 7034 5e6d 3db3 599e c3b3 5104 5935
000002a0: 858f 0e35 fa12 9b35 5c24 9835 886c 0db5
000002b0: 7445 42b5 506a 9835 7a84 eab5 c3bb 3835
000002c0: 1392 1235 6235 f9b4 2ddb f134 3aa7 c3b5
000002d0: 9703 cf35 af51 eeb4 ed7f 8cb5 6d44 f534
000002e0: 487b feb5 2d30 7c35 49c5 dd35 b7b0 0736
000002f0: 19ed 4bb5 1b49 8035 c8ae da34 da13 61b3
00000300: 870a c5b5 f62e 81b5 bd78 2235 b173 36b3
00000310: 0871 3d36 2991 74b5 a51d 10b5 6c40 7534
00000320: 57a8 a9b5 7d5c 3935 3142 1eb3 7be0 8635
00000330: 8c11 a935 1f29 f0b5 a2fd 3434 3db5 4136
00000340: aff4 3935 c65c 95b3 6ec2 2e36 284e 41b5
00000350: d328 05b6 ef4e 9935 622f 41b4 b715 6235
00000360: 6dc0 8b36 9147 4e36 aed4 b0b5 04d5 09b6
00000370: 0ea3 8235 96a8 1b36 8685 44b6 fd1f 27b6
00000380: e64a dab3 2f67 4235 b228 8d36 844e e5b5
00000390: 79cf 76b5 b48c 2eb5 615f 35b6 d6ad d1b4
000003a0: 076c 6a35 9b86 67b5 649b e435 2219 c9b5
000003b0: e0c2 6bb5 1861 2d36 906a d035 85dc bb35
000003c0: 47e5 1e36 12c8 06b5 2b1e ceb5 8e28 c335
000003d0: 52c2 73b2 360f 3c35 a133 8136 2df1 db35
000003e0: 3476 f9b5 fd11 b2b6 6455 7735 2ff9 5f36
000003f0: 7016 d9b4 a463 b8b5 d9e7 28b5 01b7 b135
2.2946397e-06 -9.4554053e-07 -2.2632448e-06 4.2604984e-07 -6.062141e-08 9.481537e-07 2.6220014e-06 2.8168251e-06
-6.1827217e-07 -4.197964e-07 2.2940802e-07 1.8134457e-06 -2.4166902e-06 -2.6379948e-06 2.8635057e-07 -7.998263e-07
2.3147227e-06 -1.0512257e-06 -9.885774e-07 3.7744772e-07 -2.0044954e-06 7.339193e-07 4.6993594e-07 4.981137e-07
2.0037369e-06 -2.0410089e-06 -1.221538e-07 2.7779986e-06 6.259008e-07 4.6679114e-07 -1.175723e-06 3.771816e-07
1.5361481e-06 4.8265594e-08 5.0348535e-07 -7.172406e-07 -9.3059293e-07 -1.7398646e-06 5.802509e-07 -9.632825e-08
3.177692e-08 -2.2014708e-06 2.7384049e-06 9.233062e-07 -5.6181875e-07 2.1224884e-07 -8.008195e-07 8.095034e-07
4.4184756e-07 2.0648787e-07 9.704415e-07 -1.0551571e-06 -4.784366e-07 -7.150867e-07 -1.5576898e-06 2.0461764e-06
-2.0873522e-07 -2.4067576e-06 -3.7341906e-07 -1.0105858e-07 1.8101707e-08 -7.7850686e-08 -1.4016454e-08 2.624983e-07
1.451504e-06 -2.972861e-07 8.884319e-07 -5.6657324e-08 3.4721145e-07 -1.3179911e-06 3.8627311e-07 -1.3389026e-06
1.4824784e-06 -9.751428e-07 -6.672071e-07 8.049527e-09 2.849073e-07 1.5674473e-07 6.979208e-07 2.635225e-07
-1.0138378e-08 -5.709243e-07 -1.2533424e-07 -1.6906913e-06 -1.1632115e-07 1.9999618e-06 -8.4554773e-07 -1.6904487e-06
-9.559343e-07 7.364913e-07 -2.3717546e-06 1.367669e-06 2.6113316e-06 -7.863257e-07 -4.7344096e-07 -2.4561422e-07
-3.966502e-06 -3.8442836e-06 2.193559e-07 8.745031e-07 -1.0484089e-06 -1.2365814e-06 2.280886e-06 3.9293623e-06
1.3256823e-07 1.3301525e-06 -2.5391507e-06 1.1763109e-06 1.2681793e-06 4.928647e-07 2.991436e-06 2.1249075e-08
-1.5813252e-07 8.1212676e-07 -2.4437722e-06 7.524924e-07 8.1998525e-07 -2.302437e-06 4.083091e-07 -1.4438983e-06
-2.9023002e-07 2.9558691e-07 -4.7065345e-08 6.999132e-07 -2.0278587e-07 -2.8461125e-07 2.434586e-07 1.3606879e-07
-9.766762e-07 -1.565458e-06 6.9576195e-08 2.928259e-06 4.1487514e-08 1.047914e-06 8.0464986e-08 1.5693184e-06
5.846275e-07 -1.2690579e-06 1.1935825e-08 -1.8087943e-06 -2.932094e-07 4.3808532e-07 1.7523307e-06 -2.4101587e-07
-1.0269021e-07 -1.1017784e-06 -5.2886023e-08 1.1711057e-06 1.1204063e-06 8.155411e-07 -1.2063714e-06 7.391058e-07
1.7240617e-06 -1.8901308e-07 8.741037e-08 2.4714128e-08 -1.7589201e-06 -1.9604863e-06 1.0275132e-07 8.3078373e-07
-4.9433015e-07 -1.7372452e-06 2.0174093e-06 1.95129e-06 2.2401156e-07 -4.410446e-08 -9.1091984e-08 8.084508e-07
5.310797e-07 1.1553923e-06 1.1335464e-06 -5.2684527e-07 -7.23717e-07 1.1355824e-06 -1.7472914e-06 6.881857e-07
5.4601804e-07 -4.6418705e-07 4.504922e-07 -1.4577301e-06 1.5423747e-06 -4.4390387e-07 -1.0468044e-06 4.5684592e-07
-1.8960354e-06 9.394742e-07 1.6523201e-06 2.021943e-06 -7.5968416e-07 9.55802e-07 4.0732834e-07 -5.240495e-08
-1.4680708e-06 -9.624916e-07 6.05254e-07 -4.2480398e-08 2.8228988e-06 -9.110832e-07 -5.368732e-07 2.284084e-07
-1.2640475e-06 6.905246e-07 -3.6847442e-08 1.004911e-06 1.2596588e-06 -1.7893361e-06 1.6856077e-07 2.8864736e-06
6.927393e-07 -6.9552286e-08 2.6041193e-06 -7.2011835e-07 -1.9842307e-06 1.1422361e-06 -1.7991763e-07 8.422316e-07
4.164924e-06 3.073805e-06 -1.317492e-06 -2.0538582e-06 9.73321e-07 2.319493e-06 -2.9283997e-06 -2.4903559e-06
-1.016504e-07 7.2420784e-07 4.206865e-06 -1.7084681e-06 -9.1944054e-07 -6.50248e-07 -2.702662e-06 -3.9055766e-07
8.7328993e-07 -8.625008e-07 1.7032548e-06 -1.4982982e-06 -8.78279e-07 2.5835525e-06 1.5528221e-06 1.3996765e-06
2.3677292e-06 -5.021003e-07 -1.5356976e-06 1.4540435e-06 -1.4188645e-08 7.005759e-07 3.85051e-06 1.6386963e-06
-1.8586347e-06 -5.3069075e-06 9.213893e-07 3.3374633e-06 -4.0435725e-07 -1.3738068e-06 -6.292226e-07 1.3240789e-06

exp_avg_sq f4 [30, 30]
00000000: 85d2 002f 8d53 1a2f 2462 372f 6dc7 882f
00000010: 09ca 772f bcd8 c42e 4948 212f 799d 6e2f
00000020: e6ab 082e 3123 1230 0867 142f 73f1 6b2f
00000030: d27d 5330 d074 0d2f 0bb2 d02d 2aad a42f
00000040: 35e3 da2f 92f5 2e2f 7146 9f2e 35d3 c02f
00000050: e8a4 cc2e 0ea1 542f b854 e92e 1f69 c82e
00000060: a864 e02e dceb fd2e fe4b 042f 1b9f 242f
00000070: 24bb 0330 a64d f32e db7d 7d2e c7ab 492f
00000080: 14a2 cb2e affe d32e db75 d12e e02b 382e
00000090: fa05 b42e c734 782e 992b 432e 9da5 e32e
000000a0: 6fa0 3a2e 4c0c 682e b52c 892e 3a1f a52e
000000b0: 7fe5 132e 5c2c cf2e 7f9e 522f f319 562f
000000c0: b879 dd2d fca8 8a2f f08a bc2e 5ef8 6b2e
000000d0: 0573 032f 7b9a 4d2e 7d35 422e 9e92 e82e
000000e0: e8cd e62e 93c4 962e b80f 2d2f 442f 552e
000000f0: f028 a12e 00a6 732e f210 5a2f ac82 f12e
00000100: c1c6 d72f 0cf1 c42d c35d a32e 9846 592f
00000110: 0f26 c52d 5c5a 8c2f 7f9e 162e b81c 592e
00000120: 0c6c 972f e0dd ab2f 5d67 902d 9062 032f
00000130: da96 1530 30d1 022e 2eb7 912f 75bc ee2e
00000140: c574 ff2e 3b6d b12f 9d00 832f e38c e32e
00000150: 4bd6 ba2e 8964 2f2f 0581 5d2e 70f3 372f
00000160: 8038 972f 0988 062f 2d22 562f 19cb 1b2f
00000170: b26a 6b2f cd95 862f 1782 c22f 27cb ca2e
00000180: 63de 1e2f 15d5 332f c570 832f 4b40 3e30
00000190: d692 a82f 2948 0630 37cb a730 c8df 572f
000001a0: c522 922e ecfa bb2f 43b5 c72f e022 672f
000001b0: c23e c62e fccf 3d30 a2bb 532f 3d22 a22f
000001c0: 8524 5b2f 3703 c62e 8b4c d62e 8dac 7e2f
000001d0: 6334 c32e 6252 232f 583f 1130 c5b4 da2e
000001e0: 5ce6 292e 29a5 5a2e 0a57 122e 1c62 122e
000001f0: 01c8 a32d 96af bd2d 4f55 202e abfe 462e
00000200: 8a4d 7b2d 78b4 c72e 704e f42d f662 a92e
00000210: 418e bd2e d18c 852e d6be 192e 4c02 0e2e
00000220: 33ac 132f cc6b e62e f05e 9b2d ab50 b52e
00000230: 02a1 a52d 9f5d fd2d 36e6 452e dca8 342e
00000240: 774e 6e2d a6ed 902e 287c 8f2d 3436 0a2e
00000250: 2ce4 a52e bfea 022f 5562 5b2e 486c 432e
00000260: cb82 5a2e 54a7 ba2e 7280 9a2e b180 0e2e
00000270: 63df 162e 2290 8e2e 43bd c72d 8275 2f2f
00000280: 3595 7b2e fc8d 2f2e 825d c32e 971f de2e
00000290: 0a86 9f2d 2f71 132e 19a8 f52e 1194 b92e
000002a0: 2fcd 482f 55f0 192f 3c6b 4e2e e7e0 a72e
000002b0: 2b78 f72e c438 4a2e ba3c 452e ded5 952e
000002c0: d66f 092e 889d b92e f7fd a82e faa9 912e
000002d0: 8477 462f 7e79 de2e 7e6b 812f 6153 0a2f
000002e0: 54c7 2630 0bcb 982e 818d 0f2f baa7 932e
000002f0: 9eeb b42e a927 ae2f 3eb9 342f 4b3c 2230
00000300: 8c2a 5d30 3b2e b52f 721e 6e2e d9f5 e32f
00000310: e239 dd2f 547e 432f 8aa0 322e f2fa 8930
00000320: 1dda 872e fbe2 ad2e c1f0 df2f 0278 b72e
00000330: a01e 6e2e 6bb5 b52f 295b 962e f348 472f
00000340: 45a3 b42f 43fd cc2e b1bb 612f 64f0 2b2f
00000350: b7d8 692f a1ec 562f fd25 952f a5af eb2e
00000360: 7bfa 252f 78f4 0c2f a05a 392e b9c5 a92f
00000370: 6c9a be2e 9be0 b32f ffd0 e42f 3fe5 852f
00000380: 8b80 2e2e 1bd5 ad2f c1d3 eb2f 7fd7 292f
00000390: 6899 902e b22e 2430 6cb2 132f 8b07 272f
000003a0: d7a6 842f 85af fa2e 9317 d82e cacf 7b2f
000003b0: 4cd0 052f 5e48 482f d69a da2f 48be 002f
000003c0: f90b 372f 14b4 fd2e 703a 312f a4b7 0e2f
000003d0: c50b 192f b721 ce2e abb7 082f ca0b 032f
000003e0: 30c4 fe2d 5bfc 892f db68 602e 2a45 ea2e
000003f0: 6286 272f da35 392f 3a4b f92d cbdb 2d2f
1.1716324e-10 1.4035902e-10 1.667862e-10 2.4879956e-10 2.2536296e-10 8.951548e-11 1.4668546e-10 2.170192e-10
3.1075496e-11 5.31645e-10 1.3497126e-10 2.1458905e-10 7.6940154e-10 1.2865375e-10 2.372593e-11 2.9954467e-10
3.981541e-10 1.5912452e-10 7.242996e-11 3.5074668e-10 9.306139e-11 1.9338506e-10 1.06106623e-10 9.11362e-11
1.0204221e-10 1.1547005e-10 1.2032328e-10 1.4972239e-10 4.7923465e-10 1.1064154e-10 5.7637322e-11 1.8341871e-10
9.260162e-11 9.64041e-11 9.525155e-11 4.1875725e-11 8.186514e-11 5.6435547e-11 4.437659e-11 1.0352184e-10
4.2433997e-11 5.2761615e-11 6.23798e-11 7.508878e-11 3.3627764e-11 9.42115e-11 1.9155698e-10 1.9472406e-10
2.5178845e-11 2.5222124e-10 8.5739305e-11 5.3653408e-11 1.1955244e-10 4.674881e-11 4.4158e-11 1.0576183e-10
1.04957654e-10 6.856129e-11 1.5739843e-10 4.8472573e-11 7.328704e-11 5.539924e-11 1.9833005e-10 1.0982623e-10
3.9249495e-10 2.2389667e-11 7.429037e-11 1.9761115e-10 2.2413208e-11 2.5530056e-10 3.4246824e-11 4.9365595e-11
2.7543512e-10 3.126237e-10 1.6416807e-11 1.1949397e-10 5.4420257e-10 2.9744374e-11 2.6505503e-10 1.08564636e-10
1.16168e-10 3.2273725e-10 2.3829197e-10 1.03477914e-10 8.496367e-11 1.5951875e-10 5.0364175e-11 1.673024e-10
2.7506886e-10 1.2235558e-10 1.9475328e-10 1.4169323e-10 2.1411031e-10 2.4480898e-10 3.538083e-10 9.2219836e-11
1.4449024e-10 1.6355657e-10 2.390889e-10 6.9212963e-10 3.0663355e-10 4.885146e-10 1.2208606e-09 1.9633639e-10
6.6454876e-11 3.4193393e-10 3.6326683e-10 2.1021718e-10 9.0151456e-11 6.9053363e-10 1.9256999e-10 2.9491956e-10
1.9930908e-10 9.0045686e-11 9.74519e-11 2.3162468e-10 8.876879e-11 1.4854032e-10 5.284071e-10 9.9456034e-11
3.863075e-11 4.9714153e-11 3.3273863e-11 3.3283695e-11 1.8619774e-11 2.1564788e-11 3.6455557e-11 4.524618e-11
1.4284915e-11 9.08153e-11 2.7774422e-11 7.702809e-11 8.619994e-11 6.073154e-11 3.495767e-11 3.2289102e-11
1.343075e-10 1.04783376e-10 1.766362e-11 8.2452566e-11 1.882983e-11 2.8804346e-11 4.4997082e-11 4.107724e-11
1.3546156e-11 6.590577e-11 1.6312354e-11 3.142571e-11 7.543863e-11 1.190683e-10 4.988217e-11 4.443404e-11
4.968363e-11 8.488024e-11 7.025926e-11 3.2401363e-11 3.430446e-11 6.4830155e-11 2.270773e-11 1.5957904e-10
5.7203315e-11 3.99165e-11 8.884184e-11 1.0101003e-10 1.8135732e-11 3.3524458e-11 1.117117e-10 8.439128e-11
1.826279e-10 1.4000652e-10 4.693422e-11 7.6342314e-11 1.1253606e-10 4.59799e-11 4.484655e-11 6.813726e-11
3.1249524e-11 8.440809e-11 7.684869e-11 6.6240305e-11 1.8050456e-10 1.01169725e-10 2.354134e-10 1.2580649e-10
6.067371e-10 6.9482274e-11 1.3056047e-10 6.71458e-11 8.227306e-11 3.1678596e-10 1.6436716e-10 5.902094e-10
8.0459794e-10 3.2956557e-10 5.4141976e-11 4.1465745e-10 4.0240794e-10 1.7780027e-10 4.06151e-11 1.0039385e-09
6.177834e-11 7.907449e-11 4.073453e-10 8.343194e-11 5.4142135e-11 3.3052613e-10 6.8374036e-11 1.8124861e-10
3.285782e-10 9.321834e-11 2.0530312e-10 1.5637763e-10 2.1268219e-10 1.9547254e-10 2.7129934e-10 1.07177635e-10
1.5095651e-10 1.2819779e-10 4.214462e-11 3.088141e-10 8.6676305e-11 3.2719502e-10 4.162146e-10 2.4355448e-10
3.967719e-11 3.1619937e-10 4.289671e-10 1.544702e-10 6.575612e-11 5.972921e-10 1.343296e-10 1.5191241e-10
2.4129207e-10 1.1399862e-10 9.8267304e-11 2.2902139e-10 1.2170281e-10 1.8215604e-10 3.9763987e-10 1.1709134e-10
1.6648007e-10 1.1537096e-10 1.6118817e-10 1.2980067e-10 1.391945e-10 9.3737844e-11 1.243438e-10 1.1918569e-10
2.8963582e-11 2.5099464e-10 5.1024834e-11 1.0653374e-10 1.5236304e-10 1.6844784e-10 2.834143e-11 1.5812344e-10

exp_avg f4 [30]
00000000: 6483 55ad b5ca 3b2d 085b 572c c9bb 682d
00000010: ca29 8eac ed9d 4f2d 6d05 8fac 8376 0bad
00000020: ff86 95ac f327 452d 00c7 2e2d 730a e5ac
00000030: 6bdc 8c2d 5cdf 18ad fc17 fdac e1b1 242d
00000040: c139 fb2c 6dbd 092d 89e9 11ad 84d2 d32c
00000050: fffd f1ac 4a23 81ad db2a 092c 2946 902d
00000060: b8c4 c3ab d9d8 4faa c4e3 0a2d de94 6aac
00000070: 6a48 32ad 56dc c22c
-1.2136823e-11 1.0674729e-11 3.060387e-12 1.322937e-11 -4.0405223e-12 1.1801654e-11 -4.064907e-12 -7.92755e-12
-4.2498223e-12 1.1207024e-11 9.934942e-12 -6.5097316e-12 1.6014043e-11 -8.689795e-12 -7.1933553e-12 9.361818e-12
7.140261e-12 7.829609e-12 -8.294151e-12 6.0203526e-12 -6.877831e-12 -1.4681274e-11 1.949266e-12 1.6402062e-11
-1.3910184e-12 -1.8460527e-13 7.894966e-12 -3.3336038e-12 -1.0134208e-11 5.538274e-12

exp_avg_sq f4 [30]
00000000: fcc6 0e2c 1add 202c 8d51 af2c ce69 d02b
00000010: b2ca 862c 1dff f62c 99ba 5a2b 2c2c 882b
00000020: 1481 042c 2ca8 c22b 4003 a22a e937 922c
00000030: 7754 112b cf38 d127 7f15 8b28 eeba cd2b
00000040: 18e8 992b 0b4b 842c ed83 bf2c cab0 5c2a
00000050: cdd1 582c 95cb 952b 0607 142c 0588 922c
00000060: 570a 842c 3859 ab2c b1c8 8129 43b4 5129
00000070: dc02 a82c 738f 1227
2.0289872e-12 2.2860104e-12 4.982853e-12 1.4808656e-12 3.8310128e-12 7.020064e-12 7.7708114e-13 9.675641e-13
1.882998e-12 1.3831206e-12 2.8779236e-13 4.155777e-12 5.1631567e-13 5.8070745e-15 1.5441422e-14 1.461801e-12
1.0935723e-12 3.759997e-12 5.443193e-12 1.9601261e-13 3.081191e-12 1.0643592e-12 2.1035964e-12 4.1646708e-12
3.7528136e-12 4.8700176e-12 5.763565e-14 4.6563675e-14 4.7751646e-12 2.0339334e-15

exp_avg f4 [7, 30]
00000000: 5826 17b5 9629 1cb5 935c 1a35 cd28 0635
00000010: a323 9334 a26d 7234 c4c2 72b4 428a 9835
00000020: c4c0 1836 f8c5 b2b4 e721 0e36 fb30 6535
00000030: a695 9eb5 2e56 b634 5f7a 05b6 d262 67b4
00000040: 2689 0935 1262 a735 6596 0833 9ccf 4536
00000050: a850 1d35 81df b634 3253 1736 23f3 8132
00000060: 26f0 32b5 d30e d635 285a 8cb5 3892 4936
00000070: b349 9cb4 117e dbb5 70ba 1db6 52ef 8b36
00000080: 00bb a536 829b 41b6 2658 9c35 e333 85b6
00000090: 589d 1db6 f780 bd35 3d7d 0536 c6b4 c5b5
000000a0: 9487 c3b6 15e1 97b6 d135 4eb6 f3be 4bb6
000000b0: 5c4d 86b3 8c10 2a35 73bd ecb6 4ddc 54b6
000000c0: 5926 a835 2184 0236 782b 60b5 4191 b034
000000d0: 91e0 f635 a1da 74b6 187f 87b6 2def 6e36
000000e0: 73fc f335 6cf3 7636 57f0 7cb6 ac1b 1bb7
000000f0: 1855 bcb5 2f97 a335 7042 8a36 af7b f2b5
00000100: b3b5 2eb5 e67f 2cb6 df3b 8fb6 925a b432
00000110: 6dd6 8435 8459 2736 f42b 3bb6 3405 b6b5
00000120: 0bc3 aab5 3f41 81b6 1c36 9c35 fb64 df35
00000130: 29b6 90b5 7474 e3b5 32c5 1db6 6f42 11b5
00000140: 45f8 e035 8b83 92b4 7d2a dd35 3191 d035
00000150: f019 02b7 219e 8f35 6944 5236 3847 1936
00000160: f8c7 1f35 421f 9bb6 c202 12b5 bcb7 f634
00000170: 1a3b 9f35 1858 2cb5 06f5 c3b5 c48e 20b6
00000180: a248 ee33 73f8 2736 8384 cdb5 228e a2b5
00000190: 006c 8eb5 873f e134 5856 53b5 6ade 9ab5
000001a0: 260a 6934 ffec 9135 54ab e3b5 ff47 91b5
000001b0: fe80 c0b4 f4cd 60b5 f405 e835 e293 32b5
000001c0: 3887 3db4 fcfa 5cb5 e2d5 23b5 550e cdb5
000001d0: b3ba 99b4 2caa c633 096b 27b5 08ab 3db6
000001e0: 9647 5eb5 eceb 1b36 e93d 9336 0c4e 09b6
000001f0: 05ae 56b6 0ce9 f4b5 5fb0 31b6 f4e3 9534
00000200: 987c 1fb3 9911 6036 c25c 46b6 46e1 13b6
00000210: e712 a735 c069 91b6 6242 e235 bbe4 5836
00000220: f780 2db5 9906 12b6 4e5b b8b5 da73 80b5
00000230: 29f3 2e33 7b9a 41b6 1477 f3b5 8d43 0e35
00000240: f924 a1b6 d769 5eb5 9458 8635 8857 c235
00000250: b397 e7b5 d65e 36b6 7655 9b35 8059 d435
00000260: 9514 2736 8b32 6fb6 71db 16b6 b2a0 6fb4
00000270: 3a35 e8b4 7a45 1036 4205 ab35 235a 1f36
00000280: 504b 8cb6 6703 92b6 d340 9136 8c39 60b6
00000290: ac36 eb35 9a0a e235 4999 09b6 b355 3ab6
000002a0: d301 1d36 f1ee 2836 7fa0 8db6 f9c5 19b6
000002b0: de76 f6b5 f570 4eb5 46cd a6b6 34f3 9335
000002c0: 92c9 e235 974c 6c36 99e5 cbb3 6093 fbb5
000002d0: 710d 30b5 7992 4bb6 2a82 61b6 19a2 8b36
000002e0: e37c 8f35 6100 dc35 5bef 8a34 0700 9bb5
000002f0: 970d 43b6 09e4 74b5 d450 af36 9617 b236
00000300: 0e6c 3db6 6716 3736 6899 f7b5 31f7 9bb5
00000310: 25f9 8236 4f8e 5436 92b9 4db6 5479 5bb6
00000320: da45 8f36 5df5 de35 2aaa 1336 a257 5936
00000330: 6798 6036 4051 1bb6 aff7 b534 8727 7cb6
00000340: 3519 3736 5232 6336
-5.630768e-07 -5.8175044e-07 5.7504184e-07 4.9978263e-07 2.7406813e-07 2.257789e-07 -2.2608862e-07 1.1365121e-06
2.276197e-06 -3.3299125e-07 2.1179383e-06 8.5380424e-07 -1.1815471e-06 3.3962846e-07 -1.9889774e-06 -2.1549502e-07
5.1236054e-07 1.2471012e-06 3.180175e-08 2.9476132e-06 5.860443e-07 3.4062762e-07 2.254918e-06 1.5128142e-08
-6.665963e-07 1.5948557e-06 -1.0457052e-06 3.0036445e-06 -2.9110888e-07 -1.6353462e-06 -2.3503344e-06 4.1703834e-06
4.939153e-06 -2.8849759e-06 1.164856e-06 -3.9697493e-06 -2.348641e-06 1.4119131e-06 1.9891443e-06 -1.4730256e-06
-5.8272362e-06 -4.5263537e-06 -3.0727717e-06 -3.0360504e-06 -6.253933e-08 6.3354014e-07 -7.055403e-06 -3.1718694e-06
1.2528136e-06 1.9448419e-06 -8.350976e-07 3.288824e-07 1.8393786e-06 -3.6486092e-06 -4.038109e-06 3.5603982e-06
1.8178383e-06 3.6798547e-06 -3.7690822e-06 -9.245163e-06 -1.4031857e-06 1.2188447e-06 4.120455e-06 -1.8066402e-06
-6.508446e-07 -2.5704444e-06 -4.268702e-06 2.0995945e-08 9.897173e-07 2.4937044e-06 -2.7890756e-06 -1.3561571e-06
-1.2722752e-06 -3.8520952e-06 1.1638654e-06 1.6644184e-06 -1.0781852e-06 -1.694671e-06 -2.3509606e-06 -5.4113383e-07
1.6761556e-06 -2.729033e-07 1.6478149e-06 1.5539464e-06 -7.754643e-06 1.0700352e-06 3.1332258e-06 2.2840231e-06
5.952311e-07 -4.622999e-06 -5.439325e-07 4.5954755e-07 1.1863624e-06 -6.4203186e-07 -1.4599943e-06 -2.3924958e-06
1.10959505e-07 2.5029556e-06 -1.5312256e-06 -1.2111307e-06 -1.0611257e-06 4.1955738e-07 -7.872927e-07 -1.1538625e-06
2.1703508e-07 1.0872317e-06 -1.6962681e-06 -1.0824295e-06 -3.585664e-07 -8.3746204e-07 1.728708e-06 -6.6525365e-07
-1.7651189e-07 -8.2321617e-07 -6.103347e-07 -1.5277861e-06 -2.8634312e-07 9.2510476e-08 -6.2368105e-07 -2.8262748e-06
-8.2805616e-07 2.3234124e-06 4.3881487e-06 -2.046002e-06 -3.1989778e-06 -1.8247242e-06 -2.6477717e-06 2.791927e-07
-3.713339e-08 3.3388844e-06 -2.9558291e-06 -2.2035833e-06 1.2447971e-06 -4.3336477e-06 1.6857632e-06 3.2319647e-06
-6.463519e-07 -2.1759536e-06 -1.3735641e-06 -9.57046e-07 4.0733685e-08 -2.884916e-06 -1.8139567e-06 5.299742e-07
-4.802478e-06 -8.285546e-07 1.0009558e-06 1.4479601e-06 -1.7254991e-06 -2.7175315e-06 1.1573272e-06 1.5821279e-06
2.489692e-06 -3.5643195e-06 -2.2479474e-06 -2.231707e-07 -4.3252095e-07 2.1498113e-06 1.2742023e-06 2.3745313e-06
-4.1810927e-06 -4.351535e-06 4.3288833e-06 -3.3412098e-06 1.7524776e-06 1.6841398e-06 -2.0503815e-06 -2.7766043e-06
2.3395885e-06 2.5173033e-06 -4.2208117e-06 -2.2914012e-06 -1.8363023e-06 -7.6905354e-07 -4.9710825e-06 1.1023135e-06
1.6896977e-06 3.5211322e-06 -9.494688e-08 -1.8743849e-06 -6.558467e-07 -3.0334616e-06 -3.3603378e-06 4.1613935e-06
1.0690677e-06 1.6391388e-06 2.5878657e-07 -1.1548408e-06 -2.9065175e-06 -9.122892e-07 5.224816e-06 5.307559e-06
-2.822609e-06 2.7282165e-06 -1.8447581e-06 -1.1620342e-06 3.903306e-06 3.1673296e-06 -3.0655397e-06 -3.2704165e-06
4.269864e-06 1.6611699e-06 2.2003755e-06 3.2386529e-06 3.346731e-06 -2.3144094e-06 3.389409e-07 -3.7573934e-06
2.7283797e-06 3.3854926e-06

exp_avg_sq f4 [7, 30]
00000000: 2468 022f 68eb 4830 07fb a22e ee16 272e
00000010: b9f6 1b30 d6ca 1f30 b1bf 1a2e 1c3d a62e
00000020: e0b6 782e ed4d 392e 8783 e42f 6eb3 4e30
00000030: 7782 fa2f 305e 0330 464b 3430 9fbd b02e
00000040: cb98 0730 47b1 cd2f 5de8 952f 99d1 2830
00000050: 02f8 df2f 6ab8 a72e 5eff 6d30 e55a 2a30
00000060: da5b e22e ee47 ac30 dac5 3130 eafd b230
00000070: 76f1 5430 23ec f930 70f0 2130 4ea3 9d30
00000080: 58e5 c730 e69c 1830 e95f 2430 b48b f92f
00000090: 488b 2430 4966 8230 0178 8130 1578 8630
000000a0: fc57 3430 7b49 ff30 8a6d e82f d585 9330
000000b0: 63b6 8330 d264 fb2f 906a cf30 7688 802f
000000c0: cca5 0f30 a8de 0731 d2a2 5930 5dbd 3630
000000d0: f5cf 3430 fad0 a82f 8776 d330 56bb a130
000000e0: 7e42 8530 6977 2d31 e895 b130 1745 1931
000000f0: accd 0630 c733 192f 6bbf 0331 95ff a52f
00000100: 21f1 2330 3b9f 602f 2675 6830 0645 152f
00000110: 3faf 142f 0b59 872f dfb2 292f 02f2 eb30
00000120: cad4 e82e 3ce3 e031 985d f22f 3004 bd2e
00000130: 3378 492f ec33 a62f 2f43 e62f 1511 e62e
00000140: f6a7 f32f 8463 cb2f 63a8 e430 82a4 f430
00000150: 3bb8 2b31 0517 8f30 0600 5131 4320 2130
00000160: ad0e 7230 f4ec 5030 18af 002f b285 f62e
00000170: c0bc 962e cff1 042f 168b 0f30 5382 9b30
00000180: bf4d 5830 0b8f 0831 a6c8 452f a275 0331
00000190: 39a9 652f 42c7 3b2f 5f5d 6f2f 4928 e42e
000001a0: 082a 3f2d 1a17 2a2f 97ae c230 a53d 9e2f
000001b0: 1909 c230 a4b4 2e2f 8c54 a32f c60f 1f2e
000001c0: 77ed 082e 8510 8b30 07f1 0b2f edbe a730
000001d0: 6c22 fa2d 8fa6 8a2e 96f1 802e af26 f02f
000001e0: a9de 242f dfc6 1f2f cf10 882f a5dd d82f
000001f0: bd82 8f2f 1164 d030 ed59 802f 9169 302f
00000200: 70fa 1f2f f9ff 8c2f 1817 e82f 4a2c 982f
00000210: c6c6 9c2f c43a b92f 9cfb 4130 9f65 e92f
00000220: 047a 102f 100c 412f 471c 432f 45b6 8230
00000230: 0ff9 eb2f ee73 812f aaff 2330 b198 c32f
00000240: fe96 c92f 6d8a 232f 0b2f 8030 01e7 9a2f
00000250: 8180 1930 6ffe c72f 9c15 5d2f a261 442f
00000260: d174 c730 b28b ab2f 279d 932e 8749 d92e
00000270: b8e6 1f30 c413 5b2f 1e1a d72f be4e 5a2f
00000280: 4ce0 fe2f f88a c330 f1e4 9d2f 74fd 3b31
00000290: 1089 d22f d59d d92e fba1 b72f 67b0 672f
000002a0: d2a4 532f 55c7 d32f c449 d12f a079 da2e
000002b0: f657 212f be4f da2f 7aca 9930 8991 c82f
000002c0: 0c63 dc30 cb40 d030 3762 d730 0f18 b02f
000002d0: 0fe8 eb2f fa49 b030 bf5b 1830 0e42 0630
000002e0: 5edd 492f debb 242f ca87 9830 448a f830
000002f0: 592d 7c2f eea2 7c30 2bd6 832f eb95 8230
00000300: 6f62 7d2f 2d80 c930 6f58 c930 7b75 fa2e
00000310: 1661 ca2f 6f22 d52e 3dc2 e62f 244a cd2f
00000320: 4961 452f 6070 272f 3df6 6d30 3bed 772f
00000330: 4b56 9630 fc8c bf2f b3e9 d230 b947 6330
00000340: 8fc4 0c31 513f ac2f
1.1860429e-10 7.309411e-10 7.4114985e-11 3.799177e-11 5.6739285e-10 5.813211e-10 3.5185802e-11 7.559661e-11
5.6551097e-11 4.2133342e-11 4.1566414e-10 7.519735e-10 4.5567436e-10 4.779137e-10 6.559059e-10 8.037237e-11
4.9329846e-10 3.7415246e-10 2.7268046e-10 6.14159e-10 4.0739684e-10 7.627039e-11 8.6582996e-10 6.197481e-10
1.0293606e-10 1.2535091e-09 6.467339e-10 1.3023371e-09 7.746829e-10 1.8184249e-09 5.891314e-10 1.1469667e-09
1.4544339e-09 5.5520244e-10 5.979915e-10 4.53921e-10 5.9860783e-10 9.487816e-10 9.420092e-10 9.783913e-10
6.560865e-10 1.8574576e-09 4.2278386e-10 1.0733695e-09 9.583342e-10 4.572827e-10 1.5091519e-09 2.3380026e-10
5.225871e-10 1.977165e-09 7.917552e-10 6.6480316e-10 6.5779143e-10 3.070751e-10 1.5385958e-09 1.1767536e-09
9.695922e-10 2.524269e-09 1.2921051e-09 2.2303703e-09 4.9041193e-10 1.3933664e-10 1.9171817e-09 3.0194927e-10
5.964172e-10 2.0429251e-10 8.4567586e-10 1.3575993e-10 1.3522782e-10 2.4619626e-10 1.5434008e-10 1.7167283e-09
1.05879375e-10 6.5450916e-09 4.4086046e-10 8.595469e-11 1.8323547e-10 3.0232117e-10 4.1884493e-10 1.04622234e-10
4.4320786e-10 3.6996195e-10 1.6637042e-09 1.7800093e-09 2.4988498e-09 1.0411162e-09 3.0413516e-09 5.8617305e-10
8.805994e-10 7.600669e-10 1.1703738e-10 1.1210534e-10 6.854739e-11 1.2091238e-10 5.222075e-10 1.1314775e-09
7.8690826e-10 1.9871915e-09 1.798833e-10 1.9129875e-09 2.0887549e-10 1.7078342e-10 2.1770095e-10 1.0375396e-10
1.0866426e-11 1.5469617e-10 1.4164979e-09 2.8783834e-10 1.4117943e-09 1.5889384e-10 2.9709601e-10 3.6166424e-11
3.113373e-11 1.0118276e-09 1.2727606e-10 1.2205114e-09 2.8436996e-11 6.3051e-11 5.8636804e-11 4.3683232e-10
1.4994818e-10 1.4531619e-10 2.47502e-10 3.944766e-10 2.6104444e-10 1.5162432e-09 2.334696e-10 1.6044611e-10
1.4549939e-10 2.564773e-10 4.2216963e-10 2.7680108e-10 2.8517472e-10 3.369306e-10 7.057055e-10 4.245466e-10
1.3140072e-10 1.7557533e-10 1.7745193e-10 9.510549e-10 4.2923218e-10 2.3547336e-10 5.9662375e-10 3.5578787e-10
3.6668973e-10 1.4873942e-10 9.326596e-10 2.8176575e-10 5.584369e-10 3.6378675e-10 2.010751e-10 1.7860782e-10
1.4512357e-09 3.1203978e-10 6.712702e-11 9.8810786e-11 5.8171734e-10 1.9924956e-10 3.912683e-10 1.985496e-10
4.6361703e-10 1.4227615e-09 2.8720806e-10 2.7356153e-09 3.8296166e-10 9.896054e-11 3.34026e-10 2.1071998e-10
1.9248894e-10 3.852231e-10 3.8069292e-10 9.935097e-11 1.4674115e-10 3.971063e-10 1.1189762e-09 3.6483197e-10
1.6035258e-09 1.5152407e-09 1.5671223e-09 3.2031308e-10 4.2911139e-10 1.2826711e-09 5.5427657e-10 4.8842785e-10
1.8359489e-10 1.4982457e-10 1.1098049e-09 1.8083672e-09 2.2935377e-10 9.1908603e-10 2.3980937e-10 9.501354e-10
2.3045187e-10 1.4661105e-09 1.4649809e-09 1.13895525e-10 3.681257e-10 9.692235e-11 4.197477e-10 3.7341963e-10
1.7951608e-10 1.5228485e-10 8.6570023e-10 2.25488e-10 1.0938462e-09 3.4842873e-10 1.5345932e-09 8.2684043e-10
2.0484412e-09 3.1331607e-10

exp_avg f4 [7]
00000000: 4119 90ac b278 c22d 9f1a 0eac 89e0 78ad
00000010: 5a22 adad dda2 c42d ae34 da2c
-4.09553e-12 2.2108846e-11 -2.0194191e-12 -1.4147025e-11 -1.9683078e-11 2.2354946e-11 6.2017813e-12

exp_avg_sq f4 [7]
00000000: c0b5 522c f163 2a29 937f ed27 2c36 a829
00000010: 1d21 992b 15bd 192a 45c9 bd2c
2.9943686e-12 3.7834268e-14 6.591903e-15 7.470096e-14 1.0880495e-12 1.3654731e-13 5.3940485e-12
