tutorial/Mouse_cerebellum_output/version_13/checkpoints/mlp.ckpt (torch, 17217 bytes, 12 tensors)

model.classifier.0.weight f4 [30, 30]
00000000: f10c 013d 1ad2 c53d ccbc 463d 5ebf 293e
00000010: daf0 3bbd 6929 893c f963 16bd 4a7d a2bd
00000020: c81e bd3c c70b a4bb d4e9 08be 04d2 183e
00000030: 4496 4b3c c93e 36bc 13e0 fc3c fa4c 27be
00000040: 5493 b93a bbb1 df3c 2d2b 753c f996 b23d
00000050: e885 b73d 1a87 0cbd 6dab 393d ff6c 7d3d
00000060: c6c2 283d 607b 86bd 8c55 f7bd 5fab 7bbc
00000070: 666f 74be e387 e2bd 94f7 da3c 7c7a 963d
00000080: 494a d93c 6bbc 303e 52ea adbd add1 683c
00000090: 946d fbb9 d34d f8bd fc03 ea3c 1bae b0bc
000000a0: 0955 2bbe 284a d53d bdea 153d 09be 5abc
000000b0: 53f2 433d dff5 0ebe 3396 af3c a796 4b3d
000000c0: d64a 7339 29b7 b23d 3caa e33d 307c 6dbc
000000d0: 5e01 503d fbe6 813d 56e7 313d 08d7 20bd
000000e0: 28c7 9cbd 96bf 50bd 1e53 52be 3618 a2bd
000000f0: 2e5b 883d 6495 003d 63ca ffbb 9d13 063d
00000100: eb33 483d a7da b83c 601a b6bd 8ff6 2d3d
00000110: 1b52 cfbc 6a00 303d 5f1f fdbb a4d6 133e
00000120: 2f45 7d3b 4ea4 80bb 3289 54bb 0789 eabd
00000130: 561b 90bc dbf6 4d3d ed0c a73d 7aa9 81bd
00000140: b267 85bd 7e31 90bd 8e4b 5eba 0c83 733d
00000150: 9a57 b93c 9ed2 9dbd 3ad5 8dbd ed33 b83c
00000160: 0296 6dbd 8996 05be 2544 0ebe 2082 823d
00000170: 96bf df3d d3d8 ec3a 5d6d b4bc 7f83 d7bc
00000180: 2bbc ad3d 82c6 7ebd 9d2e 023e 8d82 a5bd
00000190: 4820 993d 321e 09be 3c72 91bd ba6e 303d
000001a0: d2a4 33bc 2faf 923d c3c4 ffbc bbfe 1abe
000001b0: 8707 cdbd 797e 283e b52d fe3d 4152 c73c
000001c0: 3522 d23c 411f 38be aa66 ffbc c4f5 993d
000001d0: a9e6 15bd fd05 893d 8359 0dbd 2764 db3d
000001e0: c335 a93d ce8e c7bd 3521 0fbe f6ca e23b
000001f0: 9ac0 7cbd f6e4 fd3c d30f 823c ca7e b9bd
00000200: 4aee 31bc ddd1 1c3b 81ad a4bd 01c3 8ebc
00000210: d915 eb3d 428d a43b adb8 813d f368 38bd
00000220: a9a3 6a3d 31f6 463e dedc d83d f155 3fbe
00000230: 1de8 9ebd 8d80 84bd b415 ee3b 9d8a 453d
00000240: d02c 103d 060b 323c fd4f 0c3e c913 c9bd
00000250: 7f9a 4e3e b2ed a3bd 710c 9bbd ea2b 923c
00000260: ffb8 283a 4a5b 983d 324e dcbd 3f0e 5e3c
00000270: 0d8e e13d 3cdc 6bbe 8fdb 3e3e 6aac e4bd
00000280: 1e91 eabc 15f1 0ebe e6b8 293d 6d0c 933d
00000290: 29dd 9b3d e267 27bd b2e4 843c 865b 403d
000002a0: 7d13 a53c 5fb6 353c 65b8 c13d 9269 bebd
000002b0: c5bc 733d 7735 3cbe de0e b73c fe33 ab3d
000002c0: 9e5d 633d 8551 9cbc 4d69 fb3d d787 bebc
000002d0: b538 043c 78ba df3c 52d6 e8bc 3dbb df3d
000002e0: 0ae6 9fbd 519b 083d 964c f63c a9e6 3cbe
000002f0: 6345 fa3d 011f 6fbd e325 98bd b34e 873b
00000300: 96cc 813d abbd 3a3d d1bb 9b3d a7ff 0bbe
00000310: d12c 8b3c e364 f03d 612f b43d 7742 5bbd
00000320: c1bc 103d 9bf8 03be df2f 593d dd5f 9cbd
00000330: 169a 423d 3aea 093c 4ff1 3c3c 2672 ffbc
00000340: aa45 6f3d 074e 05be ff23 c7bc 8130 6d3d
00000350: 335b 323d 3028 c23d 6e89 58bd 2e3b e33a
00000360: 60d2 c93c 2471 b2bd 03d0 653d 3b2f 13bd
00000370: 4767 89bd ef79 983c a2c9 c1ba ef45 af3b
00000380: b8c5 dc3c d424 7abd 2f08 b03b 3c9d 49bc
00000390: b293 c1bc be5f b53d c806 be3d e9f5 11bc
000003a0: 9ddc 103d 9d4e b4bc 3e29 843c 85eb 973a
000003b0: 2a1e 55bd 8aba 13bc f783 eabd 9f57 90bc
000003c0: 2f60 013e 647a 4abd 80c0 69bd 5332 7bbd
000003d0: c3ec ba3d 6a88 8039 b754 fbbd d3ae 563e
000003e0: 555c 58be 5294 013e 7988 8fbc 8c1d 2b3e
000003f0: ec16 923b 72e2 a1bd bf73 5bbd d45a 9b3b
0.031506483 0.09659214 0.048519894 0.16576907 -0.04588399 0.016743379 -0.036716435 -0.07934053
0.023085967 -0.005006287 -0.13370448 0.14923865 0.012425963 -0.011123368 0.030868566 -0.16337958
0.0014158287 0.027306428 0.014963907 0.08720202 0.089610875 -0.03430853 0.0453295 0.061871525
0.041201375 -0.06566501 -0.12076864 -0.015360682 -0.2387062 -0.110610746 0.026729383 0.07347581
0.02652468 0.17259376 -0.08491959 0.014210147 -0.00047956093 -0.12124219 0.028566353 -0.021567395
-0.16731657 0.10414535 0.036600817 -0.013350972 0.04783852 -0.1396098 0.021433925 0.04970422
0.00023202164 0.08726341 0.11116454 -0.014494941 0.050782554 0.06342884 0.04343351 -0.03926757
-0.076551735 -0.05096396 -0.20539519 -0.07914774 0.06658016 0.03139247 -0.007806109 0.03273355
0.048877638 0.022565199 -0.088917494 0.042471465 -0.025307706 0.042969145 -0.007724687 0.14437348
0.0038645973 -0.0039258366 -0.0032430408 -0.11451917 -0.01759116 0.050284248 0.08156762 -0.06331153
-0.06513919 -0.0704069 -0.00084798865 0.059451148 0.02262478 -0.07706188 -0.06925435 0.022485698
-0.058004387 -0.13045706 -0.13893183 0.063724756 0.10925214 0.001806999 -0.022024805 -0.02630782
0.08483156 -0.06220103 0.12713094 -0.08081541 0.0747686 -0.13390425 -0.071018666 0.043074347
-0.010964589 0.0716232 -0.031221753 -0.15136234 -0.10011201 0.16454495 0.12411062 0.024331214
0.025651077 -0.17980672 -0.031176884 0.07517579 -0.036596928 0.06690595 -0.034509193 0.10712462
0.08262207 -0.09744035 -0.13977511 0.0069211675 -0.061707117 0.030992966 0.015876686 -0.09057386
-0.010860035 0.00239288 -0.08040906 -0.01742697 0.114787765 0.005021722 0.06334052 -0.045021962
0.057284985 0.19429852 0.10589002 -0.18685128 -0.07759116 -0.064698316 0.007265771 0.048227895
0.035198987 0.010866886 0.13702388 -0.09818227 0.20176123 -0.08004321 -0.075707324 0.017843205
0.0006436258 0.07439287 -0.10757102 0.013553201 0.11013422 -0.23033231 0.18638442 -0.11165698
-0.02863365 -0.13959153 0.0414361 0.071801044 0.07610542 -0.040870555 0.016222332 0.046962284
0.020150894 0.011090844 0.094589986 -0.0929748 0.059506197 -0.1837977 0.022345956 0.08359526
0.055509202 -0.01908184 0.12275944 -0.023258133 0.008070161 0.027310595 -0.028422508 0.10924385
-0.07807548 0.033351246 0.030065816 -0.18447365 0.12220266 -0.058379177 -0.07429101 0.0041292547
0.0633785 0.045591038 0.076041825 -0.13671742 0.016989144 0.117379926 0.08798099 -0.053530183
0.03533626 -0.12887804 0.05302417 -0.07635472 0.04751023 0.00841766 0.011532142 -0.03118236
0.058416046 -0.13018046 -0.024309156 0.057907585 0.043544006 0.094803214 -0.05286544 0.0017336363
0.024636447 -0.08712986 0.05610658 -0.035933714 -0.06709152 0.01861283 -0.0014784823 0.005348913
0.026949748 -0.06107028 0.0053720693 -0.012305554 -0.023629997 0.08856152 0.09278637 -0.008908727
0.035366643 -0.022010142 0.016132947 0.0011590576 -0.05203072 -0.009016642 -0.114509515 -0.017619906
0.12634347 -0.049433127 -0.057068348 -0.06132729 0.0912719 0.000245157 -0.122720174 0.20965128
-0.21128972 0.12654236 -0.01752113 0.1671049 0.004458299 -0.07904519 -0.05357718 0.004741052

model.classifier.0.bias f4 [30]
00000000: d143 d531 61af 28b5 4964 dc34 16b5 aab3
00000010: ea34 65b5 45c1 b4b5 c3f2 e9b4 5267 bbb3
00000020: 3e44 beb4 78de e2b1 e427 2d35 828d dc34
00000030: 849d b5b6 8e00 05b6 8ed9 51b4 67af cf33
00000040: 1e63 2e35 a90a 1db5 f0ac 5c35 d899 acb5
00000050: 7223 e834 7054 8134 897f ea33 7080 f5b4
00000060: d0dd 1b36 4386 8c34 cd45 2c35 f8e8 08b5
00000070: c10c 25b5 5e7d ea33
6.2068257e-09 -6.2840087e-07 4.105116e-07 -7.949181e-08 -8.538615e-07 -1.3467294e-06 -4.3576264e-07 -8.72666e-08
-3.543991e-07 -6.6027575e-09 6.450557e-07 4.1081154e-07 -5.4125576e-06 -1.9818867e-06 -1.9543788e-07 9.671094e-08
6.4964286e-07 -5.850257e-07 8.2208044e-07 -1.2859773e-06 4.3239157e-07 2.408956e-07 1.09196726e-07 -4.5728257e-07
2.3225912e-06 2.617472e-07 6.4176567e-07 -5.100296e-07 -6.148585e-07 1.0919278e-07

model.classifier.1.weight f4 [5, 30]
00000000: a7ce 9fbe fbee 94be 26b2 7cbe d203 a43e
00000010: fca6 64be 2bce 823c 16ec 77be cf85 a1bd
00000020: d36d 22be 7830 afbe f583 633d ed78 6d3e
00000030: d640 87be a7f0 333e 425e b6be 6624 a33e
00000040: a4d0 c8be ae99 0a3c 97e3 963d b144 5bbe
00000050: 8171 703e 11b1 943e 229d 51be 4f8b 923e
00000060: 17d6 e83d 79d6 f23c 2575 68bd d437 8ebe
00000070: 060e 74be 0411 e13c e54a 643e a9c3 0d3e
00000080: 4400 093e c3d9 76bd f999 9fbe ff3c cdbe
00000090: 994d 82be c2ed 3d3d cd72 ac3e f626 73be
000000a0: e5fd ddbe 8fc4 d23e 0c61 8a3e 7b09 b03e
000000b0: d486 10be 51e2 a3be 3068 4d3e a9c3 5bbe
000000c0: e4d2 913e cbcf c8be f3aa a5be 25ac 4bbd
000000d0: 0655 963c 43c2 c63e 596a b13d de2e 1fbe
000000e0: 5067 493e ada6 1fbe 9f03 a03e be0b ce3e
000000f0: df6d 173d 734d e83d b527 61bd c1c2 0ebe
00000100: ef01 773e e086 993d 518a bc3d af30 9d3c
00000110: f634 af3c 6cc2 663e a6a5 e9bd 90e1 b0bd
00000120: ae36 413e 4ff4 033d 831c 223e 2e8a 87bd
00000130: f1c9 da3d df42 993d 1cf8 88be 0450 933e
00000140: 486c 2cbe 2d3a 2ebe f3cf b2ba b410 71bc
00000150: e16f 58be cd24 6fbb da8f 82bd d5c6 283e
00000160: 996e e13d 9fdc 03bd efe2 12be a7d5 56be
00000170: b98b 383e 5de7 74be 9946 213e 3077 0ebe
00000180: 0937 a03b 6dbd 2ebe 4cda 5d3e d85a 043e
00000190: 7d1b a03e 8523 66bd 6eff 77be b6a9 abbd
000001a0: bc6a c83d 98ab 863e 5571 8ebd f62c 8bbe
000001b0: b59f 203c b262 05be 8cda aa3e 97d6 5ebe
000001c0: cfb6 913e d0d4 0ebe 1394 debd 5b79 863e
000001d0: 3d8c 453e 826e 21be 5e14 023e 8f83 31be
000001e0: b0d6 753e 63e0 553e 24ac dd3c bfe0 723e
000001f0: 9e31 1abe aba7 883e 5420 663e 449b 3d3e
00000200: 0302 acbe 1335 2abd 66f2 a83d b15e 8abe
00000210: 128e 883c 256d b0be 74c8 3f3d cb22 83be
00000220: dc9d f13d 3edc 973e e2e2 173e 4a47 063e
00000230: 3ca8 b0bd edf7 8f3e 4bc3 02be a503 aebe
00000240: a77b 923e e82f 48be fdc1 32be 2ec0 803e
00000250: e50b 9abe 92cd 46bd
-0.3121235 -0.29088578 -0.24677333 0.32034165 -0.22329324 0.01596745 -0.24211153 -0.0788685
-0.15862207 -0.34216666 0.055545766 0.23190661 -0.26416653 0.1757227 -0.35618788 0.31863707
-0.3922168 0.008459492 0.07367628 -0.21412922 0.23480798 0.2904134 -0.20470098 0.2862191
0.113689594 0.029643284 -0.056752343 -0.27776968 -0.23833475 0.027473934 0.22294195 0.1384417
0.13379008 -0.060266268 -0.3117216 -0.400856 -0.25449827 0.04636932 0.33681336 -0.23745331
-0.4335777 0.41165587 0.27027166 0.34382233 -0.14113933 -0.32008603 0.20059276 -0.21461357
0.2848121 -0.39221033 -0.32356986 -0.049724717 0.01835109 0.38820085 0.08662862 -0.15545222
0.19668317 -0.15590926 0.31252763 0.40243334 0.036970016 0.11342897 -0.05496951 -0.1394148
0.24121831 0.074964285 0.09206069 0.019188253 0.021387558 0.22535104 -0.11408548 -0.08636773
0.18868515 0.032215413 0.15831189 -0.066181526 0.106830485 0.07483458 -0.26751792 0.28771985
-0.16838181 -0.1701438 -0.0013642296 -0.014713455 -0.21136428 -0.003649044 -0.06375094 0.16482098
0.11007423 -0.032192823 -0.14344381 -0.2097994 0.1802205 -0.23916383 0.15749587 -0.13912654
0.004889373 -0.17064448 0.21665305 0.12925279 0.31270972 -0.056186218 -0.24218532 -0.08381979
0.09785983 0.2630279 -0.0695521 -0.2718274 0.009803702 -0.1302593 0.33369863 -0.21761547
0.28459784 -0.13948369 -0.10868087 0.26264462 0.19291778 -0.15764812 0.12703082 -0.17335342
0.24007678 0.20886378 0.027059622 0.23718546 -0.1505799 0.2669042 0.2247327 0.1851626
-0.33595285 -0.04155452 0.08249359 -0.2702537 0.016669307 -0.3445827 0.046822026 -0.25612482
0.117976874 0.2966022 0.14832643 0.13113132 -0.08625838 0.2811884 -0.12769811 -0.33987156
0.28609964 -0.19549525 -0.17456813 0.2514662 -0.300872 -0.04853589

model.classifier.1.bias f4 [5]
00000000: f793 0a35 df8c 2cb5 698a d7b6 207e b335
00000010: 8e05 0134
5.1624323e-07 -6.427999e-07 -6.4236124e-06 1.3373246e-06 1.2016082e-07

exp_avg f4 [30, 30]
00000000: e864 4236 7c58 17b8 fba8 92b7 abdf 2236
00000010: 6390 f937 5e9a 0d37 6bcc cab7 e92a 6db6
00000020: 57a1 3bb8 8696 2434 0270 fab7 daee a1b7
00000030: ea97 0a38 720f 9b37 93af e1b7 239f 4438
00000040: a0d3 4b37 6e80 16b7 6357 d7b4 5129 af36
00000050: 8411 79b5 6c77 5338 d68a b037 d925 9f37
00000060: c845 03b8 6822 e6b5 2619 5038 1d0e fe36
00000070: a6ec 21b7 0927 d937 0dac 6336 b410 0ab8
00000080: 8831 71b7 6d90 0c36 68dc fc37 283c 0e37
00000090: 30f6 dbb7 c864 f535 bbdc 30b8 f628 1035
000000a0: f73a bcb7 3c57 8cb7 9fc0 ef37 b290 9537
000000b0: b750 dbb7 afd6 3838 4f56 2c37 e344 31b7
000000c0: 25e5 f535 d8b6 a436 4350 72b6 d028 3e38
000000d0: cab8 a837 a0c7 8037 f2e3 fdb7 5272 84b6
000000e0: 173b 3238 db14 4637 5c05 13b7 ba2b c337
000000f0: c977 4c36 c2fd e3b7 f78d 73b7 cab4 fc36
00000100: 7fa6 8637 148e cd36 2dd4 83b7 d566 0fb7
00000110: 5dd9 0ab8 92e6 0f36 9a2d 01b8 7e2c 4cb7
00000120: 1cdf eb37 8e0a 3f37 866f 9cb7 6ec3 0e38
00000130: c828 1e37 eaff 56b6 2015 53b6 502d e936
00000140: b964 cf36 e1dd 3438 c558 8937 f431 a237
00000150: 4b23 b8b7 3da2 2835 6223 2a38 e0ee 3235
00000160: 3243 87b7 0a1c b637 bb67 b3b6 05c9 f837
00000170: b8e1 2c37 8b71 83b7 5fbe bdb7 7bc1 2cb7
00000180: bc97 0338 ad2e f7b5 d0ce 2b38 ba44 e5b6
00000190: 8160 d437 999d 1337 f93b f4b7 1b6d 80b7
000001a0: df78 d637 9859 2eb8 681e e9b6 2dd3 2137
000001b0: a4a4 feb5 653f 59b7 8e54 c9b6 d71a 56b8
000001c0: 103d cdb7 a245 92b7 b264 f937 fb02 c136
000001d0: 19ca 27b8 6af0 70b7 615f e837 7477 ddb7
000001e0: a76b cc36 0cbe b4b7 45ce 9db6 295d 2537
000001f0: 79a1 9f37 c902 0037 3045 e8b7 08d6 4637
00000200: 26db 04b8 4cd0 c036 c155 1bb7 9341 31b6
00000210: 38bf 8c37 8f3a 1e37 ca00 a7b7 2a41 0338
00000220: 9759 9236 ad8d 2cb7 c364 5f36 0427 2e37
00000230: 6a19 f5b3 3d13 1738 f2bd 8637 2068 3837
00000240: e4bd beb7 e2da 03b7 1bd9 ad37 4cd3 9537
00000250: 2281 b9b7 c3be 9637 36ea 1136 f31d 80b6
00000260: 2546 ebb5 a3ef 09b7 bf0c a436 009f beb5
00000270: 3168 b1b3 4287 fb36 9a3d a5b6 10c2 18b6
00000280: 6f68 a836 66ee 86b5 909b 0cb6 06cd 0eb6
00000290: cd53 c1b5 1ba2 8a36 5277 2b36 75d1 ebb5
000002a0: 9198 f7b4 c9be 42b6 d0d2 f5b6 b811 de33
000002b0: 06a2 b2b6 cb41 e835 2d0c 84b5 059f b8b5
000002c0: 4c96 84b6 f874 1d36 e15f a936 f467 95b5
000002d0: af55 b936 f3fb feb7 be15 6cb7 12a4 7735
000002e0: 6552 c237 e2f6 c536 6a11 abb7 497b 5736
000002f0: 8140 24b8 7789 8f35 d010 b6b7 834f 46b7
00000300: 39e6 cf37 e447 2d37 641e b6b7 8611 2438
00000310: 5317 3337 24a3 f2b6 fd2b b5b5 451c b036
00000320: 2405 14b6 6677 3438 6745 5b37 23f1 9c37
00000330: 39ac ceb7 eaca 4bb6 262a 1138 7a81 0337
00000340: 7a4e 52b7 85e5 ae37 1384 1335 b8e8 37b7
00000350: 696f beb6 edd7 50b6 3aae 3237 8116 0136
00000360: 250c c3b6 e000 2c34 3a85 5ab7 2736 d4b5
00000370: 607b d8b6 4b32 f5b6 b4a6 0d37 9c53 ba36
00000380: 38d2 00b7 1f90 6937 4da9 9836 670b 5eb6
00000390: 202f d133 3e6c 25b5 4474 61b6 7a56 4f37
000003a0: 8f33 9936 0718 9336 7120 19b7 8195 a9b4
000003b0: 7c06 6437 43a6 1436 9843 1536 d606 d736
000003c0: a7bf 4b35 156a 28b7 b7ce 33b6 6ed7 6a37
000003d0: 2f71 e036 9fbf c736 fc50 7cb7 06f1 87b6
000003e0: 26e5 74b7 f99d ad36 a984 70b7 adae 3ab6
000003f0: 0470 7037 231d 1337 5aac 32b7 eb3f 8237
2.8966988e-06 -3.6083613e-05 -1.7483244e-05 2.4270073e-06 2.9750348e-05 8.440196e-06 -2.4175466e-05 -3.534073e-06
-4.4734534e-05 1.532845e-07 -2.985448e-05 -1.930392e-05 3.3043245e-05 1.8484632e-05 -2.6903848e-05 4.687825e-05
1.2149016e-05 -8.970599e-06 -4.0110453e-07 5.2202163e-06 -9.2785217e-07 5.041754e-05 2.1045485e-05 1.8971901e-05
-3.1297823e-05 -1.7146349e-06 4.9614486e-05 7.571433e-06 -9.651447e-06 2.5886593e-05 3.3925783e-06 -3.291732e-05
-1.4376252e-05 2.0945693e-06 3.0143376e-05 8.477866e-06 -2.6221474e-05 1.8283254e-06 -4.216724e-05 5.3703786e-07
-2.2438804e-05 -1.6729922e-05 2.8580716e-05 1.7829563e-05 -2.614442e-05 4.406896e-05 1.0272094e-05 -1.0566061e-05
1.8320612e-06 4.9088667e-06 -3.6107529e-06 4.533754e-05 2.011321e-05 1.5351747e-05 -3.0266096e-05 -3.947215e-06
4.249354e-05 1.18065755e-05 -8.763131e-06 2.3266173e-05 3.0468093e-06 -2.7178674e-05 -1.4516982e-05 7.531232e-06
1.6051576e-05 6.126016e-06 -1.5715219e-05 -8.547407e-06 -3.31042e-05 2.144287e-06 -3.0798466e-05 -1.2169707e-05
2.8118076e-05 1.1386945e-05 -1.8648581e-05 3.4037446e-05 9.427029e-06 -3.2037447e-06 -3.1453746e-06 6.949216e-06
6.1808064e-06 4.3121985e-05 1.637301e-05 1.9335166e-05 -2.1950944e-05 6.2820965e-07 4.056411e-05 6.6657776e-07
-1.6124544e-05 2.1709147e-05 -5.3466915e-06 2.965751e-05 1.0304553e-05 -1.566929e-05 -2.2619204e-05 -1.0297047e-05
3.1374148e-05 -1.8416519e-06 4.0962186e-05 -6.8327327e-06 2.5317308e-05 8.798576e-06 -2.9114994e-05 -1.5309595e-05
2.5567073e-05 -4.1568273e-05 -6.947481e-06 9.645516e-06 -1.8972391e-06 -1.2948968e-05 -6.0001103e-06 -5.1046572e-05
-2.4466339e-05 -1.7436982e-05 2.9730003e-05 5.752195e-06 -4.000412e-05 -1.43610905e-05 2.770097e-05 -2.6400878e-05
6.092206e-06 -2.154617e-05 -4.7029775e-06 9.856457e-06 1.9029469e-05 7.630043e-06 -2.7688773e-05 1.1851553e-05
-3.167535e-05 5.746295e-06 -9.258686e-06 -2.6413225e-06 1.6778344e-05 9.431168e-06 -1.9908319e-05 3.1293523e-05
4.3615687e-06 -1.0284985e-05 3.328824e-06 1.0380292e-05 -1.1413324e-07 3.6019122e-05 1.6062495e-05 1.0991498e-05
-2.273819e-05 -7.859171e-06 2.0724305e-05 1.7860577e-05 -2.211385e-05 1.7970224e-05 2.1743012e-06 -3.818184e-06
-1.7529279e-06 -8.221631e-06 4.8890647e-06 -1.4202378e-06 -8.261157e-08 7.496129e-06 -4.9245546e-06 -2.2762724e-06
5.018948e-06 -1.0053161e-06 -2.0952175e-06 -2.1278988e-06 -1.440401e-06 4.131592e-06 2.555044e-06 -1.7569824e-06
-4.6118342e-07 -2.9019304e-06 -7.326111e-06 1.03409036e-07 -5.3236754e-06 1.7304495e-06 -9.83831e-07 -1.3755349e-06
-3.9514034e-06 2.3462908e-06 5.0477543e-06 -1.1131619e-06 5.5234045e-06 -3.0396483e-05 -1.4071758e-05 9.2253424e-07
2.316497e-05 5.8997985e-06 -2.0392898e-05 3.2109258e-06 -3.916072e-05 1.0694338e-06 -2.170392e-05 -1.1820232e-05
2.4783529e-05 1.0328342e-05 -2.1710242e-05 3.9116967e-05 1.0674662e-05 -7.231154e-06 -1.3498353e-06 5.2484997e-06
-2.205671e-06 4.3026543e-05 1.3069576e-05 1.8708937e-05 -2.4637311e-05 -3.0367469e-06 3.4609948e-05 7.838355e-06
-1.2535247e-05 2.0849295e-05 5.495396e-07 -1.0961834e-05 -5.675411e-06 -3.11201e-06 1.0650192e-05 1.9235597e-06
-5.8128667e-06 1.6019067e-07 -1.3024832e-05 -1.5810991e-06 -6.4516644e-06 -7.307424e-06 8.4430685e-06 5.5529654e-06
-7.67834e-06 1.3921438e-05 4.549662e-06 -3.3087215e-06 9.740893e-08 -6.1624803e-07 -3.3595288e-06 1.2358296e-05
4.5657575e-06 4.3837385e-06 -9.127064e-06 -3.1587481e-07 1.3591369e-05 2.2150496e-06 2.2242075e-06 6.408295e-06
7.5902284e-07 -1.00382795e-05 -2.6793402e-06 1.39976455e-05 6.6888965e-06 5.95297e-06 -1.5039226e-05 -4.0513723e-06
-1.4596886e-05 5.174192e-06 -1.4336002e-05 -2.7817835e-06 1.4331195e-05 8.768667e-06 -1.06497555e-05 1.5526972e-05

exp_avg_sq f4 [30, 30]
00000000: 5c91 b72f 6b94 4030 b604 c82f c3b5 9630
00000010: 793c e22f 730c 892e 10a5 d82f 7b20 8f30
00000020: 583d 4430 f85c 0c30 1234 ad30 1a79 4c30
00000030: 65b3 a42f 91d8 152f 35ba 952f c5f2 d830
00000040: e6ca 082f 7ac8 ab2f 38a4 d32f 4aca 8f30
00000050: f162 3030 fc3c 3730 bf8e a32f 6a3c 3930
00000060: 18fe 972f 41e4 852f 82e1 9f30 9057 bd2f
00000070: bf5b 0431 0fde 6e30 4536 ad2f 027c 1330
00000080: cd3c bc2f 30e5 9830 60e4 6330 2d7a 962e
00000090: fbf6 cd2f 380f be30 8fec 2c30 278b f32f
000000a0: 5cc9 f430 dd6a ee2f 675f d52f 5929 0d2f
000000b0: 644f b32f 4fb2 9e30 db9a 222f 4693 1b30
000000c0: b179 e52f 3cd5 9330 e102 8330 02dd 3830
000000d0: b649 a72f a02a 3e30 6bd9 8f2f 034f 4e2f
000000e0: a8e9 6c30 782d 1030 bda9 d530 0344 3430
000000f0: 3217 612f 3433 9c2f d381 192f 9a0e a32f
00000100: 7044 d72f d5db 462e 774f 0230 ea8d 1330
00000110: 5592 8d2f fa79 832f fed9 1530 e93c 4830
00000120: 8bc5 752f d230 8a2e 6f99 302f 2718 6e30
00000130: 7440 df2e 3ea4 8b2f d4b1 c72f 72f6 1a30
00000140: cf21 ef2f 2505 2230 bc6d 092f d1f8 922f
00000150: 3b79 182f 6c0a a42f 4ae4 2030 baa6 9e2f
00000160: d03f ee2f abaa 6a30 5272 4c30 1b96 4c30
00000170: 3649 6f30 6a16 1330 2bd1 3930 f54f 012f
00000180: 3f91 0b30 d5ae 9b30 355f 8930 0ae0 f92f
00000190: e599 c830 82ce 5530 7db1 2530 27ed 832f
000001a0: f8f5 ac2f 7eb6 8230 4984 8a2f adf0 ec30
000001b0: e8d7 2230 2052 e130 a683 8c30 141c 6430
000001c0: ffdc 882f 64e3 cc30 a123 932f 9bbe aa2f
000001d0: 5b20 6b30 e8f7 5d30 f927 5e30 4b1d 7f30
000001e0: cdba 5b30 333f af30 ab0b de30 85ca 8b30
000001f0: cf18 e030 20ed 152f 0b87 1b30 d239 f930
00000200: cd5c 5330 8c05 ec2f e03e 2d31 70d2 d42f
00000210: 255a c930 c59d 862f c0f0 2230 e856 6430
00000220: d72a 1030 5f83 4631 75ca 2b30 9a6f f130
00000230: 5311 5430 8d25 8c30 9007 0d30 0895 d930
00000240: fa62 c62f 3067 d22f e1c6 f230 a6cb 0131
00000250: 408b f030 d4d7 5d30 59dc 1530 0b6e c32f
00000260: 4488 d12f e489 bf30 436d 5a30 6cc9 352e
00000270: 7ee0 3730 8a46 1f31 2899 c730 2786 4530
00000280: e4e7 ba30 6bec 4e30 09eb f62f f0f2 ad2f
00000290: b091 dc2f c322 3d30 841b 032f 3e33 ff2f
000002a0: accb c92f 8bef 3030 6c5c 2830 7460 3330
000002b0: c218 0530 74f1 d130 b775 492f 2eb8 ce2f
000002c0: 8e37 0b30 1748 4830 3167 8530 54ce 1a30
000002d0: 28cc b22f dde7 da2f b6dd cf2f c339 8530
000002e0: f5e7 2930 b5cd 932e 7f31 ac2f 1eff e330
000002f0: d6f2 8630 7a22 ed2f 1e9a 8c30 87ec 8d2f
00000300: 8960 f72f c29f 382f 44e8 de2f f007 a630
00000310: 8513 182f 8260 6a30 db9b e12f 1f0b 1830
00000320: 8850 9c2f 25d6 7130 4d7c b42f bf15 6930
00000330: fa45 852f e8b0 162f 509b 2030 7a19 0630
00000340: 0f33 1130 8717 7330 7839 162f a87e 6c2f
00000350: 093c 262f 1246 b42f 64ee 412f 72d8 862d
00000360: 4e5a d92e 0817 f92f 320b 922f c7a7 132f
00000370: 5b54 a62f fc6b 912e 97f1 6c2e a948 0e2e
00000380: d5c5 622e b162 662f 8016 032e f46f e12e
00000390: 3af6 252f 0154 1030 53a5 0030 6e7f 292f
000003a0: d12d b32e 5726 802f be26 682e c2e5 462e
000003b0: 95e0 672f e89a ec2e d1d7 1030 4f42 3d2f
000003c0: db51 4830 44fc 0e30 df84 0230 f664 a230
000003d0: 30a3 0f30 9605 7a2e 4603 3c30 97b6 0c31
000003e0: 6bd4 f330 8dc0 5530 aeff a730 cf0e 8830
000003f0: 7d83 9d2f e515 ce2f db51 9e2f 6fe6 4c30
3.339079e-10 7.006011e-10 3.6383135e-10 1.0965596e-09 4.115213e-10 6.23225e-11 3.9407455e-10 1.0413851e-09
7.139156e-10 5.106382e-10 1.2602206e-09 7.4386863e-10 2.9958894e-10 1.3628411e-10 2.723525e-10 1.5785068e-09
1.2441212e-10 3.1247166e-10 3.849736e-10 1.0462113e-09 6.416903e-10 6.6661676e-10 2.9750954e-10 6.738846e-10
2.7647284e-10 2.4354743e-10 1.1632866e-09 3.4441117e-10 1.926068e-09 8.689946e-10 3.1507078e-10 5.3654514e-10
3.4240202e-10 1.1124595e-09 8.290666e-10 6.842913e-11 3.7464773e-10 1.3828645e-09 6.2909405e-10 4.4300316e-10
1.7810566e-09 4.336788e-10 3.8812262e-10 1.2838565e-10 3.261632e-10 1.1546691e-09 1.478883e-10 5.659796e-10
4.1741324e-10 1.0756263e-09 9.532323e-10 6.725288e-10 3.0429498e-10 6.918217e-10 2.6166033e-10 1.8763661e-10
8.6188345e-10 5.245151e-10 1.5546032e-09 6.558027e-10 2.0471871e-10 2.8412617e-10 1.3961392e-10 2.9659902e-10
3.91569e-10 4.5215238e-11 4.740665e-10 5.367996e-10 2.5751726e-10 2.391543e-10 5.451567e-10 7.2846135e-10
2.2352802e-10 6.284186e-11 1.6061617e-10 8.661822e-10 1.0152315e-10 2.5400654e-10 3.6324244e-10 5.6375093e-10
4.349787e-10 5.894257e-10 1.2499063e-10 2.673404e-10 1.3867389e-10 2.9838831e-10 5.853208e-10 2.88585e-10
4.333729e-10 8.537124e-10 7.4377227e-10 7.442808e-10 8.705173e-10 5.351014e-10 6.7599853e-10 1.1760888e-10
5.077431e-10 1.1327425e-09 9.995121e-10 4.5452025e-10 1.4595655e-09 7.7782414e-10 6.0278876e-10 2.3997268e-10
3.146139e-10 9.510612e-10 2.5196048e-10 1.7239664e-09 5.924208e-10 1.6394246e-09 1.0223757e-09 8.298582e-10
2.4895283e-10 1.4907582e-09 2.676446e-10 3.1058253e-10 8.553848e-10 8.075163e-10 8.0819934e-10 9.281009e-10
7.9937196e-10 1.2750888e-09 1.6155942e-09 1.0171141e-09 1.6305196e-09 1.3635715e-10 5.658058e-10 1.8133568e-09
7.689323e-10 4.293209e-10 2.5210554e-09 3.87121e-10 1.4650295e-09 2.448656e-10 5.9277383e-10 8.306942e-10
5.2447774e-10 2.8887468e-09 6.2497146e-10 1.7566777e-09 7.714977e-10 1.0197013e-09 5.130625e-10 1.5831185e-09
3.6086317e-10 3.8272097e-10 1.7664342e-09 1.8887731e-09 1.7501876e-09 8.070604e-10 5.4519017e-10 3.5548484e-10
3.81137e-10 1.393627e-09 7.946321e-10 4.1333534e-11 6.6894035e-10 2.3177642e-09 1.4522685e-09 7.1858824e-10
1.3599188e-09 7.5278334e-10 4.4914142e-10 3.1641134e-10 4.0121284e-10 6.88072e-10 1.1924156e-10 4.642064e-10
3.6706405e-10 6.436884e-10 6.1249383e-10 6.525689e-10 4.84203e-10 1.5275377e-09 1.8322664e-10 3.760205e-10
5.0646853e-10 7.286202e-10 9.706352e-10 5.6318084e-10 3.2523073e-10 3.9818718e-10 3.7810616e-10 9.69344e-10
6.181147e-10 6.721327e-11 3.1321787e-10 1.6588932e-09 9.818801e-10 4.3134546e-10 1.0230143e-09 2.5815813e-10
4.499763e-10 1.679146e-10 4.05466e-10 1.2080346e-09 1.3831254e-10 8.526585e-10 4.1038004e-10 5.531308e-10
2.8433456e-10 8.7979607e-10 3.283013e-10 8.479581e-10 2.424228e-10 1.370527e-10 5.8428373e-10 4.878512e-10
5.282325e-10 8.843632e-10 1.3662838e-10 2.1509072e-10 1.5118941e-10 3.2791597e-10 1.7637941e-10 1.5330157e-11
9.884059e-11 4.53092e-10 2.65652e-10 1.3429179e-10 3.0255162e-10 6.6130185e-11 5.3874762e-11 3.2351597e-11
5.156216e-11 2.095344e-10 2.9805935e-11 1.0251702e-10 1.509414e-10 5.250627e-10 4.680107e-10 1.5415733e-10
8.148116e-11 2.3310306e-10 5.2785103e-11 4.5224054e-11 2.1089115e-10 1.07595544e-10 5.269359e-10 1.7213007e-10
7.28759e-10 5.201779e-10 4.7482546e-10 1.1815746e-09 5.2255e-10 5.684838e-11 6.8398653e-10 2.0476472e-09
1.774095e-09 7.776258e-10 1.2223518e-09 9.899511e-10 2.8651562e-10 3.748674e-10 2.8798194e-10 7.4542233e-10

exp_avg f4 [30]
00000000: a49f 8e2d 6eb5 5b2d 4770 cbad 238d 91ad
00000010: 90b1 9f2d cc63 282c bc61 05ad 3c73 7aab
00000020: 2d2d 05ab a15c 982d 9501 34ae 5438 b2ad
00000030: 2350 682e 8b51 3e2e e4f4 1c2d 2fb3 2e2d
00000040: 0b47 f12b a229 212c 8dee 02ae f783 462e
00000050: d5ae 4fad 2eff 88ad a4e5 2bac fe74 922a
00000060: 5d38 fcad cf3f 8b2c 5787 1aad 93e5 a12c
00000070: 1774 ad2d 7c1a a9ad
1.6214426e-11 1.2488994e-11 -2.312829e-11 -1.6547269e-11 1.815506e-11 2.3929634e-12 -7.581876e-12 -8.897776e-13
-4.7313786e-13 1.7321535e-11 -4.0928667e-11 -2.0261272e-11 5.282187e-11 4.3273423e-11 8.92195e-12 9.930542e-12
1.7143798e-12 2.2902587e-12 -2.9770453e-11 4.5137196e-11 -1.1805408e-11 -1.5574732e-11 -2.4428038e-12 2.601599e-13
-2.8674113e-11 3.957702e-12 -8.783938e-12 4.601383e-12 1.9719377e-11 -1.9224837e-11

exp_avg_sq f4 [30]
00000000: 54ea a428 74cc a425 0953 6627 a3a2 a828
00000010: 96c9 d926 56b6 2525 0017 da26 bbbf 9e27
00000020: 887f f727 5ca1 e227 003c 7428 fcf6 8127
00000030: 0814 9a20 0bb1 9324 1d96 7a27 4bd8 9227
00000040: 6b61 fa26 23af de26 a552 2926 ff24 4a27
00000050: e07a 9b27 67d1 cc27 8aa1 9527 faa0 c527
00000060: caf7 0824 6dcc bf25 84b1 1827 5dee 3426
00000070: 9616 1428 56d7 9027
1.8309281e-14 2.8588008e-16 3.1963925e-15 1.872228e-14 1.511204e-15 1.4373246e-16 1.5133023e-15 4.4061684e-15
6.869454e-15 6.2902547e-15 1.3557731e-14 3.6072474e-15 2.610187e-19 6.405101e-17 3.4775846e-15 4.0757646e-15
1.737364e-15 1.5451815e-15 5.874566e-16 2.8053187e-15 4.3154364e-15 5.684841e-15 4.153095e-15 5.4853015e-15
2.9700185e-17 3.3271743e-16 2.1190469e-15 6.277309e-16 8.220548e-15 4.0201497e-15

exp_avg f4 [5, 30]
00000000: 0a7b 2738 a70a bb37 9a69 0538 db3c 2c38
00000010: 87dd 97b7 2ede 9238 007d 9838 a539 e437
00000020: 392f a8b8 386a fd36 eac4 ba38 e0df ceb8
00000030: e77d 41b8 9c9a 04b9 7853 f137 c466 b7b7
00000040: de52 7137 e854 5d38 9997 3a38 35e5 bc37
00000050: bcfb 2a38 e3bc 7338 07de 8c36 ccca 0bb9
00000060: 7f9c 9538 536f 56b7 74a7 e9b7 6bea 5638
00000070: d0c7 b2b8 25e2 58b8 eb5b 93b5 a51f 65b5
00000080: 5a31 a9b6 c907 7a37 de24 b3b6 2706 6e37
00000090: 614e ba36 dadd 8936 57b9 9bb7 7066 adb6
000000a0: ad57 2037 37ee 1bb7 65c9 0bb7 c850 4db7
000000b0: 14fb 80b6 0d70 1336 dae9 d6b6 eda1 5137
000000c0: 3c5e 3836 0e00 a736 2ac7 cf36 bd95 8337
000000d0: be33 0bb7 91fe 2bb7 8517 3737 d600 88b6
000000e0: e8af 1ab7 4b86 8e36 1588 9db7 afa2 cbb6
000000f0: f427 c2b6 6e5f afb7 37f0 9636 e3e6 0e38
00000100: ff29 56b8 7c0d 67b7 139b bab7 f64c 02b6
00000110: 6b64 f7b6 606c 4fb8 96a1 6c37 7fa3 c037
00000120: a4e4 07b8 bc88 17b5 50a1 19b8 ecc9 2c37
00000130: d007 c0b7 db79 31b7 1638 5038 3051 65b8
00000140: 4b1c e037 95dc 2238 186a e6b6 8139 2937
00000150: 91ba 2e38 e0d3 77b6 63d7 1837 891c 08b8
00000160: 797a c8b7 6052 4337 e48a 2137 0432 3f37
00000170: 127f 02b7 b739 8537 0431 6fb7 0df9 bd36
00000180: 718d c8b5 3d73 2c37 7850 45b7 dd70 42b7
00000190: f7b5 90b7 ca23 9936 59da 4937 ead5 7a36
000001a0: 07ac 06b7 836e 87b7 0d2f 6e36 0216 6837
000001b0: 9cb2 a336 de34 0036 4fec 95b7 db61 8137
000001c0: 6711 84b7 f452 0437 8190 3437 4901 87b7
000001d0: e6a9 1ab7 e792 dc36 1f07 0bb7 42df 4437
000001e0: f28f abb7 1b8f 8ab7 c200 7eb7 7ac7 1837
000001f0: ba22 8f35 2328 7a36 1802 1ab7 827c dfb6
00000200: 652b d4b6 59f7 f5b6 51a1 bf36 c0f0 f236
00000210: f30e 5bb7 833b 1637 2daf 4cb7 bbcc b437
00000220: 9170 aeb7 5bd1 8134 88fa 04b7 ea20 4fb5
00000230: 31c7 6637 017e d336 2829 04b7 7ef6 5037
00000240: aaea 89b6 4801 d836 cedd 8db6 6dd4 3fb7
00000250: 6c20 0eb7 1acc a8b6
3.993049e-05 2.2297098e-05 3.180802e-05 4.106467e-05 -1.810376e-05 7.003207e-05 7.271208e-05 2.720656e-05
-8.01966e-05 7.552353e-06 8.905849e-05 -9.8645454e-05 -4.613204e-05 -0.00012646097 2.8768307e-05 -2.1863154e-05
1.4384013e-05 5.276958e-05 4.4487042e-05 2.251808e-05 4.0765604e-05 5.811163e-05 4.1981725e-06 -0.0001333162
7.134023e-05 -1.2781314e-05 -2.785374e-05 5.1239895e-05 -8.5249194e-05 -5.1709027e-05 -1.0979105e-06 -8.5355197e-07
-5.0423378e-06 1.4902974e-05 -5.3389076e-06 1.4187338e-05 5.5523565e-06 4.108745e-06 -1.8563745e-05 -5.167727e-06
9.557157e-06 -9.294184e-06 -8.331936e-06 -1.22377605e-05 -3.8439266e-06 2.196993e-06 -6.404921e-06 1.2495072e-05
2.7472988e-06 4.976994e-06 6.1922665e-06 1.5686144e-05 -8.297093e-06 -1.0251665e-05 1.0913126e-05 -4.053213e-06
-9.220072e-06 4.2475635e-06 -1.8779227e-05 -6.0688103e-06 -5.7863017e-06 -2.0906064e-05 4.498313e-06 3.407047e-05
-5.1060688e-05 -1.37718125e-05 -2.224514e-05 -1.9416307e-06 -7.372864e-06 -4.9453578e-05 1.4104318e-05 2.2964317e-05
-3.2399446e-05 -5.645086e-07 -3.6628277e-05 1.02990125e-05 -2.2891822e-05 -1.0578394e-05 4.96433e-05 -5.4673466e-05
2.6716056e-05 3.8829243e-05 -6.866885e-06 1.0086574e-05 4.1658586e-05 -3.6929196e-06 9.110055e-06 -3.2451502e-05
-2.3898889e-05 1.1642085e-05 9.628686e-06 1.1396132e-05 -7.77819e-06 1.5881711e-05 -1.4256922e-05 5.6616323e-06
-1.4942326e-06 1.027883e-05 -1.1760851e-05 -1.1589579e-05 -1.7250872e-05 4.5639217e-06 1.2031372e-05 3.7377417e-06
-8.027076e-06 -1.6144715e-05 3.549215e-06 1.3833402e-05 4.8785714e-06 1.910426e-06 -1.7872224e-05 1.5423566e-05
-1.574373e-05 7.887127e-06 1.0762481e-05 -1.6093853e-05 -9.218673e-06 6.5736126e-06 -8.286704e-06 1.1734492e-05
-2.0451818e-05 -1.651752e-05 -1.5139756e-05 9.10635e-06 1.0664437e-06 3.7276266e-06 -9.179603e-06 -6.6604125e-06
-6.323144e-06 -7.330364e-06 5.7110233e-06 7.240189e-06 -1.3056898e-05 8.954553e-06 -1.2200134e-05 2.1553007e-05
-2.0794834e-05 2.4180449e-07 -7.9261445e-06 -7.7161405e-07 1.3755446e-05 6.302959e-06 -7.877396e-06 1.2455157e-05
-4.1102367e-06 6.437451e-06 -4.227949e-06 -1.1433946e-05 -8.471408e-06 -5.0305507e-06

exp_avg_sq f4 [5, 30]
00000000: ea61 df31 747b d931 6e8f 2c31 07b7 a031
00000010: 5f93 3731 5d25 3431 7cc7 a631 c65d ef30
00000020: 33c9 7f31 7297 b031 51f6 1031 81be c331
00000030: 4528 9331 84ed b031 ff79 c331 bfa1 0a32
00000040: d97b f931 7426 7331 1a1f 4430 7240 9831
00000050: 8a33 ac31 04dd 9431 0658 3031 e8cd 0832
00000060: d9d5 f930 eb0f 0e31 13d7 c530 15f8 ec31
00000070: d8b1 7131 a4b1 8630 fee1 a331 b30e 9131
00000080: 8474 cf30 624e 4231 f54f b531 5b1f bb31
00000090: 4b83 9331 5509 6030 710e 9531 80ad c231
000000a0: 70a6 c731 898a fa31 8f5c ad31 1aee 9f31
000000b0: e4bf 9631 fd9b f331 1372 bf31 171d 3331
000000c0: c846 7c31 12da 0e32 f055 cc31 a9bf 3731
000000d0: 2560 8430 61aa ef31 8b05 cb30 1751 c730
000000e0: 0c3e e030 2d9a a531 67df 9431 c91b a531
000000f0: 733e bb2f 6f21 6a31 8f41 5b31 180a 2332
00000100: c1f9 b332 8db5 9a31 ca69 4231 7fb7 3f30
00000110: 877c 8c31 b91b 9332 c674 8531 73b9 4631
00000120: 96d1 2632 787d 9330 bef6 0b32 719a 9a30
00000130: 5e43 3d31 6cae ad31 d8fc d532 b5b9 ed32
00000140: f312 0532 dfc4 5732 e113 3631 1535 0b30
00000150: ed07 8e32 3308 b030 be11 6c31 45ea 1232
00000160: a5c5 da31 761c 8130 d750 df30 e38b 5c31
00000170: 1506 3e31 b40c be31 aeed 4131 d973 0731
00000180: 75c8 842f 3781 0d31 5817 9831 922b 2431
00000190: dc17 e131 af2b ee2f bac0 9331 64cb f32f
000001a0: 4730 d230 da34 aa31 766b 8a30 86cb c131
000001b0: e2c8 4f30 918b 1131 e624 0432 51a8 a631
000001c0: 7c14 d531 0c14 bb30 8c71 dd30 409f a531
000001d0: 794f 4d31 886b 0f31 a0d0 2531 97c0 0f31
000001e0: b892 6731 eb1f 2731 23ca 0030 512b aa31
000001f0: 8313 4431 5575 8b31 be49 3231 da5d 0031
00000200: c461 f731 f454 c730 f2d4 2c30 a4c1 8131
00000210: 4e6a 3030 4ac5 dd31 3e94 6b30 6a1b 8431
00000220: 54e4 c430 1fc3 a731 2899 2831 4326 be30
00000230: 02d9 5230 ac35 db31 7eb4 c430 c377 d131
00000240: dfb3 cc31 72d2 1931 d0cc f730 a5bb 5f31
00000250: b10d e231 df25 862f
6.5012857e-09 6.329566e-09 2.5110825e-09 4.6774207e-09 2.6713776e-09 2.6214686e-09 4.8539146e-09 1.7416191e-09
3.7221752e-09 5.1394915e-09 2.1094773e-09 5.6969047e-09 4.282841e-09 5.1492766e-09 5.6891163e-09 8.069434e-09
7.2609336e-09 3.5383012e-09 7.134858e-10 4.431109e-09 5.011718e-09 4.3324935e-09 2.5661406e-09 7.9630595e-09
1.8177914e-09 2.0672768e-09 1.4394764e-09 6.8967076e-09 3.5171208e-09 9.800272e-10 4.7696167e-09 4.2217265e-09
1.5094348e-09 2.827527e-09 5.2768834e-09 5.445981e-09 4.2931894e-09 8.1503987e-10 4.3381125e-09 5.6658678e-09
5.810584e-09 7.2917072e-09 5.0454854e-09 4.654578e-09 4.38739e-09 7.0899646e-09 5.5718004e-09 2.6064464e-09
3.671106e-09 8.315071e-09 5.9469514e-09 2.673895e-09 9.63159e-10 6.9751853e-09 1.4771769e-09 1.4502203e-09
1.631578e-09 4.81966e-09 4.332765e-09 4.805291e-09 3.4059475e-10 3.4070486e-09 3.190596e-09 9.490144e-09
2.0951918e-08 4.50263e-09 2.829085e-09 6.974616e-10 4.0886934e-09 1.712566e-08 3.884085e-09 2.8918208e-09
9.710126e-09 1.0731318e-09 8.1469675e-09 1.124887e-09 2.7541414e-09 5.054792e-09 2.4911444e-08 2.7674881e-08
7.7459275e-09 1.255941e-08 2.6495786e-09 5.064334e-10 1.653458e-08 1.2808016e-09 3.4352605e-09 8.551585e-09
6.3671046e-09 9.394074e-10 1.6248362e-09 3.209373e-09 2.7652096e-09 5.531172e-09 2.8220302e-09 1.9710937e-09
2.4153093e-10 2.059165e-09 4.426436e-09 2.3889908e-09 6.5510743e-09 4.3322987e-10 4.3001736e-09 4.434596e-10
1.5293232e-09 4.9536597e-09 1.0071364e-09 5.640177e-09 7.5591633e-10 2.1179611e-09 7.691801e-09 4.850371e-09
6.2014447e-09 1.3611738e-09 1.6112138e-09 4.8202367e-09 2.9876601e-09 2.0870363e-09 2.412925e-09 2.0918713e-09
3.3698324e-09 2.4319842e-09 4.685338e-10 4.9525757e-09 2.8532845e-09 4.0587715e-09 2.5944327e-09 1.86798e-09
7.199761e-09 1.4503301e-09 6.287585e-10 3.7764085e-09 6.4179495e-10 6.4543757e-09 8.5703167e-10 3.8448222e-09
1.4325772e-09 4.8825224e-09 2.4534277e-09 1.3835194e-09 7.670594e-10 6.3798407e-09 1.4312176e-09 6.096316e-09
5.9576304e-09 2.2384055e-09 1.8029827e-09 3.2557435e-09 6.579022e-09 2.4401367e-10

exp_avg f4 [5]
00000000: 5601 07ae 581b 31ae 67c5 b72e 3342 4dae
00000010: 3a49 1fae
-3.0696633e-11 -4.0269427e-11 8.356942e-11 -4.66704e-11 -3.6217453e-11

exp_avg_sq f4 [5]
00000000: 340f 1928 5a0e c727 ee73 b522 1d4d f225
00000010: df65 5027
8.496503e-15 5.5249155e-15 4.9182894e-18 4.2032562e-16 2.8921023e-15
