tutorial/Mouse_cerebellum_output/version_3/checkpoints/mlp.ckpt (torch, 17217 bytes, 12 tensors)

model.classifier.0.weight f4 [30, 30]
00000000: ea31 e83c f9bc 983b 6c07 ed3d e546 b03d
00000010: a11c 183d 0029 d03c 22ec 933d 8cb5 043d
00000020: d51d 84bd 4930 453d 25e9 333e 7c70 2bbd
00000030: e4ee 40bc 73c1 f8bd e7cd 90bd db51 7fbc
00000040: a1cd a63d 7d09 b33c 3c35 ecbd 1fdd c13a
00000050: 83fb bbbd 18c7 e03d 119f 0a3e 5efb e13c
00000060: 9042 8cbd f156 ccba e956 f33c dfdd 86bc
00000070: c3ed afbc 3180 1f3c a7d2 563d 9d89 253e
00000080: 8f69 70bd 7c64 873c f3b0 b73c cd32 043e
00000090: a96a 1c3e e2d1 e33d 3940 a8bd 8cd8 453d
000000a0: 162a 6b3d 3472 c4bc 9512 d1bd 533d a0bd
000000b0: 29f7 ebb8 13a4 02bc 7d4c 353d a970 a8bd
000000c0: bc60 da3d ba28 903c 20e4 dabd 8b29 b53d
000000d0: 922b 043e 8328 753d 6cb6 1dbe 70c8 ec3b
000000e0: c769 273e a9aa 9a3c f4fd cabd a683 1bbd
000000f0: a1be 9abc 536c f9bd 4b43 143d 91d8 0d3c
00000100: f664 77bc b13a 87bd 868f 12be 9485 20be
00000110: 66b0 b03a 1d4a de3c 02e8 e2bd dc5a 4fbc
00000120: a03a 053e c090 033e 492e 8e3d 686b b1bc
00000130: 3de3 1a3d bcdf dc3d 8aab 4b3d f3bc 2c3c
00000140: da8a cf3d 2dd9 a1bd 33fc 00be 695e 02be
00000150: ed8d 143e 00e6 cbbc db55 1fbe a6b2 11bd
00000160: 79fd 693e ce78 113d 33db 703d b89c 27be
00000170: 3191 6a3e 83f5 b63d f0d0 c53c ffdd 263d
00000180: e979 103b a0b1 1bbd 9335 43bc aa81 4b3d
00000190: 5534 b33d 4957 67bd 2fcf d13d 4f99 cdbc
000001a0: 1354 ca3d f639 e23c 232d 83bc d2c1 203e
000001b0: 3c8f cebd f913 4e3d c438 96bd 3b6c bb3d
000001c0: 1268 3e3d f192 89bd 20fd af3c a3ff acbd
000001d0: 843a f6bd 5079 2abd b156 d13d 042c 203d
000001e0: e8e2 27bc a0c3 8bbd 1a3e 2c3e 91ef 1d3e
000001f0: d550 483d 425b a8bd 5fac 40bd bb1e 05be
00000200: 1a25 09be b30b e83d a81c 473e f052 99bd
00000210: e1e4 bc3d c36b a7bd 014a 1dbe 7e3a adbd
00000220: 6f97 813e e577 dd3d d38a 16be c4d4 bdbc
00000230: 8e09 34bc c4f5 9c3d a850 c83d c551 99bd
00000240: df0b 173d 1e0e be3c 5b37 abbd acd4 80bd
00000250: 3dbc 513e d2fd 3a3d 5660 76bd c788 b1bd
00000260: 327d 3e3d 7caf e039 2f1c 9dbb 3ed1 06be
00000270: d597 aabd cade 27bd ca04 6a3d 813e 5abd
00000280: 319d 733d dfee d43c ac38 dc3c cf85 debc
00000290: 0d4f f1bd 92af bfbb a4d4 4ebb cf66 753c
000002a0: ff93 40be c78a 39bd ae8f 703d 483c 26bd
000002b0: df9d 11bd b595 963c 4943 993d 8b22 0d3d
000002c0: f9de 96bd 04cf abbb da95 82bc cb57 c23c
000002d0: b800 7d3d 990a 91bc aa1a 123e 2402 103e
000002e0: 3acd 3b3d a52d 893d 54e5 f63c dda1 afbd
000002f0: 6290 2bbe 211c 223e dce9 d43d 1312 cdbd
00000300: 45fe aa3d a40c fabc 2ccf d43c d4a3 6cbd
00000310: 4a58 4c3e fcbd f23d 30de 583d 3b60 1f3d
00000320: 896d 93bd 4426 e23d 09f1 de3d a5ed e1bd
00000330: 0d91 d0bc da6f 16bd 1f54 16bd 5c80 6abd
00000340: 5410 6a3e 4970 d13c 9e66 4ebd 4cfb 063c
00000350: 293a 7ebd de4a 0d3d 198c 8e38 66dc c8bd
00000360: 429f 07be 5269 3fbe 0543 d0bd af83 a63d
00000370: b9bb 8ebd eea5 d0bc d312 b43d 18e2 c83d
00000380: 1b7e 92bd 5c7d c9bd 889f 5f3e 1e07 213d
00000390: a78d db3d dff9 e9bc f5c9 fe3d c584 a6bd
000003a0: a704 9dbd a35d f8bd 3c10 e63d f820 4b3d
000003b0: b887 94bd c1e6 24bd 67f7 8b3e e3a9 b63c
000003c0: 7c58 293d a237 36be 6295 753e 14bb a43d
000003d0: 0804 ba3c 996b cf3b a747 edb9 33f5 68bc
000003e0: 7929 c03c 8ef6 5c3c faa2 003e 0c2f 1ebd
000003f0: 03a4 ac3d 3e79 73bd 890f 523d 6f7b 1b3d
0.028344113 0.004661199 0.11573681 0.08607272 0.037136678 0.025410175 0.07222773 0.0323997
-0.064510025 0.04814175 0.17569406 -0.04185532 -0.011775706 -0.121462725 -0.07070523 -0.015583481
0.08144689 0.02185511 -0.11533591 0.0014790631 -0.091788314 0.10975474 0.13537242 0.027585682
-0.06848633 -0.0015589875 0.029704528 -0.016463218 -0.021475678 0.009735153 0.052446987 0.16165777
-0.05869442 0.016527407 0.022423243 0.12910004 0.15275063 0.11124016 -0.082153745 0.04830222
0.057413183 -0.023980238 -0.10208622 -0.07824197 -0.000112517104 -0.007973689 0.044262398 -0.08224613
0.10662982 0.017597545 -0.10688043 0.08845814 0.12907246 0.059853088 -0.1540162 0.0072260424
0.16348945 0.018880205 -0.09911719 -0.037967347 -0.018889727 -0.12178864 0.036196988 0.0086575905
-0.015099755 -0.06602991 -0.14312562 -0.15675956 0.0013480305 0.02713495 -0.11079408 -0.01265594
0.13010645 0.12848186 0.06942422 -0.02165766 0.037814368 0.107848614 0.04972414 0.010543096
0.10133906 -0.07902751 -0.12596206 -0.12731327 0.14507265 -0.024889946 -0.15560095 -0.035570763
0.22850598 0.0355156 0.058802795 -0.16368377 0.22906949 0.089335464 0.02414748 0.040739056
0.002204532 -0.038011193 -0.011914629 0.049684204 0.08750216 -0.056479726 0.10244595 -0.025097517
0.09879317 0.027615529 -0.016012734 0.15698937 -0.100859135 0.050312016 -0.07335046 0.09151503
0.046485968 -0.0671748 0.021483004 -0.08447196 -0.1202288 -0.0416196 0.10221613 0.039104477
-0.01024697 -0.06824422 0.16820565 0.15423419 0.048905212 -0.08220531 -0.047039386 -0.13000004
-0.1339306 0.113303564 0.19444525 -0.07486522 0.09223343 -0.08174851 -0.15360261 -0.08458422
0.25310847 0.10813884 -0.14701395 -0.023172744 -0.010988606 0.076640636 0.09781009 -0.074862994
0.036876556 0.023200091 -0.083601676 -0.06290564 0.20481963 0.04565222 -0.060150467 -0.08668666
0.046506114 0.00042855355 -0.0047946195 -0.13165757 -0.08329741 -0.040983953 0.057133473 -0.053282265
0.05947608 0.025992809 0.026882492 -0.027163414 -0.11782656 -0.005849787 -0.003155985 0.014978125
-0.18806456 -0.045298364 0.058730774 -0.040584832 -0.03555095 0.018381933 0.07483537 0.03445677
-0.073667474 -0.005243184 -0.015940595 0.023723504 0.061768264 -0.017705249 0.14267984 0.14063317
0.045850016 0.06698159 0.030138649 -0.08575795 -0.16754296 0.15831043 0.10396168 -0.10013213
0.08349279 -0.030523606 0.025977693 -0.057773426 0.19955555 0.11852643 0.05294627 0.038910132
-0.071986265 0.11042455 0.108858176 -0.11031655 -0.02545979 -0.036727764 -0.036701318 -0.05725132
0.22857791 0.025566237 -0.050390832 0.008238625 -0.062067185 0.034495227 6.797183e-05 -0.09807663
-0.13244346 -0.1869252 -0.10169033 0.081305854 -0.06969399 -0.025469746 0.08792653 0.09808749
-0.07152959 -0.098383635 0.218382 0.039313428 0.107203774 -0.02856153 0.12440864 -0.081307925
-0.07666903 -0.12127235 0.11233565 0.04959199 -0.07252449 -0.040259127 0.2733719 0.022297805
0.04134415 -0.1779466 0.23982766 0.08043495 0.022707 0.0063299653 -0.00045257548 -0.014218616
0.023457276 0.013486518 0.1256217 -0.038619086 0.0842972 -0.059441797 0.051284347 0.037959512

model.classifier.0.bias f4 [30]
00000000: 8ab5 0534 67b3 2f35 e24e b534 19f4 d932
00000010: 24f3 43b5 0081 0eb4 3040 d3b3 8820 91b3
00000020: 5fb3 20b4 9e31 feb4 4a93 7fb4 c0b5 1835
00000030: e29b c2b5 5212 a8b4 3d58 acb4 63a6 cbb3
00000040: 53e7 bbb3 3619 a235 c04c 4532 c5c0 39b5
00000050: b9d0 9733 8c5b 6034 ea92 15b5 b701 f234
00000060: c8a5 21b4 7366 fc33 77df f433 768a 2235
00000070: 2908 7b36 768c 4a33
1.2452634e-07 6.5453645e-07 3.3771272e-07 2.5373128e-08 -7.2996977e-07 -1.327171e-07 -9.837129e-08 -6.758006e-08
-1.4966416e-07 -4.7347288e-07 -2.3802309e-07 5.6888894e-07 -1.4499494e-06 -3.1305768e-07 -3.2101698e-07 -9.48319e-08
-8.749944e-08 1.2077278e-06 1.148436e-08 -6.9198387e-07 7.069452e-08 2.089493e-07 -5.5720614e-07 4.507726e-07
-1.5054604e-07 1.17533e-07 1.14027834e-07 6.055119e-07 3.7406664e-06 4.715954e-08

model.classifier.1.weight f4 [5, 30]
00000000: 1c42 b23e 3660 9c3e 70d0 9dbe 39c5 183e
00000010: 99da 823e b425 99bd 0baf 8d3e 909c 58be
00000020: c7d5 2c3e ad9f 7ebe 2f9e 8ebe 0b75 3f3e
00000030: e879 c13d 529a 683e 9629 91be 124e 5a3e
00000040: 20cf a8be d0dc 55be 1ecc adbe 30aa 5d3e
00000050: 7980 ba3c 8ff0 00be 3bb4 51be c166 4cbe
00000060: 596a 90be b156 823e 9c48 94be ff54 78be
00000070: de2a 5e3d 75f2 de3d 151b a2bb ebeb 8bbe
00000080: fd4b dd3e 9007 a33e 622c cb3e eff7 2c3d
00000090: 367f c63e 4916 c53e d2dc 6b3e b081 4bbd
000000a0: 813e 7ebd 80a5 e1be cc48 45bc af5e e9bd
000000b0: 0eba a83e abc4 bc3e 8486 6cbe 0d66 773e
000000c0: 7bec 6a3d b56f d13e 1d32 123e 888d c03e
000000d0: 972f 5d3d 0b7c cbbe a3ed 3e3e e94b 6dbd
000000e0: cf25 a0be 6d07 803e 20a3 92be fedc c83d
000000f0: 694b 09bd 573b 24be f721 3b3c 5623 07be
00000100: 29d2 503d f687 603e 56d9 56be 0eb3 823d
00000110: eabc 42bd 8a9c d83d 6194 7dbd 2757 a1bd
00000120: 7a6c bbbd daf7 2bbe 2ab2 fa3d 9761 65be
00000130: 2570 593e b168 eabd 6110 113e d415 82bd
00000140: f4ae 1fbd 0e91 203d 5521 19bd c923 4e3e
00000150: e078 323e c787 42be 1a39 6a3e f22f be3d
00000160: 9e2a d53d fdf6 59be a254 23be d4ea 443e
00000170: 01f8 c4ba cf4b 75be cc5f 71be 41e2 7dbe
00000180: ea31 c03b 651b 0f3e f729 afbe dfc7 afbd
00000190: 8b1e ad3d a815 2f3d e110 33be 3f94 52be
000001a0: b69e dfbc 1e0b 703e 5aee f1bd 8d6a 813d
000001b0: f719 f63d 4972 8dbe ef52 9fbe 1edf 163a
000001c0: 8d65 f9bd 934a 733e 07f7 95be 7343 8f3e
000001d0: 6993 e2bc 9cf6 e33d 4cf6 bd3d 2c5c 923e
000001e0: a6be a7bd 650f 60bd 7f70 85bc 9664 193e
000001f0: 4509 a2be c4d2 4fbd faf8 2fbe 5e44 a9be
00000200: 1f09 293e 9c3a 433e d1d5 9f3e 938f 523e
00000210: f69e 913e b55d c73e 4f32 07be 82d4 adbe
00000220: e9c4 793e 1d70 213e 8c69 d0bd fe74 4ebd
00000230: bbc0 9f3e a66c 51be 7b81 bb3e 51f9 28be
00000240: b2bb 3d3e 5a13 51be 8185 013e d084 6bbe
00000250: 9583 16be f23b 0dbe
0.34816062 0.30542153 -0.30823088 0.14918984 0.25557402 -0.074778944 0.2767261 -0.21153474
0.16878425 -0.24865599 -0.2785506 0.18696992 0.0944708 0.22715119 -0.2835204 0.21318844
-0.32970524 -0.20885015 -0.33944792 0.21646953 0.022766339 -0.12591766 -0.20478909 -0.19961073
-0.28206137 0.25456765 -0.28961647 -0.24251173 0.0542401 0.10886089 -0.004947076 -0.2732843
0.43222037 0.31841707 0.396823 0.042228635 0.3876893 0.38493565 0.23033455 -0.049684227
-0.062071327 -0.4407158 -0.012041282 -0.113950126 0.32954448 0.36868796 -0.23098189 0.24160023
0.05735443 0.40905538 0.14276929 0.3760798 0.054000463 -0.39743075 0.18645339 -0.05793372
-0.31278846 0.25005665 -0.2864008 0.09807776 -0.033519182 -0.16038261 0.011421672 -0.13197073
0.050981674 0.21926865 -0.20981345 0.06381808 -0.047543444 0.105767325 -0.061909083 -0.07877951
-0.0915155 -0.16793767 0.12241013 -0.22400509 0.21234186 -0.114457496 0.14166404 -0.0635182
-0.038985208 0.039200835 -0.037385304 0.20130838 0.17428923 -0.18997107 0.22873345 0.092864886
0.10408519 -0.21285625 -0.15950254 0.19230205 -0.0015027524 -0.239547 -0.235717 -0.2479334
0.005865325 0.13975294 -0.34211704 -0.08583044 0.08453091 0.042745262 -0.17486908 -0.20564364
-0.027297359 0.23441741 -0.1181304 0.06319151 0.12016671 -0.27626255 -0.3111796 0.0005755293
-0.121775724 0.23758917 -0.2929003 0.27981147 -0.027658181 0.111310214 0.09275493 0.28585947
-0.0819066 -0.05470218 -0.016288994 0.14979777 -0.31647697 -0.05073811 -0.17184821 -0.33059973
0.16507386 0.19065326 0.31217816 0.20562582 0.2844159 0.3893868 -0.13202785 -0.33951193
0.24391522 0.15765424 -0.101763815 -0.05040454 0.3120173 -0.20451602 0.36622223 -0.16501357
0.18528631 -0.20417538 0.12648584 -0.22999883 -0.14698632 -0.13792399

model.classifier.1.bias f4 [5]
00000000: 5fe8 aa35 8c8b 21b6 3345 7e36 be93 4636
00000010: b820 beb5
1.2733616e-06 -2.4072096e-06 3.7889229e-06 2.9590296e-06 -1.4165626e-06

exp_avg f4 [30, 30]
00000000: 4962 7e36 a0aa ffb7 1242 1f38 6dfe 29b7
00000010: ab73 e1b7 a74d 0b37 5f5e b7b7 af50 29b7
00000020: 75c8 eb37 39fb 0fb8 d3b6 9ab7 d92c 3c37
00000030: 7cb2 0038 5eab 8636 2cd8 8ab7 e6a0 9c37
00000040: 7207 0cb8 c890 1637 7569 c3b8 0244 bd37
00000050: 98a6 dfb6 35f3 39b7 2ac1 41b6 54d8 1c36
00000060: 9811 81b6 0d2c 63b7 7fcb 38b8 6dae ee37
00000070: b67f 89b8 7c33 12b8 fea8 ffb6 3906 c0b7
00000080: 63a6 b137 d3b2 59b7 7309 c6b7 d103 7fb7
00000090: 28a3 efb7 61b9 87b7 aa5d ec37 a4ed 1eb8
000000a0: ad14 8ab7 ec37 9937 9624 ce37 1e5e 9635
000000b0: e03c 0bb8 f702 1e37 ffd5 c1b7 eb74 7735
000000c0: a5f1 c3b8 a6f4 6037 564c 6b36 179a 9ab7
000000d0: 16ba 3fb7 b33c 1937 75a5 4837 79d9 7fb6
000000e0: 6953 3bb8 c1a7 a337 8e4c 87b8 a8d2 e9b7
000000f0: 7572 71b6 5233 e137 5d6c 08b8 61bb 2f37
00000100: 6dcf e337 141f 82b6 487c c337 3411 6c37
00000110: 15a7 b3b7 96d4 f637 b808 9937 3ea4 f3b6
00000120: 6cfb edb7 4f66 f3b6 5ca3 6e37 58ad 5eb7
00000130: 9b19 d737 0642 12b7 953c 9f38 a158 a2b7
00000140: d951 8d36 e3cd 1f37 ed1c 9436 2997 ac35
00000150: 90d1 5eb4 191b 4237 0da4 2f38 7eed a9b7
00000160: 919d 4938 cee0 0338 80e7 0bb7 5ec4 dbb6
00000170: 8fe5 6636 534b 24b6 c5fa a8b6 dafc 4fb7
00000180: f988 60b7 8bce 04b7 d171 3437 7aa0 91b7
00000190: 370b 82b6 944f 5f37 57b1 0337 94ad b1b5
000001a0: 7cc7 00b8 4f0f 4ab5 298c 89b6 d4f1 03b7
000001b0: 1fbf 64b8 0998 3035 870a bd36 56d4 86b7
000001c0: 2fe4 6fb6 d483 0237 30e3 f3b3 cbf2 bb36
000001d0: 4776 88b7 c3bd 8637 98c5 2ab8 d243 6bb7
000001e0: 851b 3137 296d ecb7 4c89 2638 9cb8 c7b6
000001f0: 7038 a4b7 ac83 cd37 21e9 d8b6 79d9 3d36
00000200: 5762 d837 e138 c4b7 0719 67b7 bff7 9f36
00000210: dd49 ce37 9f09 d434 84f5 b036 b926 d437
00000220: 64ca 1eb8 8645 8037 55c6 89b8 7101 cc37
00000230: 9e83 6fb7 e398 4535 01cb 5936 5487 1834
00000240: 636a 3fb7 82f3 a1b7 6126 f9b7 c334 d537
00000250: c7c1 5ab8 05a9 dcb7 d26a 8b37 2378 b7b5
00000260: 790e 4037 98bf bc36 1b0d 0336 0fb0 0038
00000270: cf1c 8837 a190 3137 ffe6 34b7 88e1 9737
00000280: d08d f835 1390 8eb7 3ab1 95b5 49eb 9836
00000290: 7749 1638 c6e8 e636 c9c1 67b6 8e6a 4637
000002a0: bf4d 3038 d096 d736 3bad 54b7 1b42 9137
000002b0: 0bc3 3e37 450e 5db7 d146 90b7 9516 3eb7
000002c0: 4796 6f37 2568 3ab6 bca7 0238 2889 6936
000002d0: 1b33 36b7 7e1a a5b7 b1b2 8f37 8164 28b7
000002e0: 8e84 83b7 95a0 7ab7 c6b8 b9b7 ee0c 0fb7
000002f0: 06dd 0338 f15f 1db8 73d9 43b7 9d58 c237
00000300: e77b a237 9472 b8b6 29ef 1bb8 cc51 4137
00000310: 45c1 d3b7 2f64 1fb6 57be ceb8 eb1d 3637
00000320: 0807 6436 0608 a7b7 0ade 20b7 5fc9 7937
00000330: c7b5 0c37 8ccc a3b5 f7fc 1bb8 f5b4 cc37
00000340: e847 a0b8 9fa5 c8b7 cd42 7136 bde8 4837
00000350: af1a 41b7 ff2c b436 bebb 8337 41fd 2b37
00000360: 71c3 b737 dded 8e37 bd8d f5b6 b0c8 9d37
00000370: 548e 2d37 f65b 00b7 8afd 86b7 bb13 f2b6
00000380: ecf1 e637 02fd 1436 a871 6736 cbcb 8536
00000390: f8e0 6638 3374 a7b6 3010 a7b6 76f5 8237
000003a0: a81c 9636 126a 0934 d67f 11b5 e1ed fcb5
000003b0: c13e e137 2c26 70b7 8179 0338 12f9 b937
000003c0: cecd abb5 d71d 34b7 1b04 5037 eb4e e6b5
000003d0: 5042 10b7 d31f cdb4 0839 3cb7 fb6f e3b6
000003e0: f14c 1537 ce80 73b7 79f1 c8b6 22e8 fd36
000003f0: 4aef 4437 9c23 0e36 091b a4b7 7640 4b36
3.790616e-06 -3.0477822e-05 3.7970087e-05 -1.0132423e-05 -2.6875952e-05 8.3031255e-06 -2.1859245e-05 -1.0091971e-05
2.8107528e-05 -3.4327826e-05 -1.8443365e-05 1.1216115e-05 3.0683805e-05 4.013461e-06 -1.6551545e-05 1.8671573e-05
-3.3385535e-05 8.974406e-06 -9.3179675e-05 2.2562224e-05 -6.665312e-06 -1.1083485e-05 -2.8871677e-06 2.337173e-06
-3.8465478e-06 -1.3540511e-05 -4.405854e-05 2.8453034e-05 -6.556457e-05 -3.485706e-05 -7.6192655e-06 -2.2891081e-05
2.1177524e-05 -1.2975844e-05 -2.360784e-05 -1.5200073e-05 -2.8566996e-05 -1.6179578e-05 2.8177008e-05 -3.7891456e-05
-1.646051e-05 1.8265062e-05 2.457415e-05 1.1203263e-06 -3.3196877e-05 9.418224e-06 -2.3107043e-05 9.218481e-07
-9.3433344e-05 1.3408402e-05 3.5062162e-06 -1.8429984e-05 -1.1427814e-05 9.133643e-06 1.1959452e-05 -3.8124547e-06
-4.4661956e-05 1.950923e-05 -6.451561e-05 -2.7873859e-05 -3.5978421e-06 2.6845988e-05 -3.2525848e-05 1.047444e-05
2.7157099e-05 -3.87792e-06 2.3303684e-05 1.4070702e-05 -2.1416266e-05 2.9424478e-05 1.8243081e-05 -7.2610846e-06
-2.8369679e-05 -7.2538746e-06 1.42239405e-05 -1.3272591e-05 2.564192e-05 -8.71765e-06 7.592995e-05 -1.9353176e-05
4.211656e-06 9.525075e-06 4.414111e-06 1.2858992e-06 -2.07516e-07 1.156961e-05 4.1876036e-05 -2.025696e-05
4.806888e-05 3.14422e-05 -8.338946e-06 -6.5495688e-06 3.4406291e-06 -2.4481749e-06 -5.0359836e-06 -1.2397033e-05
-1.3383332e-05 -7.915903e-06 1.0755336e-05 -1.7360075e-05 -3.8756075e-06 1.3310364e-05 7.849499e-06 -1.3238046e-06
-3.0703362e-05 -7.527314e-07 -4.099235e-06 -7.8645135e-06 -5.453743e-05 6.578635e-07 5.6338645e-06 -1.6072921e-05
-3.5746596e-06 7.779297e-06 -1.13568944e-07 5.601299e-06 -1.626754e-05 1.606241e-05 -4.0715182e-05 -1.4022882e-05
1.05564295e-05 -2.8184224e-05 3.970535e-05 -5.9521535e-06 -1.9576604e-05 2.4499219e-05 -6.4644414e-06 2.828978e-06
2.5795e-05 -2.3391507e-05 -1.37745e-05 4.7674107e-06 2.4591509e-05 3.9495077e-07 5.2737905e-06 2.5290401e-05
-3.7858626e-05 1.5291163e-05 -6.569611e-05 2.4319366e-05 -1.4276155e-05 7.36107e-07 3.2453684e-06 1.4205335e-07
-1.1409257e-05 -1.9306088e-05 -2.9700985e-05 2.5416148e-05 -5.215572e-05 -2.630475e-05 1.6619833e-05 -1.3669527e-06
1.14474615e-05 5.625141e-06 1.952815e-06 3.0681545e-05 1.6225878e-05 1.0583696e-05 -1.0782619e-05 1.8105624e-05
1.8518713e-06 -1.6994809e-05 -1.1152945e-06 4.557344e-06 3.5831206e-05 6.8816325e-06 -3.453448e-06 1.1826529e-05
4.2034077e-05 6.425056e-06 -1.2676518e-05 1.731613e-05 1.13702945e-05 -1.3175949e-05 -1.7199114e-05 -1.133014e-05
1.4280499e-05 -2.777678e-06 3.115063e-05 3.479954e-06 -1.0859944e-05 -1.968187e-05 1.7130138e-05 -1.0036981e-05
-1.5678143e-05 -1.493855e-05 -2.213976e-05 -8.526475e-06 3.1438678e-05 -3.752107e-05 -1.1673535e-05 2.3167866e-05
1.9369601e-05 -5.496966e-06 -3.7177615e-05 1.1522741e-05 -2.5243158e-05 -2.375116e-06 -9.858299e-05 1.0855011e-05
3.397874e-06 -1.9911688e-05 -9.588441e-06 1.4888442e-05 8.386974e-06 -1.2203977e-06 -3.719047e-05 2.440296e-05
-7.642788e-05 -2.3918981e-05 3.5950682e-06 1.1975118e-05 -1.1509909e-05 5.3696563e-06 1.5703841e-05 1.02513595e-05
2.190631e-05 1.7038483e-05 -7.3180695e-06 1.880931e-05 1.0344742e-05 -7.650806e-06 -1.6092108e-05 -7.214459e-06
2.753079e-05 2.2200988e-06 3.448784e-06 3.9874335e-06 5.504579e-05 -4.990515e-06 -4.9788723e-06 1.561151e-05
4.4736844e-06 1.2797707e-07 -5.4202735e-07 -1.8844695e-06 2.6851312e-05 -1.4314002e-05 3.1345993e-05 2.2169701e-05
-1.280039e-06 -1.0735784e-05 1.2398722e-05 -1.7159304e-06 -8.598508e-06 -3.820738e-07 -1.1218952e-05 -6.7781634e-06
8.899006e-06 -1.4513918e-05 -5.9885756e-06 7.5670114e-06 1.1738224e-05 2.1180376e-06 -1.9562913e-05 3.0286878e-06

exp_avg_sq f4 [30, 30]
00000000: 457a 132f 967a 1330 082b 9230 25e8 ac2f
00000010: 198e 792f 1654 c42f 2ef1 f02f ca75 3b2f
00000020: 6538 e22f b7e2 c72f 97f3 ae30 7b94 4c2f
00000030: 8d1b 562f e046 1e30 3b48 fb2f 386e 032f
00000040: 0569 5d30 42b9 202f da35 0731 f23b 222f
00000050: 6f50 e72f d25d 2630 6a70 4530 3979 382f
00000060: 693d a02f 9d47 492f 6c0a 0330 ee30 192f
00000070: 6ed7 6630 932a 582f 1f29 e42f 9b21 ca30
00000080: e857 9530 e82d 752f 4055 632f ecca b330
00000090: b078 a430 6b02 2b30 774a 7030 9179 3c30
000000a0: 160d 5030 e5b8 b02f c97e 0830 8c51 ae2f
000000b0: 44a8 9330 9734 212f f1e6 2730 02c4 db2f
000000c0: 9ebd 7e31 37b5 6a2f b1f2 4830 bc0b 4d30
000000d0: 2e04 6a30 d3a8 c82f de38 8730 8272 902f
000000e0: 8817 cb30 9ee7 192f 5e64 b230 26d3 3b2f
000000f0: 1f4c 272f e4f3 a030 f0ca 8630 67bb ac2f
00000100: 8113 572f a923 992f a9f2 4230 ab3b 7830
00000110: 5968 fc2f fc6c e92f 87be 6830 026f 4b2f
00000120: 9363 2c30 60e2 2730 49c7 e42f 5d98 3d2f
00000130: c782 4e30 8458 1730 90ca b930 abb4 312f
00000140: f64f 1130 2efd e12f d088 3f30 e9d6 2730
00000150: 575e 2d30 39a2 722f 6212 ab30 80bb 5f2f
00000160: 35b2 0d31 1668 682f 17a9 f22f 9544 b430
00000170: 747b 3031 f832 e82f 1204 462f 52a7 7a30
00000180: 9ea7 0230 4283 5c2f bea8 e72f 3e15 f52f
00000190: 3a1d 8a30 04dd c22f faee 0f30 2e90 922f
000001a0: 0775 cf30 25ac 412f c368 1f30 6cef 9c30
000001b0: 86d9 fd30 a739 aa2f 54fe 7830 8b94 4130
000001c0: d818 1330 07f7 ff2f d343 0430 9dff 0830
000001d0: 739b 4630 b96a 132f a41d 8030 ba18 562f
000001e0: 7365 c22f ec67 6030 6963 fb30 2b9f 9630
000001f0: 01d7 f12f 34ca b830 e7b4 1430 cad2 6030
00000200: 8edf a830 1361 5830 e387 1c31 deda b32f
00000210: 25fe ea2f 7d19 5330 3603 2a31 87da 2930
00000220: ce24 8031 377e 1b30 9db1 2231 f617 f72f
00000230: a945 4130 cfbf 1030 7004 8630 90b5 da2f
00000240: caee 1430 d438 f22f 2600 2930 b933 b62f
00000250: dc97 1431 58bf 9f2f ca98 2830 c062 ed2f
00000260: d16f 3230 8753 c72e 40ea 292f 363d 0931
00000270: 2015 4630 0652 6e2f 1fb7 2530 55b4 1930
00000280: 99eb 5f30 37ad b92f 1839 2b2f 43b3 602f
00000290: 305c 2431 0439 b92e 2c85 3b2f 561d 682f
000002a0: 9a8d 8931 1628 bd2f f0eb 2530 5b9d fd2f
000002b0: 42a5 ba2f e687 e52f 3908 3730 e881 b82f
000002c0: a282 e12f 8412 2c2e ac63 2b30 bb14 8a2e
000002d0: 4c5d 4e30 cf61 1c30 aec1 0731 65a5 8b30
000002e0: 4828 b82f 956d de30 56f0 4b30 f33c f02f
000002f0: b766 fd30 6ebc e430 c854 be30 3d2c 4d30
00000300: ac33 f22f b58c d92f 1ed5 0b31 dd63 ac2f
00000310: 79e1 0e31 40c2 6930 faf0 3f31 dc24 ea2f
00000320: 2cc2 a630 31d1 a430 ab09 9d30 d698 8630
00000330: 99c0 4330 fc4d 0e30 7eb2 0230 0e0c a62f
00000340: 36f3 5431 0348 612f ef2c cf2f 80bc 2f30
00000350: 0325 7530 7fc6 0130 8fb7 942f 4e5d 8c30
00000360: cc49 7230 7ab4 c030 fd75 9030 935f 3630
00000370: 5d31 7230 04d1 872f 5f04 ad2f eb55 2230
00000380: 80b9 fa30 5e32 2730 b91c 4331 92a4 882f
00000390: 680a c930 851f a82f 4234 7d30 8894 2f30
000003a0: 70d6 4d30 853b 1630 80be 3f30 8db5 e62f
000003b0: 6359 1530 4dba 6d2f d3fe 4131 b712 512f
000003c0: 8668 922f 5567 d630 41ea 3131 04cc b42f
000003d0: 2a58 462f 829e 3930 e20c 0030 8f0f 482f
000003e0: 0b06 c22f b44a 892f a852 a330 bcda 872f
000003f0: 47ac ef2f 423e d72f 555d 4630 d5f3 3a2f
1.3413011e-10 5.3652494e-10 1.0635128e-09 3.1451566e-10 2.2696901e-10 3.571194e-10 4.3827114e-10 1.7049398e-10
4.114923e-10 3.635898e-10 1.2729399e-09 1.8606443e-10 1.9472975e-10 5.7580785e-10 4.5707957e-10 1.1953538e-10
8.0548573e-10 1.4617732e-10 1.9675697e-09 1.4755111e-10 4.2075807e-10 6.0523775e-10 7.182793e-10 1.677777e-10
2.9147465e-10 1.8306286e-10 4.767233e-10 1.3932652e-10 8.3979657e-10 1.9660211e-10 4.1502177e-10 1.4706986e-09
1.0866161e-09 2.229893e-10 2.0675817e-10 1.3081638e-09 1.1966872e-09 6.2212874e-10 8.741731e-10 6.856676e-10
7.5688555e-10 3.214559e-10 4.9656684e-10 3.1708358e-10 1.0743482e-09 1.4661548e-10 6.1082434e-10 3.997514e-10
3.706965e-09 2.1346556e-10 7.310446e-10 7.459524e-10 8.5134644e-10 3.6499745e-10 9.838705e-10 2.627481e-10
1.4776882e-09 1.3997556e-10 1.2979731e-09 1.7082566e-10 1.5215605e-10 1.171085e-09 9.807462e-10 3.1419775e-10
1.9561065e-10 2.7855876e-10 7.092163e-10 9.030667e-10 4.5912676e-10 4.245989e-10 8.4671864e-10 1.850218e-10
6.271474e-10 6.1075944e-10 4.161456e-10 1.724358e-10 7.512821e-10 5.505927e-10 1.3518093e-09 1.6162242e-10
5.2864324e-10 4.1107157e-10 6.967982e-10 6.105965e-10 6.30711e-10 2.2067405e-10 1.2447112e-09 2.0348345e-10
2.06195e-09 2.1137256e-10 4.413969e-10 1.3116216e-09 2.5681546e-09 4.223677e-10 1.8009441e-10 9.1187247e-10
4.7531923e-10 2.0055516e-10 4.2138554e-10 4.4580334e-10 1.0049128e-09 3.5445435e-10 5.2362703e-10 2.665969e-10
1.5094493e-09 1.7614406e-10 5.799274e-10 1.1418542e-09 1.8469997e-09 3.0963784e-10 9.0583296e-10 7.0424083e-10
5.3513594e-10 4.6559753e-10 4.8117704e-10 4.983976e-10 7.2252887e-10 1.3407488e-10 9.32165e-10 1.9471971e-10
3.5360478e-10 8.1638407e-10 1.8290908e-09 1.0959175e-09 4.3990414e-10 1.3445232e-09 5.4099164e-10 8.1790275e-10
1.2287147e-09 7.8718293e-10 2.277823e-09 3.2715425e-10 4.2744933e-10 7.6797574e-10 2.474008e-09 6.179239e-10
3.7294745e-09 5.6568034e-10 2.3675064e-09 4.4946064e-10 7.0311984e-10 5.265947e-10 9.751044e-10 3.9782977e-10
5.4181426e-10 4.4059922e-10 6.1482053e-10 3.3142358e-10 2.1623157e-09 2.905789e-10 6.133517e-10 4.3180215e-10
6.4914923e-10 9.06431e-11 1.5453683e-10 1.9970918e-09 7.2062e-10 2.1675114e-10 6.028688e-10 5.5917343e-10
8.146173e-10 3.377438e-10 1.5572643e-10 2.0436368e-10 2.3917544e-09 8.422954e-11 1.7054863e-10 2.1110699e-10
4.003323e-09 3.4407382e-10 6.036194e-10 4.613224e-10 3.3950626e-10 4.175142e-10 6.65867e-10 3.356171e-10
4.1020082e-10 3.9124717e-11 6.235108e-10 6.279196e-11 7.5074946e-10 5.6891464e-10 1.975518e-09 1.0160589e-09
3.3498027e-10 1.6183771e-09 7.419251e-10 4.3699053e-10 1.8437366e-09 1.6642738e-09 1.3848416e-09 7.464143e-10
4.405626e-10 3.9572048e-10 2.0348305e-09 3.1357575e-10 2.0791886e-09 8.504095e-10 2.7931137e-09 4.2590542e-10
1.2133277e-09 1.1992026e-09 1.1426001e-09 9.793222e-10 7.1214284e-10 5.177012e-10 4.7547377e-10 3.020379e-10
3.098831e-09 2.0489214e-10 3.7685008e-10 6.3932504e-10 8.918308e-10 4.7212007e-10 2.705147e-10 1.021286e-09
8.814396e-10 1.4021133e-09 1.0510913e-09 6.6347033e-10 8.8109237e-10 2.4704871e-10 3.1471623e-10 5.9057353e-10
1.8242616e-09 6.082582e-10 2.8392562e-09 2.485519e-10 1.4627632e-09 3.0581418e-10 9.2115127e-10 6.3875705e-10
7.48833e-10 5.4654264e-10 6.975611e-10 4.1965756e-10 5.433291e-10 2.1621212e-10 2.8230047e-09 1.9015088e-10
2.6631514e-10 1.5599918e-09 2.5890048e-09 3.288677e-10 1.8039317e-10 6.752786e-10 4.6584436e-10 1.8195422e-10
3.5292688e-10 2.4973235e-10 1.1883303e-09 2.4711777e-10 4.3596257e-10 3.915251e-10 7.2164613e-10 1.7003228e-10

exp_avg f4 [30]
00000000: b429 09ad 205d adac 216e f72d 2b68 2a2d
00000010: 82b2 b12d ba3c 992d df3b ae2c 39e7 af2c
00000020: bbb9 812d f8bb 572c 1f55 f92d 953b 38ad
00000030: 5bf3 dc2d 45b6 0cac f381 892d 1b33 bc2c
00000040: 11f8 232d 85aa 072d 9120 90ab 7e92 a42d
00000050: ddf6 eb2c 6b9c 2a2c 219a 2b2e 6d3d 57ae
00000060: e3a1 392c b3f7 a3ad 6000 c2ad d59f ceac
00000070: f412 d9ad 598e f5ac
-7.796808e-12 -4.9272947e-12 2.8129556e-11 9.686511e-12 2.0201844e-11 1.7421054e-11 4.9520245e-12 4.99947e-12
1.4748083e-11 3.0657681e-12 2.8345824e-11 -1.0472419e-11 2.5119176e-11 -1.9996377e-12 1.5632806e-11 5.3489552e-12
9.320559e-12 7.7117245e-12 -1.0240854e-12 1.8709697e-11 6.706509e-12 2.4245282e-12 3.9017792e-11 -4.8939897e-11
2.6379946e-12 -1.8640955e-11 -2.2055413e-11 -5.872617e-12 -2.467846e-11 -6.9791226e-12

exp_avg_sq f4 [30]
00000000: 5245 ca24 8d28 ef27 d8ae a426 2c9c 3e27
00000010: f198 8425 e1ff 2627 efd1 dc27 0672 5128
00000020: a210 8827 92c5 ba25 8756 8226 b15c b525
00000030: 74a7 9524 ce15 e427 73c3 7428 69fc b027
00000040: 3382 7426 fae5 b622 ee41 9928 3d27 2f25
00000050: 283a 5b27 eafe 2627 9b95 a428 61a3 ab28
00000060: 3b9f 9427 972a a222 9817 aa28 0ec4 6925
00000070: 6888 1e1f 9f3f 1228
8.772097e-17 6.637979e-15 1.1427177e-15 2.6452458e-15 2.3001987e-16 2.317584e-15 6.1289877e-15 1.16265555e-14
3.7765616e-15 3.2399736e-16 9.044015e-16 3.1461305e-16 6.4902126e-17 6.3306353e-15 1.3587102e-14 4.9123477e-15
8.483096e-16 4.9574696e-18 1.7015005e-14 1.5192125e-16 3.0423882e-15 2.3175317e-15 1.8272539e-14 1.9055668e-14
4.125089e-15 4.395528e-18 1.8884024e-14 2.0275954e-16 3.3570634e-20 8.118424e-15

exp_avg f4 [5, 30]
00000000: 155c 4037 a574 a5b8 ca39 deb6 696f 8a38
00000010: 3678 a3b7 3231 a538 4696 a7b8 285b dcb8
00000020: 83af df38 4d2b ab38 c950 4238 e675 0638
00000030: 5a19 c338 197a f138 de1b 21b7 7ee8 36b9
00000040: f585 fe38 49cc 0236 10ef f8b7 f74c 1738
00000050: aba2 0f39 49cf 44b8 628b e338 7c9d 71b8
00000060: e741 0e39 aa13 14b9 03cc 9f38 91b9 8eb8
00000070: a9a4 17b8 a1fa 0ab9 a7d8 3a37 ab37 4e37
00000080: c5ec 90b7 041d fa35 5662 48b5 63f6 06b6
00000090: 9cfc 03b5 52de 95b7 e675 a536 c721 8cb6
000000a0: 76f2 a1b6 cb22 8137 8ca9 f936 f010 7737
000000b0: 91ab 84b7 404e b5b6 083a 22b6 3b46 22b7
000000c0: 60eb 62b7 9da5 2a35 aac7 5f36 6960 55b7
000000d0: dd17 33b6 afa0 09b6 a068 06b7 2660 9e36
000000e0: e8c2 cdb5 e978 80b7 e8d1 9f36 8520 06b6
000000f0: 8ad8 f737 740a 7138 6d49 d036 219a c738
00000100: f5ed fa35 9f09 bcb8 7f55 ed38 8c1f 16b8
00000110: 3155 7938 f7fc 3db8 145a cf37 00a8 d837
00000120: a21f 8338 333c d438 3a6d 57b8 fed1 d338
00000130: 16a5 d3b8 56f8 7c38 fc4b a7b8 bd8b 8838
00000140: 4f6b 5738 f626 33b7 072f 0c38 8df8 09b9
00000150: 4394 72b8 5fad 9238 d143 fab8 e79b 54b8
00000160: aa4f 91b8 e11b b438 4d87 ac36 d369 2cb4
00000170: 2f54 a7b5 ca6c f136 466f bb36 5bfd b935
00000180: 974d 9836 d26b 7ab6 e321 0437 6fc1 b6b5
00000190: 9781 34b6 2e07 0e35 79cc 9c36 99c2 e436
000001a0: 9b26 06b6 632e bd34 0bf5 32b6 cb0e 44b5
000001b0: ba8a bab6 4165 f836 5891 d036 0c4c 09b5
000001c0: 68ee af35 9ae0 0db7 e40e e035 809a a2b5
000001d0: e384 91b6 03ed 83b6 fd19 45b6 c925 dbb5
000001e0: 4db5 0037 8e5e 1437 6b5c 82b5 d36f 5fb7
000001f0: 42fc e037 62c8 ee34 4022 9037 69e6 e737
00000200: 5b7d 83b7 31b0 9ab7 d72a e5b7 223e 81b7
00000210: bc9c cdb7 b642 0ab8 f4e5 0d37 f220 0a38
00000220: f563 cdb7 b050 66b7 ff94 e036 49c8 5336
00000230: f183 f0b7 52d1 8537 a71d 0bb8 27c1 6837
00000240: 48f6 a9b7 241c b537 f66d 66b7 8445 9937
00000250: 691d 5e37 e47f 8037
1.1465531e-05 -7.88954e-05 -6.622843e-06 6.6011045e-05 -1.9487092e-05 7.8769765e-05 -7.991171e-05 -0.00010507397
0.0001066616 8.161981e-05 4.632844e-05 3.205789e-05 9.303047e-05 0.00011514518 -9.602836e-06 -0.00017443483
0.00012136615 1.949042e-06 -2.9675226e-05 3.6072885e-05 0.00013698141 -4.692309e-05 0.000108501656 -5.7605546e-05
0.00013566726 -0.00014121705 7.619711e-05 -6.805652e-05 -3.6154557e-05 -0.00013254072 1.1136907e-05 1.2291518e-05
-1.7276392e-05 1.8634896e-06 -7.4648904e-07 -2.0110972e-06 -4.91689e-07 -1.786571e-05 4.9311084e-06 -4.1762573e-06
-4.8264e-06 1.53942e-05 7.440516e-06 1.4726291e-05 -1.5815518e-05 -5.40333e-06 -2.417366e-06 -9.672304e-06
-1.3525452e-05 6.3570934e-07 3.334581e-06 -1.2718237e-05 -2.6686969e-06 -2.050812e-06 -8.011382e-06 4.71996e-06
-1.5330415e-06 -1.5315092e-05 4.7630056e-06 -1.9986485e-06 2.9545528e-05 5.7468613e-05 6.207431e-06 9.517768e-05
1.8695706e-06 -8.966331e-05 0.000113169655 -3.5792167e-05 5.9445567e-05 -4.5296703e-05 2.4718269e-05 2.5827438e-05
6.252459e-05 0.00010120161 -5.136172e-05 0.00010100378 -0.00010092014 6.0312763e-05 -7.977334e-05 6.5110136e-05
5.1359933e-05 -1.0678303e-05 3.34224e-05 -0.0001315793 -5.7835376e-05 6.9941154e-05 -0.00011933561 -5.0689934e-05
-6.9289774e-05 8.588262e-05 5.1417505e-06 -1.6057247e-07 -1.246697e-06 7.1950244e-06 5.585988e-06 1.385731e-06
4.5389856e-06 -3.7315663e-06 7.875703e-06 -1.3616353e-06 -2.6897521e-06 5.290957e-07 4.672966e-06 6.8175837e-06
-1.9990027e-06 3.5237744e-07 -2.66667e-06 -7.3037216e-07 -5.559382e-06 7.4027635e-06 6.2158033e-06 -5.114714e-07
1.3107901e-06 -8.456549e-06 1.6693634e-06 -1.2114906e-06 -4.336807e-06 -3.931696e-06 -2.9370415e-06 -1.6327768e-06
7.671607e-06 8.843503e-06 -9.712652e-07 -1.3317872e-05 2.6820348e-05 4.4476752e-07 1.7182087e-05 2.7644639e-05
-1.567479e-05 -1.8440276e-05 -2.7318876e-05 -1.5406931e-05 -2.451089e-05 -3.2963893e-05 8.457795e-06 3.2932447e-05
-2.448445e-05 -1.3727855e-05 6.6930656e-06 3.1558031e-06 -2.867167e-05 1.5952308e-05 -3.31678e-05 1.3873249e-05
-2.0261054e-05 2.1589985e-05 -1.3734671e-05 1.8271392e-05 1.3239079e-05 1.5318343e-05

exp_avg_sq f4 [5, 30]
00000000: 476b a631 212a ab31 e81a 8931 ff6f 3f31
00000010: bba5 6e31 1557 cc30 163b 9631 a988 9e31
00000020: 2267 9e31 bcab 7b31 9736 7c31 a0d1 0b31
00000030: 8250 3831 ce08 c331 e371 6531 358d 0732
00000040: 8aff f031 986e fb30 5803 a631 b05d 5b31
00000050: 70ea a831 944b c330 6823 9a31 3f09 7331
00000060: 3150 f031 7d52 e131 bda7 9631 6fb4 7631
00000070: cd4f 6530 036f 8731 b972 b030 1d0c 3831
00000080: bdfa c031 de8e a331 b881 fd31 2252 c42f
00000090: 9227 f531 cbfe aa31 fad8 6631 a1b6 9730
000000a0: 2ce9 d030 db29 cb31 e238 4f30 c228 f430
000000b0: addd 6631 e97b e831 8cba 8e31 7879 0931
000000c0: 54b8 a330 7211 fd31 2f2a 0531 3155 9731
000000d0: 83ef ad30 38ff fa31 1ca9 0d31 48f0 b130
000000e0: fedb b431 e7b7 1d31 5b30 4631 6e49 9930
000000f0: f1b6 e830 37f9 e831 4949 1e31 5fb5 0032
00000100: f98c 7b30 9465 7532 5c75 8132 fa4f a431
00000110: 1c61 3c31 daa3 5b31 8d20 d930 463e 5831
00000120: 6b29 9031 9c5c 5232 ad93 bb31 d376 9732
00000130: aaeb 7332 108a c831 25e0 0532 14e3 3331
00000140: 49da 1731 840b f930 f4bf 8530 5a9a 8732
00000150: a7aa 0432 4711 2a32 2c56 9432 4699 a631
00000160: 8030 9b31 5d96 7532 f0bc 2431 b85d 9c31
00000170: d3ac c330 c7ab 8231 9276 8231 6dfd bb31
00000180: 9ebe 9c30 71ab 3031 a488 0232 3c2d a430
00000190: 2565 3c30 a01a c630 8547 1c31 14d4 8a31
000001a0: 5821 fe30 d25e b231 02b7 3331 c873 4930
000001b0: 5359 2431 7957 ab31 aefb d331 0642 4730
000001c0: 5a8f 9730 ecef 8b31 cda0 0132 7f83 eb31
000001d0: 4cda ce30 718e 0a31 18be 3c30 3c92 e931
000001e0: c8d0 0231 c58c fb30 aea9 e830 4134 4531
000001f0: 93cd 0632 4899 7e30 b119 5831 4f7a 2732
00000200: a9d3 4531 2d25 5f31 7849 0c32 2f8d 9231
00000210: 3232 ef31 6d94 7432 6fb8 5731 6571 1632
00000220: 8d3e bc31 338b 4331 de42 5031 80de 4c30
00000230: b4da 0732 6bad 7d31 9699 3932 b3df 8d31
00000240: 9756 7831 f104 8531 085a 2b31 4ea1 bf31
00000250: f548 1831 6240 f330
4.843432e-09 4.9815445e-09 3.9902837e-09 2.785782e-09 3.4727765e-09 1.4867704e-09 4.372292e-09 4.6139417e-09
4.61013e-09 3.6622927e-09 3.6701857e-09 2.034632e-09 2.6821287e-09 5.676248e-09 3.3388623e-09 7.890141e-09
7.0139707e-09 1.8294086e-09 4.831616e-09 3.192195e-09 4.916096e-09 1.4209598e-09 4.486015e-09 3.536641e-09
6.994036e-09 6.5577397e-09 4.384644e-09 3.5900276e-09 8.342312e-10 3.9416377e-09 1.2838292e-09 2.678241e-09
5.616441e-09 4.7601665e-09 7.3780164e-09 3.571055e-10 7.134937e-09 4.976618e-09 3.3592742e-09 1.1038602e-09
1.5200263e-09 5.912836e-09 7.5386997e-10 1.7764921e-09 3.3595413e-09 6.7661756e-09 4.153952e-09 2.000517e-09
1.19122e-09 7.3652524e-09 1.9378026e-09 4.4043635e-09 1.265548e-09 7.3049726e-09 2.0614328e-09 1.2946737e-09
5.2636997e-09 2.2951043e-09 2.884028e-09 1.1153085e-09 1.6932217e-09 6.780421e-09 2.3033684e-09 7.49182e-09
9.15136e-10 1.4283973e-08 1.5070945e-08 4.7821205e-09 2.74128e-09 3.1961833e-09 1.579808e-09 3.1467535e-09
4.1956603e-09 1.2244666e-08 5.459205e-09 1.7632749e-08 1.4198045e-08 5.836462e-09 7.7925835e-09 2.6177007e-09
2.2097473e-09 1.8120407e-09 9.73158e-10 1.578626e-08 7.722213e-09 9.899231e-09 1.7268654e-08 4.848661e-09
4.5166075e-09 1.4295066e-08 2.397254e-09 4.550852e-09 1.4237237e-09 3.803027e-09 3.796978e-09 5.4712275e-09
1.140467e-09 2.5708824e-09 7.598064e-09 1.1945427e-09 6.8537737e-10 1.4413963e-09 2.2741642e-09 4.040439e-09
1.8490409e-09 5.1912616e-09 2.6151956e-09 7.328791e-10 2.3915916e-09 4.9866995e-09 6.169521e-09 7.2489603e-10
1.1027439e-09 4.0727084e-09 7.54535e-09 6.8543495e-09 1.5050516e-09 2.0162612e-09 6.866414e-10 6.7978174e-09
1.9036168e-09 1.8302663e-09 1.6928448e-09 2.8696976e-09 7.846569e-09 9.262249e-10 3.144674e-09 9.748489e-09
2.8787588e-09 3.2471903e-09 8.165777e-09 4.26521e-09 6.961522e-09 1.4236417e-08 3.1391456e-09 8.756932e-09
5.4786313e-09 2.845536e-09 3.0305993e-09 7.453096e-10 7.907762e-09 3.6914922e-09 1.0803339e-08 4.1290718e-09
3.613797e-09 3.8713712e-09 2.4934952e-09 5.57717e-09 2.2160382e-09 1.7698876e-09

exp_avg f4 [5]
00000000: 3a7d 58ae c3a3 122e cfa3 23ae f583 9fae
00000010: 7273 e0ac
-4.9223937e-11 3.3342006e-11 -3.72074e-11 -7.253923e-11 -6.37928e-12

exp_avg_sq f4 [5]
00000000: 1b36 4a26 fa8a 3726 06c5 8c23 fa96 ff24
00000010: 821a 3428
7.0156155e-16 6.367923e-16 1.5262273e-17 1.10844386e-16 9.997755e-15
