tutorial/Mouse_cerebellum_output/version_3/checkpoints/mlp.ckpt (torch, 18229 bytes, 12 tensors)

model.classifier.0.weight f4 [30, 30]
000000 19 ff 94 bc 8f 3e 0d bd d6 3b b4 bc 77 e0 f9 bd
       -0.018188046 -0.03448349 -0.022001188 -0.122010164
000010 b2 58 ff bc b3 12 f9 bc b4 62 19 bd 03 4a 84 3d
       -0.031170223 -0.030404424 -0.037447646 0.06459429
000020 30 a0 11 3e c1 56 0d be 9c 87 8c bd 9d 46 b4 3d
       0.14221263 -0.13802625 -0.06861803 0.08802531
000030 b3 a0 73 bd 70 93 31 3d 15 bd 6f bc 33 35 7b 3d
       -0.059479427 0.043353498 -0.014632483 0.06133003
000040 79 32 70 be 2b 4f 00 bd 59 0a c9 bd 81 c1 38 bd
       -0.23456754 -0.0313255 -0.09816427 -0.045106415
000050 f9 48 a1 3d d8 df c0 bd 1f 71 8e bd c8 08 ad 3d
       0.078752466 -0.09417695 -0.0695517 0.084489405
000060 16 6f c9 3b 5b b2 5b ba dd 71 10 bd 6e 77 3f 3d
       0.0061472757 -0.0008380764 -0.03526484 0.046744756
000070 e8 47 0e be 7b 22 87 bc 50 59 a6 3d 40 40 40 3d
       -0.13894618 -0.016495934 0.08122504 0.046936274
000080 e2 6f ca 3c c7 bd 02 bd 7a 18 96 3d b2 57 0e 3e
       0.024711553 -0.031919267 0.07328887 0.1390064
000090 82 06 35 3e ca 44 25 3e aa 86 a6 3d 43 6a 6e bd
       0.17678264 0.16139522 0.08131154 -0.058206808
0000a0 c2 f7 8e bd ed 97 59 3d 7b 7f 34 bd 08 ea 39 bd
       -0.0698085 0.053123403 -0.044066887 -0.045389205
0000b0 7c be 2f 3e 15 7d cf 3d f4 2d 4b be 01 ed 94 3c
       0.17162508 0.101312794 -0.19841748 0.018179419
0000c0 fe 29 80 bc 29 c7 b7 3d 8a ed c1 bd 84 74 75 3d
       -0.015645023 0.08973534 -0.09469135 0.05992557
0000d0 fb dc d2 3c 22 e0 c1 3d bd 66 c2 bd f2 ae d5 bd
       0.025740137 0.09466578 -0.09492252 -0.10433759
0000e0 35 5e fc 3b fe 05 81 3d be 6c 7c be 24 5e 51 bc
       0.00770166 0.06299971 -0.24650857 -0.0127787925
0000f0 de 7d 07 3d 9d 9a 0f be f7 d0 fc 3d b6 d3 f6 3d
       0.03307902 -0.14023824 0.123445444 0.120520994
000100 ca f0 36 3c 83 52 60 3b 55 7c a7 bd 45 4b 2d be
       0.011165807 0.0034228868 -0.08178011 -0.16923244
000110 4f 67 72 bd f1 bd 08 3e 0a 60 a7 ba 8e a2 db bd
       -0.059180554 0.13353707 -0.0012769711 -0.10724364
000120 b1 0e 23 3e 2d e4 95 3d 55 d0 10 3e eb f2 3e bd
       0.15923573 0.07318912 0.14141972 -0.046618383
000130 68 b3 12 3e 42 72 ee 3d c5 3e 45 3d 96 d9 6a 3d
       0.1432625 0.11642887 0.048155565 0.057336412
000140 9e 1f 44 bd c5 43 5f 3d 0e 92 d2 bc 79 3d 37 be
       -0.047881715 0.05450799 -0.02570441 -0.17894544
000150 d6 92 10 3e ea 9f 3b bd fd 50 13 be 1c c0 a5 bd
       0.14118513 -0.045806803 -0.14386363 -0.080932826
000160 39 78 86 3e 33 1b 64 3d df 9d 9c bc 47 1e 7c bd
       0.26263598 0.05569 -0.019118248 -0.061552312
000170 07 31 07 bd 90 25 a2 3c 11 5f 17 bd d6 12 39 bd
       -0.03300574 0.019793302 -0.036955897 -0.04518398
000180 17 f6 29 be 88 59 1a be 16 de f2 bc e2 a8 7b 3d
       -0.16597782 -0.15073216 -0.029646914 0.061440356
000190 f5 51 bc bd 28 60 32 bd 74 8e ae 3d 61 d9 08 3e
       -0.091953196 -0.043548733 0.085232645 0.13364173
0001a0 20 3c 62 3d e1 18 7a bd f5 15 ed 3d e9 3c 25 3d
       0.05523312 -0.061058883 0.115764536 0.04034129
0001b0 60 cc 01 3e 6d 81 2b 3b a6 1c a1 3d e8 a7 7c bd
       0.12675619 0.0026169673 0.078667924 -0.061683565
0001c0 59 29 ee bd f4 b4 03 be 59 f2 1e 3e 6e 6b ad 3c
       -0.1162898 -0.12861997 0.15522136 0.02116939
0001d0 44 07 aa bd 6d 8d 8f bd 20 ea 8e 3e e9 f0 ff 3c
       -0.08302167 -0.07009397 0.27912998 0.031242805
0001e0 52 fa b6 3c c5 fb 4a be 0f 82 db 3d 65 5e 00 bd
       0.022336159 -0.19822605 0.10718166 -0.03134002
0001f0 60 cb ad bc 7a 61 a3 bc b4 64 02 be 6f 89 b8 bd
       -0.02121514 -0.019943941 -0.12733728 -0.090105884
000200 5a b1 07 3e 78 70 18 bd cf 11 da bd 32 25 b0 3a
       0.13251248 -0.037216634 -0.10647928 0.001343882
000210 1e 4f c1 3d 29 c5 0e 3e dd ef 26 3e fa d7 23 3d
       0.094389185 0.13942398 0.16302438 0.040000893
000220 20 23 2f be 14 cb b8 3d 77 5c 8b bd 26 2d 86 3c
       -0.17103243 0.09023109 -0.06804746 0.01637895
000230 5b 81 34 3d ac 22 7e bd fc 4c 00 be 6a 45 ab bd
       0.044068675 -0.062044784 -0.12529367 -0.08362849
000240 dd 85 25 3e 2b 10 7b bd 26 3b 54 be f5 bb dc bc
       0.16164346 -0.061294716 -0.20725688 -0.026945094
000250 b2 71 bc 3d 25 01 2b 3d 25 67 ca 3c cc 49 41 3d
       0.09201373 0.04174914 0.024707386 0.04718952
000260 ab 77 0f be e9 e2 b8 bd c0 6a 1b ba 03 55 5c 3d
       -0.14010493 -0.09027655 -0.0005928688 0.05379201
000270 ff 3a 8f bd 22 b7 1a 3c 24 ff 8b 3d ed c7 2f bd
       -0.069936745 0.009443076 0.068357736 -0.042915273
000280 3b d2 7b be 54 75 6a 3d ae 0a b3 bb e5 fa 18 3e
       -0.24591915 0.0572408 -0.0054639196 0.14939459
000290 9d 5f 2d 3e d1 8b a7 3c d0 4e ae bd 71 e3 e8 3a
       0.16931005 0.020452412 -0.08511126 0.0017767978
0002a0 d2 87 47 3e bc 50 5d 3d 81 57 b9 3d 26 dc c7 bd
       0.19485405 0.054032072 0.09049893 -0.09758787
0002b0 67 4e 32 be cd ff 25 bc 08 51 b1 3d 85 b0 fc bc
       -0.1741272 -0.010131788 0.086580336 -0.03084589
0002c0 32 32 09 bd ea b5 03 bc 09 2d a9 3d 75 be 34 3b
       -0.033495136 -0.008038977 0.08260543 0.0027579342
0002d0 ed 93 32 bd 53 e3 a1 bd 63 0c 45 3c 42 0b d1 bd
       -0.043598104 -0.07904687 0.012026879 -0.102072254
0002e0 03 b1 5e bd 01 34 ab bd 91 be a9 bd 01 09 34 3c
       -0.05436803 -0.08359528 -0.08288301 0.010988475
0002f0 87 0a fe 3d 00 61 f9 bd d0 90 0a bc 12 a5 84 3d
       0.12404352 -0.121767044 -0.008457378 0.06476797
000300 6c 2a 21 bd e9 14 22 3d c6 1f a9 bd b8 34 14 3d
       -0.039347097 0.039570723 -0.082580134 0.03618309
000310 db 6b 40 be c3 27 ee bc 6a 74 16 be 6e b2 a9 bd
       -0.18791144 -0.029071694 -0.14692846 -0.08285986
000320 c1 ec bb 3d 5f 8b ca bd fb e4 5b bd 15 c1 66 3d
       0.091760166 -0.09889864 -0.05368517 0.05633648
000330 51 38 f1 3c 39 24 e6 3c 30 8e 55 bd 95 d7 f0 3c
       0.029445799 0.028093444 -0.052137554 0.029399673
000340 c4 44 af bd 45 81 1d bc 43 85 40 3d 0a 1e f6 bd
       -0.08558038 -0.00961334 0.04700209 -0.12017448
000350 62 89 4e 3e 97 31 47 3e ee 8c 2f 3d ac 98 b4 3c
       0.20169595 0.19452511 0.04285901 0.022045456
000360 3c f0 f3 3c aa cc 06 be 35 85 fc bd f2 89 38 3e
       0.029777639 -0.1316401 -0.12330095 0.18021372
000370 1d 30 13 3e 0d 40 14 be 85 54 1a 3e 15 8f 4f bd
       0.14373823 -0.14477558 0.15071304 -0.050673563
000380 e5 cf 9f 3d a8 09 43 bd 4c c6 55 3e 84 3b f1 3d
       0.078033246 -0.04761663 0.20876426 0.1177893
000390 fe 68 0d bd 4c 83 7e 3d c9 02 19 be 71 da 1d 3e
       -0.034523956 0.062136933 -0.14942469 0.1541536
0003a0 df 29 e1 3d e9 64 1f be ae bf 32 3d 33 2a 50 bd
       0.109943144 -0.15565838 0.04363983 -0.050821494
0003b0 8f 08 b6 bd 10 b8 8a bd 29 7c 2a 3e 57 4f 47 3d
       -0.08888351 -0.067733884 0.16648926 0.04865965
0003c0 80 4c 02 bd 50 45 68 be c6 09 16 3e f4 9b ec bc
       -0.031811237 -0.2268269 0.14652166 -0.028882958
0003d0 f6 4f 71 bd 2a 3d e6 bd 67 d9 19 be e1 e4 d9 bd
       -0.058914147 -0.11242135 -0.15024339 -0.10639358
0003e0 e4 78 f1 3d e2 dd 6a bd 18 2a 0c 3d 85 4e fe ba
       0.11790636 -0.05734051 0.03421983 -0.0019402063
0003f0 00 b3 8a 3d b2 a6 9a 3d 2f f3 ac bc b4 ff 8e 3c
       0.06772423 0.07551326 -0.021112053 0.017455913

model.classifier.0.bias f4 [30]
000000 a9 6e a7 34 56 c2 82 34 cd 0c 96 35 2b 29 33 34
       3.118669e-07 2.4355785e-07 1.1179596e-06 1.6685651e-07
000010 38 09 4c 36 85 d5 73 35 0d 1c 91 b4 e2 28 6a 35
       3.0403735e-06 9.0835266e-07 -2.7028764e-07 8.7231285e-07
000020 32 ac 42 34 43 59 bc b5 89 b4 63 b5 e5 25 a8 b5
       1.8130302e-07 -1.403307e-06 -8.4826803e-07 -1.2528004e-06
000030 4b 38 85 35 f1 98 41 b0 90 92 06 33 87 66 2d 35
       9.925656e-07 -7.0430334e-10 3.1332604e-08 6.459672e-07
000040 5b a7 e9 b5 24 d0 8f b5 6e 80 92 b4 49 6c 29 36
       -1.740856e-06 -1.0714907e-06 -2.7288064e-07 2.5245993e-06
000050 b7 ce ee 34 64 e7 35 34 45 88 c6 b4 86 43 b5 b4
       4.448136e-07 1.6941118e-07 -3.6979523e-07 -3.3763007e-07
000060 b5 e6 1f b5 fe 65 b6 35 b5 10 03 b5 70 8d 3d b5
       -5.956784e-07 1.358974e-06 -4.8825615e-07 -7.0613805e-07
000070 c4 24 a4 b6 ee e6 06 34
       -4.891861e-06 1.2563734e-07

model.classifier.1.weight f4 [5, 30]
000000 72 34 6e 3e 6b d6 b0 3e 29 80 f3 bc 9f 3e ec bd
       0.23262194 0.34538588 -0.029724197 -0.115353815
000010 bf 84 9e 3e 77 17 17 3e 57 50 17 3e d2 4c d7 bd
       0.30960652 0.14755045 0.14776741 -0.10512699
000020 db dd 38 3e 63 17 4c be 55 f3 37 be c8 7b 7d 3e
       0.18053381 -0.19930796 -0.17963918 0.2475425
000030 23 52 68 3a 6a 96 83 3e 34 3b 67 be 72 26 2a be
       0.0008862337 0.25700694 -0.22581178 -0.16616228
000040 fc db b8 be 9d 1b 55 be 37 f1 bf be d2 2f 5a 3e
       -0.36105335 -0.20811315 -0.3748872 0.21307305
000050 5c 9e 70 3e 21 fd 11 3e fa 7a 46 be 35 a2 4f be
       0.2349791 0.14256717 -0.1938285 -0.20276721
000060 16 80 a4 be ce 8b 87 3e 1d 41 9f be 4a fc 85 be
       -0.32128972 0.2647385 -0.31104365 -0.26169044
000070 da f1 3d 3e c0 9b 44 3e 09 0d 5e be fd f6 b3 be
       0.1854929 0.19200039 -0.2168466 -0.35149375
000080 a8 1e 0e 3f 71 ee cb 3e e0 6e 9b 3e c5 f0 09 bd
       0.5551553 0.39830354 0.30358028 -0.03367688
000090 77 0c b9 bd e1 b6 f7 3e f6 0e 95 3e 14 4e c0 bb
       -0.090355806 0.48381713 0.29112977 -0.0058686826
0000a0 5c 58 a7 bd 38 80 04 bf 27 56 3b 3d f2 e9 12 bd
       -0.0817115 -0.51758146 0.04573646 -0.03586764
0000b0 6b 35 b6 3e 2d 0d f9 3e 42 78 b5 bd fa 1a 48 3e
       0.3558763 0.48642865 -0.08860828 0.1954154
0000c0 b8 fb 1d bd b5 80 d0 3e 82 d2 b3 3d ba 8b f2 3e
       -0.038570136 0.40723196 0.087803856 0.47372228
0000d0 a2 c2 a0 be ba 1d c0 be a3 53 9e 3d 4b 4d 33 be
       -0.31398493 -0.3752268 0.07730796 -0.17509954
0000e0 9e ec 15 be 09 88 92 3e 89 69 e0 be 26 73 b8 be
       -0.14641044 0.28619412 -0.43830517 -0.3602535
0000f0 60 1b f7 bd 4d 48 af bd 64 ba a6 3c bf 76 3c 3e
       -0.12065768 -0.08558712 0.02035255 0.18404673
000100 b6 e7 07 be ef 70 84 3e 09 37 2e be 03 91 d5 bd
       -0.13271984 0.25867411 -0.17013182 -0.104280494
000110 33 f9 8e be 48 9f 8a 3e 21 0e 98 3e c2 3f ca 3d
       -0.279245 0.27074647 0.2969828 0.09875442
000120 f4 af 8a be c9 9f 78 be a4 6f b6 bd 87 9c 89 bd
       -0.27087367 -0.24279703 -0.089080125 -0.06719308
000130 35 40 3b 3e c7 c6 ca bc c2 94 2e 3e c4 55 77 be
       0.18286212 -0.024752988 0.17048934 -0.2415381
000140 2b 2b c3 bd c6 16 81 be 33 5a ee bd ad 72 71 3e
       -0.09529718 -0.25212687 -0.11638298 0.23578902
000150 b7 b7 5b 3e 17 89 99 be 20 01 61 3e 09 11 bb 3e
       0.214568 -0.29987404 0.21973085 0.36536434
000160 1a 6d 3d 3e f0 7f 74 bd a2 0b 60 be 0b 3f f9 3d
       0.1849865 -0.059692323 -0.21879438 0.121702276
000170 65 db d3 bc 10 b5 93 be 2d f1 a2 be cd 01 cf be
       -0.025861451 -0.28849077 -0.31824628 -0.4043106
000180 f8 88 52 be f7 4a aa 3e 6b 55 53 be 3b e8 9e be
       -0.20560062 0.3326032 -0.20638053 -0.31036553
000190 7a f2 1b be f7 87 a6 be 72 19 73 3e 82 3c 3d be
       -0.15229216 -0.32525608 0.23740175 -0.18480113
0001a0 61 72 9b 3d 63 82 ab 3e 8c c5 da bd 93 66 ca bd
       0.075901754 0.33497915 -0.1068221 -0.09882846
0001b0 ae d8 96 3e c7 f8 92 3d fe 2e bb be 6e dc 76 bd
       0.29462188 0.07176357 -0.3655929 -0.060268812
0001c0 ca ef 86 3e 0d a9 45 3e cc 8b 89 be 8a 77 9e 3e
       0.2635482 0.19302769 -0.2686447 0.30950576
0001d0 a5 a8 93 bb 25 92 45 be f4 d5 48 be 00 44 34 3e
       -0.004506188 -0.19294031 -0.19612867 0.17604065
0001e0 69 37 4b 3e 4b 2c 4e be ba 5c 7b be b1 81 87 bd
       0.19845356 -0.20134084 -0.24547091 -0.066165335
0001f0 61 f6 1b bd ee 7f 19 be f6 1e 94 3e c6 de 83 be
       -0.038076762 -0.14990208 0.2892987 -0.257559
000200 8a a7 5f 3e 0f be e7 3d 0f 93 2c bd 14 f2 ed 3d
       0.21841255 0.11315548 -0.042132434 0.11618438
000210 1a ff 07 3e b5 56 64 3e 9a d6 04 3e 78 cf 7c be
       0.13280907 0.22298701 0.12972489 -0.24688518
000220 bb 39 92 3e 5e ac 86 3e 30 72 3c bd 55 03 26 be
       0.2855967 0.2630338 -0.046007335 -0.16212209
000230 e3 f3 0d 3e 1d b3 76 3c ea 9a 9b 3e f4 ba ae bd
       0.13862567 0.015057352 0.30391628 -0.08531752
000240 b2 09 82 3e 8e ca 74 bd 64 bd e7 3d e6 fa 39 be
       0.25398022 -0.059763484 0.1131542 -0.18162116
000250 a4 78 98 bd a6 d4 d2 bd
       -0.074448854 -0.10294466

model.classifier.1.bias f4 [5]
000000 c3 a4 77 36 ef 37 8b 36 b8 df e0 35 98 39 2e 35
       3.6901772e-06 4.1490343e-06 1.6754411e-06 6.490386e-07
000010 3a f7 ea b4
       -4.3765777e-07

exp_avg f4 [30, 30]
000000 62 96 6f b7 74 2e eb 36 61 03 8e b7 7a eb c6 b6
       -1.4280524e-05 7.0089536e-06 -1.6929293e-05 -5.928273e-06
000010 07 70 0e 36 1a 98 2f b7 e5 d6 b0 b7 36 91 b2 b6
       2.1224857e-06 -1.0466227e-05 -2.1080903e-05 -5.321718e-06
000020 ae 56 62 36 ed e5 0b b7 70 23 6b b7 a6 b1 25 37
       3.3727079e-06 -8.338579e-06 -1.40153425e-05 9.876128e-06
000030 b8 92 ef 35 42 90 89 37 95 b3 96 35 92 d4 0c b6
       1.7849588e-06 1.6398848e-05 1.1228136e-06 -2.0985358e-06
000040 f7 23 b4 36 7e ad 23 b6 e7 55 ed 35 34 17 39 35
       5.368605e-06 -2.4389878e-06 1.7682877e-06 6.8951636e-07
000050 51 ff 9d 37 62 90 7e b7 b2 3a b4 b7 4c 40 c5 35
       1.883475e-05 -1.51731965e-05 -2.1485004e-05 1.4696357e-06
000060 86 5b b0 37 42 4a 07 37 aa 71 89 b6 f4 5e cb 35
       2.1023454e-05 8.0639165e-06 -4.0961504e-06 1.5152314e-06
000070 5f 7c bd 36 25 71 62 36 a5 d5 3d b7 42 b7 a4 36
       5.6471176e-06 3.3742483e-06 -1.1315021e-05 4.908915e-06
000080 16 de a3 b7 28 69 54 b6 bd 0b f2 36 f4 3b 20 b7
       -1.9534531e-05 -3.165167e-06 7.2135285e-06 -9.550702e-06
000090 fa 94 bb b7 bc 1e 33 b7 3c 76 ff 35 86 3e 41 b6
       -2.236151e-05 -1.0676387e-05 1.9033391e-06 -2.8795635e-06
0000a0 ce 8e a0 b7 0b 9e 28 37 1e 1b 4b 37 df 96 c2 37
       -1.9139985e-05 1.0050378e-05 1.2106057e-05 2.3196857e-05
0000b0 6e 3e f8 36 3a c4 1f b6 c1 bc 2b 37 0c e8 9c 36
       7.3982437e-06 -2.3807065e-06 1.0236342e-05 4.676176e-06
0000c0 6a 73 da 33 5f b3 bf 36 aa 0d 85 37 a6 a4 62 b7
       1.017241e-07 5.713125e-06 1.5861198e-05 -1.3508985e-05
0000d0 63 3d bd b7 88 c9 23 b5 2e 2a e8 37 7d 79 30 37
       -2.2559141e-05 -6.10155e-07 2.7676197e-05 1.0518704e-05
0000e0 d5 7b 53 b7 aa ac b0 b5 31 39 16 37 23 2f b4 36
       -1.2605412e-05 -1.3163274e-06 8.954013e-06 5.3699055e-06
0000f0 d1 59 97 37 f5 b2 1c b7 33 6a c5 37 2f 8a d5 35
       1.8042427e-05 -9.339991e-06 2.3533683e-05 1.5909953e-06
000100 c4 4f 12 b6 2d 98 89 37 32 fc e7 37 a6 d9 93 37
       -2.1802125e-06 1.6402535e-05 2.7654783e-05 1.7625116e-05
000110 1b c4 03 37 0b 46 da 35 a5 c4 50 37 08 7e 27 b7
       7.853868e-06 1.6262651e-06 1.2443551e-05 -9.98332e-06
000120 43 92 f1 b6 a4 2b c1 b7 0e bb d8 36 2c 1d 1c 37
       -7.199387e-06 -2.3027715e-05 6.4590777e-06 9.305117e-06
000130 66 28 b8 b7 39 c0 67 36 be 4b 93 b3 e4 1f 5d 36
       -2.1953321e-05 3.453357e-06 -6.858998e-08 3.295013e-06
000140 27 e3 b3 b7 e6 13 9a 37 aa ee 95 37 99 d6 21 36
       -2.1444239e-05 1.8367497e-05 1.787332e-05 2.4115782e-06
000150 c1 4c e7 b7 bf e0 9b b7 d6 bb f5 36 64 36 9c 35
       -2.7573087e-05 -1.8582095e-05 7.323436e-06 1.1638735e-06
000160 65 87 82 b7 6c 62 b3 b6 5b d2 8b 37 82 08 e6 b6
       -1.5560256e-05 -5.3460735e-06 1.6668046e-05 -6.8555246e-06
000170 ca 9d c3 37 9c 2e 2e 36 dc c5 a5 b6 e2 c9 4d 37
       2.3319288e-05 2.595515e-06 -4.940417e-06 1.2265957e-05
000180 d3 13 e6 37 07 db 59 37 ac 33 4d 36 04 11 2d 36
       2.7427368e-05 1.2985204e-05 3.0577457e-06 2.5788913e-06
000190 e1 cb 76 37 3d a8 34 b7 2c 2a 5a b7 99 f3 c4 b7
       1.4710212e-05 -1.0768007e-05 -1.30036315e-05 -2.3478455e-05
0001a0 38 d3 57 36 04 56 9e 36 d6 82 a0 b7 72 5e f9 b5
       3.2160442e-06 4.7187805e-06 -1.9134412e-05 -1.8579433e-06
0001b0 3e 88 3e b3 5b cc 42 b6 20 c1 af b7 e9 85 8e 37
       -4.4361734e-08 -2.9027203e-06 -2.0951557e-05 1.6990076e-05
0001c0 78 6c aa 37 ca 6e 14 36 ce 92 e3 b7 89 3b 71 b7
       2.0316089e-05 2.2118206e-06 -2.712887e-05 -1.4378581e-05
0001d0 b2 fb 5c 37 d3 48 92 b3 da 93 74 b7 8a 45 05 b6
       1.3171624e-05 -6.8119014e-08 -1.4577958e-05 -1.9859021e-06
0001e0 45 4b 5a 35 99 86 91 b5 0b 54 37 36 19 a9 d1 b6
       8.132086e-07 -1.0842515e-06 2.7318044e-06 -6.248371e-06
0001f0 88 b6 8e 35 d0 18 84 36 dd e0 d4 35 2a 93 43 37
       1.0632948e-06 3.936795e-06 1.5860675e-06 1.165717e-05
000200 9c d8 65 37 d1 40 1b b7 99 e1 cd b6 df de 26 36
       1.3699897e-05 -9.253811e-06 -6.135739e-06 2.4865656e-06
000210 be 84 a8 b6 51 fa 22 b6 bb dc 25 37 fd 60 fe 36
       -5.0222434e-06 -2.4285584e-06 9.886159e-06 7.581081e-06
000220 91 62 90 b7 15 7f 81 35 60 42 18 36 83 ae ac 36
       -1.7212036e-05 9.648235e-07 2.26884e-06 5.1463153e-06
000230 f6 63 ea 35 c5 14 14 b5 95 83 2b b7 dc 2c 92 36
       1.7463451e-06 -5.516452e-07 -1.0223031e-05 4.3563614e-06
000240 99 22 52 b5 c7 e6 19 b7 39 37 04 36 ee 68 33 36
       -7.828144e-07 -9.173243e-06 1.9701677e-06 2.6734156e-06
000250 91 99 1f b7 1c 5e 31 b5 30 6d e9 36 7a 7c 57 b5
       -9.5128935e-06 -6.6074585e-07 6.956652e-06 -8.027488e-07
000260 61 91 da 36 d5 91 cd 34 73 ec 57 b4 f4 69 54 35
       6.5138306e-06 3.8290332e-07 -2.0109455e-07 7.9130336e-07
000270 26 02 10 37 8b 55 8a b1 54 72 b8 35 97 2d 92 35
       8.583569e-06 -4.0260537e-09 1.3742342e-06 1.0891116e-06
000280 6e 81 07 b5 18 20 26 b6 dc a2 e3 b6 5f c3 81 b6
       -5.0479764e-07 -2.4754609e-06 -6.7840865e-06 -3.867244e-06
000290 dd 90 0c 37 6b 2d 74 b5 2d 0c 13 b7 9a 41 e1 b5
       8.378379e-06 -9.0963175e-07 -8.764718e-06 -1.6782899e-06
0002a0 be a8 3c b4 ee fa 26 b6 b9 0d fe b6 98 95 a0 36
       -1.7570252e-07 -2.4881988e-06 -7.5713874e-06 4.7857866e-06
0002b0 40 a8 34 36 ca f8 cf 35 f2 21 30 b6 ba 4b 1a b6
       2.6920025e-06 1.5495109e-06 -2.6245802e-06 -2.2991867e-06
0002c0 88 67 e6 36 f7 6c 2f b6 45 be d0 b6 47 2a c5 36
       6.866587e-06 -2.6140458e-06 -6.2210333e-06 5.8759792e-06
0002d0 bc 69 5b b7 f1 d8 c7 36 a7 1a 5e b7 0d f3 ca b6
       -1.3078035e-05 5.9559175e-06 -1.3238437e-05 -6.048364e-06
0002e0 af 03 e3 34 d4 ce 07 b7 1b fb 8f b7 3f 8a c9 b5
       4.2284725e-07 -8.094783e-06 -1.7163859e-05 -1.5015902e-06
0002f0 c5 5c 89 36 7f 70 17 b7 6b da 20 b7 6b 45 0b 37
       4.093718e-06 -9.026494e-06 -9.587598e-06 8.301208e-06
000300 72 d5 14 b5 f3 4a 3c 37 67 bd eb b5 ad 63 01 b5
       -5.54449e-07 1.1223124e-05 -1.7563988e-06 -4.820129e-07
000310 91 bc 43 36 9a dc 62 b6 a6 cb 02 36 cc 46 5b 33
       2.9167024e-06 -3.3805031e-06 1.9490049e-06 5.10543e-08
000320 49 94 8d 37 f7 0e 5b b7 d7 bb 93 b7 3b 51 00 36
       1.687756e-05 -1.30569015e-05 -1.7611235e-05 1.9120769e-06
000330 87 60 75 37 11 f8 a9 36 71 dc 08 b6 14 c9 33 36
       1.46256125e-05 5.065471e-06 -2.0393893e-06 2.6790121e-06
000340 8a b9 77 36 7f 50 47 35 f6 06 70 37 f3 d0 17 b7
       3.6913866e-06 7.4250414e-07 1.43067355e-05 -9.048951e-06
000350 2d 51 95 37 7b 08 2d 36 16 9b 0f b5 50 d5 7a 37
       1.7799985e-05 2.5783945e-06 -5.349733e-07 1.4950827e-05
000360 68 33 ac 37 a6 8e 6d 37 33 eb af 36 f9 8a 6d 36
       2.0527936e-05 1.4159514e-05 5.242787e-06 3.5396645e-06
000370 01 14 35 37 88 13 0a b7 53 94 de 34 b5 9e 91 b7
       1.0793098e-05 -8.229988e-06 4.1458642e-07 -1.735925e-05
000380 e9 ce 20 36 a3 92 12 37 b6 e5 5d b7 42 a5 d6 36
       2.3962295e-06 8.73642e-06 -1.322611e-05 6.3969355e-06
000390 57 5b 2e b5 1f 55 bd 36 63 7a 8e b7 e6 6b 7b 37
       -6.495297e-07 5.6425483e-06 -1.698471e-05 1.4985888e-05
0003a0 13 6d 84 37 c9 4a a5 34 25 a1 bd b7 45 c5 7a b7
       1.5786418e-05 3.0788058e-07 -2.2605594e-05 -1.4947092e-05
0003b0 cb a1 85 34 af 17 b1 35 f3 89 1d b7 c9 36 02 b7
       2.48909e-07 1.319442e-06 -9.390048e-06 -7.7613595e-06
0003c0 67 52 cf b6 88 ae ae 35 8f 78 31 b6 c4 44 f8 b6
       -6.1786736e-06 1.3014806e-06 -2.644523e-06 -7.3989813e-06
0003d0 df f1 d2 b4 fa ff 38 35 6a b3 be b6 63 a9 36 37
       -3.9291533e-07 6.8917836e-07 -5.683328e-06 1.0887484e-05
0003e0 75 48 47 37 c6 14 42 b7 61 7b a1 b6 0e 4a aa 36
       1.18781945e-05 -1.1568138e-05 -4.812537e-06 5.075016e-06
0003f0 04 ae 89 b6 f8 50 cd b3 bf 63 e2 35 9c 3e df 36
       -4.1031763e-06 -9.5607845e-08 1.6867342e-06 6.6532066e-06

exp_avg_sq f4 [30, 30]
000000 f1 25 6e 30 59 6b a8 30 54 bb b8 30 d4 9d 86 30
       8.6637814e-10 1.2254119e-09 1.3441004e-09 9.794641e-10
000010 7a 36 b3 30 0c 12 8f 30 cd 30 90 30 51 dc de 2f
       1.3039447e-09 1.0409749e-09 1.0491249e-09 4.053811e-10
000020 e0 17 d5 30 90 a6 c2 30 f0 6f 65 30 15 e2 9d 30
       1.5504575e-09 1.4162698e-09 8.346879e-10 1.148751e-09
000030 d6 ca 0e 30 1f ac 11 30 17 ba 2a 31 27 43 d2 2f
       5.1947546e-10 5.299529e-10 2.4844036e-09 3.8246492e-10
000040 34 42 73 31 d6 73 29 30 f2 08 33 31 e9 3e 8f 30
       3.5398786e-09 6.1646455e-10 2.6053013e-09 1.04225e-09
000050 3b e5 96 30 75 2a 8c 30 ac 9b a9 30 64 9e 80 30
       1.0979088e-09 1.0198408e-09 1.2340613e-09 9.358243e-10
000060 41 7f 8d 30 71 7e 40 30 57 87 6c 30 cb 5f cb 2f
       1.0295268e-09 7.0028877e-10 8.604863e-10 3.699355e-10
000070 dc 98 1b 31 00 3e c7 2f bf f1 02 31 be 04 a7 30
       2.264236e-09 3.6241943e-10 1.9054907e-09 1.2152197e-09
000080 5a 02 32 31 11 df 59 30 3f 33 a1 30 d7 b1 13 31
       2.5903746e-09 7.9261137e-10 1.1728857e-09 2.1492406e-09
000090 73 45 11 31 e3 80 b2 30 03 f7 b1 30 26 1e 8d 30
       2.1139754e-09 1.2987836e-09 1.294865e-09 1.0267669e-09
0000a0 72 39 cc 30 d4 08 8d 30 3d 0d f2 2f c7 13 47 30
       1.485928e-09 1.0261609e-09 4.402895e-10 7.2423884e-10
0000b0 2e 06 9a 31 39 e7 6d 30 d9 a3 a8 31 5b bf 10 30
       4.4826924e-09 8.6548685e-10 4.908071e-09 5.265883e-10
0000c0 fa 67 ec 30 d6 34 6f 30 9f 25 13 31 37 86 a0 30
       1.7200812e-09 8.702278e-10 2.14127e-09 1.1679678e-09
0000d0 53 15 0d 31 b4 02 3c 30 3f 77 02 31 dd 8f ff 30
       2.0530322e-09 6.8397843e-10 1.8985273e-09 1.859458e-09
0000e0 dc 04 8c 30 b4 d0 1d 30 f0 22 28 31 f5 e1 f3 2f
       1.0187722e-09 5.741285e-10 2.4467077e-09 4.4361995e-10
0000f0 ca fb 04 31 f0 50 13 31 e7 21 48 31 c4 5c b8 30
       1.9351654e-09 2.1437323e-09 2.9123102e-09 1.3414128e-09
000100 7e 8c c3 30 1b ae c9 30 bd 32 a4 30 18 ec a5 30
       1.4228048e-09 1.4674159e-09 1.1946991e-09 1.2072432e-09
000110 e0 81 bf 30 a5 1e ea 30 b1 83 be 30 90 06 bc 30
       1.3933992e-09 1.703445e-09 1.3861748e-09 1.3680665e-09
000120 d4 79 af 30 fc 2f 71 30 97 a9 5b 31 a7 a4 dc 2f
       1.2767551e-09 8.774348e-10 3.1965095e-09 4.013476e-10
000130 4c 20 4c 31 b3 ce 73 30 18 94 19 31 07 36 9c 30
       2.9704266e-09 8.869662e-10 2.2348612e-09 1.1365849e-09
000140 02 8a 12 31 5c c3 6f 30 5d 29 fb 30 ac e1 07 31
       2.1324245e-09 8.7225316e-10 1.827441e-09 1.9773365e-09
000150 ab 13 05 31 1b a6 e2 30 61 ae b5 30 34 ae 76 30
       1.9365227e-09 1.6490874e-09 1.3219045e-09 8.9741836e-10
000160 07 27 83 31 52 4d 4e 30 5e 74 b9 30 cc 31 d6 30
       3.8170387e-09 7.505224e-10 1.3493595e-09 1.5584702e-09
000170 90 59 21 31 9a e2 33 30 30 96 56 30 6a 37 97 30
       2.3479494e-09 6.544184e-10 7.8066176e-10 1.1002446e-09
000180 27 26 0c 31 84 ea a0 30 0d e9 7f 30 47 84 4e 30
       2.0394368e-09 1.1708186e-09 9.3099645e-10 7.513034e-10
000190 6d 32 e2 30 63 7b 72 30 87 e3 46 30 96 01 b9 30
       1.6457996e-09 8.821443e-10 7.2355316e-10 1.3460972e-09
0001a0 a0 a6 07 31 af 38 fb 2f 88 40 33 31 0e 6e 0b 30
       1.97398e-09 4.569691e-10 2.608461e-09 5.07243e-10
0001b0 0c 58 35 31 19 3d 15 30 4a f2 e8 30 13 06 ae 30
       2.6389015e-09 5.429271e-10 1.6949084e-09 1.2661893e-09
0001c0 79 5b 1e 31 de 44 a1 30 63 22 09 31 d4 a1 8b 30
       2.3044022e-09 1.1733865e-09 1.995567e-09 1.0159575e-09
0001d0 85 40 ae 30 02 b9 2b 30 b8 2f 7e 31 3e d0 58 30
       1.2678504e-09 6.247235e-10 3.698899e-09 7.887627e-10
0001e0 ab ab 80 30 8f 1c 4c 31 fe 5b 4e 31 1d e7 04 30
       9.362017e-10 2.970214e-09 3.0029237e-09 4.834975e-10
0001f0 12 36 84 30 db fe 66 30 8b 97 9e 30 7d ef 41 30
       9.619632e-10 8.4035684e-10 1.1539084e-09 7.0553324e-10
000200 85 25 cf 30 4f 2a 16 30 cc 68 9f 30 da 4a 44 30
       1.5071896e-09 5.4629806e-10 1.1598558e-09 7.1410755e-10
000210 6e 4c 43 30 50 a4 9c 30 d9 f2 83 31 93 37 11 30
       7.10492e-10 1.1397194e-09 3.8402104e-09 5.282967e-10
000220 1a 0b 84 31 05 4e 64 30 7f 35 17 31 4b 2c 21 30
       3.8429677e-09 8.305679e-10 2.20038e-09 5.8634403e-10
000230 4d b9 84 30 7b 38 88 30 f4 2e b7 30 49 6f 4d 30
       9.65693e-10 9.911355e-10 1.3328347e-09 7.473671e-10
000240 af 27 b1 30 d2 7c a1 30 8b 52 10 31 52 ed b4 2f
       1.2889724e-09 1.1749768e-09 2.1001678e-09 3.2910435e-10
000250 a3 64 08 31 a4 99 36 30 77 d0 3e 30 d8 8c db 30
       1.984781e-09 6.642955e-10 6.9417844e-10 1.5974377e-09
000260 83 1e 03 31 9c 86 72 30 df 10 de 30 c8 2f c7 30
       1.9080353e-09 8.823038e-10 1.6157421e-09 1.4492736e-09
000270 58 d6 ff 30 aa 70 47 30 0e fc 4a 30 c7 93 17 30
       1.8614612e-09 7.2555884e-10 7.3845363e-10 5.5143484e-10
000280 bc 76 6c 31 b4 a4 c1 30 29 58 4e 30 08 98 df 30
       3.4410013e-09 1.408941e-09 7.5067647e-10 1.6268595e-09
000290 08 87 9e 31 13 3c dd 2f 9c bf 03 31 8b ba 52 30
       4.6137565e-09 4.024235e-10 1.9171926e-09 7.666265e-10
0002a0 3c 14 92 31 ce bc a0 30 e9 4a b6 30 ea 26 ff 30
       4.2514596e-09 1.1695194e-09 1.3263534e-09 1.8564752e-09
0002b0 c6 bd 48 31 70 a4 58 30 54 60 e1 30 b1 82 4d 30
       2.9211704e-09 7.881402e-10 1.6398283e-09 7.476429e-10
0002c0 17 d4 cb 30 f3 06 c1 2f ca 93 52 31 e3 8b 81 30
       1.4830474e-09 3.5111433e-10 3.064303e-09 9.425744e-10
0002d0 78 4f 8e 30 21 1a b0 30 13 32 b4 30 47 b3 74 30
       1.0354446e-09 1.2813112e-09 1.3110956e-09 8.902145e-10
0002e0 30 08 11 31 9f 5e f5 30 af b0 c8 30 6a 6d b6 2f
       2.1104931e-09 1.7852989e-09 1.4602132e-09 3.318335e-10
0002f0 9d db b4 30 c5 9b ca 30 e4 7a 91 30 e0 b1 d1 30
       1.3159142e-09 1.4741707e-09 1.0585066e-09 1.5257307e-09
000300 e6 8a 3d 30 0c 33 0e 30 00 c0 75 31 64 72 8e 2f
       6.8955186e-10 5.173184e-10 3.5761332e-09 2.591093e-10
000310 87 b2 1f 31 34 35 67 30 6b b2 85 31 e9 19 ed 30
       2.3239026e-09 8.4112917e-10 3.8910932e-09 1.7251384e-09
000320 41 9c c8 30 a9 f9 ad 30 f5 bf d9 30 4c 0f 92 30
       1.4596325e-09 1.2658364e-09 1.5843385e-09 1.0627246e-09
000330 6a df cd 30 af 7f 60 30 fb 91 99 30 af 81 a9 2f
       1.4979211e-09 8.1672175e-10 1.1173705e-09 3.0833067e-10
000340 11 82 32 31 27 99 cf 2f 4c 8a f4 30 e0 31 2d 31
       2.5976343e-09 3.7761902e-10 1.7792643e-09 2.5203164e-09
000350 f7 ce 7e 31 a5 a3 25 31 f8 87 0d 31 a0 9a ee 30
       3.707951e-09 2.4103681e-09 2.059549e-09 1.7360726e-09
000360 28 e3 05 31 e7 37 95 30 7a 5b 17 31 8d 91 34 31
       1.948317e-09 1.0857065e-09 2.202539e-09 2.6276183e-09
000370 49 d8 12 31 bb ce 20 31 be eb a7 30 84 c9 7b 30
       2.136874e-09 2.3400577e-09 1.2217851e-09 9.159964e-10
000380 64 76 9a 31 7d 45 0a 30 e1 52 86 31 c6 e5 b0 30
       4.4954493e-09 5.0302856e-10 3.9093355e-09 1.2870991e-09
000390 06 41 66 31 f3 31 d3 30 8f f9 4c 31 ae 78 30 31
       3.3506367e-09 1.5366467e-09 2.9827765e-09 2.567997e-09
0003a0 80 5d 27 31 7d ef 03 31 96 eb ed 30 da 64 cb 30
       2.4354847e-09 1.9199142e-09 1.7310977e-09 1.4798858e-09
0003b0 41 01 9e 30 5f 16 66 30 5f 6b 78 31 48 b5 83 30
       1.1496369e-09 8.3705304e-10 3.6149783e-09 9.583028e-10
0003c0 08 62 c0 30 fe 22 40 31 74 89 49 31 24 c8 39 30
       1.3997701e-09 2.7959568e-09 2.9327483e-09 6.7587025e-10
0003d0 de a1 03 31 9e 34 0d 31 a6 89 0e 31 e0 59 86 30
       1.915502e-09 2.054811e-09 2.0741964e-09 9.775327e-10
0003e0 75 83 c4 30 09 03 86 30 5e 30 d0 30 f3 a8 e0 30
       1.4298239e-09 9.750646e-10 1.5147739e-09 1.6346163e-09
0003f0 fc 8c 78 30 d8 d5 84 30 99 c6 56 31 ca 0f c7 2f
       9.0422225e-10 9.665042e-10 3.1253988e-09 3.6209108e-10

exp_avg f4 [30]
000000 82 52 24 2d cd 05 21 ac b4 62 99 ae 5a 53 f7 ad
       9.340641e-12 -2.2882696e-12 -6.975168e-11 -2.8117664e-11
000010 43 6f 83 ae f4 44 9a ad 5a 02 9e ac 63 1c 6b ae
       -5.9769543e-11 -1.7538394e-11 -4.490891e-12 -5.3458026e-11
000020 41 82 49 ae 2f ac bd 2d 03 67 57 2e 71 3d 0f 2d
       -4.5817797e-11 2.1563277e-11 4.8976833e-11 8.142252e-12
000030 3f 60 91 ad 73 1f a5 ad 71 44 a0 ad c1 dc 93 ad
       -1.6527333e-11 -1.8772294e-11 -1.8220288e-11 -1.681e-11
000040 8c 61 91 2e d4 bf 7d ac 76 8b 09 2e 87 f5 86 ae
       6.6111644e-11 -3.6059948e-12 3.127406e-11 -6.137229e-11
000050 95 74 37 ae 00 a3 81 ae 5a 4b 59 2e f2 22 83 2e
       -4.1712928e-11 -5.8951954e-11 4.9407013e-11 5.963398e-11
000060 90 64 c8 2d 33 f8 c1 ac ec 10 6b 2e 12 3c 1a 2d
       2.2782026e-11 -5.5129456e-12 5.3447843e-11 8.767225e-12
000070 87 18 71 2e b1 cc 64 2d
       5.481884e-11 1.300575e-11

exp_avg_sq f4 [30]
000000 d0 44 ca 24 8a 28 ef 27 ca ae a4 26 2d 9c 3e 27
       8.772011e-17 6.637978e-15 1.1427163e-15 2.645246e-15
000010 8c 98 84 25 f7 ff 26 27 e9 d1 dc 27 01 72 51 28
       2.300172e-16 2.3175887e-15 6.128985e-15 1.1626551e-14
000020 a3 10 88 27 13 c6 ba 25 72 56 82 26 c5 5c b5 25
       3.776562e-15 3.2400077e-16 9.043993e-16 3.1461358e-16
000030 9d a8 95 24 cc 15 e4 27 73 c3 74 28 67 fc b0 27
       6.490409e-17 6.3306345e-15 1.3587102e-14 4.912347e-15
000040 fd 81 74 26 b8 db b6 22 ec 41 99 28 aa 26 2f 25
       8.483067e-16 4.9563835e-18 1.7015001e-14 1.519193e-16
000050 35 3a 5b 27 e1 fe 26 27 9e 95 a4 28 61 a3 ab 28
       3.042391e-15 2.3175298e-15 1.8272544e-14 1.9055668e-14
000060 30 9f 94 27 ce 3d a2 22 98 17 aa 28 cb c6 69 25
       4.1250843e-15 4.3975626e-18 1.8884024e-14 2.0276882e-16
000070 80 d5 60 1f a7 3f 12 28
       4.7610448e-20 8.1184305e-15

exp_avg f4 [5, 30]
000000 e8 ff c3 37 0a 4d c9 36 01 82 e9 b4 fe 8b 3a 37
       2.3364977e-05 5.9992353e-06 -4.3494222e-07 1.1119058e-05
000010 b8 59 04 38 b4 72 e4 37 27 5e a7 37 a6 df c2 b7
       3.155481e-05 2.723313e-05 1.9951794e-05 -2.3230747e-05
000020 bc 74 b9 37 0d 29 12 37 92 9e 1d b5 4f 6a e9 37
       2.2108077e-05 8.711836e-06 -5.871781e-07 2.7825268e-05
000030 03 21 48 b7 37 bf c3 37 b3 ea 4c b7 06 a8 d9 b7
       -1.1928615e-05 2.3334853e-05 -1.2213993e-05 -2.5946658e-05
000040 55 a2 08 b7 95 e7 9f b5 99 d0 0a b8 04 d8 b8 36
       -8.144028e-06 -1.1913822e-06 -3.3096036e-05 5.508775e-06
000050 1c 82 04 38 09 7e 3d 37 c5 30 b3 b7 c2 62 b4 b7
       3.1592426e-05 1.1294623e-05 -2.1361173e-05 -2.150366e-05
000060 0f 05 33 36 a2 f4 c8 b6 03 7a 5f b7 54 f7 d7 b5
       2.6676023e-06 -5.9889435e-06 -1.3320244e-05 -1.609073e-06
000070 1f 1e 8f 37 a2 17 2e b6 0c 9c d4 36 86 5c 58 38
       1.7060955e-05 -2.5941777e-06 6.3362586e-06 5.1584582e-05
000080 09 2e d7 b7 24 eb 5f b8 27 71 8b b7 3e 53 f9 b7
       -2.5651434e-05 -5.3386335e-05 -1.6622782e-05 -2.9721876e-05
000090 29 72 24 b6 77 43 c6 36 03 56 57 b7 b8 53 46 b8
       -2.4504354e-06 5.908714e-06 -1.2835025e-05 -4.7284848e-05
0000a0 8f 5c ef b7 18 3d dd 36 10 aa d3 37 10 4e de 36
       -2.8534121e-05 6.5934255e-06 2.5232352e-05 6.6252032e-06
0000b0 7f bd b4 b7 4f 63 79 35 9f 12 17 b8 c7 26 06 b8
       -2.1545913e-05 9.290424e-07 -3.6018548e-05 -3.1984204e-05
0000c0 8a 37 74 b5 bc ac 30 37 6d 54 9f b7 d1 b0 20 b7
       -9.0977903e-07 1.0530635e-05 -1.899359e-05 -9.577911e-06
0000d0 52 5a c9 37 0b f4 6d 37 b9 54 66 b8 c0 3a 79 38
       2.4003126e-05 1.41831215e-05 -5.4915177e-05 5.942094e-05
0000e0 f1 b8 ac b7 ee e6 62 b8 10 d5 18 37 15 01 3d 38
       -2.0590118e-05 -5.409767e-05 9.1095135e-06 4.506212e-05
0000f0 f9 ab 34 b7 7b d8 d3 37 5e 37 8f b6 e9 b3 1d b8
       -1.0768877e-05 2.5253967e-05 -4.2681777e-06 -3.759927e-05
000100 e3 e8 95 b7 0f 5d 34 b8 b5 83 28 b7 21 a7 04 38
       -1.787063e-05 -4.300201e-05 -1.0044246e-05 3.1626903e-05
000110 13 1b c6 b6 c5 5c 3c b8 a7 3d f7 b7 b0 4b de b7
       -5.9040117e-06 -4.490909e-05 -2.9473404e-05 -2.6499707e-05
000120 8f a5 05 38 8a e8 28 b6 54 0f 75 36 fa 93 f0 37
       3.186386e-05 -2.5169306e-06 3.6516767e-06 2.8679136e-05
000130 d6 cb e4 b7 7d 6e 7c b7 b4 72 50 37 c6 9f b0 37
       -2.7274637e-05 -1.50460955e-05 1.24244725e-05 2.1055235e-05
000140 55 9c d6 b7 ac 27 c8 36 64 a9 c8 37 91 b1 c0 36
       -2.5583586e-05 5.965083e-06 2.3920737e-05 5.7427173e-06
000150 3c 58 34 b8 08 66 49 38 b7 f2 88 b7 1c aa 25 b8
       -4.299752e-05 4.801716e-05 -1.6325486e-05 -3.9497492e-05
000160 79 31 a1 b7 5e 90 cd 37 6b f8 79 b6 a3 cb 1b b6
       -1.9215733e-05 2.450513e-05 -3.724849e-06 -2.3215332e-06
000170 54 bd 28 37 e1 5b 6e 35 f0 48 c8 36 1e 35 15 b7
       1.0057662e-05 8.879561e-07 5.9689555e-06 -8.893459e-06
000180 a5 22 7e b5 bb df 80 37 19 3e 0f 37 61 76 1d b7
       -9.467279e-07 1.5362972e-05 8.537922e-06 -9.3854915e-06
000190 d6 c8 1e b7 82 7d 7c b7 e6 7f 0b 37 ca bf 0f 36
       -9.464295e-06 -1.5049593e-05 8.314824e-06 2.1420296e-06
0001a0 20 03 07 37 76 31 74 37 d3 8a 06 b7 17 cc 09 36
       8.047355e-06 1.4555049e-05 -8.019345e-06 2.0533387e-06
0001b0 1f 07 04 b6 9f 4f 6a 37 c7 b0 22 b3 05 e4 63 37
       -1.9673678e-06 1.3966025e-05 -3.7879342e-08 1.3583344e-05
0001c0 e4 5e 22 b6 02 9f 28 b7 51 23 e3 b6 51 58 d1 36
       -2.4195115e-06 -1.0050602e-05 -6.7692386e-06 6.2389668e-06
0001d0 93 2d 10 b7 74 3f 42 b6 6b 07 5e b7 fa d5 32 b6
       -8.59368e-06 -2.8945187e-06 -1.3233958e-05 -2.6648618e-06
0001e0 19 6b 37 37 aa 35 22 b7 32 5f 4c b7 3d e9 40 b5
       1.0932586e-05 -9.668447e-06 -1.2181512e-05 -7.186498e-07
0001f0 84 85 33 b4 e8 76 21 b6 6d c5 71 37 d0 21 85 b7
       -1.6719247e-07 -2.4060082e-06 1.4410686e-05 -1.587058e-05
000200 aa 52 25 37 e9 5e 11 37 b0 79 fd 34 bc 5d 1e 37
       9.854013e-06 8.6647715e-06 4.7213462e-07 9.439358e-06
000210 39 d5 41 36 9d 74 35 37 28 a1 8a 36 dc 28 80 b7
       2.8883353e-06 1.0815592e-05 4.1314815e-06 -1.5277816e-05
000220 da 49 79 37 06 51 50 37 bd e2 81 b6 bc c6 24 b7
       1.48587515e-05 1.2416631e-05 -3.8708954e-06 -9.821433e-06
000230 be 82 14 37 87 c4 22 b5 8b 39 49 37 86 d2 83 b6
       8.851928e-06 -6.063569e-07 1.1993931e-05 -3.9286124e-06
000240 ca 1c 71 37 a4 83 c6 b6 6c 08 d1 36 99 91 c2 b6
       1.4371422e-05 -5.916185e-06 6.229666e-06 -5.7986003e-06
000250 0c 00 b4 b3 79 73 b8 b6
       -8.381912e-08 -5.49707e-06

exp_avg_sq f4 [5, 30]
000000 11 29 d4 31 ce 5e 3a 32 f5 07 45 31 23 ac 49 31
       6.1746808e-09 1.0848181e-08 2.8671796e-09 2.9347198e-09
000010 13 3d 49 32 d7 a3 8b 31 b4 79 83 31 1c db 9a 31
       1.17136265e-08 4.064059e-09 3.826438e-09 4.5068997e-09
000020 cb 89 a4 31 ab 23 c6 31 f4 21 8b 31 3a df f3 31
       4.7886934e-09 5.7666134e-09 4.0492925e-09 7.0976087e-09
000030 73 f7 9d 30 c9 62 01 32 f3 a4 8b 31 e8 0e bf 31
       1.1493583e-09 7.531249e-09 4.064185e-09 5.5605263e-09
000040 76 f3 7b 32 33 32 95 31 c0 b5 7b 32 05 4b f4 31
       1.46654795e-08 4.3421777e-09 1.4651448e-08 7.1098634e-09
000050 55 eb f4 31 40 5d 7e 31 43 2f f3 31 21 d2 c2 31
       7.128089e-09 3.7014871e-09 7.077604e-09 5.670032e-09
000060 be 86 4a 32 57 7e 0c 32 51 eb 32 32 4f f3 0b 32
       1.1788584e-08 8.177799e-09 1.0414468e-08 8.146187e-09
000070 0d d9 51 31 07 10 70 31 50 80 51 31 6a 38 0b 32
       3.0536882e-09 3.4933707e-09 3.048644e-09 8.103692e-09
000080 2d d5 0e 32 fb 8d 07 32 87 0d 7a 31 9f a4 75 31
       8.313958e-09 7.890317e-09 3.6387477e-09 3.5745769e-09
000090 fc 15 e1 30 67 ba 21 32 c5 90 5f 31 52 6b dc 31
       1.6377153e-09 9.413816e-09 3.2533063e-09 6.4150436e-09
0000a0 69 31 72 31 62 80 2b 32 c8 2b 28 31 eb 7c 0f 31
       3.5243721e-09 9.982701e-09 2.4472104e-09 2.0880246e-09
0000b0 4d 98 93 31 f7 20 20 32 63 59 ba 31 e0 be 48 31
       4.2955777e-09 9.320721e-09 5.4234746e-09 2.921233e-09
0000c0 91 05 34 31 6c 88 df 31 df 13 1c 31 b7 a1 d7 31
       2.6196612e-09 6.5056636e-09 2.2712283e-09 6.2757084e-09
0000d0 ca 1e 5d 31 4d 4b 93 31 a3 80 09 32 f3 78 16 32
       3.2177234e-09 4.286824e-09 8.003698e-09 8.75865e-09
0000e0 4c 1e 6c 31 7a 6a 11 32 b5 55 d7 31 66 76 d0 31
       3.4359742e-09 8.464321e-09 6.2670673e-09 6.067057e-09
0000f0 e6 34 7a 31 0a 08 13 32 75 e4 c4 31 75 44 6c 32
       3.6409857e-09 8.558354e-09 5.7303233e-09 1.3752573e-08
000100 b0 a1 23 32 07 ca 3d 32 9f 2a cb 31 70 3d f9 31
       9.524612e-09 1.1047184e-08 5.912923e-09 7.2538384e-09
000110 7a db 5d 32 d2 4e 65 32 3c 9c 0a 32 55 0c ab 31
       1.2913796e-08 1.3347476e-08 8.068181e-09 4.978157e-09
000120 74 c3 03 32 b9 93 ec 31 bd 0b 2e 31 c7 97 d5 31
       7.6696445e-09 6.885298e-09 2.5327005e-09 6.216371e-09
000130 8e 92 dd 31 70 c5 ac 31 42 7f cc 31 e7 5c f8 31
       6.448608e-09 5.028305e-09 5.951649e-09 7.2283117e-09
000140 0a 7f 1e 32 66 f2 23 32 0f 33 ed 31 ff ed 39 32
       9.225696e-09 9.542964e-09 6.9034125e-09 1.0822531e-08
000150 16 0d 6a 32 4c ff 91 32 f5 ae 9a 31 09 86 88 32
       1.3623568e-08 1.6996317e-08 4.50188e-09 1.5893436e-08
000160 5a 8d 94 31 fd 97 0f 32 5b 76 da 31 21 b6 9f 31
       4.3234367e-09 8.358254e-09 6.3580905e-09 4.6482147e-09
000170 31 19 2b 31 2d 62 a1 31 1f 83 ed 31 98 07 1b 32
       2.4898095e-09 4.696878e-09 6.9125146e-09 9.023914e-09
000180 0b f5 03 32 d1 03 f3 31 dd 71 22 32 8e ae a7 31
       7.68092e-09 7.0726647e-09 9.455531e-09 4.8801843e-09
000190 ab f9 80 31 8c dd 02 32 1f 0a a8 31 7a aa 11 32
       3.7536743e-09 7.61737e-09 4.890594e-09 8.478873e-09
0001a0 54 b9 57 31 42 67 07 32 45 11 7d 31 0d ce 85 31
       3.1391965e-09 7.881512e-09 3.6826162e-09 3.8942347e-09
0001b0 77 46 10 32 9e 3a 07 31 b7 3a 15 32 e1 0c 67 31
       8.397925e-09 1.9678406e-09 8.686292e-09 3.3622245e-09
0001c0 39 07 c7 31 47 41 cb 31 1e 71 bd 31 20 6b d0 31
       5.7924834e-09 5.9154988e-09 5.513484e-09 6.0657754e-09
0001d0 b3 d4 2a 31 e5 b4 12 32 45 0d 9f 31 8d b7 45 31
       2.4859161e-09 8.539449e-09 4.6290176e-09 2.877161e-09
0001e0 2b d2 38 32 16 fe 03 32 49 f1 87 32 65 1b 32 31
       1.0757996e-08 7.682976e-09 1.5825792e-08 2.591798e-09
0001f0 dd f0 a4 31 3d fd d5 31 2b 75 90 32 ad 75 bb 32
       4.800411e-09 6.2279057e-09 1.6817088e-08 2.1823178e-08
000200 3d 7d 17 32 65 b7 d3 31 2d fa c8 30 62 5b 38 32
       8.817833e-09 6.1617578e-09 1.462302e-09 1.0730988e-08
000210 67 25 68 31 b0 62 38 32 a8 ef 4e 31 1a 09 b0 32
       3.3781704e-09 1.07326485e-08 3.0113174e-09 2.0493236e-08
000220 d6 bd a3 32 6b c2 48 32 ad 42 a6 31 f2 c2 30 32
       1.9062025e-08 1.1685738e-08 4.838816e-09 1.0288874e-08
000230 60 9c fb 31 91 60 2a 31 5f 4c a4 32 c2 03 54 31
       7.3228392e-09 2.4793148e-09 1.9126842e-08 3.0852196e-09
000240 d1 48 85 32 e7 b7 72 31 58 07 bb 31 e5 c6 f7 31
       1.551635e-08 3.5320171e-09 5.443251e-09 7.211258e-09
000250 4f 48 3e 31 0a eb 1e 31
       2.7689742e-09 2.312563e-09

exp_avg f4 [5]
000000 b4 d7 0b af fe 7b 10 af e1 f8 fb ad 83 5f 53 ae
       -1.271861e-10 -1.3140775e-10 -2.864592e-11 -4.8060677e-11
000010 6d 48 9c ad
       -1.776731e-11

exp_avg_sq f4 [5]
000000 f4 35 4a 26 be 89 37 26 d4 e0 8c 23 4b 8c ff 24
       7.015595e-16 6.3677555e-16 1.5274049e-17 1.1082629e-16
000010 7d 1a 34 28
       9.997751e-15
