tutorial/Mouse_cerebellum_output/version_12/checkpoints/mlp.ckpt (torch, 17217 bytes, 12 tensors)

model.classifier.0.weight f4 [30, 30]
0	0xbdb3b2c6	-0.08774333
1	0xbe191084	-0.14947706
2	0x3e3dcfc8	0.18536294
3	0x3d9edb5c	0.07756683
4	0x3de3ca31	0.11122549
5	0xbdc0d9cd	-0.09416542
6	0x3d8687d1	0.06568874
7	0x3da4f2aa	0.08054097
8	0xbdc1c068	-0.09460527
9	0xbe06d5cd	-0.13167496
10	0x3d02afd4	0.031905964
11	0xbce2c3aa	-0.02768119
12	0x3cd4b05f	0.025963007
13	0xbc2dcb29	-0.010607519
14	0x3c3b57d1	0.011434511
15	0xbcd2f5ce	-0.025751974
16	0x3dab706b	0.083710514
17	0xbbc0388b	-0.0058661154
18	0x3defe6b1	0.11713923
19	0xbe27dc39	-0.16392602
20	0xbd93a838	-0.072098196
21	0x3d7284ee	0.059208803
22	0x3bdad6e7	0.0066784504
23	0xbe003814	-0.12521392
24	0xbdd6c29d	-0.10486338
25	0x3e876c71	0.26449922
26	0x3daf4bbe	0.085593686
27	0xbd1ce9b5	-0.038308818
28	0x3e02d8d7	0.1277803
29	0xbd9f9ad0	-0.077932
30	0x3d5b30f0	0.053513467
31	0xbdc3a567	-0.09553032
32	0x3e16d026	0.1472784
33	0x3d3dbcb5	0.046322543
34	0x3d240a63	0.040048968
35	0xbd2db152	-0.042405434
36	0x3d92a2b3	0.07159939
37	0x3d20add7	0.039228287
38	0xbca28037	-0.019836528
39	0xbd826cc2	-0.063684
40	0xbcc86fe3	-0.024467414
41	0x3ced87e3	0.02899546
42	0x3dcf4555	0.10120646
43	0x3c98f533	0.018671608
44	0xbe8f4111	-0.2797933
45	0x3e7d1e19	0.24718513
46	0x3dfcda96	0.123463795
47	0xbb1b3f93	-0.0023689016
48	0x3c4ac64e	0.012376381
49	0x3df3a4e2	0.11896683
50	0xbba6951a	-0.0050836923
51	0x3d8de775	0.069289126
52	0x3bc08db0	0.0058762655
53	0xbd426381	-0.047458176
54	0xbd70c29a	-0.058779337
55	0x3d00644f	0.03134566
56	0x3dfccd2e	0.123438224
57	0xbd55117b	-0.052018624
58	0xbe098439	-0.13429345
59	0xbd77da14	-0.06051071
60	0xbca677e5	-0.020320842
61	0x3db131c3	0.086520694
62	0x3d6e6924	0.05820574
63	0x3d649615	0.055807192
64	0xbdad4f2b	-0.08462366
65	0xbbdec2d5	-0.006798128
66	0xbdac79b2	-0.08421649
67	0x3a1b4a7a	0.00059238786
68	0x3da54ac2	0.080708995
69	0x3c3c31b6	0.011486461
70	0x3d555569	0.052083407
71	0xbe0325e9	-0.1280743
72	0x3d529974	0.051415876
73	0x3d8f893b	0.070085965
74	0xbd96fa60	-0.07371974
75	0xbd5a9276	-0.053362332
76	0x3db7cc74	0.08974543
77	0xbc51e59f	-0.012811094
78	0x3d231d85	0.039823074
79	0xbd144093	-0.036194395
80	0xbc80465d	-0.015658552
81	0xbd12d559	-0.035847995
82	0xbe0f31c6	-0.13983831
83	0xbc6811f9	-0.014164441
84	0x3d5480c2	0.051880606
85	0xbddffb73	-0.10936632
86	0xbd828858	-0.06373662
87	0x3d2acaff	0.0416975
88	0x3d98b1b5	0.0745577
89	0xbd9bf6c2	-0.07615425
90	0xbca03536	-0.019556623
91	0x3d5c8bd6	0.053844295
92	0x3dc95328	0.09830314
93	0x3bad2c22	0.005284802
94	0x3cbdc6ec	0.023166142
95	0xbaa5dccb	-0.0012654302
96	0xbd9c463f	-0.07630586
97	0xbc5358ff	-0.012899636
98	0xbcc27748	-0.023738518
99	0xbd464042	-0.048401125
100	0x3d9df32e	0.077123985
101	0x3ae5bd13	0.0017527662
102	0x3d583aff	0.052790638
103	0x3d5c2294	0.053743914
104	0xbd7689ba	-0.06018994
105	0x3c0e738b	0.00869454
106	0x3d9f3742	0.077742115
107	0xbcb89b93	-0.022535121
108	0xbcdbce9d	-0.02683192
109	0xbdc9a183	-0.09845259
110	0xbd4515b3	-0.048116397
111	0x3dc59cd6	0.09649055
112	0xbe3441df	-0.17603253
113	0xbdd1d143	-0.10244992
114	0x3d678e09	0.05653194
115	0xbdcde9d9	-0.100543685
116	0xbd36e1d8	-0.044648975
117	0xbcba1a56	-0.022717636
118	0x3ca8dc41	0.020612838
119	0xbe6e039b	-0.23243563
120	0x3d340a6f	0.043955263
121	0xbc84db53	-0.016217863
122	0xbd8c93db	-0.06864139
123	0xbd1f9f5a	-0.03897033
124	0x3ba65c41	0.0050769155
125	0x3cbb4a3a	0.022862542
126	0x3d1f56fb	0.03890131
127	0xbc817c14	-0.015806235
128	0xbbc1a01e	-0.00590898
129	0x3cf7edc8	0.03026475
130	0xbd39f409	-0.045398746
131	0x3d81f01a	0.06344624
132	0xbc9f357e	-0.019434687
133	0xbd02afde	-0.031906
134	0xbc06ffa9	-0.008239665
135	0x3d84c6df	0.06483244
136	0xbd590351	-0.05298168
137	0x3c1d8864	0.009615038
138	0xbd34b44b	-0.044117253
139	0x3dc03dea	0.09386809
140	0x3d077539	0.033070777
141	0xbbbd03b8	-0.0057682656
142	0x3da6ad64	0.081385404
143	0x3d4b5994	0.049645975
144	0xbbe88ddc	-0.007096989
145	0xbc24f5e7	-0.010068393
146	0x3cdd8e48	0.027045384
147	0xbc1cf3e6	-0.009579634
148	0xbdbad23f	-0.091221325
149	0x3d9e2b0a	0.07723053
150	0xbd1f578b	-0.038901847
151	0xbdb51286	-0.08841424
152	0x3e1e7d6c	0.15477532
153	0x3daf9877	0.08574002
154	0x3cde9aca	0.027173419
155	0xbd8f86f7	-0.070081644
156	0x3d1ba986	0.038003467
157	0x3d7832e4	0.060595408
158	0xbc6e177e	-0.014531968
159	0xbd9bb6dd	-0.07603238
160	0x3c7807a8	0.015138544
161	0xbd8ee9a6	-0.06978159
162	0x3d6fdd49	0.058560643
163	0x3cb0d560	0.02158612
164	0xbdd7b8ac	-0.1053327
165	0x3d0c8cf1	0.0343141
166	0x3de36ee0	0.11105132
167	0xbba000de	-0.004882916
168	0x3dc85709	0.09782226
169	0xbd3a15ac	-0.045430824
170	0xbd1901bb	-0.037355166
171	0x3c30e69f	0.010797172
172	0xbc980b12	-0.018559966
173	0xbd883175	-0.06650058
174	0xbd8ba2f0	-0.06818187
175	0x3e085e14	0.13317138
176	0x3d8c5565	0.06852225
177	0xbc6f8c57	-0.014620862
178	0x3d7ba75f	0.061438914
179	0xbd217d7a	-0.039426304
180	0x3c2e4479	0.010636442
181	0x3e1470a1	0.1449609
182	0xbb22ff78	-0.002487151
183	0xbd00e495	-0.031467993
184	0xbd2f2bc6	-0.042766355
185	0x3d426f3a	0.047469355
186	0xbdff89c5	-0.12477449
187	0xbd635d46	-0.055508874
188	0x3d04ac9b	0.032391172
189	0x3cbc5640	0.022990346
190	0x3d911e7d	0.07085893
191	0xbb60ef2c	-0.0034322245
192	0x3cfa8828	0.030582502
193	0x3d7ee96c	0.062234327
194	0xbcf524b8	-0.029924735
195	0xbcb7d52a	-0.022440512
196	0x3cf1422e	0.029450502
197	0xbca8e076	-0.020614844
198	0xbd9e4cbe	-0.07729481
199	0xbd36d662	-0.044638045
200	0xbc7834da	-0.01514932
201	0x3d5ab1ba	0.05339215
202	0xbe46503c	-0.19366544
203	0xbd1b9ada	-0.037989475
204	0x3df4144e	0.11917935
205	0xbe7112b0	-0.23542285
206	0xbddfbc76	-0.10924618
207	0x3c02cc59	0.007983291
208	0xbc174129	-0.009231844
209	0xbe44926c	-0.1919648
210	0xbd888692	-0.06666292
211	0x3cd490c2	0.025947932
212	0xbd16428c	-0.036684558
213	0x3d06e0f3	0.032929372
214	0xbd4d976a	-0.050193228
215	0xbc6b9af9	-0.01438021
216	0xbce7f1c1	-0.02831352
217	0x3c6bb1eb	0.014385681
218	0x3d28bd12	0.041195937
219	0x3cd38028	0.025817946
220	0x3c59e439	0.013299041
221	0xbde4a65a	-0.111645415
222	0xbd44feb9	-0.048094485
223	0x391af647	0.0001477833
224	0x3e22998c	0.15878886
225	0xbe492eae	-0.19646713
226	0xbcebed23	-0.028799599
227	0x3ba8bda8	0.005149562
228	0x3d9e4ea1	0.07729841
229	0xbdc968bb	-0.09834429
230	0xbbd2bbeb	-0.006431093
231	0xbdc7f3e1	-0.09763313
232	0x3c4dff2f	0.012573048
233	0x3cf83a29	0.03030117
234	0xbb93b48b	-0.0045076064
235	0x3d8955f9	0.06705851
236	0xbd697c28	-0.05700317
237	0x3d63a5d2	0.05557806
238	0x3e292b30	0.16520381
239	0x3db7f803	0.08982851
240	0xbc91fcc0	-0.017820716
241	0x3b9184c5	0.004440876
242	0x3e0bac89	0.13640036
243	0x3d1403b9	0.036136363
244	0x3ce0d07f	0.027443169
245	0xbcd5733a	-0.02605592
246	0xbd1de8f0	-0.038552225
247	0x3c4ae54e	0.012383772
248	0xbca58671	-0.020205708
249	0xbd841d0c	-0.06450853
250	0x3d6feb4a	0.058574
251	0xbc966f3e	-0.018363591
252	0x3d913e9e	0.070920214
253	0x3d4d2a86	0.05008938
254	0xbdebbe4e	-0.11510907
255	0x3d4812a7	0.048845913

model.classifier.0.bias f4 [30]
0	0xb68501df	-3.9639267e-06
1	0xb5cea51c	-1.5396249e-06
2	0x343c7127	1.7550029e-07
3	0xb2b370d1	-2.0889646e-08
4	0xb3613566	-5.243546e-08
5	0xb2e9656d	-2.7170893e-08
6	0x35c5bf1f	1.4733267e-06
7	0x35abf377	1.281135e-06
8	0x32b8f1b4	2.1530333e-08
9	0x34203ff7	1.4924431e-07
10	0x34446895	1.8291969e-07
11	0xb582d348	-9.747246e-07
12	0x34086dc3	1.2705918e-07
13	0xb483fa29	-2.4582667e-07
14	0x3495ee78	2.7926922e-07
15	0xb520dbc3	-5.992444e-07
16	0x3440c4a8	1.7952937e-07
17	0xb55f644e	-8.3219936e-07
18	0xb3458e3d	-4.5997e-08
19	0x3584e800	9.902287e-07
20	0x30894921	9.988846e-10
21	0xb5b7dc40	-1.3698664e-06
22	0x33cd7978	9.5681514e-08
23	0x3496ddba	2.8101005e-07
24	0xb58712cc	-1.0063754e-06
25	0x36832264	3.908108e-06
26	0x35593778	8.0919517e-07
27	0x34baae27	3.4771912e-07
28	0x32693db9	1.3576419e-08
29	0x32f2cdfe	2.8266182e-08

model.classifier.1.weight f4 [5, 30]
0	0x3e1fb186	0.15595064
1	0x3e33322c	0.17499608
2	0x3e89a672	0.268848
3	0x3eac8d97	0.33701774
4	0xbe354242	-0.17701057
5	0x3e402943	0.1876574
6	0x3e873d74	0.26414073
7	0xbd8c23e9	-0.06842787
8	0x3ea93aac	0.33052576
9	0x3e4bcba7	0.19901906
10	0x3ea588ba	0.32330877
11	0x3ed50f6a	0.41613322
12	0x3e65b363	0.22431712
13	0x3eb6cf4d	0.35705033
14	0xbe618a7f	-0.22025488
15	0x3dac6d33	0.084192656
16	0x3dc2ef79	0.09518332
17	0x3ea5e387	0.32400152
18	0x3e05ba9f	0.13059472
19	0xbe53f298	-0.20698011
20	0x3e845ba5	0.2585117
21	0xbdcaa7bd	-0.09895275
22	0xbe636765	-0.2220741
23	0x3d8660e9	0.06561453
24	0x3d8d005f	0.068848364
25	0x3c6d8918	0.014498018
26	0xbe3526d2	-0.1769059
27	0x3ca3dd49	0.020002978
28	0xbe3ee2c0	-0.18641186
29	0xbea08ec4	-0.31358922
30	0x3ecbfcff	0.39841458
31	0xbe7291fa	-0.23688498
32	0xbd43fc78	-0.047848195
33	0xbd49dede	-0.04928481
34	0xbdfd1bb5	-0.123588
35	0x3e0b5ead	0.13610335
36	0xbe4a0c87	-0.19731341
37	0x3e933cab	0.28757223
38	0xbd0eac75	-0.034832437
39	0xbe08d2e6	-0.13361701
40	0x3da686c1	0.08131171
41	0xbed45169	-0.4146836
42	0xbd915958	-0.07097119
43	0x3eabbaf4	0.3354107
44	0xbeef01d3	-0.4668108
45	0x3ecc196e	0.3986315
46	0xbde566ec	-0.112012714
47	0x3e1050c5	0.14093311
48	0x3e292816	0.16519198
49	0xbe575a0a	-0.21030441
50	0xbedf7891	-0.43646672
51	0xbe9051e3	-0.28187475
52	0x3ec72cd9	0.38901404
53	0xbe85532c	-0.26040018
54	0x3ebd8df9	0.3702238
55	0xbd44a64e	-0.048010163
56	0xbe2ec6c1	-0.17068006
57	0xbeafe1ba	-0.34351903
58	0xbede72f5	-0.4344708
59	0x3e96aca1	0.2942858
60	0xbde180df	-0.11010908
61	0x3d95e43f	0.07318925
62	0xbcc07161	-0.023491563
63	0xbe77fc91	-0.2421744
64	0x3db1418a	0.08655079
65	0x3c4c20ac	0.012458961
66	0xbe4f8bb8	-0.20268142
67	0x3d1849b3	0.03717966
68	0xbe243e60	-0.16039419
69	0xbe3ee1e9	-0.18640865
70	0xbc9ebe6b	-0.019377908
71	0xbdca6511	-0.09882558
72	0x3dc24775	0.094862856
73	0xbe36b35e	-0.1784186
74	0xbd669a56	-0.05629953
75	0xbe4ac080	-0.19799995
76	0xbdd540ed	-0.10412774
77	0xbe045d2e	-0.1292617
78	0xbd83d2a6	-0.064366624
79	0x3e3a2c88	0.1818105
80	0xbe154420	-0.14576769
81	0x3e2eea45	0.17081554
82	0x3e32543c	0.17414945
83	0x3d8d61cc	0.06903419
84	0xbe27a48d	-0.16371365
85	0xbb909a8b	-0.004412954
86	0x3e399a49	0.18125261
87	0x3e1d356e	0.15352413
88	0x3e51dbcb	0.20494
89	0x3e1c9432	0.15290907
90	0x3dd7ecbc	0.105432004
91	0x3e5a95f3	0.21346264
92	0xbe6ca9b5	-0.23111613
93	0x3d02a4b0	0.03189534
94	0x3dba726b	0.09103855
95	0x3bb7bd59	0.005607289
96	0xbd9553cb	-0.07291373
97	0xbe840ac9	-0.25789478
98	0x3d3cd45e	0.046100967
99	0xbdad7c26	-0.08470945
100	0xbe93e6d3	-0.28887042
101	0x3e2e9d62	0.17052224
102	0xbe7a3b79	-0.2443675
103	0xbe98e2e7	-0.29860613
104	0x3e8040ca	0.2504943
105	0xbe28abf3	-0.16471843
106	0xbe084c36	-0.13310322
107	0x3b94e66f	0.0045440714
108	0x3e1d20f4	0.15344602
109	0xbe40841a	-0.18800393
110	0x3e2ae557	0.16689049
111	0x3e941d64	0.28928673
112	0xbe944ea4	-0.28966248
113	0xbe312e5b	-0.1730284
114	0x3cde48d1	0.027134331
115	0xbe9480a7	-0.29004404
116	0xbe1b8695	-0.15188058
117	0xbe578157	-0.21045433
118	0xbe330c19	-0.17485084
119	0x3b38393d	0.0028110289
120	0xbeaa937f	-0.33315656
121	0xbec22310	-0.37917376
122	0x3d77de6b	0.06051485
123	0x3d55026a	0.052004255
124	0x3c14e22c	0.009087127
125	0xbe970899	-0.29498747
126	0x3e8a5808	0.27020288
127	0x3de327a0	0.11091542
128	0xbdc3f437	-0.09568065
129	0x3e8ff5c7	0.281172
130	0xbc8fb848	-0.017543927
131	0xbe3334c8	-0.17500603
132	0xbd6d6383	-0.05795623
133	0x3d8630c8	0.06552273
134	0x3ea21177	0.3165395
135	0x3e354313	0.17701368
136	0x3e95db70	0.2926898
137	0xbe4a19ad	-0.19736357
138	0xbe96a8ff	-0.2942581
139	0x3e7aff44	0.24511439
140	0x3d81cad9	0.06337518
141	0xbea74c54	-0.3267542
142	0x3c9a5196	0.018837731
143	0x3e31b5d9	0.17354526
144	0xbd80a418	-0.062812984
145	0x3eb138cc	0.34613645
146	0x3e1e9397	0.15485989
147	0x3e341da2	0.17589429
148	0x3e9ed9df	0.31025597
149	0xbdfa97bc	-0.12235972

model.classifier.1.bias f4 [5]
0	0x34b6e60a	3.4067517e-07
1	0xb4ad14ad	-3.2238805e-07
2	0xb5a69c70	-1.2413493e-06
3	0xb696f042	-4.498318e-06
4	0x3691ae0a	4.3415976e-06

exp_avg f4 [30, 30]
0	0x3735dce1	1.0839868e-05
1	0x37b8000f	2.1934537e-05
2	0xb7426edf	-1.1589115e-05
3	0xb721639a	-9.619538e-06
4	0xb5aa51ab	-1.2689756e-06
5	0x3750374a	1.2410639e-05
6	0xb74faca8	-1.2378361e-05
7	0xb70f6635	-8.547261e-06
8	0x35b4c1f5	1.3467494e-06
9	0x36ca8e00	6.0366e-06
10	0x3597d2e7	1.1311757e-06
11	0x3711cf77	8.690978e-06
12	0xb690cb41	-4.3151963e-06
13	0x35de2c98	1.6553267e-06
14	0x34f3d0e1	4.5414257e-07
15	0xb70c3608	-8.35723e-06
16	0xb68a98b3	-4.130497e-06
17	0xb67da85e	-3.779794e-06
18	0xb72f5405	-1.0450375e-05
19	0x36ea8188	6.988823e-06
20	0x358485d0	9.873711e-07
21	0x362f2c82	2.610294e-06
22	0xb79dd354	-1.8814266e-05
23	0xb5dad91a	-1.6305451e-06
24	0x3747f186	1.1917558e-05
25	0xb8000cd2	-3.0529518e-05
26	0xb6bd4e44	-5.6417502e-06
27	0x372fe676	1.0484471e-05
28	0xb67ddcb1	-3.7828397e-06
29	0xb6b98da8	-5.5299206e-06
30	0x36a1ca0c	4.8216953e-06
31	0xb571d84c	-9.009425e-07
32	0xb7676477	-1.3792064e-05
33	0xb3417788	-4.5045027e-08
34	0xb79af03a	-1.8470095e-05
35	0x37691bd0	1.3894358e-05
36	0xb716c23b	-8.9859195e-06
37	0xb638cfc5	-2.7539074e-06
38	0xb78886a8	-1.6275168e-05
39	0xb6e53b40	-6.8316294e-06
40	0xb687a086	-4.042001e-06
41	0x37294abd	1.0090586e-05
42	0xb765bf2f	-1.3693977e-05
43	0xb562f9dc	-8.4555154e-07
44	0x380b3764	3.319177e-05
45	0xb7cd00c2	-2.4438257e-05
46	0xb7c45edd	-2.3409195e-05
47	0x368cb3f7	4.193276e-06
48	0x36c38c2c	5.827771e-06
49	0xb77bbc15	-1.5004557e-05
50	0x33baa481	8.691223e-08
51	0xb6194f5c	-2.284497e-06
52	0xb601e5e3	-1.935631e-06
53	0xb6cf32b4	-6.1749834e-06
54	0xb68591c7	-3.9806796e-06
55	0x373743fb	1.0923478e-05
56	0xb7957d22	-1.7820454e-05
57	0xb71dc62b	-9.404069e-06
58	0x374fa7f9	1.2377271e-05
59	0x36a8ae01	5.027047e-06
60	0xb62b07e1	-2.5485572e-06
61	0xb6dd0b0e	-6.5876e-06
62	0x36dbdebf	6.5526397e-06
63	0xb619b90d	-2.290649e-06
64	0x371a9fdb	9.216335e-06
65	0xb5321088	-6.6334223e-07
66	0x36ba875f	5.5589912e-06
67	0x3480451e	2.3892147e-07
68	0xb63e352b	-2.8343154e-06
69	0xb602ade5	-1.947273e-06
70	0x3645c3e1	2.9469304e-06
71	0x36b9b18a	5.534098e-06
72	0x35679416	8.62697e-07
73	0xb5df5e68	-1.664227e-06
74	0xb5904abb	-1.0750585e-06
75	0x36d034c0	6.205024e-06
76	0xb60412eb	-1.9680544e-06
77	0x35b6fab9	1.3633027e-06
78	0xb5fe7a33	-1.8960039e-06
79	0xb5c60a38	-1.4755124e-06
80	0xb5d15dd7	-1.5599024e-06
81	0x36e1a966	6.725243e-06
82	0x36128f31	2.1839044e-06
83	0xb5f401f7	-1.8179989e-06
84	0x353988ea	6.9117107e-07
85	0x36b745fd	5.4619727e-06
86	0x36fa98de	7.4683767e-06
87	0xb653fba9	-3.1587936e-06
88	0xb700173a	-7.634802e-06
89	0xb6ab3286	-5.102079e-06
90	0xb6fd0cfd	-7.5414996e-06
91	0xb69d9446	-4.696226e-06
92	0x3708c47b	8.151978e-06
93	0x359b79d6	1.1583859e-06
94	0x37089790	8.14152e-06
95	0xb6d5f054	-6.3758725e-06
96	0x35c0365c	1.4320935e-06
97	0x3634b497	2.6927207e-06
98	0xb48f3fb2	-2.668217e-07
99	0x36917ed3	4.336101e-06
100	0x36d413ac	6.3203825e-06
101	0xb641d805	-2.888498e-06
102	0xb520fb57	-5.997039e-07
103	0x354c9484	7.621204e-07
104	0x366758f2	3.4473455e-06
105	0xb6061c46	-1.9984013e-06
106	0x3612229c	2.177584e-06
107	0xb58d098d	-1.0508098e-06
108	0xb5578db0	-8.0299924e-07
109	0xb64b141f	-3.026107e-06
110	0x351171d7	5.418237e-07
111	0x371b154a	9.243677e-06
112	0xb607c62b	-2.0231917e-06
113	0x352d18ac	6.4483424e-07
114	0x34c6fbeb	3.7063668e-07
115	0x35029b51	4.865479e-07
116	0x36c85b0e	5.9710646e-06
117	0x368da017	4.2207644e-06
118	0x36ad90a9	5.1726424e-06
119	0x3464bab8	2.1302083e-07
120	0xb4b597fb	-3.3824458e-07
121	0xb665c05d	-3.423563e-06
122	0xb6212931	-2.4014846e-06
123	0x367063b8	3.582083e-06
124	0xb6f36246	-7.253405e-06
125	0xb50b1ff5	-5.182804e-07
126	0x33383801	4.2891774e-08
127	0x35db0e73	1.6320977e-06
128	0xb5e3af2d	-1.6963801e-06
129	0xb631ab40	-2.6474736e-06
130	0xb6505884	-3.1045938e-06
131	0xb646f4c9	-2.9646783e-06
132	0xb55e0baf	-8.2718446e-07
133	0xb45983ff	-2.025772e-07
134	0x3693fdb5	4.410477e-06
135	0xb65d2dd6	-3.2958246e-06
136	0xb5dee8be	-1.6608026e-06
137	0x35b38283	1.3374523e-06
138	0x36a0e03d	4.7944764e-06
139	0xb651e551	-3.1276907e-06
140	0x34933b8c	2.742421e-07
141	0xb6ac297e	-5.13083e-06
142	0x369b890e	4.6353152e-06
143	0x347b1b9a	2.3386238e-07
144	0xb693b4ba	-4.4019807e-06
145	0x370e3148	8.475334e-06
146	0xb69e9c82	-4.726987e-06
147	0xb67b7d3d	-3.7474813e-06
148	0x36ac60d3	5.1372713e-06
149	0x36921501	4.3535842e-06
150	0x3708a088	8.143608e-06
151	0x3725f469	9.891673e-06
152	0xb725599a	-9.855628e-06
153	0xb6e1b301	-6.7263613e-06
154	0xb6934137	-4.3885334e-06
155	0x3756ad48	1.2795739e-05
156	0xb7003780	-7.642317e-06
157	0xb6d49852	-6.3358248e-06
158	0xb6c71f44	-5.934302e-06
159	0xb56b27bb	-8.760214e-07
160	0xb5715b3f	-8.9912277e-07
161	0x3742be48	1.1607604e-05
162	0xb6d4f502	-6.346615e-06
163	0xb476f579	-2.2999838e-07
164	0x3721e84d	9.650435e-06
165	0xb71e5b9c	-9.438863e-06
166	0xb7406f97	-1.1470073e-05
167	0x3423ec5f	1.5266549e-07
168	0xb698117e	-4.5319894e-06
169	0xb57657f1	-9.1770113e-07
170	0xb4b34670	-3.3392598e-07
171	0x35c08594	1.4343991e-06
172	0xb7246ffe	-9.801237e-06
173	0xb6889294	-4.07018e-06
174	0x36baceba	5.567298e-06
175	0xb736c135	-1.089303e-05
176	0xb6e68b1f	-6.87073e-06
177	0xb2fae78b	-2.9209124e-08
178	0xb64607f2	-2.9508924e-06
179	0xb686456f	-4.0015943e-06
180	0xb75ff60d	-1.3349124e-05
181	0xb77fa2b6	-1.52370685e-05
182	0x37890b44	1.6336919e-05
183	0x36b2e249	5.3311564e-06
184	0x3751462f	1.2473712e-05
185	0xb76ef410	-1.4242731e-05
186	0x371982a7	9.1499305e-06
187	0x36ec6080	7.044582e-06
188	0x35d64864	1.5965311e-06
189	0x362329c9	2.4313215e-06
190	0x36debf24	6.6383673e-06
191	0xb704913d	-7.901629e-06
192	0x36790454	3.710641e-06
193	0xb35d87d2	-5.15791e-08
194	0xb61daeb6	-2.3496518e-06
195	0x36dad9d3	6.5222644e-06
196	0x3700088a	7.631383e-06
197	0x34114c8b	1.3532024e-07
198	0x3643658f	2.911638e-06
199	0xb680e460	-3.8412836e-06
200	0xb3466422	-4.6191538e-08
201	0x3714b476	8.863504e-06
202	0x36ece807	7.0603596e-06
203	0x3617f93c	2.2645827e-06
204	0xb691ca9a	-4.3449227e-06
205	0x3760133e	1.3355921e-05
206	0x374a8703	1.2071573e-05
207	0x35359a84	6.7652604e-07
208	0x36888729	4.0688506e-06
209	0x35da5439	1.6266778e-06
210	0x367da61f	3.7796633e-06
211	0x36ef2db2	7.1280747e-06
212	0x3675343d	3.6538252e-06
213	0xb6c4c260	-5.8638834e-06
214	0x3748ea45	1.1975474e-05
215	0xb502aa86	-4.867692e-07
216	0x366d4097	3.5353348e-06
217	0xb6423fb0	-2.8945324e-06
218	0x370c956a	8.379438e-06
219	0x3636ff90	2.726887e-06
220	0x3574e1c3	9.122561e-07
221	0x3626472e	2.477736e-06
222	0x36fa7fac	7.4654436e-06
223	0xb4ad377d	-3.2264134e-07
224	0xb7bb02df	-2.2293474e-05
225	0x378bdd9c	1.6673286e-05
226	0x37282d00	1.0024058e-05
227	0xb61c72d9	-2.3312662e-06
228	0xb7097585	-8.1931985e-06
229	0x374fbe3b	1.2382453e-05
230	0xb5853df0	-9.927298e-07
231	0x35d02c65	1.5510128e-06
232	0xb64f8e92	-3.092839e-06
233	0x35b407d1	1.341332e-06
234	0x36e9775f	6.9578377e-06
235	0xb776fabc	-1.4721121e-05
236	0x3727edd9	1.0009354e-05
237	0x36a48e8b	4.904175e-06
238	0xb78b647b	-1.6616881e-05
239	0xb713c560	-8.807838e-06
240	0xb62ee989	-2.6063956e-06
241	0xb58e3061	-1.0593905e-06
242	0x35b96375	1.381252e-06
243	0xb596c736	-1.1233849e-06
244	0x3624fbbc	2.4584433e-06
245	0x357fbf56	9.5273333e-07
246	0xb614f1f1	-2.2194547e-06
247	0xb48c01f7	-2.6078462e-07
248	0xb68ec66d	-4.2550296e-06
249	0x35ed8d70	1.769904e-06
250	0x36821cad	3.87764e-06
251	0x363ed323	2.8435104e-06
252	0xb689ecaf	-4.1104718e-06
253	0x34965052	2.7998118e-07
254	0x37273028	9.965188e-06
255	0xb6f6c92f	-7.354792e-06

exp_avg_sq f4 [30, 30]
0	0x2fa247f8	2.9518765e-10
1	0x30d4411d	1.5443536e-09
2	0x30f509e1	1.7828904e-09
3	0x30022972	4.735262e-10
4	0x306deded	8.655821e-10
5	0x2ff50636	4.4569654e-10
6	0x3066ca54	8.396104e-10
7	0x2fd7c518	3.9248316e-10
8	0x304415b9	7.1335254e-10
9	0x30679824	8.4253515e-10
10	0x2fffef92	4.6554455e-10
11	0x3007b8e4	4.937546e-10
12	0x2f590485	1.973764e-10
13	0x2ef2816f	1.1027878e-10
14	0x307e2609	9.2458713e-10
15	0x30562675	7.7907397e-10
16	0x301250c1	5.322925e-10
17	0x2e849d09	6.03056e-11
18	0x30645b93	8.307605e-10
19	0x30c5f665	1.4403666e-09
20	0x2fa40720	2.983649e-10
21	0x3021ca6f	5.8859134e-10
22	0x30743056	8.883537e-10
23	0x305b453e	7.9770135e-10
24	0x30770f40	8.987975e-10
25	0x318b9936	4.0628505e-09
26	0x309272af	1.0655493e-09
27	0x2fb18c65	3.229587e-10
28	0x303f64fc	6.96289e-10
29	0x30b38fc3	1.3064824e-09
30	0x2f87bd72	2.4690966e-10
31	0x30b61162	1.3247183e-09
32	0x30d57d9f	1.5533493e-09
33	0x2fe7ba75	4.215114e-10
34	0x304f0c21	7.53234e-10
35	0x2fbd912f	3.448206e-10
36	0x3093ad8e	1.0744985e-09
37	0x2fb1787f	3.228173e-10
38	0x2fd479a8	3.8649017e-10
39	0x2fb78466	3.338158e-10
40	0x300a5845	5.0329546e-10
41	0x300acae9	5.049246e-10
42	0x3005bdc6	4.86548e-10
43	0x2ef77981	1.1253843e-10
44	0x3182e1a6	3.809151e-09
45	0x3163edd9	3.3168048e-09
46	0x30702f39	8.73786e-10
47	0x2ebc9a7e	8.5766935e-11
48	0x2ffc18cc	4.5856152e-10
49	0x30a7e157	1.2214895e-09
50	0x2ed6c3f9	9.766405e-11
51	0x302b8afd	6.240695e-10
52	0x3085a93c	9.725123e-10
53	0x2f874dd8	2.4611668e-10
54	0x304a1aed	7.3525436e-10
55	0x30f6ad23	1.7948064e-09
56	0x31038d5c	1.9143362e-09
57	0x2f9b574b	2.825636e-10
58	0x309fb5fc	1.1620496e-09
59	0x3082bc13	9.512199e-10
60	0x2ed94220	9.879764e-11
61	0x2fd37c40	3.846896e-10
62	0x2ff01e9b	4.3677492e-10
63	0x2f832f91	2.386256e-10
64	0x302afc2e	6.220401e-10
65	0x2edd01e1	1.005025e-10
66	0x2fc97242	3.6642872e-10
67	0x2e639735	5.1748123e-11
68	0x2fd68a01	3.902443e-10
69	0x2ee9cb54	1.06317316e-10
70	0x2f28fb8a	1.5368876e-10
71	0x3074ed36	8.910378e-10
72	0x2f2c41a5	1.566663e-10
73	0x2f8e652e	2.5901542e-10
74	0x2feed95d	4.3446394e-10
75	0x301da0c6	5.734474e-10
76	0x2fe57787	4.1739787e-10
77	0x2ec31e20	8.8729246e-11
78	0x2f6f3c1a	2.1758276e-10
79	0x2f6d23b9	2.1567716e-10
80	0x2f1c1569	1.4195724e-10
81	0x301cb0ee	5.70039e-10
82	0x3056a4b8	7.8086826e-10
83	0x2f3f825f	1.7417666e-10
84	0x2f1f2aef	1.4476219e-10
85	0x300fedc2	5.236097e-10
86	0x2ff1de35	4.3995532e-10
87	0x2f24e43d	1.49968e-10
88	0x3010b7a6	5.2647875e-10
89	0x3049ebf4	7.3458684e-10
90	0x2f5522f1	1.9384651e-10
91	0x2fe1fd25	4.1107132e-10
92	0x304ab6a9	7.374675e-10
93	0x2ff9605d	4.5361306e-10
94	0x308c3d12	1.0203698e-09
95	0x2f70c65b	2.1898343e-10
96	0x2febf38c	4.2919301e-10
97	0x2f227c4d	1.4777975e-10
98	0x30283c77	6.120397e-10
99	0x2fb08364	3.2107572e-10
100	0x303432b1	6.5555655e-10
101	0x305159b8	7.6161255e-10
102	0x2f24afc1	1.4978153e-10
103	0x2f29fae0	1.5459589e-10
104	0x3030dbad	6.4340605e-10
105	0x3011607f	5.288782e-10
106	0x2fd5b970	3.8876236e-10
107	0x2eab8523	7.7998295e-11
108	0x2f9ccb49	2.8520677e-10
109	0x30d97d63	1.5824465e-09
110	0x2ff4ec7b	4.455137e-10
111	0x30e85d68	1.6906769e-09
112	0x30f0eb82	1.7529234e-09
113	0x3093b3b3	1.0746731e-09
114	0x2fa7789c	3.046282e-10
115	0x303a8bb5	6.786494e-10
116	0x30464252	7.2126227e-10
117	0x2fb501cc	3.2924985e-10
118	0x2fd2bc61	3.833263e-10
119	0x3189ba88	4.008431e-09
120	0x2ebdb283	8.626435e-11
121	0x2ee379c3	1.0344394e-10
122	0x2f99af00	2.7954883e-10
123	0x2f1723c3	1.3746075e-10
124	0x2f8b713a	2.5364405e-10
125	0x2e748fb4	5.560681e-11
126	0x2f0a6a35	1.2588759e-10
127	0x2e01f3e2	2.9547816e-11
128	0x2f036971	1.1951841e-10
129	0x2ecaa380	9.21494e-11
130	0x2f1dc2f8	1.4348334e-10
131	0x2f75f3bf	2.2369216e-10
132	0x2e4058c4	4.3734585e-11
133	0x2e8db6ee	6.4444325e-11
134	0x2f3345d0	1.6304758e-10
135	0x2f97d02c	2.7614655e-10
136	0x2f13494a	1.339561e-10
137	0x2e0baad7	3.1756677e-11
138	0x2f29844e	1.5417465e-10
139	0x300508a5	4.83974e-10
140	0x2f18a0a0	1.3881385e-10
141	0x2fba78a5	3.3918926e-10
142	0x2fd9afc5	3.9596962e-10
143	0x2f71cff3	2.1992701e-10
144	0x2e94ca82	6.7662334e-11
145	0x2f87a29f	2.4671906e-10
146	0x2f5bf4fa	2.0004967e-10
147	0x2e623fad	5.1443006e-11
148	0x2fae3ff8	3.1695868e-10
149	0x303a2682	6.772113e-10
150	0x2ebfd4c7	8.723471e-11
151	0x305b87a2	7.986448e-10
152	0x30b5f00b	1.3237708e-09
153	0x2fe09554	4.0851467e-10
154	0x2f7b90e1	2.2879788e-10
155	0x2fb6319c	3.3140857e-10
156	0x30059b4d	4.8605814e-10
157	0x2f834764	2.3879487e-10
158	0x2f147497	1.3501943e-10
159	0x2f9c1890	2.8393687e-10
160	0x2f816393	2.3535715e-10
161	0x2fb9e1e1	3.38118e-10
162	0x2f7006f9	2.183035e-10
163	0x2e8fe374	6.543291e-11
164	0x308a0168	1.0041221e-09
165	0x301cb6f8	5.7012484e-10
166	0x301ec3d2	5.775834e-10
167	0x2e60c786	5.1108916e-11
168	0x3021db7b	5.888336e-10
169	0x2fadd452	3.161938e-10
170	0x2ee61f5e	1.0464761e-10
171	0x2f4ed0c0	1.8809754e-10
172	0x2fe2d958	4.1263593e-10
173	0x2f749ae8	2.2246704e-10
174	0x30086074	4.961358e-10
175	0x30e0fe7f	1.6370477e-09
176	0x306a1cba	8.5169527e-10
177	0x2eaacfba	7.7676046e-11
178	0x2f8cc330	2.560454e-10
179	0x300f7070	5.218288e-10
180	0x2f475fdb	1.8132999e-10
181	0x30a0ef66	1.1709573e-09
182	0x3049aeb8	7.3371664e-10
183	0x300ab16f	5.0456256e-10
184	0x30545f35	7.726045e-10
185	0x2fd8fcd4	3.9469816e-10
186	0x30828101	9.49541e-10
187	0x2fb84ef1	3.3525496e-10
188	0x2fc07fd1	3.5015416e-10
189	0x2f74fe77	2.2282075e-10
190	0x301f48d9	5.7947386e-10
191	0x301e370e	5.75583e-10
192	0x2f33a671	1.6339087e-10
193	0x2f4a0b3a	1.8375781e-10
194	0x3073b6b1	8.8662505e-10
195	0x303451e4	6.559999e-10
196	0x2fd76322	3.917871e-10
197	0x2e9bf3ad	7.0918695e-11
198	0x3006f0d8	4.9091176e-10
199	0x309ae14b	1.1269007e-09
200	0x2f9b02ec	2.8196412e-10
201	0x308e5d96	1.0358459e-09
202	0x310c8559	2.044848e-09
203	0x3019cf38	5.595555e-10
204	0x30455b87	7.179825e-10
205	0x3119d8f2	2.238775e-09
206	0x309d388c	1.1439325e-09
207	0x2f614f5a	2.0491822e-10
208	0x2fbfffa0	3.492433e-10
209	0x31564205	3.1178626e-09
210	0x2f74af8c	2.2254038e-10
211	0x2face708	3.1450775e-10
212	0x2f5b6695	1.9954378e-10
213	0x2f6d1db0	2.1565572e-10
214	0x301d0fbe	5.713864e-10
215	0x2e88358a	6.1940744e-11
216	0x2f970f27	2.7477506e-10
217	0x2e9cfb80	7.138734e-11
218	0x2fd49fab	3.8676026e-10
219	0x2f120fb6	1.3284204e-10
220	0x2f20aa98	1.4612522e-10
221	0x307f744d	9.2933733e-10
222	0x2f0824de	1.2382226e-10
223	0x2ec6a3e6	9.033112e-11
224	0x30897de5	1.0003843e-09
225	0x30e9719c	1.6985271e-09
226	0x2f3f9277	1.7423384e-10
227	0x2e475a93	4.5327807e-11
228	0x2fa47a6b	2.991841e-10
229	0x300d4b80	5.1402793e-10
230	0x2e71ab12	5.4948997e-11
231	0x30342022	6.552928e-10
232	0x2fc48bf9	3.575165e-10
233	0x2f22e2e2	1.4814419e-10
234	0x2f2a07f2	1.5464233e-10
235	0x30227131	5.909611e-10
236	0x2fe376c0	4.1375436e-10
237	0x2f8d3e40	2.5691982e-10
238	0x30a645e1	1.209795e-09
239	0x301d0040	5.711662e-10
240	0x2f0d37fb	1.2843764e-10
241	0x2fad2bab	3.1499545e-10
242	0x30864ec5	9.772171e-10
243	0x2f9e14fc	2.8754943e-10
244	0x3035b14b	6.6099365e-10
245	0x2f332c6d	1.6295738e-10
246	0x2f944b95	2.6974747e-10
247	0x2ecd2a5c	9.329845e-11
248	0x2fd61d8c	3.8947368e-10
249	0x2fa8b8e8	3.0690406e-10
250	0x2fe6d91d	4.1991025e-10
251	0x3006e2be	4.9071136e-10
252	0x2f6468c5	2.0773701e-10
253	0x2f19c494	1.3985108e-10
254	0x304a2936	7.3545736e-10
255	0x302e2b23	6.336213e-10

exp_avg f4 [30]
0	0x2e12030e	3.319927e-11
1	0x2dfff21f	2.9097667e-11
2	0xad0e568c	-8.090983e-12
3	0x2cf20bcd	6.879364e-12
4	0xad07c589	-7.717723e-12
5	0x2e271edb	3.799881e-11
6	0xae1c2c2c	-3.5509526e-11
7	0xad85b4a8	-1.5200577e-11
8	0x2db300d9	2.035032e-11
9	0xaddab457	-2.4863818e-11
10	0x2d1eae69	9.019987e-12
11	0x2d753da7	1.3940327e-11
12	0xad25a6fc	-9.416242e-12
13	0x2d3e4d66	1.08174355e-11
14	0xadc28670	-2.2114949e-11
15	0xacaf818a	-4.988181e-12
16	0xadde05b7	-2.5241016e-11
17	0x2e019eea	2.9472348e-11
18	0x2e37034b	4.1612307e-11
19	0xae20053e	-3.6384444e-11
20	0xac90f836	-4.120283e-12
21	0x2dcef86d	2.3529812e-11
22	0xacc58272	-5.613559e-12
23	0xadccbdb8	-2.3276367e-11
24	0x2ddfb78e	2.543368e-11
25	0xae030768	-2.979253e-11
26	0xadcd1b90	-2.3318042e-11
27	0xadf20c7d	-2.751776e-11
28	0xae77fd4c	-5.638627e-11
29	0x2da0d666	1.8285106e-11

exp_avg_sq f4 [30]
0	0x224475cd	2.6625316e-18
1	0x24b68bbb	7.916663e-17
2	0x23f9b24a	2.7072142e-17
3	0x26ca387d	1.4031877e-15
4	0x27ea8ba2	6.5099437e-15
5	0x27edadde	6.596922e-15
6	0x239dd794	1.7113275e-17
7	0x239d27dc	1.7038855e-17
8	0x28002170	7.112678e-15
9	0x28255fba	9.180097e-15
10	0x270a4838	1.9190497e-15
11	0x20d6e9aa	3.6407636e-19
12	0x278682a7	3.7334125e-15
13	0x263e57de	6.6038574e-16
14	0x28a681bd	1.8485967e-14
15	0x25964dc5	2.607355e-16
16	0x2885c6a6	1.4852116e-14
17	0x25fda0db	4.3997504e-16
18	0x28033b35	7.284799e-15
19	0x2630bbb4	6.131665e-16
20	0x281ab528	8.587999e-15
21	0x24f4a75e	1.0610166e-16
22	0x20fa4e18	4.2403325e-19
23	0x28a836b6	1.8675474e-14
24	0x25b09919	3.0634876e-16
25	0x22b0e776	4.7949964e-18
26	0x26b7764e	1.2730242e-15
27	0x28a86b4d	1.8698281e-14
28	0x27fe2eda	7.054996e-15
29	0x27ba0a11	5.1636285e-15

exp_avg f4 [5, 30]
0	0x3542f79a	7.263094e-07
1	0x35cbcc41	1.5184124e-06
2	0xb69ed477	-4.733501e-06
3	0xb6777eef	-3.6879753e-06
4	0x3624a4d6	2.4533852e-06
5	0xb5269563	-6.2057205e-07
6	0xb69ca021	-4.6678038e-06
7	0xb5edbc2d	-1.7712642e-06
8	0xb6384b03	-2.74618e-06
9	0xb68882d6	-4.068347e-06
10	0xb6b6fa74	-5.4531793e-06
11	0xb6147bbd	-2.2125744e-06
12	0xb688dd7c	-4.0789e-06
13	0xb6d4e2cc	-6.344495e-06
14	0x36349995	2.6911487e-06
15	0xb6419e9c	-2.8851564e-06
16	0xb65b5e1c	-3.2688322e-06
17	0xb620aa83	-2.3941109e-06
18	0x359b3321	1.156328e-06
19	0xb493b80e	-2.75148e-07
20	0xb5ff377a	-1.9015126e-06
21	0x36a0d532	4.793191e-06
22	0x34423a6b	1.808891e-07
23	0xb63b67f0	-2.792567e-06
24	0xb48322f3	-2.442608e-07
25	0xb6835be9	-3.914804e-06
26	0x33eedd8f	1.112304e-07
27	0xb6287a8e	-2.5105287e-06
28	0xb536097a	-6.7814074e-07
29	0x3684b6e8	3.9551996e-06
30	0xb83f2b71	-4.5578407e-05
31	0x37ab7349	2.0438472e-05
32	0x3798caf7	1.8214325e-05
33	0x375daef4	1.3213361e-05
34	0x36dc0553	6.5571307e-06
35	0xb76ee82e	-1.4239964e-05
36	0x3809ad87	3.2824955e-05
37	0xb7d318fa	-2.516479e-05
38	0x371d720b	9.384482e-06
39	0x37d01176	2.4803663e-05
40	0x36caf47a	6.04853e-06
41	0x384f0f68	4.9366994e-05
42	0x379ce9ca	1.8705516e-05
43	0xb7a4db3f	-1.9652418e-05
44	0x383633c2	4.3440385e-05
45	0xb8120785	-3.4816116e-05
46	0x37b3fd39	2.1456379e-05
47	0xb727c17b	-9.999024e-06
48	0xb7b87c52	-2.19924e-05
49	0x37d2a13e	2.5109035e-05
50	0x3853ce02	5.049818e-05
51	0x3791d914	1.7386432e-05
52	0xb82af1fc	-4.0756524e-05
53	0x38154b7d	3.5594672e-05
54	0xb8254c5b	-3.9410177e-05
55	0x378cb557	1.6773743e-05
56	0x37a5a369	1.9745627e-05
57	0x3839fd50	4.4343353e-05
58	0x38522151	5.009893e-05
59	0xb82c183e	-4.1030573e-05
60	0xb77c44de	-1.5036405e-05
61	0x366a4da0	3.49139e-06
62	0xb715340f	-8.893213e-06
63	0xb7a9507d	-2.018385e-05
64	0x373e9d3f	1.1361494e-05
65	0xb6dce188	-6.582766e-06
66	0xb7756efa	-1.4628977e-05
67	0xb606fb71	-2.0113914e-06
68	0xb7870714	-1.609655e-05
69	0xb75c2736	-1.3122151e-05
70	0xb750b6cf	-1.244033e-05
71	0xb71523e8	-8.889452e-06
72	0xb5c45c9c	-1.4630091e-06
73	0xb7cfb8cb	-2.4762374e-05
74	0x374014ed	1.1448964e-05
75	0xb79e2e95	-1.885676e-05
76	0xb6e37e0a	-6.7798e-06
77	0xb78f8e8b	-1.7113305e-05
78	0xb70f3a62	-8.5370575e-06
79	0x378c968d	1.6759406e-05
80	0xb6e6b8b0	-6.8760346e-06
81	0x378c9cad	1.6762258e-05
82	0x36f63dc0	7.33856e-06
83	0x369d050d	4.6795526e-06
84	0xb78058c9	-1.5300133e-05
85	0xb5985cad	-1.1351855e-06
86	0x37827bf3	1.5554926e-05
87	0x373b4282	1.1161554e-05
88	0x37ad3a65	2.06504e-05
89	0x3743defb	1.1674822e-05
90	0xb738f69b	-1.1024672e-05
91	0xb7b1644a	-2.1146745e-05
92	0x3761fb6d	1.3469585e-05
93	0xb74ecb27	-1.2325857e-05
94	0xb6878097	-4.0382834e-06
95	0xb63799c5	-2.735863e-06
96	0xb61be1a6	-2.3228145e-06
97	0x37c8afc7	2.392371e-05
98	0xb74db8f4	-1.2262015e-05
99	0x34c92402	3.7465367e-07
100	0x3795f869	1.787786e-05
101	0xb7d2fe30	-2.5152316e-05
102	0x378b766a	1.6625232e-05
103	0x378fa45e	1.7123468e-05
104	0xb7a16ed1	-1.9244299e-05
105	0x37407f74	1.1473767e-05
106	0x36f9ed02	7.4483696e-06
107	0xb6fa226a	-7.454587e-06
108	0xb7783e56	-1.4796466e-05
109	0x37ac6381	2.0550333e-05
110	0xb7bdba6f	-2.261737e-05
111	0xb7b1dac9	-2.1201924e-05
112	0x380544fa	3.177391e-05
113	0x374d8bca	1.2251499e-05
114	0xb67b154a	-3.7414306e-06
115	0x37c1f25c	2.312025e-05
116	0x378f7566	1.7101596e-05
117	0x378e4b7a	1.6962866e-05
118	0x379c583b	1.8637735e-05
119	0x371a8488	9.209973e-06
120	0x3797d925	1.8101719e-05
121	0x38487c57	4.7799516e-05
122	0x368ae57b	4.1394355e-06
123	0xb709bd6f	-8.209942e-06
124	0x36195d93	2.2853244e-06
125	0x37f8fa3b	2.9680426e-05
126	0xb7bf592f	-2.2810504e-05
127	0xb76e2b77	-1.4196025e-05
128	0x3716b7bf	8.983478e-06
129	0xb7db998d	-2.6178337e-05
130	0x372e5766	1.0391557e-05
131	0x380264c5	3.1088264e-05
132	0x37afa3bb	2.0937869e-05
133	0xb7374aed	-1.0925095e-05
134	0xb7fd1b6b	-3.0172718e-05
135	0xb80a5c06	-3.2987467e-05
136	0xb7d68ddd	-2.5576848e-05
137	0x3788b0cb	1.6294789e-05
138	0x37b405b0	2.146032e-05
139	0xb736a3e2	-1.0886202e-05
140	0x3618dca3	2.2778192e-06
141	0x382a112a	4.0547144e-05
142	0xb69537ed	-4.4470567e-06
143	0xb5f8d02d	-1.8538027e-06
144	0xb743c382	-1.1668426e-05
145	0xb7e58903	-2.7362728e-05
146	0xb63544c1	-2.7011122e-06
147	0x3680b3c2	3.835624e-06
148	0xb724bdf2	-9.819387e-06
149	0x36706320	3.5820485e-06

exp_avg_sq f4 [5, 30]
0	0x3185d20d	3.8946895e-09
1	0x31c0dced	5.613052e-09
2	0x3153983f	3.0791083e-09
3	0x318b2a3b	4.0502335e-09
4	0x30af5d6b	1.2759477e-09
5	0x3130c4f1	2.572332e-09
6	0x31331ab5	2.606311e-09
7	0x3137b4d7	2.67328e-09
8	0x31a0604c	4.6675606e-09
9	0x30f9ad86	1.8166453e-09
10	0x319a857b	4.497165e-09
11	0x322049ae	9.329979e-09
12	0x311910ee	2.2274054e-09
13	0x31d3f341	6.168563e-09
14	0x3179604f	3.6289014e-09
15	0x3103f385	1.9201434e-09
16	0x30d9c983	1.5846101e-09
17	0x31a98ea5	4.934764e-09
18	0x315cccfe	3.2130738e-09
19	0x319df714	4.597391e-09
20	0x317947d5	3.62751e-09
21	0x3190c31d	4.2131334e-09
22	0x31a106c0	4.686484e-09
23	0x30bffb90	1.3968577e-09
24	0x30668745	8.386574e-10
25	0x318f3cf0	4.1687755e-09
26	0x3144a79f	2.8617035e-09
27	0x3105761e	1.942119e-09
28	0x31b2e323	5.2063043e-09
29	0x31688011	3.383324e-09
30	0x31c6b88d	5.7835394e-09
31	0x313de51b	2.7633351e-09
32	0x302faf21	6.39135e-10
33	0x305390a6	7.696691e-10
34	0x304fd9c0	7.56156e-10
35	0x30654aeb	8.341618e-10
36	0x310d8778	2.0595206e-09
37	0x3152f3fb	3.0697709e-09
38	0x30180ef4	5.531853e-10
39	0x30a91d6d	1.2304732e-09
40	0x306f405b	8.703915e-10
41	0x31e770b1	6.7357964e-09
42	0x3011a303	5.2982346e-10
43	0x31aaa2a6	4.966142e-09
44	0x31fb9e30	7.3230453e-09
45	0x31d2e3f7	6.137721e-09
46	0x3078c059	9.0495217e-10
47	0x309f8acd	1.1608222e-09
48	0x30b5d376	1.3229584e-09
49	0x310de6ea	2.064946e-09
50	0x31e6de44	6.7191497e-09
51	0x3184c34f	3.8639096e-09
52	0x31ba6e01	5.4258185e-09
53	0x3134eddd	2.6328657e-09
54	0x31a88cb4	4.9054396e-09
55	0x3070151a	8.734148e-10
56	0x30bf46f7	1.3917248e-09
57	0x319992d4	4.4695785e-09
58	0x31f383ad	7.0872006e-09
59	0x316e283f	3.4656435e-09
60	0x31344a9c	2.6235858e-09
61	0x3158f56d	3.1571645e-09
62	0x3051efbd	7.6374446e-10
63	0x328cefb9	1.6407158e-08
64	0x311c3535	2.2731232e-09
65	0x302084d1	5.8396404e-10
66	0x32696366	1.3584986e-08
67	0x3033cb7a	6.540898e-10
68	0x31e9a7c2	6.8002644e-09
69	0x3247fd73	1.1640952e-08
70	0x303b67fb	6.817797e-10
71	0x314d5d25	2.9884373e-09
72	0x312df12f	2.531191e-09
73	0x322c357a	1.0023877e-08
74	0x30fbdd72	1.8325592e-09
75	0x324c1186	1.1878347e-08
76	0x319db5a5	4.589952e-09
77	0x318d69f0	4.115684e-09
78	0x308d65bc	1.0288015e-09
79	0x3202e4e7	7.619042e-09
80	0x31ddfa75	6.46042e-09
81	0x3237a461	1.0689377e-08
82	0x320eaef1	8.305265e-09
83	0x30a1ea1b	1.1780829e-09
84	0x31e5c07e	6.686661e-09
85	0x3099d924	1.119393e-09
86	0x32071d76	7.864733e-09
87	0x31b971d7	5.3971507e-09
88	0x3221a1c0	9.408211e-09
89	0x3201b26f	7.549359e-09
90	0x3090fc45	1.0549078e-09
91	0x31644965	3.3220087e-09
92	0x31abb7ae	4.997637e-09
93	0x30d3f950	1.5423129e-09
94	0x308b9592	1.0156092e-09
95	0x2e757f64	5.5819696e-11
96	0x310e58bc	2.071416e-09
97	0x31a30f01	4.74563e-09
98	0x3084ccaa	9.662433e-10
99	0x30f22efa	1.7621169e-09
100	0x31fa6fab	7.288653e-09
101	0x3152fcd9	3.070275e-09
102	0x31addbcb	5.0599502e-09
103	0x320f8337	8.35353e-09
104	0x31a14fc5	4.6947854e-09
105	0x31388155	2.684904e-09
106	0x31055303	1.9401234e-09
107	0x301f78c0	5.801546e-10
108	0x30f3ed49	1.7748018e-09
109	0x31451b32	2.8682732e-09
110	0x313c6b9d	2.7418772e-09
111	0x31f01e11	6.9883375e-09
112	0x31d74ebe	6.2662755e-09
113	0x31387516	2.684208e-09
114	0x2ff8350b	4.5148627e-10
115	0x31df2d40	6.4952985e-09
116	0x31084e72	1.9835196e-09
117	0x3183c622	3.835127e-09
118	0x313dc766	2.7616465e-09
119	0x30c29f6f	1.4160672e-09
120	0x32138763	8.5873095e-09
121	0x3265954e	1.3363502e-08
122	0x30eb3116	1.7112451e-09
123	0x31604912	3.2637826e-09
124	0x30262f3f	6.045759e-10
125	0x31f181cb	7.028779e-09
126	0x323008d1	1.0246553e-08
127	0x30ac4244	1.2533481e-09
128	0x310348e1	1.9104436e-09
129	0x322bdf97	1.00043485e-08
130	0x30ac867e	1.2552872e-09
131	0x318fa745	4.180864e-09
132	0x304abf43	7.375897e-10
133	0x31836978	3.824592e-09
134	0x3202e04f	7.617998e-09
135	0x31afcf38	5.1167284e-09
136	0x321ae87b	9.01684e-09
137	0x316fada8	3.487779e-09
138	0x31ee14bc	6.929069e-09
139	0x31a2ebf1	4.741644e-09
140	0x310d9fd2	2.0609048e-09
141	0x325a8d7f	1.2721443e-08
142	0x30930afb	1.0698779e-09
143	0x3142dcea	2.835629e-09
144	0x304820d4	7.280623e-10
145	0x323f7bcb	1.11458105e-08
146	0x310f9c75	2.0898174e-09
147	0x313add40	2.7192328e-09
148	0x32003f34	7.464951e-09
149	0x318b2bc0	4.0504062e-09

exp_avg f4 [5]
0	0x2de3e0bb	2.5906713e-11
1	0x2e0a596f	3.1457e-11
2	0x2e03ad91	2.994011e-11
3	0x2ea1c138	7.355755e-11
4	0xaee87182	-1.05703016e-10

exp_avg_sq f4 [5]
0	0x273c7c23	2.6157536e-15
1	0x280b3cbc	7.72922e-15
2	0x26590249	7.5290096e-16
3	0x2462c25d	4.917057e-17
4	0x2582f115	2.271477e-16
