tutorial/DLPFC_output/version_2/checkpoints/mlp.ckpt (torch, 18997 bytes, 12 tensors)

model.classifier.0.weight f4 [30, 30]
0.09641245 -0.032381456 0.10018066 -0.124356546 0.06361354 0.16223027 -0.04263765 0.020430626
-0.02405723 0.034836534 -0.12983164 -0.12736467 0.028493403 0.043310657 0.10536744 -0.08688973
-0.22800681 -0.061912056 -0.18119502 -0.121495806 -0.10669784 0.21339262 0.003218673 0.045751423
0.056456864 0.1539059 0.09732956 0.16557118 0.06514205 0.029817024 0.045679174 0.03740513
0.1523578 -0.0036872514 -0.037085086 0.15021984 -0.057645954 0.06475511 -0.07241044 -0.12725063
0.010321324 -0.12605454 -0.0084071765 -0.074837126 0.15274549 -0.020027308 -0.24423884 0.040574405
-0.14651135 -0.04622931 -0.07879554 0.18485582 0.09006763 -0.0013403699 0.10953511 0.104395464
-0.028394803 -0.02178564 0.114118785 0.03820112 -0.060451414 0.07472244 0.0092588235 0.062497918
-0.09334334 0.100973055 0.06314623 0.048191335 0.067974985 -0.06941782 0.10422452 -0.031780813
0.0051100226 -0.06316462 0.018324347 -0.008776184 0.068456076 -0.020739947 0.09319785 -0.006685116
0.048781015 0.0650564 0.045557726 0.06299915 0.14484768 0.013980902 -0.11544017 -0.10011444
0.111356504 0.0086342525 0.012773403 0.18066256 0.114928745 0.10333508 -0.053460743 -0.14794575
-0.06553212 -0.062982045 -0.10735812 -0.23103818 0.105575174 0.048239525 0.014068891 -0.05597461
0.13783123 0.06394697 -0.008376491 0.15320285 -0.08756159 0.02581983 -0.0071632974 -0.110322356
0.14410944 -0.06087758 -0.006985551 -0.0720215 -0.03093772 -0.23084107 0.033666596 0.006648601
-0.07413046 -0.09947868 -0.19478671 0.02141128 -0.005420727 -0.08441142 0.086044356 0.013563496
0.08886813 0.14949876 0.047593474 0.10744072 -0.028248025 0.015042884 -0.1978183 0.024155179
0.22421823 -0.05337406 0.2295355 0.09664195 0.10016601 -0.1510899 -0.115590945 -0.0006972821
-0.079486765 -0.10312363 -0.047253814 0.024338422 -0.11518474 -0.03689372 -0.040493533 0.051390965
0.064368285 -0.006499714 -0.05359048 0.22264734 0.051883552 0.03747493 0.090974525 -0.047422156
-0.009462534 -0.10788388 0.018523242 -0.023016175 0.056484133 -0.03559176 -0.025598394 -0.06429284
0.0031412973 -0.073736586 0.004855013 0.1815562 0.049814925 0.10174709 0.204155 0.108914055
-0.061632313 -0.005746304 0.18176246 0.023254965 0.039706767 0.23579918 0.14315154 -0.007366577
0.06627239 -0.17622957 -0.061661553 -0.22631495 -0.02729667 -0.1480172 -0.08788509 0.057766885
0.11555022 0.13147044 0.1597917 0.001969832 0.104808316 0.063820794 -0.19718619 -0.13418804
-0.03183493 -0.10297152 0.11614074 0.02852318 -0.017878907 -0.0135649545 0.1502222 -0.11724985
0.060577635 -0.005258715 -0.045301184 0.14008929 0.018279238 -0.04213786 -0.009614076 0.110770114
0.10014463 -0.09457736 0.1721821 -0.031189712 -0.043214597 -0.02380969 0.07610081 0.08003856
0.033246525 -0.04404973 0.17711332 -0.10502204 0.04272915 -0.11197809 0.047077063 0.08086981
0.031376146 0.16942962 0.17964056 0.0662234 0.003103959 -0.027498081 0.1776299 -0.0035464782
0.03566474 0.11222085 0.048101235 -0.09547841 0.14268522 -0.12286484 -0.024536148 -0.20365055
0.057578653 0.064177744 -0.21693318 0.03322103 0.1235414 0.22076744 0.050546847 -0.06748344
00000000: e473 c53d 6ba2 04bd 852b cd3d a5ae febd
00000010: d147 823d b11f 263e d1a4 2ebd 215e a73c
00000020: ab13 c5bc c1b0 0e3d 96f2 04be e26b 02be
00000030: ff6a e93c 8466 313d e2ca d73d 3ef3 b1bd
00000040: 9e7a 69be 7f97 7dbd 308b 39be cbd2 f8bd
00000050: 6684 dabd 9883 5a3e 5ff0 523b d865 3b3d
00000060: 503f 673d 8299 1d3e b854 c73d 7e8b 293e
00000070: 3269 853d d542 f43c 161a 3b3d 1f36 193d
00000080: af03 1c3e d0a5 71bb 88e6 17bd 3bd3 193e
00000090: 2a1e 6cbd 549e 843d ed4b 94bd fd4d 02be
000000a0: c51a 293c 7114 01be 41be 09bc 3544 99bd
000000b0: 5069 1c3e 4f10 a4bc bf19 7abe 5931 263d
000000c0: 1207 16be f25a 3dbd 8e5f a1bd d84a 3d3e
000000d0: 6175 b83d 5aaf afba f253 e03d 4acd d53d
000000e0: 389c e8bc cc77 b2bc 1cb7 e93d c778 1c3d
000000f0: e79b 77bd 1408 993d 52b2 173c d1fd 7f3d
00000100: cb2a bfbd f6ca ce3d d052 813d 4764 453d
00000110: 7836 8b3d ee2a 8ebd aa73 d53d 992c 02bd
00000120: fa71 a73b 745c 81bd f11c 963c fcc9 0fbc
00000130: b332 8c3d d2e6 a9bc 84de be3d d10e dbbb
00000140: 9ace 473d 4a3c 853d bd9a 3a3d b305 813d
00000150: f352 143e 2710 653c e56b ecbd cd08 cdbd
00000160: e10e e43d ae76 0d3c 8947 513c 9bff 383e
00000170: c35f eb3d 58a1 d33d a7f9 5abd 177f 17be
00000180: b435 86bd bbfc 80bd 93de dbbd 4695 6cbe
00000190: cc37 d83d cf96 453d 3581 663c a245 65bd
000001a0: a123 0d3e a1f6 823d 8d3d 09bc 35e1 1c3e
000001b0: 7e53 b3bd 1c84 d33c 18ba eabb b0f0 e1bd
000001c0: 6d91 133e c55a 79bd 0de7 e4bb 0280 93bd
000001d0: 1a71 fdbc 9a61 6cbe fce5 093d 82dc d93b
000001e0: b6d1 97bd 7abb cbbd 2b76 47be b566 af3c
000001f0: 5ba0 b1bb e5df acbd 0638 b03d 6d39 5e3c
00000200: 7f00 b63d 3416 193e 60f1 423d e109 dc3d
00000210: 6768 e7bc 6e76 763c e190 4abe 15e1 c53c
00000220: 7799 653e c29e 5abd 5b0b 6b3e 37ec c53d
00000230: d623 cd3d 50b7 1abe f2ba ecbd cfc9 36ba
00000240: f5c9 a2bd 7b32 d3bd 378d 41bd 5f61 c73c
00000250: fae5 ebbd df1d 17bd 8cdc 25bd 557f 523d
00000260: 85d3 833d 8efb d4bb b181 5bbd aafd 633e
00000270: d983 543d 507f 193d da50 ba3d bc3d 42bd
00000280: bf08 1bbc 39f2 dcbd 0ebe 973c 6b8c bcbc
00000290: e85b 673d aac8 11bd b9b3 d1bc f7ab 83bd
000002a0: 39de 4d3b 3503 97bd cd16 9f3b dee9 393e
000002b0: bc0a 4c3d c760 d03d 020e 513e 550e df3d
000002c0: 2a72 7cbd 7e4b bcbb f01f 3a3e 3281 be3c
000002d0: 90a3 223d 5775 713e 5196 123e 5463 f1bb
000002e0: d2b9 873d 8675 34be d390 7cbd 1bbf 67be
000002f0: 449d dfbc d291 17be 19fd b3bd f89c 6c3d
00000300: 98a5 ec3d 30a0 063e 6fa0 233e 4c18 013b
00000310: bea5 d63d 7ab4 823d 2deb 49be 9768 09be
00000320: 5865 02bd bbe2 d2bd 32db ed3d 72a9 e93c
00000330: c976 92bc 8b3f 5ebc d9d3 193e b020 f0bd
00000340: 4120 783d 4c51 acbb bc8d 39bd 9173 0f3e
00000350: 57be 953c c098 2cbd 5c84 1dbc 71db e23d
00000360: a118 cd3d c6b1 c1bd 8150 303e 9181 ffbc
00000370: ca01 31bd 8a0c c3bc beda 9b3d 42eb a33d
00000380: 822d 083d 7d6d 34bd 325d 353e cc15 d7bd
00000390: c304 2f3d c554 e5bd e1d3 403d 129f a53d
000003a0: 4684 003d f57e 2d3e b2f3 373e 22a0 873d
000003b0: ca6b 4b3b a843 e1bc 9de4 353e 086c 68bb
000003c0: 3115 123d 0cd4 e53d cd05 453d 2f8a c3bd
000003d0: 131c 123e 90a0 fbbd 0800 c9bc c589 50be
000003e0: 98d7 6b3d 9f6f 833d bb23 5ebe c612 083d
000003f0: 4603 fd3d dc10 623e 360a 4f3d c234 8abd

model.classifier.0.bias f4 [30]
-2.9742026e-08 -6.9548214e-08 -4.7409262e-08 -2.9775402e-08 1.10288525e-07 5.717937e-08 7.175288e-08 9.56211e-10
-2.0647559e-07 9.238184e-09 5.9555964e-07 -2.533484e-08 -1.5208974e-07 -1.3956639e-08 -2.972947e-07 9.815677e-08
-5.4263114e-09 -9.939411e-08 8.384753e-08 -4.4576698e-08 -3.6499102e-08 2.4310172e-08 3.226068e-08 -8.632528e-09
-9.832869e-08 6.339243e-08 -4.97546e-08 5.474178e-08 -1.4043889e-07 1.0199102e-07
00000000: 687b ffb2 895a 95b3 099f 4bb3 cdc4 ffb2
00000010: c2d7 ec33 6295 7533 9016 9a33 af6b 8330
00000020: 94b3 5db4 f7b5 1e32 8cde 1f35 e79f d9b2
00000030: 1c4e 23b4 f3c5 6fb2 df9b 9fb4 41ca d233
00000040: 5772 bab1 7d72 d5b3 ab0f b433 9974 3fb3
00000050: 30c3 1cb3 a2d2 d032 fe8e 0a33 424e 14b2
00000060: c528 d3b3 5b22 8833 c3b1 55b3 391d 6b33
00000070: 8ccb 16b4 2806 db33

model.classifier.1.weight f4 [7, 30]
0.01299079 0.12980282 0.088402815 0.07192762 -0.091638334 0.15971793 -0.06462396 0.11329205
-0.22180718 -0.036087226 -0.0026885609 0.19582853 -0.089348294 0.15598123 -0.16132316 0.17152373
0.18905029 0.17099835 -0.13602015 -0.0013854979 -0.007336679 -0.046318486 -0.09286258 -0.004656128
-0.06422078 -0.15882231 0.15094644 -0.116259865 0.24123132 -0.22560617 -0.023547526 -0.08002243
0.108631365 -0.3947024 0.25479963 0.15508167 -0.52166235 0.045275394 -0.26577252 -0.46134612
-0.25940225 0.24933352 0.2620101 -0.1368731 -0.5410694 0.3715943 0.11637715 0.14968243
-0.19024512 0.34334123 0.47322318 0.34815943 -0.1997792 -0.09039087 0.11377829 0.45403215
0.5537299 -0.06386999 0.096874885 -0.2021326 -0.3495086 -0.381026 -0.036758374 -0.07305602
0.42359868 -0.24425136 -0.14906804 -0.09871738 -0.078978315 -0.34432623 -0.32431945 0.17804219
0.45027852 -0.47258195 -0.06723362 -0.19047342 0.020927958 0.15860401 -0.09094049 0.15640971
0.31833988 0.32519916 0.052365858 -0.3029843 -0.22489157 0.3844685 0.08093649 -0.07869285
-0.3596044 0.0096985595 0.3429309 0.26684433 -0.14792304 -0.10130178 -0.252405 0.005647573
-0.17744221 -0.2719602 -0.104963996 0.18725587 0.09080532 -0.05639243 -0.17388558 0.2062148
-0.10169992 0.120963566 -0.24929826 0.10860062 -0.059932996 0.10114731 -0.17255843 -0.042287774
-0.061707493 0.17658834 0.26697204 -0.11839637 0.06390907 0.16321443 0.26287985 0.13528435
0.058128268 -0.23122717 -0.32697234 -0.19772471 0.1366232 -0.25035408 0.084679976 -0.11827144
0.31863016 0.043982252 0.022018334 -0.27786073 0.2427932 -0.22246191 0.22014377 -0.21067719
-0.34313402 -0.24798448 0.18117368 -0.073820546 -0.12271979 0.099975206 0.11068882 0.040418476
0.17487861 0.19806705 -0.23636802 0.19682997 -0.35641813 0.3685576 0.3069506 0.03894462
0.047930617 -0.26711008 -0.10034294 0.26078102 0.120595485 0.3865454 0.39510834 0.13847578
0.19096437 -0.345209 -0.10639613 0.12358323 0.05549924 0.24982171 -0.09756045 -0.40445843
0.38432735 -0.07443091 -0.35009447 -0.105714545 -0.122535005 0.34226707 0.35051644 -0.06364713
-0.12850669 0.120928824 -0.028076576 -0.035892494 -0.13347526 -0.009758687 0.03836846 0.19591653
-0.048470326 0.042761985 0.21385834 0.07171741 0.07312595 0.08792766 0.07585517 -0.040816847
-0.10215227 0.06261773 0.17023328 -0.13518675 0.11422053 -0.11445858 0.027642827 -0.16348882
0.013428209 -0.14742443 0.0981301 -0.049647246 -0.14583324 -0.12491934 -0.13834052 -0.053945284
-0.04597402 -0.0037431617
00000000: 53d7 543c 08eb 043e 890c b53d ca4e 933d
00000010: e1ac bbbd 198d 233e 9159 84bd aa05 e83d
00000020: 6c21 63be 33d0 13bd 9132 30bb 4687 483e
00000030: 3dfc b6bd 8bb9 1f3e e631 25be eba3 2f3e
00000040: 6696 413e 311a 2f3e de48 0bbe 9899 b5ba
00000050: 8668 f0bb 74b8 3dbd bd2e bebd 6f92 98bb
00000060: 2f86 83bd 51a2 22be b491 1a3e a719 eebd
00000070: 5805 773e 4e05 67be bee6 c0bc cde2 a3bd
00000080: 1f7a de3d 6f16 cabe 1975 823e bbcd 1e3e
00000090: aa8b 05bf b172 393d 5613 88be 8f35 ecbe
000000a0: 5fd0 84be 4951 7f3e 3026 863e 7628 0cbe
000000b0: 8683 0abf 9c41 be3e 2557 ee3d 5a46 193e
000000c0: 9ecf 42be 6cca af3e 4f4a f23e f441 b23e
000000d0: eb92 4cbe d91e b9bd 9804 e93d e776 e83e
000000e0: 3ec1 0d3f 45ce 82bd 5766 c63d d9fb 4ebe
000000f0: cbf2 b2be d715 c3be f38f 16bd 659e 95bd
00000100: ede1 d83e 071d 7abe 4ba5 18be 562c cabd
00000110: 62bf a1bd 874b b0be 330d a6be b150 363e
00000120: e88a e63e 43f6 f1be c8b1 89bd 770b 43be
00000130: 1c71 ab3c 1769 223e 023f babd de29 203e
00000140: 72fd a23e 8180 a63e 957d 563d c220 9bbe
00000150: fa49 66be 0ed9 c43e 08c2 a53d b829 a1bd
00000160: 111e b8be b5e6 1e3c a494 af3e d29f 883e
00000170: 2379 17be 4f77 cfbd 3a3b 81be 470f b93b
00000180: 69b3 35be 5e3e 8bbe 5df7 d6bd 01c0 3f3e
00000190: 24f8 b93d c0fb 66bd 100f 32be f929 533e
000001a0: 0c48 d0bd bfbb f73d 0b48 7fbe 006a de3d
000001b0: 4d7c 75bd 5226 cf3d 28b3 30be f235 2dbd
000001c0: ffc0 7cbd 93d3 343e 8fb0 883e cc79 f2bd
000001d0: c2e2 823d af21 273e 3098 863e fb87 0a3e
000001e0: e817 6e3d d1c6 6cbe eb68 a7be 5978 4abe
000001f0: f4e6 0b3e 692e 80be b26c ad3d 4c38 f2bd
00000200: 7e23 a33e bc26 343d cb5f b43c c343 8ebe
00000210: c89e 783e 0ecd 63be 5e6d 613e c3bb 57be
00000220: 43af afbe a5ef 7dbe 9885 393e 3a2f 97bd
00000230: 8354 fbbd cdbf cc3d d2b0 e23d d88d 253d
00000240: 6113 333e 17d2 4a3e 750a 72be cc8d 493e
00000250: 707c b6be 95b3 bc3e a128 9d3e 6584 1f3d
00000260: e552 443d a7c2 88be 9980 cdbd 1785 853e
00000270: c4fa f63d 47e9 c53e a44b ca3e 98cc 0d3e
00000280: 2a8c 433e 3cbf b0be 37e6 d9bd 3419 fd3d
00000290: 2c53 633d 43d1 7f3e c6cd c7bd 2d15 cfbe
000002a0: 8ec6 c43e 3c6f 98bd 953f b3be de80 d8bd
000002b0: a2f3 fabd a13d af3e e476 b33e 6d59 82bd
000002c0: 4297 03be 88a9 f73d d900 e6bc 0204 13bd
000002d0: bdad 08be e6e2 1fbc 3f28 1d3d 589e 483e
000002e0: d288 46bd 3127 2f3d aefd 5a3e 94e0 923d
000002f0: 0fc3 953d 6b13 b43d f559 9b3d 912f 27bd
00000300: 3635 d1bd b93d 803d a251 2e3e 656e 0abe
00000310: 74ec e93d 4369 eabd 3673 e23c 9d69 27be
00000320: fe01 5c3c 6ef6 16be 6ff8 c83d e95a 4bbd
00000330: 4f55 15be b6d5 ffbd 23a9 0dbe bbf5 5cbd
00000340: 414f 3cbd d54f 75bb

model.classifier.1.bias f4 [7]
-2.1442642e-07 2.6946466e-07 -1.1009532e-07 -2.3636585e-07 -3.0108234e-07 -5.2600336e-07 -1.3803212e-07
00000000: 163d 66b4 f1aa 9034 8b6d ecb3 c0cb 7db4
00000010: 71a4 a1b4 ad32 0db5 fb35 14b4

exp_avg f4 [30, 30]
2.2790728e-06 -1.2973435e-07 -2.0802238e-06 1.5746233e-06 4.2789816e-07 4.2251213e-06 2.7523968e-06 1.900801e-06
2.4690753e-06 4.167224e-07 -1.3572322e-06 7.488395e-07 1.9332945e-06 -1.6074627e-06 -5.777732e-07 -5.7806125e-07
-8.5491337e-07 -1.0453973e-06 1.2988208e-06 -8.578255e-07 2.0036364e-06 3.825804e-07 6.972913e-07 1.730271e-06
1.818005e-07 2.793471e-06 1.3741349e-06 1.1261171e-06 3.154301e-07 1.3986114e-06 2.1088508e-07 -2.817324e-08
-2.4458848e-06 2.7897033e-06 6.883105e-08 2.4735255e-06 2.6902226e-06 1.4914706e-06 2.4515255e-06 -1.1369028e-07
-1.890197e-07 8.818709e-07 9.301321e-07 -2.4360613e-06 -1.3797934e-07 6.1398225e-07 7.3441544e-07 -6.33421e-07
1.4858256e-06 4.599166e-08 2.6364348e-06 -3.162936e-07 5.3474434e-07 7.3202756e-07 -4.44091e-07 1.4409454e-06
6.573544e-07 -1.1706303e-06 7.1665465e-07 8.0737186e-07 -6.143987e-07 6.589129e-07 -6.7720373e-07 1.606459e-06
1.3968263e-07 6.493782e-07 1.09307685e-07 8.85942e-07 -3.3651688e-07 -2.4717468e-07 1.0864106e-06 -5.538781e-07
-4.6155316e-07 -8.7824094e-07 2.6614651e-07 -2.7706915e-07 -4.4872743e-07 -9.423252e-07 1.1651785e-07 4.0886192e-08
5.211863e-07 5.7375166e-07 2.3846692e-07 -1.452339e-07 1.7886023e-08 5.3603935e-07 -4.7626298e-07 -7.582216e-07
1.1134593e-06 -2.0252713e-07 -6.2001146e-07 1.3483708e-06 -1.8885326e-06 -8.82369e-07 -6.326514e-07 -2.8773445e-06
2.5060206e-06 -1.2510045e-06 2.2419501e-06 2.4118225e-07 2.0745424e-06 1.959757e-06 5.546549e-07 -1.2015173e-06
1.2375855e-06 1.4384688e-06 4.5594934e-06 1.0596275e-06 1.6407134e-06 6.524066e-07 1.8143317e-06 -2.9857667e-06
1.2901104e-07 2.4950447e-07 -3.076457e-07 -2.0283226e-06 -1.0788584e-06 -2.6135172e-06 -7.6394633e-07 -8.4630915e-07
-1.0982817e-06 -6.8202314e-07 2.8272168e-06 -2.3105993e-06 -8.841546e-08 -2.4728179e-06 -4.1359576e-06 -9.1108524e-07
-3.8983935e-06 -1.4513115e-07 4.017818e-07 -1.609695e-06 -1.9587612e-06 2.492918e-06 -5.8866543e-09 -1.0261898e-06
-2.7219346e-06 2.7424966e-07 -2.1258686e-06 4.2272535e-07 -3.3372696e-06 9.39664e-07 -7.637303e-07 -1.4001595e-06
3.7870797e-07 -1.2276313e-06 -7.3942516e-07 1.322962e-06 -9.5317795e-08 -8.288287e-07 1.331201e-07 7.233055e-08
-1.5436927e-06 3.4824507e-06 5.686921e-07 3.5557443e-06 1.2009573e-06 2.0533896e-06 8.6154296e-07 3.7794692e-07
-9.2671286e-07 -5.490652e-07 4.4660337e-07 -1.5978812e-06 -6.0847884e-07 -4.5809355e-07 -8.8472103e-07 -1.7971328e-06
3.5937782e-07 -9.524103e-07 1.7937211e-06 1.2449559e-06 8.1228643e-07 3.8503956e-07 2.6694133e-07 2.4566828e-06
5.9894023e-07 7.3381557e-07 1.5139917e-06 7.645255e-07 1.4767511e-06 1.1209901e-06 -1.6256245e-06 -2.0123023e-06
-1.7534855e-07 5.220302e-07 4.3958667e-06 -1.9448905e-06 4.3819455e-06 1.4726567e-08 8.072314e-07 2.4580409e-06
3.5504138e-06 -6.2025924e-07 1.002784e-06 1.1209448e-06 6.26095e-06 1.0998383e-06 2.3980258e-06 -6.392761e-07
2.5182057e-06 -2.3742277e-06 7.4314e-07 2.1039527e-06 4.65315e-07 -2.0984652e-07 -8.7152564e-08 -1.9211761e-06
-1.5057544e-06 -2.5079478e-07 1.3218952e-06 1.5082504e-06 -1.1104775e-06 9.470124e-07 7.344546e-07 2.1272958e-06
1.5764956e-06 4.6016487e-07 1.3170614e-06 -1.3676194e-08 -3.0848037e-07 -1.5971418e-07 1.1859145e-06 -6.845345e-07
-2.987074e-07 -6.048476e-07 3.6702974e-07 -1.5288668e-06 3.8435226e-07 -1.5196101e-06 1.6604939e-06 1.4170399e-06
6.2423607e-07 1.268666e-06 8.3236426e-07 2.1218898e-06 5.3296816e-07 1.7132179e-06 6.4303896e-07 3.0759273e-07
2.330147e-06 6.8520546e-07 -7.01062e-07 -1.3840063e-06 5.287837e-07 1.0425154e-06 2.6894143e-06 -2.573109e-07
3.0535389e-06 -7.2230614e-07 -1.0165562e-06 1.1847306e-06 3.056983e-06 3.5169867e-07 2.121024e-07 -2.655492e-07
00000000: 2cf2 1836 1b4d 0bb4 f999 0bb6 a557 d335
00000010: e0b9 e534 84c5 8d36 d1b5 3836 061f ff35
00000020: 64b2 2536 e4b9 df34 252a b6b5 dc03 4935
00000030: bfbd 0136 ffbf d7b5 4618 1bb5 112c 1bb5
00000040: 337d 65b5 944f 8cb5 2553 ae35 5245 66b5
00000050: 3676 0636 7365 cd34 7e2d 3b35 a93b e835
00000060: f134 4334 7777 3b36 ea6e b835 1725 9735
00000070: 6258 a934 ecb7 bb35 a66f 6234 9c01 f2b2
00000080: fb23 24b6 bd36 3b36 45d0 9333 d8fe 2536
00000090: ac89 3436 8a2e c835 e384 2436 e425 f4b3
000000a0: 57f5 4ab4 b5b9 6c35 31ae 7935 377b 23b6
000000b0: 7927 14b4 8ad0 2435 a524 4535 5c08 2ab5
000000c0: 946c c735 5d88 4533 9bed 3036 10cf a9b4
000000d0: 5a8b 0f35 8d80 4435 676b eeb4 8266 c135
000000e0: 0d75 3035 8d1e 9db5 2260 4035 2cba 5835
000000f0: 28ed 24b5 26e0 3035 16c9 35b5 839d d735
00000100: abfb 1534 ee50 2e35 89bc ea33 78d1 6d35
00000110: 87aa b4b4 6eb3 84b4 c9d0 9135 37ae 14b5
00000120: 62cb f7b4 42c0 6bb5 e6e2 8e34 18c0 94b4
00000130: a1e8 f0b4 18f4 7cb5 5e38 fa33 d89a 2f33
00000140: a6e7 0b35 ea03 1a35 a506 8034 97f1 1bb4
00000150: c8a3 9932 58e4 0f35 16b1 ffb4 9788 4bb5
00000160: 2c72 9535 3c76 59b4 dd6e 26b5 abf9 b435
00000170: 7c79 fdb5 f0db 6cb5 79d3 29b5 6718 41b6
00000180: 1b2d 2836 30e8 a7b5 6974 1636 d67b 8134
00000190: 5e38 0b36 5e84 0336 98e3 1435 d243 a1b5
000001a0: 1d1b a635 6911 c135 c0fd 9836 8638 8e35
000001b0: 7c36 dc35 0a21 2f35 f683 f335 155f 48b6
000001c0: 4986 0a34 a2f3 8534 812a a5b4 511e 08b6
000001d0: 4bcd 90b5 e263 2fb6 fe11 4db5 ec2d 63b5
000001e0: ac68 93b5 4614 37b5 37bb 3d36 cb0f 1bb6
000001f0: eade bdb3 b0f2 25b6 9bc7 8ab6 4d91 74b5
00000200: f2ce 82b6 59d5 1bb4 78b4 d734 b30c d8b5
00000210: 4373 03b6 014c 2736 8f43 cab1 9dbb 89b5
00000220: 7baa 36b6 963c 9334 25aa 0eb6 eef2 e234
00000230: dbf5 5fb6 383d 7c35 2603 4db5 1ded bbb5
00000240: 3a51 cb34 17c5 a4b5 e97c 46b5 a190 b135
00000250: 83b1 ccb3 ad7c 5eb5 c6ef 0e34 2454 9b33
00000260: e130 cfb5 0cb4 6936 39a8 1835 399f 6e36
00000270: 9430 a135 f7cc 0936 c844 6735 a1e8 ca34
00000280: 39c3 78b5 7963 13b5 b3c4 ef34 c876 d6b5
00000290: 5956 23b5 e6ef f5b4 917d 6db5 0335 f1b5
000002a0: 83f0 c034 23a9 7fb5 cabf f035 5c18 a735
000002b0: e60b 5a35 6fb7 ce34 2350 8f34 7ddd 2436
000002c0: dcc6 2035 6cfb 4435 5c34 cb35 cb39 4d35
000002d0: c834 c635 ed74 9635 0830 dab5 170b 07b6
000002e0: 7147 3cb4 a421 0c35 3580 9336 f784 02b6
000002f0: a008 9336 2000 7d32 85b0 5835 d2f4 2436
00000300: a543 6e36 e47f 26b5 6597 8635 5f73 9635
00000310: 2715 d236 289e 9335 c5ed 2036 b89a 2bb5
00000320: 72fe 2836 ec54 1fb6 317c 4735 a231 0d36
00000330: 68d0 f934 2c52 61b4 a128 bbb3 8eed 00b6
00000340: 5419 cab5 f9a4 86b4 f96b b135 176f ca35
00000350: b70b 95b5 3236 7e35 5627 4535 aac2 0e36
00000360: fa97 d335 940c f734 e3c5 b035 8af4 6ab2
00000370: 389d a5b4 e67d 2bb4 b62b 9f35 dac0 37b5
00000380: 085e a0b4 d05c 22b5 2f0c c534 7733 cdb5
00000390: f958 ce34 68f5 cbb5 23de de35 1f31 be35
000003a0: 2d91 2735 0847 aa35 a36f 5f35 ca65 0e36
000003b0: 4b11 0f35 b8f1 e535 4d9d 2c35 3923 a534
000003c0: 9f5f 1c36 f6ee 3735 9d30 3cb5 18c2 b9b5
000003d0: bdf1 0d35 8eec 8b35 c97b 3436 8a24 8ab4
000003e0: 66eb 4c36 80e4 41b5 9b70 88b5 0903 9f35
000003f0: 9126 4d36 19d1 bc34 44be 6334 ce90 8eb4

exp_avg_sq f4 [30, 30]
3.0663055e-10 3.044151e-10 1.01789514e-10 1.8363104e-10 2.3718345e-11 2.0245323e-10 4.7933827e-11 2.0466627e-10
8.243486e-11 5.176158e-11 1.01549685e-10 1.5391771e-10 2.6069437e-11 7.3379594e-11 9.124157e-11 9.0593706e-11
6.1327826e-10 5.1634676e-11 1.658192e-10 1.02851755e-10 1.039373e-10 4.8498555e-10 5.72301e-11 5.793659e-11
9.6521235e-11 1.1718031e-10 4.6147103e-11 1.6497559e-10 1.5196401e-10 2.5790974e-11 3.331816e-11 4.3833534e-11
1.775167e-10 4.3371244e-11 2.6485555e-11 1.3729953e-10 2.0439286e-11 8.323466e-11 1.00879076e-10 3.0664606e-11
2.9879797e-11 4.1851755e-11 8.054599e-12 3.0893135e-11 5.5573973e-11 2.1050427e-11 2.2249642e-10 3.0240258e-11
1.127806e-10 1.4217037e-11 4.1213623e-11 8.22389e-11 3.476454e-11 3.5211174e-11 2.3953756e-11 1.00537564e-10
1.9870038e-11 5.4811038e-11 4.3694454e-11 1.372873e-11 2.625604e-11 4.4002028e-11 2.9597037e-11 8.189256e-11
5.2808386e-11 6.583889e-11 1.7778527e-11 6.811004e-11 1.5357896e-11 5.8132405e-11 4.7106936e-11 1.6530449e-11
7.313265e-12 2.2643462e-11 3.2391534e-11 2.6471795e-11 4.0467796e-11 1.3810674e-11 4.572503e-11 1.626443e-11
5.9413555e-12 2.5858956e-11 1.8127316e-11 2.994932e-11 4.758219e-11 2.1692838e-11 4.7400743e-11 8.000097e-11
7.247674e-11 1.031066e-11 2.848722e-10 4.397101e-10 3.868469e-10 1.2723173e-10 7.0151544e-11 1.296874e-10
4.2224613e-11 2.936565e-10 9.6017846e-11 5.234905e-10 5.6667938e-11 6.312088e-11 2.4323566e-11 5.0979453e-11
2.8694339e-10 1.1344778e-10 3.6002729e-10 1.3775993e-10 6.4144065e-11 7.487598e-11 5.086217e-11 1.8885621e-10
8.6045976e-11 7.7083534e-11 2.0361059e-10 8.406494e-11 1.03283215e-10 7.5266327e-10 7.0404044e-10 2.6893043e-11
4.0902507e-11 5.731004e-11 1.5861029e-10 5.058414e-11 9.647144e-11 3.035488e-10 2.7414654e-11 2.0731594e-10
1.3511531e-10 1.736886e-10 7.161269e-11 1.2282361e-10 1.6967228e-11 1.4517582e-10 6.087396e-11 1.762987e-11
3.9878487e-10 1.8917975e-11 1.0592542e-10 5.4750673e-11 8.659273e-11 1.8125619e-10 9.0120696e-11 2.7958021e-11
1.5241883e-10 5.230004e-11 1.02805826e-10 9.15869e-11 2.4043165e-10 1.8271726e-11 1.0128018e-10 1.6286394e-10
9.5653624e-11 1.06201575e-10 2.4434333e-11 1.02313824e-10 4.512652e-11 8.6107274e-11 1.06964895e-10 5.088623e-11
7.605033e-11 3.397457e-11 2.5489794e-11 3.6417796e-11 3.7620015e-11 6.400186e-11 1.485295e-10 6.757252e-11
1.0025716e-10 1.2130921e-10 2.88885e-11 1.6200499e-10 5.990493e-11 8.534316e-11 6.364842e-11 5.7988093e-11
2.9687478e-11 1.2987957e-10 9.676458e-11 1.4290216e-11 4.3916384e-10 6.309048e-10 1.9297791e-10 1.9766952e-10
8.7967356e-11 1.0116344e-09 1.1148431e-10 4.6236714e-10 1.4040359e-10 1.9428076e-10 2.3777952e-10 1.2107353e-10
1.0060384e-10 1.9379232e-10 1.3749978e-10 1.10380975e-10 7.258922e-10 7.8011986e-11 4.1169315e-10 4.3479925e-10
1.449865e-10 2.9289235e-10 1.0442569e-10 9.910938e-11 1.262538e-10 1.1028557e-10 1.3542857e-10 2.8607344e-10
2.6116978e-10 3.7804804e-11 1.0228522e-10 2.7649602e-10 9.289825e-11 3.4354138e-11 3.0200016e-11 2.012002e-10
3.3590675e-11 2.1433649e-10 1.6424134e-10 1.518549e-10 1.8084494e-11 3.557091e-11 1.31918955e-11 6.1590934e-11
6.480575e-11 6.607573e-11 3.097266e-10 6.6391725e-11 2.8692555e-11 5.3039132e-11 5.3330618e-11 1.5235804e-10
1.9211696e-11 9.557291e-11 1.1130409e-10 8.492367e-11 3.6652237e-11 5.132233e-10 2.1862538e-10 2.427572e-11
1.6414445e-10 2.9373162e-10 2.4552957e-10 1.2041142e-10 2.4633504e-10 8.895592e-10 8.147562e-11 3.5432032e-10
1.2467131e-10 8.905938e-10 1.7349239e-10 1.262413e-10 5.00829e-11 2.0526274e-10 2.606082e-10 5.9139874e-11
00000000: 6a92 a82f 9e5a a72f 67d6 df2e 8be7 492f
00000010: f7a0 d02d 8599 5e2f b1d0 522e 6f08 612f
00000020: b346 b52e 5ca6 632e 644f df2e fc3b 292f
00000030: 274f e52d 0a5d a12e 70a4 c82e b937 c72e
00000040: 9f93 2830 7a17 632e f551 362f 642c e22e
00000050: 808f e42e d34f 0530 5db3 7b2e cdce 7e2e
00000060: a040 d42e 53d7 002f 05f5 4a2e 8064 352f
00000070: 1116 272f 1cdc e22d ea88 122e 2cc8 402e
00000080: 822e 432f aebf 3e2e 2bf8 e82d 62f6 162f
00000090: 2ec9 b32d f308 b72e dfd5 dd2e 47dd 062e
000000a0: a969 032e e310 382e b0b2 0d2d 94de 072e
000000b0: bb6a 742e 5929 b92d 2da3 742f 81ff 042e
000000c0: d501 f82e d81b 7a2d 6a42 352e 63d8 b42e
000000d0: 64e5 182e 42dc 1a2e 10b3 d22d 9e15 dd2e
000000e0: 59c7 ae2d be0f 712e 952b 402e b484 712d
000000f0: 59f3 e62d e185 412e 4d2b 022e 6a15 b42e
00000100: f540 682e 00c8 902e af61 9c2d 8bc6 952e
00000110: e816 872d 45ab 7f2e b22d 4f2e 4367 912d
00000120: 04a8 002d 8b2c c72d a075 0e2e 2fd9 e82d
00000130: b0fa 312e bff5 722d cf19 492e 3e10 8f2d
00000140: f90a d12c 3175 e32d 1673 9f2d f0b7 032e
00000150: c944 512e eecf be2d 7e78 502e 8bec af2e
00000160: c760 9f2e 1663 352d 339c 9c2f b2bb f12f
00000170: dcab d42f 8ce4 0b2f cf43 9a2e c297 0e2f
00000180: b0b4 392e 7a70 a12f 3e25 d32e 5ee5 0f30
00000190: 6d3a 792e e5cd 8a2e cdf3 d52d c335 602e
000001a0: b1bf 9d2f 6c79 f92e 56ed c52f f977 172f
000001b0: e60d 8d2e 6ea7 a42e b6b1 5f2e 4ca6 4f2f
000001c0: 9437 bd2e 2c82 a92e 49df 5f2f 5bdc b82e
000001d0: 481f e32e f8e3 4e30 7186 4130 c08d ec2d
000001e0: 21e4 332e 5e0d 7c2e d464 2e2f ae78 5e2e
000001f0: 9824 d42e b2e0 a62f 5024 f12d 40f2 632f
00000200: 948f 142f fff8 3e2f 5c7a 9d2e c60b 072f
00000210: cd3e 952d 5c9f 1f2f fedc 852e f012 9b2d
00000220: fb3b db2f 7e67 a62d b6ee e82e c7cb 702e
00000230: 606b be2e 154b 472f 712d c62e deeb f52d
00000240: 1696 272f 9c04 662e 8912 e22e d766 c92e
00000250: bf2d 842f 45b8 a02d acb7 de2e 2012 332f
00000260: 3458 d22e 2c8a e92e 3aed d62d 90fd e02e
00000270: f277 462e 165a bd2e e237 eb2e cdcc 5f2e
00000280: 883c a72e f76b 152e ea35 e02d cb2a 202e
00000290: 5f74 252e d8bd 8c2e 564f 232f f297 942e
000002a0: c377 dc2e 8261 052f 1e1b fe2d 5a20 322f
000002b0: 7abb 832e eeab bb2e e0f6 8b2e ca08 7f2e
000002c0: 2191 022e d9cd 0e2f 9ec9 d42e 6965 7b2d
000002d0: d16e f12f fa6b 2d30 742e 542f 0657 592f
000002e0: 3871 c12e b909 8b30 1628 f52e 6430 fe2f
000002f0: 1960 1a2f 2c9d 552f 7eb8 822f 2b1f 052f
00000300: ed3a dd2e b013 552f bf2e 172f f7ba f22e
00000310: 1f88 4730 d88c ab2e a954 e22f 8e08 ef2f
00000320: 126a 1f2f ef04 a12f 70a2 e52e 9ff1 d92e
00000330: 49d1 0a2f 4285 f22e c1e7 142f 4245 9d2f
00000340: 6194 8f2f 6d44 262e 76ed e02e 5b01 982f
00000350: 1149 cc2e 5217 172e 32d2 042e d238 5d2f
00000360: bdbb 132e 5caa 6b2f d495 342f 5bf7 262f
00000370: a912 9f2d 4971 1c2e 0413 682d 9d70 872e
00000380: 6582 8e2e 544d 912e 2546 aa2f 38ff 912e
00000390: e461 fc2d c144 692e f08c 6a2e fa84 272f
000003a0: e5fc a82d c42a d22e a2c2 f42e c7bf ba2e
000003b0: c032 212e e112 0d30 9361 702f 1088 d52d
000003c0: 8e7a 342f 0d7b a12f 37fb 862f cd64 042f
000003d0: 936c 872f 2a85 7430 b22a b32e 27ca c22f
000003e0: db13 092f f8cd 7430 c4c1 3e2f c4cd 0a2f
000003f0: 5544 5c2e 53b0 612f 5845 8f2f ca0c 822e

exp_avg f4 [30]
7.1063277e-12 -1.48923e-12 -8.310327e-12 -1.5438811e-12 -1.1616567e-12 -2.6632737e-12 1.8817134e-13 -3.8633645e-12
-1.2083131e-12 8.381985e-12 -4.143022e-12 -8.802419e-12 7.595944e-12 5.820755e-12 -7.754828e-12 1.3750991e-12
-1.1548241e-11 -7.8706905e-14 2.5085537e-12 -9.763097e-13 -1.3322345e-11 -6.826679e-13 -4.7317315e-13 -8.766591e-12
-4.5760386e-14 -2.7035383e-12 -1.0693682e-11 4.5636333e-12 -5.9601655e-12 8.226725e-12
00000000: 1c08 fa2c 2a97 d1ab 6332 12ad 2e48 d9ab
00000010: 187d a3ab 4669 3bac b2dc 532a 18ee 87ac
00000020: 110e aaab 1b75 132d 06c5 91ac 92da 1aad
00000030: 17a1 052d b3cc cc2c a46c 08ad 2b87 c12b
00000040: a728 4bad 713b b1a9 1686 302c 4467 89ab
00000050: 825e 6aad 6827 40ab b82f 05ab 3739 1aad
00000060: 2216 4ea9 9e3e 3eac 1020 3cad 8e91 a02c
00000070: 66b4 d1ac e0b9 102d

exp_avg_sq f4 [30]
5.754536e-13 9.342782e-14 7.155705e-13 7.983763e-13 8.7382406e-14 9.713624e-14 5.1968933e-12 5.156839e-12
2.8155373e-14 6.4363125e-13 8.694818e-18 1.5972241e-13 4.7545954e-15 2.4986846e-12 1.6750073e-14 2.5114312e-14
2.8790723e-13 3.4688983e-12 6.0571847e-12 6.265253e-13 6.879375e-13 2.4444777e-13 1.9238133e-12 6.9507502e-15
4.3509934e-14 5.238336e-13 2.9567703e-13 6.9443054e-12 4.621454e-13 1.2022041e-12
00000000: cdf9 212b 7961 d229 4a6a 492b 13b9 602b
00000010: 87c4 c429 3bbb da29 74d9 b62c ad70 b52c
00000020: df99 fd28 852a 352b 1e64 2023 dad4 332a
00000030: 674d ab27 4dd4 2f2c 0adf 9628 a935 e228
00000040: ce13 a22a 1e1a 742c 451e d52c e859 302b
00000050: 1fa3 412b a39c 892a 5760 072c 5b6d fa27
00000060: 8af3 4329 3072 132b 8d73 a62a be54 f42c
00000070: 1615 022b f831 a92b

exp_avg f4 [7, 30]
7.2440037e-07 -2.1824644e-06 -6.9839157e-06 -6.2967626e-07 2.3945316e-07 -1.4553729e-06 5.2240426e-07 1.0338275e-06
-3.8231545e-07 4.991386e-07 1.6570654e-07 6.0460417e-07 4.202283e-06 -1.0249416e-06 1.1031514e-06 -8.6679495e-07
-2.0070083e-06 8.3186694e-07 -2.3354829e-07 -3.2797038e-06 -4.45362e-06 4.0297357e-07 2.1753151e-07 6.588361e-08
4.808273e-07 -2.6472244e-06 -2.453687e-06 5.497109e-07 -1.0734834e-06 1.0846665e-06 5.1426223e-06 5.9269328e-06
-1.1336193e-06 -2.3599796e-06 -5.1168017e-06 3.0466904e-06 -3.847128e-06 -3.238916e-06 -2.3742573e-06 1.9669453e-06
2.2343238e-06 -6.5794825e-07 -5.1724855e-06 6.5842896e-06 -3.5476896e-06 3.94773e-06 -1.3958438e-06 -7.8118643e-07
-2.5043353e-06 7.743053e-07 2.1086162e-06 -1.7081162e-06 -1.2810507e-06 2.7656888e-06 4.7119233e-06 -8.6523266e-07
4.1238577e-06 2.0057175e-06 6.9571647e-06 1.8077621e-06 3.1124057e-06 2.1382843e-06 -3.39312e-06 2.8980235e-06
-4.3645405e-06 -2.5389563e-06 3.629755e-06 -3.753547e-06 2.0278924e-06 7.18875e-06 2.2048628e-06 -2.9759897e-06
-2.958946e-06 1.0102422e-06 5.269119e-06 -4.105285e-06 -4.69713e-06 4.9018774e-07 2.079763e-06 -2.065849e-06
-9.354774e-06 -3.22694e-06 1.6995391e-06 2.2182207e-06 8.097091e-07 -6.8474565e-06 -6.5418403e-06 2.534665e-06
-3.9874627e-07 3.3778092e-06 1.890309e-06 1.2689245e-06 -1.1200306e-06 -5.508785e-07 -1.8552008e-06 8.104596e-07
-9.237275e-07 -1.8119134e-06 -3.8939467e-07 2.0022223e-06 -2.8693745e-07 -7.2713607e-07 -1.0311302e-06 7.9163505e-07
-2.878043e-07 2.9876358e-07 -2.0268221e-06 9.225898e-07 1.9491698e-07 8.8331933e-07 -1.9602717e-06 -4.5888513e-07
-3.7233644e-07 1.1953372e-06 1.4582416e-06 -1.3385318e-06 -6.660102e-07 1.1461216e-06 1.4428433e-06 7.7713173e-07
1.8643207e-06 -1.241982e-06 -5.291658e-06 -2.7390242e-06 1.828868e-08 -6.2371487e-07 7.20459e-07 6.054097e-07
1.984279e-06 4.353465e-07 1.2994526e-06 -2.1073997e-06 1.952439e-06 6.5800947e-07 1.1372448e-06 -1.3685576e-07
-2.4586664e-06 -2.6640323e-06 1.1658724e-07 -1.9951553e-06 -1.8671003e-06 2.510028e-07 3.8881876e-07 1.086569e-06
2.8631496e-06 4.6601846e-07 -1.2118285e-06 1.5487715e-06 -1.0884132e-06 3.1860184e-06 5.1294537e-06 2.6748983e-06
9.290391e-07 -2.5713266e-06 -3.0916e-06 3.5396095e-06 -3.0613478e-07 2.4523379e-06 2.3298899e-06 2.6715452e-06
2.054464e-06 -2.8062416e-06 -2.9683715e-06 2.609657e-06 -7.8756835e-07 3.587155e-06 -1.9270005e-06 -1.5364368e-06
3.5352114e-06 5.561379e-07 -5.6284307e-06 -1.489218e-06 -2.105188e-06 4.49224e-06 4.221878e-06 -3.0468732e-06
-6.502025e-07 1.5157605e-06 2.2179863e-06 -1.096551e-06 -1.543792e-06 -1.8763319e-07 -4.7722335e-07 7.875509e-09
-4.0413664e-07 4.126089e-06 1.597184e-07 9.513127e-07 4.9024976e-07 -3.929956e-07 7.02337e-07 -8.3394787e-07
-9.738305e-07 1.7086724e-06 -6.246777e-07 5.8043554e-08 1.7146475e-06 -3.633031e-06 -2.0794187e-07 -1.1857559e-06
3.5194616e-06 -1.2700982e-06 7.406882e-07 -7.660892e-07 -4.410826e-08 5.449329e-07 7.8124475e-07 -9.647487e-08
-1.6682235e-07 -1.7892555e-07
00000000: 6a74 4235 7476 12b6 6157 eab6 0607 29b5
00000010: 318e 8034 3b56 c3b5 593b 0c35 0bc2 8a35
00000020: 0941 cdb4 8bfc 0535 11ed 3134 154c 2235
00000030: 5601 8d36 ba90 89b5 fe0f 9435 b2ad 68b5
00000040: 24b0 06b6 764d 5f35 44c5 7ab4 e218 5cb6
00000050: 4e70 95b6 4458 d834 9b92 6934 e67b 8d33
00000060: 3312 0135 f8a6 31b6 06aa 24b6 d88f 1335
00000070: 9c14 90b5 db94 9135 ca8e ac36 f7df c636
00000080: dd26 98b5 2460 1eb6 feb0 abb6 be75 4c36
00000090: 9416 81b6 275c 59b6 6e55 1fb6 ddff 0336
000000a0: 64f1 1536 dc9d 30b5 508f adb6 9eee dc36
000000b0: d814 6eb6 be76 8436 d458 bbb5 b9b2 51b5
000000c0: 2710 28b6 dbd9 4f35 c081 0d36 6d42 e5b5
000000d0: 91f0 abb5 2c9a 3936 1d1b 9e36 5642 68b5
000000e0: ab5f 8a36 f799 0636 9771 e936 3ca2 f235
000000f0: b9de 5036 727f 0f36 5cb5 63b6 aa7b 4236
00000100: 1e73 92b6 f062 2ab6 b796 7336 72e5 7bb6
00000110: ed16 0836 e436 f136 41f7 1336 1db7 47b6
00000120: 4e92 46b6 a897 8735 63cd b036 21c0 89b6
00000130: 0a9c 9db6 7295 0335 0e92 0b36 04a3 0ab6
00000140: 73f2 1cb7 688e 58b6 b81b e435 bedc 1436
00000150: c95a 5935 34c3 e5b6 fb81 dbb6 3719 2a36
00000160: 4513 d6b4 52ae 6236 86b6 fd35 ea4f aa35
00000170: f553 96b5 15e0 13b5 3700 f9b5 5c8e 5935
00000180: 12f6 77b5 df30 f3b5 ff0d d1b4 eb5d 0636
00000190: 620c 9ab4 6930 43b5 5d65 8ab5 bf80 5435
000001a0: 8683 9ab4 c165 a034 8a04 08b6 e3a7 7735
000001b0: 5f4a 5134 3e1d 6d35 368d 03b6 b15c f6b4
000001c0: 88e5 c7b4 796f a035 cdb8 c335 9aa7 b3b5
000001d0: dfc7 32b5 70d4 9935 b8a7 c135 169c 5035
000001e0: 9239 fa35 2db2 a6b5 ff8e b1b6 14d0 37b6
000001f0: 3c19 9d32 5c6d 27b5 9165 4135 7083 2235
00000200: a729 0536 91b9 e934 da68 ae35 da6c 0db6
00000210: a606 0336 11a2 3035 6fa3 9835 a0f2 12b4
00000220: 91ff 24b6 bac7 32b6 835e fa33 82e4 05b6
00000230: 1499 fab5 90c1 8634 d8be d034 3ad6 9135
00000240: 8924 4036 1731 fa34 1ca6 a2b5 62df cf35
00000250: 9815 92b5 61cf 5536 ac1d ac36 6782 3336
00000260: 1563 7935 0e8f 2cb6 4979 4fb6 078a 6d36
00000270: d85a a4b4 d892 2436 345b 1c36 cc48 3336
00000280: 6cdf 0936 dd52 3cb6 3c34 47b6 9121 2f36
00000290: 4969 53b5 dbba 7036 9e51 01b6 9137 ceb5
000002a0: 783e 6d36 8149 1535 dadb bcb6 24e1 c7b5
000002b0: db46 0db6 0cbc 9636 a8a9 8d36 e278 4cb6
000002c0: 9389 2eb5 2271 cb35 b7d8 1436 352d 93b5
000002d0: 4a34 cfb5 3878 49b4 8a1a 00b5 db4c 0732
000002e0: 1ef8 d8b4 d672 8a36 0f7f 2b34 b65d 7f35
000002f0: b599 0335 e7fc d2b4 3b88 3c35 76dc 5fb5
00000300: 90b4 82b5 8955 e535 86af 27b5 904b 7933
00000310: d722 e635 ffce 73b6 a046 5fb4 4326 9fb5
00000320: e42f 6c36 3e78 aab5 b5d3 4635 40a5 4db5
00000330: 8b71 3db3 8147 1235 bbb6 5135 9f2d cfb3
00000340: c71f 33b4 ae1e 40b4

exp_avg_sq f4 [7, 30]
1.7636104e-10 5.6364635e-10 2.4623368e-09 9.0609145e-11 4.5837143e-11 6.56911e-11 1.6798984e-09 1.4757779e-09
9.28209e-10 4.5308403e-11 6.508153e-10 3.1091838e-09 1.202396e-09 2.8382893e-10 1.2284486e-10 1.2935711e-10
9.3037233e-10 5.337864e-10 3.451301e-10 1.001264e-09 4.8284454e-10 2.4799385e-11 6.967708e-11 9.880352e-11
1.0086502e-10 2.9455e-09 1.1758121e-09 1.02444754e-10 2.5675082e-09 3.1779543e-10 6.736525e-10 9.591609e-10
4.562347e-10 2.9231736e-10 1.3312725e-09 3.6447798e-10 5.430156e-10 3.8984196e-10 4.2773657e-10 5.571104e-10
2.3780533e-10 2.2888698e-10 1.9955213e-09 7.5483764e-10 3.9667702e-10 6.046805e-10 6.51401e-10 1.1355085e-09
3.138317e-10 7.0855094e-10 1.1855931e-09 6.409349e-10 1.1709639e-10 4.5676168e-10 4.5470483e-10 9.455621e-10
4.624362e-10 2.1661065e-10 1.2293272e-09 9.2668906e-10 3.047425e-10 9.0870605e-10 1.9766969e-10 6.0222646e-11
1.1548419e-09 2.9577116e-10 1.0868116e-10 1.2462446e-10 1.6741765e-10 5.543762e-10 3.141715e-10 4.0457654e-10
2.5735891e-09 5.30837e-10 1.4210572e-10 1.432848e-10 1.8393626e-10 1.8866537e-10 7.673801e-11 1.8326432e-10
1.3911751e-09 1.5011177e-10 6.402184e-11 1.2106598e-10 3.763911e-10 1.1253922e-09 1.8569146e-10 7.988347e-11
4.1274598e-10 3.8173117e-10 3.4517747e-10 1.9034974e-09 2.1493717e-10 4.0551194e-11 4.1676515e-10 3.4374423e-10
4.3086712e-10 5.256483e-10 1.5765138e-10 2.5310987e-10 9.3044505e-10 1.3980536e-10 9.310813e-10 1.3411924e-10
8.2553997e-10 1.471927e-10 5.2437704e-10 7.139453e-10 7.996209e-11 5.0600407e-10 5.0610816e-10 4.3983008e-11
2.4762886e-11 8.763785e-11 3.2448874e-10 9.2989526e-11 5.6231036e-10 5.092361e-11 8.3892665e-10 6.203998e-11
8.574649e-11 1.9311184e-09 1.1713466e-09 7.073431e-10 2.1534277e-10 2.6122274e-10 2.2748202e-10 7.599288e-10
1.8239702e-09 1.9575484e-10 1.01972826e-10 7.591481e-10 4.024531e-10 7.598971e-10 4.6207627e-10 4.867681e-10
6.1132854e-10 1.1269459e-09 8.8092467e-10 1.396233e-10 1.444706e-10 1.6944905e-10 1.1720795e-10 2.948834e-10
7.291957e-11 1.0205967e-09 2.7981692e-10 2.0349551e-10 2.7582328e-09 8.18005e-10 6.430599e-10 1.1548625e-10
2.8247268e-10 2.439716e-10 3.84165e-10 2.905686e-10 1.747868e-10 9.1571584e-10 5.884651e-10 1.3541132e-10
1.3439723e-10 7.119507e-10 1.0238892e-09 2.583988e-10 1.0629445e-10 5.6176813e-10 3.3514305e-10 8.676139e-10
6.623131e-10 1.8135164e-10 7.5788026e-10 1.3732464e-10 5.929996e-10 7.75233e-10 4.808979e-10 5.613651e-10
1.6743026e-10 1.2987783e-10 1.9213524e-10 2.9431665e-10 3.3215647e-10 2.5582687e-11 1.367237e-09 6.7264494e-10
4.6658477e-10 8.8463264e-10 1.9149604e-11 8.258409e-11 1.7116675e-10 3.8359915e-10 3.5920958e-10 1.3320302e-10
1.3614913e-09 6.2377664e-10 1.0499079e-09 1.1528894e-10 6.472136e-10 1.3919165e-09 6.960574e-11 3.0878802e-10
4.967025e-10 3.9738252e-10 1.04148155e-10 2.0338657e-10 3.4108518e-11 4.1900067e-11 2.2963224e-10 1.983216e-11
4.5571987e-11 1.1931376e-09
00000000: 38e9 412f 16ef 1a30 e335 2931 6a40 c72e
00000010: 0998 492e cd74 902e 2ce2 e630 52d4 ca30
00000020: e724 7f30 ba44 472e 0ee5 3230 57a9 5531
00000030: 8c41 a530 5f09 9c2f c111 072f ca3a 0e2f
00000040: 22bd 7f30 e1b9 1230 bebc bd2f d89c 8930
00000050: 2ab9 0430 4023 da2d b538 992e 7045 d92e
00000060: f5cd dd2e c969 4a31 369a a130 4547 e12e
00000070: 1570 3031 bbb5 ae2f 152c 3930 79d3 8330
00000080: 53d1 fa2f 03b4 a02f fdf7 b630 b75f c82f
00000090: 5343 1530 6151 d62f 9226 eb2f 2923 1930
000000a0: 20bc 822f f5a9 7b2f 9521 0931 fa7c 4f30
000000b0: 5413 da2f 9b36 2630 450e 3330 2710 9c30
000000c0: e387 ac2f d7c3 4230 59f2 a230 c92d 3030
000000d0: b4bf 002f 7e1b fb2f 04fa f92f 02f5 8130
000000e0: 1c3a fe2f 7a2a 6e2f 1bf5 a830 f2b9 7e30
000000f0: b288 a72f 81c8 7930 1257 592f 566e 842e
00000100: 63b8 9e30 179a a22f 0efe ee2e ab06 092f
00000110: e113 382f c262 1830 b5b7 ac2f 166b de2f
00000120: 0fdb 3031 55ea 1130 343f 1c2f 168b 1d2f
00000130: 743d 4a2f 9570 4f2f a9bf a82e 5280 492f
00000140: 9f33 bf30 b50c 252f 18c9 8c2e 0b1d 052f
00000150: 57ec ce2f 38ac 9a30 802b 4c2f 65aa af2e
00000160: d5e8 e22f e3db d12f 69c3 bd2f aece 0231
00000170: 6f53 6c2f 9658 322e 7b1e e52f b3f9 bc2f
00000180: 28df ec2f 367d 1030 eb56 2d2f 0c26 8b2f
00000190: 40c2 7f30 b6b7 192f 06ef 7f30 3677 132f
000001a0: 36ec 6230 10d7 212f c123 1030 6f3f 4430
000001b0: a8d6 af2e df16 0b30 321e 0b30 7770 412e
000001c0: 10d1 d92d b9b7 c02e bb63 b22f 737c cc2e
000001d0: 1391 1a30 e3f6 5f2e 379a 6630 676d 882e
000001e0: fc8e bc2e 98b4 0431 18fd a030 d86e 4230
000001f0: 9ac5 6c2f d59b 8f2f 7f1e 7a2f 3ce3 5030
00000200: 3faf fa30 173c 572f 993d e02e 4cac 5030
00000210: 3d40 dd2f 01e1 5030 7407 fe2f 43cd 0530
00000220: 6c0a 2830 e2e2 9a30 9025 7230 7784 192f
00000230: dcd8 1e2f ab4f 3a2f 1bdf 002f 261d a22f
00000240: 125a a02e 0e45 8c30 bbd4 992f e5be 5f2f
00000250: 588b 3d31 fcd9 6030 51c3 3030 fbf4 fd2e
00000260: 7f4a 9b2f f31f 862f 6b32 d32f e5bd 9f2f
00000270: 1c2e 402f c6b5 7b30 8dc1 2130 e6e2 142f
00000280: 75c5 132f 14b3 4330 e6b8 8c30 660e 8e2f
00000290: 75be e92e eb6a 1a30 313f b82f e77c 6e30
000002a0: 240e 3630 f365 472f 1553 5030 73fd 162f
000002b0: a300 2330 2c18 5530 2e30 0430 8f4e 1a30
000002c0: 6e17 382f 5ccd 0e2f 4341 532f 63cd a12f
000002d0: de9a b62f 1707 e12d 60e9 bb30 2ee5 3830
000002e0: fc40 0030 7d2a 7330 1371 a82d b69a b52e
000002f0: 2833 3c2f c8e2 d22f 417a c52f 5175 122f
00000300: 371f bb30 6176 2b30 5a4c 9030 e785 fd2e
00000310: 9ce7 3130 b54d bf30 8c10 992e 0dc2 a92f
00000320: 5588 0830 9e76 da2f 3306 e52e 3ba0 5f2f
00000330: c702 162e 4847 382e bb7b 7c2f 0e72 ae2d
00000340: 7f6d 482e ccfb a330

exp_avg f4 [7]
-3.9126734e-13 -1.608975e-11 7.437387e-12 2.0627248e-11 -4.1950935e-12 -6.4049083e-12 -1.1639527e-11
00000000: 9143 dcaa e586 8dad 03d7 022d 6f70 b52d
00000010: 0b9a 93ac 495a e1ac c5c3 4cad

exp_avg_sq f4 [7]
1.1831466e-14 9.607929e-14 2.2687037e-12 7.4695296e-13 4.237494e-16 1.8646516e-14 3.0482463e-12
00000000: 0223 5528 f159 d829 55a5 1f2c a23f 522b
00000010: 6046 f425 f0f3 a728 5380 562c
