tutorial/DLPFC_output/version_2/checkpoints/mlp.ckpt (torch, 18997 bytes, 12 tensors)

model.classifier.0.weight f4 [30, 30]
000000 46 64 0d 3d 2e b7 da 3d 9d 58 28 3e 60 32 14 be
       0.034519456 0.1067947 0.16440053 -0.14472342
000010 7f f3 13 3e b1 58 79 bd b8 3d e5 bd 68 14 38 be
       0.14448355 -0.0608756 -0.111934125 -0.17976534
000020 6b 5d 6e bc fc c6 b8 bc a3 20 52 be 98 ca ed bd
       -0.01454864 -0.02255582 -0.20520262 -0.11610907
000030 64 32 1c 3e 6e 4e 20 3e 42 fa 3c 3e f8 ab 96 bd
       0.15253597 0.15654919 0.18454841 -0.07357019
000040 11 08 b0 bd d9 4d bf 3c a7 4b a4 be 92 28 59 be
       -0.085952885 0.02335255 -0.32088968 -0.21206883
000050 ba b4 9b bd 80 1b 9e 3d 9e c8 b2 3d 03 87 e7 3c
       -0.0760283 0.07720089 0.08729671 0.02826262
000060 b5 8e 16 3c 19 c6 0f 3e 3d 26 2c 3e 36 a7 02 3d
       0.009189297 0.14040412 0.16811462 0.031897746
000070 54 5e 00 3e ed 20 82 3d fa e6 0b bd 59 48 a3 3d
       0.12535983 0.06353936 -0.034155823 0.079727836
000080 44 bd bb 3d da a9 16 3d ae 57 ee bc 61 43 5c bd
       0.09166959 0.036783077 -0.029094543 -0.053775195
000090 d8 6e 6b bd 49 d5 fa bc 2f c8 56 bd 0e db 04 be
       -0.057478756 -0.03061928 -0.052437004 -0.12974188
0000a0 e2 55 57 3d cd 70 0a bd 81 9e b8 3c 7f 54 0d bd
       0.05257214 -0.03379898 0.022536518 -0.03450441
0000b0 43 81 b3 3d 19 68 0b 3d 6e 56 2f bd 48 63 d9 3d
       0.08764889 0.034034822 -0.042807035 0.106146395
0000c0 13 46 91 bd 9f f6 28 3c ad 53 00 ba 79 fc 06 bd
       -0.07093444 0.010312705 -0.0004895281 -0.03295562
0000d0 fc 4e c2 3d 43 6b 30 bd 12 cd ed 3c 69 fa 38 bc
       0.09487721 -0.043071043 0.02902845 -0.011290171
0000e0 6e 83 61 bd 6d c3 1e be d4 b3 94 3d 2b a8 f9 3c
       -0.05505698 -0.15504237 0.07260862 0.030475697
0000f0 39 ff a5 bd 0a 03 89 3c f5 e1 3a bd 52 01 1c 3e
       -0.081053205 0.016725082 -0.045625646 0.15234879
000100 27 9f 05 be 17 da 97 39 67 20 61 3d d1 f7 a2 3d
       -0.13048993 0.00028963454 0.054962542 0.079574235
000110 fa 2e e9 3b 20 32 c0 bd e7 33 31 3e b3 74 9a 3d
       0.0071161957 -0.093845606 0.17304955 0.0754179
000120 1d cf a7 bd 98 60 03 be 46 d2 8e bd a2 bd b5 3d
       -0.081938006 -0.12829816 -0.069737 0.0887406
000130 bc c1 b2 3d 9b cd 6c 3d 53 88 47 3e d4 e8 13 3e
       0.08728358 0.05781327 0.19485597 0.14444286
000140 e7 e0 91 3d ed 1d bd bd 52 8c 73 3c 46 a8 e5 bc
       0.07122975 -0.092342235 0.014864998 -0.02803434
000150 7d 19 29 3d 71 6f e4 bd 4d e8 29 be 1f b1 2a be
       0.041284073 -0.11154068 -0.16592522 -0.16669129
000160 02 5e 84 bb 21 44 ff bc c3 6e b2 bc 91 07 be bd
       -0.004039527 -0.031160416 -0.02178133 -0.09278787
000170 cb 1f 94 bd c2 59 0a 3e c5 27 e0 bd ac 82 90 3b
       -0.072326265 0.13510802 -0.109450854 0.0044101086
000180 7b 44 9d 3c 99 26 21 3e ac fd 95 bd 21 59 0e bc
       0.019197693 0.1573738 -0.07323775 -0.008688242
000190 8a 4c 22 3e 76 d3 86 3d eb db f7 bd 30 45 16 be
       0.1584951 0.06583302 -0.12102493 -0.1467483
0001a0 d8 51 d5 bd 00 12 91 3d 4b 65 06 bd 5c 01 53 3d
       -0.10416001 0.07083511 -0.032811444 0.05151497
0001b0 ca 9a 2b 3e 14 22 2b 3e 37 78 e1 3c 74 ef 87 bd
       0.16758266 0.16712219 0.027523143 -0.06637469
0001c0 a5 4e 1e bd 7d c3 b9 bd e5 83 36 bd 96 b1 dc bd
       -0.03864922 -0.090704896 -0.04455938 -0.10776059
0001d0 90 21 06 be 08 bc 35 bd 1f 77 ed bd 65 a2 00 bd
       -0.1309874 -0.044368774 -0.11594986 -0.03140487
0001e0 95 14 dd 3c 80 45 93 bd c5 b4 ea bd 0a 36 87 3c
       0.026987353 -0.071909904 -0.1146026 0.01650526
0001f0 17 57 97 bd db ac eb 3d 37 5e df 3d a8 e3 f1 3d
       -0.07389658 0.11507579 0.10906642 0.11811
000200 52 eb 46 3d 24 a5 05 3d 4f 1a dc 3d c4 d5 5d 3d
       0.048564263 0.032628193 0.107472055 0.05415894
000210 c2 e6 a2 bd 2e 51 a5 bd be cc c0 bd ed c7 4b 3a
       -0.0795417 -0.080721244 -0.094140515 0.0007773627
000220 30 8d fd 3c 45 b1 97 bd c7 fa 50 3e ef 58 db 3d
       0.030951113 -0.07406858 0.20408164 0.10710322
000230 70 67 dd 3c f9 0c 01 3d 61 37 91 bd a4 14 3f 3d
       0.027026862 0.031506512 -0.07090641 0.046650544
000240 ac b2 e7 3c 57 27 17 bd 30 4c a9 bd ed f7 14 3d
       0.02828344 -0.03690275 -0.08266485 0.036369253
000250 da d0 56 bd cd 55 1e bd c6 fa e1 bd ee 30 a6 3c
       -0.05244527 -0.038656045 -0.11034159 0.020287003
000260 c5 84 80 bd d7 d8 0f 3e 99 af 97 bd 78 d7 aa bd
       -0.06275324 0.14047562 -0.074065395 -0.08341879
000270 77 42 11 3d 1a f1 45 3a 9d aa d9 3c 1d 45 c3 bc
       0.035463776 0.00075508805 0.026570613 -0.023836667
000280 7f 18 a3 3d fa c5 d7 3d 61 dc 40 bd bb 40 19 bd
       0.07963657 0.10535808 -0.04708517 -0.037415247
000290 e7 f4 e8 bd 8e 23 b8 3d 10 3a 3f 3e 0d 8c 30 3d
       -0.113748364 0.089911565 0.18674493 0.043102313
0002a0 87 0a 24 3e 7b aa bc 3d 88 fe b6 3d 13 2c 2d be
       0.16019641 0.09212204 0.08935267 -0.16911344
0002b0 1e 42 28 bb 43 51 28 bd 65 f1 2c bc ee d8 00 be
       -0.0025674175 -0.041093122 -0.0105556 -0.12582752
0002c0 eb a0 a3 bd da f0 ef bd e8 fd 1f bd df f3 0a bd
       -0.07989677 -0.11715861 -0.039060503 -0.03392398
0002d0 7e 0a 05 3d 66 f7 66 3d 88 ef 5d bd 1b ab 1a be
       0.03248071 0.05638828 -0.054183513 -0.15104334
0002e0 c9 fe ef 3d 88 b0 82 be a8 f2 b5 bc c5 f7 45 be
       0.11718518 -0.25525308 -0.022210434 -0.19332798
0002f0 9b 9d 0c bb 6c 7d 6b 3d 2e ea 74 bc 75 23 b2 3d
       -0.0021456245 0.05749266 -0.014948411 0.08698169
000300 e1 07 df 3d 7e 63 2e 3e f1 bc 79 ba 08 5d 18 bd
       0.10890175 0.17030141 -0.00095267507 -0.037198097
000310 fb f3 3d 3e f9 18 91 3c 85 bf 15 bd 84 74 95 bc
       0.18550102 0.017712103 -0.0365596 -0.018244036
000320 3e c1 a3 3c 82 04 4c be c8 22 e2 bb e8 f3 24 bc
       0.019989606 -0.19923595 -0.006901119 -0.010067917
000330 77 20 29 be 6e 6b 98 bd b6 cf d6 3d 60 08 45 bd
       -0.1651629 -0.074423656 0.104888365 -0.04810369
000340 7e 0f bc bd 3d ca cd 3b 8e 2c 51 3d 85 6d 72 bd
       -0.091826424 0.006280212 0.05106788 -0.059186477
000350 c0 13 3e 3a 43 bf fd bc f0 cf 0c bc 39 36 46 3e
       0.0007250868 -0.03097499 -0.008594498 0.19356622
000360 a8 56 1a 3d 88 a9 b3 3d 57 84 d7 3c 9e 79 0c 3d
       0.037680298 0.0877257 0.026308222 0.03429567
000370 20 b3 1d bd 64 9b 71 bd ec 47 f0 bc b0 fa 1d bd
       -0.038500905 -0.058986083 -0.02933117 -0.038569152
000380 72 f3 88 3c f6 ce 35 bd 32 7c f7 bd b3 3d ae bd
       0.016717646 -0.044386826 -0.12084235 -0.08507862
000390 42 a6 af bb a9 17 01 bd 26 52 33 bd 82 d8 34 3e
       -0.0053603956 -0.031516705 -0.043779515 0.17660716
0003a0 23 c3 10 bd 3c 0c 79 3d e7 35 99 3d 0e dc bf 3d
       -0.035342347 0.060802683 0.07480984 0.09368144
0003b0 ee 93 19 3c 88 f8 03 3e dd 30 0f 3d e6 1d 18 bb
       0.009373648 0.12887776 0.03495871 -0.002321118
0003c0 79 3d e1 3c b3 49 d6 3d 03 48 56 3d 66 64 2c be
       0.027495133 0.10463276 0.05231477 -0.16835174
0003d0 29 c6 18 3e b2 d0 ed bd ba f5 14 bd 50 5e 5b be
       0.14919342 -0.11612071 -0.036367156 -0.21422696
0003e0 38 3b 7d 3d a8 13 33 3d aa c7 2c be 9f 31 01 bd
       0.061824054 0.043719918 -0.16873041 -0.031541463
0003f0 7f a6 1e 3e ad 25 52 3e 29 3d b9 3d d0 1e a9 bd
       0.154932 0.20522185 0.090448685 -0.0825783

model.classifier.0.bias f4 [30]
000000 ac f0 9f 33 5a ad 00 34 12 94 aa 31 9a e6 1c b3
       7.4477924e-08 1.1983994e-07 4.964485e-09 -3.653131e-08
000010 37 71 88 b3 66 32 04 32 1c a4 eb 32 11 0f c2 b2
       -6.353587e-08 7.6948705e-09 2.7432229e-08 -2.2591424e-08
000020 69 f0 f0 32 d0 44 ab 33 cc 95 c0 35 39 9b 0e 34
       2.8049003e-08 7.975325e-08 1.4348711e-06 1.328125e-07
000030 fe 50 8f 32 34 29 af b2 19 5f cc 33 c7 1c cc af
       1.6684222e-08 -2.0391418e-08 9.5167884e-08 -3.712783e-10
000040 b9 37 e4 b2 c0 90 7a b2 83 c4 e5 32 3e 5c b4 b2
       -2.6568033e-08 -1.4584828e-08 2.6748472e-08 -2.0996705e-08
000050 1e fd 6f b3 8d 69 99 b3 e2 c2 12 b2 33 3f af 33
       -5.5876733e-08 -7.143817e-08 -8.54263e-09 8.1605684e-08
000060 11 75 11 34 0c a8 62 b3 a1 86 07 b4 83 7b dc 32
       1.3546766e-07 -5.2772563e-08 -1.2621832e-07 2.5667537e-08
000070 68 f2 ca b2 22 ce 0f 33
       -2.3626129e-08 3.348226e-08

model.classifier.1.weight f4 [7, 30]
000000 b8 76 0d 3e 0c 0b 05 bc 35 12 57 be 02 9b 00 3d
       0.13814819 -0.00812031 -0.21003039 0.031397827
000010 56 63 50 bd ef c3 88 be f9 45 44 be 6c cf 35 3e
       -0.050875984 -0.26711985 -0.19167317 0.17754906
000020 27 7b aa bd 9a e0 8c 3d f5 65 8f 3e a7 5a 67 3d
       -0.08324271 0.06878777 0.28007475 0.056482937
000030 aa 4f d2 bc 1f ba 23 bd c8 70 1a be 4d 62 9e 3e
       -0.025672752 -0.03997242 -0.15082085 0.30934373
000040 b4 c4 02 3e 34 52 21 3e 48 26 2b be 53 c4 0e be
       0.12770349 0.15754014 -0.16713822 -0.13942079
000050 9f c2 ab be 9e 85 24 bd a6 2d 5b be 34 d1 0a be
       -0.33546922 -0.04016649 -0.21404132 -0.13556367
000060 ac 51 07 3b fb bc 59 be 11 2b 36 3e 85 99 9e be
       0.0020648045 -0.21263497 0.17789866 -0.309765
000070 c7 22 34 3e a9 bc 8c bd 28 85 de be b1 60 39 be
       0.17591392 -0.068719216 -0.43460965 -0.18103291
000080 c1 84 39 3e ea 0f 85 3e c9 ec 90 3e 47 33 0c 3e
       0.18117048 0.25988704 0.28305653 0.13691436
000090 1b 92 b6 be c3 fa 2c 3e b2 00 bc be 0b 4a ed be
       -0.35658345 0.16892533 -0.3671928 -0.46345553
0000a0 8f 80 0d be fa 24 09 be 49 19 8c 3e 1e 3b 51 3e
       -0.13818572 -0.13393012 0.2736304 0.20432708
0000b0 70 7a 06 bf 57 9d 13 3e 85 18 33 3e 8e a8 9f 3d
       -0.52530575 0.14415489 0.17489822 0.07795821
0000c0 da 5b 71 be 47 60 ba 3e 7d 30 04 3f 30 a5 9f 3e
       -0.23570195 0.3640158 0.5163649 0.31180716
0000d0 45 d5 2b 3e b0 86 d8 bc ab de c3 be 4e c8 ff 3e
       0.16780575 -0.026431412 -0.3825582 0.49957508
0000e0 da 7b ec 3e ad 56 00 be 7d c3 22 3e e3 20 43 be
       0.4618824 -0.12533064 0.15894885 -0.19055514
0000f0 0e 60 ec bd 08 34 75 3d 23 47 0b 3e 38 d3 56 3d
       -0.115417585 0.059864074 0.13601355 0.052447528
000100 6c b5 0f 3e d5 d3 b5 bb 8f 28 12 be 7f 7c a4 3d
       0.1403405 -0.005548934 -0.14273284 0.08031558
000110 a1 81 12 be c1 ec 84 3c f4 e1 5b be 09 a8 f1 3d
       -0.14307262 0.016226174 -0.21472913 0.11799628
000120 c1 4c b5 3d f2 fd a8 bd 1e 6d 1b be 20 73 a9 bd
       0.0885253 -0.08251561 -0.15178344 -0.082739115
000130 b2 11 35 3e 5e 00 7a 3e 3e f8 34 be fc ac 6d 3d
       0.17682531 0.24414203 -0.17672822 0.0580263
000140 65 cf ed 3c 1e 05 69 3e 25 98 54 be 1a a4 6c be
       0.029029557 0.22755858 -0.20761164 -0.23109475
000150 22 2a 16 bd 00 c4 f3 bd 81 ab 15 be df 35 ac bd
       -0.036661275 -0.119026184 -0.14616205 -0.084087126
000160 8b 66 d4 3d 65 e3 b4 3d 7e 7f fb 3d 54 ea 1b 3e
       0.10371121 0.088324346 0.122801766 0.15226108
000170 dc 74 74 3d d0 96 81 bd 4d 68 42 be 8c f2 29 3e
       0.05968176 -0.06327593 -0.189851 0.1659643
000180 02 db 3d 3d a2 40 27 be 10 75 a9 3d a3 0d 24 3e
       0.04635144 -0.16333249 0.08274281 0.16020827
000190 88 ef 13 be 3e 08 08 3e 66 30 b5 bd 72 57 2c 3b
       -0.14446843 0.13284394 -0.08847122 0.0026297239
0001a0 10 05 fc 3d ca 6c 17 be 73 0b 90 bd 38 63 e6 bc
       0.12305653 -0.14787593 -0.07033434 -0.028123483
0001b0 2e 2c ea 3d 1d 32 4f 3d 31 b1 39 3d 57 33 5d bd
       0.11434208 0.0505849 0.045335 -0.05400404
0001c0 3d 73 dc bb 8e 1d 24 3d 95 06 48 3e 69 64 89 bd
       -0.0067276047 0.040067248 0.19533761 -0.06708605
0001d0 41 30 42 be e2 b8 1f 3e 5e b4 2c bc 4e a6 01 3e
       -0.1896372 0.15597871 -0.01054105 0.12661096
0001e0 1f c2 94 3e de 8f 2d be 29 a2 9c be 9f 38 b7 be
       0.29054353 -0.16949412 -0.30592468 -0.35785386
0001f0 4a c0 2a bc c2 fe 6b be 33 74 6c bb 67 3d 56 3e
       -0.010421822 -0.23046401 -0.0036080002 0.2092186
000200 f3 31 ad 3e 26 32 57 3e fa 79 b4 3d 6e 8c 1c be
       0.3382717 0.21015224 0.08812328 -0.15287945
000210 2b cd ff bd 43 2a 89 3e ba f4 6f 3e 61 e6 8a 3e
       -0.124903046 0.26790056 0.234332 0.2712889
000220 b9 a8 12 be 1d e2 15 be fe 88 c0 bc 1e 83 c3 be
       -0.14322175 -0.14637037 -0.023502823 -0.38185972
000230 f0 89 90 be cb cd 84 3e 24 59 95 be b6 c3 8d bd
       -0.28230238 0.25938258 -0.2916957 -0.069220945
000240 c7 17 7d 3e 96 64 65 be cf 8a c1 bd 32 84 bf 3c
       0.24716102 -0.22401652 -0.09450304 0.023378465
000250 c9 ff 0a be 3a 91 a7 3e 56 76 29 3e f4 97 19 be
       -0.13574137 0.32727987 0.16549048 -0.14999372
000260 2d 29 7f be 6a 1e 0e be 48 a5 c5 bd 61 a2 70 bd
       -0.24918051 -0.1387879 -0.096506655 -0.058748607
000270 d1 15 9a 3e b2 a0 50 bd dd 8f 82 3e 44 42 2b bd
       0.3009477 -0.0509345 0.25500384 -0.041811243
000280 02 d2 b0 3e 75 47 8e be a4 82 d3 bd 5b 63 42 3d
       0.34535223 -0.27788892 -0.10327652 0.047458034
000290 f3 a0 5c 3e be dc 00 3e c3 88 88 be b6 4d aa be
       0.21545772 0.12584206 -0.2666684 -0.33262414
0002a0 6c 31 8b 3e 39 7d 1b be 50 73 52 be b3 fb 9d be
       0.27186143 -0.15184487 -0.205518 -0.30856094
0002b0 0e 7a 98 3e b0 76 8d 3e 53 18 2a 3d 47 30 71 3e
       0.2978062 0.27629614 0.041527104 0.23553573
0002c0 3e 8d 46 3e 84 40 9d 3d fe 60 9d be c4 fb 12 be
       0.19389817 0.07678321 -0.30738062 -0.14353853
0002d0 6b 01 ce be ce 04 f0 bd f5 83 41 3e 94 f5 6e 3e
       -0.40235457 -0.117196664 0.18897994 0.23335868
0002e0 71 b1 52 3e eb d4 85 3e cc 76 7d 3e 0a 4d 19 be
       0.20575501 0.26139006 0.24752349 -0.14970794
0002f0 d3 9c 09 be 16 d0 bc be 40 63 83 bd d9 2c 6a be
       -0.1343873 -0.36877507 -0.06415415 -0.2286867
000300 05 17 23 3e cf 27 3c bd 2d 39 65 bd d5 1a 85 be
       0.1592675 -0.045936402 -0.05596273 -0.25997034
000310 3f 31 a9 bd 2e a2 30 be 2f a9 1d 3e 48 fe 70 3e
       -0.08261346 -0.17249367 0.1539657 0.235345
000320 09 b1 ca 3e c0 1d 3f be 0c ed ff 3e 26 16 80 3e
       0.39588192 -0.18663692 0.4998554 0.25016898
000330 4d 0d be be 70 95 d6 3e 6d ff 41 3e e5 7c 3e 3e
       -0.37119523 0.41910887 0.18945093 0.18602331
000340 b9 64 39 be 4f 86 ad be
       -0.18104829 -0.33891532

model.classifier.1.bias f4 [7]
000000 d7 a9 35 b3 e8 db d8 b3 5c 00 56 b3 ec 01 01 32
       -4.2296815e-08 -1.00982845e-07 -4.9826085e-08 7.509225e-09
000010 55 b3 d3 34 87 c4 98 34 13 93 ff b3
       3.9432294e-07 2.84552e-07 -1.19011155e-07

exp_avg f4 [30, 30]
000000 63 7a 90 31 af b5 60 36 0e 62 fb b5 39 a4 91 36
       4.2048653e-09 3.3484355e-06 -1.8729495e-06 4.340455e-06
000010 90 44 a1 b5 f3 49 02 34 96 c2 74 36 dd d4 3e b5
       -1.2015389e-06 1.2134096e-07 3.6472097e-06 -7.109027e-07
000020 19 7d c0 36 00 cb 5a b5 02 a4 f4 b5 4b 34 a1 36
       5.736609e-06 -8.150673e-07 -1.8227149e-06 4.8042616e-06
000030 ca 43 37 36 36 7f 1e b6 a5 c1 09 b5 e8 08 9f 34
       2.7308583e-06 -2.3617881e-06 -5.1318267e-07 2.9622538e-07
000040 8a 61 b0 36 04 7d 3b 33 7b 90 4e 36 46 0b 18 b6
       5.256564e-06 4.365303e-08 3.078049e-06 -2.2656327e-06
000050 ba f8 58 36 c8 3a 50 b6 12 0d 58 35 c9 ba 40 36
       3.2331286e-06 -3.102863e-06 8.048529e-07 2.8718953e-06
000060 20 e0 af 35 82 b2 1e b4 2a 1b d0 35 27 b3 18 b5
       1.3103745e-06 -1.4779837e-07 1.5505113e-06 -5.6885114e-07
000070 31 32 6c b4 6c 0b 77 35 5b cd 70 b5 cb 62 c1 35
       -2.1997472e-07 9.203129e-07 -8.97058e-07 1.4408373e-06
000080 03 b7 6c b5 b2 11 03 36 03 61 07 b5 9c 7e 1b b6
       -8.818317e-07 1.9530821e-06 -5.043259e-07 -2.3170496e-06
000090 c3 3f e9 34 06 7a f0 b4 7c c6 c4 35 4d 7a 4e b5
       4.3446025e-07 -4.4792267e-07 1.4660905e-06 -7.691895e-07
0000a0 4b 52 88 35 a5 fd fe 35 e7 ad 0e b3 6b f2 b7 b5
       1.015674e-06 1.8998295e-06 -3.3220115e-08 -1.3705115e-06
0000b0 76 70 8b 34 7a 53 50 35 14 9f cb 35 1a 6f 24 35
       2.5972594e-07 7.760751e-07 1.5170976e-06 6.1256435e-07
0000c0 ed a0 75 35 6e 58 9d 34 68 89 c3 35 e6 9a 2f b6
       9.150379e-07 2.930787e-07 1.4568623e-06 -2.6167195e-06
0000d0 d9 c6 92 b2 e5 38 3c b4 38 80 2d b5 01 c3 cb b5
       -1.7087062e-08 -1.7529563e-07 -6.4634105e-07 -1.5181432e-06
0000e0 b6 4e 07 b4 cd ff 12 b6 37 f7 0a b5 44 30 0e 34
       -1.260149e-07 -2.190459e-06 -5.176875e-07 1.324234e-07
0000f0 af 00 9e b5 8a 16 80 b5 21 9f 77 35 40 fb 4d b5
       -1.1772116e-06 -9.543303e-07 9.2246233e-07 -7.673407e-07
000100 a7 6d fe 34 df cc f7 b5 fa c1 02 b6 e7 2d 33 34
       4.739097e-07 -1.8462559e-06 -1.9484419e-06 1.6687373e-07
000110 1f ca 42 b6 7b e7 cd 33 6b 0b b0 35 49 0f be b5
       -2.9025903e-06 9.5881624e-08 1.3116345e-06 -1.4160552e-06
000120 e4 6d e7 b5 91 e2 0f 35 bd 44 11 35 51 c2 39 35
       -1.7242824e-06 5.360135e-07 5.4116737e-07 6.920064e-07
000130 e8 0e 08 b6 d2 ce c2 34 45 b3 b0 b5 79 03 c5 35
       -2.0274256e-06 3.6285797e-07 -1.3165196e-06 1.4678654e-06
000140 1f e0 ab b5 37 de 93 34 a4 94 04 b5 8a 33 08 b6
       -1.2805721e-06 2.7542566e-07 -4.939013e-07 -2.029558e-06
000150 7e e8 ad b5 8e 18 4d b5 13 3e 92 b5 ed 23 b2 b5
       -1.2957169e-06 -7.6404183e-07 -1.0895914e-06 -1.3272489e-06
000160 51 a2 ef 33 f1 69 77 b5 d2 f3 27 b5 b3 93 f0 b5
       1.115883e-07 -9.2168835e-07 -6.2567153e-07 -1.792438e-06
000170 69 be d6 35 ec 00 ec b5 7c cc e2 34 04 34 e8 b5
       1.5999659e-06 -1.7583639e-06 4.2244562e-07 -1.7300486e-06
000180 8c aa 3e b6 1b 80 32 35 60 11 99 b6 ca a0 98 34
       -2.8411478e-06 6.6496585e-07 -4.561778e-06 2.8429196e-07
000190 1a 2c ac 35 78 3f 23 b6 ab d0 00 b6 11 ed a3 35
       1.2827834e-06 -2.4325836e-06 -1.9194947e-06 1.2213442e-06
0001a0 23 1c 30 35 8e db d6 33 ce 5a 67 b6 6b 7f 66 35
       6.5606054e-07 1.0005088e-07 -3.4474538e-06 8.5867094e-07
0001b0 2f d1 17 b6 14 fb f8 35 e8 2f 15 b6 ea 7b 65 35
       -2.2622514e-06 1.8550513e-06 -2.2230615e-06 8.5489467e-07
0001c0 41 36 d8 b4 e3 45 3e b6 db c9 df b5 d6 73 35 b5
       -4.027261e-07 -2.8352886e-06 -1.6673542e-06 -6.759632e-07
0001d0 cf 16 7b b5 bd de 01 b5 f4 fc e4 b4 7f d9 26 b5
       -9.353798e-07 -4.838037e-07 -4.2652357e-07 -6.215632e-07
0001e0 8e 87 dc 34 6c 87 f0 b5 d1 af 5b 35 71 fb 4c b6
       4.1076822e-07 -1.7920806e-06 8.1839704e-07 -3.0544727e-06
0001f0 6f 0b 73 35 64 ac 99 35 4e 86 cf b5 dd a5 80 35
       9.054119e-07 1.1449561e-06 -1.546179e-06 9.585016e-07
000200 6e 99 46 b6 80 fd 54 35 77 b1 8b 34 31 24 35 b6
       -2.9593607e-06 7.9345045e-07 2.601989e-07 -2.6992168e-06
000210 c2 92 90 b5 5c ef b9 35 76 bd bc b3 23 0e c0 b4
       -1.0771548e-06 1.3853237e-06 -8.788895e-08 -3.5773073e-07
000220 6f 7d 38 b6 9f 84 91 b4 b9 40 ca b5 6c 04 67 35
       -2.7491149e-06 -2.710485e-07 -1.506901e-06 8.606064e-07
000230 29 c9 ea b5 74 5e 1d 36 9f 19 00 b4 be 43 98 b5
       -1.7492904e-06 2.3449802e-06 -1.193025e-07 -1.1344598e-06
000240 a6 03 ad b4 94 fa 84 35 80 96 0b b5 15 6a 98 35
       -3.2226416e-07 9.907694e-07 -5.200054e-07 1.1355756e-06
000250 fc cb a8 34 13 5c c2 b4 8a c4 89 b5 da f5 a3 b5
       3.1440857e-07 -3.620231e-07 -1.0264496e-06 -1.2215999e-06
000260 5c ed da 35 06 58 c7 b5 bf 18 c1 34 c0 c3 de b5
       1.6311346e-06 -1.4852274e-06 3.5967057e-07 -1.659726e-06
000270 42 93 10 b6 58 64 51 b5 cb 07 2e b6 d6 b3 34 34
       -2.1543387e-06 -7.8004587e-07 -2.5932557e-06 1.682923e-07
000280 0d 26 05 35 6e 51 b7 b5 bd b7 b7 b5 08 af ba 35
       4.960173e-07 -1.3658262e-06 -1.3688037e-06 1.3909021e-06
000290 a6 43 0b 35 f7 40 8a 34 46 1b eb b5 8e ef 73 34
       5.1879977e-07 2.575177e-07 -1.7516802e-06 2.2718288e-07
0002a0 9d a2 c2 b5 40 00 53 35 5b cd ed b5 bd 2e 05 35
       -1.4501453e-06 7.860399e-07 -1.7717642e-06 4.9614374e-07
0002b0 63 30 50 b5 48 c6 b7 b5 b5 fe 32 b5 f9 a4 57 b5
       -7.755645e-07 -1.369227e-06 -6.6680815e-07 -8.033381e-07
0002c0 7a cb 4b b5 5f 0c 0b b5 7c ac f1 b3 c5 91 85 b5
       -7.591949e-07 -5.179954e-07 -1.1253812e-07 -9.951697e-07
0002d0 43 0c 92 35 ef f1 4c 36 7e 47 60 35 e3 8a f0 b5
       1.0881416e-06 3.0539193e-06 8.355054e-07 -1.7921815e-06
0002e0 4e 7c 9c b4 99 b6 54 b6 b4 82 8d b5 08 5c 75 b6
       -2.9147708e-07 -3.1696748e-06 -1.0543358e-06 -3.6561414e-06
0002f0 15 6c 14 35 86 df 97 b5 01 f9 7f 35 13 43 83 36
       5.5291576e-07 -1.1315431e-06 9.535725e-07 3.9119127e-06
000300 a8 f2 83 35 70 5d a7 35 1a 1a d6 35 65 6c 97 b3
       9.830883e-07 1.2469663e-06 1.5951839e-06 -7.051202e-08
000310 77 29 27 36 68 6d c8 35 38 82 9d b4 90 e1 a2 b5
       2.4909075e-06 1.4933003e-06 -2.9338275e-07 -1.2135588e-06
000320 50 30 bf b5 8c 86 53 b6 72 24 52 b5 74 5e bd 35
       -1.424467e-06 -3.1519767e-06 -7.828413e-07 1.4109087e-06
000330 58 c5 ac b5 63 9f 3e b6 0a 58 20 33 00 f2 e0 b4
       -1.2872433e-06 -2.8404982e-06 3.7332974e-08 -4.189933e-07
000340 5e 94 89 b6 b5 0b 2b b5 4e 4a 8b 32 77 50 c1 b5
       -4.1001904e-06 -6.37195e-07 1.621552e-08 -1.4403039e-06
000350 b2 1b 6b b5 8b 4f d4 31 f3 1b cb 34 ea 76 8d 36
       -8.7584624e-07 6.179055e-09 3.7832032e-07 4.215971e-06
000360 2e 7d a4 35 16 67 eb 35 80 7c 91 b3 3e 87 66 35
       1.2255384e-06 1.7538866e-06 -6.774735e-08 8.587848e-07
000370 6c 70 57 b5 4d e3 c5 b5 1c 06 b4 34 70 ff 19 b5
       -8.0257337e-07 -1.4743797e-06 3.3532058e-07 -5.736865e-07
000380 f5 55 3d b5 c8 a1 0a b5 8e 8e 02 b5 ef b1 98 b5
       -7.053307e-07 -5.164443e-07 -4.863622e-07 -1.1376668e-06
000390 2f 7f 90 34 c1 3b 89 32 99 8c 1f 35 e1 ce 15 36
       2.6914628e-07 1.5976072e-08 5.943671e-07 2.232315e-06
0003a0 b3 b8 12 35 75 e2 5f 34 5c 70 6a 35 fb 7e 18 36
       5.465801e-07 2.0850878e-07 8.73353e-07 2.2723677e-06
0003b0 56 9c e1 34 81 1b a7 35 da 7a df 35 ca 8e 1c 35
       4.2023265e-07 1.2450474e-06 1.6650549e-06 5.8322314e-07
0003c0 f7 81 77 35 6f 66 44 36 7c 0f 7b b5 97 55 c8 35
       9.2203794e-07 2.92659e-06 -9.352732e-07 1.4926071e-06
0003d0 df e6 37 b5 2d 6f 17 b5 ce ab 14 36 f6 ec dc b5
       -6.8508774e-07 -5.6413666e-07 2.2153722e-06 -1.6460242e-06
0003e0 c3 1b 95 36 38 95 3d b5 3c 5b 79 b5 d5 39 71 36
       4.443778e-06 -7.062513e-07 -9.289249e-07 3.5945461e-06
0003f0 73 e1 18 36 6e 57 2a b5 1d ea 42 b4 8e ec a7 b4
       2.2780994e-06 -6.345716e-07 -1.8152828e-07 -3.127829e-07

exp_avg_sq f4 [30, 30]
000000 16 f5 85 2f eb c0 53 2f 01 25 e0 2f 65 75 90 2f
       2.4366703e-10 1.9258876e-10 4.0771655e-10 2.627686e-10
000010 48 be b5 2e b7 c4 cb 2f 44 23 6a 2f aa 13 6e 2f
       8.264728e-11 3.706526e-10 2.1294705e-10 2.165296e-10
000020 c2 bd 0b 2f b0 dc 28 2f 5c 5a ad 2f 6e fc 3e 2f
       1.2709392e-10 1.5357915e-10 3.153272e-10 1.737008e-10
000030 e4 b7 48 2e a4 a0 13 2f 06 88 28 2f 47 a3 b0 2e
       4.5638063e-11 1.3426643e-10 1.5327836e-10 8.032557e-11
000040 a2 b5 98 2f 58 54 46 2f d8 6c 38 30 5b fa 8f 2f
       2.7777697e-10 1.803796e-10 6.7093486e-10 2.6189437e-10
000050 3f 68 89 2e 31 9a 7b 2f 6b 57 1c 2f 53 ec 32 2f
       6.2485565e-11 2.2883097e-10 1.4219174e-10 1.6272965e-10
000060 c0 34 1c 2f 6b f1 dc 2e e2 6d 42 2f 29 31 4a 2f
       1.4206858e-10 1.0047326e-10 1.7683235e-10 1.8389258e-10
000070 a2 d5 74 2f c6 67 24 2e de 16 12 2f 56 f6 13 2f
       2.2267568e-10 3.7381452e-11 1.3286747e-10 1.3457088e-10
000080 a8 db 93 2e 9f 38 34 2f 56 e8 98 2d 0f 68 f9 2e
       6.723805e-11 1.639102e-10 1.7383577e-11 1.13416936e-10
000090 6f 57 99 2d d5 7c 19 2f 83 b9 0a 2e a8 9e 05 2e
       1.7432914e-11 1.3959618e-10 3.1542335e-11 3.0381614e-11
0000a0 c3 a4 64 2e b8 6b 14 2e 6b 21 be 2d f3 a3 57 2e
       5.1987536e-11 3.3746977e-11 2.161534e-11 4.9030956e-11
0000b0 3a 02 b8 2d 65 c9 0a 2e 67 ef 8b 2f 88 75 9e 2e
       2.0919367e-11 3.155644e-11 2.5454058e-10 7.205886e-11
0000c0 a1 13 16 2e a6 a4 58 2e 83 ae f3 2d 60 49 2c 2f
       3.4123485e-11 4.925895e-11 2.77034e-11 1.5669377e-10
0000d0 a9 8d cf 2d 7d df d9 2d a3 37 2c 2e 90 31 0d 2e
       2.3596085e-11 2.4769293e-11 3.9157688e-11 3.210371e-11
0000e0 5d 28 e5 2d d3 f6 b8 2e c9 63 8f 2e f3 a5 e0 2c
       2.605221e-11 8.411196e-11 6.5206125e-11 6.384887e-12
0000f0 e8 f4 03 2e 98 19 96 2e 1f b0 25 2e c9 71 c0 2e
       3.0003472e-11 6.8257566e-11 3.7673083e-11 8.7513614e-11
000100 85 ab 69 2e 4c e8 d0 2e ed a4 2d 2e 9e 58 35 2e
       5.3130406e-11 9.500009e-11 3.948213e-11 4.1233343e-11
000110 2e 27 a5 2e 3e 24 83 2e 1b e2 24 2e f7 de ba 2d
       7.510291e-11 5.963628e-11 3.7490105e-11 2.1244768e-11
000120 8a 65 82 2d 04 14 2c 2e 9e 74 0f 2e 78 83 00 2e
       1.4824381e-11 3.912605e-11 3.2618012e-11 2.9220598e-11
000130 8f ad ba 2e 44 6e 4f 2e 4f 72 00 2f d9 cd c1 2e
       8.489131e-11 4.7164286e-11 1.1682143e-10 8.81319e-11
000140 b3 18 86 2d 69 fd 47 2e d2 e8 d3 2d a8 69 9f 2e
       1.5245005e-11 4.5472435e-11 2.4091316e-11 7.249251e-11
000150 ff e1 77 2e f8 45 93 2e d2 fe 9d 2e 8c d4 2a 2f
       5.6362023e-11 6.697215e-11 7.1847986e-11 1.5536922e-10
000160 96 28 ff 2e 51 3d eb 2d c9 43 b0 2e 2d 26 05 2f
       1.1603267e-10 2.6743637e-11 8.0155944e-11 1.2109842e-10
000170 bf 13 72 2e 1b be 64 2e 07 21 2a 2e 7f 7d ec 2e
       5.5041968e-11 5.2010046e-11 3.868286e-11 1.075433e-10
000180 e3 7e df 2d f6 c7 02 2f 2f c9 bb 2e ed c0 e3 2e
       2.5408514e-11 1.1894472e-10 8.539513e-11 1.03570354e-10
000190 63 00 57 2e 1e d5 2a 2e d1 3b b0 2d 59 a4 0d 2e
       4.8885684e-11 3.884281e-11 2.0035447e-11 3.220566e-11
0001a0 6f 3d 1c 2e cb 5e 3c 2e 7b 58 30 2f f3 94 38 2e
       3.5524857e-11 4.2830444e-11 1.6038541e-10 4.196905e-11
0001b0 5b b3 a0 2e ba 26 83 2e 1a ac 6c 2e 17 ee bc 2e
       7.3078175e-11 5.9640695e-11 5.3813044e-11 8.5915434e-11
0001c0 79 7d 54 2e 20 bc 5d 2e ae d1 e7 2e f9 26 84 2e
       4.831466e-11 5.041667e-11 1.05419104e-10 6.009588e-11
0001d0 7e 76 50 2e 54 d8 51 2f 79 58 38 2f f8 10 91 2d
       4.7398967e-11 1.9085294e-10 1.6766134e-10 1.6492127e-11
0001e0 17 1e 78 2f ad a9 69 2e 32 9d ae 2e 7a 99 af 2f
       2.2566159e-10 5.312877e-11 7.9405274e-11 3.1941366e-10
0001f0 da f9 37 2e 3b de 13 2f 62 62 b6 2e 71 bf 60 2e
       4.1831295e-11 1.3448524e-10 8.293878e-11 5.1101737e-11
000200 24 a8 b8 2e 45 b2 87 2e 60 cc b7 2e c2 d8 0c 2e
       8.397219e-11 6.170756e-11 8.358181e-11 3.2024834e-11
000210 4c 0c 0d 2e eb c2 29 2e ae 99 7b 2e 13 93 8d 2e
       3.207061e-11 3.8599273e-11 5.7207288e-11 6.438063e-11
000220 74 69 3a 2f 85 8f 51 2e e6 24 bb 2e b6 78 ef 2e
       1.6954066e-10 4.764857e-11 8.51033e-11 1.0889904e-10
000230 aa 74 f9 2d 80 08 0f 2f 7c d5 a5 2e 54 52 db 2e
       2.8359832e-11 1.3008794e-10 7.541254e-11 9.9735914e-11
000240 55 ad 54 2e b1 28 87 2e 55 08 2b 2e ea 70 86 2e
       4.835717e-11 6.1463175e-11 3.88883e-11 6.113672e-11
000250 e9 a8 ae 2e f5 2a b0 2d 10 39 79 2f d9 e5 d9 2f
       7.9426084e-11 2.002796e-11 2.2666691e-10 3.9635387e-10
000260 6c 41 36 2f 65 52 8a 2e 9d 20 43 2e f0 fc 90 2f
       1.6576046e-10 6.2901497e-11 4.4366833e-11 2.637317e-10
000270 54 83 59 2d 73 ca f5 2f 17 09 55 2e 86 a2 88 2f
       1.2364183e-11 4.470909e-10 4.8438666e-11 2.4853736e-10
000280 eb 00 2f 2e 95 8b 6d 2e 8d 1e 90 2d 00 ab 3d 2e
       3.979121e-11 5.4011535e-11 1.6384472e-11 4.3125503e-11
000290 a6 5d 6e 2e 1d fd 08 2f bc 8d db 2f 3b d4 02 2f
       5.419811e-11 1.2459052e-10 3.9936576e-10 1.189883e-10
0002a0 48 54 3f 2e d6 f3 c0 2d c3 3a 0e 2e 85 1d a8 2f
       4.350323e-11 2.1936158e-11 3.2339253e-11 3.0579997e-10
0002b0 f5 a1 6e 2e 2c 3a 13 2e 80 ec 0c 2f 4e 8a 08 2f
       5.425878e-11 3.3475597e-11 1.2816948e-10 1.2418264e-10
0002c0 0b 95 21 2e 30 30 03 30 d7 5d bc 2f 25 5d 12 2e
       3.673954e-11 4.7726e-10 3.4263678e-10 3.3279286e-11
0002d0 ee 16 0d 2f 1c 83 0e 2f 9b 29 dc 2f 93 d7 0a 2f
       1.2832022e-10 1.2961404e-10 4.004733e-10 1.2627614e-10
0002e0 91 52 67 2f 11 8a 9d 30 59 31 2b 2e 48 35 87 2f
       2.1038661e-10 1.1462494e-09 3.8924728e-11 2.4594216e-10
0002f0 9d ab 63 2f de 23 ea 2f ce 50 d5 2e 09 6f ab 2f
       2.0706499e-10 4.2589837e-10 9.7004724e-11 3.1183614e-10
000300 00 a7 41 2e 2e d7 13 2f e2 a3 38 2f cf e2 4f 2e
       4.4031445e-11 1.3446019e-10 1.6792925e-10 4.7267797e-11
000310 45 6a ea 2f a3 c0 9a 2e 02 cc e0 2e 25 8d ad 2e
       4.263986e-10 7.0373284e-11 1.022258e-10 7.8922015e-11
000320 6a fb a6 2e 60 87 33 2f 5a bd 86 2f e5 d4 cc 2e
       7.593466e-11 1.632805e-10 2.4509e-10 9.3146636e-11
000330 e1 b7 86 2f e1 cb b5 2e 9e 63 0d 2f 23 a8 92 2f
       2.4505112e-10 8.267143e-11 1.2859266e-10 2.6676714e-10
000340 aa 84 1a 30 81 92 2a 2e f6 1d c1 2f 94 6a 87 2f
       5.62134e-10 3.8783646e-11 3.5127784e-10 2.4632085e-10
000350 e6 ea be 2e f9 e9 12 2f a8 a2 5d 2e 26 d0 81 2e
       8.681926e-11 1.3361746e-10 5.039405e-11 5.9032154e-11
000360 4f 84 7d 2d 67 fe 19 2f a6 0f 23 2e 1f 15 e7 2e
       1.4410763e-11 1.4005651e-10 3.7075808e-11 1.0508416e-10
000370 fb 5b 0a 2e 25 c4 9d 2d 82 77 7f 2d 5c c2 c6 2d
       3.1459262e-11 1.793594e-11 1.4521608e-11 2.2596307e-11
000380 b4 a0 ee 2d 9c a0 1f 2e ee 0f e2 2f a3 62 87 2e
       2.7128834e-11 3.6295064e-11 4.112048e-10 6.1566106e-11
000390 3f 1e c9 2d c6 88 0d 2e 2f c8 2e 2e 62 c5 ff 2e
       2.2864486e-11 3.2181167e-11 3.974082e-11 1.163112e-10
0003a0 8c bd c4 2e 45 db df 2d 8a 64 f6 2e 30 0f b8 2e
       8.9467184e-11 2.544954e-11 1.1204644e-10 8.370049e-11
0003b0 b0 ad f1 2d 55 f1 3b 2f a0 a3 80 2f 64 0b 17 2d
       2.747566e-11 1.7093289e-10 2.3399327e-10 8.5858855e-12
0003c0 ea e0 e5 2e 38 19 29 2f 73 76 30 2f d6 d6 4e 2f
       1.0453667e-10 1.537942e-10 1.6049188e-10 1.8811916e-10
0003d0 c4 2a 0a 2f f7 ae b6 2f 9b c5 5e 2e 01 5a 68 2f
       1.256622e-10 3.3229927e-10 5.0652465e-11 2.1132253e-10
0003e0 0c a6 30 2f 36 73 88 2f 35 0f 9a 2e d8 14 df 2e
       1.6066098e-10 2.4820118e-10 7.0058105e-11 1.01445685e-10
0003f0 ce fa f8 2d ce 9e a2 2e 5c 81 9b 2e c0 3a 52 2e
       2.8305715e-11 7.3951165e-11 7.071563e-11 4.7800652e-11

exp_avg f4 [30]
000000 35 d8 01 ad c8 0e 28 2c 1b 9c 91 2c c1 01 d6 2b
       -7.380809e-12 2.3882441e-12 4.138479e-12 1.5206101e-12
000010 14 17 28 2c cb 4c 30 2d c6 e1 ac ac 75 9e 91 2c
       2.3887047e-12 1.0021493e-11 -4.9136e-12 4.13874e-12
000020 62 c6 9f ac 6e 67 e3 ac e4 5e 9c ad 83 44 de ab
       -4.5410767e-12 -6.463211e-12 -1.7777287e-11 -1.5793065e-12
000030 58 7e ba ab f0 fc e0 2c 19 1e d6 ac 1a c8 18 ac
       -1.3251162e-12 6.3945446e-12 -6.0855873e-12 -2.1711578e-12
000040 20 13 0c ac 9b 69 96 ab fc f8 7d ac 85 37 9f 2c
       -1.9905813e-12 -1.0687452e-12 -3.6091677e-12 4.5252157e-12
000050 a2 2f 32 2d 45 b3 01 2c 62 d9 12 2c 08 cf b8 ac
       1.0128705e-11 1.8431517e-12 2.086852e-12 -5.2525796e-12
000060 4a 75 5c 2b cd 07 13 2d 01 52 cb 2b 7b 3b 0c 2c
       7.832247e-13 8.357715e-12 1.4446778e-12 1.9928215e-12
000070 54 58 55 ac b9 16 41 2b
       -3.0318153e-12 6.859891e-13

exp_avg_sq f4 [30]
000000 cf f9 21 2b 75 61 d2 29 39 6a 49 2b 17 b9 60 2b
       5.754537e-13 9.3427795e-14 7.155696e-13 7.983765e-13
000010 87 c4 c4 29 43 bb da 29 74 d9 b6 2c aa 70 b5 2c
       8.7382406e-14 9.7136295e-14 5.1968933e-12 5.1568376e-12
000020 f9 99 fd 28 89 2a 35 2b 55 57 20 23 dd d4 33 2a
       2.8155418e-14 6.4363147e-13 8.692111e-18 1.5972245e-13
000030 6b 4d ab 27 53 d4 2f 2c 0f df 96 28 9b 35 e2 28
       4.754597e-15 2.498686e-12 1.6750082e-14 2.5114288e-14
000040 cc 13 a2 2a 2e 1a 74 2c 46 1e d5 2c e7 59 30 2b
       2.8790718e-13 3.4689018e-12 6.057185e-12 6.2652525e-13
000050 1a a3 41 2b a7 9c 89 2a 59 60 07 2c 65 6d fa 27
       6.8793723e-13 2.4444788e-13 1.9238138e-12 6.9507545e-15
000060 87 f3 43 29 30 72 13 2b 87 73 a6 2a ba 54 f4 2c
       4.3509924e-14 5.238336e-13 2.9567687e-13 6.9443036e-12
000070 1b 15 02 2b fa 31 a9 2b
       4.621457e-13 1.2022044e-12

exp_avg f4 [7, 30]
000000 df 81 6b 35 dc 44 60 35 28 d9 fc b5 0e df a3 35
       8.773331e-07 8.3546706e-07 -1.8838664e-06 1.2209364e-06
000010 9c 54 62 b5 cf b8 e4 b4 a3 09 39 b5 6a 5d 0e 35
       -8.4314684e-07 -4.2602775e-07 -6.8931894e-07 5.303506e-07
000020 93 95 7a b5 d7 40 58 35 6e ae e8 35 e4 ce 40 35
       -9.3349917e-07 8.0560625e-07 1.7336113e-06 7.182664e-07
000030 d3 e6 02 b5 7a ed 4b b5 ca 1d 28 b5 f7 11 87 35
       -4.876467e-07 -7.5968967e-07 -6.2628226e-07 1.0063512e-06
000040 77 88 3e 35 1f fa d1 35 52 9f b0 b4 32 11 9f b5
       7.09791e-07 1.5644508e-06 -3.2898475e-07 -1.1851428e-06
000050 ac b3 34 b6 06 e1 05 b6 6e d8 e8 b5 16 48 21 b5
       -2.6926673e-06 -1.9949525e-06 -1.7348336e-06 -6.008207e-07
000060 50 89 72 b4 2e b7 61 b6 85 3c 72 35 80 02 a1 b5
       -2.258796e-07 -3.3634237e-06 9.024009e-07 -1.1996162e-06
000070 c3 8a 8d 35 fc 72 be b5 95 1f 9e 36 62 98 09 b6
       1.0545704e-06 -1.4189568e-06 4.7124436e-06 -2.050329e-06
000080 21 66 c1 b6 41 04 1f b6 8c 08 50 b5 ef d6 ea b6
       -5.7637376e-06 -2.3695322e-06 -7.7498476e-07 -6.998765e-06
000090 08 1b 39 b7 74 5b 07 37 32 70 9e b5 a7 54 02 36
       -1.1033153e-05 8.06792e-06 -1.180457e-06 1.9420784e-06
0000a0 e7 7b 7c 36 fc 8e 85 35 39 7f c7 b4 eb 0c 87 36
       3.7623047e-06 9.950886e-07 -3.7159205e-07 4.0248174e-06
0000b0 3f cb d2 b6 62 4d 4b 37 d0 f1 7d 36 ec bc 6e 36
       -6.2821487e-06 1.211776e-05 3.7840691e-06 3.557473e-06
0000c0 cf ba ef b6 7b e5 52 b6 8e 15 cd b6 78 85 06 37
       -7.1445024e-06 -3.1426014e-06 -6.1119854e-06 8.018098e-06
0000d0 a9 35 1f b7 f1 03 c5 b6 a9 31 30 36 2a fc 63 b6
       -9.489632e-06 -5.8715164e-06 2.625495e-06 -3.3972415e-06
0000e0 2d f6 ae 36 69 17 0b b7 91 fe b9 36 f5 22 95 36
       5.2142627e-06 -8.290496e-06 5.543065e-06 4.4446156e-06
0000f0 53 0b e8 34 b8 3f 94 b5 f9 02 b1 b5 46 4f 87 b5
       4.3221607e-07 -1.1045404e-06 -1.3188393e-06 -1.0081355e-06
000100 60 43 0b 36 c2 4e b9 b4 ef 1d 9a 36 fd 60 37 33
       2.0751831e-06 -3.451624e-07 4.5930424e-06 4.2696218e-08
000110 7b 4a e4 35 96 1b 90 b4 5a 5d 63 35 c5 51 6e b6
       1.7009e-06 -2.6842162e-07 8.4699934e-07 -3.551236e-06
000120 be 37 97 34 8d f3 3e b6 b0 2b 91 35 ef 02 ba b5
       2.81665e-07 -2.8453971e-06 1.0816057e-06 -1.3858934e-06
000130 35 ef 9c b5 f7 de 6e b4 b5 e9 18 36 3b 35 bb b5
       -1.1692524e-06 -2.2246591e-07 2.27858e-06 -1.3948078e-06
000140 91 f6 9a b6 7e 75 14 b6 52 c3 da 35 28 24 3a b4
       -4.6182618e-06 -2.2122108e-06 1.6299111e-06 -1.7335753e-07
000150 62 90 d7 b3 40 6a 16 36 89 ac a5 b5 38 59 ab 33
       -1.0037981e-07 2.2413587e-06 -1.2343672e-06 7.979037e-08
000160 59 fe c7 b6 ed 93 cf b5 8c c3 83 35 ef 37 77 34
       -5.960272e-06 -1.5465754e-06 9.817172e-07 2.3024016e-07
000170 5e 0f 14 b6 57 c8 48 b5 a4 65 25 b6 9b 8e 19 36
       -2.2062663e-06 -7.479734e-07 -2.4646079e-06 2.2881784e-06
000180 30 0c 11 b6 a5 6f 4c 34 62 1f a9 b3 92 fc b4 35
       -2.1613778e-06 1.9039597e-07 -7.875384e-08 1.3484553e-06
000190 bc 97 51 b5 66 88 99 33 f9 6f 0f b5 4d ac 3f 36
       -7.807937e-07 7.1494284e-08 -5.3434593e-07 2.856151e-06
0001a0 04 dd 0d b6 36 4b f1 35 22 09 0c b5 aa 1a d8 33
       -2.1139285e-06 1.7977789e-06 -5.2167354e-07 1.0063134e-07
0001b0 ce 20 bb b4 e1 03 a7 34 f6 10 b0 b3 1c 36 71 35
       -3.4855333e-07 3.1108996e-07 -8.198724e-08 8.9858236e-07
0001c0 78 f2 14 b5 db d1 78 b4 09 2c d8 35 5c 24 f5 b2
       -5.5487135e-07 -2.3173145e-07 1.610607e-06 -2.8538288e-08
0001d0 af ff e3 35 d5 0e 85 33 67 13 a9 34 fa 89 9c 35
       1.6987232e-06 6.195993e-08 3.149282e-07 1.1663062e-06
0001e0 68 f2 d5 35 91 f0 51 b6 8d d5 78 b6 ae de 46 b6
       1.5940286e-06 -3.1283455e-06 -3.7079183e-06 -2.9633916e-06
0001f0 e2 1d ed 35 c3 fb 4e b6 c3 76 4e b6 ec f9 9e 36
       1.7666573e-06 -3.0842937e-06 -3.076552e-06 4.7378617e-06
000200 57 a5 fa 35 cb d0 c3 35 18 ef 37 b2 7e 8a 10 b6
       1.8674572e-06 1.4589399e-06 -1.0706366e-08 -2.1538285e-06
000210 17 c3 32 34 63 17 a2 36 09 89 73 b4 dd 43 a3 36
       1.6648515e-07 4.830699e-06 -2.2680992e-07 4.865679e-06
000220 0c c3 98 34 e5 30 d7 b4 01 29 59 b6 8f 6c 8e b6
       2.8454122e-07 -4.0082446e-07 -3.2359387e-06 -4.2445677e-06
000230 e7 90 03 b6 08 fa d8 36 3f 35 a5 b6 31 1c 37 b6
       -1.9604865e-06 6.466409e-06 -4.923582e-06 -2.7285535e-06
000240 bc d9 98 35 00 d3 5f b6 8c 59 1b 35 55 24 c6 b5
       1.1388252e-06 -3.3352408e-06 5.787231e-07 -1.4762724e-06
000250 13 4a fc 34 7c b0 84 36 34 c4 4b 36 71 45 b7 b5
       4.6992554e-07 3.954452e-06 3.0363562e-06 -1.3654773e-06
000260 c4 db 37 b6 e5 f0 7d b6 16 12 1d b5 dc e8 b0 b5
       -2.7397045e-06 -3.7840157e-06 -5.8513376e-07 -1.3180793e-06
000270 7d 49 b4 35 11 0d a0 35 1d d0 69 36 9e b3 5e 35
       1.3432433e-06 1.1924732e-06 3.4840843e-06 8.296282e-07
000280 d1 53 09 36 6d be 1f b6 9a 52 86 b5 11 f8 b3 35
       2.0463378e-06 -2.3803689e-06 -1.0007818e-06 1.3408736e-06
000290 23 df a1 35 36 0e 2f 36 87 4f 15 b6 34 33 e7 b5
       1.2060376e-06 2.6085304e-06 -2.2249021e-06 -1.7225743e-06
0002a0 7a dc ec 35 5f d6 0c b6 2d bc 80 b6 79 02 21 35
       1.7647537e-06 -2.0986406e-06 -3.836604e-06 5.998077e-07
0002b0 bd 74 32 34 cd b0 45 33 e3 a6 22 36 bb 07 37 36
       1.6620011e-07 4.6028436e-08 2.4237022e-06 2.7273625e-06
0002c0 7f 3c 28 35 b1 dc 65 b3 57 f4 7f b6 a2 98 a5 35
       6.267291e-07 -5.3518935e-08 -3.8140186e-06 1.233788e-06
0002d0 5f 08 b7 36 89 43 d1 35 1c 51 b7 b6 38 b4 a8 b5
       5.4547995e-06 1.5591369e-06 -5.4632674e-06 -1.2569426e-06
0002e0 ae a4 6b b6 48 f3 79 b6 d4 33 b9 36 22 5e b5 b5
       -3.5113585e-06 -3.72455e-06 5.5194632e-06 -1.3512947e-06
0002f0 fc fd 5e 36 1f 98 c4 36 32 01 cf 36 34 ba 10 35
       3.3228416e-06 5.8589644e-06 6.16922e-06 5.391514e-07
000300 76 a4 5f b6 98 b4 8f b6 f4 ad bd 36 2c 2a 80 b3
       -3.3325318e-06 -4.282756e-06 5.6528897e-06 -5.9681355e-08
000310 f5 50 01 b6 96 b7 65 b5 53 68 31 36 17 46 ee b6
       -1.926962e-06 -8.55763e-07 2.643578e-06 -7.1011123e-06
000320 93 c2 3e b7 ce ba 03 b7 d5 9f 87 b5 b7 cd de 34
       -1.1370185e-05 -7.851702e-06 -1.0104801e-06 4.15004e-07
000330 30 06 1e 36 2b 84 34 b7 69 6c 35 b6 c5 38 6b b5
       2.3547436e-06 -1.0759609e-05 -2.7034205e-06 -8.762693e-07
000340 e6 7e da b5 dc ec f6 b5
       -1.6279198e-06 -1.8397363e-06

exp_avg_sq f4 [7, 30]
000000 6b 65 8f 2e 8c c8 ac 2f bf fe 15 30 ac 48 6f 2f
       6.5209026e-11 3.1429115e-10 5.45679e-10 2.1762742e-10
000010 bc 73 0e 2e 26 90 35 30 2e 3a f6 2e 4f 4e 8d 2e
       3.2389855e-11 6.6052264e-10 1.11971196e-10 6.425848e-11
000020 dd d7 29 2f 1c 36 9e 2d d0 3f f6 30 3b 94 63 2f
       1.544715e-10 1.798655e-11 1.7916992e-09 2.0698192e-10
000030 5e df b8 2e 16 b7 c5 2d 1f f1 36 30 e1 d7 0b 2f
       8.407029e-11 2.2477614e-11 6.655387e-10 1.2718672e-10
000040 a0 fa 69 2e 9f 43 9d 2f 3f 45 0c 30 90 5a 8d 2e
       5.3200666e-11 2.860618e-10 5.103011e-10 6.428025e-11
000050 a9 e3 95 30 68 65 46 2f 8c 27 dc 2e d0 30 29 2f
       1.0905882e-09 1.8044022e-10 1.0011467e-10 1.5387802e-10
000060 e6 e9 03 2f cb de ed 2f 9b f7 e3 2f ce 1d 3d 30
       1.1997478e-10 4.3268353e-10 4.1466994e-10 6.8800154e-10
000070 d9 fe 4e 2f 41 bd 6d 2f b7 5d 33 30 01 b8 41 2f
       1.8826131e-10 2.1622261e-10 6.5253e-10 1.7618619e-10
000080 3b 08 3b 30 79 ce 25 2f 4d df b4 30 46 55 2f 30
       6.80419e-10 1.5080016e-10 1.316019e-09 6.378581e-10
000090 c4 55 47 30 ad 02 10 30 dc 0a b1 2f 14 7c 23 30
       7.251766e-10 5.23907e-10 3.2203828e-10 5.947538e-10
0000a0 85 e8 80 30 44 e9 16 30 12 da 90 30 54 7a d5 2e
       9.379312e-10 5.490117e-10 1.0539358e-09 9.7078484e-11
0000b0 e8 b8 0b 30 7a 51 40 30 72 36 15 30 8e 8e b0 30
       5.0830673e-10 6.996498e-10 5.4283256e-10 1.2846202e-09
0000c0 87 03 a7 30 8a d6 12 30 b6 68 21 31 92 32 31 30
       1.2151852e-09 5.341937e-10 2.3488105e-09 6.446409e-10
0000d0 b4 7b bc 30 c3 03 96 30 70 fa cd 2f 89 9b ea 30
       1.3713959e-09 1.0915006e-09 3.746723e-10 1.7069947e-09
0000e0 f6 94 56 30 68 23 38 30 c2 7a 1b 30 8d 50 b7 30
       7.806443e-10 6.6989125e-10 5.656312e-10 1.3337896e-09
0000f0 8e de 35 2f 38 a4 03 30 d2 a7 1e 31 72 78 13 2f
       1.6540921e-10 4.789089e-10 2.308742e-09 1.3412363e-10
000100 ae 50 88 30 38 24 9f 2e e0 b3 6f 30 cf ad 84 30
       9.918233e-10 7.2369166e-11 8.720331e-10 9.653663e-10
000110 16 dc 3d 30 d9 96 67 2f 50 60 6c 30 eb c5 4c 31
       6.907056e-10 2.106292e-10 8.599317e-10 2.979841e-09
000120 57 35 a0 2f 32 bd 13 30 e2 a6 1a 2f 00 4e a9 2f
       2.914173e-10 5.374715e-10 1.4065507e-10 3.0796343e-10
000130 76 f3 d9 2f 60 df ed 30 a5 df 9d 2f cf 26 97 2f
       3.964506e-10 1.7307507e-09 2.8717043e-10 2.7494315e-10
000140 ec 8c 5c 30 fd 1d 93 2f 68 55 01 30 09 23 b7 30
       8.0235796e-10 2.6760452e-10 4.7051296e-10 1.332496e-09
000150 b8 c5 c2 2e 7a f3 01 31 74 f0 c5 30 2d d1 c2 2e
       8.8572205e-11 1.891037e-09 1.4401977e-09 8.859256e-11
000160 47 44 c8 30 e5 ab 57 2f a7 a7 ea 2e ad e7 50 2f
       1.4571321e-09 1.9615205e-10 1.0670869e-10 1.8999798e-10
000170 80 f9 17 31 cc 5e 2b 2f 39 5e bc 30 39 ff d1 30
       2.2115216e-09 1.5586038e-10 1.370558e-09 1.527929e-09
000180 90 e1 84 2f 4c 20 8f 2f dc 19 61 2f 66 f8 83 30
       2.4170932e-10 2.6034497e-10 2.0472818e-10 9.602104e-10
000190 a7 28 9b 30 19 2c b7 2e 34 05 cb 30 84 c8 ea 2f
       1.1289288e-09 8.32971e-11 1.4771673e-09 4.2706827e-10
0001a0 bb ee 9a 30 2a 91 08 2f 79 da 85 2f 4a a3 a2 30
       1.1272826e-09 1.24207e-10 2.4347793e-10 1.1833461e-09
0001b0 8e a7 30 30 8c 22 1a 2f 92 b3 25 30 f0 60 a0 2d
       6.4266537e-10 1.4018492e-10 6.0281835e-10 1.8232943e-11
0001c0 97 e8 b1 2e ab b7 6d 2e c1 0e a7 2f 7e 99 4d 2e
       8.0903444e-11 5.405069e-11 3.0387606e-10 4.6747932e-11
0001d0 f0 51 16 30 1b 10 68 2f a1 aa 3f 2e 9f e1 51 31
       5.468612e-10 2.1105999e-10 4.357992e-11 3.0541754e-09
0001e0 54 5b 49 30 f2 0c 80 2f f2 bf 26 30 04 d8 f7 2f
       7.325316e-10 2.3292263e-10 6.066322e-10 4.5082527e-10
0001f0 e3 4d 0b 30 50 6b 39 2f aa 6c a9 2e 7b 8b c9 2f
       5.067859e-10 1.6863777e-10 7.704533e-11 3.6660794e-10
000200 6f ff 2b 30 cb 17 59 2f 6c 05 9f 2f 9c c2 f4 2f
       6.257243e-10 1.9744488e-10 2.8925784e-10 4.452162e-10
000210 3e 64 d2 2f 74 6a fd 2f c3 d8 8d 2f f1 a4 8b 30
       3.8270004e-10 4.6096071e-10 2.580177e-10 1.016046e-09
000220 79 fa d3 2e 00 f5 0b 30 55 0c 68 2f de 1e 57 30
       9.639662e-11 5.091607e-10 2.1104658e-10 7.826041e-10
000230 36 57 33 30 c4 07 36 30 ac 4b c3 30 a2 73 fd 2f
       6.5243755e-10 6.622225e-10 1.4209625e-09 4.6102594e-10
000240 b1 f7 b8 2f 9d 08 9f 30 13 a2 e5 2f 16 1f 35 2f
       3.36454e-10 1.1571221e-09 4.1770018e-10 1.6472898e-10
000250 02 75 da 2e 7f 18 20 30 1c 54 c8 2f 04 4b 52 30
       9.934277e-11 5.824247e-10 3.643955e-10 7.650416e-10
000260 b5 2b b4 30 3b d0 bd 2f 7a 55 97 30 d2 cc f4 2e
       1.3109146e-09 3.4526856e-10 1.101099e-09 1.1132219e-10
000270 34 3c a2 2f 99 a2 25 30 7c 29 80 30 d7 86 02 2f
       2.9510405e-10 6.0257715e-10 9.325016e-10 1.1871336e-10
000280 05 45 a9 2f d6 d2 0d 30 3b c9 b2 2f 9d 28 5f 2e
       3.0789962e-10 5.1595117e-10 3.2520994e-10 5.07404e-11
000290 83 21 a0 2f e2 47 74 2e f0 bc 0c 30 64 96 a0 30
       2.9127642e-10 5.554302e-11 5.12002e-10 1.1684276e-09
0002a0 5a fd 06 30 e1 3e ca 2e 44 39 92 2f 13 1f 14 30
       4.910895e-10 9.197066e-11 2.6597935e-10 5.3886245e-10
0002b0 ae d1 0b 30 6b 1d f5 30 95 d6 fa 2e b5 6d 5b 30
       5.086588e-10 1.7834457e-09 1.1406801e-10 7.982764e-10
0002c0 db fd 0b 30 ee 69 8a 2f 90 6c 64 30 1a 08 3c 2f
       5.0928656e-10 2.517732e-10 8.3100193e-10 1.7101379e-10
0002d0 91 d0 20 30 de 2d 75 2f f7 1f 26 30 9a 4f 33 2f
       5.850405e-10 2.2298915e-10 6.0435873e-10 1.6308235e-10
0002e0 e7 e5 34 30 63 d6 f1 2e ed 5b b9 2f 40 33 0f 2f
       6.581033e-10 1.0997494e-10 3.371662e-10 1.3023982e-10
0002f0 38 51 36 2f 9e 37 24 30 41 f3 d1 2f 27 89 94 2e
       1.6581658e-10 5.974189e-10 3.818972e-10 6.754624e-11
000300 1c e2 4c 30 62 a7 d3 2e 02 2d 37 2f 63 52 74 2f
       7.453609e-10 9.624902e-11 1.6659743e-10 2.222094e-10
000310 32 8a 40 2f 3c 43 06 2f c2 18 0e 2f ab 72 42 30
       1.7511395e-10 1.2211115e-10 1.292362e-10 7.073974e-10
000320 61 29 3d 31 e1 39 5d 2f ef 36 53 30 df 64 fb 2f
       2.752664e-09 2.0120396e-10 7.683942e-10 4.5728307e-10
000330 78 c2 d8 2f 67 ad 5a 31 d1 32 3d 2f 3b 28 3e 2f
       3.942835e-10 3.1821743e-09 1.7207503e-10 1.7294692e-10
000340 4f dc da 2f 3a 46 25 30
       3.9810508e-10 6.012645e-10

exp_avg f4 [7]
000000 62 b9 c9 ad bb f1 2e 2d c8 cf c8 2c 3c c2 7a ab
       -2.2933381e-11 9.94443e-12 5.7074102e-12 -8.9087396e-13
000010 ba 8a 10 ae e2 ad 47 ad 76 2d 73 2c
       -3.2865023e-11 -1.135045e-11 3.4557613e-12

exp_avg_sq f4 [7]
000000 33 23 55 28 f7 59 d8 29 5e a5 1f 2c a8 3f 52 2b
       1.1831508e-14 9.6079333e-14 2.2687056e-12 7.469533e-13
000010 5f 47 f4 25 e4 f3 a7 28 45 80 56 2c
       4.2375616e-16 1.8646495e-14 3.0482433e-12
