tutorial/DLPFC_output/version_2/checkpoints/mlp.ckpt (torch, 17985 bytes, 12 tensors)

model.classifier.0.weight f4 [30, 30]
00000000: f53d 83bb 6a23 8e3d ec61 f43d 8a65 18be
00000010: 0172 da3d d466 1b3c a1c6 91bd 018a 3cbe
00000020: 9e5f 7cbd 8e91 3f3d cd61 51be 4930 85bd
00000030: 2381 b03c 9f10 513e 5c9a 7e3d fab2 023d
00000040: 7266 a1bd 03d3 803d f5d7 83be 15d1 2dbe
00000050: 9ba2 14bb 39f8 293c e35f a13d c714 86bb
00000060: ac88 1fbc 3384 c23d 8bc5 0d3e 00cb 953d
00000070: 09f2 b9bc 6a02 0cba 9456 44bd c288 b73d
00000080: 4b28 273e a064 283c ad5b 97bd ca68 30bd
00000090: eaaf 82bd eba2 abbd 92cf 1cbe ec9c 34be
000000a0: 58e1 c33c a31c 5ebd cb96 0abd 3bd3 a9bc
000000b0: 481a 8f3d eae6 f53d 3501 83bd 9f5e 283e
000000c0: 64c9 ddbd c01d 8e3c 7f02 38bc f29c 77bd
000000d0: b966 183e a99d b6bc fe77 4a3b f8c2 d3bc
000000e0: b7d4 aebd 3e79 39be 23e4 163d 300d e6bc
000000f0: a756 8bbd 48d0 7fbc af99 3dbd a02a 423e
00000100: d68f 0bbe a043 8fbd 627f 8d3c 8b63 803d
00000110: b37c 0fba eece 06be 39fe 2e3e 7bdf 993d
00000120: 0df8 10bd f437 31be e909 7cbd 1308 cc3d
00000130: 7475 e83d f8d3 833d 3648 523e 7027 343e
00000140: fb8f e43c dc3e eabd b316 a83c b16b 21bc
00000150: a1a2 39bb 4932 07be b6b5 26be 7406 53be
00000160: cda7 ef3c 08ee 84bc b25c 833b e45e 6f3c
00000170: 7618 0e3d 6476 513d aeb1 9abd 2914 86bd
00000180: 40e2 0e3d 8be7 153e 0cad 0cbd 50a6 9ebd
00000190: cad7 353e 7b9b f7bc bb34 05bd 8122 2bbe
000001a0: ae88 203d b936 a3bd 4bce 8fbb c5e7 6bbd
000001b0: 8475 a83d 6302 963d a137 21bd 8b2f 0e3d
000001c0: 8933 f1bc f203 63bc e64d 943b 0228 41bd
000001d0: c027 e1bd 8fb4 83bd 2507 333d 5530 1dbd
000001e0: 9032 a03d 638e 81bd 4fb9 cabd 9019 903b
000001f0: cf37 1ebd b29d db3d 6e94 8d3d d19e 0f3e
00000200: c714 4a3d 0a06 993a 3b28 d83d 06fd 613c
00000210: 099f 93ba c851 c2bd ae03 6fbc 5527 89bd
00000220: e9dc 23bd ae0b 9fbd 6898 073e 0773 9e3d
00000230: 40d4 82bc 67ec a93d 3511 77bd 686d 133d
00000240: 5ee4 0b3d 66a4 6a3b 0d3b 7cbd dd90 fb3c
00000250: 0df8 483c 2ebb fc3c 0712 c2bd 10e7 323c
00000260: b0fb b4bc 7ba8 1f3e 7533 95bd 5d32 98bd
00000270: 721e 6cbc b253 b1bc 55a5 633c db68 92bd
00000280: 0e71 3f3d 520a 883d bbc6 30bc 98bf 7abd
00000290: e31f 83bd e0a6 e23d 5826 0d3e a4a0 983d
000002a0: cf50 d83d 15aa b03d 58b6 433d fdc9 07be
000002b0: 02bc 193d 7a90 90bc 20e5 a439 1a0a c5bd
000002c0: f110 8fbd c283 13be 9de7 833c af29 1bbc
000002d0: 084c 27bd d720 0c3e 39d4 c33d 2f41 f5bd
000002e0: 1972 ca3d 70a7 0dbe ff70 073d dd97 9ebd
000002f0: 5c5e 693d 543a 303d f685 dcbc 0627 37bd
00000300: 7a13 3b3c 8560 983d 5a5b b73d 2608 febd
00000310: c83b eb3d 5d2a fcbd 9f94 c5bd 4648 0fbe
00000320: 443e d83a f325 093d d856 39bd 332b 1b3d
00000330: 4e62 973c c4ed 333d 4c7b a63d 6983 a73c
00000340: 93a5 623d 6b90 98bd 5960 ad3d 570c 4a3c
00000350: 4fb5 d1bc 232b cfbd 1ddf 213d 9e37 ca3d
00000360: d3a0 843d 3f88 a43d 8fcc 523d cf78 4a3d
00000370: 82ad 9f3c ece8 3bbd 16d4 b23c d949 083c
00000380: 842e 513d 78fa 10be 0d1a 61bd 1484 02be
00000390: 27a5 0cbc 7d0e 71bd 8e13 c1bc 6c21 143e
000003a0: 2a00 6dbd daa8 483d b834 6d3d 5680 9d3d
000003b0: d247 dd3c 8ffd da3d e1ca 023d f66f 793c
000003c0: 33f1 ebbc 9fd4 9c3d ace2 863d 0b80 11be
000003d0: f4ca 093e 30cd 35bd 0332 0ebd 88a1 45be
000003e0: d4c2 d43c cead b73d 61ee 49be 29ee c2bc
000003f0: be78 fb3c 5b3e 583e e53b 1a3d e486 13bb
-0.0040051886 0.069403484 0.119327396 -0.14882484 0.10666276 0.009484965 -0.071179636 -0.1841202
-0.061614625 0.04676967 -0.20447464 -0.0650335 0.021545952 0.20416497 0.062158927 0.031908967
-0.07880868 0.06290247 -0.257507 -0.1697429 -0.0022679928 0.010374122 0.07879617 -0.0040918323
-0.009737175 0.09497871 0.13844888 0.0731411 -0.02269842 -0.0005340936 -0.04793413 0.08961631
0.16323964 0.010277897 -0.07390533 -0.043068685 -0.06381209 -0.083806835 -0.15313557 -0.17637986
0.023911163 -0.05422653 -0.033835214 -0.020730605 0.069874346 0.12006934 -0.063967146 0.16442345
-0.10829428 0.01734817 -0.011231064 -0.06045241 0.14882936 -0.022291975 0.0030894275 -0.025849804
-0.08536666 -0.18112656 0.036838662 -0.02808246 -0.06803637 -0.015613623 -0.046289142 0.18961573
-0.13629088 -0.0699532 0.017272655 0.06268986 -0.0005473599 -0.13164875 0.17089166 0.07513329
-0.03539281 -0.173065 -0.06153289 0.099624775 0.113505274 0.06436914 0.20535359 0.17593169
0.027900686 -0.11437771 0.020518636 -0.009852336 -0.0028325694 -0.13202776 -0.16280255 -0.2060793
0.029254818 -0.016226783 0.004008853 0.014610026 0.034691297 0.051138297 -0.07553421 -0.06546814
0.034883738 0.14639108 -0.034344718 -0.07746565 0.17758098 -0.030225506 -0.03252099 -0.16712381
0.039192848 -0.07969422 -0.0043886057 -0.05759408 0.08225539 0.07324674 -0.039359692 0.03471331
-0.02944352 -0.013855921 0.004525888 -0.047157295 -0.1099391 -0.06430923 0.043707985 -0.03837617
0.07822144 -0.06325986 -0.09898626 0.0043975785 -0.038627442 0.10723437 0.06913076 0.14025427
0.04933622 0.0011674773 0.10554548 0.013793236 -0.0011262606 -0.09488255 -0.01458828 -0.06696955
-0.0400056 -0.077658996 0.13241732 0.077367835 -0.01597035 0.08297043 -0.060319144 0.03599301
0.034153335 0.0035803556 -0.061579753 0.030708725 0.012266171 0.030850973 -0.09476095 0.010919347
-0.02209267 0.15591614 -0.07285205 -0.07431481 -0.014411556 -0.021646354 0.013894399 -0.07148906
0.046738677 0.066425934 -0.010789569 -0.061217874 -0.06402566 0.11066985 0.13784158 0.07452515
0.10562288 0.086261906 0.04778132 -0.13260646 0.037532814 -0.017647017 0.0003145123 -0.09621067
-0.06985653 -0.1440573 0.016101653 -0.009470387 -0.040843993 0.13684402 0.09561963 -0.119753234
0.09885044 -0.13833404 0.033066746 -0.07743809 0.056974754 0.043024376 -0.026919346 -0.04471495
0.011418218 0.07440285 0.08952971 -0.12403898 0.11486012 -0.12312768 -0.09647488 -0.13992414
0.0016498049 0.033483457 -0.045248836 0.037882995 0.018479493 0.043927923 0.08128986 0.020448403
0.055333685 -0.074494205 0.084656425 0.012332044 -0.02559915 -0.101156496 0.039519418 0.098738894
0.06475987 0.080337994 0.051464614 0.04943162 0.019491915 -0.04587643 0.021829646 0.008318388
0.05106975 -0.14158046 -0.054956485 -0.12745696 -0.008584297 -0.058851708 -0.023568895 0.14465874
-0.057861485 0.048989154 0.057911605 0.07690494 0.027011786 0.10692894 0.03193176 0.0152244475
-0.028801536 0.07657742 0.06586203 -0.14209001 0.13456327 -0.044385135 -0.034715664 -0.192999
0.025971808 0.089686975 -0.1971984 -0.023795204 0.030697223 0.21117537 0.037654776 -0.002251082

model.classifier.0.bias f4 [30]
00000000: a741 8d34 69c7 5fb6 ff40 c535 05cf c935
00000010: a59e b4b6 f097 98b6 875e 5eb6 ec91 8ab5
00000020: f6f1 6337 01b0 d033 83a0 17b8 a361 9ab6
00000030: 6297 02b7 5dc4 91b6 4838 2c37 fa47 1837
00000040: b2c1 8db6 bf13 b136 4519 44b6 1945 2d36
00000050: c05b aab5 7374 f4b6 e722 23b6 2d14 bcb3
00000060: b764 0b37 182d 3c35 65c9 c036 c8ff ecb5
00000070: 5b36 3db4 e02d acb5
2.6311065e-07 -3.3345661e-06 1.469656e-06 1.5035918e-06 -5.3828867e-06 -4.547641e-06 -3.31356e-06 -1.032427e-06
1.358659e-05 9.71777e-08 -3.6150694e-05 -4.600924e-06 -7.78385e-06 -4.3441964e-06 1.0265103e-05 9.076664e-06
-4.2246766e-06 5.27731e-06 -2.9220985e-06 2.581923e-06 -1.269269e-06 -7.285323e-06 -2.4309209e-06 -8.758102e-08
8.308495e-06 7.010108e-07 5.7454913e-06 -1.7657812e-06 -1.7621771e-07 -1.282835e-06

model.classifier.1.weight f4 [7, 30]
00000000: 643c c93d 67be 563b 7e50 71be bba0 413d
00000010: 2c69 8e3d 55f3 6dbe 43d2 ecbd fef5 0e3e
00000020: c293 47bd 85b5 003e 3433 803e c077 e0bc
00000030: dbdc a83d 2250 99be be15 d1bd 72cb 3c3e
00000040: 7f72 9a3d 4857 243e c054 d3bd a861 b73c
00000050: 62ef c6be 0d19 f1bd 768f 43be 3a72 3dbe
00000060: 5efe f1bd 564c 8fbe 59e5 313e 22c0 85be
00000070: ae21 983d 73f4 32be 9ad8 aebe 6d37 92be
00000080: 6567 4e3e 2e06 6e3c 25a9 5d3e 6ef4 fc3d
00000090: 6cdd 87be 2982 683c f549 86be dca8 e0be
000000a0: c02f d8bd 1838 3c3d a3dc 493e 09d2 2e3e
000000b0: 9d2a f5be dd27 a73d d795 31bc a4c9 7e3d
000000c0: 4560 17be 95f1 873e 8a1b f53e ddd8 663e
000000d0: cfb3 413e 38cc f13d 633b 3dbe 9366 f63e
000000e0: fabe d33e 3281 27be 947b e8bb 553a 1abe
000000f0: 61db d7bd 8162 a63d 410e de3d 6746 4e3d
00000100: 5896 103e ebdd c03b ceaa f8bd 80c3 423d
00000110: c30b 16be a3ad ef3d d0b3 63be 86ef 083e
00000120: 0b07 9d3d cb12 6bbe 4731 98bd 1afd e0bd
00000130: ee25 143e f154 893e 4a4b 18be 0536 98bd
00000140: cf65 a2bd d42c 1e3e e42e 81be 644d 84be
00000150: 3b4e dbbd 0d81 22be 19bf abbd fe08 dbbd
00000160: dad3 dc3d 23eb b43c 7e28 e83d adff 433e
00000170: bc46 833d 4cb6 86bd 7f9e 42be 7318 333e
00000180: 5ef9 e93c 6ffc 28be 7e79 be3d c8df 023e
00000190: 94eb 2fbe 0a69 003e 664f a9bd 6da0 d8bb
000001a0: 9270 da3d bdbb cabd c0e2 bcbd c644 18bd
000001b0: bb4e 073e f6a5 403d b9c9 313d 6320 6fbd
000001c0: 0973 9bbc 503b e53c 6620 2c3e 82ab 3dbd
000001d0: 703f e9bd 2afb 473e 4a56 823d 56e9 fd3d
000001e0: 7356 773e 0d6a 79be f98e d7be eee1 23be
000001f0: d8ed ca3c a698 89be db2c 883e 1df8 943e
00000200: 030b 9a3e 8017 633e fe5f 2f3e 763a a8be
00000210: ed28 1abe 8018 933e a314 b33e ebba 5a3e
00000220: 7ea0 9fbc 8717 2dbe a8bd a3bd 782a babe
00000230: 9246 93be 291f 783e f4fe 82be 9587 afbd
00000240: 46f8 d53d 692f 9fbe 9d1d 70be 5c4e dc3d
00000250: 1a0f 5fbe 1c8c 7c3e 2f7c 663e 6430 2fbe
00000260: a7ab 77be 3da0 7fbe 5712 e1bd 4216 b5bd
00000270: 0831 3c3d 1101 0fbd 1da8 8b3e f9ac 4ebe
00000280: a137 b63e 876a 4fbe b0b5 5dbc 4997 e03d
00000290: b96f 85bd d648 9c3e 8746 9bbe 322b a5be
000002a0: 0678 913e 5de1 b23e bf2d 26be 9645 81be
000002b0: 471f 933e b976 943e f18c 243e 8d84 9a3e
000002c0: ee97 9b3e f490 cc3c 6d2f 94be bc93 fcbd
000002d0: 1fed 8cbe 34b3 34be d3c9 dd3d 3b77 7a3e
000002e0: a145 003e 8d45 5c3c 5a1d 233e df66 c73d
000002f0: 25c3 24be 25b6 35be fa88 a63d 0552 29be
00000300: 956e 10b9 c30e 993e 711b 0e3d b98f 29be
00000310: 1a2f 463e d9e5 82bd 544e 29be 8c9d 88be
00000320: 5663 983e f862 cb3d d48c 7e3e 9cdb 073e
00000330: feb7 29be f0a3 5b3e f714 4dbe 6a3f 29bc
00000340: a354 9ebd 149f e4bc
0.09825972 0.0032767297 -0.23565862 0.047272425 0.06953654 -0.23237355 -0.11563542 0.13961026
-0.048724897 0.12569244 0.25039065 -0.027400851 0.0824525 -0.2994395 -0.10209225 0.18436983
0.0754137 0.1604892 -0.10318899 0.022385433 -0.3885451 -0.11772356 -0.19097695 -0.18500605
-0.11816095 -0.27987927 0.17372645 -0.26123148 0.07428299 -0.17476062 -0.3414963 -0.28557912
0.2015663 0.014527841 0.21646555 0.12351309 -0.2653612 0.014191189 -0.262283 -0.4387883
-0.105559826 0.045951933 0.19713072 0.1707231 -0.47884074 0.081619 -0.010838947 0.06220402
-0.14782818 0.265515 0.47872573 0.22543664 0.18916248 0.1180653 -0.18479685 0.48125133
0.4135664 -0.16357878 -0.00709481 -0.15061314 -0.1053989 0.08124257 0.108425625 0.05036011
0.14119852 0.0058858297 -0.121419534 0.047549725 -0.14652924 0.117030405 -0.22236562 0.13372621
0.07667359 -0.22956388 -0.07431274 -0.10985775 0.14467594 0.26822618 -0.1487247 -0.074321784
-0.07929575 0.15446788 -0.25231087 -0.25840294 -0.10708281 -0.15869541 -0.08386058 -0.106950745
0.10782595 0.022084778 0.11335848 0.19140501 0.06409976 -0.06577739 -0.19005774 0.17489795
0.02856129 -0.16502546 0.093005165 0.12780678 -0.1717971 0.12540069 -0.08267097 -0.006610921
0.10666002 -0.098990895 -0.09222937 -0.037174962 0.13213627 0.047033273 0.04340527 -0.058380496
-0.018975751 0.027982384 0.16809234 -0.04630614 -0.11389053 0.19529405 0.063641146 0.12398021
0.24154072 -0.24356861 -0.42101267 -0.16004154 0.024771616 -0.26874274 0.26596722 0.29095545
0.30086526 0.22176933 0.17126462 -0.32857102 -0.15054674 0.2872963 0.34976682 0.21360366
-0.019485708 -0.16903506 -0.079951584 -0.36360526 -0.28764778 0.24230637 -0.2558514 -0.08570782
0.10447745 -0.3109086 -0.23448797 0.10757133 -0.21783105 0.24662822 0.2250831 -0.17108303
-0.24186574 -0.2496347 -0.10989826 -0.08842136 0.045945197 -0.034913126 0.27276698 -0.20183171
0.35589316 -0.2025548 -0.013532087 0.10966355 -0.0651545 0.3052432 -0.30327246 -0.32259518
0.28411883 0.34937564 -0.16228388 -0.25248402 0.287348 0.28996828 0.1606939 0.30179253
0.3038935 0.024971463 -0.28942433 -0.123328656 -0.2752466 -0.17646486 0.108295105 0.24459545
0.12526561 0.013444317 0.15929165 0.09736418 -0.16090067 -0.17745264 0.08131595 -0.16535194
-0.00013774105 0.29894075 0.03469414 -0.16558732 0.19353905 -0.06391496 -0.16533786 -0.266827
0.29763287 0.09930986 0.24858409 0.13267368 -0.16574094 0.21449256 -0.20027529 -0.0103300605
-0.07730987 -0.027907886

model.classifier.1.bias f4 [7]
00000000: b8b5 95b4 afec 1034 c217 2134 7533 e732
00000010: a17c 6835 415f 0cb5 7d82 1db2
-2.788563e-07 1.349715e-07 1.5002936e-07 2.691534e-08 8.6608094e-07 -5.2292677e-07 -9.168272e-09

exp_avg f4 [30, 30]
00000000: 87e5 2335 910e 2036 02ca 8ab5 5828 c135
00000010: 68b5 d634 4133 84b2 cdf7 6bb3 9e7f 2c36
00000020: ab23 9235 8010 b5b4 3989 1f36 20f4 f1b5
00000030: 4f05 6835 59eb 89b5 1421 0b35 f0d4 00b6
00000040: da6b b134 521b f6b5 95bf cbb5 dac2 b0b5
00000050: 22e7 fa34 faf8 c235 aa42 bd35 c2be 9bb3
00000060: a3fa af35 cf5a 9c35 a2e7 5333 bfb3 da35
00000070: 7f5d 0534 fbfd 4a35 7094 86b5 acc1 3db5
00000080: 777f 58b4 8bb2 b6b4 70ab cfb1 d664 3fb6
00000090: 5277 8ab3 0a04 eab5 5181 2db5 2fa9 de34
000000a0: 7515 0435 6c13 df34 e066 2434 d3ef fd34
000000b0: e772 6431 edb2 5f35 b179 e734 9aa4 ebb3
000000c0: 6244 c935 75fa 6e35 a646 bdb4 132a deb5
000000d0: b47a e2b5 9f8e 4cb4 3a6e ddb5 c516 ffb5
000000e0: 7790 51b5 ee40 bbb5 ea8f b6b3 e223 89b5
000000f0: ea4b 96b5 f370 1db6 779d 5034 32f2 38b5
00000100: 537f 01b5 ad89 63b5 fce1 5334 4b93 40b6
00000110: ba25 94b5 374a eb34 a28d deb5 fe72 fe35
00000120: 16c1 4cb5 1923 5135 cf7b 8fb5 726f 2636
00000130: 637d 8934 2714 9535 1c33 2636 18a4 d035
00000140: cb54 fcb4 8b62 07b6 6a3b dab5 547f e4b3
00000150: 2bff ffb5 d79e e4b5 e81a 15b4 ec3a 10b6
00000160: 7eeb 73b4 874d a9b5 feed 9bb5 a956 01b6
00000170: b597 e835 7b03 8eb5 b9b0 6ab4 6a8e 14b6
00000180: 639a 12b5 eef6 2eb6 49af c0b5 707e 5635
00000190: d3e1 d7b5 20be ac35 4322 17b5 4843 a135
000001a0: 78ae 8133 a050 8c35 f5bc 00b5 b38d b835
000001b0: a55c 3235 3aa2 4f35 c7bc 68b5 98fa 05b6
000001c0: 5bea bab5 eeab 88b4 b90e dab5 075a f8b5
000001d0: 7e9b fcb4 5378 b9b5 5cca b0b3 a4a9 70b5
000001e0: 0a10 a8b4 f70e 32b5 2dff 2835 f7e4 c1b5
000001f0: a501 3534 b65f 2a34 8b81 cb33 f5c5 9bb5
00000200: 9e2f 1cb4 8bcb fbb1 5bd6 a9b5 1055 5135
00000210: e3ac cdb4 91bf 1235 e54d 2334 bc64 5435
00000220: ba2f 8434 5fad be34 fdd6 0e35 066c b434
00000230: b4fd 8933 c70f 27b5 f424 e3b4 d32e d834
00000240: c313 a3b4 3967 9bb4 371e d032 b938 62b5
00000250: fe17 d334 26b6 bfb3 f6ed 0ab5 6179 d1b5
00000260: d6bb fcb4 2b7e 5034 a6b3 d4b4 54ac d834
00000270: 49ec 4434 bb80 1eb5 d35a dfb4 50ad 0135
00000280: e490 39b5 f0a0 7635 b87b feb4 8422 be33
00000290: d601 86b5 f3c9 b035 08c6 6f34 f4a7 db34
000002a0: 1611 c135 5360 6d35 0f3a 9bb3 967d 53b5
000002b0: 36d5 2ab5 dcd6 62b3 c04b 2ab5 41d9 2cb5
000002c0: 47b3 2434 5c7c 64b5 dc69 08b5 cb80 16b5
000002d0: 4f8e e531 fd2d 9233 1875 9034 5f4f 87b4
000002e0: 6a08 3335 a3f4 cdb2 2a97 86b4 3789 28b5
000002f0: 04f9 4a35 15e7 d434 1015 0e35 c6ed f7b3
00000300: 4b1f 8434 ae25 1435 b281 cf34 b965 40b5
00000310: c687 8c34 8698 3b34 1d3f 82b5 196f 2bb5
00000320: 1061 b9b3 3266 7733 fc2c b233 5f54 6e34
00000330: 8bfe 85b4 e6ae 7634 62df 31b4 d35d af34
00000340: 1ddd d4b4 b9b8 6234 2cbf b1b4 1d90 2333
00000350: b068 1935 e445 57b5 0f0d 3235 d878 c133
00000360: 6f96 65b4 22e9 08b5 ce8e 1735 ab6f 4f34
00000370: 36e8 e4b4 efd3 fd32 66e0 7433 8166 2435
00000380: 423f 3e35 9790 16b5 cd16 e332 679c 81b4
00000390: 7e09 3cb5 e313 48b5 3da7 4534 2aef a234
000003a0: 438c 6732 a5e1 bb33 f769 9c34 12f9 a634
000003b0: bff2 03b3 d24f 85b2 d5c5 1835 ca60 1535
000003c0: d30d 8535 0a7f 1436 1bba ceb5 1b20 7435
000003d0: 0e84 a234 83f0 6635 b2ad 8934 039f 2136
000003e0: c015 e635 03c5 64b5 f1fa 0e36 3acb c1b5
000003f0: 12bc 4b35 e54a 62b5 8693 9a34 631a feb5
6.105624e-07 2.3850337e-06 -1.0340593e-06 1.4391362e-06 3.9992597e-07 -1.539013e-08 -5.4940575e-08 2.570428e-06
1.0888228e-06 -3.3725883e-07 2.377272e-06 -1.8026949e-06 8.643446e-07 -1.0275791e-06 5.182967e-07 -1.9197432e-06
3.3047291e-07 -1.833638e-06 -1.5180436e-06 -1.3169731e-06 4.67343e-07 1.4526588e-06 1.4100999e-06 -7.2524486e-08
1.3111461e-06 1.1649335e-06 4.9337935e-08 1.6294579e-06 1.2420604e-07 7.5620454e-07 -1.0026979e-06 -7.0689816e-07
-2.0162939e-07 -3.403005e-07 -6.043983e-09 -2.8519912e-06 -6.44783e-08 -1.7435534e-06 -6.46357e-07 4.147382e-07
4.9205056e-07 4.1551118e-07 1.5311116e-07 4.7299417e-07 3.3243681e-09 8.3334345e-07 4.3115645e-07 -1.0972981e-07
1.4995569e-06 8.902637e-07 -3.5255397e-07 -1.6552534e-06 -1.6874023e-06 -1.9050866e-07 -1.6497863e-06 -1.9005607e-06
-7.806879e-07 -1.3951483e-06 -8.501213e-08 -1.0217739e-06 -1.1197965e-06 -2.3460568e-06 1.9428795e-07 -6.889778e-07
-4.8241526e-07 -8.4764434e-07 1.9733119e-07 -2.8695965e-06 -1.1037839e-06 4.382616e-07 -1.658151e-06 1.8957942e-06
-7.62769e-07 7.790964e-07 -1.0690363e-06 2.4800797e-06 2.560947e-07 1.110723e-06 2.4765677e-06 1.5544965e-06
-4.7000353e-07 -2.0173927e-06 -1.6259557e-06 -1.0640238e-07 -1.9073244e-06 -1.7033552e-06 -1.3886495e-07 -2.149197e-06
-2.271681e-07 -1.2614045e-06 -1.1617665e-06 -1.927294e-06 1.73295e-06 -1.0580837e-06 -2.185724e-07 -2.2136614e-06
-5.46139e-07 -2.6071752e-06 -1.435613e-06 7.9905203e-07 -1.6084472e-06 1.2870332e-06 -5.630174e-07 1.2015016e-06
6.038766e-08 1.0454278e-06 -4.7958684e-07 1.3750308e-06 6.6444983e-07 7.734958e-07 -8.670144e-07 -1.996441e-06
-1.3926286e-06 -2.545707e-07 -1.624655e-06 -1.8503641e-06 -4.7051793e-07 -1.3818593e-06 -8.2324476e-08 -8.9653827e-07
-3.1304108e-07 -6.6331944e-07 6.2956207e-07 -1.4446258e-06 1.6857537e-07 1.5867303e-07 9.476488e-08 -1.1606013e-06
-1.4545955e-07 -7.3282016e-09 -1.2653867e-06 7.798235e-07 -3.8310017e-07 5.4668004e-07 1.5208896e-07 7.912274e-07
2.4621642e-07 3.5516402e-07 5.321197e-07 3.360621e-07 6.425708e-08 -6.2235307e-07 -4.2308932e-07 4.0267204e-07
-3.0375494e-07 -2.8946104e-07 2.4228127e-08 -8.4274103e-07 3.931927e-07 -8.927263e-08 -5.1755285e-07 -1.5607039e-06
-4.7075326e-07 1.9417409e-07 -3.961879e-07 4.035852e-07 1.8339883e-07 -5.9046914e-07 -4.160307e-07 4.830845e-07
-6.9128714e-07 9.1876336e-07 -4.7401204e-07 8.853843e-08 -9.984312e-07 1.3171797e-06 2.2330653e-07 4.091413e-07
1.4384593e-06 8.842955e-07 -7.228311e-08 -7.8786377e-07 -6.36402e-07 -5.281514e-08 -6.3440166e-07 -6.439114e-07
1.5338911e-07 -8.5117586e-07 -5.0817994e-07 -5.6066773e-07 6.680956e-09 6.80702e-08 2.6907287e-07 -2.520346e-07
6.669494e-07 -2.3976389e-08 -2.506943e-07 -6.278455e-07 7.561323e-07 3.9656211e-07 5.292977e-07 -1.15450845e-07
2.4609685e-07 5.518913e-07 3.865112e-07 -7.16736e-07 2.617582e-07 1.747122e-07 -9.704123e-07 -6.386413e-07
-8.6323894e-08 5.7602115e-08 8.2969535e-08 2.2196171e-07 -2.4958385e-07 2.2974163e-07 -1.6565676e-07 3.2664556e-07
-3.9648958e-07 2.1115092e-07 -3.3107915e-07 3.8082465e-08 5.714928e-07 -8.0195446e-07 6.632917e-07 9.009244e-08
-2.1382014e-07 -5.10032e-07 5.645969e-07 1.9319002e-07 -4.2637265e-07 2.9549453e-08 5.7014766e-08 6.1243924e-07
7.087257e-07 -5.608976e-07 2.6436647e-08 -2.414192e-07 -7.004927e-07 -7.4534745e-07 1.8407896e-07 3.0348866e-07
1.34778615e-08 8.7489106e-08 2.9134364e-07 3.1101132e-07 -3.072159e-08 -1.5519536e-08 5.6912296e-07 5.564767e-07
9.913296e-07 2.2127665e-06 -1.540236e-06 9.0943803e-07 3.0270934e-07 8.603167e-07 2.5644619e-07 2.4083427e-06
1.7142665e-06 -8.522331e-07 2.1305716e-06 -1.4438767e-06 7.589707e-07 -8.4300547e-07 2.8792073e-07 -1.8932154e-06

exp_avg_sq f4 [30, 30]
00000000: 0e94 072f 0b31 c72e 3969 262f 7ffc 862f
00000010: 7c5a 452e 0b7a e82e 9b1e 612f d421 4a2f
00000020: 8c9c 8f2e 8f9b bb2e 4a40 f12f 6bec 982e
00000030: bdfe 6c2e 47d2 912f 41ae 862e c71f 3b2f
00000040: 3398 fa2e c01f c92f 1450 0930 1e83 3d2f
00000050: 7891 192e ebac ea2e ebe1 5e2f 47c5 df2e
00000060: 87ce 8c2e 8afc 302e c3e9 3c2f c26f ab2e
00000070: d30f 872f ba3d 502e b970 fb2e 2e21 382f
00000080: 1626 062f b4fa ea2e 3da5 6e2d 2488 0a2f
00000090: 0b79 592d f418 352f d428 f22d 526d f22d
000000a0: 508b 512e 3cb6 4e2d da08 902d c8d7 622e
000000b0: 56ee 8b2d 985d d42d c628 932f 6aef 982e
000000c0: 2be8 182e 3dc0 092e 4f1d db2d 9baf 1d2f
000000d0: 89ec d22d 0cc1 512d a8cf 432e 8ae7 102e
000000e0: b1cd d12d 2152 c02e bbd1 972e fc1b 4a2d
000000f0: fcdb 002e d980 a92e db91 402e 8886 e92e
00000100: a9df 762e 9fd9 8c2e 32ea f82d 2c45 372e
00000110: d63b 5c2e 37ae 6d2e 95ea 472e 2247 a92d
00000120: 102d 542d 9015 7f2e c9d3 1b2e c9a3 192e
00000130: 272e 7f2e 5f3f 3f2e 74f3 172f 3dc7 ef2e
00000140: 85d9 8b2d 83a9 4b2e d13b f52d a78e 6b2e
00000150: 50f6 622e bed4 d62e 6beb ac2e e1fb 7b2f
00000160: cd73 c72e 78f4 c62d 309f 8b2e 0f3c 9c2e
00000170: b28e c52e f248 032e ca06 9e2d b7e8 f72e
00000180: d206 ac2d ec2c 292f 6289 3c2e 93d6 852e
00000190: a32a c02e 5115 b72d a9d6 9d2d f8e2 852e
000001a0: df71 712e 40a9 412f 4935 0e2f a710 172f
000001b0: 4296 5f2e 6c9d aa2d 8e68 b32e a431 742e
000001c0: da5c 192f 6539 832d b452 6a2e a8df 382e
000001d0: ab2b 102e ec70 102f 3ac2 1d2f e32c 122e
000001e0: f000 3e2f f39d 552e df94 9c2e 5775 8d2f
000001f0: 2784 bf2d 14b9 fe2e ed0a 7a2e 2748 c02d
00000200: c494 3e2e 9b19 222e 1742 872e 595e 562d
00000210: 1267 022e d97f c32d 5868 182e c910 3f2e
00000220: f0ff 2c2f 8515 ff2d ad9c 432e ff65 892e
00000230: 27bd 762d 90fe ce2e 6a53 812e 6751 842e
00000240: cb57 0f2e 0c29 912e 4613 9a2d 722b ae2d
00000250: c5be 312e 4f9d a32c cff4 632f 14be ec2f
00000260: 30f3 6e2f ea81 632e 32d7 fa2d 85be 372f
00000270: 4c50 1d2d db46 d82f 553e 132e 20b4 a82f
00000280: 05d6 ee2d ed1b 542d fba0 c02c 9003 bb2d
00000290: 3867 b72e 2a17 cb2e 500c b22f 57d5 fd2e
000002a0: 5a23 042e b44a 8a2d 3b47 042e fdf5 662f
000002b0: f858 a22e bca7 012e 9eb5 1a2f 65e2 be2e
000002c0: 9b09 fc2d 8b51 0330 0434 f32f fa2c 202e
000002d0: f24a 1f2f 36e0 a42e 48ba 8d2f 5f02 9b2e
000002e0: b45a 2c2f 5866 b430 2a3a e42d 6bd6 f72e
000002f0: 7329 4e2f f6bc 8a2f 7178 3c2e f75e 122f
00000300: e845 302d c883 6c2e a3a5 be2e 3315 be2e
00000310: 982f c82f b728 252f a318 d72e 12ea 802e
00000320: 2f99 e42d 9e3a 432e 7f40 b52f 32e6 2a2e
00000330: 1223 072f 1767 7d2e 5b85 a32e 2d16 bd2e
00000340: 6a47 a12f ec0d 4b2e aa85 972f 915e 722f
00000350: 6d8b aa2e 05c8 b02e c641 122e 3943 3b2e
00000360: 690b 032d 598a 1e2f 144c 7b2d 475c b82e
00000370: 35e6 e12d 1add c22c f23a 4c2d 9e5e de2d
00000380: 9fa1 e12d 0d35 0d2e 73e5 c52f e6d8 a02e
00000390: 2d27 362d 5038 a72d b01c 352e 381f e52e
000003a0: 47d0 e12e 2ec6 432d e99f dd2e 85e8 ad2e
000003b0: 5b92 882d c017 1f2f 1bfb 522f 1a00 0f2d
000003c0: 2582 822e 53d6 b82e 9cfc 682f b6ac 212f
000003d0: a545 e62e 3b63 062f b603 6b2e 2fad 6f2f
000003e0: 19bc c72e ae1a 8d2f f254 062f 5d8d c32e
000003f0: 71ec 982d e4b7 062f 9f58 ad2e 1cd8 dd2e
1.2330778e-10 9.058184e-11 1.5134995e-10 2.4553867e-10 4.487298e-11 1.0571818e-10 2.0474504e-10 1.8383811e-10
6.5306954e-11 8.531408e-11 4.3883325e-10 6.954156e-11 5.388644e-11 2.6524757e-10 6.124568e-11 1.701884e-10
1.139572e-10 3.6584247e-10 4.995411e-10 1.7236032e-10 3.4917375e-11 1.06718044e-10 2.0271045e-10 1.01759094e-10
6.4031495e-11 4.0242067e-11 1.7181549e-10 7.796032e-11 2.45676e-10 4.734855e-11 1.1434182e-10 1.674649e-10
1.220076e-10 1.0685622e-10 1.3565424e-11 1.2599394e-10 1.2361899e-11 1.6470719e-10 2.7530346e-11 2.7560763e-11
4.7644833e-11 1.17502084e-11 1.6374836e-11 5.1578103e-11 1.5908313e-11 2.4143174e-11 2.6768116e-10 6.954688e-11
3.4767005e-11 3.1320935e-11 2.4910433e-11 1.4341454e-10 2.3979279e-11 1.19231396e-11 4.4522303e-11 3.2947457e-11
2.3851894e-11 8.745738e-11 6.9039406e-11 1.1488584e-11 2.9299216e-11 7.708118e-11 4.378529e-11 1.0619511e-10
5.6132574e-11 6.40512e-11 2.829834e-11 4.167082e-11 5.0075354e-11 5.4042295e-11 4.5455712e-11 1.9244665e-11
1.2060811e-11 5.799944e-11 3.5431023e-11 3.4933643e-11 5.802128e-11 4.3484657e-11 1.3819862e-10 1.09038535e-10
1.5899069e-11 4.6307413e-11 2.7879839e-11 5.3559514e-11 5.160522e-11 9.769384e-11 7.863473e-11 2.2917802e-10
9.0700426e-11 2.261856e-11 6.3492656e-11 7.104727e-11 8.9838706e-11 2.985074e-11 1.7965535e-11 1.1273598e-10
1.9557165e-11 1.538642e-10 4.286827e-11 6.086256e-11 8.738723e-11 2.0814158e-11 1.7944162e-11 6.0884575e-11
5.4898194e-11 1.7613377e-10 1.2933755e-10 1.3739286e-10 5.0837785e-11 1.9396672e-11 8.15855e-11 5.5523267e-11
1.3948256e-10 1.4918464e-11 5.3278895e-11 4.2035403e-11 3.2780594e-11 1.3136842e-10 1.434807e-10 3.3236424e-11
1.7280732e-10 4.857088e-11 7.1205035e-11 2.5731126e-10 2.1772873e-11 1.1583459e-10 5.6853123e-11 2.1859915e-11
4.333313e-11 3.6857278e-11 6.150829e-11 1.2185441e-11 2.9650123e-11 2.2225709e-11 3.4653475e-11 4.344328e-11
1.5734236e-10 2.89997e-11 4.4477023e-11 6.248157e-11 1.4025481e-11 9.413015e-11 5.881058e-11 6.017125e-11
3.259241e-11 6.601128e-11 1.7516332e-11 1.9800803e-11 4.0414578e-11 4.6502034e-12 2.0732503e-10 4.3063209e-10
2.1732371e-10 5.172921e-11 2.8517275e-11 1.6711439e-10 8.942246e-12 3.9340517e-10 3.3479292e-11 3.0687008e-10
2.7152511e-11 1.2057006e-11 5.4748406e-12 2.126102e-11 8.340212e-11 9.235486e-11 3.238676e-10 1.1543005e-10
3.0044724e-11 1.5721958e-11 3.007659e-11 2.1005771e-10 7.382711e-11 2.9480182e-11 1.4070742e-10 8.6804154e-11
2.8653349e-11 4.77734e-10 4.4238402e-10 3.6419735e-11 1.4487592e-10 7.4976844e-11 2.578011e-10 7.049005e-11
1.5675533e-10 1.3125812e-09 2.5946429e-11 1.1270348e-10 1.8750317e-10 2.5236319e-10 4.2853224e-11 1.3312361e-10
1.0019964e-11 5.3777233e-11 8.669623e-11 8.6439654e-11 3.6413605e-10 1.5021127e-10 9.7814444e-11 5.862345e-11
2.5988626e-11 4.438993e-11 3.2969535e-10 3.885798e-11 1.2290638e-10 5.7617102e-11 7.4360705e-11 8.598664e-11
2.9336472e-10 4.616922e-11 2.7561714e-10 2.2043369e-10 7.755472e-11 8.039084e-11 3.3254975e-11 4.2578583e-11
7.4490214e-12 1.4419167e-10 1.4284591e-11 8.383743e-11 2.5681771e-11 5.538359e-12 1.1609146e-11 2.5280496e-11
2.5651313e-11 3.2106807e-11 3.5997125e-10 7.3144865e-11 1.0354201e-11 1.901071e-11 4.1180115e-11 1.041926e-10
1.0268813e-10 1.1128471e-11 1.0078322e-10 7.908433e-11 1.5526405e-11 1.4469403e-10 1.91886e-10 8.1286314e-12
5.934834e-11 8.405423e-11 2.1190022e-10 1.4704224e-10 1.04715604e-10 1.2222483e-10 5.343611e-11 2.179845e-10
9.082885e-11 2.5666708e-10 1.2217408e-10 8.8926845e-11 1.73854e-11 1.225256e-10 7.8828714e-11 1.0088305e-10

exp_avg f4 [30]
00000000: fe0e 9db0 f27c ebae c881 9c30 e532 5d30
00000010: 005f b42f 7066 bc2f 7389 09b0 e4d5 36ae
00000020: 92f3 80af 089e f4ae f777 672e 1c90 0330
00000030: d055 022e e3a5 8aae 3628 29b0 dbd3 df2e
00000040: 8985 3230 f090 6a30 1bee 54b0 2074 f6af
00000050: f9ff a130 4cc7 1a30 30af a3af 12cf 442f
00000060: 3604 7aaf b6d0 c0ac f12b 6eae ccfc 71af
00000070: 47ec 5d30 d2ba 362e
-1.1427514e-09 -1.07087575e-10 1.138738e-09 8.0471657e-10 3.280931e-10 3.4269787e-10 -5.0035637e-10 -4.1571982e-11
-2.3456131e-10 -1.11239074e-10 5.262987e-11 4.7862314e-10 2.9634795e-11 -6.304981e-11 -6.1538985e-10 1.0178499e-10
6.494579e-10 8.533467e-10 -7.746352e-10 -4.482965e-10 1.1787044e-09 5.630809e-10 -2.9774005e-10 1.7899662e-10
-2.2738864e-10 -5.4801398e-12 -5.4153963e-11 -2.2008634e-10 8.07351e-10 4.154794e-11

exp_avg_sq f4 [30]
00000000: 0bf7 212b 3369 d229 936d 492b 31b5 602b
00000010: f7b9 c429 c8c9 da29 f4d9 b62c 1072 b52c
00000020: 1eb0 fd28 fc2a 352b abb5 a123 61d9 332a
00000030: b148 ab27 41d4 2f2c e3e4 9628 ca33 e228
00000040: 1718 a22a c61a 742c e31f d52c ec5e 302b
00000050: fda1 412b 839c 892a df5f 072c 497b fa27
00000060: 75e2 4329 8b73 132b ae71 a62a 0f52 f42c
00000070: 3513 022b af33 a92b
5.754153e-13 9.3441226e-14 7.156161e-13 7.983224e-13 8.736408e-14 9.716148e-14 5.1969488e-12 5.156993e-12
2.8165021e-14 6.436377e-13 1.7532594e-17 1.5973812e-13 4.7540846e-15 2.498682e-12 1.675261e-14 2.51135e-14
2.8793696e-13 3.4689348e-12 6.0573642e-12 6.265949e-13 6.879218e-13 2.444469e-13 1.9237873e-12 6.9522605e-15
4.3495118e-14 5.238524e-13 2.9566405e-13 6.9440074e-12 4.6211933e-13 1.2022517e-12

exp_avg f4 [7, 30]
00000000: dfa0 d635 700a 1236 ae86 28b6 dcdc 2d36
00000010: a138 cbb5 f4ec 6bb5 4285 2735 07bf 1e35
00000020: a17d 71b4 9296 6636 f1ef 5c36 f0a7 69b4
00000030: a761 13b5 a68a 1ab6 e021 e935 8a31 8bb4
00000040: 507b c435 28e5 b035 b557 a9b5 d767 17b6
00000050: 61df 44b6 1f87 1fb6 abc6 10b6 1d38 a0b5
00000060: a453 98b4 6c16 9ab6 3e70 f1b5 a3e7 1eb5
00000070: 22e6 ec35 5f2e 23b5 d675 f034 b8e9 84b5
00000080: 4a82 bfb5 ff25 8ab5 d6e7 0735 be8f b0b4
00000090: a001 06b6 5ba2 8b35 a177 d2b4 5f39 3b35
000000a0: a9da 59b5 707e de34 b4db 4635 72a5 23b5
000000b0: 8af2 04b6 ff10 0336 2b0b 03b4 8f70 a335
000000c0: 63cf efb5 971f 3e35 5e79 e1b2 4ce7 1636
000000d0: 0ce4 3cb6 5098 fbb5 7d5f 67b4 36ac 09b6
000000e0: 1015 1836 f0ae bbb5 d90d 4935 42dd 3b35
000000f0: 6320 8db4 7bc8 d0b4 60cf a835 9e74 09b6
00000100: fc74 d735 915b a635 03e8 b135 6651 1e34
00000110: c5fc b835 5b93 3635 289b 55b6 8e2c a4b5
00000120: cea3 5e34 26f5 86b5 b14e 9035 f328 1ab6
00000130: 4df6 02b4 1b45 2335 ded8 8f35 32b9 e5b3
00000140: 8256 1db6 c67b ef35 c45e 47b5 370d 95b5
00000150: 3a69 8935 93e1 5036 5606 91b6 be8c ad35
00000160: c1b7 91b6 dd6e f335 3be2 f933 c708 a7b4
00000170: 330f 0db6 cb91 ff34 cb3e 8db5 37c6 0036
00000180: b526 80b5 8590 f733 5ffb 56b5 aa5c b335
00000190: e335 1eb3 3877 d632 2896 0e35 59a2 2c35
000001a0: 8770 25b6 9c9b e234 1312 3834 bbb0 a335
000001b0: 1894 cdb5 6afa 1f35 9378 12b2 c911 f433
000001c0: 00f2 f832 ec00 82b4 2d4d 2fb3 9ed8 4bb3
000001d0: 2361 2e35 f168 71b4 d254 8d34 8add e0b4
000001e0: c0c6 c035 ab23 1cb6 6826 41b6 708e e7b5
000001f0: d843 ae34 646e a8b5 1f19 9c35 4336 0a36
00000200: 51ff 0336 f1ca af35 e71b 0035 470f feb5
00000210: 1640 32b5 8cc3 2936 ede2 9e35 2a4a fc35
00000220: e11f e9b4 bf79 b5b5 5b58 6cb5 d660 f6b5
00000230: 8bc2 87b5 4ebc 4d36 a124 10b6 f126 3ab5
00000240: fef5 4435 481e d8b5 d28d 69b5 d4cc 1235
00000250: ae0e b7b5 443b 0936 215c a4b5 b239 db34
00000260: be7d 94b5 6657 0d36 3e0b 8536 1e66 24b6
00000270: 313f 8ab3 5cef 8d36 7808 0db6 1c24 a836
00000280: d354 25b6 88d5 23b4 d49b f834 371b 43b6
00000290: 6461 da35 4fc6 00b6 3a46 aa36 32c1 b436
000002a0: 83b3 b9b6 3396 eab6 dbfe 97b6 a203 ae36
000002b0: 6cbb 01b7 b2a1 f5b6 ac54 3eb6 5d49 f5b6
000002c0: 2b27 d6b6 998c 13b6 249f 9735 351f f735
000002d0: 02f6 2736 6985 4536 2753 edb5 0f38 9433
000002e0: 77a8 0cb6 7e55 f930 dc43 2b35 bc0c 94b5
000002f0: 65b1 8e35 36b5 6336 0d50 7135 b81c 3135
00000300: 01e1 aeb4 b84c 8db6 f794 4f35 f5af 6db5
00000310: e161 aa34 6ec2 5035 c4ad e935 ae04 3d35
00000320: 22a2 d9b6 8ae4 64b6 a767 2fb5 3065 a9b5
00000330: 004a 9835 0e33 27b6 f152 18b6 b5d0 4834
00000340: e831 1534 d526 27b5
1.5991062e-06 2.176177e-06 -2.5112345e-06 2.5907566e-06 -1.514116e-06 -8.7889134e-07 6.2406264e-07 5.913757e-07
-2.2490578e-07 3.4360314e-06 3.292222e-06 -2.1760911e-07 -5.490387e-07 -2.3028492e-06 1.7369712e-06 -2.5926812e-07
1.4639027e-06 1.3179715e-06 -1.2617007e-06 -2.2561196e-06 -2.93363e-06 -2.3771497e-06 -2.1573312e-06 -1.193726e-06
-2.8373063e-07 -4.592168e-06 -1.7988566e-06 -5.919666e-07 1.7650348e-06 -6.078971e-07 4.478922e-07 -9.902787e-07
-1.4268528e-06 -1.029286e-06 5.0628785e-07 -3.288714e-07 -1.9968502e-06 1.0403559e-06 -3.920259e-07 6.9746415e-07
-8.115699e-07 4.1442718e-07 7.408046e-07 -6.0962986e-07 -1.981071e-06 1.9530414e-06 -1.2204389e-07 1.2177205e-06
-1.7867245e-06 7.0826485e-07 -2.6248639e-08 2.2486374e-06 -2.8146924e-06 -1.8745286e-06 -2.154829e-07 -2.051483e-06
2.2662025e-06 -1.3983499e-06 7.4898486e-07 6.99849e-07 -2.628686e-07 -3.8888888e-07 1.257733e-06 -2.048247e-06
1.6052795e-06 1.2394613e-06 1.3255052e-06 1.4744509e-07 1.3782634e-06 6.8014714e-07 -3.1829786e-06 -1.2231919e-06
2.0734953e-07 -1.0055126e-06 1.0751738e-06 -2.2971624e-06 -1.2196797e-07 6.0822794e-07 1.0717447e-06 -1.069733e-07
-2.3445177e-06 1.784291e-06 -7.427118e-07 -1.1105211e-06 1.023792e-06 3.1125717e-06 -4.3220743e-06 1.2930466e-06
-4.3427285e-06 1.8137176e-06 1.1636117e-07 -3.111256e-07 -2.1019484e-06 4.760353e-07 -1.0523594e-06 1.9188863e-06
-9.548008e-07 1.1528122e-07 -8.0087005e-07 1.3363508e-06 -3.683625e-08 2.4967093e-08 5.311763e-07 6.431124e-07
-2.4652416e-06 4.2209e-07 1.7142911e-07 1.2195882e-06 -1.5316791e-06 5.9596516e-07 -8.525734e-09 1.13653705e-07
2.8981049e-08 -2.4215058e-07 -4.0815554e-08 -4.7461633e-08 6.4961404e-07 -2.2483052e-07 2.6325012e-07 -4.1884442e-07
1.4362959e-06 -2.3266573e-06 -2.8781596e-06 -1.7252296e-06 3.2459388e-07 -1.2549103e-06 1.1630217e-06 2.0595187e-06
1.9669135e-06 1.309758e-06 4.772432e-07 -1.8928921e-06 -6.6403425e-07 2.5296786e-06 1.1837961e-06 1.8797048e-06
-4.3422827e-07 -1.3520984e-06 -8.8045425e-07 -1.8356611e-06 -1.0114903e-06 3.0656988e-06 -2.1478993e-06 -6.9347067e-07
7.3373656e-07 -1.6102067e-06 -8.700564e-07 5.46873e-07 -1.3638835e-06 2.0449088e-06 -1.2245765e-06 4.0833908e-07
-1.1063455e-06 2.106151e-06 3.9650176e-06 -2.4497344e-06 -6.43762e-08 4.2299926e-06 -2.1015567e-06 5.010994e-06
-2.463629e-06 -1.525824e-07 4.630698e-07 -2.9073105e-06 1.627061e-06 -1.9188917e-06 5.0745703e-06 5.386909e-06
-5.5343276e-06 -6.991229e-06 -4.5298198e-06 5.186027e-06 -7.732637e-06 -7.320393e-06 -2.8361492e-06 -7.3101096e-06
-6.3822567e-06 -2.1986546e-06 1.1296693e-06 1.8412017e-06 2.5028135e-06 2.9432942e-06 -1.7682077e-06 6.901984e-08
-2.0959685e-06 1.8141433e-09 6.380121e-07 -1.1030565e-06 1.0631453e-06 3.3931115e-06 8.9895985e-07 6.597943e-07
-3.2573737e-07 -4.2110587e-06 7.733028e-07 -8.854543e-07 3.1736184e-07 7.776897e-07 1.7410425e-06 7.0414796e-07
-6.4859787e-06 -3.4107675e-06 -6.5343414e-07 -1.2620931e-06 1.1346419e-06 -2.4914657e-06 -2.2698043e-06 1.8702379e-07
1.3894862e-07 -6.2268856e-07

exp_avg_sq f4 [7, 30]
00000000: f6b0 1f2e 52fc ce2f b3cc 7030 f479 962f
00000010: b240 ae2e 1f52 1430 7d98 2e2f bd0e a52e
00000020: 6afb f92e 2876 d32d 86e2 0631 d107 a62f
00000030: 09fd 0b2d a7d0 772e 369e 1130 c282 c22e
00000040: a5bd 762e bd20 a02f 003b 3130 93c4 572e
00000050: 65b0 8d30 c2c0 f72e 70d2 a22e e8ca e12f
00000060: 06ac c72e c1df da2f f654 c22f f837 2230
00000070: a9d2 492f d21a 972f 4c64 2a30 b9ba 922e
00000080: 0e73 1c30 03bf 182f 07ff e430 851b a82f
00000090: ab13 192f 4396 032f 8790 8e2f 4aa4 2930
000000a0: 2a3c b42f e6e3 a92e 299a c630 ec75 c32e
000000b0: 98b0 1030 4773 882e 912d 122f 2254 2b30
000000c0: 50c3 3230 8502 f02f 2708 2831 e4bb 1b2f
000000d0: fb33 3230 ac76 b72f cf7d 922f 2a61 1a31
000000e0: e45c fe2f 8faa c52e 2834 f32e 31c1 a230
000000f0: a537 b92e fbbc 1d30 da94 e430 508c 3a2f
00000100: c751 3830 3b71 262e 0a81 3530 483d 5730
00000110: 3f20 0230 bc96 c42e 4ab5 5830 c60a 2f31
00000120: ee8f ae2f 5ee0 6830 342e 152e 47b1 a52f
00000130: da2f 442f 0e72 d230 887c 892f e750 c32f
00000140: 7a72 ba30 f9d2 602f 10cc fc2f 65f9 f830
00000150: 2013 e52e 1b6b 1231 edfe 9230 ed43 e22e
00000160: f4df bd30 dbc8 562f 334e ed2e 8437 182f
00000170: bea3 1a31 ec05 d92e e8ad ea30 2986 c730
00000180: ceca 012f 9237 642f c684 372f c17a 7330
00000190: a049 c030 b918 892e c929 f430 4014 cb2f
000001a0: 324e ac30 4183 5a2e 03cb 952f a37e 9e30
000001b0: bc02 5330 86ea 3f2f 51d0 e22f 5de2 872d
000001c0: 897d 282d 8303 852e 68fa c02f 1a4d 862e
000001d0: a071 d02f 5ccd b92f 9461 b62e 2214 4b31
000001e0: 3164 2330 6bbb 962f 8f59 6e30 8e1b 332f
000001f0: 3958 ff2f d577 392f 1897 f82e 53a2 e02f
00000200: a666 d92f d974 3e2f eae6 842f 3133 4130
00000210: 1d23 0b30 6de6 f82f dd73 4130 1f80 5430
00000220: e497 f22e 9efd d42f 0d33 2f2f ba10 1830
00000230: f3d1 2630 6df3 b12f e574 5730 af37 b02f
00000240: 041f 102f 14c4 ae30 54bd 2430 2ef9 742f
00000250: 54c8 c12e 80fb 622f 5424 ce2f 9095 4630
00000260: 2802 a930 8c03 2e30 ff70 6830 92ed da2e
00000270: bc14 922e b344 0430 0dd7 8e30 107a 1d2f
00000280: a121 d22f 5116 7e2f 767f 092f e104 062f
00000290: badf c82e 0c98 9d2f f383 2130 c004 5830
000002a0: c1ad c12f 746b 7f2f 07ab 642f b5cd 8b2f
000002b0: 0435 9f2f f604 cb30 7178 022f ff2c 4430
000002c0: 3e15 9c30 3ce2 5e2f ca42 4530 f55d d62e
000002d0: 2cf5 4c30 8fbc 512f d42a e430 49d5 6b30
000002e0: 57d8 7b30 0bdf a02e c7f0 1a30 f7ab 3c2f
000002f0: adf7 882f 0136 2530 36eb 962f 6074 812f
00000300: 50f0 a12e 69a0 0330 e9df 862e 2b99 3330
00000310: 01fc 0131 ee22 952f 7d82 6a2f b3b5 8230
00000320: 605f 8131 490c 0a2f 4c2d e82f ee5e 4130
00000330: 6af0 0b2f 2f93 4c30 6127 9231 d513 b52e
00000340: 6dbb 382f b904 fc2e
3.6309587e-11 3.7650466e-10 8.7602386e-10 2.7371494e-10 7.924096e-11 5.395879e-10 1.5879383e-10 7.505949e-11
1.1367869e-10 2.4040395e-11 1.962833e-09 3.0200778e-10 7.95742e-12 5.634662e-11 5.2975524e-10 8.845326e-11
5.6102362e-11 2.9127092e-10 6.447607e-10 4.9059933e-11 1.0309235e-09 1.12665e-10 7.404288e-11 4.1071435e-10
9.08003e-11 3.9812956e-10 3.5348763e-10 5.9014793e-10 1.8355685e-10 2.7485797e-10 6.198817e-10 6.67248e-11
5.691597e-10 1.389218e-10 1.6661666e-09 3.0578576e-10 1.3922256e-10 1.1967764e-10 2.5932342e-10 6.171531e-10
3.2784558e-10 7.725713e-11 1.4450211e-09 8.8885205e-11 5.263785e-10 6.205041e-11 1.3294811e-10 6.2329e-10
6.503358e-10 4.3657536e-10 2.4451852e-09 1.416392e-10 6.482989e-10 3.3371828e-10 2.6646638e-10 2.246518e-09
4.6268334e-10 8.98882e-11 1.10596254e-10 1.184196e-09 8.4227104e-11 5.7384825e-10 1.663149e-09 1.696645e-10
6.705502e-10 3.78446e-11 6.603079e-10 7.830363e-10 4.733955e-10 8.939824e-11 7.883797e-10 2.5471976e-09
3.1752684e-10 8.4719953e-10 3.3919714e-11 3.0139288e-10 1.7843096e-10 1.5311927e-09 2.500864e-10 3.5527778e-10
1.3565817e-09 2.0447634e-10 4.5983528e-10 1.8115257e-09 1.04171116e-10 2.1306679e-09 1.0695352e-09 1.0289356e-10
1.3815211e-09 1.9534545e-10 1.0791403e-10 1.3844043e-10 2.2503026e-09 9.8690695e-11 1.7075168e-09 1.4517286e-09
1.1804532e-10 2.0756222e-10 1.6690924e-10 8.857733e-10 1.3990764e-09 6.23443e-11 1.7765213e-09 3.6939873e-10
1.2536872e-09 4.9684038e-11 2.724719e-10 1.1532005e-09 7.676524e-10 1.7454668e-10 4.1257178e-10 1.5448249e-11
9.577569e-12 6.0487636e-11 3.510252e-10 6.1073105e-11 3.7915715e-10 3.379722e-10 8.293735e-11 2.9551832e-09
5.9441435e-10 2.741801e-10 8.6711166e-10 1.6289745e-10 4.6446916e-10 1.6868225e-10 1.1304574e-10 4.08607e-10
3.9545006e-10 1.7321912e-10 2.4174734e-10 7.028574e-10 5.0617804e-10 4.5274665e-10 7.037764e-10 7.730722e-10
1.1031867e-10 3.874278e-10 1.5934294e-10 5.532105e-10 6.0688804e-10 3.2369077e-10 7.838266e-10 3.205378e-10
1.3107743e-10 1.2715895e-09 5.9931904e-10 2.2280197e-10 8.812209e-11 2.0643931e-10 3.7496994e-10 7.224452e-10
1.2296981e-09 6.330587e-10 8.4561685e-10 9.955693e-11 6.6429945e-11 4.811895e-10 1.0392981e-09 1.4322432e-10
3.8222672e-10 2.3109094e-10 1.250536e-10 1.2188962e-10 9.134689e-11 2.866617e-10 5.875897e-10 7.858709e-10
3.5229955e-10 2.323029e-10 2.079724e-10 2.5430116e-10 2.89596e-10 1.4771604e-09 1.186622e-10 7.136833e-10
1.1356531e-09 2.0271157e-10 7.1763095e-10 9.7482834e-11 7.456318e-10 1.9075429e-10 1.6601356e-09 8.57956e-10
9.1620705e-10 7.315578e-11 5.636704e-10 1.7159595e-10 2.491424e-10 6.0103394e-10 2.7451968e-10 2.3547653e-10
7.3641204e-11 4.788548e-10 6.133389e-11 6.5337485e-10 1.8915218e-09 2.712776e-10 2.1328535e-10 9.510387e-10
3.765237e-09 1.2555391e-10 4.223274e-10 7.0347894e-10 1.2727389e-10 7.442393e-10 4.253636e-09 8.23445e-11
1.680129e-10 1.1460472e-10

exp_avg f4 [7]
00000000: 1217 acad d3f0 69ad c7e9 9fab 34e6 69aa
00000010: 385f 39ad dfae cf2c 8e72 bead
-1.9564381e-11 -1.329799e-11 -1.1362516e-12 -2.0774425e-13 -1.0537175e-11 5.9027084e-12 -2.1651372e-11

exp_avg_sq f4 [7]
00000000: 8d23 5528 ef59 d829 4ea5 1f2c 9a3f 522b
00000010: 2846 f425 c8f3 a728 4d80 562c
1.1831584e-14 9.607928e-14 2.2687022e-12 7.469525e-13 4.2374793e-16 1.8646448e-14 3.048245e-12
