tutorial/Mouse_cerebellum_output/version_6/checkpoints/mlp.ckpt (torch, 17217 bytes, 12 tensors)

model.classifier.0.weight f4 [30, 30]
0	0x3d139b29	0.036036644
1	0xbe1497b2	-0.14510992
2	0x3dcbaa60	0.09944606
3	0xbcbfaa26	-0.023396563
4	0xbd5b08ab	-0.053475063
5	0xbd072d43	-0.03300215
6	0x3cff1856	0.031139534
7	0xbd5ab99c	-0.053399667
8	0x3da845d0	0.08216441
9	0xbd9f62cd	-0.07782517
10	0xbd980f07	-0.07424741
11	0x3d135716	0.035971723
12	0xbde819ff	-0.11333083
13	0xbdbc329b	-0.0918934
14	0x3e1ba47b	0.15199463
15	0xbdcb244c	-0.099190325
16	0x3bb5a866	0.0055437563
17	0xbdbd599e	-0.09245609
18	0xbdd93431	-0.10605658
19	0xbe1be690	-0.15224671
20	0x3dd36e42	0.103237644
21	0xbd4c655b	-0.049901348
22	0xbd841ce8	-0.06450826
23	0xbd88ac79	-0.066735215
24	0xbd97ab57	-0.07405727
25	0x3cd72bc0	0.026265979
26	0xbd125d64	-0.035733595
27	0xbdad2c4a	-0.08455713
28	0x3e14aa8d	0.14518185
29	0xbda8b7a5	-0.082381524
30	0x3dc85bb3	0.09783115
31	0xbddb0ff8	-0.10696405
32	0x3dcb2062	0.09918286
33	0x38b9fa36	8.868093e-05
34	0xbd32afaa	-0.043624558
35	0xbd08d5ec	-0.033407137
36	0x3cd73893	0.026272094
37	0xbe35d657	-0.17757545
38	0x3b55b82a	0.003261099
39	0xbcd24baa	-0.025670845
40	0xbd3ec809	-0.046577487
41	0x3ccf6a68	0.025319293
42	0xbe0133f2	-0.12617472
43	0x3d253bd5	0.040340263
44	0xbc21584d	-0.009847713
45	0xbe0809fa	-0.13285056
46	0x3cf4e414	0.029893912
47	0xbb8661db	-0.0041010207
48	0xbd5e9f53	-0.054351162
49	0x3d300d70	0.042981565
50	0xbc0f83e4	-0.0087594725
51	0xbcbc2955	-0.022968927
52	0x3dabee19	0.08395023
53	0x3dcfaa7f	0.101399414
54	0x3cc22bef	0.02370259
55	0xbdc58bee	-0.0964583
56	0x3d420e4c	0.047376916
57	0xbe438359	-0.19093074
58	0x3e0280b0	0.12744403
59	0xbda5a814	-0.08088699
60	0xbe3193af	-0.17341493
61	0x3d9f7499	0.07785911
62	0xbd0fbefc	-0.035094246
63	0xbcbe10f0	-0.023201436
64	0xbce0b20f	-0.027428655
65	0x3d0b263b	0.033972006
66	0xbd1d1147	-0.038346555
67	0x3e3341b5	0.17505534
68	0xbc158038	-0.009124808
69	0x3be583d0	0.0070042387
70	0x3d6b1d8c	0.057401225
71	0xbd273bed	-0.040828634
72	0x3da67020	0.08126855
73	0xbd869e3e	-0.06573151
74	0x3becb1b4	0.0072233323
75	0x3d33c071	0.0438847
76	0x3d27e444	0.040989175
77	0xbd1c055b	-0.038091045
78	0x3cf9a3f2	0.030473683
79	0xbd6e3909	-0.05815986
80	0xbd02ffaf	-0.03198212
81	0x3b676266	0.0035306453
82	0xbe039369	-0.12849201
83	0xbe4a0177	-0.19727121
84	0xbda4d14d	-0.080477335
85	0x3da19644	0.07889989
86	0x3c5c5056	0.013446888
87	0x3e858ec7	0.26085493
88	0xbdb54973	-0.088519
89	0x3e124b1a	0.14286461
90	0xbdca83f2	-0.09888448
91	0x3ca6e0c0	0.020370841
92	0x3b09de83	0.0021037168
93	0xbdfdb0e1	-0.123872526
94	0xbe1d2cc1	-0.15349104
95	0x3ddd80c1	0.108155735
96	0xbd8e04fe	-0.06934546
97	0xbdba53d9	-0.09098024
98	0xbdb99af2	-0.090627566
99	0xbd2e8608	-0.04260829
100	0xbd939fde	-0.072082266
101	0xbcadd02b	-0.021217426
102	0xbd74f388	-0.059802562
103	0x3d62f1b9	0.055406306
104	0xbdb2b181	-0.087252624
105	0xbcebed2e	-0.02879962
106	0x3e0595a7	0.13045369
107	0xbd25c53f	-0.04047131
108	0x3cedd193	0.029030597
109	0x3e1bf6da	0.15230885
110	0xbd3f4087	-0.046692397
111	0xbc9db2f6	-0.019250374
112	0xbb2b591f	-0.002614565
113	0x3c787ab1	0.015165971
114	0xbc1d365d	-0.009595481
115	0x3bdef470	0.0068040416
116	0x3e0b872b	0.13625781
117	0xbd669473	-0.056293916
118	0x3d45d21b	0.048296075
119	0x3e4b5a75	0.19858725
120	0xbd704f1b	-0.05866919
121	0xbd9986de	-0.07496427
122	0x3d601917	0.054711428
123	0xbdf9e96d	-0.122027256
124	0xbe20ae92	-0.15691593
125	0x3d9b845b	0.07593604
126	0xbd26718c	-0.04063563
127	0xbdc8c382	-0.09802915
128	0xbc9542fd	-0.018220419
129	0xbdb8cbaf	-0.090232246
130	0xbded2dde	-0.11581014
131	0x3c1a64fa	0.009423489
132	0xbded2b13	-0.115804814
133	0xbcb68b1a	-0.022283126
134	0x3d23da3d	0.04000305
135	0xbd9070d3	-0.070527695
136	0x3dd28354	0.10278955
137	0xbdc5fc9b	-0.09667321
138	0xbd3a8397	-0.04553565
139	0x3ca8eadd	0.020619804
140	0x3d3fed25	0.046857018
141	0xbd47ebeb	-0.048808973
142	0xbd5df760	-0.054190993
143	0xbcf97e79	-0.030455815
144	0xbd61c439	-0.055118773
145	0x3d25fe1f	0.040525552
146	0x3da2fa0d	0.0795785
147	0xbdd3864e	-0.10328351
148	0x3e072aff	0.13199995
149	0x3de64814	0.112442166
150	0xbd0bfcca	-0.034176625
151	0x39f7c9a7	0.00047261754
152	0x3da1c29e	0.078984484
153	0x3e09fd44	0.1347552
154	0x3db57e6f	0.08862006
155	0xbe02ee22	-0.12786153
156	0x3d4537d7	0.048148956
157	0x3dec760d	0.11545954
158	0x3d37e9eb	0.044900816
159	0x3d90d611	0.0707208
160	0x3e2b1791	0.16708209
161	0xbd01da27	-0.031702187
162	0x3d20f73b	0.039298277
163	0xbd2876f3	-0.041129064
164	0xbcc99ec3	-0.024611836
165	0xbdd551ac	-0.10415968
166	0xbcdb2cea	-0.026754815
167	0x3d13a1be	0.03604292
168	0xbcb4e2eb	-0.02208086
169	0xbde6028e	-0.11230956
170	0xbdeeb5d3	-0.11655774
171	0x3c9b5792	0.018962655
172	0xbc343e45	-0.011001174
173	0xbe20fa34	-0.15720445
174	0xbd4f9b69	-0.05068532
175	0xbdb63058	-0.088959396
176	0xbc81c577	-0.015841229
177	0x3e81055d	0.25199404
178	0xbd955c34	-0.07292977
179	0xbdbb8aa9	-0.09157307
180	0xbd60fc4c	-0.05492811
181	0xbce8a81e	-0.028400477
182	0x3d689ef0	0.0567922
183	0xbdba7cb5	-0.09105817
184	0xbe138dbc	-0.14409536
185	0x3d848045	0.06469778
186	0xbd3c6ec1	-0.04600406
187	0xbe0f2851	-0.13980223
188	0xbd98cb25	-0.07460622
189	0xbd1d82a8	-0.03845468
190	0xbd6fbdc0	-0.05853057
191	0xbc600edf	-0.013675421
192	0xbdd089ea	-0.10182555
193	0x3d77125f	0.060320254
194	0xbdb3526f	-0.08755957
195	0xbdcc1a5d	-0.09965966
196	0x3e016a33	0.12638168
197	0xbd077bdf	-0.033077117
198	0xba2a14bd	-0.00064880756
199	0x3e0e4914	0.13895065
200	0xbd82d0b3	-0.063874625
201	0xbccad450	-0.024759442
202	0x3cf5f8c6	0.030025851
203	0x3d000903	0.031258594
204	0xbbee5f12	-0.007274517
205	0xbd4bb6f5	-0.04973503
206	0x3e10cf36	0.14141545
207	0xbdc20757	-0.09474056
208	0x3db79c7e	0.089653954
209	0x3e082668	0.13295901
210	0x3c962783	0.018329388
211	0xbca2f31c	-0.019891314
212	0x3dc3cd65	0.0956066
213	0x3d1f923b	0.038957816
214	0xbd033e47	-0.032041814
215	0xbd303ad2	-0.043024845
216	0x3ba8e503	0.0051542534
217	0xbe0a4269	-0.13501896
218	0xbd874d7f	-0.06606578
219	0x3d377039	0.04478476
220	0x3d83da6b	0.06438144
221	0xbcb64005	-0.022247324
222	0xbd8ecf4a	-0.06973131
223	0x3dd5e3f1	0.10443867
224	0xbe2a96ab	-0.16659038
225	0xbe23f8f5	-0.16012938
226	0x3d9ae11a	0.07562466
227	0x3d6fb2ce	0.05852013
228	0x3c1ee4c4	0.009698097
229	0x3e1a1c24	0.15049797
230	0xbe2f14e0	-0.17097807
231	0x3c093113	0.008373517
232	0x3dfeb858	0.124375045
233	0x3d86c7ca	0.065810755
234	0x3d1633e5	0.036670584
235	0xbe3004bc	-0.17189306
236	0x3e0687c9	0.13137735
237	0xbd111c59	-0.035427425
238	0x3d084830	0.03327197
239	0x39ff42b6	0.00048687094
240	0xb972c2e4	-0.00023151521
241	0xbcdc5ce5	-0.026899764
242	0x3cb422dd	0.02198928
243	0xbde639e7	-0.11241513
244	0xbe121036	-0.14263996
245	0x3dbac47f	0.0911951
246	0xbd45de09	-0.048307452
247	0xbe464746	-0.19363126
248	0xbdb504f6	-0.08838837
249	0xbd3d1ca5	-0.046169896
250	0xbdd8bcd5	-0.10582892
251	0x3b9a2fa1	0.004705385
252	0xbdd9c0fa	-0.106325105
253	0x3dbe9b37	0.09306949
254	0xbdb9757a	-0.0905561
255	0xbd5891e5	-0.05287351

model.classifier.0.bias f4 [30]
0	0x34c4c0fa	3.6648254e-07
1	0x34623656	2.1067657e-07
2	0x34cf10bc	3.856893e-07
3	0x3509070e	5.1046743e-07
4	0x35f28e32	1.8071789e-06
5	0xb38ea03d	-6.6415375e-08
6	0x3507bf50	5.0569815e-07
7	0x34f5afe7	4.5762792e-07
8	0x35c7717d	1.4859685e-06
9	0x35493b05	7.496422e-07
10	0xb612c2e0	-2.1869128e-06
11	0x3503836a	4.8992536e-07
12	0x35caad21	1.510056e-06
13	0x3622e5ac	2.4273568e-06
14	0xb4364e9f	-1.6978673e-07
15	0xb49aacf2	-2.881057e-07
16	0xb488e6c0	-2.5499867e-07
17	0xb51291fd	-5.460168e-07
18	0xb5b55caa	-1.351252e-06
19	0x355cdc6d	8.227715e-07
20	0x36ce7eb0	6.154027e-06
21	0xb4ef64e3	-4.4590624e-07
22	0xb5ad4de9	-1.2912179e-06
23	0x36a8d623	5.031719e-06
24	0x35db7ff8	1.6354015e-06
25	0xb46c824b	-2.2026613e-07
26	0xb61676e7	-2.2420952e-06
27	0xb2ca9cf1	-2.3587264e-08
28	0xb3aaac9b	-7.9476386e-08
29	0xb59e6dff	-1.180393e-06

model.classifier.1.weight f4 [5, 30]
0	0xbc6d5d0b	-0.014487515
1	0xbe55ba1a	-0.20871773
2	0x3ecf6b3d	0.40511504
3	0x3e04217a	0.12903395
4	0x3dab7a06	0.083728835
5	0x3e5d1826	0.21591243
6	0x3d8534ef	0.06504237
7	0xbcc8f4b1	-0.02453074
8	0xbdd8de8d	-0.10589323
9	0xbd872a15	-0.065998234
10	0xbeb184fe	-0.34671777
11	0x3c310b34	0.010805894
12	0x3e917f48	0.2841742
13	0x3eb3d7f1	0.35125688
14	0x3e2fed6a	0.1718041
15	0xbe6148dd	-0.22000451
16	0xbe46b3a0	-0.19404459
17	0x3da19505	0.07889751
18	0xbe99c9cd	-0.30036774
19	0xbd10ec29	-0.03538147
20	0x3e8688a1	0.26276115
21	0xbeb9303d	-0.36169615
22	0xbeaa504f	-0.33264396
23	0x3eb52f2d	0.35387555
24	0x3e420497	0.18947063
25	0x3dcb9178	0.09939855
26	0xbec2ca37	-0.38044903
27	0xbdb6348e	-0.08896743
28	0x3e04e49d	0.12977834
29	0xbe99c71e	-0.30034727
30	0xbe53ccdd	-0.20683618
31	0x3e4b748b	0.19868676
32	0xbe3b9eb4	-0.18322259
33	0x3eb504a8	0.35355115
34	0x3e039d47	0.12852965
35	0xbe781dc4	-0.24230105
36	0x3eba7ff0	0.36425734
37	0x3ebd90b8	0.37024474
38	0x3eef93ca	0.46792442
39	0xbd1daaf3	-0.038493108
40	0xbea76669	-0.3269532
41	0x3eb07534	0.3446442
42	0xbca9a5cd	-0.020708943
43	0xbe8853fd	-0.26626578
44	0xbe86e748	-0.2634833
45	0xbe9e9941	-0.30976298
46	0x3e7999b8	0.24375045
47	0xbe8e72a7	-0.27821848
48	0x3e91993f	0.2843723
49	0xbe746e21	-0.23870136
50	0xbe004f64	-0.12530285
51	0xbd8ec774	-0.069716364
52	0x3cc9cd86	0.024634134
53	0x3e99555d	0.2994794
54	0x3dd849de	0.10560964
55	0xbed66261	-0.41871932
56	0xbe9c2f52	-0.30504853
57	0xbe408542	-0.18800834
58	0xbe8d22c2	-0.2756558
59	0xbeca3726	-0.394952
60	0x3e723bed	0.23655672
61	0x3e7376b2	0.23775747
62	0xbe623811	-0.220917
63	0xbe097915	-0.13425095
64	0x3d1dbc92	0.038509913
65	0x3dbfe305	0.093694724
66	0xba36949a	-0.00069648924
67	0x3dd8dcff	0.10589027
68	0xbbcb4d4f	-0.0062042843
69	0x3ced7eb6	0.028991085
70	0x3e57374e	0.21017191
71	0xbd7c0b09	-0.06153396
72	0xbdad601e	-0.084655985
73	0xbe429b98	-0.19004667
74	0x3d9afe59	0.07568044
75	0x3e87bec9	0.26512745
76	0x3cdb3dbf	0.026762841
77	0xbcfab4a7	-0.03060372
78	0x3d5002c7	0.0507839
79	0x3c16f03d	0.009212551
80	0xbdc8e91d	-0.09810088
81	0x3e173cac	0.14769238
82	0x3e50ac41	0.2037821
83	0xbe621a4c	-0.22080344
84	0xbe4e5aca	-0.20151821
85	0xbdc34fb5	-0.09536687
86	0x3d9f874a	0.07789476
87	0x3e29beed	0.16576739
88	0xbe10d705	-0.14144523
89	0x3e00f450	0.12593198
90	0xbea29729	-0.3175595
91	0xbe6170b1	-0.22015645
92	0x3d922fc2	0.07138015
93	0xbe4cb556	-0.19991049
94	0xbeb952fb	-0.36196122
95	0x3e106d31	0.14104153
96	0xbe81184f	-0.25213858
97	0xbd5214fe	-0.05128955
98	0xbe74762b	-0.23873203
99	0xbe8a6ef7	-0.27037784
100	0xbd91f457	-0.07126682
101	0xbc90cd00	-0.017675877
102	0xbdfa8423	-0.12232234
103	0xbdddd82e	-0.10832249
104	0x3e168bb0	0.14701724
105	0xbe83efaf	-0.25768802
106	0x3c9d5616	0.019206088
107	0x3e4450b7	0.19171415
108	0xbdf5aa89	-0.119954176
109	0xbe5e9ccb	-0.217395
110	0xbe98b0d4	-0.2982241
111	0x3d479c2f	0.048732933
112	0x3c03707d	0.008022425
113	0xbca3324c	-0.019921444
114	0xbdc7c55e	-0.09754442
115	0x3d957f20	0.07299638
116	0x3e0badc8	0.13640511
117	0xbe6fc3c4	-0.23414522
118	0xbdc1f7dc	-0.094711035
119	0x3e4de42c	0.20106572
120	0x3deb9591	0.11503137
121	0xbd75a85c	-0.059975013
122	0x3ba2f85c	0.0049734544
123	0x3dd0a350	0.101873994
124	0x3e436dc1	0.19084837
125	0xbeb41835	-0.35174718
126	0x3c39c017	0.011337302
127	0xbe99ecd5	-0.300635
128	0x3dce5313	0.10074439
129	0x3eb274b4	0.34854662
130	0x3e8c752d	0.27433148
131	0xbdca833c	-0.09888312
132	0x3cabe5fd	0.02098369
133	0x3e7dc211	0.24781062
134	0xbe8ead2e	-0.278665
135	0x3e863360	0.2621107
136	0xbce85e71	-0.028365346
137	0xbdb54bd2	-0.08852352
138	0x3e367264	0.17817074
139	0x3ed0e8dc	0.40802658
140	0x3e9d4cbe	0.30722612
141	0x3db6d8d6	0.08928077
142	0xbd2326dd	-0.039831985
143	0xbe137022	-0.14398244
144	0x3e3e54aa	0.18586984
145	0x3e5e2ae2	0.21696046
146	0x3e8ac4c8	0.27103257
147	0x3e4639f9	0.19358052
148	0x3eba279e	0.3635835
149	0x3dcba77f	0.09944057

model.classifier.1.bias f4 [5]
0	0x372a4b2d	1.0150293e-05
1	0x34944708	2.761883e-07
2	0xb42b2f2d	-1.5942778e-07
3	0xb65dca39	-3.3049275e-06
4	0x35bb8f2a	1.3974252e-06

exp_avg f4 [30, 30]
0	0xb6bfcf4b	-5.7163757e-06
1	0x3799fb89	1.8356151e-05
2	0xb6b0c1c9	-5.2677683e-06
3	0x377c1718	1.5025747e-05
4	0x378b430b	1.660131e-05
5	0x35a2e6d7	1.2137124e-06
6	0xb674c443	-3.6473073e-06
7	0x37a5a36c	1.9745632e-05
8	0xb7086b0b	-8.131155e-06
9	0x3759763b	1.2961736e-05
10	0x376e290f	1.4195465e-05
11	0x359fd75a	1.1909099e-06
12	0x379dc087	1.8805511e-05
13	0x3733c93c	1.0716085e-05
14	0xb7a167d3	-1.9241043e-05
15	0x37916157	1.7330674e-05
16	0xb70f65b9	-8.547148e-06
17	0x376090a3	1.3385116e-05
18	0x3797ea9b	1.810985e-05
19	0x3750aec6	1.2438459e-05
20	0xb7b79cab	-2.1888254e-05
21	0x3683696d	3.9163774e-06
22	0x36a26376	4.839555e-06
23	0xb6c1f880	-5.7807774e-06
24	0x370d5158	8.423194e-06
25	0xb73233fa	-1.06217285e-05
26	0xb616ec2c	-2.2489212e-06
27	0x37d5bd8d	2.5479845e-05
28	0xb7f9e2d0	-2.978873e-05
29	0x37338dd1	1.0702251e-05
30	0xb62f2827	-2.6100404e-06
31	0x37018023	7.718833e-06
32	0xb6b69d49	-5.442333e-06
33	0xb4bf8553	-3.5673528e-07
34	0x37032b5c	7.818304e-06
35	0x368754f7	4.0332047e-06
36	0xb6af8c63	-5.2317496e-06
37	0x3706c9f7	8.034046e-06
38	0xb67e4ab8	-3.7892441e-06
39	0x364516cb	2.9368555e-06
40	0xb5bc908f	-1.4049164e-06
41	0x36010068	1.9222734e-06
42	0x371bb430	9.280673e-06
43	0x36a228ec	4.83274e-06
44	0xb3fa013b	-1.1641756e-07
45	0x37adc23e	2.0713658e-05
46	0xb6bc0ed4	-5.604563e-06
47	0x3659b765	3.244227e-06
48	0x37232dd7	9.72623e-06
49	0x36b93bbc	5.5203836e-06
50	0x35ec0090	1.7583534e-06
51	0xb58859aa	-1.0158885e-06
52	0xb4cb0afb	-3.7819686e-07
53	0x3716190a	8.946527e-06
54	0x37001e07	7.636386e-06
55	0x370f6c4e	8.548681e-06
56	0xb7112246	-8.650653e-06
57	0x365dd06d	3.3052886e-06
58	0xb7456877	-1.1766438e-05
59	0x3708e76c	8.160114e-06
60	0xb6388772	-2.7496976e-06
61	0xb603b18f	-1.9623874e-06
62	0xb69f06b0	-4.739348e-06
63	0x35b5579d	1.351105e-06
64	0xb60bf10b	-2.085292e-06
65	0x3513d9f6	5.507894e-07
66	0x35d997a0	1.6211889e-06
67	0x36c0ed0d	5.7496422e-06
68	0x3609e596	2.0548227e-06
69	0x34a08a3f	2.990291e-07
70	0x35e69ed0	1.7182556e-06
71	0xb5fb35e9	-1.8716647e-06
72	0x35b2b877	1.331572e-06
73	0xb531e301	-6.626797e-07
74	0xb694c232	-4.433351e-06
75	0xb671bf43	-3.6023127e-06
76	0x359c1187	1.1628007e-06
77	0x364613e6	2.9515882e-06
78	0xb62dd84f	-2.5904917e-06
79	0xb6b3b6bd	-5.3558892e-06
80	0x356804f7	8.643396e-07
81	0x3685eedb	3.9915153e-06
82	0xb4ba95ca	-3.4754186e-07
83	0xb736b5bd	-1.089036e-05
84	0xb6f0b2de	-7.1733803e-06
85	0xb653e374	-3.1573845e-06
86	0x355efd19	8.306975e-07
87	0x36d6ed99	6.405357e-06
88	0xb67fdafd	-3.812543e-06
89	0xb5d378a9	-1.5755842e-06
90	0xb71f3625	-9.489745e-06
91	0x372d0634	1.0313048e-05
92	0xb68fbb03	-4.283503e-06
93	0x36f45031	7.281102e-06
94	0x36b11dd1	5.278482e-06
95	0x36da73ec	6.5104014e-06
96	0xb6c75f8a	-5.9417844e-06
97	0x378deb32	1.6918031e-05
98	0xb6fcff4e	-7.5399066e-06
99	0x36fae81b	7.4776012e-06
100	0x3731ba92	1.0593461e-05
101	0x35e97b22	1.7395689e-06
102	0x378dd5fc	1.6908154e-05
103	0x36bbf21f	5.601221e-06
104	0xb7bc3f9b	-2.2440965e-05
105	0x37752e9b	1.4613989e-05
106	0xb5972f61	-1.1264166e-06
107	0x3726cc90	9.941999e-06
108	0x378d5965	1.6850137e-05
109	0x371e32e2	9.429381e-06
110	0xb7a214de	-1.9321622e-05
111	0x36879a50	4.041278e-06
112	0xb4bb727b	-3.491476e-07
113	0xb779a3b3	-1.4879671e-05
114	0x34b84fed	3.4330824e-07
115	0xb76b5a78	-1.4028155e-05
116	0xb5d806cd	-1.6095233e-06
117	0x37b83cdd	2.1962851e-05
118	0xb7ab08ec	-2.0388943e-05
119	0x372a1e26	1.0139809e-05
120	0xb74584b5	-1.1773013e-05
121	0x37b046f3	2.1013873e-05
122	0xb6af5b10	-5.2260075e-06
123	0x3790c345	1.7257067e-05
124	0x377c0de5	1.5023606e-05
125	0x36bf273b	5.6968106e-06
126	0xb6ee7f78	-7.107792e-06
127	0x37dd4fa4	2.6382339e-05
128	0xb74e53b1	-1.2298043e-05
129	0x378013fd	1.5268097e-05
130	0x37a6ff95	1.9907757e-05
131	0x3611c2be	2.1720039e-06
132	0x37d91fcc	2.5883222e-05
133	0x3740377e	1.1457012e-05
134	0xb80a90f2	-3.3036755e-05
135	0x37aa12e9	2.0274385e-05
136	0xb6c29b83	-5.7997545e-06
137	0x378f7b0c	1.7104227e-05
138	0x37d8d026	2.5846133e-05
139	0x3792fbc1	1.7521788e-05
140	0xb80d8880	-3.3744145e-05
141	0x36c64783	5.909185e-06
142	0x36534e80	3.1487143e-06
143	0xb795482e	-1.7795795e-05
144	0x36c72162	5.9345484e-06
145	0xb7b6926c	-2.1764274e-05
146	0xb497e0f0	-2.8289605e-07
147	0x38189426	3.6377598e-05
148	0xb8165363	-3.5840447e-05
149	0x37824082	1.5527246e-05
150	0x36ab8e50	5.1127645e-06
151	0xb75ac421	-1.3039477e-05
152	0xb761c764	-1.3457469e-05
153	0xb79e0df4	-1.8841565e-05
154	0xb6aad6d7	-5.0914055e-06
155	0x355196eb	7.807818e-07
156	0x35ede687	1.7724968e-06
157	0xb6dd75db	-6.6000334e-06
158	0x373da07b	1.1302643e-05
159	0xb749b7f5	-1.2023364e-05
160	0xb7cb14b2	-2.4209123e-05
161	0xb66b0ed0	-3.502635e-06
162	0xb74d3c53	-1.22329975e-05
163	0xb691e788	-4.3482905e-06
164	0x38085657	3.2505337e-05
165	0x37102ff4	8.594234e-06
166	0xb666bb55	-3.4381712e-06
167	0xb714e64a	-8.875106e-06
168	0xb79e10ed	-1.884295e-05
169	0xb7a94ec6	-2.0183052e-05
170	0x3844305c	4.677508e-05
171	0xb5faba88	-1.8680739e-06
172	0xb655e600	-3.187335e-06
173	0x37b414cc	2.1467356e-05
174	0xb6979a34	-4.5181023e-06
175	0x3827215f	3.9846982e-05
176	0xb7742970	-1.4553181e-05
177	0xb7dd86d2	-2.6408034e-05
178	0x3753dcd7	1.2627998e-05
179	0xb6ca1a1f	-6.02311e-06
180	0xb717930f	-9.034541e-06
181	0x37316883	1.0574356e-05
182	0xb70afb34	-8.283929e-06
183	0x366da99f	3.5414485e-06
184	0x36f5038a	7.301981e-06
185	0x37034d30	7.82618e-06
186	0xb6fe52b7	-7.579419e-06
187	0x3792e97f	1.7513286e-05
188	0xb6e765c6	-6.8961845e-06
189	0x36d285d9	6.2740696e-06
190	0x36b26ca7	5.317462e-06
191	0x35f06fc8	1.7913926e-06
192	0x37913865	1.7311608e-05
193	0x36dcea3c	6.5837794e-06
194	0xb78217f9	-1.550837e-05
195	0x37c2a71a	2.3204415e-05
196	0xb68614a7	-3.9959154e-06
197	0x37188e72	9.093072e-06
198	0x378a4226	1.6481685e-05
199	0x37072a73	8.0565105e-06
200	0xb71f5e66	-9.499117e-06
201	0x36444660	2.924724e-06
202	0xb57a9900	-9.33549e-07
203	0xb6cf51cf	-6.1786045e-06
204	0x36436c9b	2.912048e-06
205	0xb64b31c6	-3.027833e-06
206	0xb6f1fa99	-7.211533e-06
207	0x378daf95	1.6890272e-05
208	0xb7b2575b	-2.1259932e-05
209	0x374a6386	1.206331e-05
210	0xb4c0e258	-3.5927474e-07
211	0xb6dcde4b	-6.5823892e-06
212	0xb7548001	-1.2665988e-05
213	0xb79276e7	-1.7459924e-05
214	0xb6173cfe	-2.2536256e-06
215	0x36e9755f	6.957605e-06
216	0xb6ac1876	-5.128847e-06
217	0x34597afb	2.025444e-07
218	0x36866610	4.005393e-06
219	0xb70d4107	-8.419395e-06
220	0xb7a53ca3	-1.9697769e-05
221	0x34ad513a	3.228286e-07
222	0xb57253ec	-9.027415e-07
223	0xb5a49975	-1.2263614e-06
224	0x37ab6bb9	2.043495e-05
225	0x37c6d015	2.3700335e-05
226	0xb662fb20	-3.3822798e-06
227	0xb6ad7862	-5.169816e-06
228	0xb6870948	-4.024394e-06
229	0xb717dc49	-9.0515905e-06
230	0x380fa284	3.424521e-05
231	0xb63bac66	-2.796552e-06
232	0xb6b5b252	-5.4149796e-06
233	0x37a3a7c3	1.9509234e-05
234	0x34f12381	4.491558e-07
235	0x380bb0ad	3.3304725e-05
236	0xb7917a1f	-1.7342214e-05
237	0xb79ba65f	-1.8554912e-05
238	0x3696f1d1	4.4984995e-06
239	0x364f3796	3.087776e-06
240	0xb7067c67	-8.015987e-06
241	0x3737d68d	1.0957604e-05
242	0xb5a3767d	-1.2178931e-06
243	0x36d75b6e	6.418143e-06
244	0x36c7a22b	5.949541e-06
245	0x36d251a0	6.26799e-06
246	0xb6e8c1a1	-6.93668e-06
247	0x375f69f7	1.3316508e-05
248	0xb7150388	-8.881914e-06
249	0x36f6b69c	7.35263e-06
250	0x3722e7d7	9.709932e-06
251	0x36539c49	3.153242e-06
252	0x37866e56	1.6025424e-05
253	0x36be294b	5.6672484e-06
254	0xb7a42b7a	-1.9570569e-05
255	0x378a22cf	1.6467091e-05

exp_avg_sq f4 [30, 30]
0	0x30727cbd	8.821635e-10
1	0x30f29c50	1.7652244e-09
2	0x30c0ceac	1.4028578e-09
3	0x3000a133	4.6795207e-10
4	0x300abeb1	5.0475096e-10
5	0x3025612d	6.0164745e-10
6	0x2fd83ec4	3.933477e-10
7	0x30399056	6.750772e-10
8	0x301273a2	5.3278815e-10
9	0x2ff5b32c	4.469255e-10
10	0x2fc83e71	3.6424155e-10
11	0x2f26d420	1.5172974e-10
12	0x309a6b03	1.1235389e-09
13	0x2fd4193c	3.8580505e-10
14	0x30979764	1.1029724e-09
15	0x30e48d53	1.662935e-09
16	0x2f8b387e	2.5324093e-10
17	0x2fe70bc0	4.2027004e-10
18	0x3064587e	8.307167e-10
19	0x30b8ba49	1.3440707e-09
20	0x30085ef2	4.9611437e-10
21	0x2f3260e2	1.6223425e-10
22	0x2fa045c2	2.9153396e-10
23	0x2fe3646f	4.1362422e-10
24	0x2fd4b772	3.869292e-10
25	0x2fcc3aa9	3.7149064e-10
26	0x2fa30f32	2.9660324e-10
27	0x305478f8	7.729706e-10
28	0x30d0bd7a	1.5187844e-09
29	0x3103cc11	1.9179007e-09
30	0x308febfe	1.0471692e-09
31	0x30d5dfb2	1.5561368e-09
32	0x30d2b7ad	1.5331715e-09
33	0x2fe4a21a	4.1588138e-10
34	0x2fde76c7	4.046596e-10
35	0x302140db	5.8663624e-10
36	0x2fdcbb95	4.0151052e-10
37	0x30e1998b	1.6414544e-09
38	0x2f9cb1aa	2.8502473e-10
39	0x2f852af2	2.4223074e-10
40	0x2fb29681	3.248495e-10
41	0x2f41697a	1.759072e-10
42	0x30b5f5e7	1.3239373e-09
43	0x2f827a53	2.373378e-10
44	0x30179a75	5.5152977e-10
45	0x30f02e5b	1.7475473e-09
46	0x2f74b2de	2.2255217e-10
47	0x2f533017	1.9207423e-10
48	0x3010d1c7	5.2685006e-10
49	0x2ff8964b	4.5217727e-10
50	0x2fb5bfa0	3.3059866e-10
51	0x2f02302b	1.1840544e-10
52	0x2fef5381	4.353318e-10
53	0x2fe575f9	4.1738682e-10
54	0x2f1cb258	1.4251478e-10
55	0x3037d768	6.6881123e-10
56	0x2f9129e9	2.6405125e-10
57	0x30ee38b9	1.7332901e-09
58	0x30e24eef	1.6466098e-09
59	0x31068b4a	1.9578743e-09
60	0x30e974cb	1.6986176e-09
61	0x30c705e0	1.4480825e-09
62	0x308d4a44	1.0280208e-09
63	0x3003311b	4.7727305e-10
64	0x2fbf3949	3.47834e-10
65	0x30207ea1	5.838761e-10
66	0x30025714	4.741747e-10
67	0x30fade8a	1.8253143e-09
68	0x2fe5bbd9	4.178833e-10
69	0x2fa4ad9a	2.9954778e-10
70	0x301d625f	5.725606e-10
71	0x2fa22a09	2.9497496e-10
72	0x30915e50	1.0576944e-09
73	0x300154cf	4.7050447e-10
74	0x30bd05a9	1.3753169e-09
75	0x308707f5	9.824804e-10
76	0x2f8dc81e	2.5789942e-10
77	0x2fab7a74	3.1191727e-10
78	0x2fef08c8	4.3480086e-10
79	0x30232e66	5.936499e-10
80	0x3074bb7b	8.903311e-10
81	0x2f187a21	1.3867708e-10
82	0x3063d634	8.288652e-10
83	0x30bd6f18	1.3783135e-09
84	0x2fde5522	4.0442055e-10
85	0x301c68ec	5.690157e-10
86	0x2ffb019e	4.5657783e-10
87	0x316fdb65	3.4903789e-09
88	0x3107994d	1.9732227e-09
89	0x31365d70	2.6537599e-09
90	0x30716445	8.781778e-10
91	0x2ff3d029	4.434935e-10
92	0x2fe4c95f	4.161604e-10
93	0x306993dd	8.497503e-10
94	0x30925345	1.0646565e-09
95	0x30372cb2	6.663853e-10
96	0x2fdc05b1	4.002181e-10
97	0x301ee527	5.780571e-10
98	0x3003c883	4.7942467e-10
99	0x2f77aef9	2.2526682e-10
100	0x2fd4f823	3.8738887e-10
101	0x2ec6b4fc	9.036147e-11
102	0x2fbc2254	3.4221392e-10
103	0x2f5ed9c8	2.0268154e-10
104	0x3041e1d7	7.053393e-10
105	0x30157018	5.436518e-10
106	0x30489c9b	7.2982126e-10
107	0x2f41e6e2	1.7635274e-10
108	0x2f9c0c42	2.8384944e-10
109	0x308fd4ab	1.0465063e-09
110	0x2f9fc60e	2.9062658e-10
111	0x2ea2b7f1	7.3995816e-11
112	0x2f3368b7	1.6317157e-10
113	0x2f93b80b	2.6869915e-10
114	0x2f0f4905	1.3031716e-10
115	0x2f777b90	2.2508417e-10
116	0x30583d20	7.8667206e-10
117	0x302f0075	6.366528e-10
118	0x301fb8cf	5.810649e-10
119	0x311f5e42	2.3191125e-09
120	0x2fdf22b1	4.0588113e-10
121	0x3011341c	5.2824745e-10
122	0x2ffabd3b	4.5609191e-10
123	0x304b4ce9	7.3960266e-10
124	0x30a418a7	1.1939577e-09
125	0x2f85a204	2.4307678e-10
126	0x2f2699ef	1.51523e-10
127	0x302416ce	5.969526e-10
128	0x2eb8cae6	8.403393e-11
129	0x30104271	5.2481314e-10
130	0x30369a9c	6.643093e-10
131	0x2e2355f9	3.7138268e-11
132	0x3056a046	7.808051e-10
133	0x2f0c66c6	1.2769438e-10
134	0x2ffdb91d	4.6151963e-10
135	0x30227454	5.910057e-10
136	0x30144c1b	5.395024e-10
137	0x300b910e	5.077404e-10
138	0x2f82bb47	2.377993e-10
139	0x2f32bdcb	1.6256434e-10
140	0x2fe17086	4.1007214e-10
141	0x2f29d7d2	1.5447135e-10
142	0x2f989167	2.7751954e-10
143	0x2fbceb37	3.436413e-10
144	0x2fa4555f	2.9892086e-10
145	0x2f847064	2.4090518e-10
146	0x2fa0a7e4	2.9223124e-10
147	0x3070f222	8.7655583e-10
148	0x308ffaad	1.0475866e-09
149	0x30476baf	7.2548806e-10
150	0x2fe5ed08	4.1823278e-10
151	0x2fbf11b0	3.4755265e-10
152	0x3063e0d1	8.29016e-10
153	0x30ae129e	1.2665458e-09
154	0x303f1d98	6.952745e-10
155	0x30881c29	9.903306e-10
156	0x2f914030	2.6420954e-10
157	0x302d283a	6.29942e-10
158	0x2f9210c5	2.656916e-10
159	0x2fe30bbf	4.1299406e-10
160	0x30d7f40c	1.5712671e-09
161	0x2ede7986	1.0116978e-10
162	0x2fa5aa0b	3.0134148e-10
163	0x2f6c70f3	2.1504203e-10
164	0x303a4f6c	6.777927e-10
165	0x309e489f	1.1516653e-09
166	0x2f573262	1.9572036e-10
167	0x2fa3c483	2.9789157e-10
168	0x2f7f7d1c	2.3236563e-10
169	0x303de1b5	6.907855e-10
170	0x30c4c111	1.431575e-09
171	0x2ed62a89	9.739149e-11
172	0x2fc1dec4	3.526478e-10
173	0x307752ae	8.997557e-10
174	0x2f7050cc	2.1856578e-10
175	0x3092ab0f	1.0671516e-09
176	0x2fb55b05	3.2988381e-10
177	0x3135290a	2.6362295e-09
178	0x3017c482	5.5212734e-10
179	0x308ee123	1.0395848e-09
180	0x2fbcf814	3.437327e-10
181	0x2f7d6d15	2.304897e-10
182	0x2fb9f636	3.3826247e-10
183	0x300a8ec6	5.0407e-10
184	0x308e6324	1.0360037e-09
185	0x2f7078e7	2.1870826e-10
186	0x2f2e677b	1.5861971e-10
187	0x30639ff7	8.280944e-10
188	0x2f82ad5f	2.377005e-10
189	0x2f81035f	2.3467359e-10
190	0x2fa24d21	2.9522432e-10
191	0x2e4b87d7	4.6277506e-11
192	0x30150888	5.421801e-10
193	0x2f2e67be	1.5862064e-10
194	0x30075692	4.923574e-10
195	0x301977af	5.5831156e-10
196	0x3039d2aa	6.760198e-10
197	0x2f43a620	1.7794166e-10
198	0x2f17885b	1.3781813e-10
199	0x303de75b	6.9086575e-10
200	0x2f953e0e	2.7147035e-10
201	0x2ec501c6	8.958838e-11
202	0x2f1911c7	1.3921585e-10
203	0x2f5709a1	1.9557557e-10
204	0x2f066546	1.2223209e-10
205	0x2f1ac7fb	1.4077266e-10
206	0x304a26bf	7.3542233e-10
207	0x3005ae7e	4.8633086e-10
208	0x302108d5	5.858401e-10
209	0x306e6b1e	8.673612e-10
210	0x2fbc5f7a	3.426484e-10
211	0x2fad1960	3.1486547e-10
212	0x30909a57	1.0521245e-09
213	0x2ff917a2	4.5309628e-10
214	0x2fabfd15	3.1284544e-10
215	0x2fc652ed	3.6074913e-10
216	0x2f1a1bc1	1.4016079e-10
217	0x30615027	8.1968426e-10
218	0x2f53a26b	1.924804e-10
219	0x2f5fd38e	2.0356891e-10
220	0x301abacb	5.629032e-10
221	0x2e9682c7	6.844441e-11
222	0x2fe64806	4.1887932e-10
223	0x2fd4bcda	3.8696762e-10
224	0x30958cb6	1.0881169e-09
225	0x30bd420c	1.3770332e-09
226	0x2fa29fd9	2.9581207e-10
227	0x2f4ce6e7	1.8635725e-10
228	0x2f096a54	1.2497853e-10
229	0x305a9668	7.952168e-10
230	0x30d0de51	1.5197178e-09
231	0x2ea0b062	7.3072895e-11
232	0x302f8ee7	6.3867706e-10
233	0x2fb1b4e4	3.2324643e-10
234	0x2ecdff82	9.367708e-11
235	0x30c69904	1.4449886e-09
236	0x3032c267	6.5032285e-10
237	0x30340319	6.548802e-10
238	0x2f947817	2.7006372e-10
239	0x3007ede6	4.945079e-10
240	0x2fadfb13	3.1646916e-10
241	0x2fa3288c	2.9678338e-10
242	0x2fc23388	3.532501e-10
243	0x306a82e8	8.5314733e-10
244	0x30acdbfa	1.2577168e-09
245	0x3001b001	4.7180043e-10
246	0x2f5dca0d	2.0171616e-10
247	0x30c8271a	1.4563029e-09
248	0x2fcd3468	3.732652e-10
249	0x2fbf6dbd	3.482067e-10
250	0x304d2f6d	7.464596e-10
251	0x2eb9b5e3	8.4451356e-11
252	0x303b435e	6.812594e-10
253	0x2f9d0f63	2.8569067e-10
254	0x3031552f	6.451328e-10
255	0x2ff51342	4.4578924e-10

exp_avg f4 [30]
0	0xae05df3d	-3.0438974e-11
1	0xad4a461b	-1.1497937e-11
2	0xae1afa04	-3.5237605e-11
3	0xae7cdb85	-5.749314e-11
4	0xae9ffac3	-7.275027e-11
5	0x2e6d1d81	5.3913766e-11
6	0xae69108e	-5.299277e-11
7	0xad5e428c	-1.2634015e-11
8	0xae706ff4	-5.4669116e-11
9	0xae878889	-6.163343e-11
10	0x2d0b18a7	7.906709e-12
11	0xada8740c	-1.9150924e-11
12	0xae387621	-4.1941676e-11
13	0xae692c2c	-5.30173e-11
14	0x2e310307	4.024783e-11
15	0x2cff53af	7.2568267e-12
16	0x2d498e08	1.14570645e-11
17	0x2dbf8cfc	2.1776796e-11
18	0x2d2c5959	9.796907e-12
19	0xad7f4c3e	-1.4512001e-11
20	0xaeb63f82	-8.287683e-11
21	0x2e16e4f1	3.4309392e-11
22	0x2e300712	4.0024047e-11
23	0xae9d449e	-7.151722e-11
24	0xae7106ba	-5.480303e-11
25	0x2d3ba074	1.0665347e-11
26	0x2e3074ac	4.0121392e-11
27	0xada01e57	-1.8203368e-11
28	0xae14d8fa	-3.3844018e-11
29	0x2e9a8b54	7.027859e-11

exp_avg_sq f4 [30]
0	0x27b03602	4.890837e-15
1	0x25eaf36f	4.0757486e-16
2	0x26c245eb	1.3480405e-15
3	0x28a4e471	1.8306728e-14
4	0x272ead74	2.424138e-15
5	0x27c32d73	5.417265e-15
6	0x28a9f176	1.8867486e-14
7	0x264a4933	7.018203e-16
8	0x272f2b0f	2.430947e-15
9	0x278ec9cb	3.96317e-15
10	0x23a2e806	1.7662341e-17
11	0x26989da8	1.0589852e-15
12	0x260be002	4.85289e-16
13	0x24d95aa5	9.4262306e-17
14	0x260186aa	4.493837e-16
15	0x28934994	1.6352188e-14
16	0x2871302a	1.3388631e-14
17	0x2661a420	7.8284987e-16
18	0x20b48e78	3.0587464e-19
19	0x24a3393c	7.078694e-17
20	0x22c84e89	5.429326e-18
21	0x27593316	3.0142493e-15
22	0x26261296	5.761801e-16
23	0x21b9061d	1.2537706e-18
24	0x25be1ffa	3.2981414e-16
25	0x264abe46	7.0340697e-16
26	0x231fb77a	8.65826e-18
27	0x28027ffd	7.244203e-15
28	0x2822c454	9.035378e-15
29	0x272fee6c	2.4415377e-15

exp_avg f4 [5, 30]
0	0xb7661a55	-1.3715199e-05
1	0xb76108e9	-1.341312e-05
2	0x37561087	1.2759242e-05
3	0xb7032b30	-7.818264e-06
4	0xb78b629c	-1.661601e-05
5	0x3795e9b7	1.7871016e-05
6	0xb7274f16	-9.972389e-06
7	0x35d7eb48	1.6087224e-06
8	0xb78477c9	-1.5791406e-05
9	0xb797f8b6	-1.8116418e-05
10	0xb760ebce	-1.3406343e-05
11	0x35045d0e	4.9309244e-07
12	0x35d3660e	1.5750427e-06
13	0x352c840b	6.426714e-07
14	0x3786b55d	1.6058499e-05
15	0xb7934418	-1.7555474e-05
16	0xb6824b31	-3.8830553e-06
17	0x374f980b	1.2373562e-05
18	0xb784cc9b	-1.5830903e-05
19	0xb77fd0c4	-1.5247791e-05
20	0xb7332dcc	-1.0679894e-05
21	0xb700a467	-7.667672e-06
22	0xb6e4a34d	-6.81394e-06
23	0x370aba32	8.268793e-06
24	0xb646c745	-2.962029e-06
25	0x362afb44	2.547823e-06
26	0xb6d75801	-6.4177443e-06
27	0xb7642286	-1.3597897e-05
28	0xb6d1aa9d	-6.2485474e-06
29	0x3582ed8c	9.75489e-07
30	0xb6168d82	-2.243411e-06
31	0x368440fd	3.941472e-06
32	0xb62f66e6	-2.6136927e-06
33	0x36cd206e	6.1132514e-06
34	0x36343f1e	2.685883e-06
35	0xb6851ff4	-3.9674287e-06
36	0x36d08e3d	6.2154418e-06
37	0x36c3da32	5.836854e-06
38	0x37025cc5	7.770203e-06
39	0x34077182	1.2614149e-07
40	0xb6c33b17	-5.818332e-06
41	0x36b20195	5.3049976e-06
42	0xb35c968d	-5.1359667e-08
43	0xb6623f1a	-3.3713354e-06
44	0xb69608fe	-4.471395e-06
45	0xb69a61c6	-4.60094e-06
46	0x368f3ed2	4.2690453e-06
47	0xb6a8b958	-5.028367e-06
48	0x36a4cad1	4.911192e-06
49	0xb64fc1d9	-3.0958238e-06
50	0xb5701245	-8.943355e-07
51	0xb5e374fc	-1.6946865e-06
52	0xb39745ca	-7.04418e-08
53	0x36bd06f4	5.6334484e-06
54	0x3603ae2d	1.9621905e-06
55	0xb6dc7ad9	-6.5708123e-06
56	0xb6c7599e	-5.941095e-06
57	0xb617d182	-2.2622703e-06
58	0xb683ca4c	-3.9276547e-06
59	0xb6f6b254	-7.3521314e-06
60	0xb6cd7e73	-6.1241967e-06
61	0x3740d24a	1.14930535e-05
62	0xb78b0308	-1.6571503e-05
63	0xb6342d8c	-2.6848602e-06
64	0xb6d6c708	-6.4008673e-06
65	0x3576ae04	9.189537e-07
66	0x3645c3e7	2.9469318e-06
67	0x378455e0	1.5775615e-05
68	0x36eed80d	7.1181043e-06
69	0xb71104e9	-8.643817e-06
70	0xb535075f	-6.743848e-07
71	0x37007d0a	7.6585075e-06
72	0xb72914ae	-1.0078e-05
73	0xb7c6b0c8	-2.368576e-05
74	0xb494ceb1	-2.7717536e-07
75	0xb69c2819	-4.6538303e-06
76	0x372ff325	1.0487424e-05
77	0xb69c7f19	-4.6639584e-06
78	0x371b6d35	9.264147e-06
79	0xb7752096	-1.4610725e-05
80	0xb7ac3643	-2.0529265e-05
81	0x370dd479	8.453725e-06
82	0x3757c1af	1.2860094e-05
83	0xb683aa27	-3.9239126e-06
84	0xb7343fc7	-1.0743685e-05
85	0xb7899986	-1.6403163e-05
86	0x3527edc8	6.2558365e-07
87	0xb6c12b4d	-5.756889e-06
88	0xb7a6aadf	-1.986831e-05
89	0x36009fa0	1.91664e-06
90	0x38a9b0c2	8.091472e-05
91	0x38a9a9e7	8.090195e-05
92	0xb886cdb5	-6.427934e-05
93	0x3713ef89	8.817654e-06
94	0x386ed11e	5.6938377e-05
95	0xb7c8d49d	-2.3940864e-05
96	0x3824fc16	3.933542e-05
97	0x37ed95d7	2.8322376e-05
98	0x3847c37f	4.7627367e-05
99	0x384b7a7b	4.851304e-05
100	0x386727dc	5.5111814e-05
101	0xb660cc0a	-3.3497367e-06
102	0xb72a7602	-1.0160265e-05
103	0xb7ff008a	-3.039862e-05
104	0xb7d2c403	-2.5125226e-05
105	0x38b24266	8.500069e-05
106	0x37795585	1.4861468e-05
107	0xb82c072a	-4.1014668e-05
108	0x38399561	4.4246557e-05
109	0x380df574	3.3845616e-05
110	0x378f6853	1.7095508e-05
111	0x38069616	3.2087868e-05
112	0x383d8bd9	4.5191355e-05
113	0xb834e05f	-4.3124306e-05
114	0xb7c077e2	-2.2944008e-05
115	0xb8131f2a	-3.5076555e-05
116	0x36f2080e	7.2130997e-06
117	0x38840b0c	6.296308e-05
118	0xb78155d6	-1.5417969e-05
119	0xb5b806ae	-1.3711012e-06
120	0xb862ef5b	-5.4105516e-05
121	0x365dd098	3.3052984e-06
122	0x379a2ecb	1.838002e-05
123	0x37184d5b	9.077917e-06
124	0xb81cfcad	-3.742862e-05
125	0x38ad8f9e	8.2760336e-05
126	0x37bc4321	2.2442606e-05
127	0x38c3bc70	9.333424e-05
128	0xb65254e5	-3.1341854e-06
129	0xb8cb2eb0	-9.6884905e-05
130	0xb8f464cd	-0.00011653602
131	0x384c5170	4.8713235e-05
132	0x377552b3	1.4622393e-05
133	0xb86339ef	-5.4174972e-05
134	0x3881198e	6.155959e-05
135	0xb8e60d45	-0.00010969726
136	0x3707d1fd	8.095519e-06
137	0x37492426	1.198895e-05
138	0xb840ab9a	-4.5936184e-05
139	0xb9003d7d	-0.00012229937
140	0xb890b76e	-6.9006215e-05
141	0xb85e41d4	-5.299023e-05
142	0xb78791bb	-1.6161115e-05
143	0x38adc55f	8.286046e-05
144	0xb7a834a0	-2.0051666e-05
145	0xb89575b7	-7.1268e-05
146	0xb8e6bca6	-0.00011002393
147	0xb89b2897	-7.3985364e-05
148	0xb8cb63ac	-9.69836e-05
149	0xb894b091	-7.090078e-05

exp_avg_sq f4 [5, 30]
0	0x318fdf94	4.1872656e-09
1	0x313c5151	2.7403824e-09
2	0x31f7f17b	7.2160993e-09
3	0x30bc944f	1.3720952e-09
4	0x3135b6a1	2.644278e-09
5	0x31a97054	4.9313176e-09
6	0x308be498	1.0178551e-09
7	0x3104056d	1.9211612e-09
8	0x310284ac	1.8992905e-09
9	0x31b96890	5.396096e-09
10	0x325de78f	1.2916543e-08
11	0x309ed554	1.1556645e-09
12	0x3146eb1f	2.8946443e-09
13	0x31923327	4.2549746e-09
14	0x31606f98	3.2659724e-09
15	0x3247cf04	1.1630394e-08
16	0x30c09b92	1.4014054e-09
17	0x30a3ba35	1.1912734e-09
18	0x31b4cf67	5.2622684e-09
19	0x31dd2c74	6.4370003e-09
20	0x318d356e	4.1097143e-09
21	0x31e02317	6.5232473e-09
22	0x319dab17	4.588752e-09
23	0x3220f10b	9.368033e-09
24	0x30b87ba8	1.3422907e-09
25	0x30c2c010	1.4169945e-09
26	0x322ea44f	1.01654924e-08
27	0x31a37a19	4.7578053e-09
28	0x31343d81	2.6228408e-09
29	0x31c90e5f	5.8515037e-09
30	0x3111b1ce	2.1201347e-09
31	0x30db7b9e	1.5969481e-09
32	0x30bd4a5d	1.3772695e-09
33	0x31bd502d	5.509739e-09
34	0x3107e547	1.9775415e-09
35	0x314e9630	3.0062317e-09
36	0x31b9b1bf	5.404416e-09
37	0x31a1b9a9	4.706824e-09
38	0x320f4d24	8.341235e-09
39	0x30aa191d	1.2376266e-09
40	0x31ac7dce	5.020161e-09
41	0x318f5fa5	4.1727213e-09
42	0x2fb70320	3.3289727e-10
43	0x313251b8	2.594886e-09
44	0x31599433	3.1661898e-09
45	0x319ddedc	4.5946376e-09
46	0x31035615	1.911194e-09
47	0x31568d1f	3.1221317e-09
48	0x3151ac17	3.0511325e-09
49	0x314529f7	2.8691127e-09
50	0x30e8eb77	1.6947145e-09
51	0x3050a108	7.58988e-10
52	0x2ff3f61c	4.4376314e-10
53	0x31948d5d	4.323438e-09
54	0x30a1b189	1.176475e-09
55	0x31c91a19	5.852837e-09
56	0x3196c6d3	4.3881783e-09
57	0x30fd4158	1.8426745e-09
58	0x31469015	2.8894693e-09
59	0x31eb8ba6	6.8552763e-09
60	0x3270132c	1.3974198e-08
61	0x32736d3e	1.41693e-08
62	0x325fa5a7	1.3017973e-08
63	0x31e48986	6.651308e-09
64	0x3041c2e1	7.048993e-10
65	0x318365c5	3.8241716e-09
66	0x300cc00f	5.1204635e-10
67	0x315998bb	3.1664473e-09
68	0x3034fc5f	6.584226e-10
69	0x3013a3b9	5.371095e-10
70	0x324aeb5f	1.1811465e-08
71	0x30b99b09	1.3504585e-09
72	0x312f6c3a	2.5527371e-09
73	0x3246dd6d	1.1575463e-08
74	0x3139edbb	2.7056177e-09
75	0x3299d03b	1.7906236e-08
76	0x2fae96cc	3.1757563e-10
77	0x2f3a573d	1.6947595e-10
78	0x2fd6e3dd	3.908828e-10
79	0x304223d1	7.0627687e-10
80	0x31ad3e51	5.0420472e-09
81	0x31d90f08	6.31724e-09
82	0x324a0c5c	1.1760758e-08
83	0x326f4e15	1.3929385e-08
84	0x3259dfcb	1.2681947e-08
85	0x31224763	2.3614681e-09
86	0x311c6b7b	2.2762083e-09
87	0x31e24f55	6.5864847e-09
88	0x31ea9ad0	6.8278965e-09
89	0x31c77067	5.804441e-09
90	0x31f4d902	7.1260056e-09
91	0x3177b6fe	3.604725e-09
92	0x30dc7886	1.6041362e-09
93	0x312813f9	2.445857e-09
94	0x320c5116	8.167509e-09
95	0x308dff37	1.0331637e-09
96	0x317b1ec8	3.6542804e-09
97	0x2fe3c901	4.143388e-10
98	0x3155d50d	3.1116685e-09
99	0x319f025b	4.627777e-09
100	0x309113a4	1.0555721e-09
101	0x2eea96e2	1.066789e-10
102	0x30de6bda	1.6183279e-09
103	0x313051a7	2.5657785e-09
104	0x309ce144	1.1414518e-09
105	0x31afd00a	5.1168216e-09
106	0x2fe41f7e	4.1495335e-10
107	0x310f4d3b	2.085314e-09
108	0x308ec555	1.0387945e-09
109	0x31684042	3.379697e-09
110	0x31ecb801	6.889423e-09
111	0x30816a24	9.416152e-10
112	0x308d6c1e	1.0289829e-09
113	0x30683b32	8.448523e-10
114	0x30a6e6f2	1.2143728e-09
115	0x302eb851	6.356276e-10
116	0x30d3f055	1.5420577e-09
117	0x31859aaa	3.8883927e-09
118	0x30c695d7	1.4448983e-09
119	0x313d20fd	2.7521871e-09
120	0x30aede21	1.2723299e-09
121	0x304e76d6	7.511124e-10
122	0x30d71899	1.56503e-09
123	0x30935905	1.0720959e-09
124	0x31206378	2.3339606e-09
125	0x3212d56c	8.546845e-09
126	0x2f5f1339	2.0288561e-10
127	0x31cd48b6	5.9745515e-09
128	0x30ab88f2	1.248081e-09
129	0x3203027f	7.625771e-09
130	0x31c4655a	5.715873e-09
131	0x306ec1e1	8.6859414e-10
132	0x3053aaad	7.70039e-10
133	0x31b86fd2	5.3678173e-09
134	0x31bb7723	5.4559606e-09
135	0x31acd3b1	5.0299254e-09
136	0x30326802	6.4903827e-10
137	0x304b1da9	7.389312e-10
138	0x315228be	3.0582181e-09
139	0x32363742	1.06063585e-08
140	0x31e9234c	6.7852053e-09
141	0x30d94b4f	1.5810232e-09
142	0x30977aa1	1.1021549e-09
143	0x3123b741	2.382379e-09
144	0x3136408e	2.652118e-09
145	0x316d68f2	3.4547694e-09
146	0x31c3a38d	5.6938405e-09
147	0x3130ab22	2.5708649e-09
148	0x3217a216	8.826211e-09
149	0x30c67c5d	1.4441742e-09

exp_avg f4 [5]
0	0xaee45ace	-1.038437e-10
1	0xae1e63fe	-3.601385e-11
2	0x2e88d657	6.2226384e-11
3	0x2ef69173	1.1212622e-10
4	0xaeb1de4d	-8.088517e-11

exp_avg_sq f4 [5]
0	0x20ad7713	2.9386137e-19
1	0x288beee3	1.55357e-14
2	0x256959dc	2.0239974e-16
3	0x26645367	7.921642e-16
4	0x2776ff4e	3.427776e-15
