tutorial/Mouse_cerebellum_output/version_1/checkpoints/mlp.ckpt (torch, 18229 bytes, 12 tensors)

model.classifier.0.weight f4 [30, 30]
00000000: 47c6 253d a213 09bd 326f cb3d 6cbd 27bc
00000010: 0866 063e 4095 36be 73fa 753d 697b e5bc
00000020: 97c8 423d 6dcf 15be 0013 e2bd fc9b 2fbd
00000030: 59e2 dbbc 62ce 4abe 9185 04be d699 61bd
00000040: 4cc0 a2bd 0e31 b3bd d7c0 c6bd 267c 973d
00000050: a651 09bd e6b2 e63d 5174 583d 2fc5 5fbb
00000060: 9fbf 38bd be18 043e c8b8 373d f43b b63d
00000070: 5174 06be b5e1 9c3d fdc1 183c 4120 80bd
00000080: 10e0 913e 439c 083a 3cd7 993d 31e9 55be
00000090: 0c2b 85bd 4de9 893e 4540 bdbd 2ec5 8cbd
000000a0: 1eb1 303e 2043 07be 0d28 533d e104 b639
000000b0: 0ec6 b338 01d3 babc 8244 01bd abae 80be
000000c0: e1f2 143e b448 e3bd f48a 133d 9f8f c8bd
000000d0: a280 2c3e 6a44 663d 13da afbd 96f5 40be
000000e0: c680 1b3e 07c0 27be 2d58 3fbe 7b8b 3bbe
000000f0: a52a b8bd 514e 3dbd 1938 25bd 0580 50bc
00000100: 3803 fcbc eff7 3dbd e304 893d bb5d c1bd
00000110: c199 d13d aaf9 6c3c e388 7dbd 327b be3d
00000120: 9bed 23bd 227f 59bc 77e8 a7bd 596a 273d
00000130: 0cac 82bd 3e3e 493e 597b c2bd 9d95 963c
00000140: a052 adbc 8a68 ee3b 27fd 49bc c7e2 cbbd
00000150: e6c9 133d b149 ae3d 5520 393d 10e4 0e3e
00000160: 451b 68bc 313b 263e 25c8 22bd d26c eabd
00000170: 0107 d93d a60b 12bd 9a49 f3bc ce6f 753d
00000180: d4e9 dc3d c865 cabb cb61 35bd 0098 093e
00000190: 25c8 173e f685 38bd 12f6 083e 76b6 12be
000001a0: 5f2d ddbd dc1e 4f3b 66cc abbb afa0 163e
000001b0: 448d 6b3d c68d 21bc 30ec b63d 07e9 d53c
000001c0: 6f65 163e c595 363e 5347 c4ba e4a6 48be
000001d0: fb13 463e fc66 2f3e 456a b13d 67fb a7bd
000001e0: 7cb8 953c dd73 b73d 0345 50be c04b 883c
000001f0: 4ec7 88bd addc 2e3e caa1 01bd 1064 d7bd
00000200: 26b6 803c 40ea 403d f797 9dbd 3700 913d
00000210: 1a32 2bbd 7423 dc3d d817 c73d 1b22 933c
00000220: be6d 813d 7df6 8c3d 2451 09bd 0c4c 093d
00000230: c2f4 cbbc 9b4a c23b b592 14be c605 3abd
00000240: c2c6 4c3d 2513 b23d 7b52 26be 26a9 d6bc
00000250: 2a12 033e 5160 3d3d 6dd3 c53d 16c6 d33d
00000260: 1a71 38be 8a95 5e3c bfff cebc d3d3 5f3e
00000270: 442d 9cbc 4370 d3bd 9d30 37bd bf0b 1e3d
00000280: 61dd 82bd a607 763b 4a41 373c 9f74 783c
00000290: 9b3e c63d ca81 dabc 2bc5 c63d 4979 aebc
000002a0: eb66 87bb 7501 893d a694 46bb a8c8 8b3d
000002b0: e365 fbbd c526 973d c1cc b93c 48fb 5c3d
000002c0: 6f84 32be afb6 d6bc f59d 313e 01fa 2cbd
000002d0: aeb7 743d 886b 123d db06 e53d 1289 9c3c
000002e0: 82fb c43d bcfe 2abe 4d87 b6bd 39cc 123e
000002f0: 89f5 ffbc 55bd 19be f761 86bc 2d8c 98bd
00000300: b1b3 3fbd 904b cc3c c4c1 303d 8413 22bd
00000310: 0ef5 94bc 2bb3 8abe 637e 023d 99e1 ffbc
00000320: 6561 14bd 89eb f6bc 666d 923c 94c9 3bbd
00000330: aaef 72bd 6928 053d dc4a 0dbd f18c 37be
00000340: 76d9 2dbe d2ff 71bd 2762 a33d c731 c73d
00000350: ed64 eebd c9dd a63c 3d72 1d3d a9d2 1a3d
00000360: 256b 1dbd 45ac 7ebd 1984 533c 3032 acbd
00000370: f78d 0abe 157c 5c3c f461 83bd 9521 853c
00000380: dfad 823d 0f7e f4bc a64c f83c 7ce8 d1bd
00000390: c727 78bd 0d5c 783d ae31 4abd cd0e 5b3d
000003a0: ab9d efbd d84d 34bd 67c8 8bbb 12b7 213e
000003b0: f593 2bbe c015 86bd 4f16 7d3c 0f5b 1f3d
000003c0: 1db3 f43c aaf1 163d 127f 07be 8081 24bb
000003d0: 940a f43c 95b7 253d dba5 843d cb5d 37be
000003e0: 9881 9d3d 1ae4 3cbd 0d7e 33be 8d3d 703d
000003f0: 4eb7 4cbd baaa ccbd febe 56bd e6e1 9fbc
0.040472295 -0.03346599 0.09933318 -0.010238033 0.1312486 -0.17830372 0.0600533 -0.028012948
0.04755458 -0.14629908 -0.1103878 -0.042873368 -0.02684133 -0.19805291 -0.12941577 -0.05507835
-0.07946834 -0.08749591 -0.0970475 0.07396726 -0.03352513 0.11264591 0.052845303 -0.003414463
-0.04510462 0.12900063 0.044853956 0.08898154 -0.13130309 0.07660238 0.009323594 -0.06256152
0.2849126 0.0005211273 0.07511756 -0.20889737 -0.06502351 0.26935807 -0.09240774 -0.068735465
0.17255065 -0.132092 0.051551867 0.0003471738 8.572276e-05 -0.022805693 -0.031559475 -0.2513326
0.14545776 -0.110978514 0.036021188 -0.097930185 0.16845945 0.05621759 -0.08586516 -0.18843684
0.15185842 -0.16381846 -0.1868598 -0.18314926 -0.08992509 -0.046217266 -0.040336702 -0.012725835
-0.030763254 -0.046379026 0.06690385 -0.09441706 0.10234404 0.014463821 -0.061898123 0.093008414
-0.04002152 -0.01327494 -0.08198636 0.040872905 -0.063804716 0.1965265 -0.09496183 0.018381888
-0.021157563 0.0072756456 -0.012328423 -0.09955364 0.036081217 0.08510149 0.04519685 0.13954186
-0.014166658 0.16233517 -0.039741654 -0.11446537 0.10597039 -0.03565564 -0.029698182 0.05992108
0.10786787 -0.006176684 -0.044282716 0.1343689 0.14822443 -0.04504963 0.13375118 -0.14327416
-0.107996695 0.0031604087 -0.005242872 0.14709733 0.05750777 -0.009860462 0.08931768 0.026112093
0.14687131 0.1783057 -0.001497487 -0.19594914 0.1934356 0.17129129 0.086628474 -0.08202248
0.018276446 0.08957646 -0.20338826 0.016637683 -0.06678639 0.17076369 -0.031648435 -0.10517132
0.015711855 0.0470984 -0.076950006 0.07080119 -0.041795827 0.1074895 0.09721345 0.017960599
0.0631976 0.068829514 -0.033524647 0.03351979 -0.024896983 0.005929304 -0.1450909 -0.045415662
0.049994238 0.08695058 -0.16242401 -0.026203703 0.12799898 0.046234433 0.09659467 0.10340516
-0.18011895 0.013585458 -0.025268434 0.21858148 -0.019064553 -0.103241466 -0.044724096 0.03858542
-0.06389881 0.003754118 0.011185 0.015164523 0.0967991 -0.026673216 0.097055756 -0.021298068
-0.004132142 0.06689731 -0.0030301004 0.068253815 -0.12275293 0.073804416 0.022680642 0.053950578
-0.17433332 -0.026210157 0.17345412 -0.04223061 0.059745483 0.03574708 0.11182948 0.019108329
0.09618284 -0.16698736 -0.08912525 0.14335717 -0.03124501 -0.1501363 -0.016404135 -0.074486114
-0.046802226 0.024938375 0.04315354 -0.039569393 -0.018183257 -0.2708982 0.031858813 -0.031235503
-0.036225695 -0.030141609 0.01787443 -0.045846537 -0.059310593 0.03250924 -0.03449522 -0.17924859
-0.16977486 -0.05908186 0.079777054 0.09726291 -0.11640344 0.020369427 0.038439024 0.037798557
-0.03843226 -0.062176008 0.0129099125 -0.0840801 -0.13530718 0.013457318 -0.064151675 0.016251365
0.063808195 -0.029845266 0.030309986 -0.10249421 -0.06058481 0.06063466 -0.049363784 0.053480912
-0.11699995 -0.04401955 -0.004265833 0.15792492 -0.1675566 -0.06547117 0.015447213 0.0389052
0.029870564 0.036851563 -0.13232067 -0.0025101602 0.0297902 0.04045828 0.06476947 -0.17906873
0.07690734 -0.046115972 -0.17528553 0.05865245 -0.0499795 -0.09993501 -0.052428238 -0.019516896

model.classifier.0.bias f4 [30]
00000000: 9665 2ab4 c917 4eb5 1d82 0c33 ec13 ff32
00000010: f904 3835 cd3f 2635 c729 6cb5 b97f 1834
00000020: 94cd b334 7f0c ad34 91eb 8435 ef37 0d35
00000030: 0287 b5b4 a1b0 e8b4 d303 81b6 0c31 08b5
00000040: ae88 a7b4 e8ab d434 55de 9034 efa2 1b36
00000050: a33e 7235 2252 7230 2a2c e534 3ba7 f7b3
00000060: af6b 4ab5 11fd 9ab3 d519 f2b4 7f58 8c35
00000070: 860f 2835 e561 bc35
-1.586944e-07 -7.677559e-07 3.2714627e-08 2.9694966e-08 6.855258e-07 6.193266e-07 -8.7977645e-07 1.4202568e-07
3.3490926e-07 3.2232853e-07 9.903325e-07 5.260799e-07 -3.3812108e-07 -4.3341882e-07 -3.844945e-06 -5.073532e-07
-3.1205622e-07 3.9613155e-07 2.6983858e-07 2.319164e-06 9.0243174e-07 8.8155805e-10 4.2686708e-07 -1.1532253e-07
-7.5407564e-07 -7.217216e-08 -4.5094808e-07 1.0456569e-06 6.2607467e-07 1.4035583e-06

model.classifier.1.weight f4 [5, 30]
00000000: c6cd 873e 1b52 72be e6e8 7e3e 4e39 883e
00000010: 391d d0bd 8978 b8bd c068 79be 4de5 b6bd
00000020: b210 863e 2e86 a9bc 395e 8f3e 7209 583e
00000030: 9bae 8abd fb97 6abe 7abb 9bbd 648b 5c3e
00000040: 11b1 b93e acc8 b63d 5ae6 093e f7aa 123d
00000050: 08b9 7ebd 09fe a4be a5c5 53be ed04 4ebe
00000060: 6284 b2be 4e71 67be f77a cabe 8cf5 aabc
00000070: 01e0 edbd 86ac bf3e 37d1 13be 014a 013f
00000080: d231 62bd acd9 a93e 5cc8 97be 0fab acbe
00000090: c677 fb3c cc4d bfbe f039 d8be d721 2d3c
000000a0: a13d d13c 6569 ddbe 2d83 ec3e e547 adbe
000000b0: 8e0d 873e 56f9 9e3e abe1 003e 265d 46bd
000000c0: 6600 babe f19d eabe d970 dcbe 2ea7 58be
000000d0: 7f51 3bbe d814 763e cd63 e43e 0339 263e
000000e0: ec3d d93d 5b68 76be 242b b0be 681d b8be
000000f0: 138c 6abe 2cd6 7ebc b501 79be 61a5 843d
00000100: a8fb 0e3e e1bd 963e a598 2fbd 4730 423d
00000110: c3b8 cfbd 6e72 2d3e 3b8d 553e 7df3 4bbe
00000120: c551 f8bd 3c8e 443e ef4f 85be 2ba0 a0be
00000130: a736 0ebe be03 383e 46e1 17be a1de 313e
00000140: 3e39 473e f5c9 543e 09ba 813e a409 9e3e
00000150: c5a3 8a3d e8b4 4d3e b6fe 843e 39b0 8b3e
00000160: d855 813e c31c d1bd 9fd9 953e 95b0 c93e
00000170: e32a 07be be8f 87be 428b 54be fc13 2dbe
00000180: 31ba e23e 41cc e33d 41a0 89bd 7f7e b3be
00000190: c945 8bbe 6be3 a63d 7cdc 27be bb22 813e
000001a0: 283a 5a3c e989 843b a95e 7abd 0ee1 cebe
000001b0: cb01 963e d3ba 86be b747 94be 012f 9f3e
000001c0: c639 18be 9b9c 22be 42c2 923e e6d0 8bbe
000001d0: fedb 9cbd 79d4 403d 88c5 1e3e 6b49 04bc
000001e0: ea2a 2ebe c9f0 a3be 8abe 4d3e afb3 90be
000001f0: ed46 783e 5c1e 6c3c 9868 bcbd d68c bb3d
00000200: 5157 d23d 9f0a d93d 2a6e b0be 1299 313e
00000210: ee5f 283e 8711 86bd 88a5 953e 28e2 0b3d
00000220: cae5 4fbe f4cf 433d 27c0 04bd 6e4c 303e
00000230: fa9a 883e 04be cdbd 81c8 d13d 9af3 30be
00000240: 6336 38be 79ba 0e3e 4124 b83d 74cf 88be
00000250: 657a 39be f714 b8bd
0.2652418 -0.23664133 0.24893531 0.2660622 -0.10161824 -0.09007365 -0.24356365 -0.089304544
0.26184613 -0.020693865 0.28001574 0.21097353 -0.067715846 -0.22909538 -0.07604118 0.21537548
0.36267903 0.08924994 0.13466778 0.035807576 -0.06218818 -0.32225063 -0.20680864 -0.20119067
-0.34866625 -0.22601816 -0.3954694 -0.020869039 -0.11614991 0.37436312 -0.14435278 0.50503546
-0.055223294 0.33173883 -0.2964505 -0.33724257 0.03069676 -0.37364042 -0.42231703 0.01056715
0.025542082 -0.43244472 0.4619383 -0.33843914 0.2637753 0.31049603 0.12586085 -0.048428677
-0.3632843 -0.45823625 -0.43054846 -0.21157524 -0.18292807 0.24031389 0.44607392 0.16232686
0.10607514 -0.24063246 -0.34407914 -0.35959935 -0.22904997 -0.015553992 -0.24317057 0.06476856
0.13963187 0.2944174 -0.042870183 0.047409322 -0.101426624 0.16938183 0.20854656 -0.19917102
-0.12124971 0.19194883 -0.26037547 -0.31372198 -0.13888036 0.17970178 -0.14832029 0.17370082
0.1945543 0.20780165 0.25337246 0.3086673 0.06769518 0.20088542 0.2597558 0.27282885
0.25260806 -0.10210564 0.29267594 0.39392534 -0.13199954 -0.26476854 -0.20756248 -0.16902155
0.44282678 0.11122943 -0.06720019 -0.35057446 -0.2720168 0.08148845 -0.16392702 0.2522181
0.01331953 0.0040447605 -0.06112543 -0.40406078 0.29298243 -0.2631441 -0.28960964 0.3109055
-0.14865789 -0.15880053 0.28663832 -0.27307814 -0.07659148 0.04707763 0.1550504 -0.008074145
-0.17008558 -0.32019642 0.20092216 -0.28262088 0.24245806 0.014411535 -0.09199637 0.09157722
0.102705605 0.10597729 -0.34459049 0.17343548 0.16442844 -0.06546312 0.29227853 0.034151226
-0.20302501 0.04780574 -0.032409813 0.17216656 0.26680738 -0.10046008 0.10243321 -0.17280427
-0.17989497 0.13938321 0.0899129 -0.26720774 -0.18113096 -0.08988374

model.classifier.1.bias f4 [5]
00000000: b59c 7bb3 fca0 9fb5 f974 8d36 cb43 53b5
00000010: 27cb b2b5
-5.8583016e-08 -1.1893276e-06 4.215745e-06 -7.8702277e-07 -1.3321159e-06

exp_avg f4 [30, 30]
00000000: aa7a f7b7 615a 1136 ec9d 17b8 25b0 7db6
00000010: 82ec 17b8 8254 02b7 5fb5 59b8 7f8a 9237
00000020: 9f19 8937 ca58 bb37 d131 b8b5 ca14 f537
00000030: efa6 20b8 7e23 ba38 64f9 0538 6510 1237
00000040: 82b1 95b7 ae54 f637 3b4b 6635 1853 20b7
00000050: ba81 8bb8 b42c a1b7 7709 03b8 7ed7 abb8
00000060: 6147 e937 0871 9137 8a1e 6bb7 b4bd 23b8
00000070: a925 49b8 aeb0 0d38 3bfc 0eb8 eef5 2936
00000080: 8fd7 73b8 d8e2 b8b6 d299 47b8 f7a0 dd37
00000090: d4f0 c0b8 ea93 b337 470c f337 20d2 2f38
000000a0: 7aae c2b7 27c0 0638 4aa4 36b8 56b0 fd38
000000b0: 1bad 2e38 e191 2337 cc79 1fb8 7de0 9737
000000c0: 2ab5 83b7 25ea 29b6 636f afb8 5baa 0eb8
000000d0: 0fff 97b8 9d28 f0b8 117d ec37 8f1d 4e38
000000e0: 0d49 86b8 f2a5 85b8 a8df 35b8 1d48 6d38
000000f0: 1b0c 3038 e449 8437 ab00 b237 1e90 a237
00000100: 783b e237 4980 eeb5 c277 6e38 06bc 9db7
00000110: ced6 e6b7 79f4 85b7 a479 2cb6 f98f 44b7
00000120: 0e05 0a37 95e7 77b8 4a14 3fb7 0aa0 e2b7
00000130: 449e 1038 eec3 fcb7 3f9a fa36 4bf9 6737
00000140: d7c4 0b38 6be2 c537 12c5 2038 dda0 9738
00000150: 6edb 5eb7 d25b aab7 cdef 2537 f284 2238
00000160: 7e12 3938 1169 03b8 dfb3 87b7 63d0 1f37
00000170: d0b7 11b8 1d9a 53b6 06f9 4fb7 cd57 9937
00000180: a391 bdb8 ee51 1a38 7402 8e37 29eb f436
00000190: 55bf 11b7 cbe3 5437 2cce 91b7 0918 b038
000001a0: ab39 1a38 8b0a a936 9fcd e3b7 fca1 d0b7
000001b0: 9317 9a35 1a67 09b7 0f25 7eb8 9d3b ecb7
000001c0: 230d 80b8 9ab6 b7b8 f01f 7737 035c 1338
000001d0: 7252 5cb8 a6ac 93b8 b0a4 35b8 6432 b137
000001e0: 7c56 a737 dc46 17b7 b9ad 4138 696a 2db5
000001f0: 0373 0b38 2ffc 86b7 648e 9938 2f06 afb7
00000200: f052 91b7 5c93 e6b7 10f1 8737 f705 e1b7
00000210: 23e2 2038 2b34 cfb8 aa2e 23b8 13f4 bab5
00000220: 2e9c c237 6f37 98b6 4658 c436 fb8a 2836
00000230: d722 9938 72bf d037 5d32 6138 98ed bc38
00000240: 0716 cdb7 e0a0 13b8 e1cb 5038 da35 6238
00000250: b249 1c38 9f3d 20b8 fd9e bbb7 bef9 a6b7
00000260: f765 ae37 d6e3 99b7 ede0 cc36 e75e a2b7
00000270: 04af aa36 9e9d d336 83b5 1d37 556b 7bb7
00000280: c98d b637 a70d 35b7 1d78 d137 a2c7 cfb7
00000290: 6781 9ab7 5f69 cb37 95f7 33b7 b8c9 ab37
000002a0: e2dc 9136 050d 76b7 d1e9 da37 0e68 c7b5
000002b0: cd02 3c37 01ac 9336 37ab e5b6 5ad3 72b7
000002c0: 476d 2038 86a3 7c36 0b99 95b7 a51a 08b7
000002d0: 76a9 d7b7 a34b f9b6 4ca6 c4b7 55f0 e6b6
000002e0: 854f 06b8 fa0d 3a35 6f15 b9b7 9ea9 47b5
000002f0: 755a 8437 064d d637 a46d cdb6 2508 9d37
00000300: 3537 c5b7 e295 4f38 8283 3437 9db6 3437
00000310: 0cb7 8bb7 729b 1d38 5dbc 25b7 93d3 3cb6
00000320: 5fc3 08b8 d8fe 42b7 81e2 9bb7 a869 41b8
00000330: bc5b 8737 2a47 6537 6ea5 01b7 0c8a 42b7
00000340: aa79 b1b7 0828 0738 f03a 45b7 2933 5fb7
00000350: 4543 8837 8d05 11b7 6cc0 8ab5 d882 a9b7
00000360: f65b fa37 7ae3 13b7 be67 9835 896b a7b6
00000370: 4b3b 7e37 f863 43b6 047a 2637 2336 dbb7
00000380: b5d8 8ab7 a3fa 4e37 b691 3c36 20f9 f637
00000390: 1e32 1236 f1c7 d9b6 4f76 bd37 a327 e036
000003a0: 7d82 d337 87d4 a637 e1e2 32b6 d1b8 9fb7
000003b0: fafe 2638 0534 c237 6e07 1db6 11d0 adb6
000003c0: d84d 0136 048c edb5 b8e7 8737 01f5 a6b4
000003d0: c713 0837 5188 b6b7 eadc ec37 2e39 6ab6
000003e0: 4ad2 01b7 9cb6 5cb7 1973 8037 8b73 4db6
000003f0: 7401 dd36 5f0b d2b7 5d0a 0cb7 01f0 ab35
-2.9501814e-05 2.1659291e-06 -3.614828e-05 -3.7802467e-06 -3.622147e-05 -7.76828e-06 -5.1905747e-05 1.7469049e-05
1.6343603e-05 2.2333483e-05 -1.3723567e-06 2.9215957e-05 -3.830244e-05 8.875782e-05 3.1941934e-05 8.706095e-06
-1.7844843e-05 2.9364917e-05 8.579115e-07 -9.55609e-06 -6.6522e-05 -1.9213512e-05 -3.124165e-05 -8.194054e-05
2.7809003e-05 1.7337981e-05 -1.4014202e-05 -3.9038903e-05 -4.7957208e-05 3.3781565e-05 -3.4090346e-05 2.5326112e-06
-5.813647e-05 -5.5100354e-06 -4.7588554e-05 2.6420208e-05 -9.200131e-05 2.140734e-05 2.8973574e-05 4.1918945e-05
-2.320785e-05 3.2127045e-05 -4.3545188e-05 0.00012096825 4.164605e-05 9.749522e-06 -3.8021986e-05 1.8105138e-05
-1.5700778e-05 -2.5319252e-06 -8.365398e-05 -3.4014094e-05 -7.2477495e-05 -0.000114516566 2.8191631e-05 4.9141756e-05
-6.403225e-05 -6.372844e-05 -4.336206e-05 5.6572364e-05 4.1972944e-05 1.5770034e-05 2.1219565e-05 1.9379015e-05
2.6968992e-05 -1.7769718e-06 5.6855155e-05 -1.8803414e-05 -2.7518163e-05 -1.5968677e-05 -2.5700801e-06 -1.1716032e-05
8.226618e-06 -5.9105067e-05 -1.1389211e-05 -2.7015823e-05 3.447967e-05 -3.0131978e-05 7.468537e-06 1.3826716e-05
3.3323504e-05 2.3589664e-05 3.833051e-05 7.230204e-05 -1.3283321e-05 -2.0308336e-05 9.890599e-06 3.8747625e-05
4.412466e-05 -3.1330685e-05 -1.6177013e-05 9.525657e-06 -3.4741883e-05 -3.1531156e-06 -1.2396142e-05 1.8279907e-05
-9.039349e-05 3.6792764e-05 1.6928861e-05 7.299143e-06 -8.687221e-06 1.2689222e-05 -1.7381353e-05 8.396811e-05
3.677017e-05 5.03782e-06 -2.7156259e-05 -2.4870962e-05 1.1480755e-06 -8.1898415e-06 -6.0592833e-05 -2.8161152e-05
-6.1059625e-05 -8.760132e-05 1.4729783e-05 3.5133224e-05 -5.252887e-05 -7.0416645e-05 -4.330714e-05 2.112351e-05
1.9948224e-05 -9.0168e-06 4.6176578e-05 -6.460237e-07 3.3247296e-05 -1.6091477e-05 7.322131e-05 -2.0864505e-05
-1.7323968e-05 -2.7486756e-05 1.6205508e-05 -2.6824868e-05 3.835758e-05 -9.880246e-05 -3.8905688e-05 -1.3929115e-06
2.3199329e-05 -4.5364063e-06 5.8515316e-06 2.5114848e-06 7.302098e-05 2.488468e-05 5.3691085e-05 9.008794e-05
-2.4448162e-05 -3.5197358e-05 4.978094e-05 5.3932752e-05 3.7261932e-05 -3.820436e-05 -2.2366172e-05 -1.9905037e-05
2.0789897e-05 -1.8345116e-05 6.1058586e-06 -1.9356097e-05 5.0867693e-06 6.306639e-06 9.400191e-06 -1.4985756e-05
2.1762115e-05 -1.0791619e-05 2.4970674e-05 -2.4769284e-05 -1.8418488e-05 2.4248553e-05 -1.0726876e-05 2.0478721e-05
4.347051e-06 -1.4665774e-05 2.6096504e-05 -1.4856939e-06 1.1206325e-05 4.4009653e-06 -6.844664e-06 -1.4473533e-05
3.8248745e-05 3.764611e-06 -1.783345e-05 -8.112435e-06 -2.5708909e-05 -7.4295835e-06 -2.3442459e-05 -6.8825125e-06
-3.2022148e-05 6.931074e-07 -2.20637e-05 -7.43801e-07 1.5777749e-05 2.5546655e-05 -6.12224e-06 1.8719651e-05
-2.3509938e-05 4.9492235e-05 1.0759455e-05 1.0771354e-05 -1.665533e-05 3.7576487e-05 -9.878623e-06 -2.8137335e-06
-3.260688e-05 -1.16226365e-05 -1.8582914e-05 -4.6113186e-05 1.6135971e-05 1.3666033e-05 -7.727516e-06 -1.1595443e-05
-2.1156698e-05 3.222379e-05 -1.17558375e-05 -1.3303747e-05 1.6243788e-05 -8.643966e-06 -1.0337803e-06 -2.0207299e-05
2.9845145e-05 -8.814846e-06 1.1355075e-06 -4.9895066e-06 1.5153385e-05 -2.9115454e-06 9.92278e-06 -2.6132044e-05
-1.6551794e-05 1.2336913e-05 2.8098998e-06 2.9441493e-05 2.1784867e-06 -6.49038e-06 2.2585647e-05 6.6803345e-06
2.5213923e-05 1.9887708e-05 -2.6656128e-06 -1.9040339e-05 3.981495e-05 2.3150826e-05 -2.3399148e-06 -5.180024e-06
1.926781e-06 -1.7698626e-06 1.6201157e-05 -3.1098173e-07 8.1108365e-06 -2.1759568e-05 2.8236263e-05 -3.4902e-06
-7.737961e-06 -1.3155539e-05 1.5312386e-05 -3.0614635e-06 6.5864824e-06 -2.5039246e-05 -8.347063e-06 1.2810343e-06

exp_avg_sq f4 [30, 30]
00000000: 7360 c430 bce3 8c30 6394 1b31 c560 ff2f
00000010: 799d 0431 35fa 1c31 af27 3931 d3c8 1830
00000020: 7d7d 5930 92b6 c030 7744 da30 3051 0031
00000030: c798 2f31 0743 9931 08d0 1431 cec5 6930
00000040: 0866 c430 b5e4 a831 9885 8a30 21aa 0131
00000050: 70a8 dd30 f434 1131 f277 7930 552c 0831
00000060: 3b97 2b30 08d9 0031 f081 c130 bb2b 1f31
00000070: cb93 7d31 d9b9 4f31 4a53 0831 c44a d630
00000080: 6e3d 1b32 96d0 d530 3929 aa31 5510 ab31
00000090: 8203 ef31 bd06 5531 31eb 1131 47ec 2231
000000a0: e1b5 9631 f827 a131 f98b f131 d86c 0d32
000000b0: 1311 6531 78f7 b930 0cc4 9e31 0152 3d32
000000c0: 9d89 2431 5808 9931 529f 4631 0f33 a131
000000d0: 07d9 3331 19a9 b431 0dc7 dd30 91e2 a031
000000e0: 2036 5a31 00bd 4131 af73 6032 ae7d e931
000000f0: 5dd2 aa30 9a65 7f30 68b4 0a31 452a 1c30
00000100: b5d8 b230 8023 8a30 d25a 5231 0f51 3d30
00000110: c4b1 a030 d40f 5e30 a71d af30 99ed f830
00000120: 0bce 2c31 ca08 1f31 b53a 8b30 a80c 4230
00000130: e66c 9d30 77b8 9331 cd9d 7c30 3ec1 e330
00000140: 3deb 9430 9b2e f130 a9ac 5230 97ed 1a31
00000150: b899 eb2f 2ee9 bd30 4d84 8230 19cf ec30
00000160: e1ea 7531 931e 4f31 d806 8230 5284 ba30
00000170: b218 9a31 87ed 9330 b723 1831 9d78 e330
00000180: 6a3c aa31 260b 4b30 0ec6 8430 6c0a ed30
00000190: a500 4631 3785 2631 025b b931 bad4 eb31
000001a0: 9c83 4731 1876 7b30 1301 2431 2f10 7a31
000001b0: 0e40 a530 e1b3 4731 c1de 0e31 3212 7631
000001c0: 54b1 1331 e0f0 9731 be6f 1430 9211 6e31
000001d0: f7c5 6d31 81ff 3f31 ceeb d731 1c90 5531
000001e0: 7c64 6330 45de 6b30 7891 a831 0360 4730
000001f0: 637e 2831 f085 2931 511f 8131 feec 4d30
00000200: e8e4 5a30 3d00 7930 19fc fe30 b25b 2831
00000210: 8e1b 8e31 2f07 b331 c514 0731 5831 5c30
00000220: d035 1a31 8313 9431 7028 7030 7277 2731
00000230: f231 df30 5b5b 2f31 a4c6 e030 b8dd 3531
00000240: e4e6 4430 b689 0331 82f9 1631 d41c 8d30
00000250: 07d7 df31 0673 4431 d030 8330 7b67 9f30
00000260: 8569 1131 a86d f32f 4b9b 8d30 5c65 7f31
00000270: b9e7 8a30 722f 1e30 2b41 4330 8870 9430
00000280: e0ae 9f30 8f40 8030 b1e0 de30 111f f730
00000290: 4c35 d330 3102 2230 5b72 ee30 d97e 1331
000002a0: ac1f f42f 68d3 b730 40f3 a830 b2bd ca30
000002b0: 5d13 8c30 cdeb aa30 46a8 d72f 12de 9e30
000002c0: 8517 ed30 6c3e 8230 6eaf 7831 e424 fc30
000002d0: 2602 9430 a42d a230 1551 a230 c34a f22f
000002e0: 378a d230 403b 1f31 7911 c530 e2d8 8e30
000002f0: b612 4430 f7bb e630 54f0 c630 19bc be30
00000300: 66ae c430 ba6e ba30 e517 ef30 2101 f22f
00000310: 43a2 8430 7662 c831 4e50 4930 c885 4a30
00000320: 0a64 9630 3acc 6530 fb15 ad2f ebd4 cd30
00000330: 05d5 1630 2f52 0531 6739 8b30 37b5 2331
00000340: 2ace 3131 b276 5f31 8fc9 2c30 4d96 4230
00000350: 509f d630 40e9 e42f e619 3a30 6ceb 9530
00000360: ce1c 7230 8875 bb2f 4a23 bd2f aa39 1730
00000370: 6b34 8530 234a 0130 6b49 9130 b042 f230
00000380: 0b8c a730 dcb4 8c2f 2d5a b530 f09b 9330
00000390: db21 f42f 6897 7630 ac65 4f30 0231 8630
000003a0: 86e9 7430 8658 8b30 c18f 672f 05b6 b430
000003b0: acb1 dd30 3457 2430 eb89 1a31 7197 5a30
000003c0: 4dec 5c30 b61b 1330 fff6 0d31 7b04 0830
000003d0: d184 9230 ea4b c030 2fa9 e330 1d77 c030
000003e0: a5f3 5030 205c 6330 dc16 d130 0c4d 4530
000003f0: a579 a230 b2cc 2f31 e3b3 ae30 8a6d ac2f
1.4288289e-09 1.0251067e-09 2.2639817e-09 4.645299e-10 1.929804e-09 2.2843214e-09 2.69436e-09 5.5582666e-10
7.912247e-10 1.4021728e-09 1.5881046e-09 1.8672601e-09 2.5552696e-09 4.460506e-09 2.1655087e-09 8.5046004e-10
1.4289876e-09 4.9154445e-09 1.0078791e-09 1.8868678e-09 1.6127739e-09 2.1130377e-09 9.0756125e-10 1.9815805e-09
6.242435e-10 1.874982e-09 1.4079529e-09 2.3162403e-09 3.6900356e-09 3.0228107e-09 1.983795e-09 1.5591799e-09
9.036155e-09 1.5557073e-09 4.9523377e-09 4.9786117e-09 6.9562143e-09 3.099941e-09 2.1233968e-09 2.370841e-09
4.386252e-09 4.6902606e-09 7.029936e-09 8.232028e-09 3.3333591e-09 1.3530856e-09 4.620693e-09 1.1019893e-08
2.3943365e-09 4.4538346e-09 2.8903355e-09 4.6915214e-09 2.6171294e-09 5.2579137e-09 1.613644e-09 4.6823705e-09
3.1753942e-09 2.819263e-09 1.30648194e-08 6.7954806e-09 1.2428917e-09 9.2912844e-10 2.0184192e-09 5.681254e-10
1.3012796e-09 1.0050911e-09 3.0610647e-09 6.887299e-10 1.1692056e-09 8.078562e-10 1.2741354e-09 1.8111904e-09
2.5146416e-09 2.3142541e-09 1.0130267e-09 7.0594774e-10 1.1454204e-09 4.2992343e-09 9.1901314e-10 1.6571347e-09
1.0835276e-09 1.7548304e-09 7.664292e-10 2.2545004e-09 4.2855475e-10 1.3817834e-09 9.496347e-10 1.7230121e-09
3.5785706e-09 3.0139844e-09 9.46069e-10 1.3570889e-09 4.4847974e-09 1.0763167e-09 2.2139213e-09 1.6550704e-09
4.9545195e-09 7.386681e-10 9.660555e-10 1.7246982e-09 2.8813159e-09 2.4231903e-09 5.394555e-09 6.8635844e-09
2.9033123e-09 9.148109e-10 2.3865752e-09 3.6388987e-09 1.2023536e-09 2.906056e-09 2.079034e-09 3.5808054e-09
2.1492115e-09 4.4220627e-09 5.400088e-10 3.4643546e-09 3.460057e-09 2.7939395e-09 6.2841314e-09 3.1077496e-09
8.2724916e-10 8.5808366e-10 4.9059814e-09 7.253222e-10 2.451906e-09 2.4668871e-09 3.7579544e-09 7.491535e-10
7.9633233e-10 9.058601e-10 1.8552583e-09 2.449934e-09 4.1358765e-09 5.2104023e-09 1.9656892e-09 8.0105655e-10
2.2440538e-09 4.309585e-09 8.7368957e-10 2.4369595e-09 1.6239581e-09 2.5517781e-09 1.6354602e-09 2.6465e-09
7.16325e-10 1.9141289e-09 2.1969702e-09 1.0267294e-09 6.5146e-09 2.8587137e-09 9.545378e-10 1.1598184e-09
2.1160258e-09 4.4279358e-10 1.0303237e-09 3.7165e-09 1.0106681e-09 5.754749e-10 7.1033196e-10 1.0800401e-09
1.1618475e-09 9.331574e-10 1.6216487e-09 1.7980445e-09 1.5367418e-09 5.893837e-10 1.7349281e-09 2.146342e-09
4.4405846e-10 1.3375088e-09 1.2292745e-09 1.4751349e-09 1.0191844e-09 1.2436147e-09 3.9227838e-10 1.1559129e-09
1.7250704e-09 9.476486e-10 3.618847e-09 1.8345898e-09 1.0769028e-09 1.1800023e-09 1.1810096e-09 4.4072665e-10
1.5318794e-09 2.3171225e-09 1.4338603e-09 1.0393502e-09 7.1330974e-10 1.6788125e-09 1.4474701e-09 1.387778e-09
1.4310444e-09 1.3564752e-09 1.739633e-09 4.4020346e-10 9.650382e-10 5.83196e-09 7.3237494e-10 7.3677286e-10
1.0942369e-09 8.359994e-10 3.1484135e-10 1.4976228e-09 5.48724e-10 1.9400763e-09 1.0129896e-09 2.382263e-09
2.587408e-09 3.2518241e-09 6.285967e-10 7.079038e-10 1.5615829e-09 4.1638692e-10 6.770321e-10 1.0908088e-09
8.808002e-10 3.4098613e-10 3.4403974e-10 5.5015426e-10 9.691922e-10 4.703528e-10 1.0571005e-09 1.7626771e-09
1.2190652e-09 2.559436e-10 1.3195113e-09 1.0739978e-09 4.4407397e-10 8.970944e-10 7.5450646e-10 9.763712e-10
8.909854e-10 1.0138741e-09 2.1060399e-10 1.3148457e-09 1.6130364e-09 5.9786776e-10 2.2488347e-09 7.952315e-10
8.037134e-10 5.351767e-10 2.0658601e-09 4.948288e-10 1.0660647e-09 1.3991415e-09 1.6564509e-09 1.4003693e-09
7.60162e-10 8.2713036e-10 1.5213248e-09 7.177767e-10 1.1821625e-09 2.5582207e-09 1.2711293e-09 3.136445e-10

exp_avg f4 [30]
00000000: 1747 c92d 36fa 842e a0b9 112c f810 a5ad
00000010: 4894 32ae ec41 96ae 161e 852e 6730 90ac
00000020: 60fa 00ae a4b5 33ae a611 66ae 7d7d 40ad
00000030: d013 132e fb70 b82c 89e7 432e a47d f82d
00000040: 5d4b 922c b743 4aae 06fd 992c f239 5eae
00000050: 6bad 55ae ae2e d32d b202 f6ad 9092 88ad
00000060: ebf8 522e b79e 42ad a12e a2ab 7dfc ffad
00000070: bea6 11ae dbd9 c8ad
2.2882625e-11 6.0471114e-11 2.0708782e-12 -1.8765864e-11 -4.0604214e-11 -6.83292e-11 6.053484e-11 -4.0981e-12
-2.9326208e-11 -4.0861217e-11 -5.231162e-11 -1.09418e-11 3.3441527e-11 5.242138e-12 4.454351e-11 2.8250131e-11
4.1579366e-12 -4.5989625e-11 4.376613e-12 -5.052842e-11 -4.858462e-11 2.4008653e-11 -2.7968159e-11 -1.5526497e-11
4.7969555e-11 -1.1062865e-11 -1.1523734e-12 -2.9102271e-11 -3.311728e-11 -2.2834115e-11

exp_avg_sq f4 [30]
00000000: 3bac b427 448f cb27 c3d9 5d28 65dd 8327
00000010: 4991 2a28 bf46 9c28 4864 0a27 a050 2c27
00000020: 3cac a727 8152 7627 f103 4d26 0f07 3928
00000030: 3ee7 b726 b1a2 8423 cd13 3024 e12a 8227
00000040: 93c1 4227 c267 2728 a658 7228 79a2 0b26
00000050: e82e 0928 918d 3d27 0e51 bb27 3b6c 3928
00000060: f415 2728 add3 5828 6c3e 2425 f8b1 0425
00000070: 8a9a 5428 2676 ba22
5.014677e-15 5.6499147e-15 1.2315184e-14 3.659984e-15 9.468399e-15 1.735016e-14 1.920571e-15 2.3913502e-15
4.653855e-15 3.4184083e-15 7.1129004e-16 1.02710936e-14 1.2760854e-15 1.4380371e-17 3.818069e-17 3.6128738e-15
2.7027845e-15 9.292861e-15 1.3452921e-14 4.8445504e-16 7.615199e-15 2.6305762e-15 5.1990806e-15 1.0293032e-14
9.275123e-15 1.20363085e-14 1.4245882e-16 1.1509473e-16 1.1801874e-14 5.0540496e-18

exp_avg f4 [5, 30]
00000000: 66f2 8e37 1397 ae37 4b17 d6b6 96cc 60b7
00000010: 932d 41b7 c7f4 1bb7 12ce c337 c96e c836
00000020: 3655 27b6 babe a0b7 73ac 62b7 8373 b236
00000030: b78c 1fb7 ef2d 5e37 3cfc 4cb3 ce52 5735
00000040: e770 f9b5 6aa6 b5b7 7390 8b37 8595 6ab7
00000050: bc5f 84b7 800f 8737 6ea3 14b7 fd9c 1db7
00000060: 05ae 7237 e567 85b7 0159 c6b6 9770 4c36
00000070: a242 0e37 b3c3 a635 968d db36 8d8a 13b8
00000080: 03c4 c9b7 b7c4 f7b7 6707 0638 d75c 6838
00000090: 663b 0737 6443 3b38 0789 0538 f4bf 9635
000000a0: d813 9737 d05d d637 ca10 8eb8 8abf 7e38
000000b0: 8732 73b8 18a4 7bb8 8b99 b6b7 b4d1 0637
000000c0: 87cb 0d38 2ca7 5b38 bb7d 4b38 d95a 5838
000000d0: b239 0f38 fed1 1436 997b eeb7 7100 2ab7
000000e0: c522 f136 aa08 7138 e571 8c38 48b8 0438
000000f0: 0f76 4838 bd55 4238 5475 9a37 a43b 7338
00000100: b6aa 81b8 3591 71b8 8552 82b5 cbbe 37b8
00000110: 4fa5 33b7 1895 e6b7 868d fe37 f557 16b7
00000120: 32d1 ac37 c0af 4ab8 bb10 2d37 bd8a 8038
00000130: 5206 8738 8733 a7b7 370e 9b36 926c 7bb8
00000140: 6124 9db8 bb97 3db8 080b 7ab8 7902 69b7
00000150: 02e5 8237 da7e 1fb8 2165 61b8 f5d9 9db7
00000160: 0728 1bb8 f950 9f37 9f1e 2a34 54a7 4cb8
00000170: f207 4838 a91a beb5 d6af 4737 2f31 89b7
00000180: e3a3 0db8 0671 02b7 3a00 d937 f2f9 3a37
00000190: 5034 92b7 2cf2 f937 b1fc e737 3bed 28b8
000001a0: 18f0 1f38 5e78 0d38 d0b3 4e37 7320 5737
000001b0: 992f a5b5 bdee 3e37 a23b 7737 0cae 51b8
000001c0: 5535 4ab7 2802 10b8 f8a0 36b8 1a90 ce34
000001d0: 7303 c3b7 cae7 35b8 cd5a 39b8 14fd 6c37
000001e0: ccca 2139 586b 9e38 647b 6eb8 1a5a ab39
000001f0: 2492 27b9 6372 3637 f05e b3b8 64ab ccb8
00000200: 7856 eb37 407e a1b7 a97e cf39 7ff4 8db8
00000210: 30f6 0eb9 22c1 32b8 f6a7 88b9 9786 9637
00000220: 18fb 8939 6f61 9138 8948 dc37 1e15 4db8
00000230: eb8e 17b9 e376 7fb8 9b88 d0b8 bf2b c738
00000240: 1e23 1fb8 7930 03b9 6ce5 32b9 0626 5339
00000250: c746 c438 895c 4a39
1.7040595e-05 2.0812766e-05 -6.3804086e-06 -1.3399074e-05 -1.15143075e-05 -9.295712e-06 2.334177e-05 5.9733616e-06
-2.4934538e-06 -1.91623e-05 -1.3510801e-05 5.3182607e-06 -9.509901e-06 1.3242926e-05 -4.7726857e-08 8.021424e-07
-1.8584805e-06 -2.1654374e-05 1.6637356e-05 -1.39823e-05 -1.5780206e-05 1.6100472e-05 -8.859539e-06 -9.394481e-06
1.4464841e-05 -1.5903215e-05 -5.9112213e-06 3.0463905e-06 8.479374e-06 1.242492e-06 6.5431914e-06 -3.5176567e-05
-2.4052342e-05 -2.9536297e-05 3.1954984e-05 5.5399574e-05 8.060457e-06 4.4647037e-05 3.1837288e-05 1.1231737e-06
1.8009843e-05 2.5554473e-05 -6.774215e-05 6.0736704e-05 -5.7982772e-05 -5.9995888e-05 -2.176759e-05 8.035848e-06
3.380657e-05 5.236936e-05 4.8516067e-05 5.158302e-05 3.414759e-05 2.217595e-06 -2.8429366e-05 -1.0132892e-05
7.1864074e-06 5.7466947e-05 6.696935e-05 3.1642878e-05 4.7793666e-05 4.6333054e-05 1.8412866e-05 5.799126e-05
-6.182997e-05 -5.7594112e-05 -9.709771e-07 -4.380829e-05 -1.070772e-05 -2.7487564e-05 3.0345062e-05 -8.961176e-06
2.0601412e-05 -4.8324233e-05 1.0315499e-05 6.129358e-05 6.438479e-05 -1.9931946e-05 4.621015e-06 -5.9944177e-05
-7.4931195e-05 -4.520242e-05 -5.961492e-05 -1.3888458e-05 1.5603848e-05 -3.8026694e-05 -5.3738364e-05 -1.8817353e-05
-3.6992158e-05 1.8991983e-05 1.5843624e-07 -4.8793227e-05 4.7691115e-05 -1.4163862e-06 1.1902264e-05 -1.6354576e-05
-3.376965e-05 -7.774919e-06 2.5868521e-05 1.1144659e-05 -1.7428916e-05 2.9795883e-05 2.7655014e-05 -4.027526e-05
3.813216e-05 3.372912e-05 1.2320423e-05 1.2822554e-05 -1.2307311e-06 1.1380468e-05 1.4736232e-05 -4.9991577e-05
-1.2052556e-05 -3.4334284e-05 -4.3542095e-05 3.8475338e-07 -2.3247418e-05 -4.3369633e-05 -4.4192002e-05 1.41256205e-05
0.00015429704 7.5540214e-05 -5.685854e-05 0.00032682793 -0.00015980803 1.0874678e-05 -8.5530686e-05 -9.759402e-05
2.8054448e-05 -1.9251485e-05 0.00039576486 -6.768945e-05 -0.00013633887 -4.2618376e-05 -0.00026065082 1.7944067e-05
0.00026317756 6.932287e-05 2.625982e-05 -4.8895476e-05 -0.00014453723 -6.090746e-05 -9.943658e-05 9.497208e-05
-3.794126e-05 -0.00012511191 -0.00017060869 0.00020136693 9.3591916e-05 0.00019298693

exp_avg_sq f4 [5, 30]
00000000: a72c f931 9539 3832 dea3 ee31 1735 3132
00000010: 1f73 7931 0333 f330 76e7 1632 04f0 0b31
00000020: 3113 d331 9ac7 2b31 4840 2b32 7cbe b331
00000030: 37c1 bc30 95e2 e731 e806 f330 ea2c a431
00000040: f7a3 4d32 44e7 7831 7172 5931 a29e 3e31
00000050: a7cd 9b31 a025 4832 02c9 9d31 cbe5 ac31
00000060: fce1 5532 94af bb31 00c0 5732 bb11 d930
00000070: 2c74 4231 0adf 3332 d9d8 2032 3279 3132
00000080: 6655 a830 9033 9a31 da1d d731 a96f ef31
00000090: 9ae0 4031 95ca 8f31 12a1 ca31 581e ab31
000000a0: 98ee 0631 aef3 0132 349f f131 46e6 8831
000000b0: 4063 3f31 57aa bf31 0f3c 7431 76a4 9f31
000000c0: 4ce3 1232 3364 1d32 67e7 3a32 0bff 2431
000000d0: 6ba2 c431 d086 d131 5072 e731 223d 0532
000000e0: de6e e331 a849 2531 048a 8831 2c8f df31
000000f0: 1c20 3632 3a4b d131 7cc1 0832 a74f 9c31
00000100: 3c7d 8931 271f 1132 9f99 c331 a6f1 7931
00000110: d4ff 4731 3a07 e431 6fc3 d331 a5ff f331
00000120: 2d48 4432 6b84 3b32 faf5 4432 d4e7 3932
00000130: 6d24 3331 4d73 d831 92df 2932 cebb a331
00000140: ce1a de31 de6c 4032 06e5 d431 e770 3732
00000150: 10c6 5a31 d56e 1932 7478 f231 4c45 5332
00000160: 2204 6732 2485 8331 1342 2a32 8926 5432
00000170: 9b09 3932 1046 8b31 eb76 1531 1fb7 a531
00000180: ed16 1f32 1190 9330 35c9 f931 ee75 c731
00000190: 07f6 9f31 a7e9 3932 1df2 f930 39e2 e931
000001a0: 1f3e 4231 9e62 fc31 b4be a131 61a6 ee31
000001b0: 01ba 0432 9ee0 6031 96c3 8831 e6b5 4732
000001c0: 0a61 bd31 1362 7132 8da5 5b32 2983 0b32
000001d0: 296d 5132 eaf6 9a31 c91c ba31 2c2c 0032
000001e0: 1b08 e332 b3b7 8f33 2ecd 8732 97b5 0333
000001f0: 5d6c 1f33 de81 1032 2077 9032 d623 a231
00000200: dfb0 0c32 6c3a 8e32 7766 3033 b03b 4a32
00000210: a3cd 4232 2eff 9031 fd9f eb32 83db 8631
00000220: b833 c732 c413 6932 639b dc31 4985 f732
00000230: bb59 5d33 b8f4 1332 a617 7532 8da7 2932
00000240: 5c27 e632 8803 a732 784e 5532 a50f c232
00000250: 38a7 4132 4e50 1432
7.25193e-09 1.0723302e-08 6.945341e-09 1.0314827e-08 3.6299708e-09 1.7695075e-09 8.783777e-09 2.0363595e-09
6.14309e-09 2.4997235e-09 9.968126e-09 5.231241e-09 1.3733715e-09 6.7487442e-09 1.768254e-09 4.7781343e-09
1.1969852e-08 3.622021e-09 3.1642708e-09 2.7738811e-09 4.5344737e-09 1.1650087e-08 4.5921533e-09 5.0319833e-09
1.2449615e-08 5.462377e-09 1.2558303e-08 1.5793867e-09 2.8296752e-09 1.04698845e-08 9.362531e-09 1.0330313e-08
1.224788e-09 4.487852e-09 6.2607173e-09 6.9685098e-09 2.8067348e-09 4.1848787e-09 5.8972853e-09 4.9802047e-09
1.9635191e-09 7.564195e-09 7.0321224e-09 3.9843e-09 2.7850575e-09 5.578197e-09 3.5540813e-09 4.646206e-09
8.55e-09 9.161385e-09 1.087924e-08 2.4010116e-09 5.7228156e-09 6.098027e-09 6.7359807e-09 7.755519e-09
6.6191737e-09 2.4052529e-09 3.9738115e-09 6.506431e-09 1.0601095e-08 6.091253e-09 7.960235e-09 4.549253e-09
4.0014623e-09 8.447194e-09 5.6927116e-09 3.637163e-09 2.9103733e-09 6.636495e-09 6.1631265e-09 7.101294e-09
1.1425112e-08 1.0914941e-08 1.146463e-08 1.0821129e-08 2.6068634e-09 6.2995356e-09 9.887929e-09 4.7652753e-09
6.4640977e-09 1.1200624e-08 6.196049e-09 1.0677673e-08 3.183576e-09 8.930972e-09 7.056821e-09 1.2297573e-08
1.3446909e-08 3.827738e-09 9.910326e-09 1.2348786e-08 1.0770601e-08 4.0533976e-09 2.174995e-09 4.8229505e-09
9.260231e-09 1.0736604e-09 7.2697284e-09 5.8050693e-09 4.655479e-09 1.0821544e-08 1.8185947e-09 6.806911e-09
2.8266027e-09 7.3453768e-09 4.707397e-09 6.9456267e-09 7.725704e-09 3.272397e-09 3.9803565e-09 1.1624683e-08
5.511656e-09 1.4050346e-08 1.278512e-08 8.120687e-09 1.2190221e-08 4.5100608e-09 5.416585e-09 7.460624e-09
2.6429964e-08 6.692371e-08 1.5809373e-08 3.066597e-08 3.7118628e-08 8.4114316e-09 1.6817978e-08 4.7188946e-09
8.189288e-09 1.6557543e-08 4.1071385e-08 1.1771519e-08 1.1339043e-08 4.219962e-09 2.7430355e-08 3.924869e-09
2.3190168e-08 1.3566879e-08 6.420508e-09 2.8815196e-08 5.153718e-08 8.612169e-09 1.4266254e-08 9.875191e-09
2.6793423e-08 1.9442965e-08 1.24160735e-08 2.2591687e-08 1.12721e-08 8.632993e-09

exp_avg f4 [5]
00000000: e2f7 91ae 8cd8 422e 9085 a2ae 0866 892e
00000010: 1749 512c
-6.6378694e-11 4.4302825e-11 -7.3906326e-11 6.248163e-11 2.974126e-12

exp_avg_sq f4 [5]
00000000: 7be7 e827 3a6a 2625 f0e3 1a25 bbbf 1c28
00000010: 921e 6024
6.4643907e-15 1.4434196e-16 1.3434599e-16 8.7013145e-15 4.859815e-17
